model/DQNAgent2_20-08-2022__23-21-37.pth/DQNAgent2_20-08-2022__23-21-37_iter_30.pth (torch, 826191 bytes, 8 tensors)

network.0.weight f4 [256, 27]
00000000: 6dd7 98bd 37fa 79be d888 413e 1732 a93d
00000010: c98f 153e 82bb 9fbe d117 d0bd 9512 e0bd
00000020: 83fe 1cbe 731b 5e3d c744 53be 2525 da3d
00000030: 0579 d83c fe44 36be 1f03 e9bd eaf0 923d
00000040: 41cc 70be d051 61bd 3127 3fbe 7572 373e
00000050: 7e8a e13d 9cb9 2bbe 69c0 053e b440 60bd
00000060: a56b 7fbe c8df 8bbd 32a2 31be 4d85 1ebe
00000070: 747e 3cbe eb35 41be d7b3 b0bd 1c97 75be
00000080: 47bd 663d b25d 013e d030 f03d 6e6c 17bd
00000090: 80c0 60bc df82 69be c69d 75bd 6db6 83bd
000000a0: 571a c73d 1512 13be 8a45 1dbc 0fb7 fbbd
000000b0: 7e87 d0bd b3be d13d cd5c 143e 7f4e aebd
000000c0: 5081 14be 90b8 1bbd f39f 073e c2cd d63d
000000d0: 2d6d 383e 328d cc3d 807f 51bb f3f1 3abe
000000e0: af0d 173e 1814 a03c c60b c53d 99ee 233e
000000f0: 183c 7dbd 0153 413e a025 4b3c 048c 6dbd
00000100: 7742 283e bfe8 a1bd 3991 97bd a45f 43bd
00000110: 0f74 323e f069 f93c b9ac 3ebe 16f0 d9bd
00000120: 75a6 8fbd 7498 6f3d 96ac c63d 002d d13c
00000130: b20f d73d 4c1c 343d 5e4b 3ebe 6ea9 1bbe
00000140: 415a 243e 9d6c 27be 64f1 09bd 5a76 8ebd
00000150: 61b0 183e 604e c1bd 57f7 b9bd f2b2 eebd
00000160: 1597 163e 427a 8b3d 20f2 10bc 1a33 c2bd
00000170: f67a 2ebe f697 9b3d ca2a d0bd 783e 00be
00000180: 7084 50bc b2cd 903d 3728 bcbd 15ae 0bbe
00000190: 08b8 b1bd 65df 0f3e 822e a13d 075f 24be
000001a0: e6a5 25be 422f c6bd 15b5 0c3e ae1d 923d
000001b0: 38bf 8ebd 70f9 1c3d f4f6 a7bc ba77 31b9
000001c0: 5f52 d33d c8e2 abbd b4fa e83d 5cc2 f2bc
000001d0: f290 b8bc defb 19be f048 db3d da16 b2bd
000001e0: 0382 c7bd badb 09be 0224 d1bb 7b83 07bd
000001f0: 1863 bf3d 32c5 93bd e68f 60bd 67f4 1c3e
00000200: 1a6c 0cbe fd52 29be c8b0 d23c efbd 0cbe
00000210: 5931 a2bd d8ab f6bd 8eef ff3d ea0c ff3d
00000220: 1e53 17bd 8781 c3bd cbc6 d4bc ba60 54bd
00000230: ecb0 b23d 457e 18bd 0703 96bc ea18 5ebe
00000240: f68f 4abe 7997 fa3d 8139 0cbe 8721 9b3d
00000250: e468 3cbe f4c9 eb3d 3766 e7bd c1b3 72be
00000260: 5e25 93bd 227b fa3d ae7e 9fbd b0d7 32bd
00000270: 2e8a fabd eea2 b33d c289 cf3d ee22 c53d
00000280: 460c f9bd 207c 54bc 93e1 433e a6ec 973d
00000290: da0c aa3d a0bf 18bd bea8 38be 9c0e 39be
000002a0: ca49 d4bd c049 b03c 26d2 83bd ed1d c1bd
000002b0: 9c55 23bd 6f86 0a3e 9601 92bd e81c 86bd
000002c0: ca98 b9bd d510 aebd 3e6a 3bbe 10aa 17bc
000002d0: dac3 15be c65c c13d 65a9 21be a902 dabd
000002e0: 8c79 2b3d 99d9 3ebe a80e 26be 9e6f 41be
000002f0: 08ca edbd ef45 84be a4d2 603d 97ec 01be
00000300: 2c52 e0bd 35a3 7cbe 5292 30be 4615 1abe
00000310: 22cd 87be 0e6e efbc 09f3 33be b354 38bd
00000320: 5cc3 41be 2564 33be 94e9 26be 74cb 7ebe
00000330: 7e38 37be e2ec cb3d 662f 1dbd 50c7 9e3d
00000340: 06de 21be 390d 30bd 6971 383e e118 013e
00000350: 40e0 36bc 408e aabb 41c3 163e 7c5f b5bd
00000360: 5552 bbbd 6636 1dbe 013c d93c e7f4 6f3d
00000370: 74de d8bc 5d5f 86bc 5002 d2bc c845 63be
00000380: ba91 fabd 0553 543d f515 ef3b b915 af3d
00000390: 8a81 b4bd 1c95 743d 4322 8dbd a503 08be
000003a0: 7e5d a9bd 132a c33d 8a98 04be b6c9 c03d
000003b0: 4775 61bd 6dca 1bbe 9244 e73d 36d0 aabd
000003c0: 15d8 153e 60ce 9bbd 3825 0cbd 08be ef3c
000003d0: a59d 3e3e 0c18 063e 7f24 b9bd c79c 183e
000003e0: db32 543d 5992 a33d e7c2 643d ad72 7bbe
000003f0: dc3a 883d 0c95 acba b60b 54be 0dc4 8e3d
-0.07462964 -0.24411856 0.18899858 0.08261507 0.14605631 -0.31197745 -0.101607926 -0.10941044
-0.15331464 0.054225396 -0.20631705 0.10651616 0.026424894 -0.17799756 -0.113775484 0.07174857
-0.23515417 -0.055009663 -0.18667294 0.17914756 0.110127434 -0.16770023 0.1306168 -0.054749206
-0.24943407 -0.06829792 -0.17347029 -0.15480538 -0.18407613 -0.18868224 -0.08628052 -0.23983425
0.056332853 0.12633398 0.1172806 -0.03696864 -0.013717771 -0.2280383 -0.059964918 -0.06431279
0.09721821 -0.14362366 -0.009599099 -0.12290775 -0.10182093 0.10241451 0.14488526 -0.08511066
-0.14502454 -0.03801781 0.1324461 0.10488464 0.18010397 0.09987868 -0.0031966865 -0.18256359
0.14751314 0.019540831 0.09621386 0.16008987 -0.061824888 0.1887932 0.012399107 -0.057994857
0.16431604 -0.07905721 -0.07400746 -0.047698632 0.17427085 0.030446023 -0.18620576 -0.10641496
-0.07014171 0.058495 0.09700887 0.025534153 0.105010405 0.0439723 -0.18583438 -0.15201351
0.16050054 -0.16350026 -0.033677474 -0.069561675 0.14911033 -0.09438777 -0.090803795 -0.11655225
0.1470607 0.06810428 -0.00884679 -0.09482403 -0.17039093 0.075973436 -0.10164411 -0.1252383
-0.012726888 0.07070483 -0.09187358 -0.13640626 -0.08677679 0.14050062 0.07870199 -0.16051875
-0.16176566 -0.096769825 0.13740952 0.07134567 -0.06970066 0.03832382 -0.020503499 -0.00016924637
0.103184454 -0.083928645 0.11375943 -0.029633693 -0.022530053 -0.15037486 0.10707271 -0.08695765
-0.09741595 -0.13462725 -0.0063824663 -0.033084374 0.093450725 -0.072153464 -0.054824732 0.15327607
-0.13713112 -0.16535564 0.025719061 -0.13744329 -0.079195686 -0.12044495 0.12496863 0.12453635
-0.0369445 -0.0954619 -0.025973698 -0.05185006 0.087251514 -0.037229795 -0.01831199 -0.21689191
-0.19781479 0.12235922 -0.13693811 0.07574754 -0.18399388 0.11513129 -0.11298793 -0.23701383
-0.071848616 0.12230517 -0.07787834 -0.043662727 -0.12233387 0.08771311 0.10133697 0.09625803
-0.12160544 -0.012969047 0.19129018 0.07418184 0.083032325 -0.037292123 -0.1803312 -0.1807198
-0.10365637 0.021519542 -0.06436567 -0.09429536 -0.039876565 0.13527845 -0.07129209 -0.06548482
-0.09062345 -0.08499304 -0.18302247 -0.009256855 -0.14625493 0.09441523 -0.15787275 -0.10645039
0.041863963 -0.18637694 -0.16216528 -0.18890235 -0.116108 -0.25834605 0.054888383 -0.12687908
-0.10953173 -0.24671634 -0.17243317 -0.15047178 -0.2652369 -0.029227283 -0.1757318 -0.04500265
-0.1892218 -0.17518671 -0.1630004 -0.24882299 -0.17892644 0.09957291 -0.03837528 0.077528596
-0.15807351 -0.04298136 0.18012013 0.12607147 -0.011161864 -0.005204946 0.14722921 -0.08856103
-0.09146563 -0.15352783 0.02651787 0.058583166 -0.026473261 -0.016402895 -0.025635868 -0.22194588
-0.122348264 0.051836986 0.0072963187 0.08549065 -0.0881377 0.059712514 -0.068913005 -0.1328264
-0.08269785 0.095295094 -0.12948814 0.09413473 -0.055043485 -0.15213938 0.112923756 -0.08340494
0.1463321 -0.07607722 -0.034215182 0.029265419 0.18614824 0.1309511 -0.09040164 0.14903556
0.051806312 0.07986898 0.055849936 -0.24555464 0.066518515 -0.0013166978 -0.20707592 0.069709875

network.0.bias f4 [256]
00000000: 1571 60bd 4d99 b33d 2cdc 26bd 66b0 ba3d
00000010: d5d1 36be 6141 483c 03e2 32be 3671 6abe
00000020: f708 bebd 6899 583d 9bfa e13d 3c75 bfbd
00000030: 9811 a33c 10bf d1bd 2808 643d 8a4b 893c
00000040: c504 70be 2cbd 7e3d a9b8 fc3d 0a5b 5b3d
00000050: 6703 b1bd d2d5 e63d 6e4c 8abd 76ef 503d
00000060: 86c2 ea3d 33b6 28be ef0a 903d f61d a93d
00000070: ce29 06be e8c8 a5bc 5aaa 7ebd 4091 40bd
00000080: b03d 793c 293a 8b3d 9567 7d3a d40e 1b3e
00000090: 211d 1abe 425b 3b3c fc9d e0bd e5e5 50be
000000a0: 7d0a 613c 4722 323e ac02 173e 01ea 92be
000000b0: 8a0d 53be 9474 c5bd 1ed9 52be ccf9 6abd
000000c0: 948e b2bd d5d0 f1bd af0b bf3c f8af 25bd
000000d0: 4ed5 7d3d 2520 9ebb 136c 3cbc cbc1 a2bd
000000e0: 8307 bfbd d7b0 bbbd df22 413d 9cc9 51be
000000f0: b073 42bd b95f d13d 53a4 08be c6ea 103e
00000100: 9f71 88bd db31 39be 65fa 3dbe 46e2 b03d
00000110: 9480 54be db07 b2bd cdf4 1cbe fef0 e7bd
00000120: 4d93 36be 00ff 6ebb 64a7 2cbd c0d5 f7bb
00000130: c94b 363e 89be c6bd 605d 43bc a07c 253d
00000140: 4d91 e13d 4363 44be 9beb 213e 98f9 99bd
00000150: 9ebe 8ebb d2ea 29be b611 adbc 3306 d03d
00000160: e0a8 3ebd 2b15 0dbe 10d1 9fbc 8b80 fd3b
00000170: 6572 353e cf25 f7bd 38f0 233e 5139 88bd
00000180: 4c05 af3d c046 0d3c 955e 1e3e d5fc 123e
00000190: dbe3 d33d f277 e93d a920 89bd b441 613d
000001a0: 58de abbd f2a0 bebd 9483 1cbd 335e 73bd
000001b0: c831 abbd f019 68bc 1789 dbbd b11b 8c3d
000001c0: 3558 0bbe f023 4bbe 2463 5abd 5876 4cbe
000001d0: 6f64 68be 8b42 ea3d 6f29 d9bd 49c2 f33d
000001e0: 0d6c 91bd acb5 81bd d80e 0ebe 78f3 18be
000001f0: f5e2 f9bc d854 55be 7ef6 69ba 3dd5 72be
00000200: 12ef 34be 6034 93bb 688f 7abd 2be3 3cbd
00000210: 70bd 59be cc76 e63d 3a31 a0bd e44f 22bc
00000220: 3b94 6abe ff1e 42bd 30b3 65be e3e7 2bbe
00000230: 360f e83d 6b29 873d 832a 24be 7b33 51bd
00000240: 58be 303d 805f c1bb fc4a 03be c1e6 6f3c
00000250: 18f2 1cbe 6e05 92ba d286 b6bd 73f4 4fbe
00000260: 66ba 70bd bf80 a6bd 92aa ca3d da9c fc3d
00000270: d240 553d 6e28 a83d 0536 49bd 4ade 24be
00000280: 300f ae3d 23f8 04be 4781 94bd e53f 40be
00000290: 1f9e e7bd fea8 a63c a024 bd3d 7518 57be
000002a0: e3a9 56be 9f4a 3dbd 2419 1cbe b127 0e3e
000002b0: 0e2f 6bbc 64d1 59be a5aa a23d 1921 a3bd
000002c0: 8270 da3c 79af 28bd ac3c cdbb 78e1 ecbd
000002d0: ed43 03be 4a04 e33d aeb6 913c 4a54 1bbe
000002e0: 27e2 5cbe 32db 913d 01e3 66be a18b 90bd
000002f0: 09ef ec3d 5be5 a63c 5c27 2dbe acf4 1f3d
00000300: 6097 30be db60 c6bd 1114 db3c 6b3c cd3d
00000310: 4ac2 26bc fd52 883e 8ffc a43d 7a80 a5ba
00000320: 2bbd c8bc 2a5d ffbc 6282 273d 930d 6cbe
00000330: 82c0 e73d a025 2fbd 86a2 983e d571 763c
00000340: 6764 64be dae5 fe3d 8a91 76bd baab 14be
00000350: 6631 40be d09a 5bbe b6e3 ab3a 510e 133e
00000360: 6dcf 36be 492b 07be 85a9 1bbe f4ff e73d
00000370: aaa8 0c3d 80c4 47be 7a15 e73d f321 65be
00000380: 159b 1c3d f1c0 14be 450e 22be e735 b23d
00000390: f024 c63c 0cc1 12be 73b1 753d 44ba 5abe
000003a0: fbda a93d 091f afbd 55c4 9f3d 8f99 f4bd
000003b0: d1bd 21be af3d f0bd d706 013e 5c19 66be
000003c0: 4441 ce3d 00cd c7bd b4a2 5e3d d98a 023d
000003d0: ccae 52be 61c8 bc3d ef42 14bd d02d a2bd
000003e0: c491 14bd 158d 3bbe 23f7 6fbe ea43 05bd
000003f0: c15f b73d 8f26 59be a710 063e 8809 b3bc
-0.054795343 0.08769474 -0.040737316 0.091156766 -0.17853482 0.012222619 -0.17469029 -0.22894749
-0.09279054 0.052880675 0.11034127 -0.093485326 0.01990585 -0.102415204 0.05567184 0.016759653
-0.2343932 0.062192127 0.12339909 0.05355362 -0.08643227 0.11271252 -0.06752859 0.051009618
0.11462884 -0.16475753 0.070333354 0.08257668 -0.13101885 -0.020237401 -0.06217418 -0.04701352
0.015212461 0.067982025 0.0009666619 0.15142375 -0.15050174 0.011435332 -0.10967633 -0.20400198
0.013735411 0.17395888 0.14747113 -0.28694156 -0.20610633 -0.09641376 -0.20590636 -0.05736713
-0.08718601 -0.1180741 0.023321 -0.04045102 0.061971 -0.0048256093 -0.011500376 -0.07947119
-0.093276046 -0.09164589 0.047152396 -0.20487064 -0.04747361 0.10223336 -0.13343935 0.14152059
-0.066622965 -0.18085425 -0.18552549 0.08636908 -0.20752174 -0.086929046 -0.15327759 -0.113252625
-0.17829628 -0.003646791 -0.042151824 -0.007563323 0.17802347 -0.097043104 -0.011924118 0.040402055
0.11014042 -0.1917849 0.15812533 -0.07518309 -0.0043562194 -0.16593483 -0.02112661 0.101574324
-0.04654777 -0.13777606 -0.019508868 0.007736271 0.1771942 -0.12067758 0.16009605 -0.06651557
0.08545932 0.008622825 0.15465768 0.1435426 0.10346194 0.11399831 -0.066956826 0.0549943
-0.08392018 -0.09308042 -0.03821142 -0.059416007 -0.083591044 -0.01416634 -0.10719507 0.06841219
-0.13607867 -0.19837928 -0.053317204 -0.1996702 -0.22694562 0.11438473 -0.10603606 0.11902291
-0.07100687 -0.06333479 -0.1387285 -0.14936626 -0.03050373 -0.20833147 -0.0008924975 -0.23714156
-0.17669323 -0.0044923276 -0.06117192 -0.04611508 -0.21263671 0.112531275 -0.07821889 -0.009906743
-0.22908108 -0.04739284 -0.22431636 -0.16787677 0.11331026 0.06599697 -0.16031842 -0.051074486
0.043150276 -0.005901277 -0.12821573 0.014642418 -0.15326726 -0.0011140534 -0.08912434 -0.20308094
-0.058771513 -0.08130025 0.09895815 0.123346046 0.05206377 0.08210836 -0.049123783 -0.16100422
0.084989905 -0.12985282 -0.0725122 -0.18774374 -0.11309456 0.020344254 0.09235501 -0.21005423
-0.20963244 -0.046213742 -0.15243965 0.13882329 -0.01435448 -0.21271282 0.07942704 -0.07965297
0.026664976 -0.04118297 -0.006263336 -0.11566442 -0.1281888 0.110848024 0.017787304 -0.15168872
-0.21570645 0.07121886 -0.22547533 -0.07057882 0.1156903 0.020373037 -0.16909546 0.039051697
-0.17245245 -0.096864425 0.026742967 0.100212894 -0.010178158 0.26625815 0.08055984 -0.001262679
-0.024504265 -0.031172354 0.040895827 -0.23052053 0.11316015 -0.04276049 0.29811496 0.015041788
-0.22303925 0.124461845 -0.06019739 -0.14518633 -0.18768844 -0.21445775 0.0013114128 0.1436093
-0.17852564 -0.13200106 -0.15201385 0.11328116 0.034340538 -0.19508553 0.11283393 -0.22376232
0.038233835 -0.14526726 -0.15825756 0.08701687 0.024187535 -0.14331454 0.059983682 -0.21360117
0.0829372 -0.08550841 0.07801119 -0.119433515 -0.15795065 -0.11730515 0.12600265 -0.22470611
0.10071042 -0.097558975 0.054354385 0.031870697 -0.20574492 0.09217907 -0.036196645 -0.07918894
-0.036271825 -0.18315537 -0.23434119 -0.03253547 0.089538105 -0.21206115 0.1309229 -0.02185513

network.2.weight f4 [512, 256]
00000000: e326 20bd bd9d 0ebd 7a06 0abd 9436 59bd
00000010: 5eb8 8abb bc4a cebc faf9 653d e8e9 3c3c
00000020: 9e1e 82bd a517 c2bd 12e2 2ebd dc8d 7fbd
00000030: 70fe 743c 1d97 26bd f059 2abd 9e59 783d
00000040: 1c57 04bd 80b9 12bb 00ab 5f3c 26df 003d
00000050: ae43 82bc cce1 5cbd 1f22 84bd da07 4bbd
00000060: b2fd 06bd f040 bfbd 5a1e 86bd 7043 8abb
00000070: 30e5 6f3c 002a abba 773b bcbd 0881 68bd
00000080: fe86 673d 395f 96bd a31b fabc 76d9 74bd
00000090: c67d 9fbc efd3 6dbd b88d 1ebd 5646 b7bc
000000a0: ba90 b6bd 4023 283d ab52 cdbd 6c6a 9cbd
000000b0: 0930 8dbd 3ecc d9bd 2310 0dbd 1899 79bd
000000c0: e08c 8abb 4ae7 dcbd 5898 c7bd 30f4 963c
000000d0: baf2 97bd 8e98 b8bd 0ca9 09bd 7410 a73c
000000e0: fc15 9fbc a2fe b6bd 1da5 01bd 7820 1d3c
000000f0: c04e ae3c ee16 cfbd b2a7 cfbb 1342 f9bd
00000100: 0356 14bd f666 b5bd 70d9 afbd d5c6 25bc
00000110: 7b6f cabb 5c2e bf3c 58c3 f1bc 8543 6cbc
00000120: 8081 abba 609a 28bc 00a4 2e3c 7c72 d33c
00000130: a887 1a3c 0ceb 83bc a210 3f3d 70bc 21bc
00000140: ccd3 2e3d a6bf f1bd f0fa 383d 05be f3bd
00000150: 685a 623d 40bd 803b 4886 babc c2aa 1abd
00000160: 38fe 6e3c eb38 89bd 2a5e 173d f24a 423d
00000170: ee2b 5dbd 649c 77bd 9b70 eebd a202 c3bb
00000180: 4efc 2d3d b457 96bc 09b8 c6bd 74b2 aebd
00000190: 62a5 50bd 3073 aabc 9c5f adbd e0cc 623c
000001a0: b588 0bbd b03a 47bd 88a0 b7bc 6c7b adbc
000001b0: b8f1 35bd 9c6d 463d e864 2fbc 4484 8cbc
000001c0: bca7 7c3d 2959 9cbc a049 c73b b707 e2bd
000001d0: 580d f13c a45c 4ebd 9227 cabd 31d8 6dbd
000001e0: f080 01bd c09c 873c 28b0 5dbd f39d c8bd
000001f0: b3b6 96bd ac11 2bbd 45f5 55bd e46b 6dbd
00000200: 8432 e1bd ec8c 86bc d054 36bd f29e 083d
00000210: 32d1 513d 813c 61ba 669a 6a3d e5c9 bcbd
00000220: c2d7 50bd e590 80bc 8c74 503d c669 14bd
00000230: f89c c63c de74 07bd 3bd7 09bd 8143 8abc
00000240: de7b 573d 4452 50bd 1896 abbd 48db 983c
00000250: cda2 16bd 8633 213d 4655 3e3d 2ea8 1f3d
00000260: ffa6 52bd 21e8 b9bc 0882 a5bc 0c90 203d
00000270: 9275 77bd f909 b5bd 6862 b6bd 61e6 c3bc
00000280: c519 96bd 0f8f efbd ccd0 ccbd 8c8f d0bc
00000290: de89 68bd 74f6 42bd 283a f8bc 1183 20bd
000002a0: 8854 1f3c aa98 3c3d 4042 ed3b 1879 52bd
000002b0: 522a c4bc 0d29 c4bd 12b7 afbd 454d 9dbd
000002c0: 2a0a 67bd a4bd 55b9 0b3c 77bc b037 7bbd
000002d0: 8391 cebd 6c68 5fbd e2ee 4cbd d256 d2bd
000002e0: b4d7 e3bc fa1d 02bd 269f 86bc 4ad0 fbbb
000002f0: 3959 59bc 70fa 15bc 2415 bcbd ccf7 323d
00000300: c58c aebd 55f5 74bd 8009 4f3d 6cb3 eabd
00000310: 0d62 92bc c4b8 24bd 7c6b ec3c 7436 9abb
00000320: 49cb 2939 b3a4 87bc f248 283d 4e69 37bc
00000330: 5ceb 40bd fc2f 61bd 9121 26bc 44f2 42bd
00000340: c24a f6bd d099 003c 18ba 463c 78b0 a63c
00000350: b88a 333d b46e e8bc 6bbc adbd 52f2 5ebd
00000360: 3890 49bd a8a3 c6bd 3402 9ebc 17af 68bd
00000370: b42f c93c 3abc 52ba 0487 b23c e9eb a8bc
00000380: cace 79bd ba22 5cbd ff7a 31bc f882 abbd
00000390: ee1c 043d 146d b03c 12cf 0a3d a7cc a1bd
000003a0: 1e0e 3fbc 32ca 4cbd e7d9 d1bd bcf6 9e3c
000003b0: 0c94 7cbd aea2 123d 40e3 adba f0fc 24bd
000003c0: e074 8cbd 3b03 b6bd 9ecf babd 99bf bdbd
000003d0: f55b 98bd 0fea cebc e106 7cbd 7c4c babc
000003e0: b844 233c 2d67 3cbc 93de cabd 7c64 1e3d
000003f0: b4dc e7bc 0c78 81bd c0fe d8bc 1668 29bd
-0.039099585 -0.0348184 -0.033697583 -0.053030565 -0.004233404 -0.02518212 0.0561466 0.011530377
-0.06353496 -0.09477166 -0.042696066 -0.062391147 0.014953241 -0.040671457 -0.041589677 0.06063234
-0.032309636 -0.0022388399 0.013651609 0.03146281 -0.015901413 -0.053926274 -0.064518206 -0.049568035
-0.032956786 -0.09338558 -0.06548758 -0.004219465 0.014642045 -0.0013058782 -0.091910295 -0.05676368
0.056525223 -0.07342381 -0.030530756 -0.0597777 -0.019469153 -0.058063444 -0.038709372 -0.022372406
-0.08914323 0.041049242 -0.10025533 -0.07637486 -0.068939276 -0.10634659 -0.034439217 -0.060937017
-0.0042282194 -0.107863024 -0.09745854 0.018426985 -0.07419343 -0.090134725 -0.03360848 0.020393588
-0.019419663 -0.08935286 -0.031651605 0.009590261 0.021277785 -0.10111795 -0.0063371295 -0.12170806
-0.03621484 -0.08857529 -0.08586395 -0.010118206 -0.0061778403 0.023337536 -0.029512092 -0.014420395
-0.0013084859 -0.010290712 0.010659218 0.025811426 0.009431757 -0.01610329 0.04664672 -0.009871587
0.042682454 -0.11804132 0.045161188 -0.11901478 0.055262 0.0039288104 -0.022769108 -0.037760504
0.014586978 -0.06700309 0.036955036 0.047434755 -0.053996973 -0.06045188 -0.116425715 -0.0059512416
0.042476945 -0.018352367 -0.09703071 -0.08530131 -0.05093897 -0.020806879 -0.08465502 0.013842791
-0.03406592 -0.048639953 -0.022415414 -0.021177016 -0.044419974 0.048444375 -0.01070521 -0.017152913
0.0616834 -0.019085484 0.006081775 -0.11036628 0.029425308 -0.050381318 -0.09870829 -0.058067504
-0.031617105 0.016554236 -0.054123074 -0.097957514 -0.07359066 -0.0417649 -0.05223586 -0.05796422
-0.10995963 -0.016424619 -0.044514477 0.033354707 0.051224895 -0.00085920846 0.057276152 -0.09218196
-0.050987013 -0.015694091 0.050892398 -0.036233686 0.02424477 -0.033070438 -0.033652525 -0.016877891
0.052608363 -0.050859705 -0.083782375 0.018659249 -0.036776353 0.039355777 0.04646804 0.038978748
-0.05142879 -0.022693696 -0.020203605 0.039199874 -0.06041486 -0.08839793 -0.08905488 -0.023913564
-0.07329134 -0.11697208 -0.10000762 -0.025459073 -0.056772105 -0.047598317 -0.030301169 -0.039187495
0.009724744 0.04604403 0.0072405636 -0.051385015 -0.023945961 -0.09578142 -0.0857984 -0.076807536
-0.056406178 -0.0002038391 -0.015089999 -0.061332405 -0.10086348 -0.054542944 -0.050032504 -0.10270466
-0.027812816 -0.03176687 -0.01643331 -0.007684742 -0.013265901 -0.009153947 -0.0918372 0.04369335
-0.085229434 -0.05980428 0.05054617 -0.11460003 -0.01786902 -0.04021527 0.028859846 -0.0047061983
0.00016192826 -0.016558027 0.04108519 -0.01119454 -0.047099456 -0.054977402 -0.010139839 -0.047594324
-0.12025978 0.007849172 0.012129329 0.020347819 0.043833464 -0.0283731 -0.084832035 -0.054430313
-0.049209803 -0.09699184 -0.01928816 -0.056807604 0.02455888 -0.0008038912 0.021792896 -0.020620303
-0.060988225 -0.053744055 -0.010832547 -0.0837459 0.032254152 0.021536388 0.033888884 -0.079003625
-0.011661081 -0.049997516 -0.1024664 0.019404761 -0.061664626 0.035799675 -0.0013266578 -0.040280282
-0.0685823 -0.08887335 -0.09121631 -0.0926506 -0.074394144 -0.025258092 -0.061529998 -0.022741549
0.009965114 -0.011499208 -0.09905734 0.038670048 -0.028303482 -0.06321725 -0.026488662 -0.04135903

network.2.bias f4 [512]
00000000: c617 b4bc 22dd 09bd 6fc1 3fbe 820a a5bd
00000010: 23ab 83bd 225a 77bd e041 cbbd c0f9 95b9
00000020: c7bd 06be 19fa 0ebe 6e8e 41bd 2ed1 9ebd
00000030: fc8f ccbd c6d2 b9bd ef43 903d ca8e 54be
00000040: 1331 a6bd fe6d dfbd 3746 44bb 90d0 edbd
00000050: 23d8 6cbd 9c19 55bd 7418 c4bd 661d 43be
00000060: 04a5 04be e6e6 f53b a54d 0abe 030b 2bbd
00000070: 6178 19bd 9d61 83bd 098c 97bd ed32 61bd
00000080: a242 383a 1ef6 adbd 3a2d b63d dabc d6bd
00000090: 53b4 a9bd c7d5 47bd b3cb 15be 89f2 9cbd
000000a0: 6672 dbbd b241 05bd 9e02 bfbd 8ad9 abbd
000000b0: 1615 b8bd 5ac9 f1bc dab5 0cbe 4065 25bc
000000c0: 2824 6ebd 5ab8 abbd b607 c13c 3e5f 00bd
000000d0: 6aeb b6bd 693d ccbd b6bd c4bd 0a35 eabd
000000e0: 7094 18bd 815e 9fbd a529 1bbd 7aea c8bc
000000f0: 3326 f1bb 7c09 dabd 7e66 c6bd e236 4fbc
00000100: 0ae8 f7bd d12e a7bd 8ddf 2d3e ebe3 14be
00000110: 1b7a dfbc a769 15be 54fe 103d 905c a0bd
00000120: 87ae dcbd 92d3 c9bd b542 86bd b7dd da3d
00000130: b777 0ebe 2141 88bd 24fe 90bb 8c87 a7bd
00000140: 3873 eabd af67 68bd 2fc3 05bd b290 8bbe
00000150: 802a c1bd 84eb 1e3d 33a9 91bb c8f5 9dbd
00000160: c53d 9dbc aa7d e5bd 9ee2 23bd 35f7 45be
00000170: 3961 43bd 546b 3bbc abd6 e1bd 3277 3bbd
00000180: 4a28 c43b 1e8c 07be 1c9f b0bd c054 babd
00000190: 614e cbbd b62d 0bbd fd77 52bd 1e05 7dbd
000001a0: 73dd 89bd 8622 863a b2ab 07be d87b eb3d
000001b0: 919b 4fbd 5f29 02bd 24c8 91bd cf76 093d
000001c0: 04a3 80bd 39b3 e0bd 720a 83bd f827 30bd
000001d0: f9d1 76bd 5ae6 2ebd c73a 453d 49b8 e7bc
000001e0: 66a2 0abe 2000 b5bd 701b 94bd 87b7 49bc
000001f0: a5ad 883e 6d73 bdbd 8534 48bd 0dd8 33bd
00000200: 6b68 babd 4498 d63a d6f4 3abd cf67 c7bc
00000210: 0869 a3bc c4dd 2abe cd76 c5bd 0caf 0cbd
00000220: ad91 cc3d 4905 5cbd aea7 183c 54d9 a2bc
00000230: be92 983d e71f 45bb f305 25bd c5b9 0bbc
00000240: c669 b9bc 1233 e9bd 27d6 a6bc e1ab debd
00000250: 23b5 d4bb ae54 91bd 48a7 aebd 44ed 1abe
00000260: 09fc 6dbd 2334 6ebd 3775 42bc d0d5 92bd
00000270: ed35 78bd b143 cbbc 9bdb 4bbd b602 f7bc
00000280: d60a f2bc 5f0b e3bc c3a5 99bd 0dfc 3bbd
00000290: 5e4e 1abc 2dc6 b6bd 8879 83bd d4fe eb3c
000002a0: a4e4 88bc 3a9a cdbd 55b6 f0bd 03e7 84bc
000002b0: 194f 823d c01d 2d3c 6c7e d1bd 2ac0 81bd
000002c0: 4501 bc3c 233c 3fbe f2ef 73be 6122 a3bd
000002d0: 9530 77bd 348f 87bd 70e4 78bd 7ce1 c5bc
000002e0: b708 f4bd d331 12bd 07ec debc 76a4 c1bd
000002f0: f4b9 4a3e de92 323d e4be 2bbd abf6 78bd
00000300: 8929 2fbd 701f 80bc 8583 ccbd 2387 f6bd
00000310: 6281 ecbb cf54 5abc 5eb4 d3bb 62c6 21be
00000320: 918b 08bd db90 19bd adf7 3bbc a7a3 c8bd
00000330: a9fb 0bbe 5a5e 243e c6a5 083e 0625 0bbd
00000340: b6e5 c3bd c60e b4bd f84a acbd c286 c6bd
00000350: cbda f13d 6f7c ccbd 123e 28bd 2f7e 43be
00000360: 7136 bcbd 32d5 c13e b9eb e2bb c3db 82bc
00000370: e46e 41bd ba38 38bc c59a 8abd fba7 e3bd
00000380: 36ad 1bbe 917c 2c3e ecae 31bd d8aa a6bd
00000390: e126 82bd 1e9d 41bd 55d8 a2bd b2da f4bd
000003a0: 86b0 9fbd 6ccc adbd c7aa e3bc d792 afbc
000003b0: 6819 9abc e62a 5ebd 2da3 d8bd 3b3c 48bd
000003c0: d1c1 2cbe 8b1e 1abd 23bb 3cbd 245d ff3a
000003d0: 0eb2 883e ae20 0ebe 0dfa 85bd b8a3 32be
000003e0: ad28 3abe bfcf 42be 9c3e 63bd a1fa 9abd
000003f0: 2ebe b3bd 117f 18bc dd4d 39bd 7103 abbd
-0.021983992 -0.033658154 -0.18726133 -0.08058645 -0.06429126 -0.06038869 -0.09924674 -0.00028605573
-0.13158332 -0.13962592 -0.047254972 -0.077547416 -0.099884 -0.09073405 0.07044207 -0.20757595
-0.08114829 -0.10909651 -0.0029949078 -0.11612046 -0.05782331 -0.052026376 -0.095749766 -0.19054183
-0.12953573 0.007504332 -0.13506182 -0.04175855 -0.037468318 -0.06415103 -0.073997565 -0.054980207
0.0007028972 -0.08494209 0.08895345 -0.10485239 -0.08286347 -0.04878786 -0.14628486 -0.076634474
-0.10715179 -0.032533355 -0.09326671 -0.08391102 -0.08988397 -0.029514957 -0.13741246 -0.010094941
-0.05813995 -0.08384772 0.023563247 -0.03134083 -0.089316204 -0.099726506 -0.09606497 -0.11435898
-0.037250936 -0.07781697 -0.037881512 -0.02452587 -0.00735929 -0.1064634 -0.096875176 -0.012647362
-0.12104805 -0.081632264 0.16979809 -0.14540069 -0.027279904 -0.14591084 0.035398796 -0.07830155
-0.10775476 -0.09854807 -0.06555692 0.1068682 -0.13912855 -0.06653047 -0.004424827 -0.081801504
-0.114477575 -0.056739505 -0.032656845 -0.2725883 -0.09431934 0.038798824 -0.004445219 -0.07712895
-0.019194493 -0.11205609 -0.04001104 -0.19332583 -0.04770014 -0.011439163 -0.11027273 -0.04576797
0.005986248 -0.13237044 -0.08624098 -0.09098196 -0.09927059 -0.03397914 -0.05138396 -0.06177246
-0.06731691 0.0010233677 -0.1324909 0.11498231 -0.05068547 -0.031777736 -0.07118252 0.03356057
-0.06281093 -0.10971684 -0.06398477 -0.043006867 -0.06025884 -0.04270015 0.048151758 -0.028286116
-0.13538513 -0.088379145 -0.07231796 -0.012311823 0.2669498 -0.09250531 -0.04887821 -0.043907214
-0.091019474 0.0016372283 -0.04564365 -0.024341492 -0.019947544 -0.1668616 -0.096418 -0.034346625
0.09988723 -0.053715978 0.009317322 -0.01987902 0.07449864 -0.003007883 -0.040288877 -0.008528178
-0.022633445 -0.11386694 -0.020365788 -0.10872627 -0.0064913197 -0.070962295 -0.08528 -0.15129572
-0.058101688 -0.05815519 -0.0118687665 -0.07169688 -0.060598303 -0.024812551 -0.04976998 -0.03015266
-0.029546183 -0.027715383 -0.0750232 -0.04589467 -0.009418098 -0.08924518 -0.064196646 0.028808035
-0.016710587 -0.10039182 -0.11753527 -0.016223436 0.06362743 0.010566175 -0.10229191 -0.063354805
0.022949824 -0.18675284 -0.23822 -0.07965542 -0.060349066 -0.06619111 -0.06076473 -0.02415537
-0.11915725 -0.035692047 -0.027212156 -0.094551966 0.19797498 0.043597095 -0.041930094 -0.060782116
-0.04276422 -0.01563999 -0.09986023 -0.12037494 -0.007217572 -0.013325884 -0.0064607104 -0.15798333
-0.033336226 -0.03749166 -0.011472625 -0.09796839 -0.1367022 0.16051617 0.13344488 -0.033970855
-0.09565298 -0.0879188 -0.08412737 -0.09693672 0.118093096 -0.09984671 -0.04107482 -0.19091104
-0.091900714 0.37857968 -0.006925073 -0.015973931 -0.047224894 -0.011243993 -0.06767801 -0.11116024
-0.15202793 0.16844393 -0.04337971 -0.081380546 -0.06355072 -0.04726898 -0.07951418 -0.11955775
-0.07797341 -0.08486256 -0.027791394 -0.021432323 -0.018810943 -0.05424013 -0.10577998 -0.048885565
-0.1687081 -0.037626784 -0.046076905 0.0019482714 0.26698345 -0.13879654 -0.06541834 -0.17445266
-0.18179579 -0.19024561 -0.05547963 -0.07567335 -0.08776508 -0.009307639 -0.04524027 -0.08350266

network.4.weight f4 [128, 512]
00000000: 5a9f f53c d57e 81bc 2a7e 04bd b141 043d
00000010: 18e7 b23b 2fa5 233d 6f66 a1bd 72bc eb3c
00000020: 3802 c63b 3ac9 34bd 1614 31bd 81e6 043d
00000030: 2084 e83b c4ed 83bd 7055 d33c 4b34 9ebe
00000040: efe7 0c3d cd3a a2bc a044 e9bb 4c40 3b3c
00000050: 72c7 87bc b5b6 1b3e 7356 b93c ec15 babd
00000060: 9107 23be 1fb5 63bd 23b3 1d3d 209d eb3b
00000070: 86d6 12bd cee4 c3bd bd2e 233d 5c12 303c
00000080: 0066 b63a cfd9 9ebc 380b 0b3e 6b21 48bd
00000090: f8ce 3c3e 8416 24bc 1898 e63b 3fde 273d
000000a0: d74f 99bc a053 6f3c dfbb 8ebd 971d acbc
000000b0: ceee 22bd 14fa 113c 5cef 5bbd 1a20 afbd
000000c0: 400d 0b3c 5fb8 2c3d aef9 003d 9645 eb3c
000000d0: 2b75 cc3d 694c c2bc eecd a3bd d623 f63c
000000e0: 035d c9bc 9bd5 263d 18fe 9cbc 2e58 38bd
000000f0: e052 87ba 8eac fe3c fda1 a3bd 06e9 ba3c
00000100: 7a10 9b3d 4084 1b3b 5dfc 04bd a033 2bbb
00000110: f96c 083d bc53 adbc 7ba3 193e 0def 26bd
00000120: fd3c 75bd 69a5 03bd 6ea3 d43c 6211 763d
00000130: e772 dbbc a5a6 0a3d c0cc 493b 71ca c33d
00000140: 407d 1e3c 3d3c 2fbd 1458 babc 06b9 aebd
00000150: c544 2bbd 52a3 c33c 085b f8bc 10d7 053c
00000160: 643c c0bd b05d 4e3c 7400 93bc baaa cb3b
00000170: 574d 193d 8ea7 da3c 5d47 49bd cc38 26bd
00000180: c445 2b3d f37f a5bd 2518 8d3d cafb 06bd
00000190: bd64 fcbd 608e e53a 888e d43b d780 f6bc
000001a0: 46db 9abd dad6 6bbc eb79 b6bd 04fc 963c
000001b0: 1279 b23c 5ea3 943c 2418 33bd e6eb 5a3c
000001c0: bb1b 87bd 807c 50bb 4841 90bc 2055 beba
000001d0: acba fbbc f005 54bc e4d7 52bc 32cc acbc
000001e0: c3e7 06bd 7eb8 c73c 01a2 193d 34b2 03bd
000001f0: 1cb5 afbd 08fd 87bc a630 bd3c cfb1 273d
00000200: 2e07 8fbc 8086 e4ba 5e6e 973c d02a 603b
00000210: 4d7e dcbc 9987 2b3d 908a b8bb c205 dd3c
00000220: 0ad7 d83c a74f 2ebd 7da7 edbc cc8d 213d
00000230: 4838 e53d db8d 48bd 0022 02bd 8fea 0c3d
00000240: f6be afbc 4d36 323d 48ef b0bb 101a 883b
00000250: c031 33bb fd03 4b3d f18f 23bd 3efa 1abd
00000260: ca94 02bd d082 43bc e8a3 f8bb ae31 16bd
00000270: 829d 15bc ab5c 093d a48b 2e3c 468c 2bbd
00000280: c7c2 a93d ae08 9e3c b89c f93b 2839 2cbd
00000290: 0e53 f4bc 7b3a 81bc 43d1 88bc 692e 313d
000002a0: 072e 83bd 0704 8ebd ed50 98bd b009 033b
000002b0: 8b43 abbe 10b5 7cbc b9f5 313d c498 053c
000002c0: 684e 303c 5e67 a5bc 5354 083e b095 cebd
000002d0: 1055 4cbc 505a 2b3b 1d2b 02bd 4c9b 1cbc
000002e0: 703b 2cbc a801 53bc 19e8 6ebd f545 253d
000002f0: b350 0cbd e20c e13c 3f37 2f3d 9d6c d43d
00000300: 1ec6 f63c e0b1 e9bb 3cc0 4ebd 40f9 813a
00000310: 5b41 273d 62b9 ae3c 9118 0dbd 0947 93bd
00000320: a016 b83d d844 ad3b f0e7 15bb f4bd 6dbd
00000330: 4824 07bc f572 5c3d 37b0 d4bd ea57 b23c
00000340: 6185 b03d e843 87bb 0673 81bc 2bdf 9abc
00000350: e308 4bbe 00b0 5638 c70d 323d 80b8 ed3d
00000360: 4f12 963d 8fce 56be f0a9 b3bd 474d 2cbd
00000370: beb6 00bd 888b aabd 0a4c 61bd 6044 ccba
00000380: 083e 86bd 1e20 0fbe 6094 efba cb56 34bd
00000390: 141c f5bc 1c25 b8bd 60e8 b5bd 9849 0cbc
000003a0: 903b efbd 6666 21bd f0d6 10bc 5f2a ecbd
000003b0: b8ea 8bbd b56c 94bd 2e21 12bd 4e91 d0bc
000003c0: 25e8 30bd 71a2 bfbd 8013 60bb 00c8 15bb
000003d0: 6ec2 d8bd b63b eebd 2292 94bd c3bf 04bd
000003e0: 2968 063d 6f6b adbd a08b 12bd 30d2 8e3b
000003f0: 4cc7 23bc ec7c bebc 1146 99bd 30f9 a3bb
0.029983211 -0.015807549 -0.032346882 0.03228921 0.0054596774 0.039952453 -0.07880866 0.028776381
0.006042745 -0.044137217 -0.043232046 0.03244639 0.0070958287 -0.064418346 0.025797576 -0.3089927
0.034400877 -0.019803429 -0.0071187764 0.011428904 -0.016574595 0.15206416 0.02262423 -0.090862125
-0.15920855 -0.055592652 0.038500916 0.0071903616 -0.035849117 -0.095651254 0.039839495 0.010746565
0.0013915896 -0.019390969 0.13578498 -0.048859995 0.18438327 -0.010015134 0.007037174 0.040983435
-0.018714828 0.01460734 -0.06969427 -0.021010203 -0.039778523 0.008909721 -0.053695068 -0.08551045
0.008487046 0.042168017 0.031488113 0.028719705 0.099832855 -0.023718076 -0.07998262 0.030046385
-0.024580484 0.040731054 -0.01916413 -0.04500597 -0.0010324381 0.03108814 -0.07989881 0.022816192
0.07571502 0.002372995 -0.032467235 -0.00261233 0.03330705 -0.021158092 0.15003769 -0.04075532
-0.059872616 -0.03214017 0.025956836 0.06007517 -0.026788188 0.03385033 0.0030792207 0.09560097
0.009673417 -0.042782057 -0.022747077 -0.08531384 -0.04181363 0.023881588 -0.030316845 0.008168951
-0.093865186 0.012595579 -0.017944552 0.0062154206 0.037427273 0.026691224 -0.049140323 -0.04058151
0.04181458 -0.08081045 0.06889371 -0.03295497 -0.12323902 0.0017513745 0.0064867176 -0.030090732
-0.07561354 -0.014394486 -0.08909973 0.018430717 0.021786246 0.018144306 -0.043724194 0.013361907
-0.06597086 -0.003181249 -0.017609254 -0.0014521219 -0.03072866 -0.012940869 -0.012868855 -0.021093462
-0.03293587 0.024379965 0.037508015 -0.03215237 -0.08579466 -0.016600147 0.023094486 0.040941056
-0.017459478 -0.0017435104 0.018485244 0.0034205206 -0.026915694 0.041877363 -0.0056317523 0.026980285
0.026469726 -0.04255643 -0.029010529 0.03944187 0.111923754 -0.04896341 -0.031770706 0.03440338
-0.021453362 0.043508817 -0.0053996183 0.0041534975 -0.0027342886 0.04956435 -0.039932195 -0.037836306
-0.031880178 -0.011933044 -0.0075878985 -0.036668472 -0.009131791 0.03353564 0.01065341 -0.041881822
0.08289104 0.019291248 0.0076175593 -0.042046696 -0.02982476 -0.015774956 -0.016701346 0.04325715
-0.064052634 -0.06934362 -0.0743731 0.0019994788 -0.3344997 -0.015424028 0.04344723 0.008154098
0.010760881 -0.02019089 0.13313417 -0.100871444 -0.012471452 0.002614636 -0.031779397 -0.00955851
-0.010512218 -0.012878813 -0.058326814 0.04034992 -0.03425665 0.027471963 0.042777296 0.10372279
0.030123767 -0.0071318 -0.050476298 0.0009916201 0.040833812 0.021328632 -0.034447256 -0.07191283
0.089886904 0.005287748 -0.0022873841 -0.05804248 -0.008248396 0.05382057 -0.10385173 0.021770436
0.0861919 -0.004127968 -0.015801918 -0.018905243 -0.19827609 5.118549e-05 0.04347017 0.11607456
0.07327711 -0.20977233 -0.087726474 -0.042065885 -0.031424277 -0.08327395 -0.055004157 -0.0015584342
-0.065548 -0.13977095 -0.0018278472 -0.044028085 -0.029920615 -0.08991453 -0.08882213 -0.008562468
-0.116812825 -0.039404295 -0.008840308 -0.11531519 -0.068318784 -0.07247297 -0.035676174 -0.025459912
-0.04319014 -0.09357155 -0.003419131 -0.0022854805 -0.105839595 -0.11632483 -0.07254435 -0.03240944
0.03281418 -0.08467757 -0.035777688 0.0043585524 -0.009996247 -0.023252927 -0.07484067 -0.0050040707

network.4.bias f4 [128]
00000000: b09a 8ebd 8b04 05bd ddf9 92bb bb67 f53c
00000010: 0c12 15be 0396 1cbe 2e91 23be 736e eabd
00000020: 6e1f e7bd 74e3 a8bd cf69 b8bd 9b4f bebd
00000030: 8454 d4bd f7c1 06bc fa68 31be 0608 0cbe
00000040: 8586 fbbd f474 8ebd b2e7 18be 05d0 7ebd
00000050: dd13 91bd 8da8 16bd 94ef 13be 5723 babd
00000060: cbcf 2dbe 8dfc 0ebe 1596 c83e bc5b cebc
00000070: 8351 e0bd a539 cbbd 4f97 b73d f12f 0dbb
00000080: 4f1b b2ba 5484 0dbe 48c8 f3bd a23e 20bd
00000090: 1230 05be 55a0 b13d 96d3 6e3e 4e68 09be
000000a0: b7e1 db3d 83e7 c3bd 7c79 2dbe c954 ab39
000000b0: be25 09be ad5e d3bd 827e afbd 1f0a 673d
000000c0: 7578 debd 05a6 04bd b718 30bc 48ff 45bd
000000d0: d849 fd3d 09b1 1dbd 0b75 dabd 99de 65bd
000000e0: d254 70bd 6bea 25be 900f 05be e546 213d
000000f0: 12c6 0fbe 7a9a b1bc cd14 31be 4034 29be
00000100: 9314 48be 1517 46bd d437 f0bd 6334 1ebe
00000110: 55a1 47be ada1 23be 75e3 b9bd 9ff1 35bd
00000120: df12 43be 3868 8cbe e19c 2ebe 38a8 24be
00000130: 6ca0 913d c535 00be 4a1b 90bd f467 f9bc
00000140: 3ced d6bd 345f 17be 2f03 64bd 78d7 8fbd
00000150: 8ead 973d a430 b5bd 78eb 73bd 9236 2cbe
00000160: ce87 5a3d 9ddd 83be 686a dcbd 7ab6 7bbd
00000170: 56e1 1abd 9a2b 04be e517 ee3e 750e 18be
00000180: e860 22be 2538 c8bc 443b 2e3d a7d6 3cbd
00000190: b5e6 e13d ae66 57be 1c57 86bd 1149 83bd
000001a0: 81ec 1cbe e5d3 60bd c068 f53c 48e7 c9bd
000001b0: de4c e83c c79f 0a3d 7b8c 35be 052b 07bd
000001c0: 6e4c ecbd 7cfb e6bd 2a83 28bd a2c6 d5bd
000001d0: af98 ddbc 4210 59be 1b21 833d 4b8c 54be
000001e0: 1961 dfbc 451a 1ebe 3d31 053e d537 09be
000001f0: 1338 a3bd 455f 3abd b838 f3bd 9f90 acbd
-0.06963098 -0.032475036 -0.0044853524 0.02995669 -0.14557666 -0.152916 -0.1597335 -0.11446848
-0.112852916 -0.08246508 -0.090045564 -0.09292527 -0.103676826 -0.008224956 -0.17325202 -0.13674936
-0.12281517 -0.06955901 -0.14932135 -0.0622101 -0.07083867 -0.036781836 -0.1444686 -0.09088772
-0.16973798 -0.13963528 0.39177004 -0.025190227 -0.10953047 -0.09923104 0.08964407 -0.0021543468
-0.0013588461 -0.1382001 -0.11903435 -0.03912223 -0.13006619 0.08673159 0.23322901 -0.13418695
0.10736411 -0.09565642 -0.16940874 0.00032678831 -0.13393304 -0.10320792 -0.08569051 0.056406137
-0.10862819 -0.03238489 -0.01074808 -0.04833916 0.123676 -0.038498912 -0.106668554 -0.05612049
-0.05867464 -0.16202705 -0.12994218 0.03937425 -0.14040402 -0.021680105 -0.17293091 -0.16523838
-0.19539098 -0.048361856 -0.11729398 -0.15449671 -0.19495137 -0.15979643 -0.09076587 -0.04441988
-0.19050168 -0.27423263 -0.17052032 -0.16079795 0.07110676 -0.12520511 -0.07036455 -0.030445077
-0.104944676 -0.14782411 -0.0556671 -0.07023519 0.0740615 -0.08847168 -0.059550732 -0.16817692
0.05335217 -0.25755015 -0.10762483 -0.06145332 -0.037812553 -0.12907258 0.46502605 -0.14849265
-0.1585728 -0.024440834 0.04253699 -0.046103146 0.11030332 -0.21035263 -0.065595835 -0.06410421
-0.15324594 -0.05488958 0.029957175 -0.098585665 0.028356966 0.03384378 -0.1772937 -0.03300001
-0.11538015 -0.112784356 -0.041140713 -0.10438277 -0.027050344 -0.21197608 0.06402799 -0.20756643
-0.02726798 -0.15439709 0.13007064 -0.13400204 -0.0796968 -0.045501012 -0.118760526 -0.08426022

network.6.weight f4 [12, 128]
00000000: f763 a8bd f050 753e f253 3a3d d946 143e
00000010: 7b75 c73d 3452 9b3d 5813 033d 8277 e43d
00000020: ace3 943c 0288 b93d 763a dcbd f368 d93d
00000030: e724 133e 56d8 3cbe afaa 3b3d 9c10 02bd
00000040: 73e2 0d3e a127 763d 2da9 96bc e4b7 82b9
00000050: 415b fc3d 4910 0a3e 0fef 073e c0a1 303d
00000060: 62a5 19be d1c6 4b3e 00ab 36bd fb13 183e
00000070: d54f db3d 7ec9 1b3e affd bb3d 401c a03e
00000080: 17e4 243e 3c30 073e 77b1 963c 22c6 d43d
00000090: b5f4 dbbd 1125 89be 9e5c 10be c298 fabc
000000a0: 0eb7 95be fcdf cf3c 883b f93d da02 89be
000000b0: 633c 28be 7f89 9e3d ad4c f23d fab1 413d
000000c0: 4eaa d23c 4648 9e3c 9788 023e df71 de3d
000000d0: 114d a2bd 30a3 68be 161f 113d 66ce db3b
000000e0: 6a65 c53d ecd3 3839 57c2 803c 2ffd 8bbd
000000f0: 88eb 963d 0d85 0d3d 9e1b 2fbd 4282 283e
00000100: 066b 0a3d e40f 063d c713 a43c c34f 1e3e
00000110: 2780 da3d 3126 db3c 845b 193d aa8a 513c
00000120: d911 a3bd b40d 92bd 1356 843c 3566 e43d
00000130: acb3 b63d 29b9 9c3d 4dc7 083c f154 3ebe
00000140: 23ed 4a3c 5334 debc 71fb 843d b679 cb3d
00000150: 4443 e3bd 664d 9e3d 130c 413d 31bb b4bc
00000160: 85d1 1d3d e2ef 31be 7395 143d be35 953d
00000170: 620e 0d3e 7bf5 b83d 729f e7bd 7412 2c3e
00000180: 03bd 6d3c 804b 8ebc 2875 bcbd a3c1 b73d
00000190: de6a 3a3d d220 863d 2153 403d 5aef aa3d
000001a0: 7e26 163d 1b43 0c3e 51cf 9f3d d814 683e
000001b0: 8243 93be 38a9 9dbd 855b 0b3d 16b3 153e
000001c0: e622 ff3d 3b91 903d 59cf 19be f8fb 7ebe
000001d0: b459 283c 694a 65bd 077e 95be 0a50 a23c
000001e0: 9272 173d 3463 c53d 29d6 76be e3b9 0a3e
000001f0: 103c 1d3e e277 b93d 3540 db3d 059d 9a3d
00000200: dcee 7ebe 3e04 1a3e 71e5 1f3e bde5 e33d
00000210: 4f0f 8e3e 9aa4 013e 12ff 06be 0d7f bf3d
00000220: 4942 803e c1e6 443c f73d 30bd 8935 eabc
00000230: 7af5 f03d ed44 563e 95df 093e ee1a aa3d
00000240: 55bb 9cbb ec5f 1f3c 4786 fe3c e39b eebc
00000250: 417e f93d 763f c73c dcb2 043e dc6e eabb
00000260: 8c97 633e a024 e13d 3c3b 8dbc 9a3c c03d
00000270: aa1c ba3d e092 f23a 61ed 713c 2117 a23e
00000280: 3345 493d eecb 063e df32 3abc e342 a73d
00000290: ed99 97bd 5af2 713e 33a2 02be c51f f4bd
000002a0: bd18 773d 7d84 233d 38cd 6a3d 1890 353e
000002b0: dc17 5d3d 8e8a 7f3a 022a f33d 40e9 4cbd
000002c0: d1f2 a03d 5ef0 8ebd 3ab9 98bc a278 8cbd
000002d0: cbc4 e6bd 9c15 fe3d 8bb1 8b3d 8164 c73a
000002e0: 3c38 c03d 886b 2cbe 3f66 063e ef0b 193e
000002f0: 68a2 203d a739 0b3e a030 1c3e d1bf 0e3c
00000300: 0331 cf3d c08f 0f3e ee25 8d3d d840 d1bd
00000310: 507d 2f3d b320 0cbd 4a5f 3c3d 698e 893d
00000320: d81e c0bd 0b8d 2d3e c801 d43d d4e1 ac3b
00000330: ba01 c23d 7c52 ba3d 5834 f03d 22ae 263d
00000340: b9a8 043e 8914 443d f7ff 113e e31e 243d
00000350: 03d8 05be 20eb ad3b d2e7 093d 992f 23bc
00000360: a8d1 00bd 39ca b53d 1a33 a03d afab b53d
00000370: 4ec1 0e3d 931f fb3e af7d 12bd 0736 67bd
00000380: e03a 513c 25da 8d3c ac5e 42be a8fb b73d
00000390: 53f8 2ebe dc45 f23d d930 46bd 815f 9a3d
000003a0: f534 653c cfe7 143e 1714 043e 6520 a43e
000003b0: df5e 283d f042 4a3e 3075 cd3c 3617 983d
000003c0: 97c1 4b3d 7072 2d3e 47eb 21bc 396b 8a3e
000003d0: b74f e63d 61f9 cc3d afae cd3d d481 873d
000003e0: 475d 313c b2e7 83bd d3b7 a73c b2b0 53bc
000003f0: 9cc0 f0bc 4e38 303d 1c50 7d3d 3334 053d
-0.08222192 0.23956656 0.045490213 0.14480151 0.097392045 0.075840384 0.03200087 0.11155607
0.018174969 0.090591446 -0.10753338 0.106157206 0.14369546 -0.184419 0.045817073 -0.03175412
0.13855915 0.060096387 -0.018391216 -0.0002493254 0.12322093 0.13482775 0.13274787 0.043123007
-0.15004495 0.19900061 -0.044596672 0.14851372 0.10708586 0.15213582 0.09179246 0.31271553
0.16102634 0.13201994 0.018395169 0.10389353 -0.107400335 -0.26786092 -0.1409783 -0.030590419
-0.29241222 0.025375359 0.12169558 -0.26759988 -0.16429286 0.07741069 0.11831031 0.047288872
0.025715973 0.019321572 0.12747417 0.10861563 -0.079248555 -0.22718501 0.035430036 0.006707954
0.09638484 0.00017626554 0.015717668 -0.068354 0.07369143 0.034550715 -0.042750947 0.1645594
0.03379347 0.03273 0.020028962 0.15460114 0.10668974 0.02675161 0.03744079 0.012789408
-0.079623885 -0.0713152 0.016154325 0.11152307 0.089209884 0.07652504 0.008348298 -0.1858709
0.012385639 -0.02712456 0.06493271 0.09935324 -0.11096814 0.07729606 0.047130655 -0.022061916
0.03852989 -0.17376664 0.03627534 0.07285641 0.13775018 0.09031197 -0.11309709 0.16803914
0.014510396 -0.017369986 -0.09202033 0.0897248 0.045512073 0.06549229 0.046954278 0.08346434
0.036657803 0.13697474 0.07803214 0.22664201 -0.28762442 -0.076982915 0.034022827 0.14619097
0.12457828 0.070589505 -0.15020503 -0.24900806 0.010275293 -0.055979166 -0.29197714 0.019813556
0.036974497 0.09638062 -0.24105133 0.13547473 0.15354943 0.09056069 0.10705606 0.0754948
-0.24895805 0.15040681 0.15614869 0.111278035 0.27746055 0.12660447 -0.13183239 0.09350405
0.25050572 0.012017907 -0.043027844 -0.02858998 0.11765571 0.2092473 0.13464196 0.08305918
-0.004783074 0.009727459 0.031069888 -0.029127067 0.12182284 0.024322253 0.12958854 -0.0071543287
0.2222578 0.10993314 -0.01724016 0.09386559 0.090874985 0.0018506907 0.014766068 0.3165827
0.04913826 0.1316373 -0.011364668 0.081670545 -0.07402406 0.23627606 -0.12757187 -0.11920122
0.060326327 0.039921273 0.057324618 0.17730749 0.053977832 0.0009748124 0.11873247 -0.050027132
0.078588136 -0.0697944 -0.01864301 -0.068589464 -0.11268004 0.124064654 0.06820973 0.0015212448
0.09385726 -0.16837895 0.13124941 0.14945959 0.039217383 0.13596211 0.15252924 0.008712725
0.1011677 0.1401968 0.06892 -0.10217446 0.042844117 -0.034210872 0.045989312 0.06716616
-0.09380883 0.16948335 0.10351902 0.0052759442 0.094729856 0.09097764 0.11728734 0.04069341
0.12954988 0.047871146 0.14257799 0.04006852 -0.13070683 0.00530757 0.033668347 -0.009960079
-0.031449944 0.088764615 0.07822247 0.08870637 0.03485232 0.49047527 -0.035764392 -0.05644801
0.012770385 0.017315933 -0.18981427 0.089835465 -0.17086916 0.11829731 -0.04838643 0.07537747
0.013989677 0.14541553 0.12898289 0.32055965 0.0411061 0.19752097 0.025080293 0.07426302
0.04974517 0.16938186 -0.009882755 0.2703493 0.11245673 0.10008503 0.10043084 0.066165596
0.010825462 -0.06440677 0.020473396 -0.012920545 -0.029388718 0.043022446 0.061843976 0.032520484

network.6.bias f4 [12]
00000000: 0b3b 58be 991a bc3d a7e0 a4bd a6dc 80be
00000010: 0c80 88be f03e 323c 5ccb d9bd 44ad e3bc
00000020: aba9 d0bd 6b1c b6bb e8ef 9fbd d731 c4bd
-0.21116273 0.091847606 -0.080506615 -0.2516834 -0.26660192 0.010879263 -0.10634491 -0.02779258
-0.101886116 -0.005557587 -0.0780943 -0.09579819
