model/DQNAgent2_20-08-2022__23-21-37.pth/DQNAgent2_20-08-2022__23-21-37.pth (torch, 826191 bytes, 8 tensors)

network.0.weight f4 [256, 27]
000000 6d d7 98 bd 37 fa 79 be d8 88 41 3e 17 32 a9 3d
       -0.07462964 -0.24411856 0.18899858 0.08261507
000010 c9 8f 15 3e 82 bb 9f be d1 17 d0 bd 95 12 e0 bd
       0.14605631 -0.31197745 -0.101607926 -0.10941044
000020 83 fe 1c be 73 1b 5e 3d c7 44 53 be 25 25 da 3d
       -0.15331464 0.054225396 -0.20631705 0.10651616
000030 05 79 d8 3c fe 44 36 be 1f 03 e9 bd ea f0 92 3d
       0.026424894 -0.17799756 -0.113775484 0.07174857
000040 41 cc 70 be d0 51 61 bd 31 27 3f be 75 72 37 3e
       -0.23515417 -0.055009663 -0.18667294 0.17914756
000050 7e 8a e1 3d 9c b9 2b be 69 c0 05 3e b4 40 60 bd
       0.110127434 -0.16770023 0.1306168 -0.054749206
000060 a5 6b 7f be c8 df 8b bd 32 a2 31 be e2 ac 18 3d
       -0.24943407 -0.06829792 -0.17347029 0.03727425
000070 9e 9c 3f 3d 39 0f 34 be ec 46 d6 bd 32 90 d4 3c
       0.04678022 -0.17583932 -0.10462746 0.025947664
000080 a2 1b bd 3e ff 14 90 3d a7 b9 85 3e f6 d2 d8 3c
       0.36935145 0.07035255 0.26118204 0.026467782
000090 f0 4e 05 3e 5d 8d 28 be be 59 a5 bd c0 ca 41 bd
       0.13018394 -0.16460176 -0.080737576 -0.047312498
0000a0 ce 1b 6a 3e 95 14 1c be 1a 71 27 3d 02 33 08 be
       0.22862169 -0.15242226 0.040879346 -0.13300708
0000b0 11 d6 e8 bd 3f f8 6f 3e c9 ea f6 3e 7f 4e ae bd
       -0.11368955 0.23434542 0.48226002 -0.08511066
0000c0 50 81 14 be 90 b8 1b bd f3 9f 07 3e c2 cd d6 3d
       -0.14502454 -0.03801781 0.1324461 0.10488464
0000d0 7a 79 04 3f 32 8d cc 3d 80 7f 51 bb f3 f1 3a be
       0.5174786 0.09987868 -0.0031966865 -0.18256359
0000e0 af 0d 17 3e 18 14 a0 3c c6 0b c5 3d 99 ee 23 3e
       0.14751314 0.019540831 0.09621386 0.16008987
0000f0 18 3c 7d bd 01 53 41 3e a0 25 4b 3c 04 8c 6d bd
       -0.061824888 0.1887932 0.012399107 -0.057994857
000100 77 42 28 3e bf e8 a1 bd 39 91 97 bd a4 5f 43 bd
       0.16431604 -0.07905721 -0.07400746 -0.047698632
000110 0f 74 32 3e f0 69 f9 3c b9 ac 3e be 16 f0 d9 bd
       0.17427085 0.030446023 -0.18620576 -0.10641496
000120 75 a6 8f bd 74 98 6f 3d 96 ac c6 3d 00 2d d1 3c
       -0.07014171 0.058495 0.09700887 0.025534153
000130 b2 0f d7 3d 4c 1c 34 3d 5e 4b 3e be 6e a9 1b be
       0.105010405 0.0439723 -0.18583438 -0.15201351
000140 41 5a 24 3e 9d 6c 27 be 64 f1 09 bd 5a 76 8e bd
       0.16050054 -0.16350026 -0.033677474 -0.069561675
000150 61 b0 18 3e 60 4e c1 bd 57 f7 b9 bd f2 b2 ee bd
       0.14911033 -0.09438777 -0.090803795 -0.11655225
000160 15 97 16 3e 42 7a 8b 3d 20 f2 10 bc 1a 33 c2 bd
       0.1470607 0.06810428 -0.00884679 -0.09482403
000170 f6 7a 2e be f6 97 9b 3d ca 2a d0 bd 78 3e 00 be
       -0.17039093 0.075973436 -0.10164411 -0.1252383
000180 70 84 50 bc b2 cd 90 3d 37 28 bc bd 15 ae 0b be
       -0.012726888 0.07070483 -0.09187358 -0.13640626
000190 08 b8 b1 bd 65 df 0f 3e 82 2e a1 3d 07 5f 24 be
       -0.08677679 0.14050062 0.07870199 -0.16051875
0001a0 e6 a5 25 be 42 2f c6 bd 15 b5 0c 3e ae 1d 92 3d
       -0.16176566 -0.096769825 0.13740952 0.07134567
0001b0 38 bf 8e bd 70 f9 1c 3d f4 f6 a7 bc ba 77 31 b9
       -0.06970066 0.03832382 -0.020503499 -0.00016924637
0001c0 5f 52 d3 3d c8 e2 ab bd b4 fa e8 3d 5c c2 f2 bc
       0.103184454 -0.083928645 0.11375943 -0.029633693
0001d0 f2 90 b8 bc de fb 19 be f0 48 db 3d da 16 b2 bd
       -0.022530053 -0.15037486 0.10707271 -0.08695765
0001e0 03 82 c7 bd ba db 09 be 02 24 d1 bb 7b 83 07 bd
       -0.09741595 -0.13462725 -0.0063824663 -0.033084374
0001f0 18 63 bf 3d 32 c5 93 bd e6 8f 60 bd 67 f4 1c 3e
       0.093450725 -0.072153464 -0.054824732 0.15327607
000200 1a 6c 0c be fd 52 29 be c8 b0 d2 3c ef bd 0c be
       -0.13713112 -0.16535564 0.025719061 -0.13744329
000210 59 31 a2 bd d8 ab f6 bd 8e ef ff 3d ea 0c ff 3d
       -0.079195686 -0.12044495 0.12496863 0.12453635
000220 1e 53 17 bd 87 81 c3 bd cb c6 d4 bc ba 60 54 bd
       -0.0369445 -0.0954619 -0.025973698 -0.05185006
000230 ec b0 b2 3d 45 7e 18 bd 07 03 96 bc ea 18 5e be
       0.087251514 -0.037229795 -0.01831199 -0.21689191
000240 f6 8f 4a be 79 97 fa 3d 81 39 0c be 87 21 9b 3d
       -0.19781479 0.12235922 -0.13693811 0.07574754
000250 e4 68 3c be f4 c9 eb 3d 37 66 e7 bd c1 b3 72 be
       -0.18399388 0.11513129 -0.11298793 -0.23701383
000260 5e 25 93 bd 22 7b fa 3d ae 7e 9f bd b0 d7 32 bd
       -0.071848616 0.12230517 -0.07787834 -0.043662727
000270 2e 8a fa bd ee a2 b3 3d c2 89 cf 3d ee 22 c5 3d
       -0.12233387 0.08771311 0.10133697 0.09625803
000280 46 0c f9 bd 20 7c 54 bc 93 e1 43 3e a6 ec 97 3d
       -0.12160544 -0.012969047 0.19129018 0.07418184
000290 da 0c aa 3d a0 bf 18 bd be a8 38 be 9c 0e 39 be
       0.083032325 -0.037292123 -0.1803312 -0.1807198
0002a0 ca 49 d4 bd c0 49 b0 3c 26 d2 83 bd ed 1d c1 bd
       -0.10365637 0.021519542 -0.06436567 -0.09429536
0002b0 9c 55 23 bd 6f 86 0a 3e 96 01 92 bd e8 1c 86 bd
       -0.039876565 0.13527845 -0.07129209 -0.06548482
0002c0 ca 98 b9 bd d5 10 ae bd 3e 6a 3b be 10 aa 17 bc
       -0.09062345 -0.08499304 -0.18302247 -0.009256855
0002d0 da c3 15 be c6 5c c1 3d 65 a9 21 be a9 02 da bd
       -0.14625493 0.09441523 -0.15787275 -0.10645039
0002e0 8c 79 2b 3d 99 d9 3e be a8 0e 26 be 9e 6f 41 be
       0.041863963 -0.18637694 -0.16216528 -0.18890235
0002f0 08 ca ed bd ef 45 84 be a4 d2 60 3d 97 ec 01 be
       -0.116108 -0.25834605 0.054888383 -0.12687908
000300 2c 52 e0 bd 35 a3 7c be 52 92 30 be 46 15 1a be
       -0.10953173 -0.24671634 -0.17243317 -0.15047178
000310 22 cd 87 be 0e 6e ef bc 09 f3 33 be b3 54 38 bd
       -0.2652369 -0.029227283 -0.1757318 -0.04500265
000320 5c c3 41 be 25 64 33 be 94 e9 26 be 74 cb 7e be
       -0.1892218 -0.17518671 -0.1630004 -0.24882299
000330 7e 38 37 be e2 ec cb 3d 66 2f 1d bd 50 c7 9e 3d
       -0.17892644 0.09957291 -0.03837528 0.077528596
000340 06 de 21 be 39 0d 30 bd 69 71 38 3e e1 18 01 3e
       -0.15807351 -0.04298136 0.18012013 0.12607147
000350 40 e0 36 bc 40 8e aa bb 41 c3 16 3e 7c 5f b5 bd
       -0.011161864 -0.005204946 0.14722921 -0.08856103
000360 55 52 bb bd 66 36 1d be 01 3c d9 3c e7 f4 6f 3d
       -0.09146563 -0.15352783 0.02651787 0.058583166
000370 74 de d8 bc 5d 5f 86 bc 50 02 d2 bc c8 45 63 be
       -0.026473261 -0.016402895 -0.025635868 -0.22194588
000380 ba 91 fa bd 05 53 54 3d f5 15 ef 3b b9 15 af 3d
       -0.122348264 0.051836986 0.0072963187 0.08549065
000390 8a 81 b4 bd 1c 95 74 3d 43 22 8d bd a5 03 08 be
       -0.0881377 0.059712514 -0.068913005 -0.1328264
0003a0 7e 5d a9 bd 13 2a c3 3d 8a 98 04 be b6 c9 c0 3d
       -0.08269785 0.095295094 -0.12948814 0.09413473
0003b0 47 75 61 bd 6d ca 1b be 92 44 e7 3d 36 d0 aa bd
       -0.055043485 -0.15213938 0.112923756 -0.08340494
0003c0 15 d8 15 3e 60 ce 9b bd 38 25 0c bd 24 66 38 bf
       0.1463321 -0.07607722 -0.034215182 -0.72030854
0003d0 31 e7 b8 3e 0a 68 b3 3e 76 d8 3a be 84 2b 50 bf
       0.36113885 0.35040313 -0.18246636 -0.813164
0003e0 9b 48 84 3d 45 8c 70 be 48 b5 20 bc f1 12 d9 be
       0.06459161 -0.23491009 -0.009808846 -0.42397264
0003f0 7d 5b 61 3a 5a 0c 38 be 2e 2c 28 bf c7 c9 12 3e
       0.00085967017 -0.17973462 -0.6569241 0.14334784

network.0.bias f4 [256]
000000 15 71 60 bd 3a 4f 60 3e 2c dc 26 bd 66 b0 ba 3d
       -0.054795343 0.21905223 -0.040737316 0.091156766
000010 d5 d1 36 be 61 41 48 3c 03 e2 32 be 36 71 6a be
       -0.17853482 0.012222619 -0.17469029 -0.22894749
000020 f7 08 be bd 4a e0 ad 3d 63 f7 e1 3d 3c 75 bf bd
       -0.09279054 0.08490045 0.110335134 -0.093485326
000030 98 11 a3 3c 10 bf d1 bd 28 08 64 3d fa 9a a6 3c
       0.01990585 -0.102415204 0.05567184 0.02033757
000040 c5 04 70 be 2c bd 7e 3d a9 b8 fc 3d f9 5a 5b 3d
       -0.2343932 0.062192127 0.12339909 0.053553555
000050 58 38 77 be d2 d5 e6 3d ab 11 83 bd 76 ef 50 3d
       -0.24142587 0.11271252 -0.06399854 0.051009618
000060 31 2e fc bd 33 b6 28 be db 57 f9 3b f3 7a c1 3d
       -0.12313498 -0.16475753 0.00760935 0.09447279
000070 ce 29 06 be e8 c8 a5 bc c8 69 aa 3d 52 8b 36 be
       -0.13101885 -0.020237401 0.083209574 -0.17826584
000080 b0 3d 79 3c 18 3a 8b 3d 8b 67 7d 3a d1 a5 1c 3d
       0.015212461 0.0679819 0.0009666613 0.038244072
000090 21 1d 1a be b0 a5 10 be fc 9d e0 bd e5 e5 50 be
       -0.15050174 -0.14125705 -0.10967633 -0.20400198
0000a0 7d 0a 61 3c 47 22 32 3e 19 a4 69 ba 01 ea 92 be
       0.013735411 0.17395888 -0.0008912697 -0.28694156
0000b0 8a 0d 53 be 94 74 c5 bd 1e d9 52 be cc f9 6a bd
       -0.20610633 -0.09641376 -0.20590636 -0.05736713
0000c0 94 8e b2 bd d5 d0 f1 bd af 0b bf 3c f8 af 25 bd
       -0.08718601 -0.1180741 0.023321 -0.04045102
0000d0 65 b7 09 3e 25 20 9e bb e2 2b 82 be cb c1 a2 bd
       0.13448866 -0.0048256093 -0.25424105 -0.07947119
0000e0 24 0f bf bd 7a 09 f1 3d df 22 41 3d 9c c9 51 be
       -0.0932906 0.11769386 0.047152396 -0.20487064
0000f0 b0 73 42 bd c7 da 26 3e 53 a4 08 be ff 62 32 3e
       -0.04747361 0.16294394 -0.13343935 0.17420577
000100 9f 71 88 bd f8 31 39 be 65 fa 3d be 54 c9 83 3c
       -0.066622965 -0.18085468 -0.18552549 0.016087212
000110 99 3a b3 be db 07 b2 bd cd f4 1c be fe f0 e7 bd
       -0.35005644 -0.086929046 -0.15327759 -0.113252625
000120 4d 93 36 be 00 ff 6e bb 64 a7 2c bd 64 ec 31 be
       -0.17829628 -0.003646791 -0.042151824 -0.17375332
000130 c9 4b 36 3e 89 be c6 bd 60 5d 43 bc a0 7c 25 3d
       0.17802347 -0.097043104 -0.011924118 0.040402055
000140 4d 91 e1 3d 22 a3 0e be 9b eb 21 3e 98 f9 99 bd
       0.11014042 -0.13929418 0.15812533 -0.07518309
000150 af be 8e bb d2 ea 29 be b6 11 ad bc 88 75 57 bd
       -0.0043562273 -0.16593483 -0.02112661 -0.05260232
000160 e0 a8 3e bd 83 3b 04 be 10 d1 9f bc 8b 80 fd 3b
       -0.04654777 -0.12913327 -0.019508868 0.007736271
000170 3d 63 12 3d cf 25 f7 bd f1 a0 b9 3c 84 d6 59 3d
       0.035739172 -0.12067758 0.02265975 0.053183094
000180 4c 05 af 3d c0 46 0d 3c 36 fc 73 3d 0c 6f 1a bd
       0.08545932 0.008622825 0.0595667 -0.03770356
000190 db e3 d3 3d f2 77 e9 3d 70 69 e5 bd b4 41 61 3d
       0.10346194 0.11399831 -0.11201751 0.0549943
0001a0 30 52 66 be f2 a0 be bd d6 f3 cd be 5d 3e 6d bc
       -0.2249229 -0.09308042 -0.40225095 -0.014480201
0001b0 83 46 3b be f0 19 68 bc 17 89 db bd b1 1b 8c 3d
       -0.18288617 -0.01416634 -0.10719507 0.06841219
0001c0 35 58 0b be 87 61 8a be 24 63 5a bd a6 f2 c3 bd
       -0.13607867 -0.27027532 -0.053317204 -0.09567766
0001d0 82 65 68 be 8b 42 ea 3d 94 45 1e be 49 c2 f3 3d
       -0.22694972 0.11438473 -0.1545623 0.11902291
0001e0 0d 6c 91 bd 24 47 73 3e d8 0e 0e be 78 f3 18 be
       -0.07100687 0.23757607 -0.1387285 -0.14936626
0001f0 f9 75 84 bd d8 54 55 be 5e fa 69 ba 64 c2 db be
       -0.06467814 -0.20833147 -0.0008925552 -0.42921746
000200 b5 ef ed be 23 dd 24 be 68 8f 7a bd 2b e3 3c bd
       -0.46471944 -0.16099982 -0.06117192 -0.04611508
000210 70 bd 59 be cc 76 e6 3d 3a 31 a0 bd 9c 8a 76 bd
       -0.21263671 0.112531275 -0.07821889 -0.060190782
000220 3b 94 6a be 44 1f 42 bd 33 b3 65 be e3 e7 2b be
       -0.22908108 -0.0473931 -0.2243164 -0.16787677
000230 36 0f e8 3d 6b 29 87 3d 6c 61 44 bd 7b 33 51 bd
       0.11331026 0.06599697 -0.04794447 -0.051074486
000240 58 be 30 3d 80 5f c1 bb 80 9c a1 be 4f e6 6f 3c
       0.043150276 -0.005901277 -0.31564713 0.014642312
000250 18 f2 1c be 6e 05 92 ba d2 86 b6 bd 9e 5f f8 3c
       -0.15326726 -0.0011140534 -0.08912434 0.030319031
000260 13 6f 6b bd bf 80 a6 bd 92 aa ca 3d da 9c fc 3d
       -0.057478976 -0.08130025 0.09895815 0.123346046
000270 93 c1 95 3e 6e 28 a8 3d 05 36 49 bd f3 8a a0 be
       0.29249248 0.08210836 -0.049123783 -0.3135601
000280 b4 d5 42 3c 23 f8 04 be 2c b2 ee bd e5 3f 40 be
       0.011891771 -0.12985282 -0.11655077 -0.18774374
000290 1f 9e e7 bd fe a8 a6 3c a0 24 bd 3d 6a 8d bc be
       -0.11309456 0.020344254 0.09235501 -0.3682664
0002a0 e3 a9 56 be 9f 4a 3d bd 99 e5 3f be b1 27 0e 3e
       -0.20963244 -0.046213742 -0.18739928 0.13882329
0002b0 64 6d 51 be 64 d1 59 be 6b 1d b3 bd 19 21 a3 bd
       -0.20451885 -0.21271282 -0.087458454 -0.07965297
0002c0 82 70 da 3c 79 af 28 bd e1 e6 f6 3d 78 e1 ec bd
       0.026664976 -0.04118297 0.120557554 -0.11566442
0002d0 ed 43 03 be 4a 04 e3 3d ae b6 91 3c e0 55 92 be
       -0.1281888 0.110848024 0.017787304 -0.28581142
0002e0 27 e2 5c be 32 db 91 3d 51 7c 68 be a1 8b 90 bd
       -0.21570645 0.07121886 -0.22703673 -0.07057882
0002f0 70 67 1c be 5b e5 a6 3c 5c 27 2d be ac f4 1f 3d
       -0.15273833 0.020373037 -0.16909546 0.039051697
000300 61 97 30 be db 60 c6 bd 11 14 db 3c 6b 3c cd 3d
       -0.17245246 -0.096864425 0.026742967 0.100212894
000310 9c 4a 57 bd 17 2f 23 3d 8f fc a4 3d 0f 84 a5 ba
       -0.052561387 0.03983983 0.08055984 -0.0012627858
000320 2b bd c8 bc 45 88 cf 3e 62 82 27 3d 16 1c 93 be
       -0.024504265 0.40533653 0.040895827 -0.28732365
000330 de 1d 06 3e 53 df 89 be ed 03 b4 3d d5 71 76 3c
       0.13097331 -0.26928195 0.08789811 0.015041788
000340 3b 80 54 be da e5 fe 3d 8a 91 76 bd ba ab 14 be
       -0.20752041 0.124461845 -0.06019739 -0.14518633
000350 6a 31 40 be d0 9a 5b be b6 e3 ab 3a 51 0e 13 3e
       -0.1876885 -0.21445775 0.0013114128 0.1436093
000360 27 d0 36 be 49 2b 07 be 85 a9 1b be d9 ff e7 3d
       -0.17852841 -0.13200106 -0.15201385 0.11328096
000370 47 a8 0c 3d a7 f0 70 bd 7a 15 e7 3d f3 21 65 be
       0.03434017 -0.058823254 0.11283393 -0.22376232
000380 1a 6d 14 3e f1 c0 14 be f2 0e 22 be 22 98 95 3d
       0.14494744 -0.14526726 -0.15826014 0.07304408
000390 f1 eb 4e 3e 0c c1 12 be 73 b1 75 3d ea fd 5a be
       0.20207192 -0.14331454 0.059983682 -0.21385923
0003a0 fb da a9 3d 09 1f af bd 59 e8 50 3e 8f 99 f4 bd
       0.0829372 -0.08550841 0.20401134 -0.119433515
0003b0 d1 bd 21 be 0e 49 b7 be d7 06 01 3e 5c 19 66 be
       -0.15795065 -0.35797924 0.12600265 -0.22470611
0003c0 31 41 ce 3d b5 67 81 be 99 a2 5e 3d 04 59 84 bd
       0.10071028 -0.25274435 0.054354284 -0.06462291
0003d0 f4 59 a7 be e9 cf 63 3e ef 42 14 bd d0 2d a2 bd
       -0.32685816 0.2224728 -0.036196645 -0.07918894
0003e0 c4 91 14 bd 99 8e 3b be 44 60 a2 be ea 43 05 bd
       -0.036271825 -0.18316115 -0.3171407 -0.03253547
0003f0 c1 5f b7 3d 8f 26 59 be a7 10 06 3e 45 6a 86 be
       0.089538105 -0.21206115 0.1309229 -0.26252952

network.2.weight f4 [512, 256]
000000 e3 26 20 bd bd 9d 0e bd 7a 06 0a bd 94 36 59 bd
       -0.039099585 -0.0348184 -0.033697583 -0.053030565
000010 5e b8 8a bb bc 4a ce bc fa f9 65 3d e8 e9 3c 3c
       -0.004233404 -0.02518212 0.0561466 0.011530377
000020 9e 1e 82 bd a5 17 c2 bd 12 e2 2e bd dc 8d 7f bd
       -0.06353496 -0.09477166 -0.042696066 -0.062391147
000030 70 fe 74 3c 1d 97 26 bd f0 59 2a bd 9e 59 78 3d
       0.014953241 -0.040671457 -0.041589677 0.06063234
000040 1c 57 04 bd 80 b9 12 bb 00 ab 5f 3c 26 df 00 3d
       -0.032309636 -0.0022388399 0.013651609 0.03146281
000050 ae 43 82 bc cc e1 5c bd 1f 22 84 bd da 07 4b bd
       -0.015901413 -0.053926274 -0.064518206 -0.049568035
000060 b2 fd 06 bd f0 40 bf bd 5a 1e 86 bd 70 43 8a bb
       -0.032956786 -0.09338558 -0.06548758 -0.004219465
000070 30 e5 6f 3c 00 2a ab ba 77 3b bc bd 08 81 68 bd
       0.014642045 -0.0013058782 -0.091910295 -0.05676368
000080 fe 86 67 3d 39 5f 96 bd a3 1b fa bc 76 d9 74 bd
       0.056525223 -0.07342381 -0.030530756 -0.0597777
000090 c6 7d 9f bc ef d3 6d bd b8 8d 1e bd 56 46 b7 bc
       -0.019469153 -0.058063444 -0.038709372 -0.022372406
0000a0 ba 90 b6 bd 40 23 28 3d ab 52 cd bd 6c 6a 9c bd
       -0.08914323 0.041049242 -0.10025533 -0.07637486
0000b0 09 30 8d bd 3e cc d9 bd 23 10 0d bd 18 99 79 bd
       -0.068939276 -0.10634659 -0.034439217 -0.060937017
0000c0 e0 8c 8a bb 4a e7 dc bd 58 98 c7 bd 30 f4 96 3c
       -0.0042282194 -0.107863024 -0.09745854 0.018426985
0000d0 ba f2 97 bd 8e 98 b8 bd 0c a9 09 bd 74 10 a7 3c
       -0.07419343 -0.090134725 -0.03360848 0.020393588
0000e0 fc 15 9f bc a2 fe b6 bd 1d a5 01 bd 78 20 1d 3c
       -0.019419663 -0.08935286 -0.031651605 0.009590261
0000f0 c0 4e ae 3c ee 16 cf bd b2 a7 cf bb 13 42 f9 bd
       0.021277785 -0.10111795 -0.0063371295 -0.12170806
000100 03 56 14 bd f6 66 b5 bd 70 d9 af bd d5 c6 25 bc
       -0.03621484 -0.08857529 -0.08586395 -0.010118206
000110 7b 6f ca bb 5c 2e bf 3c 58 c3 f1 bc 85 43 6c bc
       -0.0061778403 0.023337536 -0.029512092 -0.014420395
000120 80 81 ab ba 60 9a 28 bc 00 a4 2e 3c 7c 72 d3 3c
       -0.0013084859 -0.010290712 0.010659218 0.025811426
000130 a8 87 1a 3c 0c eb 83 bc a2 10 3f 3d 70 bc 21 bc
       0.009431757 -0.01610329 0.04664672 -0.009871587
000140 cc d3 2e 3d a6 bf f1 bd f0 fa 38 3d 05 be f3 bd
       0.042682454 -0.11804132 0.045161188 -0.11901478
000150 68 5a 62 3d 40 bd 80 3b 48 86 ba bc c2 aa 1a bd
       0.055262 0.0039288104 -0.022769108 -0.037760504
000160 38 fe 6e 3c eb 38 89 bd 2a 5e 17 3d f2 4a 42 3d
       0.014586978 -0.06700309 0.036955036 0.047434755
000170 ee 2b 5d bd 64 9c 77 bd 9b 70 ee bd a2 02 c3 bb
       -0.053996973 -0.06045188 -0.116425715 -0.0059512416
000180 4e fc 2d 3d b4 57 96 bc 09 b8 c6 bd 74 b2 ae bd
       0.042476945 -0.018352367 -0.09703071 -0.08530131
000190 62 a5 50 bd 30 73 aa bc 9c 5f ad bd e0 cc 62 3c
       -0.05093897 -0.020806879 -0.08465502 0.013842791
0001a0 b5 88 0b bd b0 3a 47 bd 88 a0 b7 bc 6c 7b ad bc
       -0.03406592 -0.048639953 -0.022415414 -0.021177016
0001b0 b8 f1 35 bd 9c 6d 46 3d e8 64 2f bc 44 84 8c bc
       -0.044419974 0.048444375 -0.01070521 -0.017152913
0001c0 bc a7 7c 3d 29 59 9c bc a0 49 c7 3b b7 07 e2 bd
       0.0616834 -0.019085484 0.006081775 -0.11036628
0001d0 58 0d f1 3c a4 5c 4e bd 92 27 ca bd 31 d8 6d bd
       0.029425308 -0.050381318 -0.09870829 -0.058067504
0001e0 f0 80 01 bd c0 9c 87 3c 28 b0 5d bd f3 9d c8 bd
       -0.031617105 0.016554236 -0.054123074 -0.097957514
0001f0 b3 b6 96 bd ac 11 2b bd 45 f5 55 bd e4 6b 6d bd
       -0.07359066 -0.0417649 -0.05223586 -0.05796422
000200 84 32 e1 bd ec 8c 86 bc d0 54 36 bd f2 9e 08 3d
       -0.10995963 -0.016424619 -0.044514477 0.033354707
000210 32 d1 51 3d 81 3c 61 ba 66 9a 6a 3d e5 c9 bc bd
       0.051224895 -0.00085920846 0.057276152 -0.09218196
000220 c2 d7 50 bd e5 90 80 bc 8c 74 50 3d c6 69 14 bd
       -0.050987013 -0.015694091 0.050892398 -0.036233686
000230 f8 9c c6 3c de 74 07 bd 3b d7 09 bd 81 43 8a bc
       0.02424477 -0.033070438 -0.033652525 -0.016877891
000240 de 7b 57 3d 44 52 50 bd 18 96 ab bd 48 db 98 3c
       0.052608363 -0.050859705 -0.083782375 0.018659249
000250 cd a2 16 bd 86 33 21 3d 46 55 3e 3d 2e a8 1f 3d
       -0.036776353 0.039355777 0.04646804 0.038978748
000260 ff a6 52 bd 21 e8 b9 bc 08 82 a5 bc 0c 90 20 3d
       -0.05142879 -0.022693696 -0.020203605 0.039199874
000270 92 75 77 bd f9 09 b5 bd 68 62 b6 bd 61 e6 c3 bc
       -0.06041486 -0.08839793 -0.08905488 -0.023913564
000280 c5 19 96 bd 0f 8f ef bd cc d0 cc bd 8c 8f d0 bc
       -0.07329134 -0.11697208 -0.10000762 -0.025459073
000290 de 89 68 bd 74 f6 42 bd 28 3a f8 bc 11 83 20 bd
       -0.056772105 -0.047598317 -0.030301169 -0.039187495
0002a0 88 54 1f 3c aa 98 3c 3d 40 42 ed 3b 18 79 52 bd
       0.009724744 0.04604403 0.0072405636 -0.051385015
0002b0 52 2a c4 bc 0d 29 c4 bd 12 b7 af bd 45 4d 9d bd
       -0.023945961 -0.09578142 -0.0857984 -0.076807536
0002c0 2a 0a 67 bd a4 bd 55 b9 0b 3c 77 bc b0 37 7b bd
       -0.056406178 -0.0002038391 -0.015089999 -0.061332405
0002d0 83 91 ce bd 6c 68 5f bd e2 ee 4c bd d2 56 d2 bd
       -0.10086348 -0.054542944 -0.050032504 -0.10270466
0002e0 b4 d7 e3 bc fa 1d 02 bd 26 9f 86 bc 4a d0 fb bb
       -0.027812816 -0.03176687 -0.01643331 -0.007684742
0002f0 39 59 59 bc 70 fa 15 bc 24 15 bc bd cc f7 32 3d
       -0.013265901 -0.009153947 -0.0918372 0.04369335
000300 c5 8c ae bd 55 f5 74 bd 80 09 4f 3d 6c b3 ea bd
       -0.085229434 -0.05980428 0.05054617 -0.11460003
000310 0d 62 92 bc c4 b8 24 bd 7c 6b ec 3c 74 36 9a bb
       -0.01786902 -0.04021527 0.028859846 -0.0047061983
000320 49 cb 29 39 b3 a4 87 bc f2 48 28 3d 4e 69 37 bc
       0.00016192826 -0.016558027 0.04108519 -0.01119454
000330 5c eb 40 bd fc 2f 61 bd 91 21 26 bc 44 f2 42 bd
       -0.047099456 -0.054977402 -0.010139839 -0.047594324
000340 c2 4a f6 bd d0 99 00 3c 18 ba 46 3c 78 b0 a6 3c
       -0.12025978 0.007849172 0.012129329 0.020347819
000350 b8 8a 33 3d b4 6e e8 bc 6b bc ad bd 52 f2 5e bd
       0.043833464 -0.0283731 -0.084832035 -0.054430313
000360 38 90 49 bd a8 a3 c6 bd 34 02 9e bc 17 af 68 bd
       -0.049209803 -0.09699184 -0.01928816 -0.056807604
000370 b4 2f c9 3c 3a bc 52 ba 04 87 b2 3c e9 eb a8 bc
       0.02455888 -0.0008038912 0.021792896 -0.020620303
000380 ca ce 79 bd ba 22 5c bd ff 7a 31 bc f8 82 ab bd
       -0.060988225 -0.053744055 -0.010832547 -0.0837459
000390 ee 1c 04 3d 14 6d b0 3c 12 cf 0a 3d a7 cc a1 bd
       0.032254152 0.021536388 0.033888884 -0.079003625
0003a0 1e 0e 3f bc 32 ca 4c bd e7 d9 d1 bd bc f6 9e 3c
       -0.011661081 -0.049997516 -0.1024664 0.019404761
0003b0 0c 94 7c bd ae a2 12 3d 40 e3 ad ba f0 fc 24 bd
       -0.061664626 0.035799675 -0.0013266578 -0.040280282
0003c0 e0 74 8c bd 3b 03 b6 bd 9e cf ba bd 99 bf bd bd
       -0.0685823 -0.08887335 -0.09121631 -0.0926506
0003d0 f5 5b 98 bd 0f ea ce bc e1 06 7c bd 7c 4c ba bc
       -0.074394144 -0.025258092 -0.061529998 -0.022741549
0003e0 b8 44 23 3c 2d 67 3c bc 93 de ca bd 7c 64 1e 3d
       0.009965114 -0.011499208 -0.09905734 0.038670048
0003f0 b4 dc e7 bc 0c 78 81 bd c0 fe d8 bc 16 68 29 bd
       -0.028303482 -0.06321725 -0.026488662 -0.04135903

network.2.bias f4 [512]
000000 c6 17 b4 bc 62 c4 60 be b9 e7 76 be b2 76 9e be
       -0.021983992 -0.21949914 -0.24111833 -0.30949932
000010 23 ab 83 bd 22 5a 77 bd e0 41 cb bd c0 f9 95 b9
       -0.06429126 -0.06038869 -0.09924674 -0.00028605573
000020 c7 bd 06 be fd a8 07 bc 1a f5 85 be 2e d1 9e bd
       -0.13158332 -0.008280036 -0.2616356 -0.077547416
000030 9f 7f ae be c6 d2 b9 bd e9 6b b1 bd 13 2b 67 be
       -0.34081742 -0.09073405 -0.0866316 -0.22575025
000040 13 31 a6 bd fe 6d df bd 37 46 44 bb bb 12 96 be
       -0.08114829 -0.10909651 -0.0029949078 -0.29311165
000050 23 d8 6c bd 84 5b 16 be 74 18 c4 bd 66 1d 43 be
       -0.05782331 -0.14683348 -0.095749766 -0.19054183
000060 3c 61 d7 3d e6 e6 f5 3b a5 4d 0a be f0 cc 41 bd
       0.10516593 0.007504332 -0.13506182 -0.047314584
000070 00 80 1f bd ab 61 83 bd 09 8c 97 bd ed 32 61 bd
       -0.03894043 -0.06415113 -0.073997565 -0.054980207
000080 d4 78 07 be 1e f6 ad bd 7c 23 2c 3c d8 b6 98 be
       -0.13229686 -0.08494209 0.010506507 -0.29827
000090 5b 12 ba bd 6a 4b 3a 3e bd cb 15 be 2b 9c 26 be
       -0.09085532 0.1819283 -0.14628501 -0.16270511
0000a0 66 72 db bd 4d 0f fb bd 79 51 63 be 8a d9 ab bd
       -0.10715179 -0.12258778 -0.22199048 -0.08391102
0000b0 7f ff e4 bd 3b 79 fa bc da b5 0c be 0d 72 5c 3e
       -0.111815445 -0.030575385 -0.13741246 0.21527882
0000c0 9f 62 ba bd f8 27 a7 bd 37 ad 41 be 80 d8 b3 bd
       -0.09100842 -0.0816192 -0.18913732 -0.087815285
0000d0 45 28 c8 bd 38 3f cc bd 8c 6e 82 be 74 7d 70 be
       -0.09773306 -0.099729955 -0.25474966 -0.23485357
0000e0 70 94 18 bd ad 01 a3 be 46 d7 22 bd 48 47 db bc
       -0.037250936 -0.31837216 -0.039756082 -0.026767388
0000f0 e2 cc a5 bd 81 09 da bd 2d 75 ba be 75 39 21 be
       -0.08095719 -0.10646344 -0.36417523 -0.15744574
000100 0a e8 f7 bd d1 2e a7 bd 0d 5d 4e 3d b2 1e 99 be
       -0.12104805 -0.081632264 0.05038171 -0.2990623
000110 0e 03 03 3e 2c 46 63 3d 2b 67 99 3e 90 5c a0 bd
       0.12794134 0.055486843 0.29961523 -0.07830155
000120 87 ae dc bd bc d3 c9 bd 2f 16 3f be ac 46 4c be
       -0.10775476 -0.09854838 -0.18660806 -0.19948834
000130 b7 77 0e be 56 3c 88 bd 24 fe 90 bb 8c 87 a7 bd
       -0.13912855 -0.06652133 -0.004424827 -0.081801504
000140 aa ad 11 be 84 93 46 be 58 a2 81 3e a1 36 c0 be
       -0.14226404 -0.1939221 0.2531917 -0.3754168
000150 80 2a c1 bd 6a 90 50 3e 33 a9 91 bb c8 f5 9d bd
       -0.09431934 0.2036759 -0.004445219 -0.07712895
000160 c5 3d 9d bc 5c 94 a8 be 0c cf d7 3d b5 c2 23 be
       -0.019194493 -0.3292569 0.10537538 -0.15992244
000170 51 1d 10 be 54 6b 3b bc ab d6 e1 bd d7 e9 3d bd
       -0.14073683 -0.011439163 -0.11027273 -0.046365585
000180 67 75 18 be 7b 03 08 be c4 c1 b0 bd c0 54 ba bd
       -0.14888535 -0.13282578 -0.08630708 -0.09098196
000190 6a 4e cb bd b6 2d 0b bd ea 89 5c be 4f 1d 32 be
       -0.09927066 -0.03397914 -0.21536985 -0.17393993
0001a0 73 dd 89 bd 7b 83 82 bd b8 ab 07 be 2b 6f bc bd
       -0.06731691 -0.06372734 -0.13249099 -0.09200891
0001b0 90 54 5c bd f6 99 03 be 24 c8 91 bd 02 3c 68 be
       -0.053791583 -0.128517 -0.07118252 -0.22679141
0001c0 04 a3 80 bd fe 66 e9 bd 10 2f 2b bd a6 01 71 be
       -0.06281093 -0.11396597 -0.04179293 -0.23535785
0001d0 1b 5c a1 3e 0a 1a ea bd dc 18 90 bd d4 f9 f0 bc
       0.31515583 -0.11430748 -0.070359915 -0.029416002
0001e0 10 ab 96 be ec 1f 5d be cf aa 68 be 87 b7 49 bc
       -0.29427385 -0.21594208 -0.22721408 -0.012311823
0001f0 ad 02 77 3e 6d 73 bd bd 0d 9b f8 bd b3 a6 8c be
       0.24122114 -0.09250531 -0.121389486 -0.2747093
000200 91 3c 9c 3e 44 98 d6 3a b6 27 50 be d2 cc c9 bc
       0.30514959 0.0016372283 -0.20327649 -0.024633799
000210 08 69 a3 bc f2 f4 de 3d cd 76 c5 bd 0c af 0c bd
       -0.019947544 0.10886563 -0.096418 -0.034346625
000220 e2 5c 1b 3f de 5c 63 bd ae a7 18 3c 00 ac 0b be
       0.606886 -0.055508487 0.009317322 -0.13639832
000230 b5 1b 8a 3d e7 1f 45 bb 37 af 37 bd 4c d8 36 3e
       0.06743566 -0.003007883 -0.044844832 0.17855948
000240 75 7f e2 bc 12 33 e9 bd 97 61 ec bd b8 4b e2 bd
       -0.027648667 -0.11386694 -0.11542051 -0.110495985
000250 05 a7 f0 bc ae 54 91 bd 48 a7 ae bd e7 2d a0 bd
       -0.029376516 -0.070962295 -0.08528 -0.07821255
000260 09 fc 6d bd 9c f6 b3 bd 72 28 eb 3e 79 e8 95 bd
       -0.058101688 -0.087872714 0.45929295 -0.07319731
000270 4e 65 89 bd b1 43 cb bc 01 36 04 be 82 43 79 bd
       -0.067087755 -0.024812551 -0.12911226 -0.060855396
000280 e1 0a f2 bc 5f 0b e3 bc c3 a5 99 bd 0d fc 3b bd
       -0.029546203 -0.027715383 -0.0750232 -0.04589467
000290 d7 57 d8 3d 2d c6 b6 bd 88 79 83 bd d4 fe eb 3c
       0.10563629 -0.08924518 -0.064196646 0.028808035
0002a0 6d e9 71 3e 3a 9a cd bd 6b 51 f2 bd 59 3b 11 be
       0.23624201 -0.10039182 -0.118319355 -0.14182796
0002b0 de 89 11 3d c0 1d 2d 3c 6c 7e d1 bd dc 0b 4b be
       0.03553187 0.010566175 -0.10229191 -0.19828743
0002c0 45 01 bc 3c a2 24 82 be ac 6e d5 be c6 5d f2 bd
       0.022949824 -0.25418574 -0.41685998 -0.11834292
0002d0 d6 aa 80 bd 1b 46 a7 bd 70 e4 78 bd 16 68 54 be
       -0.06282584 -0.081676684 -0.06076473 -0.2074283
0002e0 b7 08 f4 bd d3 31 12 bd 07 ec de bc 76 a4 c1 bd
       -0.11915725 -0.035692047 -0.027212156 -0.094551966
0002f0 aa 08 1d bd 32 f3 ff bd e4 be 2b bd ae f6 78 bd
       -0.03833834 -0.12497558 -0.041930094 -0.060782127
000300 ff 6d 8b be 92 cd b0 be 55 4c e9 bd f9 61 a0 be
       -0.27232358 -0.34531838 -0.11391512 -0.31324747
000310 62 81 ec bb fa dc 72 be 49 93 2b bd 62 c6 21 be
       -0.007217572 -0.23717108 -0.04188851 -0.15798333
000320 91 8b 08 bd 2d 0e 49 3d ad f7 3b bc 19 24 e9 bd
       -0.033336226 0.049085785 -0.011472625 -0.11383838
000330 a9 fb 0b be a6 1a d2 bc 92 4c 90 be 06 25 0b bd
       -0.1367022 -0.025647473 -0.2818342 -0.033970855
000340 25 ff c9 bd c6 0e b4 bd f9 4a ac bd c2 86 c6 bd
       -0.09863118 -0.0879188 -0.084127374 -0.09693672
000350 1c de aa be 6f 7c cc bd 12 3e 28 bd 77 f3 ab be
       -0.3337258 -0.09984671 -0.04107482 -0.33584186
000360 71 36 bc bd 4e a8 0c 3f 9b 2d 06 bc ff e8 6a be
       -0.091900714 0.5494431 -0.008189584 -0.22940443
000370 e4 6e 41 bd 74 20 8e 3e f9 c9 67 be fb a7 e3 bd
       -0.047224894 0.27759135 -0.2263564 -0.11116024
000380 3e a8 71 be 94 95 91 bd ec ae 31 bd 62 f2 ae bd
       -0.23599336 -0.07108608 -0.04337971 -0.085423246
000390 e1 26 82 bd 30 cb 44 bd 93 6c a3 bd b7 66 93 be
       -0.06355072 -0.048045337 -0.07979693 -0.28789303
0003a0 29 d6 1e be 6c cc ad bd f2 d6 ba bd d7 92 af bc
       -0.15511383 -0.08486256 -0.09123029 -0.021432323
0003b0 68 19 9a bc e6 2a 5e bd 2d a3 d8 bd 53 1d 24 3e
       -0.018810943 -0.05424013 -0.10577998 0.16026811
0003c0 d2 cc 2c be b8 b1 63 be f0 2b 1e be 16 65 aa bd
       -0.16875008 -0.22235763 -0.15446448 -0.08320062
0003d0 0c 3a ad 3d c4 af 59 be f7 83 3f be b8 a3 32 be
       0.08458337 -0.21258456 -0.18702684 -0.17445266
0003e0 cf 28 3a be 47 28 81 be ed 77 cf bd 35 4c 98 be
       -0.1817963 -0.25226042 -0.10130296 -0.2974564
0003f0 2e be b3 bd 11 7f 18 bc 58 02 c8 bd ba e8 82 3d
       -0.08776508 -0.009307639 -0.09766072 0.06392045

network.4.weight f4 [128, 512]
000000 5a 9f f5 3c d8 80 7c be 27 fd 3f 3d c4 5b 4b be
       0.029983211 -0.24658525 0.046872284 -0.19859225
000010 18 e7 b2 3b 2f a5 23 3d 6f 66 a1 bd 72 bc eb 3c
       0.0054596774 0.039952453 -0.07880866 0.028776381
000020 38 02 c6 3b 75 40 e0 be d4 4f 02 3e 81 e6 04 3d
       0.006042745 -0.43799177 0.12725765 0.03244639
000030 20 84 e8 3b c4 ed 83 bd 97 5c bd 3c dc bd c1 be
       0.0070958287 -0.064418346 0.02311544 -0.37840164
000040 ef e7 0c 3d cd 3a a2 bc a0 44 e9 bb 90 00 3c be
       0.034400877 -0.019803429 -0.0071187764 -0.1835959
000050 72 c7 87 bc ab 68 30 3e 73 56 b9 3c ec 15 ba bd
       -0.016574595 0.17227428 0.02262423 -0.090862125
000060 fa 7a c9 be 1f b5 63 bd 23 b3 1d 3d a8 0f 9d 3e
       -0.39351636 -0.055592652 0.038500916 0.30676007
000070 86 d6 12 bd dc e4 c3 bd bd 2e 23 3d 5c 12 30 3c
       -0.035849117 -0.09565136 0.039839495 0.010746565
000080 9e a0 6b be cf d9 9e bc de ca 0b 3e 4d dd 7e 3c
       -0.2301049 -0.019390969 0.13651606 0.015555692
000090 f9 ce 3c 3e 08 bc b3 be 18 98 e6 3b aa a0 0b bc
       0.18438329 -0.35104394 0.007037174 -0.008522192
0000a0 d7 4f 99 bc a0 53 6f 3c c7 18 04 be 97 1d ac bc
       -0.018714828 0.01460734 -0.12900077 -0.021010203
0000b0 33 c7 5a 3d 14 fa 11 3c 5c ef 5b bd e6 65 b4 be
       0.053412627 0.008909721 -0.053695068 -0.35233992
0000c0 ce 09 64 be ed 2e 4a be 7b 79 fe 3c 96 45 eb 3c
       -0.22269365 -0.19744463 0.031063786 0.028719705
0000d0 2b 75 cc 3d 69 4c c2 bc ee cd a3 bd d6 23 f6 3c
       0.099832855 -0.023718076 -0.07998262 0.030046385
0000e0 03 5d c9 bc 1c be 4c be b2 8b 27 3c 40 cc 36 bd
       -0.024580484 -0.19994396 0.010226177 -0.04462838
0000f0 e0 52 87 ba 8e ac fe 3c 67 d9 61 bd c4 7a 55 be
       -0.0010324381 0.03108814 -0.05513897 -0.20847613
000100 7a 10 9b 3d 40 84 1b 3b 5d fc 04 bd ee 72 6e 3e
       0.07571502 0.002372995 -0.032467235 0.2328603
000110 bb a0 a3 3e e6 0d 86 be 1d b5 16 be 0d ef 26 bd
       0.31958565 -0.2618248 -0.14717527 -0.04075532
000120 fd 3c 75 bd 69 a5 03 bd 7f 8d 83 3e 79 8d 90 bd
       -0.059872616 -0.03214017 0.2569389 -0.07058234
000130 e7 72 db bc 67 dc 49 be c0 cc 49 3b 71 ca c3 3d
       -0.026788188 -0.19712983 0.0030792207 0.09560097
000140 ff ef 62 be 5f 3c 2f bd 93 50 ba be 06 b9 ae bd
       -0.22161864 -0.042782184 -0.36389598 -0.08531384
000150 c5 44 2b bd f3 46 ae bd 08 5b f8 bc 10 d7 05 3c
       -0.04181363 -0.08509626 -0.030316845 0.008168951
000160 64 3c c0 bd 0e 88 79 3e c1 25 8f be 62 f9 35 3c
       -0.093865186 0.24368307 -0.2795849 0.011106821
000170 9b e2 45 be 8e a7 da 3c 5d 47 49 bd cc 38 26 bd
       -0.19324724 0.026691224 -0.049140323 -0.04058151
000180 c4 45 2b 3d 83 8a a4 bd 11 b6 b5 3d ca fb 06 bd
       0.04181458 -0.080342315 0.08872617 -0.03295497
000190 c6 64 fc bd 60 8e e5 3a 25 07 a1 3e ab 69 1e 3e
       -0.123239085 0.0017513745 0.31450763 0.15469997
0001a0 46 db 9a bd 53 95 7b be f1 79 b6 bd b7 fb 96 3c
       -0.07561354 -0.24568681 -0.08909977 0.018430574
0001b0 10 c4 83 3e 19 76 54 be 24 18 33 bd bf eb 5a 3c
       0.2573552 -0.20748176 -0.043724194 0.01336187
0001c0 bb 1b 87 bd 76 c8 6f be cd 40 88 3e 20 55 be ba
       -0.06597086 -0.23416314 0.2661194 -0.0014521219
0001d0 13 73 c9 be f0 05 54 bc e4 d7 52 bc 32 cc ac bc
       -0.39345607 -0.012940869 -0.012868855 -0.021093462
0001e0 c3 e7 06 bd 48 49 52 be 02 95 25 be 34 b2 03 bd
       -0.03293587 -0.20535767 -0.16170123 -0.03215237
0001f0 a7 45 9d bd 08 fd 87 bc a9 13 ba be 3d 39 8b 3e
       -0.07679301 -0.016600147 -0.36343125 0.27192107
000200 5b 93 83 be 80 86 e4 ba 5e 6e 97 3c d0 2a 60 3b
       -0.2569836 -0.0017435104 0.018485244 0.0034205206
000210 4d 7e dc bc 99 df a1 be 90 8a b8 bb c2 05 dd 3c
       -0.026915694 -0.31615904 -0.0056317523 0.026980285
000220 c7 76 14 3e a7 4f 2e bd 7d a7 ed bc b8 8d 21 3d
       0.14498435 -0.04255643 -0.029010529 0.039441794
000230 93 c6 dd 3d db 8d 48 bd 3a 87 86 be bb 3d 99 3e
       0.10828891 -0.04896341 -0.26275045 0.2992991
000240 f6 be af bc 4d 36 32 3d 48 ef b0 bb 31 f5 67 be
       -0.021453362 0.043508817 -0.0053996183 -0.22652127
000250 fb 38 6f be fd 03 4b 3d f1 8f 23 bd a1 92 43 3d
       -0.2336158 0.04956435 -0.039932195 0.047747258
000260 ca 94 02 bd 22 f2 5d 3e ca 26 5a 3e 49 43 06 3e
       -0.031880178 0.21674398 0.2130386 0.13111605
000270 9b 22 37 3e ab 5c 09 3d c9 cf 0b 3e ff 55 46 3e
       0.17884295 0.03353564 0.13653482 0.19368742
000280 c7 c2 a9 3d ae 08 9e 3c b8 9c f9 3b 28 39 2c bd
       0.08289104 0.019291248 0.0076175593 -0.042046696
000290 cf f5 cd be 7b 3a 81 bc 43 d1 88 bc 69 2e 31 3d
       -0.402266 -0.015774956 -0.016701346 0.04325715
0002a0 55 56 df be 07 04 8e bd ed 50 98 bd 58 ae 6e 3e
       -0.43620554 -0.06934362 -0.0743731 0.23308694
0002b0 32 d8 1b bf 10 b5 7c bc b9 f5 31 3d d7 e6 62 be
       -0.6087676 -0.015424028 0.04344723 -0.22158371
0002c0 68 4e 30 3c 9a 67 a5 bc 57 54 08 3e b7 95 ce bd
       0.010760881 -0.020191003 0.13313423 -0.100871496
0002d0 69 4b 79 be 8d ab 30 3e 1d 2b 02 bd 25 62 01 3e
       -0.24345173 0.17252941 -0.031779397 0.12635095
0002e0 70 3b 2c bc a8 01 53 bc 19 e8 6e bd f5 45 25 3d
       -0.010512218 -0.012878813 -0.058326814 0.04034992
0002f0 ce 50 0c bd e2 0c e1 3c 3f 37 2f 3d 69 6e d4 3d
       -0.03425675 0.027471963 0.042777296 0.103726216
000300 7d bd 85 3e 16 c1 7d be 22 72 32 3e 0a 68 6b be
       0.2612113 -0.24780688 0.1742635 -0.22988907
000310 5b 41 27 3d 62 b9 ae 3c a8 b8 27 3e 09 47 93 bd
       0.040833812 0.021328632 0.16379035 -0.07191283
000320 a0 16 b8 3d dd 82 e3 bd f0 e7 15 bb f4 bd 6d bd
       0.089886904 -0.111089446 -0.0022873841 -0.05804248
000330 48 24 07 bc e0 72 5c 3d 0b 3f e8 bd ea 57 b2 3c
       -0.008248396 0.05382049 -0.113401495 0.021770436
000340 61 85 b0 3d e8 43 87 bb 06 73 81 bc 2b df 9a bc
       0.0861919 -0.004127968 -0.015801918 -0.018905243
000350 40 04 5c be 00 b0 56 38 c7 0d 32 3d 49 b6 ed 3d
       -0.21485996 5.118549e-05 0.04347017 0.11607034
000360 4f 12 96 3d 16 4f ae be f0 a9 b3 bd c1 cd 93 3e
       0.07327711 -0.34044713 -0.087726474 0.28867915
000370 be b6 00 bd 96 b3 de be 0a 4c 61 bd 60 44 cc ba
       -0.031424277 -0.43496388 -0.055004157 -0.0015584342
000380 42 c9 9c be 2e 21 0f be 60 94 ef ba c4 f6 8c be
       -0.30622298 -0.13977501 -0.0018278472 -0.27532017
000390 14 1c f5 bc 1c 25 b8 bd 60 e8 b5 bd 98 49 0c bc
       -0.029920615 -0.08991453 -0.08882213 -0.008562468
0003a0 37 37 ef 3d 66 66 21 bd f0 d6 10 bc 9f 2b ec bd
       0.11680453 -0.039404295 -0.008840308 -0.115317576
0003b0 b8 ea 8b bd b5 6c 94 bd 2e 21 12 bd ed 3f 88 be
       -0.068318784 -0.07247297 -0.035676174 -0.26611272
0003c0 25 e8 30 bd b3 07 36 bc 16 0b fb 3c 2b 38 67 be
       -0.04319014 -0.011110234 0.030644935 -0.2258002
0003d0 9a a0 de bd c6 3b ee bd 7c 36 95 bd c3 bf 04 bd
       -0.10870476 -0.11632495 -0.07285783 -0.03240944
0003e0 29 68 06 3d 6f 6b ad bd a0 8b 12 bd c7 18 71 3e
       0.03281418 -0.08467757 -0.035777688 0.23544608
0003f0 4c c7 23 bc ec 7c be bc df bc 1a 3e b0 79 93 be
       -0.009996247 -0.023252927 0.15111111 -0.28803778

network.4.bias f4 [128]
000000 ac 9f aa 3d a6 2b b1 bd 4f 75 6f 3e ba 15 1f be
       0.08331236 -0.086509034 0.23384593 -0.15535632
000010 bf 62 03 bf 70 96 1c be 2e 91 23 be e5 b4 0d be
       -0.5132255 -0.15291762 -0.1597335 -0.13838537
000020 78 4a 8b be fb d5 3b be 1a 36 7e be 9b 4f be bd
       -0.27205253 -0.18343346 -0.24825326 -0.09292527
000030 be 54 d4 bd 4e da 51 bc fa 68 31 be d2 65 0c be
       -0.10367726 -0.012808396 -0.17325202 -0.13710716
000040 e7 aa fb bd 4b 9c 8e bd da 2f 19 be 05 d0 7e bd
       -0.122884564 -0.06963404 -0.1495966 -0.0622101
000050 af a3 b4 bd 19 0d 32 be 97 ef 13 be 57 23 ba bd
       -0.08820283 -0.17387809 -0.14446865 -0.09088772
000060 04 ea 2e be 88 4d 0f be af f4 08 3d ba dc d0 3d
       -0.17081457 -0.1399442 0.033436473 0.1019835
000070 15 5d e0 bd 20 0a ce bd 8d 01 91 3d d7 b9 c1 3e
       -0.10955254 -0.10060525 0.07080374 0.37837097
000080 a6 44 e2 bd 56 84 0d be 48 c8 f3 bd 18 37 72 be
       -0.1104825 -0.13820013 -0.11903435 -0.23653829
000090 12 30 05 be 70 b4 b1 3d 17 1e 0b 3d 77 9a 0a be
       -0.13006619 0.08676994 0.033964243 -0.13535486
0000a0 57 1b 4d bd ae 52 c5 bd 2a 70 2f be de b6 8a be
       -0.0500749 -0.096349105 -0.17132631 -0.27092642
0000b0 4e 3f 4e be d4 a0 5b 3d 7d 87 af bd 8f 4a 6c 3d
       -0.20141336 0.053620175 -0.08570764 0.057688292
0000c0 30 83 de bd 6b a7 04 bd b7 18 30 bc f9 db 53 be
       -0.10864866 -0.032386225 -0.01074808 -0.20689382
0000d0 2c 55 28 3e d6 6c 24 3e b1 7b da bd 99 de 65 bd
       0.1643874 0.16057143 -0.106681235 -0.05612049
0000e0 8d cd 0a be 0d 0c 26 be 3d ed 95 be 19 1d fe 3c
       -0.13554974 -0.16215535 -0.2928256 0.031019734
0000f0 98 41 28 be ee ae b7 bc 0a ea 31 be 40 34 29 be
       -0.16431272 -0.02242228 -0.17374435 -0.16523838
000100 96 c7 58 be ea 26 5f bd d4 37 f0 bd 1a d4 23 be
       -0.21169886 -0.05448047 -0.11729398 -0.15998879
000110 e9 c8 47 be 40 ea 26 be 6c 18 bb bd ac 8b 77 bd
       -0.19510235 -0.16300297 -0.091355175 -0.060435936
000120 8b 80 46 be 84 11 8d be 93 9f 2e be c3 e4 2e be
       -0.19384973 -0.27552426 -0.1705306 -0.17079453
000130 c8 b1 79 bb 38 3f 00 be 4a 1b 90 bd 88 fe a8 3c
       -0.003810035 -0.12524116 -0.07036455 0.020629182
000140 3e ed d6 bd 00 60 17 be 25 04 64 bd 78 d7 8f bd
       -0.10494469 -0.14782715 -0.055668015 -0.07023519
000150 b2 bd d7 bd 5c 33 b5 bd 59 74 00 3f 11 3a 2c be
       -0.105342284 -0.08847687 0.5017753 -0.16819026
000160 b4 8c 4b 3d d3 64 84 be 39 24 44 bd 97 be ed bd
       0.04969473 -0.25858173 -0.047886107 -0.11608618
000170 a6 e5 1a bd 34 60 ad be 2a b7 c4 3e 1f 1a 39 be
       -0.037816666 -0.3386246 0.38420993 -0.1807637
000180 e8 60 22 be 25 38 c8 bc 9e 1c f0 3c 56 fa 8e bc
       -0.1585728 -0.024440834 0.02931052 -0.017453354
000190 c2 a9 e1 3d 71 ca 6f be 2a ef c4 3d aa 50 8a bd
       0.11018707 -0.23417069 0.096159294 -0.06753667
0001a0 76 46 81 be a1 a8 63 bd 33 60 f5 3c 21 91 ca bd
       -0.2524907 -0.05558074 0.029953098 -0.098909624
0001b0 e5 7e 04 be 3a 8f 0a 3d 32 44 06 3e a1 45 61 3e
       -0.12939031 0.033827998 0.13111952 0.21999218
0001c0 6e 4c ec bd 6c 0a e7 bd bc 26 bd be 7d f4 d5 bd
       -0.11538015 -0.11281285 -0.36943614 -0.10447023
0001d0 6a 0f 8f 3e 50 d1 59 be 6a 7b c0 bd b3 e1 54 be
       0.27941447 -0.21271253 -0.09398539 -0.20789222
0001e0 19 61 df bc ae 1b 1e be c5 b0 c9 3e 6f 70 9c be
       -0.02726798 -0.15440246 0.39392677 -0.3055453
0001f0 52 09 92 be 45 5f 3a bd f1 39 f3 bd 2e d5 b5 bd
       -0.28522736 -0.045501012 -0.11876286 -0.088785514

network.6.weight f4 [12, 128]
000000 27 9b 8a be cc f0 b0 3e 6b db 77 3d d9 46 14 3e
       -0.27071497 0.34558713 0.060511988 0.14480151
000010 b1 34 c5 3d 34 52 9b 3d 58 13 03 3d bb 1e e5 3d
       0.09629191 0.075840384 0.03200087 0.11187502
000020 e8 ec 94 3c d5 a9 b9 3d 1b f1 dc bd f3 68 d9 3d
       0.018179372 0.09065596 -0.10788175 0.106157206
000030 e7 24 13 3e 3c 0c 3e be af aa 3b 3d 9c 10 02 bd
       0.14369546 -0.18559355 0.045817073 -0.03175412
000040 73 e2 0d 3e 54 62 76 3d 2d a9 96 bc e4 b7 82 b9
       0.13855915 0.060152367 -0.018391216 -0.0002493254
000050 1b b0 01 3e 49 10 0a 3e 0f ef 07 3e c0 a1 30 3d
       0.12664835 0.13482775 0.13274787 0.043123007
000060 d1 34 1b be 18 2d 4c 3e f8 20 24 bd 85 3f 18 3e
       -0.15156867 0.19939077 -0.040070504 0.14867981
000070 d5 4f db 3d 7e c9 1b 3e 71 f4 e3 bd c5 86 8a 3e
       0.10708586 0.15213582 -0.11130608 0.27055946
000080 17 e4 24 3e 3e 30 07 3e 77 b1 96 3c 22 c6 d4 3d
       0.16102634 0.13201997 0.018395169 0.10389353
000090 b5 f4 db bd 4d e0 89 be 2c 0f a6 bc 5a 52 f3 bc
       -0.107400335 -0.2692894 -0.020270906 -0.029702354
0000a0 47 66 96 be 85 df cf 3c b5 f9 f7 3d ad bf 89 be
       -0.29374906 0.025375137 0.12108175 -0.2690405
0000b0 63 3c 28 be 4d d4 df 3e ad 4c f2 3d 02 b2 41 3d
       -0.16429286 0.4371666 0.11831031 0.047288902
0000c0 7e bd d2 3c e9 48 9e 3c 97 88 02 3e 9f 29 e1 3d
       0.025725123 0.019321876 0.12747417 0.10994267
0000d0 ec e3 6d 3e 52 e7 d6 be 4d 1e 11 3d 66 ce db 3b
       0.23231477 -0.41973358 0.035429288 0.006707954
0000e0 6d 6a 08 3e f7 64 59 39 23 1d 2d 3e 36 e1 8b bd
       0.13321848 0.00020732345 0.16905646 -0.06830065
0000f0 02 cd 11 3e 0d 85 0d 3d f3 51 33 bd 42 82 28 3e
       0.1423836 0.034550715 -0.043779325 0.1645594
000100 6a 0a 0b 3d f5 0f 06 3d c7 13 a4 3c 79 a1 31 3e
       0.03394548 0.03273006 0.020028962 0.17346753
000110 d1 8e da 3d 32 de dd 3c 9e 5b 19 3d cb a4 62 3c
       0.10671771 0.02708349 0.03744089 0.013833235
000120 d9 11 a3 bd 33 5b 94 bd 8e 51 84 3c fa 45 d7 3d
       -0.079623885 -0.07243957 0.01615217 0.10511394
000130 38 62 1a be 29 b9 9c 3d 4d c7 08 3c e0 7a 3f be
       -0.1507653 0.07652504 0.008348298 -0.18699217
000140 23 ed 4a 3c 53 34 de bc 71 fb 84 3d b6 79 cb 3d
       0.012385639 -0.02712456 0.06493271 0.09935324
000150 82 c8 00 3e c1 50 9e 3d d0 46 31 be 74 e4 b4 bc
       0.12576488 0.07730246 -0.17312169 -0.022081591
000160 38 df 1d 3d db 2b 33 be 8d 8b dc bd 30 28 4f bd
       0.038542956 -0.17497198 -0.10768805 -0.050575435
000170 62 0e 0d 3e 72 c3 b9 3d bd c1 35 3c 82 ee 24 3e
       0.13775018 0.09070481 0.011093554 0.16106609
000180 03 bd 6d 3c 80 4b 8e bc 80 6e bd bd 03 70 9d bc
       0.014510396 -0.017369986 -0.09249592 -0.01921845
000190 e3 6a 3a 3d d2 20 86 3d 42 b1 7f bd 5a ef aa 3d
       0.04551209 0.06549229 -0.062424906 0.08346434
0001a0 7e 26 16 3d f7 4a 0e 3e 44 cf 9f 3d e9 92 68 3e
       0.036657803 0.13895784 0.07803205 0.22712292
0001b0 2c 01 94 be a8 39 a0 bd 2f 36 32 be ed e8 f5 3e
       -0.28907144 -0.07823497 -0.17403482 0.4802927
0001c0 e6 22 ff 3d 3f 91 90 3d 09 87 e6 3b 8e 3d 80 be
       0.12457828 0.070589535 0.0070351404 -0.25046962
0001d0 f4 6e 8b be bf 36 68 bd e8 2d 96 be 73 88 a2 3c
       -0.27233088 -0.056692835 -0.293319 0.019840455
0001e0 92 72 17 3d a9 62 c5 3d 01 46 78 be e3 0d 51 3e
       0.036974497 0.096379586 -0.24245454 0.20415454
0001f0 4e 3b 4e bd e2 77 b9 3d 35 40 db 3d ef f8 3e 3e
       -0.050349526 0.09056069 0.10705606 0.18649648
000200 84 67 cf bd b6 40 a3 3d 6f d2 cc 3e bd e5 e3 3d
       -0.10127166 0.07971327 0.40004298 0.111278035
000210 da b0 8d 3e 9a a4 01 3e 12 ff 06 be 38 57 ad 3d
       0.2767399 0.12660447 -0.13183239 0.08463901
000220 ee 0e 32 3e 5b c5 12 3e d3 fb eb 3d 89 35 ea bc
       0.17388508 0.14333098 0.11522641 -0.02858998
000230 7a f5 f0 3d 95 c6 55 3e 95 df 09 3e ee 1a aa 3d
       0.11765571 0.20876534 0.13464196 0.08305918
000240 55 bb 9c bb ec 5f 1f 3c 47 86 fe 3c e3 9b ee bc
       -0.004783074 0.009727459 0.031069888 -0.029127067
000250 41 7e f9 3d 76 3f c7 3c db b2 04 3e dc 6e ea bb
       0.12182284 0.024322253 0.12958853 -0.0071543287
000260 86 24 64 3e e8 f8 e1 3d 1f 3a fe bd b5 f4 77 3e
       0.22279558 0.11033803 -0.124134295 0.24214442
000270 7a 1d ba 3d cb 92 f2 3a 06 ed 71 3c 50 fa 1a 3f
       0.090876535 0.0018506882 0.014765983 0.60538197
000280 33 45 49 3d f3 cb 06 3e df 32 3a bc e3 42 a7 3d
       0.04913826 0.13163738 -0.011364668 0.081670545
000290 ed 99 97 bd 69 c6 72 3e 17 e3 bc bd c5 1f f4 bd
       -0.07402406 0.237085 -0.092230015 -0.11920122
0002a0 e5 dc 5f 3e f1 83 23 3d f8 cd 6a 3d 38 65 36 3e
       0.21861608 0.03992075 0.057325333 0.1781205
0002b0 9c 17 5d 3d 55 f7 0f 3d f3 29 f3 3d 34 e9 4c bd
       0.053977594 0.035147984 0.118732356 -0.050027087
0002c0 e2 f2 a0 3d 5e f0 8e bd 3a b9 98 bc 5f 42 ae 3d
       0.07858826 -0.0697944 -0.01864301 0.08508753
0002d0 85 61 df 3b 9b 64 ff 3d 69 b1 8b 3d 81 64 c7 3a
       0.006817045 0.12470361 0.06820948 0.0015212448
0002e0 e4 38 c0 3d 88 6b 2c be 44 8e 35 bd 63 a2 18 3e
       0.09385851 -0.16837895 -0.04432513 0.14905696
0002f0 0e 07 10 3f a7 39 0b 3e 6f 3e 1c 3e d2 bf 0e 3c
       0.56260765 0.13596211 0.15258192 0.008712726
000300 03 31 cf 3d c0 8f 0f 3e ee 25 8d 3d 47 6a cf bd
       0.1011677 0.1401968 0.06892 -0.10127693
000310 da a4 2f 3d b3 20 0c bd 5f 5f 3c 3d 69 8e 89 3d
       0.042881824 -0.034210872 0.04598939 0.06716616
000320 13 20 a6 bd 6f 0c 2e 3e 2b 01 d4 3d 1c 81 bb 3c
       -0.081115864 0.1699693 0.10351785 0.022888713
000330 cd e6 c7 bd 7c 52 ba 3d 58 34 f0 3d 38 a5 c4 3d
       -0.09760819 0.09097764 0.11728734 0.096018255
000340 b9 a8 04 3e 89 14 44 3d f7 ff 11 3e e3 1e 24 3d
       0.12954988 0.047871146 0.14257799 0.04006852
000350 79 16 db bd 20 eb ad 3b ee d9 bc 3e 75 4f 23 bc
       -0.10697646 0.00530757 0.36885017 -0.0099676745
000360 4d 6b 1c 3d f2 ec b5 3d 1a 33 a0 3d af ab b5 3d
       0.038188267 0.08883084 0.07822247 0.08870637
000370 4e c1 0e 3d fd 7b f7 3e 6b 81 17 be 5f 9f 7a bd
       0.03485232 0.48336783 -0.14795463 -0.061187144
000380 e0 3a 51 3c 25 da 8d 3c 68 76 31 be a8 fb b7 3d
       0.012770385 0.017315933 -0.17330325 0.089835465
000390 53 f8 2e be dc 45 f2 3d d9 30 46 bd 81 5f 9a 3d
       -0.17086916 0.11829731 -0.04838643 0.07537747
0003a0 ca ef bb 3c d9 82 16 3e 17 14 04 3e 37 6d a4 3e
       0.022941489 0.14698352 0.12898289 0.32114574
0003b0 c5 e8 4b 3e 12 8f 4a 3e a8 b5 68 be bc de 3f 3e
       0.19913013 0.1978114 -0.22725546 0.1873731
0003c0 97 c1 4b 3d 76 72 2d 3e dc 8c 04 3f d6 b2 8a 3e
       0.04974517 0.16938195 0.51777434 0.27089566
0003d0 38 76 b9 3d 61 f9 cc 3d e3 73 84 3e 31 95 87 3d
       0.090557516 0.10008503 0.25869665 0.06620253
0003e0 47 5d 31 3c b2 e7 83 bd 0e c2 b0 3c 47 b5 13 3f
       0.010825462 -0.06440677 0.021576907 0.5769848
0003f0 a5 c0 f0 bc 4e 38 30 3d 31 50 7d 3d 5e 34 05 3d
       -0.029388735 0.043022446 0.061844055 0.032520644

network.6.bias f4 [12]
000000 5e 88 0c bc 35 7b c1 3e 32 f4 a2 bd d6 41 ad be
       -0.008577434 0.37789312 -0.07956733 -0.3383929
000010 90 6d 67 be da 10 1f bc cd d1 ef bd 78 f4 6d bd
       -0.22600389 -0.009708608 -0.11709938 -0.05809447
000020 11 67 0e bf 7d 1c a6 bd 3f 6c 62 3d 96 c0 c5 3d
       -0.55626017 -0.081109025 0.055279013 0.096558735
