model/DQNAgent2_20-08-2022__23-54-56.pth/DQNAgent2_20-08-2022__23-54-56.pth (torch, 805711 bytes, 8 tensors)

network.0.weight f4 [256, 7]
00000000: 4992 30bd 0eb4 9fbe 30f6 2abe 9dbe 15bf
00000010: 5985 963d a5f4 6cbe 9aab 9fbe 9b14 d6bd
00000020: c609 05bf 05a0 b83b 2aae 7cbe 9ea0 c4be
00000030: 8dde 9e3d 0444 e2bd 6a06 90be cff6 b93e
00000040: 7878 babe c4c1 85bd 9068 5abd 5f5e b3be
00000050: c6cb 1b3e 30fd e3bd 1056 f9bd 2f80 4d3d
00000060: 604b a2be 6745 a53d fac9 cdbe 64fc 743e
00000070: e1ab 94be 9dea 873d 615f f23d 3767 74be
00000080: efe8 52bc b4f4 05be 3374 393e 1fae d4bd
00000090: 4e5b ddbe 3037 91bd f84c 07bf 9aac 033d
000000a0: cf83 bbbe d9ac f7be 9e07 c0be d9ca b03e
000000b0: fcd3 e1bd 38de 6a3d f3ff 12be 45cc 78be
000000c0: 5b74 51be 553c 65bd bb05 32be f81f 2cbe
000000d0: eb32 ccbc c82b 5abe 3c2a 013e 036c 023e
000000e0: d4b6 a1bc 0f8f 82be 202c 67be 514b 8bbe
000000f0: 7431 7abe 70d6 ad3b 68e9 743e 666c 90bb
00000100: 3603 103b b848 a7be 126e cdbe e839 4abe
00000110: 768e debe e220 44be 8138 8dbe b624 76bd
00000120: cb9e bfbd c6dd 47be dea6 a7be df93 0dbd
00000130: da4c b9be 80b4 bdbe 6626 bf3d 4bf4 843f
00000140: 263a 54bf e033 843e 3be7 88be 14c6 e23e
00000150: 19e6 83bd 2694 ce3c f7b2 73be ad10 e7be
00000160: 0c35 843d 4d49 f9be 0992 adbd b50b 7fbe
00000170: ade3 bfbe 8033 903d 9429 a7bd 3afe 86be
00000180: 7039 a0be 1856 90bd 6db3 e0bb fb84 c2be
00000190: 1a8f 1c3d 78c8 6c3d 9d36 e1be a595 0f3e
000001a0: 0014 473b a3f2 3ebe 9556 723d 5d73 023c
000001b0: 83ad 50be 4071 0fbd 6f78 02bc d461 593d
000001c0: bc7e 24be 63de 1fbf 25da b9bd 5905 3dbf
000001d0: c196 59be e78a fcbe 73d2 03bf 63a0 0cbf
000001e0: 9716 9bbe a68b 6ebe ac30 c6bd 087f f6be
000001f0: 1696 2a3e 5d33 35bd 1977 28bf 181a 28bf
00000200: add7 82be 580e 283d 8bb7 a2bd e666 873e
00000210: f590 c03d 2b47 0abf 8a4a 5a3e bc54 513f
00000220: af12 b6be 9df2 f5be 5441 bf3e 70e6 1bbf
00000230: 892f 1cbf 6206 d3be e3a4 a7be 9f67 d2be
00000240: bfd0 a93d 668d 203e 8dca 3f3d adf0 823b
00000250: b988 b1be 9d62 c03c 365f 00bf 002a ecbe
00000260: ca11 00be 9e94 38bd ad6b c1be c4c5 2d3e
00000270: 7cd6 dabe 2762 36bf 02f7 80be 3389 a3be
00000280: f030 efbe 6d39 693c 589d 09bf fefe f7bd
00000290: 7271 a53b a0d9 c3be 9aaf a4be b9b6 9c3d
000002a0: fa5b 63be 3ea9 b5be 50a7 0abd c497 9f3d
000002b0: e88b fbbd 1276 c0be 47d5 48be 45a6 e13b
000002c0: db08 58bd d118 95be 0b90 3abd 6be9 f7bd
000002d0: 8065 acbb d420 3dbe efb8 b1be f463 babd
000002e0: 8a62 4c3e 14cf 923d 0075 203d 1c37 00be
000002f0: a871 8a3d d830 c8bd 8d03 e5bc f5b4 a5bc
00000300: 0866 88bc b50d d63d ac92 a4bd b181 c5be
00000310: 962e 9cbe 2ba5 573d f09d e8bc 3ff8 39be
00000320: 5c7f 2cbe c74c 67be 2e1e acbd dfde 19bf
00000330: fed3 ba3f d34b 453f 6626 9dbe 1db4 29be
00000340: 020b 1bbb 03ca ee3d 52d2 13bd c518 fbbe
00000350: c898 933d 9191 d9bd 5542 23be 9ca4 30be
00000360: 90a0 1ebd 4fd3 aabe cd6d 7abe e6e6 3c3e
00000370: de5d 113e 6064 a9be 2758 91be 1c57 86be
00000380: 5850 40bd d8b7 8dbe 9c51 16bd 6deb 3fbf
00000390: 4671 3a3e c3f5 193e afa0 a3be b2b8 22bf
000003a0: 0883 c6be e8ae 1a3e 307d 09c0 953a 273f
000003b0: 317b 253e 036f a3be ee53 24be ae1d e3bd
000003c0: 1489 74bd 6017 d4bc b27a a4be e382 aabd
000003d0: 052e 5fbe 26e7 44be 3e6e 0bbe 7841 d73d
000003e0: e403 f8bd 9038 36bd 96d4 4c3e e067 07bd
000003f0: 8bb4 b2be b837 f9bd 5c0c b53d f6ff 9bbe
-0.04310826 -0.31192058 -0.16695476 -0.5849398 0.07349653 -0.231402 -0.3118561 -0.10453149
-0.5196804 0.00563431 -0.24675813 -0.3840379 0.07757292 -0.11048129 -0.28129894 0.36321113
-0.36420035 -0.065310985 -0.053322375 -0.35032937 0.15214452 -0.11132276 -0.12174618 0.050171074
-0.31698132 0.08069878 -0.40193158 0.23924404 -0.29037383 0.06636546 0.11834598 -0.23867498
-0.0128729185 -0.13081628 0.18110733 -0.103847735 -0.43233722 -0.07090604 -0.5285182 0.032147028
-0.36624 -0.4837406 -0.3750581 0.3452976 -0.11026761 0.05734083 -0.1435545 -0.24296673
-0.20454542 -0.05596574 -0.17384999 -0.1680907 -0.024926623 -0.21305764 0.12613767 0.12736516
-0.0197405 -0.2549977 -0.22575426 -0.272059 -0.24432927 0.005305104 0.23917162 -0.0044074534
0.002197457 -0.32672668 -0.4012304 -0.19748652 -0.43468064 -0.19153169 -0.27582172 -0.060093604
-0.09356459 -0.19518194 -0.32744497 -0.03456485 -0.36191446 -0.37051773 0.09333496 1.0387052
-0.8290123 0.25820827 -0.26738915 0.44291747 -0.06440372 0.025217127 -0.23798738 -0.4512991
0.064554304 -0.48688737 -0.084751196 -0.2490681 -0.3747839 0.07041073 -0.08162227 -0.26365834
-0.3129382 -0.07047671 -0.0068573267 -0.3799208 0.03822241 0.05780837 -0.4398698 0.14021929
0.003037691 -0.18647246 0.059164602 0.007962075 -0.2037869 -0.035020113 -0.007963284 0.05307181
-0.1606397 -0.6244871 -0.09074811 -0.73836285 -0.21248914 -0.49324724 -0.51492995 -0.5493223
-0.30290672 -0.23295459 -0.09677252 -0.48143792 0.16658816 -0.044238437 -0.6580673 -0.65664816
-0.25555173 0.041029304 -0.07945164 0.26445693 0.09402648 -0.54014844 0.21317497 0.8176992
-0.3556113 -0.48036662 0.3735453 -0.60898495 -0.6101003 -0.41215807 -0.32742986 -0.41094682
0.08291768 0.15678939 0.046824027 0.003995976 -0.34674624 0.023484522 -0.5014528 -0.46125793
-0.12506786 -0.045063607 -0.37777463 0.16969973 -0.42741764 -0.7124352 -0.25188452 -0.31940612
-0.46717024 0.014234883 -0.5375571 -0.12109183 0.005048924 -0.38251972 -0.32165223 0.07652039
-0.22203055 -0.35480684 -0.033850968 0.07792619 -0.122825444 -0.3759008 -0.19612609 0.006886276
-0.05274282 -0.29120496 -0.045547526 -0.12105068 -0.005261123 -0.18469554 -0.34711406 -0.09101096
0.19959465 0.07168403 0.03917408 -0.12521023 0.067599595 -0.09774941 -0.027955795 -0.020227889
-0.016650215 0.10451833 -0.08035788 -0.3857551 -0.30504292 0.05264775 -0.028395623 -0.18161105
-0.16845459 -0.22587882 -0.08404194 -0.601057 1.4595945 0.77068824 -0.30693358 -0.16572614
-0.0023657684 0.116596244 -0.03608925 -0.49042335 0.07206875 -0.10623468 -0.15943272 -0.17250293
-0.038727343 -0.3336434 -0.24455948 0.18447456 0.14195964 -0.33084393 -0.28387567 -0.26238334
-0.04695162 -0.27679324 -0.036698923 -0.74968606 0.18207273 0.15035157 -0.3195853 -0.6356307
-0.38771844 0.15105784 -2.1482658 0.65323764 0.16160275 -0.31920633 -0.16047642 -0.11089645
-0.05970104 -0.025890052 -0.3212486 -0.08325746 -0.21794899 -0.19228801 -0.13616273 0.10510534
-0.12110117 -0.044487536 0.2000297 -0.033058047 -0.34903368 -0.12168831 0.08840248 -0.3046872

network.0.bias f4 [256]
00000000: c2b6 70be 0cce 343c 2585 07be d004 e8be
00000010: 32f9 9ebe 4f31 1bbe d78e b33e 0cae e8bc
00000020: 0ff3 f4be b7fc 65be 5a55 89bd f560 993e
00000030: 7987 89bd 8c7d b9bd dad0 b8be 02e0 ecbe
00000040: 8868 a9be bb61 8fbd d186 f8bc 4cfc 333f
00000050: ecfb 8d3d daac c1be 104a 663f f97f c8be
00000060: b761 803e 74af 95be cd77 43be ba40 ac3d
00000070: bce4 11bf 1dc5 8a3f d7b6 1bbe d422 e13d
00000080: ab5e 04bf bc22 2f3e 345e 05bf 78a5 d73d
00000090: e1f0 b1be 012b 18bf 1511 54be 7129 8dbe
000000a0: ac62 c1be 4595 cc3d 3a9d 04bf 61b9 fdbe
000000b0: 21ac 82bd 4805 e5be 1d1c adbe 7890 17bf
000000c0: 24a4 603e 58b7 83bd 87a9 53be 37ae 9fbe
000000d0: 28e9 73be 56c2 443e 5816 22be 56c4 94be
000000e0: 235c 81be b49b c5bd f57d a9bd 73a0 8c3d
000000f0: f2a5 623e 7465 d63d 8cb0 e4be 7c40 19be
00000100: 39c4 20be 69dc 28be e24c 69be 735c 92be
00000110: 4699 aebe abde 5a3e b516 91be 3006 1bbd
00000120: fc25 723e b846 23be ed28 6e3f 81be 98be
00000130: 0069 243e 6088 7d3f 8c51 dfbd bb74 25be
00000140: bc46 8a3d f06f 7ebe 70dc c6be cb2c 6fbe
00000150: aa79 99bd b55d 8a3e a328 8bbe 7b9e 12bf
00000160: 8886 893c 653a e6ba 93bf f7bd df86 afbd
00000170: ba99 03bf 7b89 a2be 6ccb 1e3e fcba 8cbc
00000180: b0bb 29bd 7daa e93d 280b d4bd 5c23 fa3d
00000190: b11b fabe 4c92 98be 90f9 963e d597 42bd
000001a0: dab3 b1bd 0cf5 d9bd a2fa fabe da02 693d
000001b0: f427 02bc 8a3a d0be 70c9 6bbd 033b 0abf
000001c0: 3ac4 12bd 23a1 1dbe 0abe 4fbe afa9 4c3e
000001d0: 7bcc 30be c499 a7be 5d42 a2be 846b c2be
000001e0: 7468 0dbf 7923 52be 0474 c3bc 3f69 6a3d
000001f0: 50c2 183f 40fb 153d 4df7 04bf 5c37 c63e
00000200: 79bc f2be ecdc efbe 9e6a 443e acb9 20be
00000210: 788b 40bd 170d 7cbe ab9f 9abc d187 85be
00000220: e808 bfbe 64f4 c0be 4806 34be 8fdd 6ebe
00000230: 0361 a83e aa1c f5be 650a 823e c2e3 f03d
00000240: ed52 1bbe 2452 71be 4f85 8abe 2b46 b83d
00000250: af77 44be 59cc 173e 3059 2dbf 292b fdbe
00000260: 783a eabe 3d48 6abe f6d7 e4bd 2ddf 4ebf
00000270: 30aa cfbd 71ec d7be ae43 e8be 95ad 6abd
00000280: 0248 fcbe 0171 3b3f 26ec 443e e4af a5be
00000290: c8b8 30bd 15e5 2ebe e980 d7be 90bc 2a3e
000002a0: 9e4c 53be c038 443c e247 783d 14a5 613c
000002b0: 3278 32be 6b79 a93e 111f 2f3e 9c66 f2be
000002c0: 2d86 d3be de83 4f3e 3813 d7be e405 973f
000002d0: b8f7 8f3d f344 923d 6ce9 e6be cff4 44be
000002e0: f519 aebc d2f3 ecbe 4acb 16bf 895d 023e
000002f0: 6da2 19bf e401 4bbd 4d5b d7be 8acb c0be
00000300: f0f5 babe 2eb0 4e3e 2e32 35be 6e49 483d
00000310: 9e79 13bd f402 d0be 220c 753e 6574 21be
00000320: bb33 84be 7c9f d7bd 7788 77be 3b65 9abb
00000330: 7443 223d 873a 003e 5c16 1dbf 8843 36be
00000340: 540c a63f e34e 0d3d bbbd e8be aedd 72bc
00000350: cbaf b1be 004e 9fbe ecee 01bf 5249 413e
00000360: b55d a7be db64 a1be ceee 0c3e 5235 a9be
00000370: 08b7 1bbd ffe0 003e 9078 04bf 41a2 023e
00000380: 7014 aa3c ee04 a43d 2f9f adbe 2fa0 0bbe
00000390: 9de8 bfbe 7bcc 7ebb 9069 9dbe bbaa 4e3d
000003a0: 2fbb 8dbe 28ed 5cbe effe fbbe 77c4 82be
000003b0: 5242 9dbb aba8 49be 4082 2ebc f565 c03d
000003c0: de1f 803d dcdf 7bbe d157 d3be c07f 80be
000003d0: f1f5 813d ae0b 89be 9cae f83d e11e 0dbf
000003e0: 4477 b9be 10fa 53bd f9c5 d2bc a434 35be
000003f0: 9a3d 62be 22c5 253e 06fa f1be 0b7a 49be
-0.23507217 0.0110354535 -0.13234384 -0.45316172 -0.31049496 -0.15155528 0.35069916 -0.028403305
-0.4784169 -0.22459684 -0.06705733 0.29956785 -0.067152925 -0.09057149 -0.3609684 -0.46264654
-0.33087564 -0.070010625 -0.030337723 0.7030685 0.06932816 -0.37827188 0.8995676 -0.39160135
0.2507455 -0.29235423 -0.19088669 0.08410783 -0.56989646 1.0841404 -0.15206467 0.10992971
-0.5170695 0.17103094 -0.5209687 0.105296075 -0.3475409 -0.5944062 -0.20709641 -0.2757068
-0.37770593 0.099894084 -0.5180241 -0.49555495 -0.06380487 -0.44730592 -0.3381051 -0.59204817
0.21937615 -0.064314544 -0.20670138 -0.31187603 -0.23819411 0.19214758 -0.15828836 -0.29056042
-0.25265607 -0.09648839 -0.082759775 0.06866541 0.22133616 0.104685694 -0.44665945 -0.14966005
-0.15699853 -0.1649033 -0.22783235 -0.28586158 -0.34101313 0.21374004 -0.28337637 -0.037847698
0.23647302 -0.15944946 0.930312 -0.29832843 0.1605568 0.99036217 -0.10904226 -0.1615781
0.06751773 -0.24847388 -0.38840055 -0.23356931 -0.07493909 0.27024618 -0.2717944 -0.5727307
0.016787782 -0.001756501 -0.12097087 -0.085706465 -0.51406443 -0.31745514 0.15507287 -0.017179005
-0.04143876 0.11409471 -0.103536904 0.122137755 -0.48849252 -0.29799116 0.29487276 -0.04750808
-0.08676882 -0.10642442 -0.49019343 0.056887485 -0.007944096 -0.40669662 -0.057565153 -0.53996295
-0.035831667 -0.153935 -0.20287338 0.19986604 -0.17265503 -0.327345 -0.31691256 -0.37972653
-0.5523751 -0.20521344 -0.023859031 0.057229277 0.596715 0.036616564 -0.5193985 0.3871411
-0.47409418 -0.46848238 0.19181296 -0.15695828 -0.047008008 -0.24614368 -0.018874964 -0.26080182
-0.37311482 -0.37686455 -0.17580521 -0.23326705 0.32886514 -0.4787343 0.25398555 0.11762191
-0.15168352 -0.2356649 -0.2705483 0.089977585 -0.1918628 0.14824046 -0.67714214 -0.4944699
-0.45747733 -0.22879119 -0.11174004 -0.8080929 -0.101398826 -0.42172578 -0.45364136 -0.057294447
-0.49273688 0.73219305 0.19230708 -0.32360756 -0.04314497 -0.17079575 -0.42090538 0.16673493
-0.20634696 0.011976421 0.060615428 0.013772268 -0.17428663 0.33100447 0.17101695 -0.4734391
-0.41313305 0.20265147 -0.4200685 1.1798673 0.070296705 0.07142057 -0.45099962 -0.19234012
-0.021252612 -0.4627977 -0.58903944 0.12730993 -0.6001347 -0.04956235 -0.42061844 -0.37655288
-0.3651576 0.20184395 -0.17694923 0.048898153 -0.036004655 -0.40627253 0.2393041 -0.15767057
-0.25820717 -0.10528466 -0.24173151 -0.0047117746 0.03961511 0.12522326 -0.6136224 -0.17799199
1.2972512 0.03449906 -0.45457253 -0.01482336 -0.34704432 -0.31114197 -0.5075519 0.18875626
-0.3268868 -0.3152226 0.13762972 -0.33048493 -0.03801635 0.12585829 -0.51746464 0.12757207
0.020761698 0.08008753 -0.3391051 -0.13635324 -0.37482157 -0.0038879204 -0.307446 0.05045579
-0.27681872 -0.21574843 -0.49217936 -0.25540516 -0.0047991658 -0.19693248 -0.010651171 0.09394447
0.06256078 -0.24597114 -0.41277936 -0.25097466 0.06345738 -0.26766723 0.12142679 -0.5512524
-0.36223805 -0.05175215 -0.025729166 -0.17695862 -0.22093812 0.16188481 -0.47261065 -0.19675462

network.2.weight f4 [512, 256]
00000000: 4ae3 cbbd c1ce afbc 0054 eebb 4ca0 efbc
00000010: 038f 41bd b0c1 98bd a60d 6d3d aae4 8ebb
00000020: d45d 00bd 3eda c1bd 6f3e 72bd 10f6 f93c
00000030: a914 98bd 0846 343c 977b 82bd 9138 cabd
00000040: 313c 1dbd a454 153d 45c3 c83d b4b9 c5bc
00000050: 5ecc 24bd 6f96 71bd 7c94 f6bc 4694 e5bc
00000060: 80cf de3b 4e46 27bd 886f 4ebc 4605 d2bd
00000070: a0a2 e13c c188 d0bd 0ccd 04bd c0b3 dfbb
00000080: 3054 8cbd ff5f bcbd fac9 babd e41f 05bd
00000090: 68b6 1cbc fc91 04be 758a bfbc e8c0 d2bd
000000a0: 17f0 cbbd e45b 043d 2ad5 e53c d408 fc3c
000000b0: 6598 93bd 580d a9bd 625c 22bd 1489 e2bd
000000c0: fa06 6bbd a030 e9bb 4020 f9ba 385a 7ebc
000000d0: 8e97 9fbc 86f8 463c 3842 17bc 7058 f2bc
000000e0: d885 c0bd 34aa be3c 9b19 b2bd 647e 51bd
000000f0: 7899 683d 00df 453d 1e91 e1bd 13c4 88bd
00000100: aac7 4bbd 00cd 8ebc 90e5 6dbc 009d 1abd
00000110: b0d3 96bb d803 26bd 69e3 9bbd d6bb 2b3d
00000120: 89fd d8bd 7623 51bd 0cbe cdbc 80cb 30bc
00000130: 9e61 7f3d f047 cd3b 40ed b2bc 9c7d 09bd
00000140: 9cab 103d 6a03 68bd 7c83 1abd 629b 84bd
00000150: 9c15 d23d 4ddc f8bc 1909 acbb 288c d43c
00000160: c449 a4bc a461 7dbc ebf0 5dbd 7062 ffbc
00000170: b258 e2bd e26c 96bc 786e 0b3d 24b9 3fbd
00000180: 1081 853c b660 febc bafc 44bd f68a 473d
00000190: cf75 35bd 447f 443d f931 c4bd 6cb4 b4bd
000001a0: c77f 0cbe 2077 16bd b589 cbbd 6a29 bebd
000001b0: 1e54 3fbd 36c9 05bd 40c9 31bb 0867 eabd
000001c0: 78eb 63bd 499b 51bd e96c dcbd e904 dfbd
000001d0: 66ec babd 38fa 783c 22d0 283d 0a44 bdbc
000001e0: 7fef efbd d75d b0bc 1272 3dbd 7b8d b8bd
000001f0: 481f c3bd 442f 273d 6ff3 b9bd 3646 523d
00000200: 9a73 7ebd 40ab 15bb f882 c5ba e8a3 d03c
00000210: e84b 3cbd a09e b23b d689 a7bd d8d7 9b3c
00000220: b98a 8cbd ccbb 233d fa37 d0bc 42eb 31bd
00000230: da42 0dbd 8ef6 583d e0a9 34bc 1b1e 87bd
00000240: 0c97 b73c 9395 b7bd ede4 33bd 63bd 5cbd
00000250: b8df ca3c 9e52 253d 1cdb 9dbd 8a46 69bd
00000260: 6496 49bd 1ab4 18bd 35a2 7f39 8659 c0bd
00000270: cebb 31bd 80ae ca3a 318a 8ebd a8b9 473c
00000280: 3614 c7bd 9a85 a6be 2076 60bd 40de e1bc
00000290: e0f8 b2bc ecd6 fcbc 0d4f 8a3d e0d9 efbb
000002a0: ce71 7ebd fef5 4a3d 0838 3bbd e014 f8bc
000002b0: 46c8 58bd 007e 69bd c26e 2abd 6fd9 a9bd
000002c0: 1527 51bd 9e64 f0bd 660d bdbc 7c32 fcbc
000002d0: d8a3 aabc e105 26bd 2171 dd3c e6a0 c4bc
000002e0: 5629 2abd d106 963d 8238 9dbd 3de3 aebd
000002f0: 4344 92bd 5212 fdbd 6265 77bd fad7 64bd
00000300: 9a5a 57bd eaee 233d ecfc 6ebd 90c4 693d
00000310: 908c 343c c1e8 b8bd e804 763c 82c2 62bd
00000320: 18a0 24bc 60d7 a4bc aa60 6c3d bbe1 efbd
00000330: c73d 26bd c870 b93c 72b7 f8bd 2dd3 96bd
00000340: a9cc 6dbe ab8b 96bd 702d 95bd 67e2 c8bd
00000350: 50a8 eebd 3acb c6bd e435 9fbd e2ca 0bbd
00000360: f96f 8cbd 2653 413d 7c9b 563d 5caf e03c
00000370: c80c c7bd 3b6c 38bd 8ac5 babd 5037 a53b
00000380: 8c4e 733d 2b55 d5bd 0acd 0f3d 30ca b7bc
00000390: ca4e 96bd 6c54 03bc dfe7 2bbd 80ad 04bc
000003a0: 7016 3b3c 3299 193d 9d09 12bd 4ceb b3bd
000003b0: 3789 4fbc 7e2d 4bbd 1ec5 363d a8cb 093d
000003c0: 7dab babd c0cc 5d3c c462 243d 407a 81bd
000003d0: 69ea 5ebd aaa0 2cbd 919a 39bc be87 63bd
000003e0: b4e6 4e3d 2ce0 513d 7d75 babe e78a 83bd
000003f0: 2941 513d 3410 a3b9 657e c8bd 6d35 0dbd
-0.09955461 -0.021460893 -0.007273197 -0.02925124 -0.047255527 -0.07458818 0.057874344 -0.004360755
-0.03133948 -0.094654545 -0.059141573 0.03051284 -0.074258156 0.011003025 -0.06371229 -0.098740704
-0.03838748 0.036457673 0.0980287 -0.024136402 -0.040233962 -0.058981355 -0.0301001 -0.028024804
0.0067996383 -0.040838532 -0.012599833 -0.10254912 0.027543366 -0.10182334 -0.03242211 -0.006826848
-0.06851995 -0.09197997 -0.09120555 -0.032501116 -0.009564973 -0.12946314 -0.023381451 -0.102907
-0.09957903 0.032314196 0.028055746 0.030765928 -0.07206801 -0.08254498 -0.039638884 -0.11061302
-0.0573797 -0.0071163923 -0.0019006804 -0.0155244395 -0.019481447 0.012144214 -0.009232096 -0.029583186
-0.09400529 0.023274519 -0.0869629 -0.051145926 0.056786984 0.048308372 -0.11014007 -0.06678023
-0.04975096 -0.017431736 -0.014520064 -0.037747383 -0.004602872 -0.04053101 -0.076117344 0.04192718
-0.10595233 -0.05105921 -0.025115035 -0.010790706 0.062348954 0.006264679 -0.021841645 -0.033567056
0.03531991 -0.05664388 -0.03772305 -0.064749494 0.10258028 -0.030378485 -0.005250108 0.025945738
-0.020054705 -0.015465174 -0.054184835 -0.031174868 -0.110520735 -0.018362466 0.034040898 -0.046807423
0.016296893 -0.031051975 -0.04809258 0.048716508 -0.044301804 0.047972932 -0.09579844 -0.08823475
-0.13720618 -0.0367347 -0.09938375 -0.09285243 -0.04671108 -0.032662593 -0.002712801 -0.11445433
-0.055644482 -0.051173482 -0.107629605 -0.108896084 -0.09127121 0.015196376 0.041214116 -0.023103733
-0.11715602 -0.021529121 -0.046251364 -0.0901136 -0.09527451 0.04081656 -0.090796344 0.05133649
-0.062121965 -0.0022837669 -0.0015068939 0.025468782 -0.045970827 0.0054510385 -0.08180587 0.01902382
-0.06862397 0.03997402 -0.025417317 -0.04343725 -0.034487583 0.052969508 -0.0110268295 -0.06597539
0.022410892 -0.08964076 -0.043919493 -0.05389155 0.02476488 0.040361993 -0.077078074 -0.056952037
-0.04921569 -0.037281133 0.00024379122 -0.09392075 -0.043391995 0.0015463382 -0.06959952 0.01219026
-0.09720652 -0.32523805 -0.054800153 -0.027571797 -0.021847188 -0.030864201 0.06753359 -0.007319674
-0.06212025 0.049551003 -0.045707732 -0.030283391 -0.05292537 -0.05700493 -0.041609533 -0.08293425
-0.051062662 -0.11737941 -0.023077678 -0.030785792 -0.02083008 -0.04053295 0.027031483 -0.024002504
-0.041543327 0.07325519 -0.07676794 -0.08539436 -0.07141926 -0.1235701 -0.06039942 -0.055870034
-0.05257664 0.040022768 -0.058346674 0.057072222 0.011019841 -0.09028769 0.015015818 -0.05536128
-0.010047935 -0.02012223 0.057709374 -0.117129765 -0.04058626 0.022636786 -0.121443644 -0.07364497
-0.23222603 -0.07350858 -0.07284057 -0.09808808 -0.11653197 -0.09706731 -0.07773951 -0.03412903
-0.068572946 0.047198437 0.052394375 0.027427368 -0.09719235 -0.04502509 -0.09119709 0.005041994
0.05940108 -0.10416635 0.03510765 -0.022435278 -0.073392466 -0.008015733 -0.041969176 -0.008098006
0.011418924 0.037499614 -0.0356537 -0.08785114 -0.012666992 -0.04960393 0.04462158 0.033641487
-0.0911474 0.013537586 0.040133253 -0.063221455 -0.05442277 -0.04214541 -0.011328355 -0.055549376
0.050512984 0.051239178 -0.3641776 -0.06422978 0.051087532 -0.00031101855 -0.09789733 -0.03447478

network.2.bias f4 [512]
00000000: c1cd cabe bb65 97be b61b 39bd da4f 82be
00000010: 6f37 98bd ceef 44be 0a11 25be 69e3 fbbb
00000020: 7bea 9ebe 371c 07be 38ac b2be f4ad 3abd
00000030: cb31 9dbe 9f25 ffbd a28a 28be 67be 3fbe
00000040: 1a63 a1bd 24c0 1a3e 8cdd cebe 7284 69be
00000050: 4525 70bd b45b 4cbd 85cc 58be efef dbbd
00000060: 0c94 a6bd fc96 32bd ae3e 37be 9463 8dbe
00000070: 7fa7 0dbe b5f7 833e ec11 c8bc 89aa 6a3e
00000080: d2cd a3bd ac86 863f f27e d9bd 1225 5a3f
00000090: 02de 9cbd 6788 26be ccf8 273f b7c0 00bd
000000a0: 4efb 3bbe 9a91 c8be 7ed2 283f e006 adbd
000000b0: ecec 07bd 409e eebe dda3 8c3e 1658 343e
000000c0: e84d 51bd 49db e9bd 61ff 96be 912d 96be
000000d0: 3585 f0be cfb5 113f df11 e4bd d854 0e3e
000000e0: 6bfa 6bbd 1952 a7be 5dab 69be 570f 39be
000000f0: cef8 30be 0894 6dbd 2c01 72be 7997 323e
00000100: b3cb 4e3f 994a 78bd 1cde 9fbe 5406 34bd
00000110: 5ce3 c2bc fe68 f8bd 0338 b4be 8506 f7bd
00000120: f536 7ebe 7be9 75bc 97e4 22be 2b96 49be
00000130: c04b b5be 80e8 3dbe 82f0 cdbe 693e 5bbd
00000140: 19c3 8dbd 04a1 84bd beb1 99be fff5 e3bd
00000150: 2e35 afbd 425f 97bd 31bd 84bd 4640 bbbe
00000160: 9033 a3bd c246 85be ab06 89bc c957 c7bd
00000170: e00c 99be f38e 4abe adab ffbd 4a35 c3bd
00000180: 1725 19bf 02e7 7fbd 52da 53be 30e1 9dbe
00000190: c355 bcbe 7e5b edbc 0f3d b43e 1e03 b5be
000001a0: bdff b3bd 274d 68be 671d e1bd 10eb d6bd
000001b0: f88c ddbc c93f 103f ebd4 41bd 9474 86be
000001c0: 2976 b2be 98d3 83be 107a 56bd b72f 4f3f
000001d0: faf3 94be b3bf cbbd d813 89bd 3ceb 1d3f
000001e0: 7b54 81be fa44 4abe 0239 e8be 33bd 1dbe
000001f0: 8010 bfbd 58c0 d2be 5000 e5bd ab0d c9be
00000200: 955e 88be 7c69 60bd ce59 26be d497 92bc
00000210: 906b 76be f132 23be 826e 57be 496a 763f
00000220: 69cf ea3e e7e7 c2be 4853 acbd 4ee7 6abe
00000230: 3fb2 bdbe abb8 dbbd 6c8b 9cbd 3a11 79be
00000240: df6a f0bd 149c a8be 1606 26bf f49a 7abd
00000250: f28e 5cbe 4295 93be 5682 86bd b030 63bd
00000260: f7fe 59be 51d0 8cbd 6bfa 27bd a9a4 e9bd
00000270: e915 58be 39d1 34be fcce 17bd 17d9 59be
00000280: 3a64 cbbd b505 dabd 527f ddbd 0bb4 efbd
00000290: 55c0 c8be a636 f6bd 8a46 96bd 355a 94be
000002a0: 46a7 853f 7b0d e6bd 3004 8fbd ecdf 5cbe
000002b0: d473 58be 429a 71bd b815 d4be f41b b9bd
000002c0: b713 59be 4939 ebbd f1bb 27bd dff5 5dbd
000002d0: 9faa 64be a9fa 16be 702a adbd 6c8d 3a3f
000002e0: fda1 be3e 4172 62be 83cb 803f 82ea 40be
000002f0: 9c0d a5be 1e19 d4bd 1f91 0dbf a0d2 d43d
00000300: 0f60 38bc 9f04 a7be 24aa 8abe 535f 83be
00000310: 1c0a d5bd a5c3 82bd d91a 48bd 4865 efbd
00000320: 5fb0 d8bd 01bb 8dbe 674a 7ebe 79a6 6e3f
00000330: 4d34 84bc 5f08 87bd f282 35bc c5d6 93be
00000340: bf8f 86bd f3c7 87be df78 5a3f fabb 91bd
00000350: 4499 403e 1483 bbbe 601b c7be 72c4 82be
00000360: 7a29 17be 9c31 96bd a0b8 8abe 3678 bfbe
00000370: ea69 f7bd 2f1c cebd 0008 10be c957 bdbc
00000380: 224f dabd 9437 0ebe ab5f a9be 2da9 6dbe
00000390: d803 f6bd 83a3 4cbd 7189 a0bd 8401 83be
000003a0: 920e 9fbe 18d0 eebd 0acc b9be ce29 82be
000003b0: 79aa a9bd 81a0 abbe 85f8 213f 6086 f4bd
000003c0: faf0 58bc 79a9 a8be 21d1 bcbe a5f9 9ebe
000003d0: 8391 45bd 0de6 c5bc 0cd1 7ebc 32c5 3bbe
000003e0: 7466 a9bd 9259 a0be e2eb 203f 65a9 f7bd
000003f0: d916 b0be 3064 2fbd fd65 56bd d526 5cbe
-0.39610103 -0.29569802 -0.045192443 -0.25451547 -0.07432448 -0.19232103 -0.16119781 -0.0076870215
-0.3103827 -0.13194357 -0.34897017 -0.04557605 -0.30702052 -0.124583475 -0.16459134 -0.18724976
-0.0788023 0.15112358 -0.40403402 -0.2280443 -0.058629293 -0.049892142 -0.21171768 -0.10739123
-0.081337065 -0.04360102 -0.17895004 -0.27615035 -0.13833426 0.25774923 -0.024422608 0.22916616
-0.079982415 1.0509849 -0.10619916 0.85212815 -0.07659532 -0.16262971 0.6561401 -0.031433787
-0.18357584 -0.39173585 0.65946186 -0.08448577 -0.03318493 -0.4660511 0.27468768 0.17611727
-0.051099688 -0.114187784 -0.29491714 -0.2933164 -0.4697663 0.5691804 -0.11136221 0.13899553
-0.057611864 -0.32679823 -0.22819276 -0.18072258 -0.17282411 -0.0580025 -0.2363326 0.17440595
0.8077957 -0.060618017 -0.31224144 -0.043951347 -0.023790054 -0.12129401 -0.35198984 -0.120617904
-0.24825652 -0.015009279 -0.15907513 -0.19686191 -0.35409355 -0.18545723 -0.40222555 -0.053526316
-0.069219775 -0.06476024 -0.3001842 -0.111309044 -0.08555065 -0.07391216 -0.06481398 -0.36572474
-0.07968819 -0.26030546 -0.016726812 -0.097335406 -0.29892635 -0.19781093 -0.124839164 -0.095316485
-0.5982222 -0.062476166 -0.20688751 -0.30835867 -0.3678418 -0.028974291 0.35202834 -0.3535394
-0.087890126 -0.22685681 -0.10991936 -0.10494053 -0.027044758 0.5634733 -0.047322195 -0.26260817
-0.34855774 -0.2574737 -0.0523625 0.8093218 -0.2909239 -0.09948673 -0.06693238 0.61687064
-0.25259766 -0.19752875 -0.45355994 -0.15404205 -0.09329319 -0.41162372 -0.111817 -0.3926824
-0.2663466 -0.054788098 -0.16245195 -0.017894663 -0.2406447 -0.15937401 -0.21038249 0.9625593
0.45861366 -0.38067552 -0.08414322 -0.22939798 -0.37050053 -0.10728582 -0.0764378 -0.24322978
-0.11739134 -0.32931578 -0.64853036 -0.06118293 -0.21538904 -0.28824812 -0.06567828 -0.055466354
-0.21288668 -0.06875671 -0.0410103 -0.114083596 -0.21102108 -0.17657937 -0.03706263 -0.2127422
-0.09931226 -0.1064562 -0.108153 -0.11704262 -0.39209238 -0.12022142 -0.07337673 -0.28975073
1.0441673 -0.1123304 -0.069832206 -0.21569794 -0.21137935 -0.058985002 -0.4142282 -0.09038535
-0.21198927 -0.11485536 -0.04095072 -0.05418956 -0.22330712 -0.14744057 -0.0845536 0.7287204
0.37232962 -0.22113897 1.0062107 -0.18839458 -0.32236946 -0.10356353 -0.5529956 0.10391736
-0.011253371 -0.32620713 -0.27082932 -0.25658664 -0.10402319 -0.063849725 -0.04885373 -0.1168924
-0.10580515 -0.27681735 -0.2483307 0.9322277 -0.01613822 -0.065933935 -0.011078583 -0.28874794
-0.06570386 -0.26519737 0.85340685 -0.07115932 0.18808466 -0.36623442 -0.38888073 -0.255405
-0.14761916 -0.07333681 -0.27093983 -0.373964 -0.120807484 -0.10063969 -0.14065552 -0.023113148
-0.10659625 -0.13888389 -0.330808 -0.23209067 -0.12012452 -0.049960624 -0.07838715 -0.25587094
-0.31065804 -0.116607845 -0.36288482 -0.2542252 -0.08284468 -0.33520892 0.63269836 -0.119396925
-0.013241047 -0.32941797 -0.36878303 -0.3104984 -0.048234474 -0.024157548 -0.01555277 -0.18336943
-0.082714945 -0.31318337 0.6285993 -0.12092856 -0.3439243 -0.042820156 -0.052343357 -0.21499188

network.4.weight f4 [128, 512]
00000000: 95e0 10bd 7695 c7bc a633 28bd a0b4 90bd
00000010: 4872 4dbc 6b86 a53c cc3a 9cbd dfae d3bd
00000020: 4676 1abd 2e9c cbbd 9cd9 213c 5597 ccbd
00000030: ebda d4bd 46d6 a4bd 8caa 7dbd b27f 21bd
00000040: 9ddd efbd 695a 11bd 68d6 f2bc e25f 12bd
00000050: 6d8a 9bbd ab1e 83bd 1b68 6fbd 8b56 65bd
00000060: 93ad bdbc 123e c9bc 6b03 4cbd a5ed bebd
00000070: 41f9 cdbd 7341 e4bc 82cf 88bc 97d2 aebd
00000080: b633 73bd 6db2 09bd 41da b9bc b8e8 823c
00000090: 4339 0abd c0c9 743c ded0 44bd d785 64bd
000000a0: db4d 553d 68fc 6bbd e863 efbc 5554 9abd
000000b0: e82e 103c f35e 163d 2abb bebd f1f4 2bbd
000000c0: bce5 46bd 550d 9bbd c9b4 a3bd 9acb 9cbc
000000d0: 5084 883c 43c5 1c3d c9ba 96bc 9418 33bd
000000e0: 92e1 31bd 0820 bb3c f61c 2ebd afac b3bd
000000f0: fe8c 983c 2659 f33c 6942 81bd 5f96 cbbd
00000100: 180c a8bd 73ea 80bd 4508 c3bc 75e7 28bd
00000110: 1ebc fb3c 3000 4abd 82b5 f1bc 2fbb d1bd
00000120: c622 06bd 1e3a f1bd 25f8 6ebd c31e 16bd
00000130: 5640 d83c bc65 04bd 334c edbc cfb0 12bd
00000140: e07e bbbd d5e2 99bd b527 18bd 8df3 243d
00000150: fd84 9bbc 6fcb cabc 4b73 b5bd 4845 8fbd
00000160: 9a0c 83bd 6a51 56bd 448f 68bd ae56 83bd
00000170: 3840 cfbb daee 8dbc 8711 9abd c324 ef3b
00000180: 0c26 7d3c 59b2 223d a9c7 123d 30e1 92bc
00000190: 519d d4bd d9d2 08bd 289c 7d3c 1725 18bd
000001a0: 792c 95bd b926 1dbd 8c16 f7bd 2d86 6dbd
000001b0: 7f38 bbbd ec3c 84bd 3c57 03bd 5dd7 3abd
000001c0: f30a abbd 140c 4abd cb7f e6bc b046 a9bb
000001d0: 1ccb 06bd 53b1 84bd a914 8bbd c47d 593c
000001e0: 8540 cdbd 0763 e1bc 0a77 54bd 3782 103d
000001f0: 1bbe 093d 2127 32bd 5adb 863c 718b babd
00000200: bdb5 a1bd bce9 1cbd 930b 9fbd 6eb5 96bc
00000210: 2f6e abbc f602 f8bc 8dba d2bc 075a d43c
00000220: 672b a5bd 496a b8bd 4ea7 9cbd 1c5d f6bc
00000230: d89c a4bd 7d0c 01bd 870e bdbd 619f 0d3d
00000240: c950 b0bd 4662 c9bc 93f4 3dbd 3dc6 24bd
00000250: 17bb 9fbd 3626 16bd d0a0 25bd 782b f63c
00000260: 9409 3c3c 668b 2dbd fad5 c1bd a9c8 253d
00000270: 78ca fa3b 4177 173d 6dcd 9ebd 4a3e 19bd
00000280: b84c 42bd 8f9e 38bd 732b 8ebd 8adf e13c
00000290: 8e28 90bd 8a0d 1cbd 4bb8 9cbd a5f4 60bd
000002a0: 3e0b 77bd 0203 37bd b21b 18bd 98d9 b93b
000002b0: 5d44 2fbd 8330 8bbc d2d6 be3c ba6f 86bd
000002c0: f348 debc cda1 1abd 5d3a 51bd 971c a9bc
000002d0: 3863 84bd bd70 8abd 150d c4bd 5afe 5dbc
000002e0: ec6d f0bd ebdb 94bc 683b c6bd 9173 1ebd
000002f0: beb4 02bd 98ed ecbd dc2d 10bd e5fb 30bd
00000300: 3008 1bbd 45f6 123d d83b c7bd e9f9 90bd
00000310: 807d 4dbd c311 043d d068 acbd 6823 23bc
00000320: 398d 5fbd b1bb 7bbd 25a6 0b3d 2f9c 84bd
00000330: bc59 61bd 6917 b1bc 5653 9f3c 5181 a7bd
00000340: bbba 84bc 0034 d4bd a043 5bbd 10b5 8dbd
00000350: 6d35 333d d788 f1bc 9731 38bc dec9 87bd
00000360: aea6 e43c 735b 0fbd af74 3bbd 9022 93bc
00000370: d04c 83bc 0412 8ebd 7615 f5bc d327 fcbc
00000380: 8e02 bebd 0aec 87bc a58f bfbc 44cf 13bc
00000390: 1366 ecbc 35ce 9abd 524a 02bd fae8 23bd
000003a0: 181e 85bc 441f 87bd bcc7 7bbd e261 8dbd
000003b0: 4de5 0fbd 9b7b 063d c741 a7bd 92bd ebbc
000003c0: 5a86 93bc 9e48 61bd 3c38 50bd f505 a5bd
000003d0: 10b9 39bd 7742 57bd 2dbf 90bd d5c4 95bc
000003e0: 7663 a93c cd63 0b3d c0ec 0a3b 01b7 7cbd
000003f0: 06c4 c43c 391c 64bd d976 33bd 49fb 66bc
-0.035370428 -0.02436326 -0.04106488 -0.070657015 -0.012539454 0.020205697 -0.07628402 -0.103360884
-0.03771045 -0.09941898 0.009878542 -0.09989802 -0.10393318 -0.08048682 -0.061930224 -0.03942842
-0.11712191 -0.035486612 -0.029643252 -0.035735972 -0.07594762 -0.06402334 -0.058448892 -0.055990737
-0.023154056 -0.02456573 -0.049807947 -0.09322671 -0.10057307 -0.02786324 -0.01670051 -0.085362606
-0.059375487 -0.033617426 -0.02268708 0.01598011 -0.033746015 0.014940679 -0.048050754 -0.055791702
0.052076202 -0.05761376 -0.029222444 -0.07535616 0.008800246 0.036711644 -0.093130425 -0.04198164
-0.048558936 -0.07570902 -0.079934664 -0.019140054 0.016664654 0.03827406 -0.018399613 -0.04372461
-0.04342801 0.022842422 -0.042508088 -0.08773171 0.018621918 0.029705595 -0.06311495 -0.099407904
-0.08205432 -0.06294718 -0.023807654 -0.04123636 0.03072935 -0.049316585 -0.029505495 -0.102407806
-0.032748006 -0.11778663 -0.058342118 -0.03665043 0.026397865 -0.032323584 -0.028966999 -0.03581315
-0.09155059 -0.07513968 -0.037147243 0.04027133 -0.018984312 -0.024755208 -0.08859881 -0.06995636
-0.06398888 -0.052323736 -0.056777254 -0.06413017 -0.006324794 -0.017325807 -0.07522874 0.0072980835
0.015450966 0.039720867 0.035834942 -0.017929643 -0.10381568 -0.033404205 0.015479125 -0.037144747
-0.07283873 -0.038367007 -0.12064847 -0.057989288 -0.09141635 -0.064569324 -0.032065615 -0.045615543
-0.08351698 -0.049327925 -0.028137108 -0.0051658973 -0.032908544 -0.064791344 -0.0679105 0.013274614
-0.10022072 -0.02751304 -0.051871337 0.035280433 0.033628564 -0.043494347 0.016462017 -0.091086276
-0.07895992 -0.038308844 -0.077658795 -0.01839706 -0.020926563 -0.03027485 -0.02572372 0.025921835
-0.08064919 -0.09004647 -0.07649098 -0.030073695 -0.08037728 -0.03150605 -0.092312865 0.034575824
-0.086091585 -0.024582993 -0.046375822 -0.040228117 -0.077993564 -0.036657535 -0.040436566 0.030050024
0.011476893 -0.04236927 -0.09464641 0.040474568 0.0076535307 0.036978964 -0.077540256 -0.03741292
-0.047436446 -0.04507309 -0.06941881 0.027572412 -0.07038985 -0.03809885 -0.076523386 -0.05492081
-0.060313456 -0.044680603 -0.037135787 0.005671691 -0.042789806 -0.016990906 0.023295794 -0.06564279
-0.027134394 -0.03775196 -0.05108105 -0.020643516 -0.06464237 -0.06759784 -0.09572808 -0.013549412
-0.11739716 -0.018171271 -0.096792996 -0.03868443 -0.03191065 -0.11568755 -0.035199985 -0.043208975
-0.037849605 0.035879392 -0.09728211 -0.070789166 -0.050168514 0.0322435 -0.08418429 -0.009957172
-0.05457804 -0.061458293 0.034093995 -0.06475102 -0.055017218 -0.021617608 0.019448917 -0.08178962
-0.016202321 -0.10361481 -0.05353129 -0.069193006 0.043752123 -0.029484196 -0.011242292 -0.066303
0.02791151 -0.034999322 -0.045765575 -0.017960817 -0.016027838 -0.0693703 -0.02991746 -0.030780708
-0.09277831 -0.016592044 -0.023383925 -0.009021584 -0.028857267 -0.07558862 -0.03180916 -0.040017106
-0.016249701 -0.0659776 -0.06146978 -0.06903435 -0.035130788 0.032832723 -0.08166843 -0.028776918
-0.0180084 -0.055000894 -0.05083488 -0.08057777 -0.045342505 -0.05255362 -0.07067714 -0.018282333
0.02067731 0.034030724 0.0021198243 -0.061697964 0.024019253 -0.055690978 -0.043814514 -0.014097997

network.4.bias f4 [128]
00000000: 3823 17be 5c40 823e 6e1c 08be c06d b5bd
00000010: f11f 783e 5d38 a6be 1933 3e3b 4546 5c3f
00000020: 2986 48be 1dd2 64be fb27 f6bd 4e66 a23f
00000030: f752 29be 42aa 84be c976 2d3e a036 c7bd
00000040: 7794 36be c901 b0bd 84ef 893d 68fa a2be
00000050: c304 7e3e 7e35 fa3e 41b7 11be 8f49 50be
00000060: d7df 75be b9ff 823d 24e5 013d b046 83bd
00000070: d889 44bd 8ff5 a6bd 4d43 55be 3cd4 09be
00000080: 6c1d bebe 0efd 69be 627a 47be 3163 0ebe
00000090: c45c 293f f78e db3d 1c12 31be 296a 8abe
000000a0: e7a8 793d 18ec 5d3f e86d 053f 5f6a dc3d
000000b0: 4298 67be bd72 80bd 17b3 c9be 15f4 b73f
000000c0: c7f8 25be 4e67 13be f218 b83e 26a8 30be
000000d0: a77e 39be ea28 8cbe 9c31 8abe 2a38 47be
000000e0: 41c4 0abe a7c4 483f 9818 fbbd 856b f0bd
000000f0: 4ce3 3b3d 3679 513f 3e57 31be 7286 c0bd
00000100: 97dd 0cbe 4bc1 42bd 6b06 85be ac76 e3bd
00000110: 0891 8dbe b662 bdbe 10b7 753e 0be0 adbd
00000120: 7ed3 07be ea90 83bd bf06 3dbe 9658 a7be
00000130: eec1 b63e 1b62 06bd fb5f 2cbe 7ff1 80be
00000140: 9ea4 68be cb90 343f bd14 97bd c9d7 b4bc
00000150: ac5a 14bd 8030 20be e511 bb3e ac58 27be
00000160: cd87 8bbd 0b08 fa3e 43a2 e83d 62d0 7ebe
00000170: 1278 c4bd f3a8 99bd a59a 1d3c 12b2 3ebe
00000180: 631e 673e 8dfc 04be a5e6 8f3e af3e 14be
00000190: fc7a 7a3d 857a 23be 02eb 363f 32be 4c3d
000001a0: 10b0 9f3e 6f6e 06be fa22 afbd c160 4dbe
000001b0: 1665 c0be f939 d83e 5cb5 efbd e66e 74be
000001c0: e701 a6bd 5d39 bbbc 37b6 02bf 0d80 613e
000001d0: 657b 1b3f f983 5c3f 7c9d 89be ddd6 513c
000001e0: 814e 24be fe11 ed3d 87a4 06be 412c 19be
000001f0: 03ee 17be 6d51 6fbe 104f 0c3f 779f ee3e
-0.14759529 0.25439727 -0.13292095 -0.08858824 0.24230935 -0.32464877 0.0029022156 0.8604472
-0.19582428 -0.22345777 -0.120193444 1.2687471 -0.16535555 -0.25911146 0.16939844 -0.09727216
-0.17830072 -0.085940905 0.06735137 -0.3183167 0.24806504 0.48868936 -0.14230062 -0.2034056
-0.2401117 0.063964315 0.031712666 -0.06409967 -0.04798302 -0.08152305 -0.20826454 -0.13459867
-0.37131822 -0.22850439 -0.19480279 -0.13905026 0.66157174 0.10720628 -0.17292064 -0.2703412
0.060952093 0.86688375 0.5212083 0.10762476 -0.22616675 -0.062718846 -0.39394447 1.4371363
-0.16208182 -0.14394876 0.35956532 -0.17251644 -0.1811472 -0.27374965 -0.26990974 -0.19455019
-0.13551427 0.7842507 -0.1226055 -0.11739258 0.045871064 0.8182558 -0.17318437 -0.094006434
-0.13756405 -0.04754762 -0.2598146 -0.11106619 -0.27649713 -0.36989373 0.23995614 -0.084899984
-0.13264272 -0.064241245 -0.18459605 -0.32684773 0.35694832 -0.032808404 -0.16833489 -0.25184247
-0.22719046 0.70533437 -0.073770024 -0.02207555 -0.036219284 -0.15643501 0.3653709 -0.1634242
-0.06813011 0.4883426 0.11359074 -0.24884179 -0.09593214 -0.07502928 0.00961939 -0.18622616
0.22570185 -0.12986965 0.28105655 -0.14477037 0.061152443 -0.15964706 0.71452343 0.049986072
0.31189013 -0.13128065 -0.08551593 -0.2005644 -0.37577122 0.4223173 -0.117045134 -0.2387043
-0.081058316 -0.022854501 -0.5105929 0.22021504 0.6073516 0.86138874 -0.26877964 0.012807575
-0.16045572 0.11575697 -0.131487 -0.14958288 -0.14836888 -0.23370905 0.5480814 0.46606037

network.6.weight f4 [12, 128]
00000000: 4b9f 963d 12f9 ad3f 9ec9 393d 9eaf e43e
00000010: e34f 333f be21 0e3e cbcc b0ba 31aa 413f
00000020: 81ef 3f3c 531f 983b 6fdc 5f3d ef87 fa3d
00000030: 8672 bb3d 3e32 563e fadd 173e 0f9c 96bd
00000040: 59fe b13e e40c aabd 5ddf 293e 221b e93d
00000050: eafd d43e 9d6c 183f 988e 003f 6274 a23d
00000060: 1f79 46bd e2f4 393f 812b 023e d2ba 693d
00000070: c753 38be 6098 1f3e 5ec3 ab3b 6864 2dbc
00000080: d364 633d 254c d43d 067a ea3e d8d8 3b3e
00000090: f59b 863f a212 583f d368 3b3d 72d8 c13c
000000a0: 3326 d43e 6e4b 053f 292e a23e 1a77 b53e
000000b0: 9d4f e33e b530 583d c300 f13c 3b2d 6a3f
000000c0: 9c4f 4f3e 2a93 e83e b6fb cc3e b6b1 053e
000000d0: 404b 80bd 896e 1e3f 8dfd e93d 7d86 a73e
000000e0: f975 583d 5846 663f 2613 bd3d d90f b33b
000000f0: 0476 833d f273 783f f2be c43d b403 0cbc
00000100: 200f ef3d 76f0 043d faa2 093e 23f2 9d3d
00000110: f2cd ffbb 4939 e23e 931d e23e 1ecb 643b
00000120: 2620 4fbd aa8d af3d 62db 943e 3291 67be
00000130: 9150 183f 8b79 cd3d 84b9 043f af0d 1a3f
00000140: a7b3 003d d62f 783f 9282 2abe 6a28 273e
00000150: 4132 ae3d 38bf 3bbd eb58 fb3e 520a 6f3d
00000160: 7160 763e e5e4 ac3e 63a4 343e 6afe 623e
00000170: 9d92 af3d 8640 663e b3f9 203e 2c51 8cbd
00000180: 5590 593e aecf d73d d742 f13e 9cdc 22bd
00000190: 895a 713e 8793 4a3e 8a6e 703f 16c9 6d3c
000001a0: 6d45 423e f62d 253d 3c64 2e3d 9424 ab3e
000001b0: 7b1b e93d 950a 15be 3ec0 fc3c 2497 003f
000001c0: b454 2b3d 52de f13e aabe aebd acca b63e
000001d0: 2800 3b3e 5ce3 733f 45e8 df3e d2c0 103e
000001e0: 960e 5e3d 26e7 1c3e 49d5 d03d 83a3 d43c
000001f0: 4c38 c2bd 3886 ac3e c4d5 553f 22fc 673f
00000200: 1889 553e de42 283e 31a0 223d 959c 2d3f
00000210: 0b6c 443f 0493 e73d ad24 623e d7cd 3e3f
00000220: ae51 843b 2201 523d 01bb a23d 1266 4c3f
00000230: c80c cd3d 61c3 663e 7f44 2f3e 3630 923c
00000240: b96e 6c3e 9431 e33d e8f7 333f 63e5 ca3e
00000250: 9e25 753e f93d 193f 0962 3d3f a956 7d3c
00000260: 5602 823d 79fd 3a3f 1877 783d f0dd 063e
00000270: 0d16 873d 6dd0 353e b3f3 5b3b e445 37bd
00000280: 099e 4cbe e3b9 773c f1ab 373f 5889 833d
00000290: 1266 593f 8ca5 6f3e a43f 45bd cb98 d53e
000002a0: a0a2 e93e f3d3 403f 78e4 023f 2f18 7e3e
000002b0: d24c 05bd fc89 bc3b 481b a63d 55d1 923f
000002c0: 790e 743e 2b44 d83e f98b 893e 4c2d 5e3e
000002d0: eced 1f3e bc4e 1d3f db06 fabd 8189 883e
000002e0: 4794 ba3d 6621 353f 2a45 f33c 1df4 483e
000002f0: 6470 b93d a6ef b63f 5618 803e 681e e73c
00000300: 61e0 203e 8a55 d63d f7a5 9c3d e2c8 0b3e
00000310: 1c50 c8bb 65f0 213f aa01 e23e 434a e9bc
00000320: 8b5b 0c3e 4792 203e f304 59be 45cc 093d
00000330: ec7f 343f e2ed 963e fdfe 533f f62f e2bc
00000340: 242a 583d 6c11 4f3f d1b2 193e 099b bb3d
00000350: fbbd 01bd ac29 8e3e a376 e43e edab 27bd
00000360: 3c9b c23d ce93 5d3f cee6 403d 433e 313e
00000370: 05f0 fd3d 6d2d 893e 66c6 bc3e aa54 2ebc
00000380: 312a 783e 1988 d23e 1caa 443f 8374 393e
00000390: a78f 5d3e 51c8 5b3d 66c0 a33f c622 943d
000003a0: 65fa 0c3f 27b3 f33c 9551 0a3e 9d9a b23e
000003b0: d7b0 823d e4ee a13e 66f6 eb3c 4b7f 203e
000003c0: dc93 083f 941f 363f 7e64 583f 20df 433f
000003d0: 98dd ad3e fe02 493f 5384 1a3f 7afe fa3d
000003e0: c0ab cbbd 82a5 a63d 1ffe 283e 8133 f93d
000003f0: 8e92 96bc 4f0b 903e 9dfb e43e 1913 813f
0.073546015 1.3591635 0.045358293 0.44665235 0.7004377 0.13880059 -0.0013488767 0.75650316
0.011714817 0.004642406 0.05465358 0.122329585 0.09152703 0.20917603 0.14830771 -0.073539846
0.34764364 -0.0830324 0.16589113 0.11382128 0.4159997 0.5954073 0.5021758 0.079323545
-0.048455354 0.72639287 0.12711908 0.05706293 -0.18000709 0.1558547 0.0052417954 -0.010583021
0.055516075 0.10366086 0.45796221 0.18344438 1.0516344 0.8440343 0.045754265 0.02366278
0.41435394 0.5206822 0.31675842 0.3544243 0.44396678 0.052780826 0.029419309 0.91475266
0.20245212 0.45424777 0.4003579 0.13056073 -0.06264353 0.61887413 0.11425314 0.32719794
0.052846882 0.89951086 0.09232168 0.0054645357 0.06418994 0.9705192 0.096067324 -0.008545805
0.11672807 0.032455884 0.13441077 0.077121995 -0.007806533 0.4418433 0.44163188 0.0034911106
-0.05056777 0.08571942 0.29073626 -0.22613981 0.59497935 0.10032948 0.51845574 0.6017713
0.03142133 0.9694799 -0.16651371 0.1632401 0.08505679 -0.045836657 0.49091277 0.05835945
0.24060227 0.33768383 0.17640834 0.22167364 0.08572886 0.22485551 0.15720253 -0.0685142
0.21246465 0.10537659 0.47121307 -0.03976117 0.23569693 0.1978284 0.9391867 0.014513275
0.18971796 0.040327035 0.04257606 0.33426344 0.113821946 -0.14554818 0.030853387 0.5023062
0.041828826 0.4723993 -0.0853246 0.357015 0.18261778 0.952688 0.43731895 0.14136055
0.05421313 0.15322551 0.10196931 0.025956875 -0.09483394 0.3369615 0.83529305 0.906191
0.20853078 0.16431758 0.03970355 0.6781705 0.7672736 0.11307338 0.22084303 0.74532837
0.0040380573 0.05127061 0.079458244 0.79843247 0.100122035 0.22535469 0.17115973 0.017845254
0.23089112 0.11093441 0.7030015 0.39628133 0.23940131 0.5986019 0.73977715 0.015462556
0.06348102 0.7304302 0.06066045 0.131706 0.06596003 0.1775529 0.0033562004 -0.044744387
-0.1998216 0.015120002 0.71746737 0.064226806 0.8492137 0.23402995 -0.048156396 0.41718134
0.45631886 0.7532341 0.51129866 0.24813913 -0.032543965 0.0057537537 0.08110672 1.1470133
0.23833646 0.42239508 0.26864603 0.21696967 0.15618104 0.61448264 -0.12208339 0.26667407
0.09110313 0.70754087 0.029696066 0.19624372 0.0905464 1.4291885 0.25018567 0.028212741
0.15710594 0.10465534 0.07648843 0.1365085 -0.0061130654 0.6325744 0.44141895 -0.028477794
0.13706796 0.156808 -0.21193294 0.033642072 0.70507693 0.29478365 0.82810956 -0.02761076
0.052774563 0.8088596 0.1500962 0.0916043 -0.03167532 0.27766168 0.44621763 -0.040935446
0.09502265 0.8655366 0.047095113 0.17308907 0.12399296 0.2679247 0.36870116 -0.010640303
0.24234845 0.4111946 0.76822066 0.18110852 0.2163683 0.053657833 1.279309 0.07233195
0.5506957 0.029748512 0.13507684 0.34883586 0.06381386 0.31627572 0.028804015 0.15673558
0.53350616 0.71141934 0.8452834 0.76512337 0.33958125 0.7852019 0.6035816 0.12255569
-0.09944868 0.08137037 0.1650319 0.12168027 -0.01838043 0.28133628 0.44723216 1.0083953

network.6.bias f4 [12]
00000000: 8422 cd3e edec 073f e33e 8e3f f6ef 783e
00000010: 83b5 a83e 94f9 69be f42f 103f ea5d 0c3f
00000020: ff1f a53e 0f05 503e bd66 d93e e5ae ec3e
0.40065396 0.53095895 1.1112942 0.24310288 0.32950982 -0.22849113 0.5632317 0.548308
0.32250974 0.2031443 0.42461196 0.46227184
