model/DQNAgent2_20-08-2022__22-53-17.pth/DQNAgent2_20-08-2022__22-53-17_iter_20.pth (torch, 826191 bytes, 8 tensors)

network.0.weight f4 [256, 27]
00000000: 068f 78be b708 99be 45dd 9bbd 30a7 17be
00000010: 40f7 903e d8c5 32be 4246 b5be e271 a8be
00000020: 50bb 56be c489 06bf c920 f4be e49a 87be
00000030: c92d 2cbe 36cb c7be 3bd7 14be 8391 91be
00000040: 1afc 9dbe 1f4b 92be 6536 c3be 78d6 b23c
00000050: 7617 aebd 39f3 1a3e be29 ab3d 8e6c fa3d
00000060: 8123 cfbd ccd4 363d 74e3 24bd 10e6 8a3d
00000070: da8f d8bc 4f1a 083e 0e1d b9bd 55e7 c8bd
00000080: 86cc 15be 657e 363e 3655 1bbe 3f86 29be
00000090: f40a 8c3d 07cb 27bd 122f fe3d 4db4 1fbd
000000a0: 9240 76bc 7958 c7bd aa9c 56be 7316 71be
000000b0: 3cb6 063e f648 b23d 7fa3 0b3e a831 d9bd
000000c0: 039a 063e 66aa b4bd 3a52 34be c8e1 e33c
000000d0: efb5 19be ae3f 0bbe f66d 67be f8e9 91be
000000e0: 2f87 dabd 6ff6 85be fa4c 8d3e 813e 2c3e
000000f0: f945 b7be 161f 97be 44e8 0ebe 4de0 3dbe
00000100: fcc5 22be e8bc 88be 6ac1 8abe 4850 c3bd
00000110: 7a78 bbbe f7e0 c0be d683 ddbe bb23 d7be
00000120: 9960 ddbe 72e4 cd3d 687b 2bbd d01c be3c
00000130: 75e4 9ebd 9885 92bc 3984 073e c8ba 18be
00000140: ab21 2fbe 1b99 b6be e3c3 6cbe 570f b13e
00000150: 20dd fcbc 49f9 a83e c1be 863e 98ca e33e
00000160: b239 8ebe 9036 4fbe fbb2 b43c 36ad 84bc
00000170: c3bd 4ebe 0ede d4be 7a6c d0be 961b bd3d
00000180: 8379 31be 3d32 5fbe 2d0d a63c 7b5b 77bc
00000190: e360 0b3e 3841 e9bc bd8d 393e f8e6 9ebd
000001a0: a4eb 26bd e2ef c7bd f33e 0f3e 7221 da3d
000001b0: e0be d03c 00b0 a039 681f 15be e483 3bbe
000001c0: 46c0 13be 7002 7abc 3a00 bc3d 2e4f b83d
000001d0: 9c59 1e3d c747 0e3e d792 a6bd be3a f73d
000001e0: d6e1 fdbd f649 ab3d 556f 2dbe 7c94 0a3d
000001f0: 20b5 04bc cb75 ccbd 18a7 d8bd 2cd2 753d
00000200: 1b50 323e 86a3 a8bd 4df5 b8bd 2024 bc3b
00000210: f090 c4bd 270a 083e 5381 35be 6434 6d3d
00000220: 57a6 413e 03bf c9bd 1ff2 2e3e 0b11 273e
00000230: d0a3 38bd 724c 07be 976c 31be f5b3 1e3e
00000240: c27e 8b3d eb8d 92bd 61fa 28be 44c5 2d3d
00000250: 732d 343e b0cb 74bd 0b9e c9bd 7871 893c
00000260: f209 02be 8093 523d 8fe1 e2bd 16fc ec3d
00000270: 2117 2a3e ae07 b13d d781 bbbd 98cc f43c
00000280: 288a 6cbd 866f ab3d a18a 9a3c 9558 67be
00000290: 1fce 7abc ee6e 1dbe bbc4 18be 1460 fe3d
000002a0: 8545 77be eda4 c73d f118 31be 6df8 d8bd
000002b0: 407f d3bd 0b9c a039 ac2b 22be bcb8 ea3c
000002c0: 8bee ba3d 2fa6 c83c 6b49 c0bd 837e d7bc
000002d0: c9a1 31bc c2f2 ba3d 4ae2 21be cf06 433e
000002e0: 92df cb3d b460 cbbd 619a d4bd 7c00 8cbd
000002f0: ae4e cebd 1a47 94bd 6832 12be 5f4c d1be
00000300: d2c6 af3e e860 93be 4042 ebbd 7ef7 243e
00000310: 4730 42bd 4216 e4bd 41d9 f9bc 95db bebd
00000320: 9222 a0be c1cf b2be a2ce 28be 9aa7 ffbd
00000330: effd 06be 88aa 54be 2b3c 8fbe e628 7cbe
00000340: 2a92 8e3d 3747 183e 23ef 283e 10cc 7abd
00000350: cac8 993d 082e bd3c 63c6 43be 92b1 c6bd
00000360: 7a08 853d a024 80be c114 a53a 9f51 8cbe
00000370: b14b 82be 432d b63d beb2 81be 5502 263c
00000380: ff62 5ebd fe3a 9cbe 2a2f 9ebd 66c2 4ebe
00000390: a39e e1bc d255 85bd f60d f93c 4a45 9f3a
000003a0: 8d28 9b3d 9987 24bd 471f 16be 2750 29be
000003b0: d9a8 02be e329 033e 3675 a23d b76a 09be
000003c0: 9b31 2bbe 80a3 67bd 2890 90bc 1a0d 4bbe
000003d0: 139c 22be 9262 54be 25d1 bbbe 8a40 e2be
000003e0: 58d9 c03d c3ca b9be 3f89 173d fe33 38be
000003f0: 351d 413d 909b 48be 569f 763d bca2 3dbb
-0.24273309 -0.2988946 -0.07610563 -0.1480987 0.28313637 -0.17458284 -0.35405165 -0.32899386
-0.20969892 -0.52553964 -0.47681263 -0.2648536 -0.1681434 -0.39022225 -0.14535229 -0.2843133
-0.308564 -0.28572938 -0.38127437 0.021830782 -0.085005686 0.15131845 0.08357571 0.122277364
-0.10114194 0.044636533 -0.04025598 0.06782162 -0.026435781 0.13291286 -0.09038745 -0.09809748
-0.14628801 0.17821653 -0.15169224 -0.16555117 0.06838027 -0.040965106 0.12411322 -0.038990308
-0.015030043 -0.09733672 -0.209582 -0.2354372 0.13155454 0.087053224 0.13636588 -0.10605174
0.13144688 -0.088215634 -0.17609492 0.027817622 -0.15010808 -0.1359851 -0.2260054 -0.28498816
-0.106703155 -0.26164576 0.2759779 0.16820718 -0.35795572 -0.29515904 -0.1395579 -0.18542595
-0.15895838 -0.26706624 -0.27100688 -0.09536797 -0.36615354 -0.37671635 -0.43264645 -0.42019448
-0.4323776 0.10053338 -0.041865736 0.023207098 -0.077584185 -0.017885968 0.13234033 -0.14915001
-0.17102687 -0.35663685 -0.231216 0.34582016 -0.03086716 0.3300269 0.2631741 0.44490504
-0.27778393 -0.20235658 0.022058 -0.016195875 -0.20189576 -0.41575664 -0.4070776 0.09233777
-0.1733151 -0.21796508 0.020269955 -0.015097494 0.13611178 -0.028473482 0.18120475 -0.077588975
-0.04075207 -0.09762551 0.13988857 0.106509104 0.025481641 0.00030648708 -0.14562762 -0.18312031
-0.14428815 -0.01525937 0.09179731 0.08999477 0.038659677 0.13894568 -0.08133476 0.12071751
-0.123965904 0.08363716 -0.16937001 0.033833012 -0.008099824 -0.09983405 -0.105787456 0.06001489
0.1741337 -0.082343146 -0.090311624 0.005741611 -0.09597957 0.13285123 -0.17725115 0.05791129
0.1891111 -0.09850886 0.1708455 0.16315095 -0.0450781 -0.13212755 -0.1732658 0.15498336
0.068112865 -0.07155975 -0.16501762 0.042424455 0.17595463 -0.059764564 -0.098445974 0.016777739
-0.12699106 0.0514102 -0.11078178 0.11571519 0.16610385 0.08644043 -0.09155624 0.029882714
-0.057748944 0.08370881 0.018864932 -0.22592385 -0.015307932 -0.15374348 -0.14918797 0.12420669
-0.24147613 0.09748254 -0.1729467 -0.105942585 -0.103270054 0.0003063384 -0.15836972 0.028652541
0.0912753 0.024493305 -0.09389003 -0.026305443 -0.010841795 0.09128334 -0.15808979 0.19045566
0.09954752 -0.09930554 -0.10381008 -0.0683603 -0.10073601 -0.07240124 -0.14277041 -0.4087858
0.34331375 -0.2878487 -0.114872456 0.16110036 -0.047409322 -0.11137058 -0.030499103 -0.09319226
-0.31276375 -0.3492413 -0.16485074 -0.12483139 -0.13182805 -0.20768178 -0.27975592 -0.24624977
0.06961472 0.14870916 0.16497473 -0.061229765 0.075090006 0.023093238 -0.19118647 -0.097018376
0.064957574 -0.25027943 0.0012594686 -0.27406022 -0.25448373 0.08895352 -0.25331682 0.010132392
-0.05429363 -0.30513757 -0.077238396 -0.20191345 -0.027541464 -0.065105096 0.030402165 0.0012151387
0.07576094 -0.04016838 -0.14660369 -0.16534482 -0.12759723 0.12808947 0.079325125 -0.13419615
-0.16718142 -0.05655241 -0.017646864 -0.19829217 -0.1587985 -0.20740727 -0.36683002 -0.44189864
0.09416455 -0.36287507 0.036996122 -0.17988583 0.047146995 -0.19590592 0.06021055 -0.0028936109

network.0.bias f4 [256]
00000000: 20cb c1be b2f4 f3bd d57d afbe f162 12be
00000010: b8ec e7bc 2607 e5bd 3d6e fb3d b9b1 b0be
00000020: 4271 31bd 08ab 09be 3ea3 ae3d 16a4 b73d
00000030: a965 5dbe 3483 553d 1ab6 37be 4708 103e
00000040: 7f3a b8bc 9313 97bb c5bf cc3d da5a 80be
00000050: 860d d23d b639 debe be49 75bd 7407 57be
00000060: 6935 ebbe 60aa 13bd a70d 1ebe e6e0 f53b
00000070: 8ced 7dbd f850 debd 058a 99bd 2cad 90be
00000080: 576f 0fbe cf6a eebc c8d8 71bd a5dd f4be
00000090: 246e a6bd 544f 0b3d b803 d03c b074 48be
000000a0: 001a bb3b 8ac8 89bd 5207 c2be 5c53 05be
000000b0: 493f 2d3e eff7 133e 35f2 4cbe 3556 94be
000000c0: 6b23 aabe b94d a8be 2ad0 56be 1849 543d
000000d0: 36d0 c93d ebfb 043e 8242 d9bd 4b20 09bd
000000e0: 4878 473d 10a4 ab3c f6da ec3d 756c 2abc
000000f0: c4ed 37be 5517 82be ba64 cfbd 21b4 2cbe
00000100: 897b 3dbe 22df e93d 26bf 87bd d4ae 70be
00000110: a845 2ebd d0e7 c23c 2226 c7be 46e7 b2be
00000120: f318 38bd d0c7 0cbe acbf c33c ac84 66bd
00000130: 42e9 083d 7642 03be 9e31 07bf c77d 35be
00000140: 0b06 cb3c 12e8 02bf b57b ecbe 5120 623c
00000150: 3bb4 b5be d297 febd 50d0 1b3d dd46 1dbe
00000160: 526a 3abe 7999 2c3e bc55 8abe aa41 8dbe
00000170: a7bc a2be 6068 ebbe 482e 5abe 3ee9 e4bd
00000180: 2906 e9be e305 e3be d4b5 8ebe 72d0 b9be
00000190: 6ea2 39be d804 76bd 0df3 9b3d 72a8 14be
000001a0: ce16 1cbc 6866 7abd 6e69 adbe 2450 aabe
000001b0: 1658 993d f0eb 16be 1bdd 823d 533b 1dbe
000001c0: 8f6b a23d 4f49 87be 4398 1bbc 6f47 e7be
000001d0: 1ad2 6abe 8bec 0abe 247d 7abe 28bc efbd
000001e0: 1b6c 10be 630f c2be c027 a53d 2ff9 96be
000001f0: 5fd3 46bd 2a34 8cbe ce80 babe 6c85 95be
00000200: 803e d7bc aa31 c6be cbb0 a3be 98c2 7abe
00000210: b899 febe 746f 6abe 3038 9cbe 72ad 4cbd
00000220: c896 04be e4e1 dcbe 6e66 9abd db53 c4be
00000230: d52b bdbe aeac ddbe e29f 84bd 3f2a 8abd
00000240: 90be 8abe 6d3b 063e 47a0 a6be 1bbe dcbe
00000250: 9018 93bc a803 053d 638b 44be 8f2a 87be
00000260: 6090 7a3c 6cc0 27be 12ec a13d a207 00be
00000270: 34cb 29bd 2875 26bd 2864 b1be 12fb 7fbd
00000280: a968 25be c3ba 60be 44fb bbbd bb96 e7be
00000290: 5ff8 7abe 7243 a7be abd7 e7be f209 34bc
000002a0: 2e16 a1be c081 0c3d ebbc 2c3e df38 a3be
000002b0: 59d9 fcbd 79f2 05be 63f2 f1be 803d 0f3b
000002c0: 5d08 e5bd 2fb4 67be 753f 203d 84db a03d
000002d0: 9801 7bbe 2ed7 08bf 8fd9 9bbe a391 0bbe
000002e0: a9c8 9bbe 1517 bbbe e265 923d 613d 0a3e
000002f0: 8d73 3e3e d6cb b7be 0dac 6fbd 968f c93d
00000300: bf67 36be d70e 443c bc5a 34bd aa83 d8be
00000310: 9c97 a0bd f07d f1bc 3042 a1be 7c4c 02be
00000320: eb8e c1be 6450 93bd dc93 babe d6c7 72be
00000330: a8ef b7bd dd27 6dbd ddf7 0a3d 6615 8f3c
00000340: f2b9 cb3d be0a d9bb 9458 75be fa27 4ebe
00000350: 5821 7fbd 5a47 aabe de1d 51be 28bb c3be
00000360: c9dd cfbd 47da 89be a8ee bc3d d90d 71be
00000370: db32 27be ac03 30bd 8425 94be b80e 84be
00000380: 2e84 2ebe b241 6ebe d579 97bd 1839 fcbe
00000390: cacf 52be 2176 27be 33e0 f93d 6bfc cfbd
000003a0: a3da ccbd 2611 a3be df95 c3be c0d2 a13c
000003b0: d0cc 97be c9d3 403c 6650 d63d 86be bdbe
000003c0: 6c62 09be 22f5 30bd 7df2 cebe 64a9 60be
000003d0: 0f13 c1be 708f f2bd 48c8 fb3d 19bd d8be
000003e0: a841 4dbd b090 57be d7e3 06bf 64df 1dbd
000003f0: b693 96be dcea 9bbd 2c28 15be fefa 33be
-0.37850285 -0.11911906 -0.3427569 -0.14295556 -0.028311118 -0.11183004 0.12276886 -0.34510592
-0.0433209 -0.1344415 0.0852723 0.08966844 -0.21620812 0.05212708 -0.1794056 0.14065658
-0.02248883 -0.0046104877 0.09997515 -0.25069314 0.10256486 -0.43403405 -0.05988478 -0.20998937
-0.45939186 -0.036051154 -0.15434895 0.0075036166 -0.06199412 -0.10855287 -0.07497028 -0.2825712
-0.14007317 -0.029103665 -0.05904463 -0.4782535 -0.081264764 0.0340112 0.025392398 -0.19575763
0.0057098866 -0.06727703 -0.3789621 -0.1302008 0.16918673 0.14450048 -0.2001427 -0.2897202
-0.33230147 -0.32871798 -0.20977846 0.05182752 0.09854166 0.12986724 -0.106083885 -0.033478063
0.048698694 0.020952255 0.11565201 -0.010401835 -0.17961794 -0.25408426 -0.10126634 -0.16865589
-0.18504156 0.11419512 -0.066282555 -0.23504192 -0.042546898 0.023792177 -0.3889628 -0.34942073
-0.04494567 -0.13748097 0.023895107 -0.05627887 0.033425577 -0.12818322 -0.52810085 -0.17723761
0.024783155 -0.5113536 -0.4618813 0.01380165 -0.35489067 -0.12431301 0.03804046 -0.15359063
-0.1820462 0.1685542 -0.27018535 -0.2758916 -0.31784555 -0.4597807 -0.21306717 -0.111773
-0.45512512 -0.4434043 -0.278731 -0.36291844 -0.18128368 -0.060063213 0.07614718 -0.14517382
-0.009526921 -0.06113282 -0.338695 -0.33264267 0.07487504 -0.1473844 0.06389829 -0.15354662
0.079306714 -0.26423118 -0.009496751 -0.45171687 -0.2293171 -0.13566796 -0.244618 -0.1170581
-0.14103739 -0.37902364 0.08064222 -0.29486987 -0.048541423 -0.27383548 -0.36426395 -0.29203355
-0.02627492 -0.38709766 -0.3197082 -0.24488294 -0.49726653 -0.22894078 -0.30511618 -0.049970098
-0.12948143 -0.4314109 -0.07539068 -0.38345227 -0.36947504 -0.43295807 -0.06475808 -0.06746339
-0.27098513 0.13108607 -0.32544157 -0.4311379 -0.017956048 0.03247419 -0.19193797 -0.26399657
0.015293211 -0.16381997 0.07906355 -0.12502912 -0.041453555 -0.040639073 -0.34646726 -0.0624953
-0.16153206 -0.21946244 -0.091787845 -0.45232186 -0.24508809 -0.32668644 -0.4528173 -0.010988699
-0.31462234 0.034303427 0.16868941 -0.31879327 -0.12346143 -0.13080777 -0.4725524 0.0021856725
-0.11183236 -0.22627328 0.039123017 0.07854369 -0.24512327 -0.5345334 -0.30439422 -0.13629775
-0.3042653 -0.36541048 0.07148339 0.13499977 0.18598767 -0.35897702 -0.05851369 0.0984184
-0.17813013 0.011966429 -0.044031844 -0.42287952 -0.07841417 -0.029478997 -0.3149581 -0.12724489
-0.3780435 -0.07193068 -0.36440933 -0.23709044 -0.08981258 -0.057899345 0.033927787 0.017466258
0.09947576 -0.006623595 -0.23959571 -0.20132437 -0.06228766 -0.33257562 -0.2042155 -0.38228726
-0.10149724 -0.26924345 0.092252076 -0.23540439 -0.16327994 -0.04297225 -0.28934872 -0.2579248
-0.1704261 -0.23267248 -0.073962845 -0.4926231 -0.20587078 -0.16353656 0.12200966 -0.10155567
-0.10002639 -0.3184902 -0.3820028 0.019753814 -0.29648447 0.0117692435 0.104645535 -0.3705942
-0.13416451 -0.043202527 -0.4041938 -0.21939617 -0.37709853 -0.11843765 0.1229406 -0.4233177
-0.050111443 -0.21051288 -0.52691406 -0.03854312 -0.2940957 -0.07613155 -0.14566106 -0.17576215

network.2.weight f4 [512, 256]
00000000: 252e aabd 3af6 46b9 b054 9d3b d8a5 62bd
00000010: b28e 703d 50f3 88bb 242b e6bd 3420 343d
00000020: daf9 60bd 3b2e c3bd 3b19 17bd 0080 de3a
00000030: 63e4 dfbd 5529 c3bd 1eb3 19bc 80e4 083c
00000040: 4cfd 35bd 6a09 e2bd f6f7 b9bd 4239 03bd
00000050: 78b4 29bc 7a72 1ebd b469 eebb 46f2 3cbd
00000060: 0c02 97bb 985c 553c f667 5fbc 831f 64bb
00000070: 5805 323c 89ad 6ebe a41c f2bd c22c edbd
00000080: c4fa 4ebd d0cb e1bd f896 36bc 96f2 babd
00000090: 4881 24bc 263a 3abd 22c4 d0bd 06f7 eabb
000000a0: c03d b7bc 7a67 60bc 7c6f 7fbd 50e8 c8bb
000000b0: 9ca4 8ebc b862 283d ad90 4bbd 20cd b0bc
000000c0: 96e2 2e3d bad4 81bd fefd 7fbd 84f1 60bd
000000d0: 1c0b 63ba 2473 953c cea2 28bd b0d9 b1bd
000000e0: c8a9 99bc 16ee 0d3d 1cfb 12bd faae 80bc
000000f0: b4e7 dcbc e645 b4bd aecd 73bd 0ce5 be3c
00000100: 8ef4 e3bd b6d1 593d d83f e03c a06d 1dbb
00000110: 8aaa 5c3d e253 7f3d 62da e7bd b04f dcbc
00000120: d531 b5bd c96a 8bbc 0705 f9bd b83f 173d
00000130: 580d f9bd 742b d7bc e35f c0bd 19a4 4ebd
00000140: ff86 4bba 2c51 f2bb 446e 463d 8ab6 10bd
00000150: c03d edba 269b 59bd e018 3fbc f439 d43c
00000160: 2937 3cbd ea04 7abd ec92 cbbd a694 ecbd
00000170: f0b0 e3bc f94a 11bd 404b 40bd 7e8c fdbc
00000180: 00b4 ddb9 adf2 97be 6041 f8bc 8030 1dbb
00000190: d070 36bd 7e19 bcbd b614 37bd 3c0a c6bc
000001a0: 32e5 15bd 73c5 ebbc b457 5dbd 3a1a 3bbd
000001b0: 787e 7cbd 2e79 2bbd e20f 0fbd ccce d5bd
000001c0: 83d2 b1bb f03c acbd 302e c1bd 2349 90bd
000001d0: 2c65 aabd 4831 b3bd 0022 88b9 bca6 b93c
000001e0: 7c20 a03c 5022 0c3d c865 f3bd 2cae 55bc
000001f0: 24fc 5f3d 1036 8ebb b826 3a3d 639d 98bd
00000200: 0624 63bd f61c 2bbd 452b 82bd 344c dcbc
00000210: 7be6 99bd 1275 c7bd 3c40 653d 22c7 e6bd
00000220: 0acc c5bd 20a3 e93b b581 22bd 9a80 63bd
00000230: b6e4 6a3d 560e c2bd 9ad9 c2bc 8e59 323d
00000240: b1d8 87bc b0dc 6bbd d09f 6abc a8b5 d5bc
00000250: 0c32 df3c 606c e3bb a479 37bd 484d 993c
00000260: d649 1cbd 8e94 44bd 48b0 da3c 1c87 64bd
00000270: b203 683d a65d edbb 0b8a 7abc ac6f a7bc
00000280: a01e 3dbd 525a e9bb b0c8 6dbc 6164 6dbd
00000290: f259 f3bc 7da0 86bd ef73 7ebe 77fd 80bd
000002a0: fe3b 15bd c329 f7bd e219 533d 663f 58bd
000002b0: 48be b5bd 4041 3fbc b240 d8bd 5844 f7bc
000002c0: 24d8 4cbd d119 adbc a5e4 8abd 365e 60bd
000002d0: ec2a d3bd 11ac a0bd 9400 73bd 71cc f7bd
000002e0: 54f6 b5bd 50da 29bd b833 153c 8aae 38bd
000002f0: c4fa c33c 0658 1bbd 0011 6f3b 840a d2bc
00000300: d2e3 593d 48da 85bc 004e 753a 44a5 c6bd
00000310: 5cb4 923c 0086 4bb9 a4c4 8cbc 4006 723d
00000320: a4b1 c3bd 9878 80ba 466d 79bd 2c34 b8bc
00000330: c627 e5bc 23f1 f3bd ee93 e7bd c6a5 90bd
00000340: 993d bcbd 401e b1b9 18e3 a03c fdc5 d2bb
00000350: c821 cfbc 2a0b 613d 0f7a a6bd 80ae a9ba
00000360: 38e5 123c 1eb1 bdbd f41a b1bd df25 f8bd
00000370: 903e 24bc 00f2 783b 2b41 39bd 428a 103d
00000380: 665d 34bd 30d0 92bc bab8 563d 8a9a f8bd
00000390: 2666 b6bd ce44 b3bd 7b9c 91bd 962d 38bd
000003a0: f03d 5f3d 8e2b 443d a020 debc 2845 193d
000003b0: 412d 74be b99d 96bd 48d2 fd3c 5808 40bc
000003c0: b70b 1abd b06f c73b 509b 3e3c 15fe c0bd
000003d0: 808f 753b 308b 70bc 06bb ddbc 67ba 34bd
000003e0: e6c2 263d b5d0 41bd 0dd9 69bd 8d17 bbbc
000003f0: 6068 f8bc e0b0 0b3d 5891 86bc 92c9 f9bd
-0.083095826 -0.00018974478 0.0048013553 -0.055333942 0.058729835 -0.0041793957 -0.11238697 0.043976024
-0.054925777 -0.09530302 -0.036889296 0.0016975403 -0.10932233 -0.09529368 -0.009381084 0.00835526
-0.044431016 -0.11036952 -0.09080498 -0.032037027 -0.0103579685 -0.038683392 -0.0072757844 -0.046129487
-0.0046083983 0.013022564 -0.013635626 -0.0034808822 0.010865532 -0.23308386 -0.11821869 -0.115808025
-0.050532117 -0.11025202 -0.011144392 -0.09128301 -0.010040589 -0.04546561 -0.10193659 -0.007170561
-0.022368312 -0.013696546 -0.06236218 -0.0061312094 -0.017412476 0.04110977 -0.04969852 -0.021582186
0.042696558 -0.063394025 -0.062498085 -0.054917827 -0.0008661018 0.01824338 -0.041170888 -0.08684099
-0.018757716 0.034650885 -0.035884008 -0.015708435 -0.026965953 -0.088023946 -0.059522323 0.023302577
-0.111306295 0.05317851 0.027374193 -0.002402164 0.053873576 0.062335856 -0.1132095 -0.026893467
-0.08847395 -0.017018693 -0.12159162 0.036926 -0.12160748 -0.026265837 -0.09393289 -0.050449464
-0.00077639514 -0.0073949303 0.048445 -0.035330333 -0.0018100068 -0.053126477 -0.0116636455 0.02590654
-0.045951042 -0.061039843 -0.099401325 -0.1155179 -0.027794331 -0.03547189 -0.046946764 -0.030950781
-0.00042286515 -0.29677334 -0.03030461 -0.0023985207 -0.04454118 -0.0918455 -0.044697486 -0.024174802
-0.03659553 -0.028780675 -0.05403872 -0.04567931 -0.061644047 -0.041863613 -0.034927256 -0.10439834
-0.0054267063 -0.084100604 -0.09432638 -0.070452 -0.08320078 -0.08749634 -0.00025965273 0.022662513
0.01954674 0.03421241 -0.118846476 -0.013042014 0.05468382 -0.004339941 0.04544708 -0.07451894
-0.055454277 -0.041775666 -0.06355909 -0.026891805 -0.07514664 -0.09739126 0.05596946 -0.1126845
-0.09658058 0.0071300417 -0.03967448 -0.055542566 0.057347022 -0.094753906 -0.023785401 0.043542437
-0.016582819 -0.05758351 -0.014320329 -0.026087597 0.027245544 -0.0069404095 -0.04479374 0.018713608
-0.038156353 -0.047993235 0.026695386 -0.055792913 0.05664415 -0.00724383 -0.015291701 -0.020438991
-0.046171784 -0.0071213627 -0.01451318 -0.057957057 -0.029705975 -0.065735795 -0.24848913 -0.062983446
-0.036434166 -0.12068512 0.051538356 -0.052794836 -0.08874184 -0.011673272 -0.10559215 -0.030183956
-0.050010815 -0.021130474 -0.06781892 -0.054777347 -0.10310921 -0.07845319 -0.059326723 -0.12099541
-0.08884874 -0.041467965 0.009106569 -0.04508833 0.023923285 -0.037925743 0.0036478639 -0.02563978
0.053195782 -0.016339436 0.0009357631 -0.09699491 0.017908268 -0.00019409508 -0.01718361 0.05908799
-0.09555367 -0.0009801565 -0.060895227 -0.022485815 -0.027973067 -0.119112276 -0.11307512 -0.07062869
-0.09191436 -0.0003378261 0.019639537 -0.0064322934 -0.025284663 0.054942288 -0.081287496 -0.0012945682
0.008965783 -0.09262298 -0.08647719 -0.12116598 -0.010024682 0.003798604 -0.045228165 0.035288103
-0.044034384 -0.017921537 0.052422263 -0.12138851 -0.08906202 -0.08753358 -0.071099244 -0.04496535
0.054502428 0.0478931 -0.027115166 0.03741947 -0.23845388 -0.07354302 0.030984059 -0.011720739
-0.03760883 0.0060863122 0.011633709 -0.09423462 0.0037469566 -0.014681622 -0.027066719 -0.04412308
0.040713213 -0.04731818 -0.05709176 -0.022838378 -0.030323207 0.034104228 -0.016426727 -0.121966496

network.2.bias f4 [512]
00000000: 3617 03bf bff6 89bf 07d8 f2be b998 4bbe
00000010: 2f92 3bbe 7f82 d4be ac6e a73f 2c25 75bf
00000020: 2306 50bf 8ddb a9bf 057e 5e3f 532a f6bd
00000030: 315c 9dbe abf5 19bf 2531 fabd d510 80bf
00000040: 0d1e 32bf 5fdb 05bf 5b80 18bf 7e20 9bbf
00000050: 03f5 ffbe e798 9abf a3ac 6ebd b28d 86bf
00000060: 2f9b 2d3f 3bfb 46be f595 3cbf b1c6 7dbf
00000070: f70f efbe 6748 8abe ff1a 25bf 85e8 12bf
00000080: 55cd 48bf d510 40bf af93 1abf d4e4 6fbf
00000090: e3bc b7be f91a 36bf 147a acbe 0700 2dbf
000000a0: 0b32 7bbe d90d 15bf c590 33bf 21bb 2ebf
000000b0: ae41 29bf d13a 81be c7a7 8dbf 485d 7bbf
000000c0: 0732 04bf 7849 14bf a0e1 86bf 3ae4 1abf
000000d0: f68d dcbd 3180 2abe 2fef 00bf d12a e5bd
000000e0: 798f 62bf 573e 14bf 389d 063f fa30 8ebe
000000f0: 37d8 8bbe d49d 16bf 1127 87bf 8cc5 963f
00000100: 724b 67be eb20 12bd c455 76be d6fb 52be
00000110: 3425 24bf ebed 8cbf d16d 06bf 8829 58bf
00000120: f815 b9be 5071 8e3e e859 39bf d302 eabe
00000130: 3b48 edbe 0854 08be f92c 06bf 6ff4 a3be
00000140: a6b5 e6be e905 b7be 4a94 b7bd da1a a6be
00000150: 09cc 2f3f da89 a5be 1601 0fbf c1dc 2bbf
00000160: 4f77 82be 681a dabe 19c5 9bbf c4a2 c8be
00000170: 8842 32bc 4748 ba3f f80e f1be 674b 81bf
00000180: 2e68 27bc d5ee 6dbe 0baf 993f 1174 d7be
00000190: 1422 54bf ff8f c3bd 512a cfbe 1628 e4be
000001a0: b7bf 583f db9c 0cbf 4be8 9e3f 2334 96be
000001b0: 6c67 9ebe b478 16be 63ce 18bf 5973 6dbf
000001c0: fc8e 00bf b4fe 12be 0e23 ebbe 97d1 44bf
000001d0: e2de 3abf 914b edbd c774 bcbf bcca ccbf
000001e0: af0b a6bf 44b1 e9be b703 03bf 517c 2dbf
000001f0: 4696 2ebf 8775 41bf 3a76 19bf 5b68 b5bc
00000200: 6061 dcbe 29ef 03bf 5803 a0be b697 ffbe
00000210: 32d3 48bf 65bd 1ebf ff88 1fbf 32e4 5dbf
00000220: 32b2 d1be 51af 2ebf fc1b cdbe cba6 47be
00000230: cef6 22bf 27ae c2be c4f6 4cbe fabf 16bf
00000240: f070 a1be 379b 30bf 82a5 4fbf f05f 07bf
00000250: 3931 d73f 306b ddbe 2261 a4be cf07 66be
00000260: 4fb2 6abf 0861 09bf 0b84 91be 36c2 69bf
00000270: dfb5 dcbd d68a e2be 2e1d b0be 2fed 61bf
00000280: 9ca9 473f 9092 a5be db57 37bf fbd2 0dbe
00000290: 09dc a4be 73d7 56be f810 1bbf 5cc0 07bf
000002a0: a115 7bbf c96a cbbe 6a43 60be 466f b2be
000002b0: accc abbd dfcd 03bf 7ab8 81bf 8fdb acbe
000002c0: 8a9f 91be d563 3bbd 6d8d c53d b590 cebe
000002d0: daff ebbe 4967 e9be 6e90 043f cf2b b4be
000002e0: 40c0 71bf 4926 01bf bb3f 93bd 6656 72be
000002f0: 9722 6ebf b656 35bf 7cd9 ccbe a5c7 dfbe
00000300: 3d4d aebd ec71 4cbe 24a5 23bf 842f ecbe
00000310: 5bf7 fcbe ca42 3bbf 9c08 14be 27ef 12bf
00000320: 70be f6be c5e2 cb3e 96e2 bcbe 0f20 3bbf
00000330: bce1 60be ac9f 6fbf bdb5 34bf 9eda 00be
00000340: ebf5 48bf 2bdf 54bf a9c8 ae3f 0455 2abe
00000350: 841a 36bf 6a2a 8dbf e5f5 90be 43b8 17bf
00000360: e4a2 2abf 8b1d e43e ecd7 50bf 08ad 62bd
00000370: 9901 d8be 42a3 99be 73cd 7fbf 5bf9 1ebf
00000380: afcf 32be bc30 3ebf 6224 0c3f 19f5 babe
00000390: 2026 ea3f 1278 a3be eb8e 183e 6770 c9be
000003a0: f661 53bf 6bdf b2bf 4c26 d8be ab96 32bf
000003b0: babb 62bf b0ee 15bf f243 adbf d12f 1ebf
000003c0: ea98 06bf 7bf6 e1bc 86bf 59bf cb4c 55bf
000003d0: ebd6 5abf c6ad 22bf d356 b9bf 62b5 a8be
000003e0: dcd5 7fbf f9be a3be 6dc0 fbbe fcc3 0ebf
000003f0: 86c5 3ebf f8fa 76bf 19e3 d8be ed27 f5be
-0.5120729 -1.0778426 -0.4743044 -0.19882478 -0.18317483 -0.4150581 1.3080649 -0.95759845
-0.81259364 -1.3270127 0.8691104 -0.120197915 -0.307344 -0.60140485 -0.12216405 -1.0005137
-0.69577104 -0.5228786 -0.59570855 -1.2119291 -0.49991617 -1.2077912 -0.058270108 -1.0511992
0.67814916 -0.19431774 -0.73666316 -0.99131304 -0.46691868 -0.27008364 -0.6449432 -0.57386047
-0.7843831 -0.75025684 -0.603816 -0.9370854 -0.35886297 -0.71134907 -0.33686888 -0.67578167
-0.24530809 -0.58224255 -0.70142776 -0.68254286 -0.66115844 -0.25240186 -1.1066827 -0.9818921
-0.51638836 -0.57924604 -1.0537605 -0.60504496 -0.107692644 -0.16650464 -0.50364965 -0.11189807
-0.8850017 -0.57907623 0.52583647 -0.2777174 -0.27313396 -0.58834577 -1.0558797 1.1779037
-0.22587374 -0.035675924 -0.24056154 -0.2060388 -0.6411927 -1.1010107 -0.52511317 -0.8443837
-0.36149573 0.27820826 -0.7240281 -0.4570528 -0.4634417 -0.13313305 -0.5241237 -0.32022426
-0.45060462 -0.35746697 -0.08963831 -0.3244236 0.6867071 -0.32331735 -0.5586103 -0.6713372
-0.2548165 -0.4259827 -1.2169524 -0.3918668 -0.01088012 1.4553307 -0.47081733 -1.0101136
-0.0102177095 -0.23235638 1.2006544 -0.4208074 -0.828645 -0.095489495 -0.40461972 -0.44561833
0.84667534 -0.5492684 1.241464 -0.29336652 -0.3093828 -0.14694482 -0.5968992 -0.9275413
-0.50218177 -0.14354974 -0.45925182 -0.7688231 -0.7299634 -0.11586679 -1.4723138 -1.599937
-1.2972316 -0.45643055 -0.51177543 -0.67767817 -0.6819805 -0.7556996 -0.59946024 -0.022144487
-0.4304304 -0.51536804 -0.3125255 -0.49920434 -0.7844726 -0.62007743 -0.62318414 -0.86676323
-0.40956265 -0.6823626 -0.40060413 -0.1949722 -0.63657844 -0.38023493 -0.20016009 -0.58886683
-0.31531477 -0.6898684 -0.8111192 -0.52880764 1.6811897 -0.4324584 -0.32105356 -0.22463916
-0.9167833 -0.5366368 -0.28421053 -0.9131197 -0.10776877 -0.44246548 -0.34397262 -0.8825254
0.7799318 -0.3233838 -0.7161843 -0.13850014 -0.32199124 -0.20980625 -0.6057277 -0.5302789
-0.9807988 -0.39729908 -0.21900716 -0.3485052 -0.083886474 -0.5148601 -1.0134423 -0.3376126
-0.2844203 -0.045749504 0.096461155 -0.40344778 -0.46093637 -0.45586613 0.5178288 -0.35189673
-0.94433975 -0.50449044 -0.0718989 -0.23665771 -0.9302153 -0.70835435 -0.40009677 -0.43707004
-0.08510826 -0.19965333 -0.6392386 -0.46130002 -0.49407467 -0.7314879 -0.14456409 -0.5739617
-0.48192167 0.3982145 -0.3689162 -0.7309579 -0.21961111 -0.93603015 -0.7058981 -0.12583396
-0.7850024 -0.8315303 1.3654987 -0.16633993 -0.7113421 -1.1028569 -0.28312603 -0.59265536
-0.666548 0.4455379 -0.8157947 -0.055340797 -0.4218872 -0.30007368 -0.99922866 -0.62099236
-0.17462038 -0.7429311 0.54743016 -0.3651512 1.8292885 -0.31927544 0.14898269 -0.3934357
-0.8257135 -1.3974432 -0.42216718 -0.6976115 -0.885677 -0.58567333 -1.353636 -0.6179171
-0.5257708 -0.027583351 -0.85057867 -0.833203 -0.8548419 -0.6354641 -1.4479622 -0.32950884
-0.999357 -0.31981638 -0.49170247 -0.557678 -0.74520147 -0.964767 -0.42360762 -0.47882023

network.4.weight f4 [128, 512]
00000000: 8522 65be 2c61 0c3e 0a51 ae3e 5349 643e
00000010: 9835 16be 7b91 4e3e 2499 59bd e1e9 e03a
00000020: 79e9 e03e 253a 063d 8fa0 293e eece 17be
00000030: e224 78bc f797 d2bb d1c7 09be abba 333e
00000040: 7227 ff3e e5a5 653e 8d24 983e 13ec 823c
00000050: ac87 30bd 08bb 83bc cb29 213e 150a 8b3e
00000060: bbc3 8cbe 11bf 05be 4a28 633e 13e0 6cbe
00000070: 0737 ac3d a12e a43e f9f1 cbbe e250 c13d
00000080: 8ded b03e 7ce3 a23e 859e 223f bf07 94bd
00000090: e3a3 09bf a668 e2be 32a8 1c3e 3cef 26bd
000000a0: 0cc4 093f dc10 173f 23cc 3d3a 658c bd3c
000000b0: d844 d2bc df89 61be 8df1 00bd eb10 ae3d
000000c0: a52d 08be c1fd a9bd 2151 7dbe e7c6 91bc
000000d0: f593 c13c a4f1 d6bd 6614 89bd d317 8bbd
000000e0: 0215 5e3e 5ab3 453d c236 b3be 8fb1 693a
000000f0: 3093 59be 948c 82bd 60d1 0f3f bf18 053f
00000100: cbac 23bd b2e1 3f3e 76eb 68be 76e8 8b3c
00000110: 5c42 a73e 2e47 053d 932f f23c cd1e 623e
00000120: d774 97bd e849 65be 4196 633e 513b 75bc
00000130: 1db3 e03c fdaf 913e b4af 1e3e 1852 76bd
00000140: a87d 093f b173 bebc 34a6 78bd c677 8a3e
00000150: cac8 a23c f601 8abc f4ba 6ebc 4572 70be
00000160: 3a3e 3ebe 8e3f 12be a02d e1bb 3336 09be
00000170: 4556 9c3d 21f7 00bd 8e88 823e a8a3 dabd
00000180: 5ce3 023d 63c4 06bd 68f1 e3bb 7c6d 0c3f
00000190: bbc4 803d 8cf1 2b3e 4018 37bd c996 a6bd
000001a0: 6d27 013e e9b3 22be 780a f2bd d37e aa3c
000001b0: 4310 34be 5e40 dc3e 46da 473d 067e 523e
000001c0: 2db4 f43e 8c14 c03e ceda 403f cdac eebe
000001d0: 92f5 173f 2b89 8dbd 2a27 87bc 089f 553e
000001e0: ad16 563e fee4 0a3f 4e4a 013d 2fae 2c3e
000001f0: f2e2 a8be 736b 4e3d 088e 0fbe 480a a83d
00000200: 25c7 aabe 8c9d febd e02b 833e c5f9 b93d
00000210: 6440 803e 3d2b f5bc 2e2c 2abd 65c6 70be
00000220: 2b3c dabb 0daf 04be 3cff 1bbe 36d6 18be
00000230: f45c 85be 2a8a 87bd 02a6 9cbd 16d9 8dbe
00000240: b7cc 043f a542 9d3e d8cc 16be 3e9e c3bc
00000250: 9edf 4a3c ab29 8fbd be24 5ebd 5cf2 a0be
00000260: 7d2e 873e 4d14 92be 7c91 abbd a4e2 9a3d
00000270: 1c75 adbd d0e7 40bc 91e0 51bd c239 463f
00000280: 94f3 20bd 3f92 1e3f 0849 a6bd 721b 8ebd
00000290: 728b 59bd 4c2e 1abe eb4b 5cbe 7a21 7a3e
000002a0: 76f1 21bd caad e7bd e426 f6be cd83 26be
000002b0: 4be8 42bc add2 1ebb cd74 b8be e9f7 5d3e
000002c0: e0e9 19bc c42f 8bbe a36b babe 1f62 57bb
000002d0: d1b8 793e dd89 33be 5ae0 013e 83e0 a1bc
000002e0: d277 bdbe f318 f8be ccbd 17bf 1b2b 75be
000002f0: d61d 96be 69bd adbd f563 963e b3c1 febd
00000300: 433d f7bd 0f21 b6bd 66c9 0abf 27d2 dfbd
00000310: 17e8 00bd bfdb 4a3b 30c2 81bd e2d2 a93c
00000320: 4511 243d ec5c 063e 4018 753b 822f a3be
00000330: 8e0b d6be be11 f03e 8a9c d9bd 0669 a53d
00000340: 319c 043f 0090 333e 1dd4 a23d 847d 00bf
00000350: 2e91 8b3e e1cc 8ebd 6225 9c3e 9bc0 aa3d
00000360: fc76 0e3f 0232 06bd a877 a43e 0b60 943d
00000370: b710 aebe 7de7 07be 0838 0abd f8b8 3ebd
00000380: 0ec5 173f cc69 b1bd 0c43 86bd f441 a7be
00000390: 1991 253e 2dc6 13be c23d 92be 76f0 de3e
000003a0: 3f27 f23d cc1a 9a3e f35a dbbd 94f2 98be
000003b0: 9e15 a93e e371 52bd 7f9f 53be 52bb 843d
000003c0: 3864 933e 00b0 123e e3cc 28bd 6744 853e
000003d0: 30d0 0b3f cf12 8ebc 3d18 9dbe 4b6e eebc
000003e0: 4d99 3c3c 1907 90bd e495 b53d c3e1 03be
000003f0: db44 30be 63cb 043e 4503 b63d b328 fbbd
-0.2237645 0.13708943 0.34046203 0.22293596 -0.14668882 0.20172684 -0.053124562 0.0017159545
0.43928126 0.032770295 0.16565154 -0.14825031 -0.015145512 -0.006426807 -0.1345513 0.17551677
0.49834782 0.22426565 0.29715386 0.01598171 -0.043098137 -0.016080394 0.15738599 0.2715613
-0.2749308 -0.13061167 0.22183338 -0.23132353 0.08408933 0.32066825 -0.39833048 0.09439255
0.34556237 0.31814182 0.6352313 -0.0722804 -0.53765696 -0.44220465 0.15298536 -0.040755495
0.5381477 0.590101 0.00072401966 0.023138234 -0.025667593 -0.2202525 -0.03148036 0.084993206
-0.13298662 -0.08300353 -0.2473798 -0.01779504 0.023630122 -0.10495308 -0.06693344 -0.067916535
0.21687701 0.048266746 -0.35002714 0.0008914703 -0.21247554 -0.063744694 0.56178856 0.51990885
-0.03995971 0.1873844 -0.22746071 0.01707862 0.32667816 0.032538585 0.0295637 0.22082062
-0.07395332 -0.22391474 0.22225286 -0.014967755 0.027429158 0.2845458 0.15496713 -0.060136884
0.5370736 -0.023248525 -0.06070538 0.27044505 0.019871134 -0.016846638 -0.01457094 -0.2348109
-0.18578425 -0.14282057 -0.006871894 -0.13399582 0.07633642 -0.03148568 0.25494808 -0.10675746
0.031955108 -0.032902133 -0.006956268 0.5485456 0.06287523 0.16791362 -0.04470086 -0.08134229
0.12612696 -0.15888943 -0.11818403 0.020812428 -0.17584328 0.43017858 0.048792146 0.20555887
0.47793713 0.37515676 0.7533387 -0.46616212 0.59359086 -0.06910928 -0.016498167 0.20861447
0.20907088 0.54255664 0.031565003 0.16863321 -0.32985646 0.05039544 -0.14019024 0.08205086
-0.3335506 -0.124323934 0.2561941 0.09080843 0.25049126 -0.029927844 -0.04154604 -0.23513182
-0.0066600046 -0.12957402 -0.15234083 -0.14925465 -0.2604748 -0.066181496 -0.07648851 -0.27704686
0.5187487 0.30714908 -0.14726579 -0.023879167 0.012382416 -0.069903694 -0.05423426 -0.31434906
0.26402655 -0.28531113 -0.08377358 0.075627595 -0.084696025 -0.011774018 -0.051239554 0.7743188
-0.039294794 0.61941904 -0.08119398 -0.069388285 -0.0531115 -0.15056723 -0.21513335 0.24426833
-0.039536916 -0.113124445 -0.48076546 -0.16261216 -0.011896203 -0.002423446 -0.36026612 0.21676601
-0.009394139 -0.2718488 -0.36410245 -0.0032864881 0.24386908 -0.1753306 0.1268324 -0.019760376
-0.37005478 -0.48456535 -0.5927398 -0.23942225 -0.29319638 -0.08483393 0.29373136 -0.12439289
-0.120722316 -0.08893024 -0.5421356 -0.10928755 -0.031471338 0.0030953733 -0.063358665 0.02073044
0.040055532 0.13121384 0.0037398487 -0.31872183 -0.4180569 0.46888536 -0.106255606 0.08076672
0.5180083 0.175354 0.07950614 -0.5019152 0.272592 -0.06972671 0.3049727 0.08337518
0.55650306 -0.032762535 0.3212254 0.07244881 -0.33997127 -0.132719 -0.03374484 -0.04656312
0.59285057 -0.08662757 -0.06555757 -0.32667506 0.16168632 -0.14431067 -0.28562742 0.43542832
0.11823892 0.3009857 -0.107107066 -0.29872572 0.33024305 -0.051378142 -0.20666312 0.06481041
0.28787398 0.14324951 -0.04121102 0.2602875 0.54614544 -0.017342953 -0.30682555 -0.029105326
0.011511159 -0.07032604 0.0886648 -0.1287909 -0.17213766 0.12968211 0.08887342 -0.12263622

network.4.bias f4 [128]
00000000: 9610 1dbf ab94 4dbe f8b2 2abd fcd7 823e
00000010: 9f1e b9bd 23d5 8bbd 1c08 babe 342e 8f3f
00000020: d47b b9bd c15a 34be d5c9 a6be f29c ebbe
00000030: 3d1c aebe 600d d6bd 728a cfbe 8546 b23e
00000040: 5e2d bfbe d653 89be 7fbc 8bbe 6411 3abe
00000050: 6e6b 85bd 0557 a7be 35f2 2c3f beee 90be
00000060: 8236 dabe 1108 a1bd aec1 93bd ba37 86be
00000070: c6a2 9bbe 7f97 59bf 4492 b73d ac83 01bf
00000080: baef 89be b2ed 8dbe f2b2 3cbd 6cfb c83d
00000090: 61fa 88bd 894b c7bd 4e7f c8be b678 dcbe
000000a0: 3201 a1be cf0e f0bd 0c3a 42bf 63f0 65bd
000000b0: 1463 cdbe f394 7bbd e590 003f 8eaa 4fbd
000000c0: 4676 00be b1b6 3abd 54cd 0cbe bd3b a2be
000000d0: 97d0 373f 8028 fbbd 3e64 a1be 0433 48bf
000000e0: 355e 8ebd c73e b4bd e10b f4bd e159 5fbd
000000f0: 7e28 05bf ce14 30be 6042 6cbf fc6c 31bc
00000100: 9caa c1bd 162d bdbd 1ae8 4ebe 21b5 58be
00000110: 4ee1 83bd 9168 00bf f5bd 6cbe 21b2 1ebf
00000120: 7ea8 8abd 8cc5 5fbe 6cb0 97be 4916 86be
00000130: 41fd 1fbe 5d12 48be 4569 bbbd cb44 b9bd
00000140: ff76 c7be cc58 55be 67b6 5abe 1a24 e9be
00000150: 97ef 1abd 45b5 7bbe fb3d b8be b80e ecbd
00000160: 0a9b 15be c3ae 95be 610c acbc 732a 813f
00000170: ae43 883e f060 b0be e3e9 c3bd abdc 89be
00000180: 4bec 5fbe 1665 96be d1c1 aebc fcb1 16be
00000190: 60ef babe 2c34 d2bc e986 debe d54a 103f
000001a0: 5565 41bd 9cc4 06be 1a72 363d d258 44bf
000001b0: 3f51 72be 1f38 16be 12ad c3be 2f72 13bf
000001c0: 2122 83be 917b f93e e2c7 e6be a7fc 42bf
000001d0: 1770 55bf 8a9a 0f3e f001 bebd 2eec f0be
000001e0: 6811 19bf 6536 18bf 93a4 a5bd cc0d cdbe
000001f0: 9fe4 523f 566d 32bf 790c ac3c 1b5d 9fbe
-0.61353433 -0.20076244 -0.041674584 0.25555408 -0.09039044 -0.06827762 -0.36334312 1.1185975
-0.090568215 -0.17612745 -0.3257586 -0.46018177 -0.3400592 -0.1045177 -0.40535313 0.34819427
-0.373393 -0.26821774 -0.2729225 -0.18170696 -0.06514631 -0.32683578 0.6755708 -0.28307146
-0.4261971 -0.07862867 -0.07214676 -0.2621439 -0.30397624 -0.8499679 0.08963445 -0.5059154
-0.2694071 -0.2772041 -0.046069093 0.0981358 -0.06688381 -0.09731204 -0.39159626 -0.43060845
-0.31446224 -0.117215745 -0.7586982 -0.056137454 -0.40114653 -0.061421346 0.5022109 -0.050699763
-0.12545118 -0.045584384 -0.13750201 -0.31686202 0.7180266 -0.12263584 -0.3152179 -0.78202844
-0.06951562 -0.08801036 -0.11916328 -0.054529075 -0.5201491 -0.17195436 -0.9228878 -0.010829207
-0.09456369 -0.09237115 -0.20205727 -0.21162845 -0.06439458 -0.50159556 -0.23119338 -0.61990553
-0.067704186 -0.21852702 -0.29626787 -0.26188877 -0.15623952 -0.19538255 -0.09150938 -0.09046324
-0.38957974 -0.20834655 -0.21358643 -0.45535356 -0.037826147 -0.24580868 -0.35984787 -0.11526245
-0.14609924 -0.29234895 -0.021001996 1.009108 0.26614136 -0.34448957 -0.09566095 -0.2692617
-0.21867482 -0.29373997 -0.021332653 -0.14716333 -0.36510754 -0.025659643 -0.43462303 0.56364185
-0.04721578 -0.13160938 0.04454241 -0.7669803 -0.23663805 -0.14669846 -0.3821798 -0.57596105
-0.25611976 0.48727086 -0.45074373 -0.76166767 -0.8337416 0.14023796 -0.09277713 -0.4705519
-0.59792185 -0.59458 -0.08088031 -0.4004959 0.823801 -0.69698083 0.021002041 -0.3112572

network.6.weight f4 [12, 128]
00000000: b9cf ac3e 741e 9f3d 8789 283d 5b48 0b3f
00000010: 3147 afbc e788 8cbd 8187 ff3e 4108 b03f
00000020: 59c0 1e3c d70d 8f3e 4713 773e ba95 973e
00000030: 426b 80bc 7c74 163c 144a 843e ac08 243f
00000040: 6c36 393e 24b6 c13e 0aba d2ba 96de 693f
00000050: ecf3 6e3e 53d7 583e b4e2 443f fb77 283f
00000060: b272 313f 3e5b 023d fc17 f83d b896 143d
00000070: aceb 313d a714 a23e 0d95 473e d508 9c3e
00000080: 1b5d c7bc 5f21 9c3d 0f6f 1f3e 5d27 6dbd
00000090: 9690 d2bd 9bb6 0b3e 008e 223e 090c d43e
000000a0: 4880 63be 9c1d 383c f099 8f3e 728a c23d
000000b0: 9df4 493e e46e 813b b213 de3f 7de7 a5bb
000000c0: 8a8a ac3f 7339 9f3d 0044 9838 abc6 0a3e
000000d0: b407 6d3f 5650 d83e e467 20be a39e 933e
000000e0: bdb8 793b 92c2 10ba 2319 f23d bdb2 1bbc
000000f0: e16f ee3d 26be 7c3e 8740 813f 9db0 063c
00000100: 9f95 e5bc 6bfa 9e3d 7074 d23b 517d f6bd
00000110: 2023 a13d f0ad a63e 0d14 603e 9bcf ff3e
00000120: 20fa ec3d 4305 1bbd a72b b2bd ab06 853d
00000130: 7d16 ae3e 8390 0db9 35b2 7d3d e81a b73b
00000140: aaba 743f f877 f13d c352 023e e8a4 ca3e
00000150: db41 d5bc d4b9 a9bd dca2 e63d 76de ae3d
00000160: 9aac c6bc 69e0 ac3d 49db b43c f720 9c3f
00000170: 578f 033f 7b99 4d3f 6fe0 01bc bfa5 a93d
00000180: 6041 1ebb 802a ecbb f1ae ff3c 10e4 203d
00000190: 8a65 c7bb d37c a13d a261 ac3e 8086 293f
000001a0: 4474 9cbc e1f8 683d 502f 103f 0ef5 7f3e
000001b0: e2f7 513e 8072 99bc 7fbb 903d 2686 593e
000001c0: eec9 553e 6959 2b3f aa3a 043f 5a36 a23e
000001d0: 1508 a03e 7eb1 cd3e 2554 6f3d b246 693d
000001e0: c07c fe3e 3021 933e 1186 603a 4737 a33e
000001f0: 11f4 423f e378 183e 89cc 4140 eeed 803b
00000200: 3160 403e fb3e a43e 3711 c83d 5040 403f
00000210: 5039 c2bc fd9c 3b3d a4b3 2dbd 3a31 fe3f
00000220: 442d 99bc 707b 24be cdb2 183f 3872 223e
00000230: 651b 693e a89d 793e 5a76 bd3d e4e1 7c3f
00000240: 6376 cf3d a563 53bd b153 9b3e 24d3 103f
00000250: 0779 2f3e 9936 8d3d 4168 873f 5123 383f
00000260: 34b9 e53e 7710 dc3c 1155 ed3d 850d 7bbe
00000270: 90ae a03e d60a e93c 1e34 8d3f aa16 883e
00000280: c6c1 923e 3b38 5abd 94df a83d 165f 1f3e
00000290: cf98 073e b2cc ba3d b717 15bc b183 e93e
000002a0: 89cf 933d d27f a93d 481b 4e3e 2346 903d
000002b0: fa25 c53c 07cc 993d 98fe 073f 4e08 9f3d
000002c0: 0ce9 be3e 4888 61bc e0f9 85be 2578 44be
000002d0: 9d12 7d3f 9a95 cb3e 807f fd3e 0271 2c3c
000002e0: 7087 e33d 299d ab3d 0e36 753e 95d5 463e
000002f0: 646f 82bd e93e 3c3e ee71 c63e 12d8 d73d
00000300: 6fc1 073e f3de a83d aa4f 233e 42a8 af3e
00000310: 68ba ad3c 4323 b9bd 74a7 933e 66d6 b03f
00000320: 949d 033e 71a2 8c3e 5374 163e 3990 2cbe
00000330: 7605 913e b069 d4bb 20d9 a1bc 95a8 093e
00000340: ba09 bb3f 5e19 07bd 4326 d23e 9441 073f
00000350: e081 6b3b bdd4 833e 027a 7c3e 09d4 39bb
00000360: 9f10 e23d b143 813e fb36 b83d bc1e 8f3e
00000370: 0924 5e3f c3af f23e 548b c23c c0d9 293c
00000380: 5b50 753e ac22 2fbe e56e e7bc 1eb2 2ebd
00000390: 26d7 43be 8d3c 443e 9f4d b43e a96d 443f
000003a0: 5afc b33d c8bc c33c ef97 703f 3ddd d63d
000003b0: 35ca 55bc 584c 9ebd e5ec 1dbd 8041 bb3e
000003c0: 7af2 1fbe a4fd 003f e17d c0bd d8b9 04be
000003d0: e53b 123f 1af7 1b3f 6c15 a93d 6328 993e
000003e0: ea42 613e 6a80 94bd 7b6c 0b3e 8252 8f3d
000003f0: 78ad 7d3f dca9 66bd 5e17 9a3d f66c 893e
0.3375223 0.0776948 0.04114678 0.5440728 -0.021396251 -0.068620495 0.4990807 1.3752519
0.009689414 0.27940246 0.24128447 0.2960642 -0.015676145 0.0091830455 0.25837767 0.6407573
0.18087167 0.37834275 -0.0016077172 0.91355264 0.23335236 0.2117589 0.7690842 0.65808076
0.69315636 0.031825297 0.1211395 0.03627655 0.043437645 0.3165638 0.19490452 0.30475488
-0.024336388 0.076235525 0.15569709 -0.057898868 -0.10281484 0.13643877 0.15874481 0.41415432
-0.22216904 0.011237528 0.28047132 0.094990626 0.19722219 0.003949987 1.734976 -0.005062996
1.3479779 0.077746294 7.260591e-05 0.13552348 0.9258988 0.4224879 -0.15664631 0.28831968
0.0038104497 -0.00055221573 0.11821201 -0.009503064 0.11642433 0.24681911 1.0097817 0.008220819
-0.028025446 0.07762607 0.006422572 -0.12035621 0.07868028 0.3255458 0.21882649 0.49963078
0.11571145 -0.037846815 -0.08699732 0.064954124 0.34001532 -0.00013500643 0.06193753 0.0055879243
0.95597327 0.1179046 0.12726884 0.39578938 -0.026032379 -0.08287397 0.11261532 0.08538525
-0.024252225 0.0844124 0.02207722 1.219756 0.51390594 0.8031232 -0.007927044 0.08283567
-0.0024147853 -0.007207215 0.031211348 0.039279997 -0.0060851024 0.078851365 0.33668238 0.66220856
-0.019098409 0.056877974 0.56322193 0.24995825 0.20504716 -0.018731356 0.07067012 0.2124258
0.20877811 0.66933304 0.51652014 0.31682092 0.31256166 0.40174478 0.058429856 0.056952186
0.49704552 0.28736258 0.00085648993 0.3187811 0.76153666 0.14889865 3.0281088 0.0039346134
0.18786694 0.320793 0.097689085 0.75098133 -0.02370897 0.045804013 -0.042407647 1.9858773
-0.018698342 -0.16062713 0.5964783 0.15863883 0.22764356 0.24376547 0.092510894 0.9878218
0.10130002 -0.0516087 0.3033729 0.56572175 0.17136012 0.06895179 1.0578691 0.7192889
0.4486786 0.02686332 0.11588491 -0.24516876 0.3138318 0.02844755 1.103153 0.2657979
0.28663462 -0.05327628 0.08245769 0.15563616 0.13241886 0.09121074 -0.009099892 0.45608285
0.072173186 0.08276333 0.20127594 0.070446275 0.02406596 0.07509618 0.53122854 0.07765256
0.37287176 -0.013765402 -0.26167202 -0.19186457 0.98856527 0.39762574 0.49511337 0.01052499
0.11109817 0.08379585 0.23946401 0.19417413 -0.06368902 0.18383373 0.38758796 0.10539259
0.13257383 0.08245649 0.15948358 0.34308058 0.02120705 -0.09039929 0.28838694 1.3815429
0.1285308 0.27467683 0.14692812 -0.16851892 0.2832448 -0.0064823255 -0.019756854 0.13443215
1.4612343 -0.032983176 0.41044816 0.5283444 0.0035935566 0.25748244 0.24655917 -0.0028355143
0.110383265 0.25246957 0.08994862 0.27953136 0.86773735 0.4739972 0.023748077 0.010366857
0.23956434 -0.1710307 -0.02825112 -0.042650335 -0.19125041 0.19163723 0.3521547 0.7672983
0.087883666 0.023893729 0.9398183 0.104914166 -0.013048698 -0.07729405 -0.038556 0.3657341
-0.15619841 0.50387025 -0.093990095 -0.12961519 0.5712264 0.6092392 0.08256039 0.29913625
0.21998182 -0.072510555 0.13615601 0.06998159 0.9909282 -0.056314334 0.07523988 0.26840943

network.6.bias f4 [12]
00000000: 1e60 703f e45a 673f 98b9 373f 5c25 173f
00000010: 897f 59bd d220 51bc 29b1 643f e187 b43e
00000020: 757c da3e 8cd3 b93f 1e51 863f 41f3 bd3f
0.93896663 0.90373063 0.7176757 0.5904138 -0.053100143 -0.012764173 0.89332825 0.35259917
0.42673078 1.4517684 1.0493505 1.483986
