model/DQNAgent2_20-08-2022__21-55-47.pth/DQNAgent2_20-08-2022__21-55-47_iter_1420.pth (torch, 826191 bytes, 8 tensors)

network.0.weight f4 [256, 27]
00000000: 8959 a2be 0951 09bf b4ed bfbe cf67 1bbf
00000010: e13b f3be fb9b bbbe 36b0 873c d077 e9be
00000020: aa2b d7be 11d6 38bf b2f4 16bf af4b 6ebe
00000030: 4159 80bd 3b8d a7be 4a13 5fbf a84d 61bf
00000040: e7b2 14bf d3cb 15bf 41bf 53bf 10cb 453d
00000050: 3b72 5abf dfa1 2abf 4dbc 60be 1b75 43bf
00000060: 5f2e 16bf 650b 8abe 8f47 01bf f074 95be
00000070: 7c0d 1dbe 04f3 073d af46 57be 7a8b dfbd
00000080: d42f e2bd c0ab 353d ffd1 80be f8a3 b8be
00000090: fc13 55be fb95 3ebe e45e 2ebe e0fb 35be
000000a0: b55b 19be 7826 6cbe 2bd2 bfbe 3355 f0be
000000b0: a469 a5be a3f3 02bf b824 afbc 07b6 413e
000000c0: 4640 d83d feed ac3d 402c a7bb b21f a33d
000000d0: 4644 c63d 80e4 643b e467 33be 75ca 35be
000000e0: 2339 aebd 1223 cbbd e849 683d b194 37be
000000f0: ac45 57bd 0a0e d53d 6477 efbd 805e 2cbb
00000100: 686a 583d 18fe c1bc c8e2 e2bc 20e8 38be
00000110: 9261 35be e4b9 5bbd 08c6 fcbd 415e 96bd
00000120: 0310 d5bd 6598 113e c172 3b3e 8f76 34be
00000130: 8666 d63d 3a37 c83d 4044 c93b ee90 2bbe
00000140: 888d b23c da88 b5bd a4ee efbd a056 c43d
00000150: 03e4 023e 18a8 dbbb 94a0 55be a193 aa3d
00000160: 9e2c a93b f5c7 4abe dce7 163d 9680 ba39
00000170: 319f ba3d 5146 883c fed0 dabd ebaf 5fbd
00000180: 0a2a 04be b629 06be 9672 bbbd cb75 49bd
00000190: ece2 1dbe 8b8b 033e 690c 0e3e ab31 00bd
000001a0: 3e4e 963d 8912 0dbe c6bd 9ebd adcc 3b3e
000001b0: 3b62 36bd cdc3 c83c fcd3 21bd 6acd db3d
000001c0: 5ca7 21bc 7a9a 62bd 6b83 a73d 966d 10bc
000001d0: f291 30be e6fe 44bd 71c6 4bbe 7f52 813d
000001e0: 56da 8fbd 424b 13be a2c9 493d ac7c 59be
000001f0: 9d25 b2bc 5a60 63be 2f31 7f3d a5c9 13be
00000200: 0baf 4d3d 07c2 353e d9ee 3d3d ca1b 22be
00000210: 366c a83d d8bf 00be 50d1 e9bc ec2b d83c
00000220: 3251 d13d bd69 ae3d 871e 433e 8e44 e13d
00000230: 3833 6e3d 9007 533c 9019 f5bd 3196 02be
00000240: eb88 493d bd71 08bd 65dc 7cbe aee5 b13c
00000250: c9ad b93d 461d 22be 7412 1fbe 3055 f83b
00000260: de4d dc3d a6c5 1bbe 55fb a5bd 82d2 de3d
00000270: b416 203d bc4a 6e3d cab5 f53d 1919 3bbe
00000280: ec39 82bd d073 ddbc 414b 89be cda8 c6be
00000290: b140 a1be 60d4 e23d 115a 03bf 92ee 93be
000002a0: a16c b33d 73e6 a7be f262 04bf ee5f debe
000002b0: 9394 dabe 3e79 abbe d2cf 5bbe c144 c7be
000002c0: 3389 6dbe b577 bdbe 0a74 a7be e76c 72be
000002d0: 490b e0be 1e36 a83d 653b 243e c327 263e
000002e0: ea20 f73d 0a89 7fbe ce74 aa3d 8dc5 98bd
000002f0: ae52 ac3d 0ed7 b43d 0f86 75be 511b 1d3d
00000300: dd7b 2abe 2e70 3b3d 4d6a b83d 7cbe 313d
00000310: a2b2 5bbe 3f8f bcbd dfc1 a33d c564 773d
00000320: 6434 7b3d 5799 8abe c0ee 5fbd a3bb 85be
00000330: 68b4 6fbd 88b8 d3bd 389d a73d 2cc6 39be
00000340: e5a7 18be 5139 883d a0b9 b33c 8bd7 cdbc
00000350: 8ae4 87bd fcc6 15bd 2f76 92bd d042 8bbc
00000360: 06cb 23be 831a 99bd b593 6a3e 1a05 07bf
00000370: 7f30 c0bd b918 16bf 3aae 053f 7a24 d4bc
00000380: 52e5 d53d 6a11 27be 000a b53d 8601 06bf
00000390: 88ae a0be 5d32 92be 2dc3 30bf 0e61 5cbf
000003a0: 3dce 57be c8d3 b8be f34b 6ebe 3cf5 11be
000003b0: f802 81be c651 bebd a7f6 0abf 05b4 623e
000003c0: c76a c9be f338 e4be 110f 013e 64a3 1abe
000003d0: 4781 c5bd 48d4 a2bd abb7 213e ddbf 80be
000003e0: f368 dcbd d8e8 fe3c a3b2 42be 1d57 31be
000003f0: f417 c6be d535 c6bd 5b42 40be 9c39 bebe
-0.31708935 -0.53639275 -0.3748604 -0.60705274 -0.4750662 -0.3664244 0.016563516 -0.45599222
-0.420255 -0.7220164 -0.58967125 -0.23271058 -0.06267024 -0.32724938 -0.8713881 -0.8800912
-0.58085483 -0.58514136 -0.82713705 0.04828936 -0.8533055 -0.66653246 -0.21946831 -0.76350564
-0.58664507 -0.26961818 -0.50499815 -0.2919078 -0.15337175 0.033190742 -0.21023057 -0.10915275
-0.11044279 0.044353247 -0.25160214 -0.36062598 -0.20808405 -0.186119 -0.17028385 -0.17771864
-0.1497639 -0.2306155 -0.37465033 -0.46940002 -0.3230716 -0.5115301 -0.021379814 0.18917094
0.10559134 0.08443831 -0.0051017106 0.0796503 0.09680991 0.0034926236 -0.175201 -0.17753012
-0.08506992 -0.099187985 0.056711107 -0.17927815 -0.05255668 0.10403068 -0.11692694 -0.0026301444
0.052835852 -0.023680732 -0.027696028 -0.18057299 -0.17713001 -0.053644076 -0.12342459 -0.07342196
-0.104034446 0.1421829 0.18305494 -0.17623352 0.104687735 0.09776159 0.0061421692 -0.16754505
0.021796003 -0.08863993 -0.11715439 0.09586835 0.12782292 -0.006703388 -0.20862037 0.08328939
0.0051627895 -0.1980284 0.036842212 0.0003557249 0.091123946 0.016635092 -0.10684393 -0.054611128
-0.12906662 -0.13101849 -0.09152715 -0.0491846 -0.15418595 0.128462 0.13871922 -0.031297367
0.07339142 -0.13776602 -0.0775104 0.18339796 -0.044527274 0.024507428 -0.039508805 0.10732539
-0.009866562 -0.0553231 0.08179363 -0.00881519 -0.17243174 -0.048094653 -0.19899918 0.06314563
-0.07024066 -0.14384177 0.049264558 -0.21238965 -0.021746451 -0.22204724 0.062302765 -0.1443239
0.050215762 0.17749797 0.04637036 -0.15830913 0.082237646 -0.12573183 -0.02854219 0.026388131
0.10220565 0.08516262 0.19054614 0.10999404 0.058154315 0.012880221 -0.11967766 -0.12752606
0.04920284 -0.033311594 -0.24693449 0.021715965 0.0906635 -0.1583148 -0.15534383 0.0075785145
0.107570395 -0.15212116 -0.081045784 0.10879995 0.03908415 0.05817674 0.11997564 -0.18271293
-0.06358704 -0.027032763 -0.26815227 -0.3880066 -0.31494668 0.110756636 -0.51309305 -0.28892952
0.08760954 -0.32793006 -0.5171348 -0.43432564 -0.42691478 -0.33490938 -0.21465996 -0.38919643
-0.23196869 -0.37005392 -0.32705718 -0.23674355 -0.4375861 0.08213447 0.16038282 0.16226105
0.12066825 -0.2495462 0.0832306 -0.07459555 0.084142074 0.08830081 -0.2397692 0.03835613
-0.16648813 0.04576128 0.0900465 0.04339455 -0.21454862 -0.092070095 0.07995962 0.060398836
0.06132926 -0.27070114 -0.05467105 -0.26119718 -0.05852166 -0.10337931 0.08184284 -0.18142003
-0.14907797 0.06651557 0.021939099 -0.025127193 -0.06635387 -0.03656672 -0.07151448 -0.016999632
-0.15995416 -0.0747576 0.22907908 -0.5274216 -0.0938425 -0.58631474 0.52218974 -0.0258963
0.1044413 -0.16315237 0.08839798 -0.52346075 -0.31383157 -0.2855405 -0.69047815 -0.86085594
-0.21074767 -0.36099076 -0.2327116 -0.14253706 -0.25197577 -0.09292941 -0.5428261 0.22138985
-0.39339277 -0.445747 0.12603404 -0.15101391 -0.09643798 -0.07950646 0.1579272 -0.2514638
-0.10762205 0.031116888 -0.19013457 -0.17318387 -0.3869015 -0.096782364 -0.18775313 -0.37153327

network.0.bias f4 [256]
00000000: e03b 23bf c831 47be 90fc c5bc e30d 1fbe
00000010: 82db abbd 5fd4 1abe 753f 81be 9665 43be
00000020: 64f2 86be 12ee 2fbe c7c8 93be e36b c4be
00000030: 14af d4bd a414 5ebe daed 03bf 0688 abbe
00000040: 9621 19be 76e3 9a3d 80e1 efbb 882b 9bbe
00000050: 4eaa 97be 0261 e8be 1fdf a9be 990e a3be
00000060: 30c2 c23d 78aa a7bd 0029 9bbe be51 ccbe
00000070: 0632 bdbe 2e19 aabe c930 1dbf baef c2be
00000080: 75a2 0cbf 2ab7 d3be 89d3 d2bd 2434 65be
00000090: 4633 c5be 861f b8be 5ace 06be e790 94bd
000000a0: 8e72 79be 6695 87be 719b 74be 9b9c 44be
000000b0: d0a5 4c3c 9a87 bfbe 0a7a e2bd a158 ffbe
000000c0: f1ac 953d 2d64 08bf bb81 d3be 1a66 b5be
000000d0: b1f6 fabe 4d20 003e d8c7 edbd cdf9 38be
000000e0: 278e 443e 5835 4ebe 6371 8bbe 745c 30be
000000f0: c7ab a6be d38e 49be 58e0 1dbe 7658 f9be
00000100: 21a5 893d 5c04 48be 0c3f 093d d66d 51be
00000110: ebcb 26be bfc2 713c 0b1e 2ebe 411f 93bd
00000120: 1e49 08bf d730 debd 7699 9abe 0067 5abe
00000130: d17f 97be 9e6b d7bd 9612 eb3d 130b 153e
00000140: 2b47 09bf c0b2 54be e07a cabe 41bd dfbe
00000150: 7665 7bbe 3d54 7bbe fb21 78be b838 5c3d
00000160: 48d8 bfbe 7567 4abe e848 8d3d b392 9abe
00000170: 5dd8 c0be 8275 c7be 0092 3ebd 5f5a 2ebe
00000180: 0f3a 2ebe c5c9 afbe 6875 f7bd a7ef a2be
00000190: 927e 01bf 8121 cabd 6c26 06be 5fd4 84be
000001a0: d324 383e ac4e 91be 8002 a6be db22 9bbe
000001b0: 038b a33c 5614 92bd 34bf ec3c 846d dc3e
000001c0: 5ddc 40be 3357 a0bd 14c2 01be fcd5 87be
000001d0: aa28 663e 8048 b8bd 2d74 18be 442e ebbd
000001e0: 4254 9cbe fdb3 ccbe 9d5c 4fbe 2dcc 253e
000001f0: 9d4a 92be fd45 c2be 2c81 873f 5a05 e9be
00000200: b5b5 a5be a07b 4dbc 4596 96bc df33 3fbe
00000210: 994c 39bd f24c bcbe 6bc8 8fbe ed00 69be
00000220: 4315 5ebe ef38 53be bd8a 11be 74ca 87bb
00000230: 0104 92be 6549 4abe 1355 663d ef0f a2be
00000240: c896 6c3c 322c 7cbe dcaf bfbd 0bca 513d
00000250: 9638 00bd 3fcb e4be 96a4 42be b4dc 0cbf
00000260: 1bab 1ebf 2d8c 51be 9918 9ebe 1844 97be
00000270: 99a5 24bc 7f20 f83d 2ddd 4e3c 9c54 a1bd
00000280: f63e 813d fda9 62be 9b71 7cbe 9860 fcbe
00000290: dc5b 6abe 93b1 2fbe 7889 57be 8dda d8be
000002a0: 70e2 a0bd fb58 e5be 8cbf bfbe ba04 09bf
000002b0: 14c0 593d fa06 90be 9677 e83d 2617 9dbe
000002c0: 8212 943d 73b2 c0be 3fa4 1d3e c989 2abc
000002d0: 2262 9bbe b709 58bd fc58 6cbe 3e51 cdbe
000002e0: 4a54 3a3d 9253 123d fc4d 1abe e786 46be
000002f0: 4167 12bf 39c4 3d3d 2ad4 32be dcc7 47bd
00000300: 1e2b 2ebe 72bc acbd 6487 58be 608b 053d
00000310: facd fa3d 64a5 2f3d 13b9 36be 4cf7 96be
00000320: 0447 48bd 5077 f0be 4056 fabe 7add 42be
00000330: 91e8 a2bb 6fe1 2abe 708b 64bc 2bdc 6bbe
00000340: b2a2 bebd 5ab2 abbd 60d4 51bd 27b4 03bf
00000350: 38e9 63be 38cd 193d b315 543d 3ac7 f6bd
00000360: 4256 20be 5820 523d 62c2 87be 56c5 9cbe
00000370: 0397 41bd 5371 2abe d653 d1be 7f29 c9be
00000380: 013f 52bd 7ff9 9abe 507e 723e 6157 d1bd
00000390: 688b febe 8590 80be a8a3 b03c 4489 6e3d
000003a0: 07fc 703b be41 acbe 8433 dbbe c896 ff3c
000003b0: fbd3 07bf 8da8 bbbd 0007 36be 241d 32be
000003c0: 6d3e a2be 1c95 95be 1f4e 0bbf b35c 0bbf
000003d0: e2da 91be 1439 2a3d 6794 91be b2dc ccbe
000003e0: e94f c2be 3347 67be dbec b3bd cbcf a53d
000003f0: 339b 40be 5556 e0be d9a5 b5be d7b0 87be
-0.63763237 -0.19452584 -0.024168283 -0.15532641 -0.08391477 -0.15120076 -0.25243726 -0.1908172
-0.26356804 -0.1718066 -0.28864118 -0.3836356 -0.10384956 -0.21687561 -0.5153481 -0.33502215
-0.14954218 0.07562916 -0.007320583 -0.3030665 -0.2962212 -0.4538651 -0.3317804 -0.31847075
0.095096946 -0.08186811 -0.30304718 -0.39906114 -0.36952227 -0.33222336 -0.61402565 -0.38073522
-0.5493539 -0.4135068 -0.102942534 -0.22383171 -0.3851568 -0.3596155 -0.13164654 -0.072542004
-0.24360105 -0.2648117 -0.23887421 -0.19200365 0.012490705 -0.37408143 -0.11058433 -0.49872306
0.073083766 -0.53277856 -0.41309914 -0.3542946 -0.49016336 0.12512322 -0.11610383 -0.18064041
0.19194852 -0.20137537 -0.27234945 -0.17222768 -0.3255293 -0.1968339 -0.15417612 -0.48700303
0.06720949 -0.19532913 0.03350739 -0.20452055 -0.16288726 0.014755904 -0.17003648 -0.071836956
-0.5323657 -0.10849159 -0.30195206 -0.21328354 -0.29589704 -0.10518573 0.11478154 0.14555006
-0.5362422 -0.20771313 -0.3954687 -0.43699077 -0.24550423 -0.24543853 -0.24231713 0.05376503
-0.37469697 -0.19766028 0.068986714 -0.30190048 -0.37665072 -0.3895684 -0.046525955 -0.17026661
-0.17014335 -0.34333625 -0.1208294 -0.31823465 -0.50583756 -0.098696716 -0.13100594 -0.25943276
0.17982797 -0.28380334 -0.32423782 -0.3030003 0.019963747 -0.07132785 0.028899767 0.43052304
-0.18834062 -0.07829132 -0.12671691 -0.26530445 0.2247645 -0.08998203 -0.14888068 -0.11483434
-0.30533034 -0.3998107 -0.20250173 0.16191168 -0.2857255 -0.37944022 1.0586295 -0.45511895
-0.32365194 -0.0125416815 -0.018382201 -0.18672131 -0.045239065 -0.36777455 -0.28082594 -0.2275426
-0.21687798 -0.20627187 -0.1421308 -0.0041440073 -0.2851868 -0.1975456 0.056233477 -0.3165278
0.014440246 -0.24626234 -0.093597144 0.051218074 -0.031303965 -0.44686314 -0.19008097 -0.55024266
-0.61979836 -0.20463629 -0.30878142 -0.2954414 -0.010049247 0.12115573 0.012625975 -0.07877466
0.06310837 -0.22135158 -0.24652712 -0.49292445 -0.22886604 -0.17157583 -0.21048534 -0.4235424
-0.078556895 -0.4479445 -0.37450826 -0.5352284 0.053161696 -0.28130323 0.11350934 -0.30681723
0.072300926 -0.37636146 0.15394686 -0.010408827 -0.30348307 -0.05274364 -0.2308082 -0.40101045
0.04549054 0.03572423 -0.15068811 -0.19387399 -0.571888 0.04632971 -0.17463747 -0.048774585
-0.17008635 -0.084343806 -0.21145397 0.03260362 0.12246318 0.04288234 -0.17844038 -0.29485548
-0.04889585 -0.46966028 -0.4889393 -0.19029799 -0.0049715717 -0.16687559 -0.01394926 -0.23033206
-0.093083754 -0.08383627 -0.051227927 -0.51446766 -0.22256935 0.037549227 0.051778506 -0.12049718
-0.15657905 0.051300377 -0.2651549 -0.30619305 -0.047263157 -0.16644792 -0.40884274 -0.39289472
-0.051329616 -0.30268475 0.23680997 -0.10221744 -0.49715734 -0.2511026 0.021562412 0.058236375
0.0036771314 -0.33643907 -0.4281274 0.031199828 -0.5305783 -0.09163008 -0.17776108 -0.17393929
-0.31688252 -0.29215324 -0.5441608 -0.5443832 -0.28487307 0.04155834 -0.28433535 -0.40012127
-0.37951592 -0.22585754 -0.08785411 0.08096274 -0.18809204 -0.43815866 -0.35478094 -0.26502106

network.2.weight f4 [512, 256]
00000000: 93f8 c23e 7f13 0bbe 2005 68bd a028 09bd
00000010: c491 f8bc 20fe 1fbc ff6c 903e 847b 2fbd
00000020: 1834 833d f08b 503d 6583 16be fe79 0fbf
00000030: b74c b43e 9ec7 48bf 089c 4c3f 7195 3bb9
00000040: e219 593d 9885 88bc 707d d4bc abb8 343e
00000050: 1a62 bd3c 7e51 abbe ee0e b93e 32f8 0d3d
00000060: 1a3e 61bd 8068 583c 4814 573d 9926 b13b
00000070: 5466 31bd 416f 9cbd 7a86 99be a442 883e
00000080: de10 93be 9084 413c 9bba 973c bebc 21bd
00000090: 1d88 84be 6c37 863e 4044 bcba 409c 28bd
000000a0: 16c0 9a3d 8fde b43e 7f07 473e c092 f3bc
000000b0: 8038 123c fd01 62be c8cc c0bd 0221 d0bd
000000c0: 2066 56bb 08fa 13bd 9e97 8a3e e1bf 3d3c
000000d0: 601f 07be 389d a53c 8610 12bd 02c0 373d
000000e0: 2e67 78bd 6115 313d 1c3b 5fbd 414a c53e
000000f0: 7752 1cbe 1059 f33d a8e2 5b3d e050 0c3c
00000100: f251 b1be 54b9 79bd f6e9 03bd e660 213e
00000110: c826 80bc c8b2 d3bc a70f 653d 6746 573e
00000120: d665 96be f082 cabb 1ae1 a33d c1fc b93e
00000130: 5e06 28bf 10a2 8ebb 1094 29bc 2e48 21bd
00000140: 56f7 103f cbfc 6b3e 74ec 19bd 914e ad3e
00000150: e14d a8be 7039 f7bc ed6c b8be 001f c939
00000160: d415 c83e 60a4 82bc c0ff 3dbb e0ff 593d
00000170: 34ae d5bc 4093 8bbd 6c45 7ebf 48e7 103c
00000180: 5d69 7f3c e888 8dbe ef11 073f 97cb 12bd
00000190: 42c6 39bd 600e f5bc 125d 03bd 84fc c13d
000001a0: 6a64 61bd 400a d43a e4e7 97bc 8be3 f23b
000001b0: b1ff 8a3e 7c6b b1bc 078d b7bd ff4a c4be
000001c0: 38a1 46bc 9272 063d 31ac bebe d506 9ebe
000001d0: 75d9 d13b 8001 903a f9a7 563d 082a 42bd
000001e0: 14e9 b93e 505e 77bd 1303 b03c e258 0e3d
000001f0: c460 debc 38ae 38be 8490 52bf 2866 453c
00000200: e4a2 8d3e 3822 603c 12c2 3a3d cc7c c6bc
00000210: ac4b ffbc d370 5bbe 8820 723d 0684 7ebd
00000220: 7497 a9bd 34c1 943e a405 273d 7554 db3e
00000230: 75b3 94be 9a6b 313e 3411 7a3d 7871 25bd
00000240: 7c21 b1bc 9673 49bd d8ec 8dbd d866 863c
00000250: 6812 e73c 8e62 92be 0a87 5c3c 9b29 863e
00000260: 4065 d2bd f03e cebc 78d1 923e 3a0d 083d
00000270: 840c 293d c43b 43be cee8 1c3d ea90 cf3d
00000280: 8002 f1bb 8c6a 3a3d 4e2e 853d f870 08bd
00000290: 24c5 7f3c 16cf 3dbd 0a51 87be 00f5 523b
000002a0: b3af 003f d230 013d a9fe b33e 34eb b03e
000002b0: 6267 203d 68d1 d93c 48f6 4a3c 71d7 b9be
000002c0: 3efb 293d 741f 9e3e 5aa8 5b3d 0607 44bd
000002d0: f2d8 203d dccf 9dbc f242 7b3d 5d1b 3e3e
000002e0: 7854 cf3c 7a3b a43e 263e a33e af81 ba3e
000002f0: 0d63 59bd 7ceb 92bd 1a2f 653d 364f 473d
00000300: 98bc 4abd e9fe 87bd 07b5 e1bd c690 95bd
00000310: 729a 51bd 9aa3 79bd 27d5 d63e 61bf bdbc
00000320: bee6 58bd 80b8 d5bb 582e 5cbc 8c15 463d
00000330: 4c25 883e a8fd 05bd 7e5e 703d 00a4 91bc
00000340: 402a eebe a7e7 c6be d4f0 d63c 8230 a2be
00000350: 56ac 4d3d fff6 163e 841a 5f3d 12ef 01bd
00000360: 851d 36be f422 463d b53d b03e 5602 cc3e
00000370: 475c 1ebe 8897 f93d 8141 043f ccee 843e
00000380: 2b3d 363d 81ce e4bd 4dc7 6abe f42d 913e
00000390: aa14 3d3d 809b b63e 4acc 633d c200 44bd
000003a0: d9b3 2fbf 3e3e c63e 0b2f 5bbf a862 2dbd
000003b0: 751a 4cbd ce49 863e ea6e b1bd 31c2 b3be
000003c0: 5681 943e a04b 743e 048e 7cbd 1d59 32bd
000003d0: 0d92 a9be 3edc 553d c040 f9bc 7cae e63c
000003e0: 145f c7bc 8f13 c2be 5094 103e 2e29 01bd
000003f0: 6af6 47bd 9a9c 6b3e c1a4 48bd 9036 553c
0.38080272 -0.13581656 -0.056645513 -0.03348601 -0.030342944 -0.009765178 0.28208157 -0.042842403
0.064064205 0.050914705 -0.1469856 -0.5604552 0.3521478 -0.7842959 0.79925585 -0.00017889381
0.0530032 -0.016665265 -0.02593872 0.1764857 0.023118068 -0.3346061 0.36144203 0.034660526
-0.054990865 0.0132085085 0.052509576 0.0054062125 -0.04331048 -0.076384075 -0.2998541 0.26613343
-0.28723806 0.0118113905 0.018521598 -0.03948664 -0.25885096 0.2621416 -0.0014363602 -0.041164637
0.07556169 0.3532605 0.19436453 -0.029733062 0.008924603 -0.22071071 -0.09414059 -0.10162546
-0.003271468 -0.03612712 0.270688 0.011581392 -0.13195562 0.02021657 -0.03566029 0.044860847
-0.060645275 0.04323328 -0.05449973 0.38533214 -0.15265833 0.11882222 0.053682953 0.008564204
-0.34632832 -0.06096776 -0.032205544 0.1575962 -0.015643492 -0.025842085 0.05592313 0.2102295
-0.2937457 -0.0061801597 0.08001919 0.36325648 -0.65634716 -0.0043528154 -0.010350242 -0.039375477
0.56627405 0.23045652 -0.037579015 0.33849004 -0.32871917 -0.030178756 -0.36020604 0.00038360804
0.39079154 -0.01594752 -0.002899155 0.053222537 -0.026084043 -0.06815195 -0.9932468 0.008844204
0.015589085 -0.27643514 0.5276174 -0.03583869 -0.04535509 -0.029914081 -0.03207118 0.09471992
-0.055027403 0.0016177371 -0.018543191 0.007412379 0.27148202 -0.021657698 -0.08962446 -0.38338467
-0.0121233985 0.032824107 -0.37240747 -0.30864587 0.0064040967 0.0010986775 0.052406285 -0.047403365
0.36310637 -0.060392678 0.02148584 0.034752734 -0.02714575 -0.18035209 -0.82251763 0.012048282
0.27663338 0.013680033 0.045595236 -0.02422943 -0.031164013 -0.21429758 0.059113055 -0.062137626
-0.082808405 0.29053652 0.040776864 0.42837873 -0.29043165 0.17326203 0.061051562 -0.040391415
-0.021622412 -0.049182497 -0.0692994 0.016406462 0.028207019 -0.28590816 0.01345993 0.26203617
-0.10273218 -0.025176495 0.28675437 0.03321574 0.0412717 -0.19065768 0.038307957 0.10135062
-0.0073550344 0.045511767 0.065029725 -0.03331086 0.015610967 -0.04634007 -0.26429015 0.0032189488
0.50268096 0.0315407 0.35155228 0.34554446 0.039161094 0.02658911 0.01238782 -0.3629718
0.04149937 0.30883372 0.05362735 -0.04785826 0.039269395 -0.019264154 0.06134314 0.18565126
0.025308833 0.32076627 0.31883353 0.36427066 -0.053072978 -0.07173821 0.055953123 0.048659526
-0.049496263 -0.06640417 -0.11020856 -0.07303004 -0.05117268 -0.06094704 0.41959497 -0.023162546
-0.052954428 -0.0065222383 -0.013438784 0.048360392 0.26590955 -0.03271261 0.058683865 -0.017778397
-0.4651661 -0.38848612 0.026237883 -0.31677634 0.05021318 0.14742659 0.054468647 -0.031722136
-0.17784698 0.048373178 0.3442208 0.39845532 -0.15464889 0.121871054 0.5166245 0.25963438
0.044491928 -0.111722 -0.2292759 0.28355372 0.046162285 0.35665512 0.055614747 -0.047852285
-0.686338 0.38719362 -0.85618657 -0.042330414 -0.04982992 0.26228184 -0.08663733 -0.35109094
0.29004925 0.23856974 -0.061658874 -0.043542016 -0.3311924 0.052211992 -0.030426383 0.028159373
-0.024337329 -0.37905547 0.14119077 -0.031533413 -0.048818983 0.23008958 -0.048985247 0.013013497

network.2.bias f4 [512]
00000000: 900f 2ebf d085 98be dddb 1bbf 147f 3fbf
00000010: 3c12 143f 1862 5abf 55ea 9abf 7ce8 86bd
00000020: 3b8c 5cbf b42c 5b3f 5be7 ebbe 15d7 2cbf
00000030: b12a 49bf e97d 63bf 4bce b1be 76b1 95bf
00000040: 146a 3dbf f450 c9bf c392 3abf e1f5 643e
00000050: 0373 fdbc c598 2abf 0e66 5dbf c201 81bf
00000060: 786a ad40 3d40 b7bf d417 91be 86bf 17bf
00000070: 8ba9 2cbf 31d5 48be c60b 40bf 11a9 5fbf
00000080: d492 a33e 6c6d 01be c370 48bf e530 adbe
00000090: 6ffa d0be 8d57 28be 92bc f4bc 76d3 5e40
000000a0: 1bca 55bf 64cf cbbe 8de1 64bf bd79 cfbe
000000b0: 590f 2e40 880c 8cbf 7df9 d93f 70cc 7dbf
000000c0: 4647 46bf 754c 2bbf c70e 3d3f 0901 083f
000000d0: dc95 69bf 575b 38bf 595a bcbf 1791 7bbe
000000e0: 77df aabe 3cf1 2fbf 7f68 93bf 705f d0be
000000f0: 2e7a dbbf eaad 65bf eaae 87bf 42b7 bfbe
00000100: 2a4c e6be 2624 d0bf 9ce6 72bf 7aed dabe
00000110: f5c5 4dbe 3960 0dbf 8f7c 43bf 6e1d 6dbe
00000120: 0e7f 9abe 1c1b d6be 8c6d 2cbf 854f a1bf
00000130: fdb8 3abf ab23 16bf d6ea acbe f6ca d9be
00000140: 434d 0cbf 5cbb 2abf dda1 c7bf f42e 27bf
00000150: 8884 55bf 06a5 fdbe 321a 15bf 1189 fbbd
00000160: 7c1d bfbe 91fa 93be b4a9 46bf 275a 70bf
00000170: 8361 c0bf 6f83 65bf 5284 8bbf 7dbb a3bf
00000180: 76b7 03be 4091 07c0 194d 8fbf 79cd d9bf
00000190: ce2d 07bf f5a7 80be 7c5c 19bf c31c 5bbf
000001a0: 2bd5 5dbf 879b 98be f1ad b8bc aab9 a3bf
000001b0: 49c4 5ebf b520 aebf db70 7dbf 6eac 14bf
000001c0: 6d0d 21bf 5d5c bdbf 1e98 38be a248 aabe
000001d0: 0ac0 51bf a3fd eebe 01de cbbe d9c2 e2be
000001e0: 9d74 3cbf 1734 28bf 8475 f0be 688c 8abf
000001f0: f913 8cbf 2fac 70bf 5394 9cbf ab01 95bf
00000200: b299 b1be fe82 2abf 4d95 0dbf 4b62 36bf
00000210: 9815 0dbf 751e f7be 2216 fcbf a0a3 f4be
00000220: fd42 11bf dafa f3be 98a1 90be 6ecd 86bf
00000230: 64ac 0bbf eefc aebe 29d9 a8bf 886c eb3e
00000240: b12d 27be 375e 3cbf 3458 e3be 5853 01bf
00000250: 7144 f93f 9e1a 59bf 2850 18bf 9eb7 23bf
00000260: 4fe9 f8be 6c08 82bd b256 c3be 4a3d 48be
00000270: 0947 563f 0dc8 39bd 093e 283e 9cb8 b7bd
00000280: 59c1 7fbe 208b b0bf 70ee 33bf 9c95 bebf
00000290: f88f 9d3f 0be6 56bf a24e 80bf 7bda 55be
000002a0: 2d37 96bf f60b 56bf 13ac fcbe 1ea0 e7bd
000002b0: cd25 5b40 4691 bbbf fad2 d2be a937 54bf
000002c0: 02e6 a2be 9f1e 0abf 16d6 2abe 1b96 d43e
000002d0: 1be6 2ebf 37cf b2bf c2ab 46be b455 49bf
000002e0: 623f 40be e675 56bf 346d 6abf 0ab4 4ebf
000002f0: 735c 5abf 0cb2 2cbf d84a 0ebf bed2 75bf
00000300: b221 55bf 7058 90bf 94d0 c5be 48c1 84be
00000310: 2a7e b6be aba3 05bf 9393 7abf 9b4f 8cbe
00000320: c6b4 943e bc8f 3abc 6ff5 30bf 618b 28bf
00000330: 9bad 60bf a1cc 4abf d5b0 91bf 56d0 40bf
00000340: 803b 3bbc 3518 9bbe 23a1 10bf a07d a8bf
00000350: 6119 453f 37b6 f23f a185 393f 7585 e8be
00000360: 9cc7 2bbf d971 7ebf 2901 cbbd 69db b3bf
00000370: 4961 b73f cd12 25be 2fee 1fbd 2761 eebd
00000380: 4b23 17bf 87cb 8dbe bcbe 94bf c83a 3940
00000390: 1732 903f 2a0c 9bbf e8a9 15bf 133f 73bf
000003a0: d602 a1bd ada4 cebf 0798 83bf 8667 01bf
000003b0: fb4c 16bf 53e2 11bf 3248 79bf 4864 aabf
000003c0: b889 a7be bb4e d1be 931f e4be fa0c 2bbf
000003d0: 2353 a9bf 569e 9b40 843e 44bf 8cf0 06bf
000003e0: eed3 a0bf 3287 11bf 739c 94bf 6e0c adbe
000003f0: 1797 99be 3f82 c1be 3211 8abf 1c1e 8d3f
-0.67992496 -0.2978959 -0.6088236 -0.7480328 0.57840323 -0.8530593 -1.2102762 -0.065873116
-0.86151475 0.85615087 -0.46074948 -0.6751569 -0.78580767 -0.88864 -0.34727702 -1.1694782
-0.7398999 -1.572783 -0.7288019 0.2235942 -0.03093863 -0.6663936 -0.8648385 -1.0078661
5.4192467 -1.4316479 -0.28338492 -0.59276617 -0.674462 -0.19612576 -0.75017965 -0.8736735
0.31947958 -0.12639397 -0.7829706 -0.33826366 -0.40816066 -0.16439648 -0.029875074 3.4816566
-0.83511513 -0.39806664 -0.89406663 -0.40522566 2.7196867 -1.0941324 1.7029263 -0.9914007
-0.77452505 -0.6691354 0.73850673 0.5312658 -0.9124429 -0.72014374 -1.4715072 -0.24567066
-0.33373615 -0.6872747 -1.1516265 -0.40697813 -1.7146661 -0.89718497 -1.0600255 -0.37444502
-0.44979984 -1.6261032 -0.9488313 -0.42759305 -0.20095046 -0.5522495 -0.76361936 -0.23155758
-0.3017506 -0.41817558 -0.67354655 -1.2602392 -0.7293852 -0.58648175 -0.33772916 -0.4253766
-0.5480539 -0.6669214 -1.5596272 -0.6530602 -0.8340535 -0.49539965 -0.58243096 -0.12282003
-0.37327182 -0.28902104 -0.77602696 -0.9388756 -1.5029758 -0.89653677 -1.0899756 -1.2791592
-0.12862954 -2.1182404 -1.1195403 -1.701583 -0.5280427 -0.2512814 -0.59906745 -0.8559076
-0.86653394 -0.29806158 -0.02254388 -1.2791035 -0.8701826 -1.3603731 -0.9900033 -0.58075607
-0.6291111 -1.4793812 -0.18026778 -0.3325854 -0.81933653 -0.46677884 -0.39817813 -0.44289282
-0.7361544 -0.6570448 -0.46964657 -1.0824099 -1.0943595 -0.9401273 -1.2232765 -1.1641134
-0.34687573 -0.6660613 -0.5530594 -0.71243733 -0.55111074 -0.48265424 -1.9694254 -0.47781086
-0.5674284 -0.47652322 -0.28248286 -1.0531442 -0.5455992 -0.34177345 -1.3191272 0.4598124
-0.16326024 -0.7358126 -0.4440323 -0.505178 1.9474012 -0.8480624 -0.5949731 -0.6395205
-0.486155 -0.063492626 -0.3815208 -0.1955463 0.8370214 -0.0453568 0.16429915 -0.08970758
-0.249761 -1.3792458 -0.702857 -1.4889407 1.2309561 -0.8394477 -1.0023997 -0.20884125
-1.1735588 -0.83612 -0.49350032 -0.11309837 3.4241822 -1.4653709 -0.41176587 -0.8289743
-0.31816107 -0.53952974 -0.1668323 0.4152077 -0.68319863 -1.3969487 -0.19401458 -0.786464
-0.18774179 -0.8377365 -0.9157288 -0.8074347 -0.85297316 -0.6745918 -0.5558295 -0.9602469
-0.8325454 -1.1276989 -0.38635695 -0.25928712 -0.3564313 -0.5220286 -0.9788143 -0.27404484
0.2904417 -0.011386808 -0.691245 -0.65837675 -0.877649 -0.7921849 -1.138209 -0.75317895
-0.01142776 -0.30291906 -0.56495875 -1.3163338 0.7699185 1.8961858 0.72469527 -0.4541432
-0.67101455 -0.9939247 -0.09912331 -1.4051334 1.4326564 -0.16120453 -0.03904551 -0.11639624
-0.5903823 -0.27694342 -1.1620708 2.8942127 1.1265286 -1.2113087 -0.5846238 -0.9501812
-0.07861869 -1.6144005 -1.028077 -0.5054859 -0.5871121 -0.5698597 -0.97375786 -1.3311853
-0.3272226 -0.4088038 -0.4455534 -0.66816676 -1.3228496 4.863078 -0.7665789 -0.52710795
-1.2564676 -0.56846917 -1.1610245 -0.33798546 -0.29998085 -0.37794682 -1.0786498 1.1024814

network.4.weight f4 [128, 512]
00000000: 1cbb e1be cc65 7ebe ccf6 33bc 7ece 693e
00000010: d48a 953c 70ef 14bc 870d 5e3e bdac 0a3d
00000020: 88e5 933c ab67 b5bc 78fd fcbc 0303 24be
00000030: 6a79 4abc 78a5 fabd 4c46 58be 3790 34be
00000040: 322a d13c 2bdc 333e aeba 25be 3d43 c2bc
00000050: 84f5 5cbc d07b 68be ae00 f03c a5c2 243e
00000060: 0a75 3bbd 9c0b 3b3c ccfd 18bc 3560 0a3d
00000070: 60c5 a0bb 4068 6abb 52b0 a5bc 90a8 5cbb
00000080: 7dd4 303e 0ff6 683e 5323 2ebe 6ceb 7ebe
00000090: b887 9bbe 049f 07bc 187d 1dbd 7772 1abd
000000a0: 0c2b 5f3e 19a2 003d 0690 d73c c74e 4bbe
000000b0: a67c 08bd ee58 8b3c 2f0e 153d a4cc 2fbd
000000c0: b420 48be d690 ae3d 6ff4 b9be 9db4 1f3d
000000d0: 715c 30be 0021 3ab9 c88c 393c c07f afba
000000e0: 368e c53c 9b08 1abe 7b9f b6bc 429c fb3d
000000f0: d9dd 293d 68d3 0dbd a07d beba b718 1d3d
00000100: cc98 1abd b0a4 92bb bd71 cbbe a400 bf3d
00000110: 1636 a73c 19e0 8b3d 1a2b 47be dcd2 303c
00000120: ec5d 603c e17f aebc 4e26 fe3c 228f ff3c
00000130: e032 763c 199e 0cbd d2f2 d53c ac68 893c
00000140: cc85 2bbe 08e3 1b3d 227a 3cbe 1704 57be
00000150: 7d35 e9bc e150 4e3e 2c7b 1c3c 3380 a13e
00000160: 4263 a13c b65d 08bd c0f5 a0ba a2bc 00bd
00000170: d3de 1abd 68ac 24bc 48cf 253c b60e 92bc
00000180: a09f 13be d140 0fbe a898 20bd 6f5a 01bd
00000190: 4093 323c f884 583c 8634 b23c 4446 523c
000001a0: 34d5 743e b8ea 8cbe 8af5 a0bd 6cea 003c
000001b0: 16db 5abe f661 e53c a683 cc3c 487c bcbc
000001c0: e328 823e cae7 d8bc 0603 28bd 6c8d 873c
000001d0: a841 483e 9dbd 06bd 5787 56be dec9 da3c
000001e0: d657 5ebe 52db a9bc 7907 023d b806 37be
000001f0: e092 2fbb 3b65 153d 1fca 0c3d 11db 6b3e
00000200: 9bdd 903d 3795 9dbc db11 a8bc 7457 15bd
00000210: fd6c 863d 756a 103d c72d c9bd 19c8 103d
00000220: 4766 4dbe 1602 d43c 5143 50be 0068 29bb
00000230: 70dc 833c c0e2 81be 3807 713c c8f7 bf3b
00000240: 3ced 253c 625e 43be 18e9 703c a418 89be
00000250: 7811 d2bd 6a14 663e a66c 26be 98cc 5cbc
00000260: 1508 2cbe 6e04 943c b558 033d b548 40be
00000270: ec5f 53be 4f6d 0f3d fce0 2f3c 9c08 4fbc
00000280: fe41 b2be a83e 53bc 94b3 31be 007f 283a
00000290: e851 a8bc 2503 33be 94f8 43be 9fb0 b5bc
000002a0: 181f 283c c053 53bb 398d 45be 88d8 38bc
000002b0: 8fa3 2b3d b4c5 0b3c f439 05be ccd0 1bbd
000002c0: e498 7f3d 88a9 ec3b 34bd 2dbd 85b7 1b3d
000002d0: d815 4e3e 74f9 5b3c 85f4 0abd 73ed 46be
000002e0: a835 b6bb 8a5a 99be 62b1 d33c 9c5d 633c
000002f0: 1107 653e b5d4 8bbc 239a b7bc 02e6 00be
00000300: 2405 2ebd 5aa2 d63c ae01 57bc 3344 4fbe
00000310: c752 8abe e1c8 24be 92e2 f63d 11e2 8bbe
00000320: 3fc2 33be aaf1 0fbd b593 8fbc e960 c7bd
00000330: 6a62 92bc c09b 033a fa09 68be 6ad4 273d
00000340: 6919 93be 3d0f b7bd c2e1 693e d05f 1cbc
00000350: 553f 78be 66fb 67be 494a cf3c ee74 963c
00000360: a881 cebe 9a76 3cbe b640 ef3c e31a 21be
00000370: c059 95ba 50d6 4cbb f24f d3bc 91ae 57be
00000380: 563b d23c 7891 413c 9622 f63c 47f4 9fbe
00000390: 9139 113d c03b aa3a 4e25 25be f878 ae3b
000003a0: 8086 14bc 38d7 7fbd c16a 353e da0b a4bd
000003b0: bc10 1ebc 1bfc 813e d051 23bc 5685 2f3e
000003c0: 9312 85be 907d 3fbc 3ab1 e13c c0a2 7b3c
000003d0: 6fee 63be 309c b83c be63 d13c 60e2 99bb
000003e0: ee6c 533e 76a7 7bbe a082 02bb ba11 0cbd
000003f0: 283d 223c b5f0 41be 4c0b 49bc 7f49 0c3d
-0.44088066 -0.2484352 -0.010984134 0.22832677 0.018254675 -0.0090902895 0.21684848 0.033856142
0.018053785 -0.02214416 -0.030882582 -0.16016774 -0.012358049 -0.12238592 -0.21120566 -0.17633139
0.025532816 0.17564456 -0.16184494 -0.023713702 -0.01348627 -0.2270348 0.0292972 0.16089876
-0.045765914 0.011416342 -0.009337854 0.033783156 -0.0049063414 -0.0035767704 -0.020225678 -0.0033669807
0.17268558 0.22750114 -0.17005663 -0.24894494 -0.30376983 -0.008277658 -0.038449377 -0.03770682
0.21793765 0.03140459 0.026313793 -0.1985427 -0.033322 0.017010178 0.03639048 -0.04291977
-0.19543725 0.08523719 -0.363193 0.038990606 -0.17222764 -0.00017750636 0.011325069 -0.0013389513
0.024115663 -0.15042345 -0.022292843 0.12285663 0.041471336 -0.03462544 -0.0014533289 0.038353648
-0.037743375 -0.0044751987 -0.39735213 0.09326294 0.020411532 0.068298526 -0.19450036 0.01079246
0.013694268 -0.021301212 0.031024124 0.03119618 0.015026778 -0.03433046 0.026116762 0.016773544
-0.16750258 0.03805831 -0.18405965 -0.20997654 -0.028467888 0.2014804 0.009550851 0.3154312
0.01970065 -0.033292495 -0.001228027 -0.031429894 -0.037810158 -0.0100508705 0.0101202205 -0.01782928
-0.14416361 -0.13989569 -0.039208084 -0.031580385 0.010899365 0.013215296 0.02175356 0.012834135
0.23909456 -0.27522826 -0.07859333 0.0078683905 -0.21372637 0.028000813 0.024965119 -0.02300848
0.2542182 -0.026477713 -0.04101851 0.016546927 0.19556296 -0.032895673 -0.20950066 0.026707586
-0.21713194 -0.020734463 0.031745408 -0.17873657 -0.0026790425 0.036473494 0.034372445 0.23032786
0.07073518 -0.01923619 -0.020516327 -0.036460355 0.065637566 0.035257775 -0.098231845 0.035347078
-0.20058547 0.0258799 -0.20338179 -0.0025849342 0.016096324 -0.2536831 0.014711194 0.0058583952
0.010127362 -0.19078973 0.014704011 -0.26776612 -0.10257238 0.22468725 -0.16252384 -0.013476513
-0.16799958 0.018068518 0.03206702 -0.18777736 -0.2064206 0.035016354 0.010734793 -0.01263633
-0.34815973 -0.012893356 -0.1735366 0.0006427616 -0.020546868 -0.17481668 -0.19137794 -0.022178946
0.01026132 -0.0032245964 -0.19292153 -0.011282094 0.04190403 0.008531023 -0.13010389 -0.03804092
0.062401667 0.007222358 -0.042416766 0.038016815 0.2012552 0.0134261735 -0.0339246 -0.19426517
-0.0055605955 -0.29951888 0.025841419 0.013877299 0.22365977 -0.0170692 -0.022412365 -0.12587741
-0.04248537 0.026200462 -0.013122959 -0.2024086 -0.2701628 -0.16092254 0.120549336 -0.27320912
-0.17554568 -0.03514258 -0.017526487 -0.09735281 -0.017869193 0.0005020462 -0.22660056 0.04097406
-0.28730324 -0.08938453 0.22840026 -0.009544328 -0.24242909 -0.22654495 0.025303977 0.018366303
-0.40333295 -0.18404618 0.029205661 -0.15732913 -0.0011394545 -0.003125567 -0.025794957 -0.21062686
0.02566306 0.011814468 0.030045789 -0.31241056 0.03545529 0.0012987778 -0.16127512 0.005324479
-0.00906527 -0.062461108 0.17716505 -0.08010073 -0.0096475445 0.25387654 -0.009968236 0.17140707
-0.25990734 -0.011687651 0.027550329 0.015358627 -0.22258924 0.022535414 0.025560256 -0.0046961755
0.20647022 -0.245756 -0.0019914284 -0.034196593 0.009902276 -0.18939479 -0.01227076 0.03424978

network.4.bias f4 [128]
00000000: 90dc 35be 53cc 3abf 9457 a03e 30a8 b5be
00000010: 8e32 bdbd a49f 42bf 278d b9bf a5b7 27bf
00000020: fa60 b3be 5b67 29bf 1b65 bdbe 403e a8bd
00000030: 2aa3 18bf ad98 47be a008 e7be 935e 9ebe
00000040: 2863 d1be 8061 e1be 0fc6 b1be c010 58be
00000050: b2e2 e93f 5132 87be 17ae 38bf 43ac 54bf
00000060: 8345 edbe 55f4 32bf 98c3 82be abc0 12bf
00000070: d7b8 c33c 70a6 cbbe 8773 1abc 3b4b ae3e
00000080: dba3 23bf 3c86 54bf bc44 edbe 0c53 42bf
00000090: 7df8 2cbf 06f6 b6be 7415 82be b0e2 04bf
000000a0: 84ce b13d fc6d a9be 2e3d efbd 3ee1 abbe
000000b0: ad8d 4a3e d542 10be 12b9 e2be 6380 e4be
000000c0: 3f9d acbe 3f5f 37bf f5b0 1c40 8a06 9abd
000000d0: 1faf 71be 386d 2dbf 825a 1cbf 7813 be3b
000000e0: c62b 47be ea61 39bf 3179 ffbc 5089 adbe
000000f0: ece9 1abe a7ee 08bf f70d 4ebf 3dcb 7dbe
00000100: 2639 edbe dc10 a7bd 6566 2ebf 7eef 42be
00000110: 174a e9be 6eb7 a5bf d290 8dbb a84e 1dbf
00000120: 67c5 88be 31e9 51be 2f09 7fbe 40a6 5fbe
00000130: 7d9d 9dbe bf2a 20be ae80 82bf 8c05 aebe
00000140: a245 21be 9729 87be 2340 c8be b50f 8ebe
00000150: 61b3 39bf 8992 77bf 33de 80bf 866c 14bf
00000160: 8c1a 08bf 09b4 d5bd 6d23 973f c6ec 91bd
00000170: 616d 16bf 1569 c8be 4709 503f b80d 13bf
00000180: ff08 c5be 7b97 d1be 6e8b 0cbf 34c3 25bf
00000190: b81a a640 75d2 7cbc 8242 6fbf 21ff a1be
000001a0: 987b 56bf cbf7 20bf 6a05 4c3d 82f8 e5be
000001b0: 825a e6be ae8e 25bf bba6 c1be 45b2 a4be
000001c0: 5961 0dbf 7b06 b8bd 4552 bd3f f9ee c4be
000001d0: 662a ebbe 9134 13be 4801 17bf 8983 80be
000001e0: 0d5b b4be b159 dcbe 506c 97be a9ba b1be
000001f0: b65b 2cbf f03d e3be da5c 16be 134f 96be
-0.17759919 -0.72968024 0.31316817 -0.3547988 -0.09238158 -0.7602484 -1.4496201 -0.65514594
-0.35034925 -0.6617333 -0.369912 -0.08214998 -0.5962397 -0.19491835 -0.45123768 -0.3093153
-0.40895963 -0.440197 -0.3472142 -0.2110014 1.8272307 -0.26405576 -0.7214064 -0.8307535
-0.46342096 -0.6990407 -0.2553985 -0.5732524 0.02389185 -0.3977542 -0.009426958 0.3404177
-0.639219 -0.83017325 -0.46341503 -0.7590797 -0.67566663 -0.35734576 -0.25406992 -0.519084
0.08681968 -0.33091724 -0.11681591 -0.33570284 0.19780608 -0.14087994 -0.44281822 -0.446292
-0.3371372 -0.7162971 2.4483006 -0.075207785 -0.2360196 -0.6774478 -0.61075604 0.0058006607
-0.19450292 -0.7241503 -0.031185718 -0.33893824 -0.15128297 -0.53489155 -0.8049006 -0.2478456
-0.46332663 -0.081575125 -0.6812499 -0.19036672 -0.4556434 -1.2946603 -0.0043202424 -0.61448145
-0.26713106 -0.20499112 -0.24905847 -0.21840763 -0.30784217 -0.15641306 -1.019552 -0.33988607
-0.15749219 -0.26398918 -0.39111432 -0.2774636 -0.72539335 -0.9670797 -1.006781 -0.57978094
-0.5316551 -0.104347296 1.1807686 -0.07125239 -0.5876065 -0.3914267 0.81264156 -0.5744281
-0.38483426 -0.40935883 -0.5490025 -0.6475098 5.1907616 -0.015431036 -0.9346086 -0.3163996
-0.8378234 -0.628781 0.04980985 -0.4491616 -0.44990927 -0.64670837 -0.37822518 -0.3216726
-0.55226666 -0.08985611 1.4790732 -0.38463572 -0.45930785 -0.14375521 -0.5898633 -0.25100353
-0.35225716 -0.4303718 -0.29574823 -0.34712723 -0.6732744 -0.44383192 -0.14683858 -0.29357204

network.6.weight f4 [12, 128]
00000000: 27a3 09bd 363e 9d3d 1e77 17bc c003 c7be
00000010: 4271 0b3e f368 073e 879e 753e 2feb 403e
00000020: d57b 603c 50e8 15bc da57 483d 2849 06bc
00000030: f6fe 3f3e d99d bbbe 433a 513d e038 273e
00000040: 5522 9fbd 500f 1bbd e0c1 6b3d 5a50 0fbd
00000050: 71d7 52bf 2fc5 923c cfb5 093f 77f9 57bc
00000060: b6a5 98bd 6f07 a53d 1b65 573d 8036 6b3c
00000070: 47d9 47be 99ba adbd 4839 f03d 9822 4b3c
00000080: 3fe2 a6ba 74a9 21bd ba8b a5bd 8903 113d
00000090: 3c38 f1bc 7fec 0bbc 687f 813d c69e 973c
000000a0: 0efc 97bd b76e 0cbd 36a6 1ebb 6f3b b33d
000000b0: a26b aabb 5c6f 2ebd 7f7f c13d 899f c73d
000000c0: fa37 85bd d32b a43d 25c4 3fbf c884 42bd
000000d0: 1c8b 68bd 2748 8e3c 2c3c 8bbc e2bd 3bbd
000000e0: 1db4 483d b911 5e3f 885f 45bd 062b d43d
000000f0: a3c5 85be 2e5f 85bc 7283 623d 9c7d c43b
00000100: 2a74 fa3d 7e2b 113e e09a db3d ed54 823d
00000110: f7b2 563d 9312 c63c 6cb8 6a3d 2a9f 6abc
00000120: e932 cd3d 896e 843d 1082 503d efd8 cd3c
00000130: feb2 fabd 0e15 7ebe 96f8 17bf dd5c 443d
00000140: 0ed7 c93c ca71 9ebe d8ef f43d 448f 78be
00000150: 0d3f 093c 342e c43d 8858 6a3d 8c43 cfbd
00000160: a5d0 543e 2bdd 553b c216 21bf 289e 003d
00000170: 4cf3 f03d 12d5 0d3e 9455 dbbe 71fc a43d
00000180: 1ac9 c4bd d02b a03d a9fc 993d 2e31 80be
00000190: daa3 8bbf c890 f93d 1977 663e a272 043e
000001a0: 4afb 793d 8890 013e 45ca 8e3d 7857 bd3c
000001b0: c09c a2bc 4632 4f3c 0793 d3bc 2d4a dfbd
000001c0: 232b e9be ea5b 23bc f7d6 d5be 4ea2 be3d
000001d0: 0127 b4bd 9239 bd3c 43e9 cbbd e729 7c3e
000001e0: 844d 1b3d 2292 b1be 016f c63c 6499 ffbc
000001f0: 154e 973c 4c48 703e 5274 87bd 2506 2e3e
00000200: 390c cfb9 0cd1 99bd 489b 1ebd 822c d7be
00000210: a541 0d3e 8f3f 67be 4507 323e 8349 8cbe
00000220: 5aaa 27bd 8dbe 0cbd 7ab0 9c3c ab15 3abb
00000230: 7e7b 88be 8f92 eabe 319c fb3c 150f 1dbe
00000240: 8156 ad3b 8aa3 2fbd eec3 863d bde6 f9be
00000250: b076 85bf 45ca 46bd 86df e2bd bba1 44bd
00000260: efd8 46bd b02d c5bd af89 413d b791 583e
00000270: 4455 91be 432d dbbd 4206 5c3d 3166 c03c
00000280: a243 35be 4931 773d 530c a3bd 7b5e 82bc
00000290: f997 643d bdb0 0fbc ddab 823c edb9 6ebd
000002a0: aae6 0a3c bf27 97be 6162 b03c 39ee 0ebc
000002b0: a7dc 3b3e d801 f23d bedb fd3b 683d 8a3d
000002c0: d5e1 853e 6c0c b039 96fa 77bf 5d4f 59bd
000002d0: b79b 2dbe 6142 693e 7388 5a3c 89e5 3cbb
000002e0: 021b d93c 42b1 3d3e 6f60 adbc 312b 9b3d
000002f0: 5b0a 6fbc e5a4 1a3d 1180 67bb 1eb3 e03c
00000300: 5149 4b3d 4ad0 4b3d 90a3 c6bc bc0f c33d
00000310: 9436 42be 69da a03c 7e63 803d 45e3 e03d
00000320: a8dd 503d 764c b93d 05d8 453d e3f4 06bb
00000330: 6175 8fbe 4a3c e8bd dfdb c4be 1cd5 52be
00000340: 9fa9 a0bd 600a 61be 6cbb 92be 15c7 8f3c
00000350: f5c2 2abc aa93 9bbd 11bd 71be 9535 7e3d
00000360: ffc2 a1bd 5589 8ebc a571 30bf 0433 c43d
00000370: 611a 3a3e ee7a 373d 47c4 c4be db85 743d
00000380: 902d 8ebd 16c8 853d 72b3 923d 0a84 2abe
00000390: 50a7 5dbf 1e83 d93d af6d 8d3d bd29 1a3d
000003a0: 4a2c 4abe 4dd4 b53d 8180 b0bc 2a54 293e
000003b0: a5d4 18bd 28f4 a0ba f257 0b3e 0f23 47bd
000003c0: 4a85 d4be c11d 993b cb4c cdbe f094 0a3d
000003d0: 0ebf ccba f76f 68bd e97a 09be 4ec1 1dbe
000003e0: a97c 2cbd b098 cd3d 2ff4 8f3d 4c6f eeba
000003f0: 131b 50be b357 13be 748b 17be 3866 85bc
-0.03360286 0.076778814 -0.009244708 -0.3887005 0.13617423 0.13223629 0.23986255 0.18839715
0.013701399 -0.009149626 0.048911907 -0.008196153 0.18749604 -0.36643866 0.051080953 0.1633029
-0.0777022 -0.0378564 0.05755794 -0.03498874 -0.8235999 0.01791629 0.5379304 -0.013182036
-0.07453482 0.080580585 0.052586656 0.0143562555 -0.19516478 -0.08482856 0.117296755 0.0123983845
-0.0012732222 -0.039468244 -0.08083291 0.035403762 -0.02944576 -0.008540272 0.06323129 0.018508326
-0.074211225 -0.034285273 -0.0024207956 0.087515704 -0.005200819 -0.04258667 0.09448146 0.09747226
-0.06504817 0.08016171 -0.7490867 -0.04748991 -0.05677329 0.01736839 -0.016996466 -0.045835383
0.048999894 0.8674579 -0.04818681 0.103597686 -0.26127347 -0.016280737 0.055301137 0.005996419
0.12229188 0.14176747 0.107228994 0.063638546 0.052416768 0.024178779 0.057304785 -0.014320174
0.10019476 0.064663954 0.050905287 0.025127856 -0.12241171 -0.24812719 -0.5936369 0.047940124
0.024638679 -0.3094619 0.11959809 -0.24273401 0.008376849 0.09579125 0.057213336 -0.101203054
0.20782717 0.0032633047 -0.6292535 0.03140083 0.11765155 0.13850811 -0.42838728 0.08055962
-0.096086696 0.078208566 0.07518894 -0.2503752 -1.0909379 0.12185818 0.2250637 0.12934354
0.061030664 0.1265279 0.069721736 0.023112997 -0.019850135 0.012646263 -0.025826944 -0.1090282
-0.45540723 -0.0099706445 -0.41765568 0.09308301 -0.08796502 0.02309874 -0.099566005 0.2462536
0.03791572 -0.34681803 0.024222853 -0.031201072 0.01846985 0.23465079 -0.06613983 0.16994531
-0.00039491223 -0.07510576 -0.038722306 -0.42026144 0.13794573 -0.2258284 0.17385586 -0.27399835
-0.040933944 -0.03436141 0.01912712 -0.0028394263 -0.26656717 -0.4581494 0.030714126 -0.15337785
0.005289853 -0.042880572 0.06580339 -0.48808852 -1.0426846 -0.048532743 -0.1107779 -0.0480058
-0.048546728 -0.09627855 0.047250446 0.21149336 -0.28385365 -0.10701992 0.053716905 0.023486229
-0.17701581 0.060349736 -0.07961335 -0.015914192 0.055808995 -0.008770165 0.015951091 -0.05828278
0.008477846 -0.2952251 0.021531286 -0.008723789 0.18345891 0.11816758 0.0077471426 0.067499936
0.2614886 0.0003357859 -0.9686674 -0.053054202 -0.16953932 0.22779228 0.013338196 -0.0028823337
0.026502136 0.1852465 -0.021164147 0.075765975 -0.014589871 0.037754912 -0.0035324136 0.02742916
0.049630467 0.049759187 -0.024247915 0.095244855 -0.18966132 0.019635396 0.06268977 0.10980848
0.050992638 0.09047787 0.048301715 -0.0020592741 -0.2801924 -0.11339624 -0.38448998 -0.20589107
-0.07844853 -0.21976614 -0.28658617 0.017550984 -0.010422458 -0.07596524 -0.2360728 0.06206282
-0.07898521 -0.01739947 -0.6892341 0.09580043 0.18174125 0.04479497 -0.38430998 0.059697967
-0.06942284 0.06532304 0.07163133 -0.16651931 -0.86583424 0.10620712 0.06905686 0.03763746
-0.19743457 0.08878384 -0.02154565 0.16536012 -0.03731217 -0.0012279795 0.13607767 -0.04861742
-0.4150794 0.0046727364 -0.4009765 0.033833444 -0.0015620904 -0.056747403 -0.13425793 -0.15405771
-0.042111073 0.100388885 0.07028996 -0.0018191128 -0.20322828 -0.14388923 -0.14799291 -0.016284093

network.6.bias f4 [12]
00000000: 245b c3bf 3aca c1bf be0c 8fbe 580f 88c0
00000010: 0b06 b0bf faa3 b7bf aa8b 04c0 6e8d 52c1
00000020: fd61 22c0 d424 31bf d9f7 00c0 1b08 a3bf
-1.5262189 -1.513984 -0.2793941 -4.251873 -1.3751844 -1.4346917 -2.0710244 -13.159529
-2.5372307 -0.6919682 -2.0151274 -1.2736849
