model/DQNAgent2_20-08-2022__21-55-47.pth/DQNAgent2_20-08-2022__21-55-47_iter_710.pth (torch, 826191 bytes, 8 tensors)

network.0.weight f4 [256, 27]
000000 89 59 a2 be 09 51 09 bf b4 ed bf be cf 67 1b bf
       -0.31708935 -0.53639275 -0.3748604 -0.60705274
000010 e1 3b f3 be fb 9b bb be 36 b0 87 3c d0 77 e9 be
       -0.4750662 -0.3664244 0.016563516 -0.45599222
000020 aa 2b d7 be 11 d6 38 bf b2 f4 16 bf af 4b 6e be
       -0.420255 -0.7220164 -0.58967125 -0.23271058
000030 41 59 80 bd 3b 8d a7 be 4a 13 5f bf a8 4d 61 bf
       -0.06267024 -0.32724938 -0.8713881 -0.8800912
000040 e7 b2 14 bf d3 cb 15 bf 41 bf 53 bf 10 cb 45 3d
       -0.58085483 -0.58514136 -0.82713705 0.04828936
000050 3b 72 5a bf df a1 2a bf 4d bc 60 be 1b 75 43 bf
       -0.8533055 -0.66653246 -0.21946831 -0.76350564
000060 5f 2e 16 bf 65 0b 8a be 8f 47 01 bf f0 74 95 be
       -0.58664507 -0.26961818 -0.50499815 -0.2919078
000070 7c 0d 1d be 04 f3 07 3d af 46 57 be 7a 8b df bd
       -0.15337175 0.033190742 -0.21023057 -0.10915275
000080 d4 2f e2 bd c0 ab 35 3d ff d1 80 be f8 a3 b8 be
       -0.11044279 0.044353247 -0.25160214 -0.36062598
000090 fc 13 55 be fb 95 3e be e4 5e 2e be e0 fb 35 be
       -0.20808405 -0.186119 -0.17028385 -0.17771864
0000a0 b5 5b 19 be 78 26 6c be 2b d2 bf be 33 55 f0 be
       -0.1497639 -0.2306155 -0.37465033 -0.46940002
0000b0 a4 69 a5 be a3 f3 02 bf b8 24 af bc 07 b6 41 3e
       -0.3230716 -0.5115301 -0.021379814 0.18917094
0000c0 46 40 d8 3d fe ed ac 3d 40 2c a7 bb b2 1f a3 3d
       0.10559134 0.08443831 -0.0051017106 0.0796503
0000d0 46 44 c6 3d 80 e4 64 3b e4 67 33 be 75 ca 35 be
       0.09680991 0.0034926236 -0.175201 -0.17753012
0000e0 23 39 ae bd 12 23 cb bd e8 49 68 3d b1 94 37 be
       -0.08506992 -0.099187985 0.056711107 -0.17927815
0000f0 ac 45 57 bd 0a 0e d5 3d 64 77 ef bd 80 5e 2c bb
       -0.05255668 0.10403068 -0.11692694 -0.0026301444
000100 68 6a 58 3d 18 fe c1 bc c8 e2 e2 bc 20 e8 38 be
       0.052835852 -0.023680732 -0.027696028 -0.18057299
000110 92 61 35 be e4 b9 5b bd 08 c6 fc bd 41 5e 96 bd
       -0.17713001 -0.053644076 -0.12342459 -0.07342196
000120 03 10 d5 bd 65 98 11 3e c1 72 3b 3e 8f 76 34 be
       -0.104034446 0.1421829 0.18305494 -0.17623352
000130 86 66 d6 3d 3a 37 c8 3d 40 44 c9 3b ee 90 2b be
       0.104687735 0.09776159 0.0061421692 -0.16754505
000140 88 8d b2 3c da 88 b5 bd a4 ee ef bd a0 56 c4 3d
       0.021796003 -0.08863993 -0.11715439 0.09586835
000150 03 e4 02 3e 18 a8 db bb 94 a0 55 be a1 93 aa 3d
       0.12782292 -0.006703388 -0.20862037 0.08328939
000160 9e 2c a9 3b f5 c7 4a be dc e7 16 3d 96 80 ba 39
       0.0051627895 -0.1980284 0.036842212 0.0003557249
000170 31 9f ba 3d 51 46 88 3c fe d0 da bd eb af 5f bd
       0.091123946 0.016635092 -0.10684393 -0.054611128
000180 0a 2a 04 be b6 29 06 be 96 72 bb bd cb 75 49 bd
       -0.12906662 -0.13101849 -0.09152715 -0.0491846
000190 ec e2 1d be 8b 8b 03 3e 69 0c 0e 3e ab 31 00 bd
       -0.15418595 0.128462 0.13871922 -0.031297367
0001a0 3e 4e 96 3d 89 12 0d be c6 bd 9e bd ad cc 3b 3e
       0.07339142 -0.13776602 -0.0775104 0.18339796
0001b0 3b 62 36 bd cd c3 c8 3c fc d3 21 bd 6a cd db 3d
       -0.044527274 0.024507428 -0.039508805 0.10732539
0001c0 5c a7 21 bc 7a 9a 62 bd 6b 83 a7 3d 96 6d 10 bc
       -0.009866562 -0.0553231 0.08179363 -0.00881519
0001d0 f2 91 30 be e6 fe 44 bd 71 c6 4b be 7f 52 81 3d
       -0.17243174 -0.048094653 -0.19899918 0.06314563
0001e0 56 da 8f bd 42 4b 13 be a2 c9 49 3d ac 7c 59 be
       -0.07024066 -0.14384177 0.049264558 -0.21238965
0001f0 9d 25 b2 bc 5a 60 63 be 2f 31 7f 3d a5 c9 13 be
       -0.021746451 -0.22204724 0.062302765 -0.1443239
000200 0b af 4d 3d 07 c2 35 3e d9 ee 3d 3d ca 1b 22 be
       0.050215762 0.17749797 0.04637036 -0.15830913
000210 36 6c a8 3d d8 bf 00 be 50 d1 e9 bc ec 2b d8 3c
       0.082237646 -0.12573183 -0.02854219 0.026388131
000220 32 51 d1 3d bd 69 ae 3d 87 1e 43 3e 8e 44 e1 3d
       0.10220565 0.08516262 0.19054614 0.10999404
000230 38 33 6e 3d 90 07 53 3c 90 19 f5 bd 31 96 02 be
       0.058154315 0.012880221 -0.11967766 -0.12752606
000240 eb 88 49 3d bd 71 08 bd 65 dc 7c be ae e5 b1 3c
       0.04920284 -0.033311594 -0.24693449 0.021715965
000250 c9 ad b9 3d 46 1d 22 be 74 12 1f be 30 55 f8 3b
       0.0906635 -0.1583148 -0.15534383 0.0075785145
000260 de 4d dc 3d a6 c5 1b be 55 fb a5 bd 82 d2 de 3d
       0.107570395 -0.15212116 -0.081045784 0.10879995
000270 b4 16 20 3d bc 4a 6e 3d ca b5 f5 3d 19 19 3b be
       0.03908415 0.05817674 0.11997564 -0.18271293
000280 ec 39 82 bd d0 73 dd bc 41 4b 89 be cd a8 c6 be
       -0.06358704 -0.027032763 -0.26815227 -0.3880066
000290 b1 40 a1 be 60 d4 e2 3d 11 5a 03 bf 92 ee 93 be
       -0.31494668 0.110756636 -0.51309305 -0.28892952
0002a0 a1 6c b3 3d 73 e6 a7 be f2 62 04 bf ee 5f de be
       0.08760954 -0.32793006 -0.5171348 -0.43432564
0002b0 93 94 da be 3e 79 ab be d2 cf 5b be c1 44 c7 be
       -0.42691478 -0.33490938 -0.21465996 -0.38919643
0002c0 33 89 6d be b5 77 bd be 0a 74 a7 be e7 6c 72 be
       -0.23196869 -0.37005392 -0.32705718 -0.23674355
0002d0 49 0b e0 be 1e 36 a8 3d 65 3b 24 3e c3 27 26 3e
       -0.4375861 0.08213447 0.16038282 0.16226105
0002e0 ea 20 f7 3d 0a 89 7f be ce 74 aa 3d 8d c5 98 bd
       0.12066825 -0.2495462 0.0832306 -0.07459555
0002f0 ae 52 ac 3d 0e d7 b4 3d 0f 86 75 be 51 1b 1d 3d
       0.084142074 0.08830081 -0.2397692 0.03835613
000300 dd 7b 2a be 2e 70 3b 3d 4d 6a b8 3d 7c be 31 3d
       -0.16648813 0.04576128 0.0900465 0.04339455
000310 a2 b2 5b be 3f 8f bc bd df c1 a3 3d c5 64 77 3d
       -0.21454862 -0.092070095 0.07995962 0.060398836
000320 64 34 7b 3d 57 99 8a be c0 ee 5f bd a3 bb 85 be
       0.06132926 -0.27070114 -0.05467105 -0.26119718
000330 68 b4 6f bd 88 b8 d3 bd 38 9d a7 3d 2c c6 39 be
       -0.05852166 -0.10337931 0.08184284 -0.18142003
000340 e5 a7 18 be 51 39 88 3d a0 b9 b3 3c 8b d7 cd bc
       -0.14907797 0.06651557 0.021939099 -0.025127193
000350 8a e4 87 bd fc c6 15 bd 2f 76 92 bd d0 42 8b bc
       -0.06635387 -0.03656672 -0.07151448 -0.016999632
000360 06 cb 23 be 83 1a 99 bd b5 93 6a 3e 1a 05 07 bf
       -0.15995416 -0.0747576 0.22907908 -0.5274216
000370 7f 30 c0 bd b9 18 16 bf 3a ae 05 3f 7a 24 d4 bc
       -0.0938425 -0.58631474 0.52218974 -0.0258963
000380 52 e5 d5 3d 6a 11 27 be 00 0a b5 3d 86 01 06 bf
       0.1044413 -0.16315237 0.08839798 -0.52346075
000390 88 ae a0 be 5d 32 92 be 2d c3 30 bf 0e 61 5c bf
       -0.31383157 -0.2855405 -0.69047815 -0.86085594
0003a0 3d ce 57 be c8 d3 b8 be f3 4b 6e be 3c f5 11 be
       -0.21074767 -0.36099076 -0.2327116 -0.14253706
0003b0 f8 02 81 be c6 51 be bd a7 f6 0a bf 05 b4 62 3e
       -0.25197577 -0.09292941 -0.5428261 0.22138985
0003c0 c7 6a c9 be f3 38 e4 be 11 0f 01 3e 64 a3 1a be
       -0.39339277 -0.445747 0.12603404 -0.15101391
0003d0 47 81 c5 bd 48 d4 a2 bd ab b7 21 3e dd bf 80 be
       -0.09643798 -0.07950646 0.1579272 -0.2514638
0003e0 f3 68 dc bd d8 e8 fe 3c a3 b2 42 be 1d 57 31 be
       -0.10762205 0.031116888 -0.19013457 -0.17318387
0003f0 f4 17 c6 be d5 35 c6 bd 5b 42 40 be 9c 39 be be
       -0.3869015 -0.096782364 -0.18775313 -0.37153327

network.0.bias f4 [256]
000000 e0 3b 23 bf c8 31 47 be 90 fc c5 bc e3 0d 1f be
       -0.63763237 -0.19452584 -0.024168283 -0.15532641
000010 82 db ab bd 5f d4 1a be 75 3f 81 be 96 65 43 be
       -0.08391477 -0.15120076 -0.25243726 -0.1908172
000020 64 f2 86 be 12 ee 2f be c7 c8 93 be 37 36 87 bd
       -0.26356804 -0.1718066 -0.28864118 -0.066021375
000030 a0 4d d8 3c a4 14 5e be da ed 03 bf 06 88 ab be
       0.026404202 -0.21687561 -0.5153481 -0.33502215
000040 96 21 19 be 76 e3 9a 3d 80 e1 ef bb 88 2b 9b be
       -0.14954218 0.07562916 -0.007320583 -0.3030665
000050 4e aa 97 be 36 d1 80 be 1f df a9 be 20 11 9f bc
       -0.2962212 -0.25159615 -0.3317804 -0.019417346
000060 30 c2 c2 3d 78 aa a7 bd 98 20 40 3c 50 e6 ac bd
       0.095096946 -0.08186811 0.011726521 -0.08442366
000070 06 32 bd be 2e 19 aa be cc cc 1e be ba ef c2 be
       -0.36952227 -0.33222336 -0.15507811 -0.38073522
000080 56 53 6d be 2a b7 d3 be 89 d3 d2 bd 74 40 be 3d
       -0.23176321 -0.4135068 -0.102942534 0.09289637
000090 46 33 c5 be 86 1f b8 be 5a ce 06 be e7 90 94 bd
       -0.3851568 -0.3596155 -0.13164654 -0.072542004
0000a0 8e 72 79 be 66 95 87 be 71 9b 74 be 9b 9c 44 be
       -0.24360105 -0.2648117 -0.23887421 -0.19200365
0000b0 d0 a5 4c 3c 9a 87 bf be 0a 7a e2 bd 49 b9 3e be
       0.012490705 -0.37408143 -0.11058433 -0.18625368
0000c0 f1 ac 95 3d 1e 61 5c be bb 81 d3 be 1a 66 b5 be
       0.073083766 -0.21521422 -0.41309914 -0.3542946
0000d0 e1 c9 80 be 4d 20 00 3e 44 c8 56 3d cd f9 38 be
       -0.2515402 0.12512322 0.052437082 -0.18064041
0000e0 27 8e 44 3e 58 35 4e be 9f 65 fc 3c 74 5c 30 be
       0.19194852 -0.20137537 0.030810175 -0.17222768
0000f0 c7 ab a6 be 2d 5b f7 3d 58 e0 1d be 02 d4 2d be
       -0.3255293 0.12077937 -0.15417612 -0.16975406
000100 79 70 41 3e 5c 04 48 be 0c 3f 09 3d d6 6d 51 be
       0.18890561 -0.19532913 0.03350739 -0.20452055
000110 eb cb 26 be bf c2 71 3c 0b 1e 2e be 41 1f 93 bd
       -0.16288726 0.014755904 -0.17003648 -0.071836956
000120 6e dc 5b be d7 30 de bd 76 99 9a be 00 67 5a be
       -0.21470806 -0.10849159 -0.30195206 -0.21328354
000130 d1 7f 97 be 9e 6b d7 bd 96 12 eb 3d 13 0b 15 3e
       -0.29589704 -0.10518573 0.11478154 0.14555006
000140 2b 47 09 bf c0 b2 54 be c7 66 9f bd 41 bd df be
       -0.5362422 -0.20771313 -0.07783275 -0.43699077
000150 5d f5 6c bc 3d 54 7b be fb 21 78 be b8 38 5c 3d
       -0.014462796 -0.24543853 -0.24231713 0.05376503
000160 48 d8 bf be e2 b6 f5 3d ab 2e c6 3d b3 92 9a be
       -0.37469697 0.11997773 0.0967687 -0.30190048
000170 3d 0c 75 bd 42 b6 ad bd 00 92 3e bd 5f 5a 2e be
       -0.059826124 -0.084820285 -0.046525955 -0.17026661
000180 0f 3a 2e be c5 c9 af be 68 75 f7 bd a7 ef a2 be
       -0.17014335 -0.34333625 -0.1208294 -0.31823465
000190 66 cd 2d be 6a db 74 3c 6c 26 06 be 5f d4 84 be
       -0.16972885 0.0149448905 -0.13100594 -0.25943276
0001a0 d3 24 38 3e ac 4e 91 be 80 02 a6 be d9 e3 6d 3c
       0.17982797 -0.28380334 -0.32423782 0.014519655
0001b0 03 8b a3 3c 56 14 92 bd 34 bf ec 3c 52 4b c1 3d
       0.019963747 -0.07132785 0.028899767 0.09438194
0001c0 5d dc 40 be 33 57 a0 bd 14 c2 01 be fc d5 87 be
       -0.18834062 -0.07829132 -0.12671691 -0.26530445
0001d0 aa 28 66 3e 80 48 b8 bd 2d 74 18 be 44 2e eb bd
       0.2247645 -0.08998203 -0.14888068 -0.11483434
0001e0 42 54 9c be fd b3 cc be 9d 5c 4f be 2d cc 25 3e
       -0.30533034 -0.3998107 -0.20250173 0.16191168
0001f0 28 1a 86 3c fd 45 c2 be 45 ef 93 3d 84 c3 0c be
       0.016369894 -0.37944022 0.072233714 -0.13746458
000200 b5 b5 a5 be a0 7b 4d bc 45 96 96 bc df 33 3f be
       -0.32365194 -0.0125416815 -0.018382201 -0.18672131
000210 99 4c 39 bd f2 4c bc be 6b c8 8f be ed 00 69 be
       -0.045239065 -0.36777455 -0.28082594 -0.2275426
000220 43 15 5e be ef 38 53 be bd 8a 11 be 74 ca 87 bb
       -0.21687798 -0.20627187 -0.1421308 -0.0041440073
000230 01 04 92 be 65 49 4a be 13 55 66 3d ef 0f a2 be
       -0.2851868 -0.1975456 0.056233477 -0.3165278
000240 c8 96 6c 3c 32 2c 7c be dc af bf bd 0b ca 51 3d
       0.014440246 -0.24626234 -0.093597144 0.051218074
000250 96 38 00 bd 5c fb ab bd 96 a4 42 be b4 dc 0c bf
       -0.031303965 -0.08397552 -0.19008097 -0.55024266
000260 ea b9 9a be 2d 8c 51 be 99 18 9e be 18 44 97 be
       -0.30219966 -0.20463629 -0.30878142 -0.2954414
000270 99 a5 24 bc 7f 20 f8 3d 2d dd 4e 3c 9c 54 a1 bd
       -0.010049247 0.12115573 0.012625975 -0.07877466
000280 f6 3e 81 3d fd a9 62 be 9b 71 7c be 98 60 fc be
       0.06310837 -0.22135158 -0.24652712 -0.49292445
000290 f0 8c 87 3b 93 b1 2f be 78 89 57 be b4 f0 d8 bd
       0.004136674 -0.17157583 -0.21048534 -0.105927855
0002a0 70 e2 a0 bd 69 a2 05 be 8c bf bf be ba 04 09 bf
       -0.078556895 -0.13050236 -0.37450826 -0.5352284
0002b0 14 c0 59 3d fa 06 90 be 96 77 e8 3d 26 17 9d be
       0.053161696 -0.28130323 0.11350934 -0.30681723
0002c0 82 12 94 3d 73 b2 c0 be 3f a4 1d 3e c9 89 2a bc
       0.072300926 -0.37636146 0.15394686 -0.010408827
0002d0 12 57 07 be b7 09 58 bd fc 58 6c be 3e 51 cd be
       -0.13216808 -0.05274364 -0.2308082 -0.40101045
0002e0 4a 54 3a 3d 92 53 12 3d fc 4d 1a be e7 86 46 be
       0.04549054 0.03572423 -0.15068811 -0.19387399
0002f0 41 67 12 bf 39 c4 3d 3d 2a d4 32 be dc c7 47 bd
       -0.571888 0.04632971 -0.17463747 -0.048774585
000300 1e 2b 2e be 72 bc ac bd 64 87 58 be 60 8b 05 3d
       -0.17008635 -0.084343806 -0.21145397 0.03260362
000310 fa cd fa 3d 64 a5 2f 3d 13 b9 36 be 4c f7 96 be
       0.12246318 0.04288234 -0.17844038 -0.29485548
000320 04 47 48 bd 0b f4 1b be f0 e7 2f be 7a dd 42 be
       -0.04889585 -0.15229814 -0.17178321 -0.19029799
000330 91 e8 a2 bb 6f e1 2a be 70 8b 64 bc 2b dc 6b be
       -0.0049715717 -0.16687559 -0.01394926 -0.23033206
000340 b2 a2 be bd 5a b2 ab bd 60 d4 51 bd 8d 88 49 be
       -0.093083754 -0.08383627 -0.051227927 -0.19680996
000350 38 e9 63 be 38 cd 19 3d ee 8a 28 3d 3a c7 f6 bd
       -0.22256935 0.037549227 0.04114812 -0.12049718
000360 42 56 20 be 58 20 52 3d 62 c2 87 be 56 c5 9c be
       -0.15657905 0.051300377 -0.2651549 -0.30619305
000370 03 97 41 bd 53 71 2a be d6 53 d1 be 7f 29 c9 be
       -0.047263157 -0.16644792 -0.40884274 -0.39289472
000380 01 3f 52 bd 7f f9 9a be 4d 57 98 bd 61 57 d1 bd
       -0.051329616 -0.30268475 -0.07438526 -0.10221744
000390 eb 8e 38 be 85 90 80 be a8 a3 b0 3c 44 89 6e 3d
       -0.18023269 -0.2511026 0.021562412 0.058236375
0003a0 07 fc 70 3b be 41 ac be 01 e0 f7 bd c8 96 ff 3c
       0.0036771314 -0.33643907 -0.12103272 0.031199828
0003b0 fb d3 07 bf 8d a8 bb bd 00 07 36 be 24 1d 32 be
       -0.5305783 -0.09163008 -0.17776108 -0.17393929
0003c0 6d 3e a2 be 1c 95 95 be ff 3b 68 be b3 5c 0b bf
       -0.31688252 -0.29215324 -0.22679137 -0.5443832
0003d0 53 dc 04 3d 14 39 2a 3d 67 94 91 be ea 39 67 be
       0.03243668 0.04155834 -0.28433535 -0.22580686
0003e0 e9 8b 8e bd 33 47 67 be ed a8 7b 3d cb cf a5 3d
       -0.069602795 -0.22585754 0.061440397 0.08096274
0003f0 d1 0c f8 3d 55 56 e0 be d9 a5 b5 be d7 b0 87 be
       0.121118195 -0.43815866 -0.35478094 -0.26502106

network.2.weight f4 [512, 256]
000000 93 f8 c2 3e 7f 13 0b be 20 05 68 bd a0 28 09 bd
       0.38080272 -0.13581656 -0.056645513 -0.03348601
000010 c4 91 f8 bc 20 fe 1f bc ff 6c 90 3e 84 7b 2f bd
       -0.030342944 -0.009765178 0.28208157 -0.042842403
000020 18 34 83 3d f0 8b 50 3d 65 83 16 be fe 79 0f bf
       0.064064205 0.050914705 -0.1469856 -0.5604552
000030 b7 4c b4 3e 9e c7 48 bf 08 9c 4c 3f 71 95 3b b9
       0.3521478 -0.7842959 0.79925585 -0.00017889381
000040 e2 19 59 3d 98 85 88 bc 70 7d d4 bc ab b8 34 3e
       0.0530032 -0.016665265 -0.02593872 0.1764857
000050 1a 62 bd 3c 98 db 8a bc ee 0e b9 3e 32 f8 0d 3d
       0.023118068 -0.016950414 0.36144203 0.034660526
000060 1a 3e 61 bd 80 68 58 3c 48 14 57 3d 99 26 b1 3b
       -0.054990865 0.0132085085 0.052509576 0.0054062125
000070 54 66 31 bd 41 6f 9c bd c0 d9 91 3c a4 42 88 3e
       -0.04331048 -0.076384075 0.017804027 0.26613343
000080 44 2d f9 3c 90 84 41 3c 9b ba 97 3c be bc 21 bd
       0.030417092 0.0118113905 0.018521598 -0.03948664
000090 1d 88 84 be 6c 37 86 3e 40 44 bc ba 40 9c 28 bd
       -0.25885096 0.2621416 -0.0014363602 -0.041164637
0000a0 16 c0 9a 3d 8f de b4 3e 7f 07 47 3e c0 92 f3 bc
       0.07556169 0.3532605 0.19436453 -0.029733062
0000b0 80 38 12 3c fd 01 62 be c8 cc c0 bd 02 21 d0 bd
       0.008924603 -0.22071071 -0.09414059 -0.10162546
0000c0 20 66 56 bb 08 fa 13 bd 9e 97 8a 3e e1 bf 3d 3c
       -0.003271468 -0.03612712 0.270688 0.011581392
0000d0 60 1f 07 be 38 9d a5 3c 86 10 12 bd 02 c0 37 3d
       -0.13195562 0.02021657 -0.03566029 0.044860847
0000e0 2e 67 78 bd 61 15 31 3d 1c 3b 5f bd 41 4a c5 3e
       -0.060645275 0.04323328 -0.05449973 0.38533214
0000f0 77 52 1c be 10 59 f3 3d a8 e2 5b 3d e0 50 0c 3c
       -0.15265833 0.11882222 0.053682953 0.008564204
000100 b8 dd ea bc 54 b9 79 bd f6 e9 03 bd e6 60 21 3e
       -0.028670177 -0.06096776 -0.032205544 0.1575962
000110 c8 26 80 bc c8 b2 d3 bc a7 0f 65 3d 67 46 57 3e
       -0.015643492 -0.025842085 0.05592313 0.2102295
000120 54 e3 c3 3c f0 82 ca bb 1a e1 a3 3d c1 fc b9 3e
       0.02391211 -0.0061801597 0.08001919 0.36325648
000130 5e 06 28 bf 10 a2 8e bb 10 94 29 bc 2e 48 21 bd
       -0.65634716 -0.0043528154 -0.010350242 -0.039375477
000140 56 f7 10 3f cb fc 6b 3e 74 ec 19 bd 91 4e ad 3e
       0.56627405 0.23045652 -0.037579015 0.33849004
000150 6c 39 35 bc 70 39 f7 bc ed 6c b8 be 00 1f c9 39
       -0.011061054 -0.030178756 -0.36020604 0.00038360804
000160 d4 15 c8 3e 60 a4 82 bc c0 ff 3d bb e0 ff 59 3d
       0.39079154 -0.01594752 -0.002899155 0.053222537
000170 34 ae d5 bc 40 93 8b bd 6c 45 7e bf 48 e7 10 3c
       -0.026084043 -0.06815195 -0.9932468 0.008844204
000180 5d 69 7f 3c e8 88 8d be ef 11 07 3f 97 cb 12 bd
       0.015589085 -0.27643514 0.5276174 -0.03583869
000190 42 c6 39 bd 60 0e f5 bc 12 5d 03 bd 84 fc c1 3d
       -0.04535509 -0.029914081 -0.03207118 0.09471992
0001a0 6a 64 61 bd 40 0a d4 3a e4 e7 97 bc 8b e3 f2 3b
       -0.055027403 0.0016177371 -0.018543191 0.007412379
0001b0 b1 ff 8a 3e 7c 6b b1 bc 07 8d b7 bd 24 3c af 3c
       0.27148202 -0.021657698 -0.08962446 0.021390982
0001c0 38 a1 46 bc 92 72 06 3d 31 ac be be d5 06 9e be
       -0.0121233985 0.032824107 -0.37240747 -0.30864587
0001d0 75 d9 d1 3b 80 01 90 3a f9 a7 56 3d 08 2a 42 bd
       0.0064040967 0.0010986775 0.052406285 -0.047403365
0001e0 14 e9 b9 3e 50 5e 77 bd 13 03 b0 3c e2 58 0e 3d
       0.36310637 -0.060392678 0.02148584 0.034752734
0001f0 c4 60 de bc 38 ae 38 be fc d9 ee be 28 66 45 3c
       -0.02714575 -0.18035209 -0.46650684 0.012048282
000200 e4 a2 8d 3e 38 22 60 3c 12 c2 3a 3d cc 7c c6 bc
       0.27663338 0.013680033 0.045595236 -0.02422943
000210 ac 4b ff bc d3 70 5b be 88 20 72 3d 06 84 7e bd
       -0.031164013 -0.21429758 0.059113055 -0.062137626
000220 74 97 a9 bd 34 c1 94 3e a4 05 27 3d 75 54 db 3e
       -0.082808405 0.29053652 0.040776864 0.42837873
000230 75 b3 94 be 9a 6b 31 3e 34 11 7a 3d 78 71 25 bd
       -0.29043165 0.17326203 0.061051562 -0.040391415
000240 7c 21 b1 bc 96 73 49 bd d8 ec 8d bd d8 66 86 3c
       -0.021622412 -0.049182497 -0.0692994 0.016406462
000250 68 12 e7 3c 48 0c 02 3d 0a 87 5c 3c 9b 29 86 3e
       0.028207019 0.031749994 0.01345993 0.26203617
000260 40 65 d2 bd f0 3e ce bc 78 d1 92 3e 3a 0d 08 3d
       -0.10273218 -0.025176495 0.28675437 0.03321574
000270 84 0c 29 3d c4 3b 43 be ce e8 1c 3d ea 90 cf 3d
       0.0412717 -0.19065768 0.038307957 0.10135062
000280 80 02 f1 bb 8c 6a 3a 3d 4e 2e 85 3d f8 70 08 bd
       -0.0073550344 0.045511767 0.065029725 -0.03331086
000290 24 c5 7f 3c 16 cf 3d bd 0a 51 87 be 00 f5 52 3b
       0.015610967 -0.04634007 -0.26429015 0.0032189488
0002a0 b3 af 00 3f d2 30 01 3d a9 fe b3 3e 34 eb b0 3e
       0.50268096 0.0315407 0.35155228 0.34554446
0002b0 62 67 20 3d 68 d1 d9 3c 48 f6 4a 3c 71 d7 b9 be
       0.039161094 0.02658911 0.01238782 -0.3629718
0002c0 3e fb 29 3d 74 1f 9e 3e 5a a8 5b 3d 06 07 44 bd
       0.04149937 0.30883372 0.05362735 -0.04785826
0002d0 f2 d8 20 3d dc cf 9d bc f2 42 7b 3d 5d 1b 3e 3e
       0.039269395 -0.019264154 0.06134314 0.18565126
0002e0 78 54 cf 3c 7a 3b a4 3e 26 3e a3 3e af 81 ba 3e
       0.025308833 0.32076627 0.31883353 0.36427066
0002f0 0d 63 59 bd 7c eb 92 bd 1a 2f 65 3d 36 4f 47 3d
       -0.053072978 -0.07173821 0.055953123 0.048659526
000300 98 bc 4a bd e9 fe 87 bd 07 b5 e1 bd c6 90 95 bd
       -0.049496263 -0.06640417 -0.11020856 -0.07303004
000310 72 9a 51 bd 9a a3 79 bd 27 d5 d6 3e 61 bf bd bc
       -0.05117268 -0.06094704 0.41959497 -0.023162546
000320 be e6 58 bd 80 b8 d5 bb 58 2e 5c bc 8c 15 46 3d
       -0.052954428 -0.0065222383 -0.013438784 0.048360392
000330 4c 25 88 3e a8 fd 05 bd 7e 5e 70 3d 00 a4 91 bc
       0.26590955 -0.03271261 0.058683865 -0.017778397
000340 40 2a ee be a7 e7 c6 be d4 f0 d6 3c a8 21 67 3a
       -0.4651661 -0.38848612 0.026237883 0.0008816966
000350 56 ac 4d 3d ff f6 16 3e 84 1a 5f 3d 12 ef 01 bd
       0.05021318 0.14742659 0.054468647 -0.031722136
000360 85 1d 36 be f4 22 46 3d b5 3d b0 3e 56 02 cc 3e
       -0.17784698 0.048373178 0.3442208 0.39845532
000370 47 5c 1e be 88 97 f9 3d 81 41 04 3f cc ee 84 3e
       -0.15464889 0.121871054 0.5166245 0.25963438
000380 2b 3d 36 3d 81 ce e4 bd c8 be b4 3d f4 2d 91 3e
       0.044491928 -0.111722 0.08825451 0.28355372
000390 aa 14 3d 3d 80 9b b6 3e 4a cc 63 3d c2 00 44 bd
       0.046162285 0.35665512 0.055614747 -0.047852285
0003a0 d9 b3 2f bf 3e 3e c6 3e 0b 2f 5b bf a8 62 2d bd
       -0.686338 0.38719362 -0.85618657 -0.042330414
0003b0 75 1a 4c bd ce 49 86 3e ea 6e b1 bd 31 c2 b3 be
       -0.04982992 0.26228184 -0.08663733 -0.35109094
0003c0 56 81 94 3e a0 4b 74 3e 04 8e 7c bd 1d 59 32 bd
       0.29004925 0.23856974 -0.061658874 -0.043542016
0003d0 0d 92 a9 be 3e dc 55 3d c0 40 f9 bc 7c ae e6 3c
       -0.3311924 0.052211992 -0.030426383 0.028159373
0003e0 14 5f c7 bc 8f 13 c2 be 50 94 10 3e 2e 29 01 bd
       -0.024337329 -0.37905547 0.14119077 -0.031533413
0003f0 6a f6 47 bd 9a 9c 6b 3e c1 a4 48 bd 90 36 55 3c
       -0.048818983 0.23008958 -0.048985247 0.013013497

network.2.bias f4 [512]
000000 8a 4a 89 3f cb af d4 bd 23 e8 d0 be 14 7f 3f bf
       1.0725873 -0.10385092 -0.40802106 -0.7480328
000010 11 d1 a1 be 0d 9a 26 bf 55 ea 9a bf 9d ba b3 be
       -0.31604818 -0.6507881 -1.2102762 -0.35103312
000020 3b 8c 5c bf 03 9e 42 bf 08 b4 17 3e e0 30 bf be
       -0.86151475 -0.76022357 0.1481477 -0.37341976
000030 2e 5c 54 bf ec 54 0b bf 4b ce b1 be 3c d2 7d bf
       -0.82953155 -0.54426455 -0.34727702 -0.9914892
000040 7f 3b c7 be f6 ee 7e bf c3 92 3a bf 74 7f f7 be
       -0.3891258 -0.99583375 -0.7288019 -0.48339427
000050 89 6f 16 3f 32 6a 54 3e 8e 38 0f bf c2 01 81 bf
       0.5876394 0.20743635 -0.5594567 -1.0078661
000060 f0 b2 05 40 6d 97 8e bf d4 17 91 be 37 b9 1c bf
       2.0890465 -1.1139961 -0.28338492 -0.61220115
000070 97 7a df be 27 03 e0 bd c6 0b 40 bf 11 a9 5f bf
       -0.43648216 -0.10938101 -0.75017965 -0.8736735
000080 94 c1 71 bf 90 2b dd bd 8b cb 2f bf af 0e 2d bf
       -0.94436 -0.107993245 -0.68669957 -0.6760053
000090 1a d8 fc 3d 23 c6 d1 3f 92 bc f4 bc d3 a2 52 40
       0.123459056 1.6388592 -0.029875074 3.291188
0000a0 1b ca 55 bf 58 2f dd be 8d e1 64 bf 50 40 63 bd
       -0.83511513 -0.43200183 -0.89406663 -0.055481255
0000b0 25 c7 cf bd 83 4c 5a bf ba 63 4f 40 79 7a 2c bf
       -0.10145406 -0.85273 3.2404618 -0.6737438
0000c0 cc 03 2a bf be 13 b4 be 80 4b 96 3f 56 76 19 3e
       -0.66412044 -0.35171312 1.1741791 0.14986548
0000d0 45 47 5c bf d8 ac 19 bf 22 b4 93 bf 17 91 7b be
       -0.8604625 -0.60029364 -1.1539347 -0.24567066
0000e0 77 df aa be 4c 92 26 bf 7f 68 93 bf a9 51 19 3e
       -0.33373615 -0.6506698 -1.1516265 0.14972557
0000f0 1e aa 86 bf ea ad 65 bf ea ae 87 bf dc 6b 0e be
       -1.0520666 -0.89718497 -1.0600255 -0.13908333
000100 38 fc a1 be f5 9c a7 bf 8a ef 19 bf cf 34 d9 3e
       -0.3163774 -1.3094774 -0.6013113 0.42423102
000110 f5 c5 4d be b7 33 e0 be 8f 7c 43 bf 33 57 c7 be
       -0.20095046 -0.43789455 -0.76361936 -0.38933715
000120 d4 c5 65 bd 1c 1b d6 be 8c 6d 2c bf 5b 4e 71 bf
       -0.056096867 -0.41817558 -0.67354655 -0.94260186
000130 cc f0 0a bf ab 23 16 bf d6 ea ac be f6 ca d9 be
       -0.54273677 -0.58648175 -0.33772916 -0.4253766
000140 d3 9b d0 be b6 de b2 be 4f 25 9f bf 44 bb 06 bf
       -0.40743884 -0.3493554 -1.2433261 -0.52629495
000150 88 84 55 bf 54 89 80 be 32 1a 15 bf ca f3 46 3f
       -0.8340535 -0.25104773 -0.58243096 0.7771574
000160 7f 4f 5e be 56 f5 00 bf b4 a9 46 bf 3f 08 1f bf
       -0.21710013 -0.5037435 -0.77602696 -0.6212196
000170 7a 1f 91 bf 12 63 14 bf c1 5b fc be 04 7a 95 bf
       -1.1337731 -0.5796367 -0.49288753 -1.1677861
000180 76 b7 03 be d2 79 e6 bf 7b 39 88 bf b1 0a 7f bf
       -0.12862954 -1.8005927 -1.0642542 -0.9962569
000190 92 54 ef 3d f5 a7 80 be 7c 5c 19 bf d1 a5 0b bf
       0.116860524 -0.2512814 -0.59906745 -0.5454989
0001a0 b1 f3 29 bf dc 5f f6 3e 5f 31 ab be 9b 34 77 bf
       -0.6638747 0.4812001 -0.33436105 -0.96564645
0001b0 7e 32 0d bf cd 7f 85 bf db 70 7d bf 6e ac 14 bf
       -0.5515517 -1.0429627 -0.9900033 -0.58075607
0001c0 6d 0d 21 bf 63 00 8d bf 39 a1 98 3c c3 91 db 3d
       -0.6291111 -1.1015743 0.018631564 0.10721161
0001d0 43 83 d9 be 33 13 1a be 01 de cb be 59 ad 47 be
       -0.42482957 -0.15046386 -0.39817813 -0.1949972
0001e0 16 fb 23 bf 5c b1 b6 be c1 cd cd be ce 91 2b bf
       -0.64055 -0.3568219 -0.4019604 -0.67019355
0001f0 d1 b1 29 bf 56 2e 22 bf 85 92 5c bf f1 c8 58 bf
       -0.6628695 -0.63351953 -0.8616107 -0.8468161
000200 06 6b 69 bb fe 82 2a bf 07 ae ef be 5b ae 02 bf
       -0.003561677 -0.6660613 -0.4681246 -0.51047295
000210 19 bc 14 bf 4e d0 38 be cc 73 d3 bf df 0b f2 be
       -0.58099514 -0.18048212 -1.6519713 -0.47274682
000220 61 9e 46 be 8a 27 41 bf 16 80 0c bf 37 49 3c bf
       -0.19396354 -0.75450957 -0.54882944 -0.73549217
000230 64 ac 0b bf 4b f6 2d 3f 6a ac 5e bf 70 97 29 40
       -0.5455992 0.6795394 -0.86981833 2.649868
000240 b1 2d 27 be bc 4e 02 bf 34 58 e3 be d3 55 2c bf
       -0.16326024 -0.5090139 -0.4440323 -0.6731846
000250 15 84 e8 3e e2 68 19 bf 35 1f 91 bf a0 95 02 bf
       0.4541327 -0.59925663 -1.1337649 -0.5100956
000260 4f e9 f8 be 41 4c a9 3e be 0e 57 be a3 79 9a bd
       -0.486155 0.3306599 -0.21001717 -0.075427316
000270 f7 67 98 be 9c 0a bb be fa 45 e1 3f 13 7d ba 3f
       -0.2976682 -0.36531532 1.759948 1.456942
000280 f8 6a 78 be ac e3 87 bf 70 ee 33 bf 1d 1a 98 bf
       -0.24259555 -1.0616355 -0.702857 -1.1882969
000290 4b c4 48 40 14 94 05 bf 0b f7 87 bf 7b da 55 be
       3.1369808 -0.52179074 -1.0622267 -0.20884125
0002a0 a2 1c 5b bf f7 b3 13 bf 3e 6b 34 be e4 b3 a0 3e
       -0.85590565 -0.5769648 -0.17619035 0.31387246
0002b0 39 c8 4e 40 37 18 65 bf fa d2 d2 be 0b 04 03 bf
       3.2309706 -0.89490074 -0.41176587 -0.51178044
0002c0 8c bf 13 ba 9f 1e 0a bf 5c 84 20 be 94 30 00 bf
       -0.00056361477 -0.53952974 -0.15675491 -0.50074124
0002d0 58 14 f3 be 6f ff 45 bf 20 c5 d4 bc 37 08 f0 be
       -0.4747646 -0.77342886 -0.025972903 -0.46881267
0002e0 4f bd 2d be 83 3e 3d be 34 6d 6a bf ef a7 8e be
       -0.16966747 -0.18480878 -0.9157288 -0.27862498
0002f0 1a 2b ff be 0c b2 2c bf d8 4a 0e bf 3d 0f 06 bf
       -0.4983757 -0.6745918 -0.5558295 -0.52367
000300 a9 27 0e bf 70 58 90 bf 94 d0 c5 be 48 c1 84 be
       -0.55529267 -1.1276989 -0.38635695 -0.25928712
000310 80 b6 9d be c8 a3 0f be c6 27 0d bf 3e 1a 0c 3f
       -0.308033 -0.14027321 -0.55138814 0.5472754
000320 6c 46 c1 3f 94 28 13 40 6f f5 30 bf 61 8b 28 bf
       1.5099616 2.2993517 -0.691245 -0.65837675
000330 ae 5f 0f bf a1 cc 4a bf d8 ae 44 bf 32 1d df be
       -0.5600537 -0.7921849 -0.7682929 -0.43576962
000340 4f b4 47 3e 42 93 9e bd 23 a1 10 bf 09 b0 7f bf
       0.19502376 -0.07742931 -0.56495875 -0.99877983
000350 80 ec 54 3f ed 3e 15 40 44 83 09 40 cb a4 ca be
       0.8317337 2.3319657 2.1486368 -0.39578852
000360 64 81 5e bf dd 1f 2d bf fc ad 9b 3f 69 db b3 bf
       -0.86916184 -0.67626745 1.2162471 -1.4051334
000370 8c af b1 bd cd 12 25 be 2f ee 1f bd f2 b7 ba 3f
       -0.08676061 -0.16120453 -0.03904551 1.4587386
000380 1c a7 8b be 70 70 68 3f 42 00 54 bf b2 99 0c 40
       -0.27275932 0.90796566 -0.82812893 2.1968808
000390 fc ef 39 40 c3 5d 6e bf cd c0 05 bf 9e 93 77 bf
       2.9052725 -0.9311182 -0.52247316 -0.9670962
0003a0 5f e9 34 be 46 e8 33 bf 07 98 83 bf 7e 0c f8 bd
       -0.17667149 -0.70276296 -1.028077 -0.12111758
0003b0 fb 4c 16 bf 53 e2 11 bf 32 48 79 bf fc 48 83 bf
       -0.5871121 -0.5698597 -0.97375786 -1.0256648
0003c0 b8 89 a7 be 75 17 aa be 87 52 83 3e ce 7b b3 be
       -0.3272226 -0.3322102 0.256489 -0.35055393
0003d0 7d 0b 29 bf 49 25 36 40 98 fd e5 be 91 71 9a be
       -0.66033155 2.8460257 -0.4492004 -0.3016477
0003e0 36 78 93 bf da 81 82 3f 73 9c 94 bf 6e 0c ad be
       -1.152106 1.0195878 -1.1610245 -0.33798546
0003f0 17 97 99 be c8 7b 9b be 32 11 8a bf 44 bd 50 40
       -0.29998085 -0.30367875 -1.0786498 3.2615519

network.4.weight f4 [128, 512]
000000 1c bb e1 be cc 65 7e be cc f6 33 bc 7e ce 69 3e
       -0.44088066 -0.2484352 -0.010984134 0.22832677
000010 d4 8a 95 3c 70 ef 14 bc 87 0d 5e 3e bd ac 0a 3d
       0.018254675 -0.0090902895 0.21684848 0.033856142
000020 88 e5 93 3c ab 67 b5 bc 78 fd fc bc 03 03 24 be
       0.018053785 -0.02214416 -0.030882582 -0.16016774
000030 6a 79 4a bc 78 a5 fa bd 4c 46 58 be 37 90 34 be
       -0.012358049 -0.12238592 -0.21120566 -0.17633139
000040 32 2a d1 3c 2b dc 33 3e ae ba 25 be 3d 43 c2 bc
       0.025532816 0.17564456 -0.16184494 -0.023713702
000050 84 f5 5c bc d0 7b 68 be ae 00 f0 3c a5 c2 24 3e
       -0.01348627 -0.2270348 0.0292972 0.16089876
000060 0a 75 3b bd 9c 0b 3b 3c cc fd 18 bc 35 60 0a 3d
       -0.045765914 0.011416342 -0.009337854 0.033783156
000070 60 c5 a0 bb 40 68 6a bb 52 b0 a5 bc 90 a8 5c bb
       -0.0049063414 -0.0035767704 -0.020225678 -0.0033669807
000080 7d d4 30 3e 0f f6 68 3e 53 23 2e be 6c eb 7e be
       0.17268558 0.22750114 -0.17005663 -0.24894494
000090 b8 87 9b be 04 9f 07 bc 18 7d 1d bd 77 72 1a bd
       -0.30376983 -0.008277658 -0.038449377 -0.03770682
0000a0 0c 2b 5f 3e 19 a2 00 3d 06 90 d7 3c c7 4e 4b be
       0.21793765 0.03140459 0.026313793 -0.1985427
0000b0 a6 7c 08 bd ee 58 8b 3c 2f 0e 15 3d a4 cc 2f bd
       -0.033322 0.017010178 0.03639048 -0.04291977
0000c0 b4 20 48 be d6 90 ae 3d 6f f4 b9 be 9d b4 1f 3d
       -0.19543725 0.08523719 -0.363193 0.038990606
0000d0 71 5c 30 be 00 21 3a b9 c8 8c 39 3c c0 7f af ba
       -0.17222764 -0.00017750636 0.011325069 -0.0013389513
0000e0 36 8e c5 3c 9b 08 1a be 7b 9f b6 bc 42 9c fb 3d
       0.024115663 -0.15042345 -0.022292843 0.12285663
0000f0 d9 dd 29 3d 68 d3 0d bd a0 7d be ba b7 18 1d 3d
       0.041471336 -0.03462544 -0.0014533289 0.038353648
000100 cc 98 1a bd b0 a4 92 bb bd 71 cb be a4 00 bf 3d
       -0.037743375 -0.0044751987 -0.39735213 0.09326294
000110 16 36 a7 3c 19 e0 8b 3d 1a 2b 47 be dc d2 30 3c
       0.020411532 0.068298526 -0.19450036 0.01079246
000120 ec 5d 60 3c e1 7f ae bc 4e 26 fe 3c 22 8f ff 3c
       0.013694268 -0.021301212 0.031024124 0.03119618
000130 e0 32 76 3c 19 9e 0c bd d2 f2 d5 3c ac 68 89 3c
       0.015026778 -0.03433046 0.026116762 0.016773544
000140 cc 85 2b be 08 e3 1b 3d 22 7a 3c be 17 04 57 be
       -0.16750258 0.03805831 -0.18405965 -0.20997654
000150 7d 35 e9 bc e1 50 4e 3e 2c 7b 1c 3c 33 80 a1 3e
       -0.028467888 0.2014804 0.009550851 0.3154312
000160 42 63 a1 3c b6 5d 08 bd c0 f5 a0 ba a2 bc 00 bd
       0.01970065 -0.033292495 -0.001228027 -0.031429894
000170 d3 de 1a bd 68 ac 24 bc 48 cf 25 3c b6 0e 92 bc
       -0.037810158 -0.0100508705 0.0101202205 -0.01782928
000180 a0 9f 13 be d1 40 0f be a8 98 20 bd 6f 5a 01 bd
       -0.14416361 -0.13989569 -0.039208084 -0.031580385
000190 40 93 32 3c f8 84 58 3c 86 34 b2 3c 44 46 52 3c
       0.010899365 0.013215296 0.02175356 0.012834135
0001a0 34 d5 74 3e b8 ea 8c be 8a f5 a0 bd 6c ea 00 3c
       0.23909456 -0.27522826 -0.07859333 0.0078683905
0001b0 16 db 5a be f6 61 e5 3c a6 83 cc 3c 48 7c bc bc
       -0.21372637 0.028000813 0.024965119 -0.02300848
0001c0 e3 28 82 3e ca e7 d8 bc 06 03 28 bd 6c 8d 87 3c
       0.2542182 -0.026477713 -0.04101851 0.016546927
0001d0 a8 41 48 3e 9d bd 06 bd 57 87 56 be de c9 da 3c
       0.19556296 -0.032895673 -0.20950066 0.026707586
0001e0 d6 57 5e be 52 db a9 bc 79 07 02 3d b8 06 37 be
       -0.21713194 -0.020734463 0.031745408 -0.17873657
0001f0 e0 92 2f bb 3b 65 15 3d 1f ca 0c 3d 11 db 6b 3e
       -0.0026790425 0.036473494 0.034372445 0.23032786
000200 9b dd 90 3d 37 95 9d bc db 11 a8 bc 74 57 15 bd
       0.07073518 -0.01923619 -0.020516327 -0.036460355
000210 fd 6c 86 3d 75 6a 10 3d c7 2d c9 bd 19 c8 10 3d
       0.065637566 0.035257775 -0.098231845 0.035347078
000220 47 66 4d be 16 02 d4 3c 51 43 50 be 00 68 29 bb
       -0.20058547 0.0258799 -0.20338179 -0.0025849342
000230 70 dc 83 3c c0 e2 81 be 38 07 71 3c c8 f7 bf 3b
       0.016096324 -0.2536831 0.014711194 0.0058583952
000240 3c ed 25 3c 62 5e 43 be 18 e9 70 3c a4 18 89 be
       0.010127362 -0.19078973 0.014704011 -0.26776612
000250 3d 5d 45 bd 6a 14 66 3e a6 6c 26 be 98 cc 5c bc
       -0.048184622 0.22468725 -0.16252384 -0.013476513
000260 15 08 2c be 6e 04 94 3c b5 58 03 3d b5 48 40 be
       -0.16799958 0.018068518 0.03206702 -0.18777736
000270 ec 5f 53 be 4f 6d 0f 3d fc e0 2f 3c 9c 08 4f bc
       -0.2064206 0.035016354 0.010734793 -0.01263633
000280 fe 41 b2 be a8 3e 53 bc 94 b3 31 be 00 7f 28 3a
       -0.34815973 -0.012893356 -0.1735366 0.0006427616
000290 e8 51 a8 bc 25 03 33 be 94 f8 43 be 9f b0 b5 bc
       -0.020546868 -0.17481668 -0.19137794 -0.022178946
0002a0 18 1f 28 3c c0 53 53 bb 39 8d 45 be 88 d8 38 bc
       0.01026132 -0.0032245964 -0.19292153 -0.011282094
0002b0 8f a3 2b 3d b4 c5 0b 3c f4 39 05 be cc d0 1b bd
       0.04190403 0.008531023 -0.13010389 -0.03804092
0002c0 e4 98 7f 3d 88 a9 ec 3b 34 bd 2d bd 85 b7 1b 3d
       0.062401667 0.007222358 -0.042416766 0.038016815
0002d0 d8 15 4e 3e 74 f9 5b 3c 85 f4 0a bd 73 ed 46 be
       0.2012552 0.0134261735 -0.0339246 -0.19426517
0002e0 a8 35 b6 bb 8a 5a 99 be 62 b1 d3 3c 9c 5d 63 3c
       -0.0055605955 -0.29951888 0.025841419 0.013877299
0002f0 11 07 65 3e b5 d4 8b bc 23 9a b7 bc 02 e6 00 be
       0.22365977 -0.0170692 -0.022412365 -0.12587741
000300 24 05 2e bd 5a a2 d6 3c ae 01 57 bc 33 44 4f be
       -0.04248537 0.026200462 -0.013122959 -0.2024086
000310 c7 52 8a be e1 c8 24 be 92 e2 f6 3d 11 e2 8b be
       -0.2701628 -0.16092254 0.120549336 -0.27320912
000320 3f c2 33 be aa f1 0f bd b5 93 8f bc e9 60 c7 bd
       -0.17554568 -0.03514258 -0.017526487 -0.09735281
000330 6a 62 92 bc c0 9b 03 3a fa 09 68 be 6a d4 27 3d
       -0.017869193 0.0005020462 -0.22660056 0.04097406
000340 d6 a1 f8 3c 3d 0f b7 bd c2 e1 69 3e d0 5f 1c bc
       0.030350607 -0.08938453 0.22840026 -0.009544328
000350 55 3f 78 be 66 fb 67 be 49 4a cf 3c ee 74 96 3c
       -0.24242909 -0.22654495 0.025303977 0.018366303
000360 a8 81 ce be 9a 76 3c be b6 40 ef 3c e3 1a 21 be
       -0.40333295 -0.18404618 0.029205661 -0.15732913
000370 c0 59 95 ba 50 d6 4c bb f2 4f d3 bc 91 ae 57 be
       -0.0011394545 -0.003125567 -0.025794957 -0.21062686
000380 56 3b d2 3c 78 91 41 3c 96 22 f6 3c 48 f5 ec bd
       0.02566306 0.011814468 0.030045789 -0.11570221
000390 91 39 11 3d c0 3b aa 3a 4e 25 25 be f8 78 ae 3b
       0.03545529 0.0012987778 -0.16127512 0.005324479
0003a0 80 86 14 bc 38 d7 7f bd c1 6a 35 3e da 0b a4 bd
       -0.00906527 -0.062461108 0.17716505 -0.08010073
0003b0 bc 10 1e bc 1b fc 81 3e d0 51 23 bc 56 85 2f 3e
       -0.0096475445 0.25387654 -0.009968236 0.17140707
0003c0 93 12 85 be 90 7d 3f bc 3a b1 e1 3c c0 a2 7b 3c
       -0.25990734 -0.011687651 0.027550329 0.015358627
0003d0 6f ee 63 be 75 c4 19 bd be 63 d1 3c 60 e2 99 bb
       -0.22258924 -0.03754087 0.025560256 -0.0046961755
0003e0 ee 6c 53 3e 76 a7 7b be a0 82 02 bb ba 11 0c bd
       0.20647022 -0.245756 -0.0019914284 -0.034196593
0003f0 28 3d 22 3c b5 f0 41 be 4c 0b 49 bc 7f 49 0c 3d
       0.009902276 -0.18939479 -0.01227076 0.03424978

network.4.bias f4 [128]
000000 57 e0 42 be 53 cc 3a bf 32 c7 98 bd 7f 0b 1b be
       -0.19030891 -0.72968024 -0.074598685 -0.15141104
000010 8e 32 bd bd 68 93 0f bf 6c db c1 be 96 eb ac be
       -0.09238158 -0.560843 -0.37862718 -0.33773488
000020 6a 91 01 be 5b 67 29 bf 96 0d 56 bd 40 3e a8 bd
       -0.12653127 -0.6617333 -0.05225905 -0.08214998
000030 ab a2 8e be 0c c7 6a be cb 33 34 be 3c dd 19 bd
       -0.2785848 -0.22927493 -0.17597882 -0.0375645
000040 1a 02 b3 be 87 a5 09 be 03 21 07 bd 6e 28 07 bf
       -0.3496254 -0.1344205 -0.032990467 -0.52796066
000050 67 a7 c3 3f fb 54 9c 3c 53 d0 ce be 83 ea 22 be
       1.5285462 0.01908349 -0.40393314 -0.15909772
000060 52 47 15 be 3c 5e c3 be 98 c3 82 be ab c0 12 bf
       -0.14577988 -0.38157833 -0.2553985 -0.5732524
000070 c4 94 59 be a4 99 ac bd 87 73 1a bc 83 d0 27 be
       -0.21248156 -0.08427742 -0.009426958 -0.16388135
000080 f8 57 4d bd 3a 94 45 bf bc 44 ed be 3a d2 99 be
       -0.05013272 -0.771793 -0.46341503 -0.30043203
000090 d1 0f a2 be ce 82 8c 3d 74 15 82 be c6 44 4e be
       -0.31652692 0.068608865 -0.25406992 -0.20143422
0000a0 f4 07 a0 3e b1 71 83 be 2e 3d ef bd 3e e1 ab be
       0.31256068 -0.25672677 -0.11681591 -0.33570284
0000b0 bd b0 ac bd 45 83 98 bd 12 b9 e2 be 0b 10 45 be
       -0.08432148 -0.07446913 -0.44281822 -0.19244401
0000c0 3f 9d ac be b1 cb 51 bd a5 08 a5 3f 8a 06 9a bd
       -0.3371372 -0.051219646 1.2893263 -0.075207785
0000d0 1f af 71 be 2e 1e bb be 78 86 96 be 78 13 be 3b
       -0.2360196 -0.36546463 -0.29399467 0.0058006607
0000e0 c6 2b 47 be ea 61 39 bf 31 79 ff bc 4e 4e b9 bc
       -0.19450292 -0.7241503 -0.031185718 -0.022620346
0000f0 ec e9 1a be 65 63 65 be 97 9f ea be e9 3e 97 be
       -0.15128297 -0.22401197 -0.45824882 -0.29540184
000100 c3 69 17 be dc 10 a7 bd f4 f2 b8 bd 7e ef 42 be
       -0.14786439 -0.081575125 -0.09030715 -0.19036672
000110 f6 a9 66 be 94 63 02 be d2 90 8d bb fd 05 a8 be
       -0.22525772 -0.12733299 -0.0043202424 -0.3281707
000120 67 c5 88 be 31 e9 51 be 2f 09 7f be 40 a6 5f be
       -0.26713106 -0.20499112 -0.24905847 -0.21840763
000130 ec 42 9f be df 28 8e bd af 48 d5 be 8c 05 ae be
       -0.31105745 -0.06941389 -0.41657016 -0.33988607
000140 a2 45 21 be 52 6c 59 3d 05 76 96 bd b5 0f 8e be
       -0.15749219 0.053081818 -0.07346729 -0.2774636
000150 51 98 cc be e1 38 40 be 11 fa 02 bf 52 39 86 be
       -0.39959958 -0.18771698 -0.5116282 -0.26215607
000160 12 f7 9d be 09 b4 d5 bd ce ca c7 3d c6 ec 91 bd
       -0.30852562 -0.104347296 0.09755479 -0.07125239
000170 ee 42 8a be cb e5 98 bd c8 cb 63 bd e4 f5 83 be
       -0.27004188 -0.074657045 -0.055614263 -0.25773537
000180 90 49 a3 bd 7f 12 21 bd da 0d c0 be f3 e3 a8 be
       -0.07973015 -0.03932428 -0.37510568 -0.3298641
000190 26 78 8e 3f 75 d2 7c bc f4 0c 1e bf b9 90 e4 bc
       1.1130416 -0.015431036 -0.61738515 -0.02790104
0001a0 79 58 05 bf 26 c8 da be 6a 05 4c 3d 9c a9 06 be
       -0.52088124 -0.42730826 0.04980985 -0.13150638
0001b0 4a 04 f9 be e0 7a a8 be 51 e7 7c bd 45 b2 a4 be
       -0.48636085 -0.32906246 -0.061744038 -0.3216726
0001c0 5c 8d ad bd 7b 06 b8 bd d2 a5 a7 3f 00 e5 92 bd
       -0.08474228 -0.08985611 1.3097479 -0.071725845
0001d0 66 2a eb be 91 34 13 be 48 01 17 bf 89 83 80 be
       -0.45930785 -0.14375521 -0.5898633 -0.25100353
0001e0 86 58 9c bd 2e f3 e6 bd 50 6c 97 be 81 d3 92 bd
       -0.07634072 -0.112768516 -0.29574823 -0.071692474
0001f0 fa e1 92 be 68 68 01 be da 5c 16 be 9c d3 c3 be
       -0.2868803 -0.12637484 -0.14683858 -0.38247383

network.6.weight f4 [12, 128]
000000 27 a3 09 bd 36 3e 9d 3d 1e 77 17 bc d8 7f 91 bd
       -0.03360286 0.076778814 -0.009244708 -0.071044624
000010 42 71 0b 3e f3 68 07 3e 87 9e 75 3e 2f eb 40 3e
       0.13617423 0.13223629 0.23986255 0.18839715
000020 d5 7b 60 3c 50 e8 15 bc da 57 48 3d 28 49 06 bc
       0.013701399 -0.009149626 0.048911907 -0.008196153
000030 f6 fe 3f 3e f1 92 bd 3d 43 3a 51 3d e0 38 27 3e
       0.18749604 0.092565425 0.051080953 0.1633029
000040 55 22 9f bd 50 0f 1b bd e0 c1 6b 3d 5a 50 0f bd
       -0.0777022 -0.0378564 0.05755794 -0.03498874
000050 a8 85 01 bf 2f c5 92 3c cf b5 09 3f 77 f9 57 bc
       -0.5059457 0.01791629 0.5379304 -0.013182036
000060 b6 a5 98 bd 6f 07 a5 3d 1b 65 57 3d 80 36 6b 3c
       -0.07453482 0.080580585 0.052586656 0.0143562555
000070 47 d9 47 be 99 ba ad bd 48 39 f0 3d 98 22 4b 3c
       -0.19516478 -0.08482856 0.117296755 0.0123983845
000080 3f e2 a6 ba 74 a9 21 bd ba 8b a5 bd 89 03 11 3d
       -0.0012732222 -0.039468244 -0.08083291 0.035403762
000090 3c 38 f1 bc 7f ec 0b bc 68 7f 81 3d c6 9e 97 3c
       -0.02944576 -0.008540272 0.06323129 0.018508326
0000a0 0e fc 97 bd b7 6e 0c bd 36 a6 1e bb 6f 3b b3 3d
       -0.074211225 -0.034285273 -0.0024207956 0.087515704
0000b0 a2 6b aa bb 5c 6f 2e bd 7f 7f c1 3d 89 9f c7 3d
       -0.005200819 -0.04258667 0.09448146 0.09747226
0000c0 fa 37 85 bd d3 2b a4 3d 90 81 a6 be c8 84 42 bd
       -0.06504817 0.08016171 -0.32520723 -0.04748991
0000d0 1c 8b 68 bd 27 48 8e 3c 2c 3c 8b bc e2 bd 3b bd
       -0.05677329 0.01736839 -0.016996466 -0.045835383
0000e0 1d b4 48 3d b9 11 5e 3f 88 5f 45 bd 06 2b d4 3d
       0.048999894 0.8674579 -0.04818681 0.103597686
0000f0 a3 c5 85 be 2e 5f 85 bc 72 83 62 3d 9c 7d c4 3b
       -0.26127347 -0.016280737 0.055301137 0.005996419
000100 2a 74 fa 3d 7e 2b 11 3e e0 9a db 3d ed 54 82 3d
       0.12229188 0.14176747 0.107228994 0.063638546
000110 f7 b2 56 3d 93 12 c6 3c 6c b8 6a 3d 2a 9f 6a bc
       0.052416768 0.024178779 0.057304785 -0.014320174
000120 e9 32 cd 3d 89 6e 84 3d 10 82 50 3d ef d8 cd 3c
       0.10019476 0.064663954 0.050905287 0.025127856
000130 fe b2 fa bd 0e 15 7e be 02 58 0b be dd 5c 44 3d
       -0.12241171 -0.24812719 -0.13607791 0.047940124
000140 0e d7 c9 3c ca 71 9e be d8 ef f4 3d 44 8f 78 be
       0.024638679 -0.3094619 0.11959809 -0.24273401
000150 0d 3f 09 3c 34 2e c4 3d 88 58 6a 3d 8c 43 cf bd
       0.008376849 0.09579125 0.057213336 -0.101203054
000160 a5 d0 54 3e 2b dd 55 3b d0 73 2e be 28 9e 00 3d
       0.20782717 0.0032633047 -0.17036366 0.03140083
000170 4c f3 f0 3d 12 d5 0d 3e dd c5 e2 bd 71 fc a4 3d
       0.11765155 0.13850811 -0.11072896 0.08055962
000180 1a c9 c4 bd d0 2b a0 3d a9 fc 99 3d 2e 31 80 be
       -0.096086696 0.078208566 0.07518894 -0.2503752
000190 ba 20 22 bf c8 90 f9 3d 19 77 66 3e a2 72 04 3e
       -0.63331187 0.12185818 0.2250637 0.12934354
0001a0 4a fb 79 3d 88 90 01 3e 45 ca 8e 3d 78 57 bd 3c
       0.061030664 0.1265279 0.069721736 0.023112997
0001b0 c0 9c a2 bc 46 32 4f 3c 07 93 d3 bc 2d 4a df bd
       -0.019850135 0.012646263 -0.025826944 -0.1090282
0001c0 00 97 6f 3b ea 5b 23 bc f7 d6 d5 be 4e a2 be 3d
       0.003655851 -0.0099706445 -0.41765568 0.09308301
0001d0 01 27 b4 bd 92 39 bd 3c 43 e9 cb bd e7 29 7c 3e
       -0.08796502 0.02309874 -0.099566005 0.2462536
0001e0 84 4d 1b 3d 22 92 b1 be 01 6f c6 3c 64 99 ff bc
       0.03791572 -0.34681803 0.024222853 -0.031201072
0001f0 15 4e 97 3c 4c 48 70 3e 52 74 87 bd 25 06 2e 3e
       0.01846985 0.23465079 -0.06613983 0.16994531
000200 f7 d0 29 3c 0c d1 99 bd 48 9b 1e bd 6a 41 18 bd
       0.0103647625 -0.07510576 -0.038722306 -0.03717176
000210 a5 41 0d 3e 8f 3f 67 be 45 07 32 3e f6 90 71 39
       0.13794573 -0.2258284 0.17385586 0.00023037553
000220 5a aa 27 bd 8d be 0c bd 7a b0 9c 3c ab 15 3a bb
       -0.040933944 -0.03436141 0.01912712 -0.0028394263
000230 7e 7b 88 be 8c 41 ad bb 31 9c fb 3c 15 0f 1d be
       -0.26656717 -0.005287355 0.030714126 -0.15337785
000240 81 56 ad 3b 8a a3 2f bd ee c3 86 3d b0 8c 2e be
       0.005289853 -0.042880572 0.06580339 -0.17045856
000250 b0 76 85 bf 45 ca 46 bd 9b fd 68 3d bb a1 44 bd
       -1.0426846 -0.048532743 0.056882482 -0.0480058
000260 ef d8 46 bd b0 2d c5 bd af 89 41 3d b7 91 58 3e
       -0.048546728 -0.09627855 0.047250446 0.21149336
000270 69 75 0a 3d 43 2d db bd 42 06 5c 3d ef 9b 2c bc
       0.033803377 -0.10701992 0.053716905 -0.010535224
000280 a2 43 35 be 9b 0e 75 3d 53 0c a3 bd 7b 5e 82 bc
       -0.17701581 0.059828382 -0.07961335 -0.015914192
000290 f9 97 64 3d 29 50 49 3d dd ab 82 3c ed b9 6e bd
       0.055808995 0.049148712 0.015951091 -0.05828278
0002a0 e2 98 56 3e 49 8c 0c 3e 61 62 b0 3c 39 ee 0e bc
       0.20956758 0.1372539 0.021531286 -0.008723789
0002b0 28 a5 fe 3e 65 98 d3 bc be db fd 3b 68 3d 8a 3d
       0.4973538 -0.025829503 0.0077471426 0.067499936
0002c0 d5 e1 85 3e 6c 0c b0 39 20 ab b5 be 5d 4f 59 bd
       0.2614886 0.0003357859 -0.3548212 -0.053054202
0002d0 b7 9b 2d be 61 42 69 3e 73 88 5a 3c 89 e5 3c bb
       -0.16953932 0.22779228 0.013338196 -0.0028823337
0002e0 02 1b d9 3c 42 b1 3d 3e 6f 60 ad bc 31 2b 9b 3d
       0.026502136 0.1852465 -0.021164147 0.075765975
0002f0 5b 0a 6f bc e5 a4 1a 3d 11 80 67 bb 1e b3 e0 3c
       -0.014589871 0.037754912 -0.0035324136 0.02742916
000300 51 49 4b 3d 4a d0 4b 3d 90 a3 c6 bc bc 0f c3 3d
       0.049630467 0.049759187 -0.024247915 0.095244855
000310 94 36 42 be 69 da a0 3c 7e 63 80 3d 45 e3 e0 3d
       -0.18966132 0.019635396 0.06268977 0.10980848
000320 a8 dd 50 3d 76 4c b9 3d 05 d8 45 3d e3 f4 06 bb
       0.050992638 0.09047787 0.048301715 -0.0020592741
000330 5a c7 2d 3e 28 64 81 be 18 f2 08 3e 1c d5 52 be
       0.16970578 -0.25271726 0.13373601 -0.20589107
000340 9f a9 a0 bd 60 0a 61 be 34 0f f2 3c 15 c7 8f 3c
       -0.07844853 -0.21976614 0.029548265 0.017550984
000350 f5 c2 2a bc aa 93 9b bd b8 33 04 3d 95 35 7e 3d
       -0.010422458 -0.07596524 0.032275885 0.06206282
000360 ff c2 a1 bd 55 89 8e bc b3 95 f6 3d 04 33 c4 3d
       -0.07898521 -0.01739947 0.120402716 0.09580043
000370 61 1a 3a 3e ee 7a 37 3d e2 80 88 bd db 85 74 3d
       0.18174125 0.04479497 -0.066652074 0.059697967
000380 90 2d 8e bd 16 c8 85 3d 2e b4 92 3d 0a 84 2a be
       -0.06942284 0.06532304 0.07163273 -0.16651931
000390 04 92 ae be 1e 83 d9 3d af 6d 8d 3d bd 29 1a 3d
       -0.34095776 0.10620712 0.06905686 0.03763746
0003a0 4a 2c 4a be 4d d4 b5 3d 81 80 b0 bc 2a 54 29 3e
       -0.19743457 0.08878384 -0.02154565 0.16536012
0003b0 37 99 2c 3c 28 f4 a0 ba f2 57 0b 3e 0f 23 47 bd
       0.010534576 -0.0012279795 0.13607767 -0.04861742
0003c0 fb 16 14 3d c1 1d 99 3b cb 4c cd be e9 c6 0a 3d
       0.03615473 0.0046727364 -0.4009765 0.0338811
0003d0 0e bf cc ba f7 6f 68 bd e9 7a 09 be 4e c1 1d be
       -0.0015620904 -0.056747403 -0.13425793 -0.15405771
0003e0 a9 7c 2c bd b0 98 cd 3d 2f f4 8f 3d 4c 6f ee ba
       -0.042111073 0.100388885 0.07028996 -0.0018191128
0003f0 13 1b 50 be b3 57 13 be 74 8b 17 be 38 66 85 bc
       -0.20322828 -0.14388923 -0.14799291 -0.016284093

network.6.bias f4 [12]
000000 7d c6 40 bf 29 47 94 bf 5c bb 16 be db b0 97 be
       -0.7530287 -1.1584216 -0.1471991 -0.29627118
000010 59 c8 a6 bf 18 a2 e9 be c5 91 ae bf f9 37 52 c1
       -1.3029891 -0.4563148 -1.3638235 -13.138665
000020 38 23 06 c0 e8 db cd be 11 45 82 bf 3c 61 70 bf
       -2.0958996 -0.40206838 -1.0177327 -0.9389837
