model/DQNAgent2_20-08-2022__23-36-02.pth/DQNAgent2_20-08-2022__23-36-02.pth (torch, 826191 bytes, 8 tensors)

network.0.weight f4 [256, 27]
000000 66 da 51 be 2e 55 c8 bd e4 35 34 be 9e ab c1 bd
       -0.20493469 -0.09781872 -0.17598683 -0.094565615
000010 44 77 d4 bd e0 37 4f 3c 24 2d 43 3d fa 42 91 bd
       -0.103743106 0.012647599 0.04765047 -0.07092853
000020 7e ff 29 bc 73 cc 3c bc 96 68 cf 3d 04 a7 16 bd
       -0.0103758555 -0.011523354 0.1012737 -0.036780372
000030 f8 21 07 be e9 ca 29 3d 9d 6c 0c bc 98 36 f1 3b
       -0.13196552 0.041453276 -0.008570817 0.0073612444
000040 cf c8 a7 bd 76 9b 4e be 75 2b 56 be 77 d1 00 be
       -0.08192598 -0.20176491 -0.20915015 -0.12579904
000050 82 fd de bd 50 bf 81 bc 1c 72 38 3d d1 4b 37 be
       -0.108881965 -0.015838295 0.0450307 -0.17900015
000060 74 eb 2b bd cd 1d 15 3e 80 64 7d bc 14 4b 3c be
       -0.041972592 0.1456215 -0.015465856 -0.18388015
000070 8d a4 66 be 84 80 cb 3d 30 a4 1d bd e5 12 98 bd
       -0.22523709 0.09936622 -0.03848666 -0.07425479
000080 41 1e 58 bd 46 93 32 bd 60 65 73 be 72 45 91 bd
       -0.052763227 -0.043597482 -0.2376914 -0.07093324
000090 42 bd ad bd ab 18 01 3d ce a9 ae 3c 7f 8c 96 3d
       -0.08483364 0.031517666 0.021321204 0.07351016
0000a0 dd 0f 27 3d aa 12 45 3d f0 38 3b be ea eb ee bd
       0.040786613 0.048113503 -0.18283439 -0.11666091
0000b0 e6 3d 77 be b4 93 60 be 87 c2 53 be c0 c6 21 3b
       -0.24144706 -0.21931344 -0.20679675 0.0024685115
0000c0 4d 11 c5 bd 00 88 ad b9 5a 38 b5 bd e8 f5 1f 3d
       -0.096224405 -0.0003309846 -0.08848639 0.039052874
0000d0 23 f7 96 3c 0b e1 86 3d 2b 05 1f be 83 95 07 bc
       0.01842839 0.06585892 -0.15529315 -0.008275392
0000e0 15 65 2d be fa 83 e6 3d 95 a0 61 3b 1a ca 81 3d
       -0.16933091 0.11255641 0.003442799 0.06337376
0000f0 78 15 aa 3d 64 03 fb 3d 19 ea e7 bd 4b dd e3 bd
       0.08304876 0.12256506 -0.113239475 -0.11126193
000100 bd 07 2c be 88 c5 3f bd 76 8d b7 bd 64 25 0b be
       -0.16799827 -0.04681924 -0.089625284 -0.13588482
000110 d8 6c 97 3d 97 19 47 bd 97 09 c7 bd 66 d5 98 3d
       0.07393807 -0.04860839 -0.09718626 0.074625775
000120 8f 3d 07 be 7e f9 c9 3d 10 a2 fb bd c8 97 37 be
       -0.13207076 0.0986204 -0.1228677 -0.17928994
000130 01 2c 00 3e f5 c0 24 be 29 9c 1e 3e 5d 99 ac bd
       0.12516786 -0.16089232 0.15489258 -0.08427689
000140 29 ee 1c be 45 99 6e be 03 a9 9d bd ed 62 98 be
       -0.15325226 -0.23300655 -0.07698252 -0.29762974
000150 18 47 f8 bd 05 49 5b be a3 cb b1 bc 69 69 8b be
       -0.12122935 -0.21414573 -0.021703547 -0.2722886
000160 df b4 06 3c 0c 71 01 bc dd 8f 17 3d 37 32 d2 bd
       0.008221834 -0.007900488 0.037002433 -0.10263484
000170 1a e9 8b 3c 23 23 f4 bd 28 59 64 be b0 15 81 bd
       0.017078925 -0.11920764 -0.22299635 -0.06302965
000180 5a 77 c5 bd 5f 8b 96 3c a2 40 dd bc 27 bb 7b be
       -0.09641905 0.018377004 -0.027008358 -0.24583112
000190 62 34 82 bd 4c 46 2e 3b 1e 64 4b be 8a 46 dc 3c
       -0.063576475 0.0026592193 -0.1986241 0.026889104
0001a0 6f 58 38 3d b8 3b dd bc 00 c1 a5 3a f6 69 e4 3d
       0.04500621 -0.027006015 0.001264602 0.11153023
0001b0 06 8e 0c be f1 47 9d b8 99 67 31 be 7b 11 29 3e
       -0.13726053 -7.4997435e-05 -0.17324676 0.16510575
0001c0 46 66 88 be 06 6a fb 3c 70 4b bf bc 02 cd 60 be
       -0.26640528 0.030690204 -0.023351401 -0.21953204
0001d0 3a 00 8d be f4 9a 9d be 73 1f 97 be 10 47 9d be
       -0.27539235 -0.30782282 -0.2951618 -0.3071828
0001e0 dc 32 af be 39 84 13 be be e3 93 be cd 27 a8 be
       -0.3421849 -0.14405908 -0.2888469 -0.32842866
0001f0 ce 0f 3b bd b6 9d d3 bd 3d 34 02 be 04 2e 1c bd
       -0.04566937 -0.10332815 -0.1271524 -0.03812982
000200 84 7a 70 3d 09 a2 8a bd 04 fb 34 bd dd 10 ad bd
       0.05871059 -0.06769187 -0.0441847 -0.08450482
000210 de 93 e8 3d 72 be 05 be 54 e3 ab bd 12 f3 d2 bd
       0.113563284 -0.1306093 -0.08392969 -0.10300268
000220 ef bb 22 3e 41 59 b0 bd 3e f9 42 be 40 ab 7c 3c
       0.15892003 -0.08610774 -0.19040391 0.015421689
000230 c8 c9 01 bd c0 3d c9 bc 16 55 bc 3d 5a 5c c7 3d
       -0.031686574 -0.024565578 0.09195916 0.097344115
000240 8c 9b 13 3d 5d 08 23 be e4 99 de bd dc d3 2a 3d
       0.036037013 -0.15921159 -0.10869196 0.04170595
000250 7b 8d 06 3e f4 17 76 bd a4 22 b8 bd 42 f8 2a be
       0.13139908 -0.060081437 -0.08990982 -0.16696265
000260 38 41 aa bd 5e d2 ab bd 5e 11 cd 3d 51 72 a8 bd
       -0.08313221 -0.08389734 0.10013078 -0.08224929
000270 70 24 44 3d 15 f5 41 3e b8 ee 34 3d bf 81 24 3e
       0.047886312 0.18941148 0.044172972 0.16065119
000280 2f 6b e5 bd 00 f3 12 be c2 ab f8 3d fa e4 63 be
       -0.11202084 -0.1435051 0.12142135 -0.22255316
000290 ca 95 06 bd 45 fd 9c bd 36 44 1e 3c fe a8 85 3d
       -0.032857694 -0.07665495 0.009659817 0.06526373
0002a0 89 7a 88 be 63 3c b0 3b a6 7b 0f 3d cd b2 2c be
       -0.26655987 0.0053782924 0.03503003 -0.16865082
0002b0 69 a9 ed bc 99 c1 0d bd e8 bb bc 3c c7 75 22 be
       -0.029011445 -0.034608457 0.02303882 -0.15865241
0002c0 b4 30 65 3c 5e c8 26 bd cd f1 5e be e4 de ea 3d
       0.0139886625 -0.04071843 -0.21771927 0.11468294
0002d0 b4 78 13 3d ac da 15 3d e0 36 1c be d0 af c1 bc
       0.036003783 0.036585495 -0.15255308 -0.023643404
0002e0 26 bc f1 3d db cc 05 3e 40 66 2a bd 28 da 09 3d
       0.118034646 0.13066427 -0.04160142 0.033655316
0002f0 63 73 8d bd 38 49 3f bd f8 f5 a5 bc 46 d1 0b 3c
       -0.06906774 -0.046700686 -0.020258889 0.008533781
000300 a1 88 04 3e fc 0b 13 bc cd fa 36 3e de da 29 be
       0.12942745 -0.008975025 0.1786911 -0.16587397
000310 e7 81 16 3d 92 f6 54 bc 8a e8 60 3d d5 c5 cb bb
       0.03674498 -0.01299824 0.054909267 -0.006218652
000320 cc ad 60 bc d3 f5 9b bd 0b 8f 02 3b aa 26 dd bc
       -0.013713311 -0.076152466 0.0019921686 -0.026995976
000330 76 ae 3b be c9 7a b7 bd fe 29 1e be 18 17 a0 bd
       -0.1832827 -0.08958966 -0.15445706 -0.07816905
000340 60 f3 56 bc 40 47 10 be 84 3c 67 bd e0 12 f0 3c
       -0.013119549 -0.1408968 -0.056454197 0.029305875
000350 2c 8c a2 3d 63 6b 29 3e 08 1b b1 bc f8 3e 47 3d
       0.07936892 0.16544871 -0.021619335 0.048644036
000360 e5 ec 08 3d 98 6e 68 3d a8 07 56 3d f0 f6 1e 3d
       0.033429045 0.056746095 0.052253395 0.038809717
000370 eb 2e 67 be 85 83 02 be a8 66 4b 3d f5 66 9b be
       -0.22576492 -0.12745483 0.049658448 -0.30351987
000380 49 4e 78 bd c3 dd f4 bd f7 4b 9e be 13 e1 1d 3d
       -0.060621534 -0.1195636 -0.30917332 0.038544726
000390 f0 98 a1 be 51 f3 8b be 5b d4 88 be 52 4a 43 be
       -0.31561995 -0.27334073 -0.26724514 -0.1907132
0003a0 db 6e 5f 3d 24 f4 f5 bb 56 13 91 be 73 41 35 be
       0.05454908 -0.0075059105 -0.28335065 -0.17700748
0003b0 69 c1 fe bd db 63 3f be d2 b2 7e 3c c6 d5 12 be
       -0.12439234 -0.18690436 0.015545564 -0.1433936
0003c0 78 8c 17 be 49 b1 91 bd 3a 42 b7 3d 43 6f 10 be
       -0.14799678 -0.071138926 0.089481786 -0.14104943
0003d0 4f b0 a2 bc 11 6b 46 be a4 a7 38 be 55 d1 b2 be
       -0.019859461 -0.1937678 -0.180327 -0.34925333
0003e0 57 2a ca bd 3d f0 81 3d 2e 6f 5d be 4c 7d 79 bd
       -0.09871357 0.0634465 -0.21624443 -0.060910508
0003f0 dc b6 3f be 89 69 ce bd c8 03 69 be e0 46 56 ba
       -0.18722099 -0.10078723 -0.22755349 -0.00081740133

network.0.bias f4 [256]
000000 98 63 86 3d 88 42 29 be 86 cc 9a 3c 39 af 26 be
       0.06561965 -0.16529286 0.018896352 -0.1627778
000010 b9 13 97 be 70 90 4c bd f6 51 57 bb 39 a5 43 bd
       -0.29507235 -0.049942434 -0.003285525 -0.04776499
000020 2f 2d 3c 3d 0b ee f8 bb 15 d6 45 be 13 a2 56 be
       0.045941528 -0.0075967363 -0.19319947 -0.20960264
000030 9a e6 47 be ac 91 0b be 9e cc 97 3d fe 23 62 be
       -0.19521561 -0.13629788 0.074120745 -0.22084042
000040 91 87 16 3c 2d 57 07 bb b1 e1 b8 bd 75 3a 4c be
       0.009187595 -0.0020651326 -0.09027422 -0.19944175
000050 ca d2 f9 bd 03 33 d9 3d cf 02 17 be 7b f4 ce 3d
       -0.12198408 0.10605433 -0.14747165 0.10105225
000060 c4 1f 60 be 19 4a 6c be 1b 32 21 be 0b 48 b4 3d
       -0.21887118 -0.23075141 -0.1574177 0.088028036
000070 27 dc 15 3e 56 3c 21 be 41 6d 2b be 80 4c f4 3d
       0.14634763 -0.15745673 -0.16740896 0.11928654
000080 e1 e3 96 3c 59 de 05 bd 60 a3 1a be 0b 7e a9 bd
       0.018419208 -0.03268275 -0.15101385 -0.08275994
000090 dd 93 94 3d 20 92 cf bb f1 f6 d3 bc 10 f6 1c bc
       0.07254765 -0.006334558 -0.025874587 -0.00958015
0000a0 55 ee 3e be a9 46 d4 bc 2d a7 57 be 5e b6 1f be
       -0.18645604 -0.0259126 -0.21059866 -0.15596911
0000b0 44 de 5b bd dc 01 e6 3d 88 c4 96 bd 29 94 1c 3e
       -0.053678766 0.112308234 -0.07361704 0.15290894
0000c0 51 00 36 be 81 0d 07 3e a1 bf 8b be 02 17 b4 bb
       -0.17773558 0.13188745 -0.2729464 -0.005495907
0000d0 1c 33 00 3c e6 de 4e be 8e 09 91 3c ab c9 72 be
       0.007824685 -0.20202217 0.017704751 -0.23709743
0000e0 50 ee 05 bd ae e9 c7 3d fb 7b 87 be 12 0f 70 3d
       -0.032697976 0.09761368 -0.26461777 0.058608122
0000f0 1b 68 25 be b4 6f 1c be 1d 6d 54 bd 6a b1 33 be
       -0.16152994 -0.15276986 -0.05186187 -0.17548147
000100 43 b2 1c bc 54 41 95 bd 0a 25 87 be 53 dc 1b 3e
       -0.009563985 -0.07287851 -0.26395446 0.15220766
000110 9a 8d a9 bc 78 47 2c bd 19 60 27 bc 40 ed bb be
       -0.020697404 -0.042060345 -0.010215783 -0.36704445
000120 2b 70 41 3c ee dd 69 be 6a 6a 53 be 4f 47 e5 bc
       0.011806528 -0.22838566 -0.20646062 -0.027988104
000130 c0 0c b6 bd 70 90 b0 3d 6e b3 0e 3c b0 c9 01 bd
       -0.088891506 0.08621299 0.008709772 -0.031686485
000140 36 d2 96 3d 69 55 31 3e 28 6d b4 bc 94 87 27 bd
       0.07364313 0.17317738 -0.022024706 -0.04090078
000150 4c d7 8a 3d 58 3c bb 3d d9 1e 08 be a5 31 25 be
       0.06779346 0.09142369 -0.13293017 -0.16132219
000160 87 4b c4 3c 97 22 6d be 11 e0 27 be dc de 5b bd
       0.023961795 -0.23157726 -0.16394068 -0.053679332
000170 0f d9 65 bd 12 dc 1c be 53 b1 22 bd a1 36 27 bd
       -0.056115206 -0.15318325 -0.03971989 -0.040823583
000180 4b d5 03 3e 97 6c d4 bd 3d 73 a6 3d cc e0 7f bd
       0.12874334 -0.10372274 0.08127449 -0.062470242
000190 9b e0 08 be 6c b1 1a be e9 d0 69 bd ee cf 9e bc
       -0.1336693 -0.15106744 -0.057083998 -0.019386258
0001a0 e2 31 42 be f1 3a 1a 3e 87 ca 58 be e3 5b de bd
       -0.18964341 0.15061547 -0.21171008 -0.1085737
0001b0 93 aa 94 3c 4c e0 3c be 4c a6 d3 bd 91 f6 57 3e
       0.018147742 -0.18444937 -0.10334453 0.21090151
0001c0 2d b8 cf bd 5c cf a5 bc 57 79 a8 bd 02 c2 ee bd
       -0.101425506 -0.020240478 -0.08226269 -0.11658098
0001d0 1c 88 17 3d f2 95 87 be 58 9b b0 3c 01 87 05 be
       0.03699504 -0.26481587 0.021558449 -0.13039781
0001e0 79 5d 9c 3d 23 e2 67 3d da 65 8f be d9 ed 0b be
       0.07635016 0.056612145 -0.28007394 -0.1366495
0001f0 7f a5 99 be 22 20 6d be 26 40 ea 3d 1d b7 fb 3d
       -0.30009076 -0.23156789 0.114380166 0.122907855
000200 97 03 c4 3d bf 80 47 3d 6b eb 4f be 69 0f e1 bd
       0.09570997 0.048706766 -0.20304649 -0.109892674
000210 db 1f 11 be 98 4a 35 bd dd 7b 6c be 84 7e 4f be
       -0.14172308 -0.04426059 -0.23094125 -0.20263106
000220 5e 02 eb bc da e1 77 3d 85 91 95 3d 7d ad 96 bd
       -0.028687652 0.060518123 0.07303146 -0.07357309
000230 1b e0 de 3d 5c e1 42 bc 47 2e 27 be 39 96 75 be
       0.108825885 -0.01189455 -0.16326247 -0.23983087
000240 1f a8 07 3e 3d 96 e5 3b 26 00 42 be 89 04 c3 3d
       0.13247727 0.007006435 -0.18945369 0.095223494
000250 d0 68 62 bd 4a d0 b3 3d 0d 2b 40 3d 97 6b 10 bd
       -0.05527574 0.08779962 0.046916056 -0.035258856
000260 67 8f 01 3d db df 19 3d 8e 56 da 3d c1 a7 09 3d
       0.0316309 0.037567 0.1066104 0.03360725
000270 d3 4b a1 3d 1c d3 20 be 30 80 55 3c a0 bc 56 3d
       0.078757904 -0.15705532 0.013031051 0.05242598
000280 ca bf 8a 3c 80 94 0f be ac 6e 04 3e 49 e0 74 be
       0.016937155 -0.14021492 0.12932843 -0.23913683
000290 ef 73 2e 3e 24 c4 f0 bd bb 85 e2 3c 5f 06 67 3d
       0.17036413 -0.11756161 0.027651658 0.05640256
0002a0 0c 48 a0 3c 71 9d a3 be b0 ee 69 3c ac 48 55 3d
       0.019565605 -0.31956056 0.014278099 0.05207126
0002b0 d7 97 29 3b d1 09 16 be cf 3f 27 bd 04 68 a4 bd
       0.0025877857 -0.14652182 -0.040832337 -0.08027652
0002c0 9e 54 10 be 41 f0 05 be 0f 46 72 be c1 fc a8 bd
       -0.14094779 -0.13079931 -0.23659538 -0.08251334
0002d0 04 c7 d0 3c 72 4f 17 be 52 02 94 3c 25 6b 5b 3c
       0.025485523 -0.147764 0.018067513 0.013392244
0002e0 bd 69 23 3e 4b 34 67 be 4a b6 81 be dd af 00 be
       0.15958305 -0.22578542 -0.25334388 -0.12567087
0002f0 2d 0d 1f be a0 66 f1 3c 36 c9 9d bd 28 84 81 3c
       -0.1553237 0.02946788 -0.077043936 0.015810087
000300 af 04 81 be cd c9 e2 bd 74 ff 00 3d e9 71 70 be
       -0.25198886 -0.11073647 0.03149362 -0.23480953
000310 66 e9 3c be cf d6 4a 3b 47 c4 19 be c6 3c 34 be
       -0.1844841 0.003095079 -0.1501628 -0.17601308
000320 96 a3 ae bd 68 83 cf bd ec 81 f0 bc 51 ef 34 be
       -0.08527295 -0.10132486 -0.029358827 -0.17669417
000330 1e 6f 18 be 7e 09 23 be c8 69 b7 bd 03 c8 f1 3d
       -0.14886138 -0.1592159 -0.08955723 0.11805727
000340 b3 cb 8a 3d 32 60 0c be 8b 43 b1 bd 72 60 de bd
       0.06777134 -0.1370857 -0.08655461 -0.10858239
000350 98 a0 64 bd b2 23 c1 bb 75 d1 89 be 30 dc 4f be
       -0.055817217 -0.005894148 -0.26917616 -0.20298839
000360 c3 cf d6 bc e0 b4 1c 3e ec 4f 8a be aa 91 02 be
       -0.026222115 0.15303373 -0.270141 -0.12750879
000370 ba cc 0d be bf 5e a7 be 3d 8f 32 be cc bf 91 be
       -0.13847628 -0.32689473 -0.17437454 -0.28466642
000380 a1 7e 59 be 10 e1 f8 3d 0c 1b 36 be ab 9f 0a 3e
       -0.21239711 0.12152302 -0.17783755 0.13537471
000390 a3 ab a4 bd 1f b8 9c bd 29 d0 cc bd 78 02 9a 3d
       -0.080405496 -0.07652306 -0.10000641 0.07520002
0003a0 56 30 39 bd 81 ef 72 3c dc 4e 2c bd 16 5d 15 bd
       -0.045212112 0.01482761 -0.042067394 -0.036465727
0003b0 89 33 91 be e6 15 ff bd 83 d9 a9 bd 16 1f dd 3c
       -0.2835963 -0.12455349 -0.0829344 0.026992362
0003c0 a9 17 3b bd c7 f3 eb bc 4c a5 8d bd ec 99 98 3b
       -0.04567686 -0.028802766 -0.069162935 0.004657021
0003d0 0b 70 37 be bb c8 d6 bd aa 9c 65 be 41 ef d1 3d
       -0.17913835 -0.10487505 -0.22423044 0.10250712
0003e0 04 7c 39 be b0 39 96 bc 68 0a 56 be 56 a9 d7 bd
       -0.18113714 -0.018338054 -0.20902407 -0.10530345
0003f0 45 81 3b be 15 18 8c 3b 27 75 7c be 0d 78 f1 bd
       -0.18311031 0.0042753317 -0.24654065 -0.11790476

network.2.weight f4 [512, 256]
000000 cf 9f 3f bd 50 5a 8e bd d0 27 29 3d e6 48 c5 bc
       -0.046783265 -0.069508195 0.041297734 -0.024082612
000010 f0 c6 17 bc 52 e6 54 3d ad 53 48 bd 3c 99 db bc
       -0.009263739 0.051977463 -0.048907924 -0.026806466
000020 74 37 9b 3c 32 de c2 bd 50 f2 cb bc 0d 5e 57 bc
       0.01894734 -0.09515037 -0.024895817 -0.013144982
000030 b0 1b 87 bd ab 0f 62 bb 82 1d c8 bc 20 56 f0 bc
       -0.06597078 -0.0034494202 -0.024428133 -0.029337943
000040 d3 f0 10 bc 96 96 17 bd 25 6c 9f bc 97 6b 87 bd
       -0.0088464795 -0.037008844 -0.019460747 -0.06612318
000050 86 d7 82 bd 3a 59 e2 bd 60 47 5a bc 70 66 92 3b
       -0.06388764 -0.11052175 -0.013322681 0.004467778
000060 5c 78 ea bd d6 73 61 bd 28 76 b7 bd 4a 2b 5c 3d
       -0.11448738 -0.05504211 -0.089580834 0.05375222
000070 78 54 40 3d 82 31 ee bd a1 57 df bd 20 66 20 3d
       0.046955556 -0.116305366 -0.10905386 0.039159894
000080 4c ec 90 3c 3e d5 6f bd 10 87 38 bc 10 52 cc bd
       0.0176908 -0.058552973 -0.01126267 -0.0997659
000090 e9 65 bf bc c0 52 d4 ba 57 18 91 bd 2a b4 16 bd
       -0.023364024 -0.0016198978 -0.070847206 -0.03679291
0000a0 98 d6 a5 bc 14 52 0c 3d 51 3b ab bd 53 52 96 bd
       -0.020243928 0.034257963 -0.08360923 -0.07339921
0000b0 38 4e 4c bc e8 b0 07 3c 39 30 8f bd e8 11 b3 bc
       -0.012469821 0.008281924 -0.069916196 -0.021859124
0000c0 d0 2e 28 bd d0 4d 72 3d a0 09 3b 3b 96 28 d4 bd
       -0.04106027 0.05915624 0.0028539672 -0.10359304
0000d0 a6 10 f9 bd d5 94 9a bd c9 7f 5a bc 62 83 b2 bd
       -0.121613786 -0.07547919 -0.01333613 -0.087164655
0000e0 1f 90 a5 bd bc de 28 bd 18 9d 70 bc a6 25 26 3e
       -0.080841295 -0.04122804 -0.014685892 0.16225299
0000f0 4c d6 e9 bc 67 48 e2 bd 7c e5 e5 bc c7 a7 18 3b
       -0.028544568 -0.11048966 -0.028063528 0.0023293362
000100 99 99 ca bd 2b bc 09 bd f0 be 37 3c 0c c9 dc 3c
       -0.09892578 -0.033626717 0.011214957 0.026951335
000110 59 3d 89 bd d3 56 69 bb 0a 4b 95 bc c9 43 dc bd
       -0.06701154 -0.003560473 -0.018224258 -0.107551165
000120 8c 7a 3b bd b0 cd cf bd b8 1b 09 ba f0 cb d7 3c
       -0.045771167 -0.10146654 -0.00052302657 0.026342362
000130 dc db f7 3c b5 29 e1 bd 20 16 72 bd b0 25 1b bd
       0.030256204 -0.10994283 -0.05910313 -0.03787774
000140 2c 1a 99 3c 64 6d ff 3c d0 24 79 bd 98 0a d7 3c
       0.018689238 0.031180091 -0.060826123 0.026250169
000150 5b 1c 39 bb 62 fc 8b bd b3 0f 06 bf 6c b2 c2 bc
       -0.002824566 -0.068352476 -0.52367705 -0.023766719
000160 56 9a 3a bd 80 bc 5b bd ae 29 0b bd e0 8c 47 3d
       -0.045557342 -0.053646564 -0.033975296 0.048718333
000170 3e e2 3a 3d c0 db 85 3a da 25 f8 bc 12 84 ba bd
       0.045625918 0.0010212585 -0.030291487 -0.09107222
000180 64 91 b2 3c 7b ae 8e bd ac cc 7c bd 40 24 ef ba
       0.021797843 -0.06966873 -0.061718628 -0.0018245056
000190 c1 54 60 bd ec a0 22 bd 08 d6 0d 3c 24 37 d7 3c
       -0.054768328 -0.03970425 0.008656986 0.02627141
0001a0 24 a3 e7 3c a8 87 3d bc 88 91 fc 3c 94 76 6e bd
       0.028276034 -0.0115679875 0.030831113 -0.058218554
0001b0 00 80 06 36 65 ce c6 bd 85 76 b9 bd 1f f2 b5 bc
       2.0042062e-06 -0.097073354 -0.09055809 -0.022210179
0001c0 2e 0f 08 bd 3c d4 00 bd d8 c5 66 bd ae dd 9f bd
       -0.0332176 -0.031452402 -0.056341022 -0.07805954
0001d0 68 a0 64 3d 95 e7 82 bd f6 63 8c bb 68 70 ee 3c
       0.055817038 -0.06391827 -0.004284377 0.029106334
0001e0 b0 88 e5 bd 37 ea 90 bd ac fc e9 bc 4a 2b 8c bd
       -0.11207712 -0.07075923 -0.028562866 -0.06844194
0001f0 d5 08 20 bd 10 28 a2 bb ba 7e 46 3d 32 2e cb bc
       -0.039070923 -0.0049486235 0.0484607 -0.024802301
000200 df 43 7a bd 94 3e ec bd 34 97 32 bd 35 36 a1 bc
       -0.061099883 -0.11535373 -0.04360123 -0.019679168
000210 b3 09 ed bc cb f6 2b bd e6 07 b9 bc 50 40 d1 3b
       -0.028935289 -0.041983407 -0.022586774 0.0063858405
000220 ae 26 cd bc b4 4d d0 bd 52 45 e2 bd df 6b 7b bd
       -0.025042858 -0.10171071 -0.11048378 -0.06138217
000230 4c e9 3c bd 2f 09 8c be 9c 47 3b bd c9 a5 91 bd
       -0.046120927 -0.27350757 -0.04572259 -0.07111699
000240 96 a5 30 3d 28 98 12 3c aa 21 11 3e 82 44 41 bd
       0.043126665 0.00894741 0.14172998 -0.047184475
000250 c4 41 9e bc b0 64 65 bc e2 37 05 bd 82 d6 57 bd
       -0.019318469 -0.014001057 -0.032523997 -0.052694805
000260 48 83 f7 bd 82 58 d3 bd e4 6b 28 bd b0 72 52 3c
       -0.12085587 -0.10319616 -0.041118518 0.012844726
000270 68 3e 3e bb 71 51 b4 bd a8 44 be 3c 5e 77 1f bd
       -0.0029028896 -0.08804596 0.023226097 -0.038932197
000280 09 b3 06 bb 9c 28 ca 3c 00 ba c8 ba c1 30 4e bd
       -0.002055349 0.024677567 -0.0015314221 -0.050339464
000290 c0 c0 c9 ba 4c 3a 53 3d 69 1a c0 bc 9b 42 8c bd
       -0.0015392527 0.051569268 -0.023450093 -0.068486415
0002a0 a8 8e 82 bc 12 dd 4a 3d 6c d4 b8 bc e6 17 7f 3d
       -0.015937164 0.049527235 -0.022562228 0.06227865
0002b0 60 58 cb bb 6f ff b2 bc cd f9 0e bc d8 54 a7 bd
       -0.0062056035 -0.021850316 -0.008726549 -0.081704795
0002c0 60 16 23 bc ba cb b5 bc fb 5b b6 b9 fb a3 a6 bd
       -0.009954065 -0.022191871 -0.00034782276 -0.081367455
0002d0 a3 b3 60 bd 60 21 07 bc a0 7a bd bc 13 1c 8d bd
       -0.054858815 -0.008247703 -0.023129761 -0.0689012
0002e0 1a 4f 39 bd e8 1d 7c bd af 43 e3 bd 28 38 56 bd
       -0.045241453 -0.06155196 -0.11096894 -0.05229965
0002f0 00 68 02 39 8c bb cb 3c 67 f6 56 bb a6 f3 18 bd
       0.00012436509 0.024869703 -0.0032800676 -0.037341736
000300 30 63 da 3d 86 0c 58 3d 86 3c 3b bc 90 0d e2 3c
       0.1066345 0.05274632 -0.011428004 0.027594358
000310 40 d5 26 3b 70 f0 a0 bc 95 a0 f8 bd a6 d6 45 3d
       0.0025456697 -0.0196459 -0.121400036 0.048300408
000320 3c 34 b4 3c 88 c8 0b bc a8 fa 30 3d 7f e0 d6 bd
       0.021997564 -0.008531697 0.043207794 -0.10492038
000330 b8 2a 68 bc 6a 3d b0 bc 00 6e 7c bc 70 b8 ac bb
       -0.014170341 -0.02151366 -0.015407085 -0.00527101
000340 ae ea 53 3d 5c ef 6c bd b2 a6 78 3d 44 54 f5 bc
       0.05173748 -0.05784546 0.060705848 -0.029947408
000350 00 17 39 3d f4 7b 86 3c da 1e 77 bd 19 2a 8a bc
       0.04518795 0.016416527 -0.060332157 -0.016865777
000360 84 40 ca bd 0a 50 d4 bc f2 9a 06 bc 20 3d 4e 3c
       -0.09875587 -0.025917072 -0.008215653 0.0125878155
000370 23 9e 12 bd 30 6b d2 bb 5a 5b ec bd 8d 4d 40 bb
       -0.035795342 -0.006421469 -0.115408614 -0.00293431
000380 08 ed 7b 3c f8 7c 78 bc 2d 4e a9 bd 39 fe f3 bd
       0.015376337 -0.015166514 -0.08266864 -0.119137235
000390 e0 f4 5d 3b 58 04 f5 bd 57 e9 e9 bd 3e bf dc bd
       0.003386788 -0.11963719 -0.11421459 -0.10778664
0003a0 dd 80 16 bd f8 de dd bc 00 23 8f ba 2d d4 2e bc
       -0.036743987 -0.027083859 -0.0010920465 -0.010670704
0003b0 6b b1 1d bd 76 4e d3 bc e8 dc 4e 3d ec 9e 2a bd
       -0.038499277 -0.025794249 0.05050364 -0.041655466
0003c0 86 8b 05 3d 10 fb 4b 3c d0 ee bb 3b 0e 5c c6 ba
       0.032603763 0.012449995 0.005735256 -0.0015133636
0003d0 a5 22 3a bd e1 48 a1 bc 88 7f 4a be 9c f3 36 bd
       -0.045443196 -0.019688072 -0.19775212 -0.044665918
0003e0 9e 3b 2f bd 68 50 b3 bd ff 18 9b bd 6a 35 33 bd
       -0.042781465 -0.08755571 -0.07573127 -0.04375211
0003f0 86 9b 89 bd 79 c6 55 bd 08 eb c9 bd 51 c4 45 bd
       -0.06719117 -0.05219123 -0.09859282 -0.048282925

network.2.bias f4 [512]
000000 01 55 62 3e 10 24 ac be da fc 51 3b 77 2d d8 bd
       0.22102739 -0.33621264 0.003204158 -0.10555547
000010 f9 54 e3 3b 6f e7 d1 bd 22 05 80 be a0 58 02 3e
       0.0069376198 -0.102492206 -0.25003916 0.1272912
000020 78 3a 2d bc 72 87 d2 be c7 93 85 be 2c ee 92 be
       -0.010573022 -0.41118962 -0.26089308 -0.28697336
000030 f0 d0 e4 bd 12 c5 59 bd ae 5f 46 be bb 3d af bd
       -0.11172664 -0.053166457 -0.19372436 -0.08556696
000040 d3 f0 74 be 95 cb 12 be f2 d8 bd bd 0d 8f 12 be
       -0.23919992 -0.14335473 -0.09269895 -0.14312382
000050 78 e3 93 bc 9f 31 af be e0 09 94 bd f6 2a 90 3e
       -0.018052801 -0.34217545 -0.07228446 0.28157777
000060 62 d4 33 be bc 07 84 be 64 01 d8 3e 61 5f cf bd
       -0.17561486 -0.2578715 0.4218856 -0.10125614
000070 73 c8 1a bf 59 45 73 be ec 75 95 be dd 25 f4 bc
       -0.6046211 -0.23756923 -0.2919153 -0.02980321
000080 ae 25 ff be 86 07 79 bd 2e c8 e7 bd bf cb 97 be
       -0.49833435 -0.06079819 -0.11317478 -0.29647633
000090 d8 a5 9e bd 15 c3 b0 3e 40 76 4e bd f8 31 0c bf
       -0.07746476 0.34523836 -0.05040574 -0.54763746
0000a0 92 41 b6 bb a5 70 9d bd 8f 19 f5 bd 27 16 24 be
       -0.005562016 -0.07687501 -0.119677655 -0.16024075
0000b0 bc 52 03 3d 75 a8 b9 bc e3 0f 37 be 6a e4 5d be
       0.032061324 -0.022663334 -0.17877154 -0.21669164
0000c0 24 20 ce be 69 ba 71 be 9f 35 24 bd 7e d2 6e 3e
       -0.40258896 -0.23606266 -0.0400902 0.23322484
0000d0 f2 79 cd be 90 11 52 be 64 d7 56 be 3c cc d7 bd
       -0.401321 -0.20514512 -0.20980603 -0.105370015
0000e0 ce 97 6a be d5 0c a2 be 9b db 2b bd 7b 41 ac bd
       -0.22909471 -0.31650415 -0.04195748 -0.08410927
0000f0 1c 1c 02 be b6 8e 85 bd 15 9f e2 bd 67 53 07 3c
       -0.12706035 -0.065213606 -0.11065499 0.008259631
000100 7a 29 02 be 30 da 96 be b7 5c 5a be e1 77 47 bd
       -0.12711135 -0.2946334 -0.2132443 -0.04869831
000110 a3 4a dd bc 05 a8 88 be 0c 0b af be a2 ca 36 bd
       -0.027013129 -0.2669069 -0.34188116 -0.04462684
000120 f4 fa f4 bc 3b bc a9 3d 59 46 92 be 0d 4c 80 3d
       -0.02990482 0.08287855 -0.28569296 0.062645055
000130 ac 4a cc bd 0c 3f a1 bd 57 7a be be 24 3c 29 be
       -0.0997518 -0.07873353 -0.37202713 -0.16526848
000140 f9 b5 e4 bd 47 2b ba bd d1 6c 03 be 3c ac d4 be
       -0.11167521 -0.09090286 -0.12834479 -0.41537654
000150 ef ed cb be 94 0d 22 bc cd 4a 1a be a6 09 35 be
       -0.39829966 -0.009890933 -0.15067597 -0.17679462
000160 e9 0a b3 3d 50 78 39 be e0 6c 50 be b8 67 ef bd
       0.08742315 -0.18112302 -0.20354033 -0.11689705
000170 98 46 93 bd 7c c5 d0 be be 8c 46 bd e0 0f 62 be
       -0.07191199 -0.4077567 -0.048474066 -0.22076368
000180 26 46 24 be fd e7 fc bd f3 a3 68 be 29 d8 43 be
       -0.16042385 -0.12348936 -0.22718792 -0.19125427
000190 dc 2a e6 bd 81 0a 50 be 1c 82 92 bd f2 4e 6e be
       -0.112386435 -0.20316507 -0.07153723 -0.23272303
0001a0 fa c3 68 be ee 9a dc bd e0 83 56 bc f7 11 21 3e
       -0.22731009 -0.10771738 -0.013092965 0.1572951
0001b0 c5 a2 53 be f0 2f f7 bd f6 3c 90 3d 90 e1 26 bd
       -0.2066756 -0.1206969 0.070428774 -0.040742457
0001c0 03 c6 2b be 6d e6 31 3e 02 b1 79 be 28 b7 4d be
       -0.16774754 0.17373057 -0.2438393 -0.200894
0001d0 2d fe f3 be 44 81 7c be b9 a8 80 3f 3b 19 1f bf
       -0.47654858 -0.24658686 1.005149 -0.62147874
0001e0 1d 0c fa bd 99 0c 96 bd 21 c3 e7 bd 83 db 6e 3e
       -0.12209342 -0.073266216 -0.11316515 0.23325925
0001f0 7f 5e cd bd 8e f1 4c be a0 fe f4 3c ad 45 1b be
       -0.10027789 -0.20014021 0.02990657 -0.15163298
000200 6d fb 0d be 91 ad a7 bd fa 67 62 be 62 db 1a be
       -0.13865443 -0.08187402 -0.22109976 -0.1512275
000210 c2 84 7e be e4 f2 99 be 8a b7 26 bd cb f1 7e be
       -0.2485533 -0.30068123 -0.04070238 -0.24896924
000220 a3 c1 3c be c1 5d 65 be af 30 14 be 3f 24 a7 be
       -0.18433242 -0.22399046 -0.14471696 -0.3264484
000230 66 22 fe 3c a6 ed 3d be c6 8e d3 be 5c d3 af 3f
       0.031022262 -0.18547687 -0.41319865 1.3736377
000240 5b 7e 0a 3e 93 27 c7 bd 80 d1 33 be 7d 2a ad be
       0.13524763 -0.09724345 -0.17560387 -0.33821478
000250 e3 6b bf bd 59 eb bc 3b 0f a6 9b bd 3d 7f 28 3e
       -0.0934675 0.0057653603 -0.076000325 0.16454788
000260 6e 10 01 be 83 91 bf be fc 52 19 3e 2d 46 54 be
       -0.12603924 -0.37415704 0.14973062 -0.20729895
000270 88 d4 e8 3c 7b 1a 45 be e5 d1 a6 3e fb 81 41 be
       0.028421655 -0.19248383 0.32582012 -0.1889724
000280 56 df 14 be c0 c0 b6 be 78 24 c6 bd 7e a3 a9 bd
       -0.14538321 -0.35693932 -0.096749246 -0.08283137
000290 cf b8 88 be c7 32 8a bd 7c 11 04 3c 34 f0 d1 bd
       -0.26703498 -0.06747966 0.008060809 -0.10250893
0002a0 8c ea 71 be 91 18 11 be d3 66 ac 3c 46 45 34 be
       -0.23624629 -0.14169528 0.021045124 -0.1760455
0002b0 10 cf fe 3d 17 c1 2b be 18 3a c0 3c cd bb 01 3e
       0.12441838 -0.16772877 0.023465201 0.12669297
0002c0 97 f5 5f be 1f f1 b6 bd 2b 27 6e bc b6 b9 7f be
       -0.21871029 -0.08932709 -0.014535706 -0.24973187
0002d0 0c 14 fd 3d 4f 0f b9 be 32 5b d3 bd 28 07 ee bd
       0.12357339 -0.36144492 -0.103201285 -0.11622459
0002e0 57 a7 16 be 05 ea f8 3e 8f e5 ef bd ef ee 43 3e
       -0.14712273 0.48616043 -0.11713707 0.19134115
0002f0 8d 9a 50 be 9c 1a c9 bd ca 42 8c be d3 cb 62 be
       -0.20371456 -0.098195285 -0.27394706 -0.22148065
000300 06 7e 4f be c7 34 12 be 7c a8 36 bd 8e d1 25 be
       -0.20262918 -0.14277945 -0.044594273 -0.1619322
000310 08 f0 1e 3d 65 f3 82 be 1e 18 01 be f3 af e2 bd
       0.03880313 -0.2557632 -0.12606856 -0.11068716
000320 c4 b2 ad be ad 97 0b bf 16 2b ab be 45 84 b6 bd
       -0.3392545 -0.54528314 -0.3343131 -0.08911947
000330 26 c6 1f be 89 15 3a be 48 97 08 3e de a9 fe bd
       -0.15602931 -0.18172278 0.13338959 -0.12434743
000340 9e 33 02 be c2 2a 7e bd 32 af 3e be c9 ae 30 be
       -0.12715003 -0.062052496 -0.18621519 -0.17254175
000350 63 14 39 be 82 25 fe 3e a3 20 88 bd e5 8a 8b 3d
       -0.18074183 0.4963799 -0.0664685 0.068136014
000360 7a 31 03 bf 9b 9b 87 be 49 3e 53 be 5c 91 a9 3e
       -0.5124737 -0.26485905 -0.20629229 0.33118713
000370 3a e5 b3 bd a3 38 96 bd a6 6d 40 bc 20 28 f6 bd
       -0.08783956 -0.07335021 -0.011744892 -0.12019372
000380 f5 c4 19 3e 08 0f b3 be 3a 46 48 3e aa 4f eb 3c
       0.1501654 -0.34972405 0.1955804 0.02872451
000390 2e ba 89 3d 44 4d 0a 3f 14 63 ee bd 7d 0f fa bd
       0.06724964 0.5402415 -0.116399914 -0.122099854
0003a0 c1 47 19 be 8b 37 16 be d6 f2 4d be e6 ca e7 be
       -0.14968778 -0.14669625 -0.20112166 -0.45271987
0003b0 2d da 87 bd 2a 80 5f bd 93 4a 85 be d6 a5 8d 3d
       -0.066334106 -0.054565586 -0.26033458 0.06916396
0003c0 25 47 d7 3e 09 cf 59 be ea e3 18 be ac 76 7b be
       0.42046466 -0.21270384 -0.14930692 -0.24556988
0003d0 5a 48 8b bd eb 5f d5 be d7 06 47 be 73 56 ea bc
       -0.06800909 -0.41674742 -0.19436203 -0.028605675
0003e0 dd fb 2b be 0d f2 c9 3b 72 3f 85 bd d5 9a c3 bd
       -0.16795297 0.006162888 -0.06506242 -0.09551016
0003f0 8a 50 81 be bf 69 4b be 3f 6d 33 be 84 b3 48 be
       -0.2525676 -0.19864558 -0.17522143 -0.1959973

network.4.weight f4 [128, 512]
000000 72 df 01 3d be 35 8e bd 58 78 e9 bd 6b 70 68 3d
       0.031707235 -0.06943844 -0.11399907 0.056747835
000010 76 86 b9 bd 39 d1 2f bd 47 8a 1a 3d b4 1d d7 bd
       -0.090588495 -0.04292414 0.037729528 -0.10503712
000020 5b e9 04 bd be 1d d6 3c 21 23 c3 3c 76 15 c0 bd
       -0.032449108 0.026137229 0.023820462 -0.09379093
000030 ce ce 78 bd 61 13 ab 3c 3e b1 80 bd 9c 9a 1a bd
       -0.0607441 0.020883264 -0.06283806 -0.037745103
000040 96 1f 09 be 43 00 ad bc 17 cb aa bd ca 4e a7 3d
       -0.13390955 -0.021118289 -0.083395176 0.08169325
000050 21 11 80 3d 3c 00 a0 3d 00 5b 79 bd bd 50 99 bd
       0.06253267 0.07812545 -0.0608778 -0.07486103
000060 ca 28 9f 3c 70 5e 13 bd 8f cd 19 bd 60 4f 99 bc
       0.01942863 -0.035978734 -0.03754955 -0.018714607
000070 63 ae 57 bd d5 75 ee bc 5b 95 45 bd ba 42 10 be
       -0.052656543 -0.029108921 -0.04823814 -0.14087954
000080 d1 55 9f bd c9 4a 83 3d d0 01 89 bd a0 28 61 bb
       -0.0778004 0.064107485 -0.06689799 -0.003435649
000090 5c b4 be 3d b0 46 d8 3b 59 55 9b bd 6d 90 9b bd
       0.093117446 0.0066002235 -0.07584638 -0.075959064
0000a0 5e 8b c6 bd 63 21 be 3d ad 62 79 3d 36 ad c1 bd
       -0.09694551 0.09283712 0.06088512 -0.094568655
0000b0 a2 45 08 bd 4f 65 9e 3d b8 44 f9 bc 04 f7 9f bc
       -0.033269532 0.07734167 -0.030428275 -0.019526966
0000c0 49 a9 91 bc d3 12 97 bd 8e d6 8e bd 3a fa 42 be
       -0.017780917 -0.07376637 -0.06974517 -0.19040766
0000d0 00 5c cc ba 62 6d 9b bd 90 95 37 3b 3b 9f 15 3c
       -0.0015591383 -0.075892225 0.002801273 0.009132202
0000e0 8d 85 be 3d 97 80 99 3d 29 77 84 3d ec 89 0e bd
       0.093028165 0.0749523 0.064680405 -0.0347995
0000f0 bb 80 11 3d b0 6a d7 bd 68 f4 2f bd 24 8b 8a bd
       0.035523158 -0.10518396 -0.042957693 -0.0676482
000100 f3 1b de bc 1c 0f 2a be 58 5d ca 3b 5b d3 9f bd
       -0.027112937 -0.16607326 0.006175678 -0.07803985
000110 70 58 96 3c a1 4c 2c bd b1 f0 0a be 92 47 71 3d
       0.018352717 -0.042065267 -0.13568379 0.058906145
000120 1e 64 81 bc 37 31 4c bd b4 2c 1b 3c a6 9b 32 be
       -0.01579481 -0.049851622 0.009471107 -0.17442188
000130 f6 d3 e0 3c a7 bd 91 bd 9e 87 d5 bc f0 10 79 bb
       0.02744482 -0.071162514 -0.026065644 -0.003800448
000140 2a 5f b3 3c dd 4b a7 bc 9a cd 9a bb 4b f2 60 bd
       0.021895964 -0.020421917 -0.0047242166 -0.05491857
000150 69 6e 31 bd d0 ff 21 3b 36 17 a2 bd 69 07 5f bc
       -0.043318186 0.0024719127 -0.079145834 -0.013612607
000160 8a 7b f2 3c a1 04 9c bc d6 3a 06 bd a6 b1 a3 3c
       0.029599924 -0.019045176 -0.032770954 0.01998217
000170 0c 7c 0f bd 40 41 9b ba e4 df 86 bd c0 bd 38 bb
       -0.03503041 -0.0011845008 -0.065856725 -0.0028189272
000180 d2 7b a8 bd cc ef 51 bd 77 cd 88 3d e8 45 2a be
       -0.08226742 -0.05125408 0.06679814 -0.1662823
000190 d4 6f 0f bd bc c7 d0 bc 0d 37 83 bd 88 37 bc 3c
       -0.035018757 -0.025485866 -0.064069845 0.022975698
0001a0 8c ec b3 bd 2a 9f 17 bd 50 63 0d bd 8a 7e 07 3d
       -0.08785352 -0.037017025 -0.03451854 0.03307966
0001b0 b1 eb 9e bd bb 19 9b bd e7 64 4c bc f1 bb 9c bc
       -0.07759798 -0.07573267 -0.012475229 -0.019132586
0001c0 35 af 98 bd 40 2e 67 3a 98 b5 b0 3c c0 36 a4 3d
       -0.07455293 0.00088188425 0.021570966 0.08018255
0001d0 fc 9f 74 bc 61 e8 89 be 50 b2 08 bd c2 88 b6 bd
       -0.014930721 -0.26935104 -0.033373177 -0.08912803
0001e0 32 be 4c 3d 6a 89 5a bd d7 45 86 bd b6 e0 1e be
       0.049986072 -0.053353705 -0.0655629 -0.15515408
0001f0 0e ce fb bd e2 6a 87 bd 08 c1 82 bd 0e a0 77 bd
       -0.12295161 -0.06612183 -0.06384474 -0.060455374
000200 13 af 4d bd 23 4e f0 bb 9b ba 8e bc 74 16 01 3d
       -0.050215792 -0.0073335334 -0.017422965 0.031515554
000210 27 46 28 3d c1 c9 21 3d ec 91 35 bc 01 34 c0 3d
       0.041082527 0.03949905 -0.011082154 0.09384919
000220 57 81 97 bd f0 e9 bc bd 27 c3 06 bd f4 52 f0 bc
       -0.073977165 -0.092243075 -0.032900956 -0.02933643
000230 8f 49 b3 bd ee bd a8 3c f4 a6 44 3c 00 10 50 38
       -0.087542646 0.020598378 0.012002695 4.9605966e-05
000240 e8 7a ab 3d 0e bf d1 3d 38 22 92 bc a1 55 91 bd
       0.08373052 0.10241519 -0.017838582 -0.070964105
000250 2f bc 8e bc c0 70 81 bd 43 19 40 bb 21 9e bc bd
       -0.017423717 -0.063203335 -0.0029311932 -0.09209848
000260 54 7d 09 3c b2 e4 f2 3c fa 57 fd bc 4b 42 ca 3d
       0.008391697 0.029650066 -0.03092574 0.09875926
000270 55 da ce bc 3e f4 18 3d 4c c8 a2 3d 2b 9c 76 3d
       -0.025250593 0.037342303 0.0794836 0.060207527
000280 66 ba 74 bd d1 34 20 bd d6 54 bb 3c 72 ca b5 bd
       -0.059748076 -0.03911287 0.022867601 -0.08876504
000290 7c e5 9b 3d 80 fd 6a 3d c3 96 a2 bd e3 4b a3 3c
       0.0761213 0.057370663 -0.07938912 0.019933647
0002a0 7f 6c db bc d8 b5 4a 3d 03 5d e0 bd 9d b4 c7 3b
       -0.026785133 0.049489826 -0.109552406 0.006094529
0002b0 8f bc 45 bd 15 ba 1d bd 4f c0 95 3d 5a f2 9f bd
       -0.048275527 -0.03850754 0.073120706 -0.07809897
0002c0 1c 12 86 bc 90 1c dc bc 89 72 74 bb 7e 45 ef 3c
       -0.016366057 -0.026869088 -0.0037299714 0.029207941
0002d0 3e e2 c6 3c 05 be 09 3d ad f8 9c 3d 24 7c d1 3d
       0.024277803 0.033628482 0.07664619 0.10228756
0002e0 25 f8 87 3d a2 ca af bd e2 6f 7b bc b1 65 85 bd
       0.06639127 -0.08583571 -0.015346499 -0.06513537
0002f0 8d 37 5b bd 18 17 9b bd 81 ef e0 bc 65 f0 3f be
       -0.053519774 -0.07572764 -0.027457954 -0.18744047
000300 5c 22 34 be de fa 3f be d6 1c 6b 3d 90 02 66 bd
       -0.17591232 -0.18748042 0.057400547 -0.056154788
000310 3b b4 ad bc d1 92 33 bd 4b 70 17 bd da 2b 71 bd
       -0.021204105 -0.043841187 -0.036972325 -0.05887971
000320 1a 21 d2 3d 80 65 c0 bc 06 ad 2a bd 84 43 2e 3d
       0.1026022 -0.023485899 -0.041668914 0.042544857
000330 00 c8 d6 b8 df eb 3e bd ec b8 82 bd fd 4f 82 bd
       -0.00010241568 -0.046611663 -0.06382927 -0.06362913
000340 d3 ba 19 3d f3 07 19 3d c3 4e ff bc 85 6c 6e bd
       0.037531685 0.037361097 -0.031165486 -0.05820896
000350 80 eb 3b 3b 13 83 dc bc d4 d9 71 3d 16 b7 a2 bc
       0.0028674304 -0.02691797 0.059045628 -0.019862693
000360 07 56 14 3d 10 ac 02 3c 85 bd 4e bd 97 09 2d 3d
       0.036214855 0.007975593 -0.05047371 0.042245474
000370 e6 5e 93 bd 5c 61 0b 3d 36 12 bd bd bd 50 b1 bd
       -0.07195835 0.034028396 -0.09231989 -0.08657978
000380 e4 52 8e bc 5b a4 20 3d b1 9d 72 be dd 90 f1 bd
       -0.01737351 0.03921924 -0.23692967 -0.117952086
000390 04 7a f3 bc 2a ab 06 be 3b d1 44 be 34 a9 5f 3c
       -0.029721268 -0.13151231 -0.1922044 0.013651181
0003a0 d1 32 8a bd b8 5a 43 bd 12 48 82 3c b7 ce 0e 3d
       -0.06747974 -0.047693938 0.015903506 0.034865107
0003b0 b0 c9 99 bd 88 b8 b6 bd 67 bf e1 3c 40 56 ea 3a
       -0.07509172 -0.08921915 0.027557088 0.0017878488
0003c0 88 87 b9 bc d4 39 0c be 2c 51 4a bd 30 e8 b1 3c
       -0.022647634 -0.13693935 -0.049393818 0.021717161
0003d0 b9 da db bc c1 8f 84 bc cb 35 72 bd 11 8f 2a 3d
       -0.026837694 -0.016181828 -0.059133332 0.041640345
0003e0 6b de b4 bd 6f 15 05 bd df e5 b8 bc 11 94 ef bc
       -0.08831485 -0.032491144 -0.022570549 -0.029245408
0003f0 b5 42 0c 3d 24 94 ff 3c 95 51 2c bc 5f 0a 97 bd
       0.034243304 0.031198569 -0.010517498 -0.07375025

network.4.bias f4 [128]
000000 65 b4 a1 bd 4a 6f af be 53 9b e7 bd 34 b9 8c bd
       -0.07895736 -0.34264594 -0.113089226 -0.06871262
000010 e1 ab 13 be 38 91 d7 bd 56 b1 73 3e f2 7d 64 be
       -0.14421035 -0.10525745 0.23798117 -0.2231367
000020 7f 2d bf bd c8 fb d5 bd 65 97 0d bd be a4 48 bd
       -0.093348496 -0.10448414 -0.03456821 -0.048985235
000030 d2 26 f1 bd 4c af 77 3d 55 a8 d4 bd b3 dd 95 be
       -0.117749825 0.06046991 -0.10383669 -0.29270706
000040 c6 78 1f be ee 5b fc bd 45 6e 03 be b0 ad 1e be
       -0.15573415 -0.12322222 -0.12835033 -0.15495944
000050 ee b9 0f be c9 18 29 be e6 82 11 be 76 b0 23 bd
       -0.1403577 -0.16513361 -0.1421009 -0.03996321
000060 07 93 d1 bd 5e ca 4b be a6 d2 39 be 05 08 44 be
       -0.10233121 -0.19901416 -0.18146762 -0.19143684
000070 fd f9 73 3f 4f 88 e1 bd d8 60 5f be 7d 0e 7a be
       0.95303327 -0.11012327 -0.21814287 -0.2441959
000080 6f 6b b3 bd 8a 0f ab bd d5 7d fd bd 88 36 7b be
       -0.08760726 -0.08352573 -0.12377516 -0.24532521
000090 1f d2 0e be 6a 9a b8 bd d8 a3 0b be 75 75 da bd
       -0.13947342 -0.09013827 -0.1363672 -0.106669344
0000a0 36 4e d3 bd 06 48 28 be 9a 0f f1 bd 1b 33 c2 bd
       -0.10317652 -0.16433725 -0.11770554 -0.09482404
0000b0 01 5e 80 3b f5 77 18 be 35 78 bd bd a1 90 83 bd
       0.003917456 -0.1488951 -0.09251443 -0.0642407
0000c0 8f 2d b8 bd 2d f6 66 3e 7c d2 87 bd 4f 1f 7f be
       -0.089930646 0.22554846 -0.066319436 -0.24914287
0000d0 55 b0 18 bd de f6 68 be a0 85 0d be 40 87 a5 bc
       -0.03727754 -0.22750422 -0.13820505 -0.020206094
0000e0 8d 04 69 be 4b 38 87 be 2b ff ed bd 60 68 42 3e
       -0.22755642 -0.26410136 -0.11620935 0.18985128
0000f0 82 5f 4f be 85 f2 cc bd c4 bb 8b be 15 17 bc bd
       -0.20251277 -0.100071944 -0.2729169 -0.0918409
000100 3b 48 2f be 86 24 49 be 05 e2 3f be 2e 5e d0 bd
       -0.17117397 -0.19642839 -0.18738563 -0.10174213
000110 67 ad 2f bd e4 cb 07 bd 0f f0 24 be 7f 43 06 bc
       -0.04288998 -0.03315343 -0.161072 -0.008194803
000120 1e 30 9b be d1 8b 13 be 2a 98 ff bd 96 45 ed bd
       -0.30310148 -0.14408804 -0.12480195 -0.11585538
000130 f5 8b 69 3e 4d c4 2d bd 0f a9 22 3c 79 64 80 be
       0.22807296 -0.042423535 0.009928002 -0.25076655
000140 42 42 35 be e8 4d 7c bd a4 44 77 be d9 e6 f0 bd
       -0.17701057 -0.061597735 -0.24147278 -0.11762781
000150 3f 6f cf 3e 9d a2 2e bd aa ae c1 bd d6 16 b9 bd
       0.40514562 -0.04263555 -0.09457143 -0.09037559
000160 c7 e7 12 be c2 56 d8 bd ae 22 0d be 56 50 53 bd
       -0.14346229 -0.10563423 -0.1378276 -0.051590286
000170 82 42 ff bd 95 5c b3 bc b3 30 79 be 9c 55 64 be
       -0.12463857 -0.021894732 -0.24334984 -0.22298282
000180 79 af df bc 4e 05 04 be 81 75 1e be 40 cc 8f bd
       -0.027305352 -0.12892649 -0.15474512 -0.070213795
000190 41 03 09 be 27 7b 53 bd f9 31 6e be 19 c1 a2 bd
       -0.13380148 -0.05163112 -0.2326125 -0.07946987
0001a0 a4 31 89 bd b0 28 2a be 17 4e 80 3e 1c 2a 1c be
       -0.06698921 -0.16617084 0.25059578 -0.15250438
0001b0 23 47 31 bd 01 d7 ad 3e 16 1c 87 bd d7 5d aa bd
       -0.043280732 0.33953097 -0.06597154 -0.0831868
0001c0 34 ff d8 bd 98 08 8c bd bc 43 a7 bd 75 ff 39 be
       -0.10595551 -0.06837577 -0.08167216 -0.18163855
0001d0 fb eb cb bd 66 6b 10 be 6c a6 6b bd 74 3d 1a be
       -0.09957119 -0.14103469 -0.05753176 -0.15062505
0001e0 dc be 47 bd 76 41 4c 3f 29 f2 6d be bd 12 8d be
       -0.048766002 0.79787385 -0.23236908 -0.2755336
0001f0 54 63 c6 be f4 5f 33 be 96 f8 36 be 17 de 29 be
       -0.38747656 -0.17517072 -0.17868266 -0.16588627

network.6.weight f4 [12, 128]
000000 29 6f 2f 3e 0e 10 49 3d f2 be 9e 3c dd 33 ae 3d
       0.17132248 0.049087577 0.01937816 0.08505986
000010 0c 7f de bb 2c 9c b8 3d 2e 34 b4 be 58 1a 6b 3e
       -0.0067900475 0.090141624 -0.3519606 0.22959268
000020 61 61 1f be fb dc 81 bb f1 cb aa bd e8 70 03 3c
       -0.15564491 -0.0039631105 -0.0833968 0.008022524
000030 06 4b 4b 3d 11 36 44 bd 73 f2 fe bd a5 c8 8c 3d
       0.049632095 -0.047903124 -0.12448587 0.068742074
000040 f6 ad 01 3c b4 87 59 3c 83 25 51 bd 88 f6 2a be
       0.007915011 0.013276983 -0.051061165 -0.16695607
000050 bd 0c 6d 3d d6 6f 07 3d f9 40 72 3e a5 03 9f 3d
       0.057873476 0.03306564 0.23657598 0.07764367
000060 27 e5 6a 3c 04 e4 4a 3d d2 d7 51 be 99 be 3d be
       0.014336861 0.04953386 -0.20492485 -0.18529738
000070 bf 39 22 bd c4 3d 30 3e 6c b7 ce bd c2 cb 17 bd
       -0.039605852 0.17211062 -0.10093579 -0.037059553
000080 9c 67 09 3d 61 c9 5b bd 62 15 b7 3d c3 33 98 3e
       0.033546075 -0.053658847 0.08939625 0.2972699
000090 e9 cd 37 3e 88 8f 06 bc cf f0 95 3d 48 4b b7 bc
       0.17949642 -0.008212931 0.07321321 -0.022374764
0000a0 ad b1 86 3d d1 04 2c be bf 2d 14 3e a9 cd 01 3d
       0.06576858 -0.16798712 0.14470576 0.031690273
0000b0 a8 73 f5 3d ed db 8b bd 4b ea ae 3e fe 7a 82 bd
       0.1198495 -0.06829057 0.34163126 -0.06371115
0000c0 71 f7 1e 3e 0a d8 c3 be b3 d3 70 bd 3d f2 83 3c
       0.15524079 -0.38250762 -0.058795642 0.01610672
0000d0 ca 43 2d 3e e3 19 f3 3d 7a c6 84 3d 44 e4 59 3e
       0.1692039 0.11870172 0.06483169 0.21278483
0000e0 05 da a0 bd ae 49 78 3d 41 08 04 bc 83 93 0a be
       -0.07854084 0.06061714 -0.0080586085 -0.13532834
0000f0 a1 1d e1 3d b0 e7 46 3e 2d 6d 5b bd 19 d7 97 3c
       0.109919794 0.1942432 -0.053570915 0.018535184
000100 fb 6a 8f bd 3f 74 ef 3d d7 de af 3d 54 03 aa 3d
       -0.07002827 0.11692094 0.08587425 0.08301416
000110 50 2b 92 3c 48 8d e8 3c 79 01 bb bd 92 a8 02 3e
       0.017842919 0.02838768 -0.0913114 0.12759617
000120 69 eb 51 3d 32 33 9c be e4 76 23 bc 0a db 17 3e
       0.051249895 -0.3050781 -0.009977076 0.1482965
000130 d5 97 41 bd 7d 9e 5b bd ba ae 59 3d 6b d1 9a 3d
       -0.04726394 -0.053617943 0.053145148 0.075594746
000140 d7 23 49 3e c0 85 95 bd 7e 16 30 3d d8 fb 59 bc
       0.19642578 -0.073009014 0.0429902 -0.013304673
000150 60 ad 64 be 7f 8a 81 3d 8f 9d 85 3d 1b 1b ad 3d
       -0.22331762 0.06325244 0.065241925 0.084524356
000160 46 10 16 3e 0e 57 15 3c cb b0 79 bd 8c 11 e7 3c
       0.14654645 0.009114994 -0.06095962 0.02820661
000170 c9 6b 40 3e 21 54 2c bd 48 f4 a8 bd a1 1a 33 be
       0.18791117 -0.04207242 -0.08249718 -0.17490627
000180 e8 f6 02 3e ec 2b dd bd fd 03 39 3d 13 01 91 3e
       0.127895 -0.10799393 0.04516982 0.28321132
000190 85 99 33 bc 7a 9a 21 3c f3 11 27 bd ee 73 0b 3e
       -0.010961895 0.00986349 -0.040788602 0.13618442
0001a0 df ac c1 3c 8c 12 f8 3d 2d e7 34 be 4c 0f ba 3d
       0.023642002 0.121129125 -0.17666312 0.09084949
0001b0 c0 4c ae 3c 7f 37 0e be 4d 97 1e bd f3 43 85 3d
       0.021276832 -0.13888358 -0.03871851 0.06507101
0001c0 09 05 a0 3d c7 64 38 be e0 70 a6 3d cc 1f 65 3e
       0.078134604 -0.18007194 0.08126998 0.22375411
0001d0 38 5d 52 bc 41 92 86 3d 1e db 40 3d b9 a7 a3 b9
       -0.012839608 0.065708645 0.047083966 -0.00031214746
0001e0 35 e4 b7 3c 65 bc f9 bc 0e a7 14 bf d6 a7 ab bd
       0.022447685 -0.030485341 -0.58067405 -0.083816215
0001f0 35 0e 91 bd e3 8f 97 3d d1 ef 45 bd aa c8 ce bc
       -0.07082788 0.07400491 -0.04832441 -0.025242168
000200 95 9a b6 3c 49 d3 b1 bd c2 4f 4c bc 47 59 fd 3c
       0.022290507 -0.086828776 -0.012470188 0.03092636
000210 7a 27 c2 bd 01 78 9a 3d 92 73 59 bd 44 b2 2b 3c
       -0.09480186 0.0754242 -0.053088732 0.010479514
000220 b2 b2 df 3c fa 1d ac 3e 06 87 08 be ac 8f 8f 3c
       0.027306888 0.3361662 -0.13332757 0.017524563
000230 36 00 74 3d c9 17 64 3d ed cd c7 bc 85 2d db 3d
       0.059570514 0.055686746 -0.024390185 0.107020415
000240 77 4b 6b bb cd af e3 bd c6 2a cd be 5c 0f 2a 3d
       -0.0035903135 -0.11117516 -0.40071696 0.041518554
000250 7a c4 95 bc ac e0 3b 3c 5c 0e 64 bd d1 75 18 3c
       -0.018282164 0.01146714 -0.055677757 0.009305433
000260 7b a7 33 3d 20 16 fb 3c 69 94 89 3e f9 be dd bd
       0.043860894 0.030650198 0.2687104 -0.10827441
000270 4e 56 ab be 66 36 74 3d 64 59 4c be 50 6f 01 bd
       -0.33464283 0.05962219 -0.19955975 -0.031600296
000280 a9 ce 75 3d 75 f1 0c bd 08 0d 10 3d d8 2f 3d bd
       0.06001154 -0.03440996 0.035168678 -0.046188205
000290 11 e3 15 bd 2c f3 b5 bd 6f 0d f0 3d b1 80 3d 3d
       -0.0365935 -0.08884272 0.11721312 0.046265308
0002a0 64 1c d5 3d 16 71 98 bc 52 b2 ab 3d 7c 5e c9 bb
       0.10405806 -0.018608611 0.08383621 -0.0061452966
0002b0 19 24 80 3e 7f 4b 88 3d f8 0f d7 bd 1b 44 d6 3d
       0.2502754 0.06655025 -0.10501093 0.10462209
0002c0 0c 84 46 3e b9 b7 60 be 60 72 16 bc 48 f2 27 3e
       0.1938631 -0.21945085 -0.009182543 0.16401017
0002d0 01 8b e8 bd 80 d3 05 3d 7d 5c bf 3d 50 5a 2e be
       -0.11354638 0.032672405 0.093438126 -0.17026639
0002e0 47 9f ad bd 74 90 25 bd 32 c2 ea 3d 4b 94 17 be
       -0.08477645 -0.040420964 0.11462821 -0.14802663
0002f0 f8 bf df 3b b9 78 91 be f1 77 bc bd 85 bb 02 bd
       0.0068283044 -0.28412417 -0.092025645 -0.031917114
000300 25 2b 0a bd ce d6 7a bd f9 95 ff 3d 17 27 ce bd
       -0.033732552 -0.06124001 0.12479777 -0.100660495
000310 bc bd c2 bc 4c 82 d8 3d be 95 80 3d 04 9f 2e 3e
       -0.023772113 0.10571727 0.06278561 0.17052847
000320 b6 0f 4c 3a 8f 53 f5 bd de a1 91 3c 8c 29 13 3e
       0.00077843235 -0.11978828 0.01777738 0.14371318
000330 be 5a bb bb 0c a5 cc 3b fd 47 a2 bd 28 7d b6 bd
       -0.0057176044 0.006245261 -0.07923887 -0.089105904
000340 2d af 12 3d 32 35 03 3d 31 8d 01 3d 4a d9 78 3d
       0.035811592 0.032033153 0.03162879 0.060754098
000350 5a 5f 80 be 65 7f e7 3b 4d 31 ec 3c 7f cb a2 3c
       -0.25072747 0.007064747 0.028832102 0.019872425
000360 59 f3 7e 3e fa 57 00 3e 37 5a 30 3d 99 25 c6 bd
       0.24897517 0.1253356 0.043054786 -0.0967514
000370 1e ec 86 3d 88 e3 ab bc ba cc 0e 3e 7c e3 0e bc
       0.065880045 -0.020982519 0.13945284 -0.008721229
000380 d0 a9 da 3c 79 d2 d5 3d a8 f5 0a 3c a8 47 c7 bd
       0.026692301 0.10440535 0.008481421 -0.09730464
000390 82 cc ad 3d 61 48 c3 bd 3d 1f be 3d b7 fd 3c 3b
       0.084862724 -0.095352896 0.09283302 0.002883775
0003a0 bb 64 08 3d 0e 2f 24 3e e6 0b 8e 3d 90 f2 68 bd
       0.03329919 0.16033575 0.06935863 -0.05687195
0003b0 cd 6f 80 3c fc aa 36 be 5a 31 8d 3c 0a e3 6e 3d
       0.01567831 -0.17838663 0.017235447 0.05832199
0003c0 ed be e7 3c 30 c6 ac bd 11 d1 f4 3d 1c 83 f4 3d
       0.028289283 -0.08436239 0.11953939 0.1193907
0003d0 f9 21 08 bb c8 54 d4 bc 02 ca 49 bd ce fd e2 3d
       -0.0020772202 -0.025919333 -0.049264915 0.11083566
0003e0 eb e7 a7 bb 87 f3 a2 be 9f a5 91 3b c6 bf 78 be
       -0.0051240823 -0.31826422 0.0044447924 -0.24291906
0003f0 36 a6 72 3c 76 51 26 bd 21 32 eb 3d 4e 29 90 bd
       0.014810136 -0.04060503 0.11484171 -0.07039128

network.6.bias f4 [12]
000000 05 c5 d0 be e1 52 cb be 02 fb e3 bd 86 7a 81 be
       -0.40775314 -0.3971167 -0.1113186 -0.2528879
000010 8f 03 24 bd a3 90 60 be 89 66 99 be e3 1c 50 bf
       -0.040042456 -0.21930175 -0.2996104 -0.8129408
000020 d4 83 5b bf 82 9c 91 be 50 ae 61 3e db dc 3d 3e
       -0.8574803 -0.28439718 0.22039151 0.18541281
