model/DQNAgent3_20-08-2022__19-40-34.pth/DQNAgent3_20-08-2022__19-40-34_iter_30.pth (torch, 149249 bytes, 12 tensors)

network.0.weight f4 [64, 13]
0	0xbeb3d46c	-0.35123003
1	0xbd8f8506	-0.07007794
2	0x3ed5c64a	0.41752845
3	0xbe7ef344	-0.24897486
4	0x3d3e03a7	0.046390202
5	0xbe8aa80f	-0.27081344
6	0xbd400fe0	-0.04689014
7	0x3dc095a4	0.09403542
8	0x3d836325	0.06415395
9	0x3d48cf6d	0.04902594
10	0x3e08925d	0.13337083
11	0xbc564e96	-0.01308026
12	0xbe9fdfa4	-0.31225312
13	0x3ef4e6b0	0.4783225
14	0x3c8f5819	0.017498063
15	0x3e1fb283	0.1559544
16	0xbedaee60	-0.4275999
17	0xbf3c14b7	-0.7346911
18	0x3eae3f57	0.340327
19	0xbdb12339	-0.08649296
20	0xbd96dbcc	-0.07366142
21	0xbe201932	-0.15634611
22	0xbea6fb1b	-0.32613453
23	0x3cd15c1b	0.025556615
24	0x3ed0e286	0.40797824
25	0x3eb471cf	0.3524308
26	0x3d0759f2	0.033044763
27	0xbe4b907d	-0.19879337
28	0x3b76d58e	0.003766391
29	0x3dbb21a0	0.09137273
30	0x3e04bcb1	0.12962605
31	0xbde601fb	-0.112308465
32	0xbc447d87	-0.011992819
33	0xbe8cc675	-0.2749516
34	0xbeb0c7d1	-0.34527448
35	0x3df767bd	0.120803334
36	0xbca9bf81	-0.020721199
37	0x3dd9ce4a	0.1063505
38	0xbe958a56	-0.29207104
39	0x3d0d6c60	0.034527183
40	0x3d79883d	0.060920943
41	0x3eac065c	0.33598602
42	0xbe744c09	-0.2385713
43	0x3d87b010	0.06625378
44	0x3e240e3a	0.16021052
45	0xbe303e2f	-0.17211221
46	0x3e340b9b	0.17582552
47	0x3dbcbbf7	0.09215539
48	0xbee9bca6	-0.4565174
49	0xbee1bb61	-0.4408827
50	0xbe839b1c	-0.25704277
51	0xbe4845d6	-0.1955789
52	0xbe585e67	-0.21129762
53	0xbcfba673	-0.030719018
54	0xbde4f76d	-0.11180005
55	0x3d9ecbd8	0.07753724
56	0x3e6cd0fd	0.23126598
57	0xbe6e49c2	-0.23270324
58	0x3da5a485	0.0808802
59	0xbe691e9d	-0.22765584
60	0xbdbaf99a	-0.09129639
61	0x3d89a4db	0.06720897
62	0xbdc7f186	-0.09762864
63	0x3d634d6b	0.055493753
64	0x3d87fc6b	0.06639942
65	0x3e06a31a	0.13148156
66	0x3bb0764e	0.005385197
67	0xbe4077eb	-0.18795745
68	0x3ddbb8d8	0.107286155
69	0x3e06d73f	0.13168047
70	0xbeac1a6f	-0.33613917
71	0xbd323776	-0.043509923
72	0xbe9c1820	-0.30487156
73	0xbdcef9d0	-0.10106242
74	0x3e2eac3c	0.1705789
75	0xbe87ebcd	-0.2654709
76	0xbcfc609b	-0.030807784
77	0x3e51e4ee	0.20497486
78	0x3e18d5ce	0.1492531
79	0x3e87f0c1	0.26550868
80	0x3e12339a	0.14277497
81	0x3e6306b8	0.22170532
82	0x3eec4977	0.461498
83	0x3e422c4b	0.18962209
84	0xbe7348b2	-0.237582
85	0x3e8540e5	0.26026073
86	0x3d603d21	0.054745797
87	0x3c84cc0d	0.01621058
88	0x3e94e9ab	0.29084525
89	0x3d3eb742	0.046561487
90	0x3e55152b	0.20808856
91	0x3d84420b	0.06457909
92	0x3c71cd3e	0.014758406
93	0x3e009bf3	0.1255949
94	0xbe597186	-0.21234712
95	0xbed28273	-0.4111515
96	0xbe3b692a	-0.18301836
97	0xbeeb29c0	-0.4593029
98	0xbe5d5edd	-0.21618219
99	0xbea15c48	-0.31515718
100	0xbee7e9a4	-0.4529544
101	0x3cc29680	0.023753405
102	0xbed0c994	-0.40778792
103	0xbd4abbc9	-0.049495492
104	0x3e7e9d20	0.24864626
105	0xbc8173e7	-0.015802337
106	0xbe981115	-0.29700533
107	0x3d9c9fea	0.07647689
108	0x3f4fead0	0.8121767
109	0xbd7e7ec0	-0.062132597
110	0x3e43cb9b	0.19120638
111	0x3e8eecc8	0.27915025
112	0x3d16d245	0.036821622
113	0x3ea7cc69	0.3277314
114	0xbcd21cdf	-0.025648532
115	0xbdeac03a	-0.114624456
116	0x3dd96e1b	0.10616704
117	0xbed04c2b	-0.40683112
118	0xbe5d35ee	-0.21602604
119	0x3d1ba35d	0.037997592
120	0xbec03ec3	-0.37547883
121	0xbe4f6b32	-0.20255736
122	0xbe86cee5	-0.26329723
123	0xbf082840	-0.53186417
124	0xbe887d38	-0.26658034
125	0xbe06535e	-0.1311774
126	0xbd4d4f8a	-0.050124682
127	0xbc735fb7	-0.014854363
128	0xbddd3bc5	-0.10802416
129	0xbda46c11	-0.080284245
130	0xbd31d38d	-0.04341464
131	0xbe851aa3	-0.25996885
132	0x3dc96f67	0.098357014
133	0xbe3a1681	-0.18172647
134	0xbe9c0f90	-0.30480623
135	0xbeb56c9d	-0.35434428
136	0xbd2f803e	-0.04284691
137	0xbe967a7f	-0.29390332
138	0xbd737031	-0.059433166
139	0xbeebd6aa	-0.46062213
140	0xbddac794	-0.10682598
141	0xbeaef62c	-0.3417219
142	0xbe133026	-0.14373836
143	0xbd8e79a4	-0.06956795
144	0xbeeb1784	-0.45916378
145	0xbd473654	-0.048635796
146	0xbe6faaa8	-0.23404944
147	0xbe0ea1d6	-0.13928923
148	0xbeb02c42	-0.34408766
149	0xbe492376	-0.19642434
150	0xbedb7c82	-0.4286843
151	0xbedbde62	-0.42943102
152	0x3d81857d	0.06324289
153	0xbef783cb	-0.48342738
154	0xbd88578e	-0.06657325
155	0x3d87dde5	0.0663412
156	0x3d4cd0ad	0.050003696
157	0xbe6084a5	-0.219256
158	0x3df9e695	0.12202183
159	0x3d87e12d	0.06634746
160	0x3db7f74f	0.08982717
161	0xbda48192	-0.08032526
162	0xbe115004	-0.1419068
163	0x3e12f011	0.1434939
164	0xbe2b2526	-0.1671339
165	0xbd23e589	-0.040013824
166	0xbe2a67f7	-0.16641222
167	0x3e08be19	0.13353767
168	0xbd4e7e3b	-0.05041335
169	0x3d6cf71d	0.057852853
170	0x3e0f4719	0.13991965
171	0xbdfdab68	-0.12386209
172	0xbe19f0b7	-0.15033232
173	0xbe8cc6b4	-0.27495348
174	0xbe97a780	-0.2961998
175	0x3d233d77	0.03985354
176	0xbe973b00	-0.295372
177	0xbdc60a04	-0.09669879
178	0x3df0ff74	0.11767474
179	0xbdc42be6	-0.095786855
180	0xbbfdc2b2	-0.0077441568
181	0x3d8390b2	0.06424083
182	0xbd1c42c9	-0.03814963
183	0x3eeff403	0.46865854
184	0xbdd8068c	-0.10548124
185	0x3e86e439	0.26345995
186	0x3e2fce2b	0.1716849
187	0xbc50e4fb	-0.012749906
188	0xbeb8f803	-0.36126718
189	0xbeadad8f	-0.33921477
190	0xbebf3a31	-0.37349084
191	0xbe35f328	-0.17768538
192	0x3d4c8673	0.04993291
193	0xbdf99feb	-0.12188705
194	0xbeb7a2b6	-0.35866326
195	0xbed49b6c	-0.41524827
196	0xbe329e1d	-0.17443128
197	0x3a51c0e2	0.0008001459
198	0x3e356d57	0.17717491
199	0x3e375f60	0.17907476
200	0xbeb96519	-0.36209944
201	0xbe07e15b	-0.1326956
202	0x3e351efe	0.17687604
203	0x3ccc0dd7	0.024908943
204	0x3e35c650	0.17751431
205	0xbe5d8505	-0.21632774
206	0xbcdf833e	-0.02728426
207	0xbda4b847	-0.080429606
208	0xbe48555b	-0.1956381
209	0xbe2b109c	-0.16705555
210	0x3c08342a	0.008313218
211	0xbef1f695	-0.4725844
212	0xbeb4d0e6	-0.35315627
213	0xbd0565c2	-0.032567747
214	0xbd60143a	-0.05470679
215	0xbdea5bde	-0.114433035
216	0xbec8ce4c	-0.39219892
217	0xbe730555	-0.23732503
218	0x3cad6505	0.021166334
219	0xbe02faf5	-0.12791045
220	0xbb532e34	-0.0032223584
221	0x3e6a9935	0.22910006
222	0xbe4cc8ff	-0.19998549
223	0x3e61fa86	0.22068223
224	0x3c99adab	0.01875957
225	0x3dafd214	0.08584991
226	0x3ce78acb	0.028264424
227	0x3c2bf6fa	0.0104958955
228	0xbd0c0351	-0.03418285
229	0x3ecff3e3	0.40615758
230	0x3eec72d5	0.4618136
231	0xbd3efdde	-0.046628825
232	0x3ed773f4	0.42080653
233	0x366ec64d	3.558019e-06
234	0xbe16acda	-0.14714375
235	0x3e82bc85	0.25534454
236	0xbe0380d3	-0.12842111
237	0xbddb7ba9	-0.10716946
238	0xbd9e1e86	-0.07720666
239	0xbe0d3524	-0.13789803
240	0xbe36893c	-0.17825788
241	0xbe714b9a	-0.23563996
242	0xbede9ffa	-0.43481427
243	0xbefaf493	-0.4901472
244	0xbe659495	-0.22419961
245	0xbe2e948c	-0.17048854
246	0xbdc25208	-0.094883025
247	0xbdb716e7	-0.08939915
248	0xbec1ed61	-0.37876418
249	0x3e8702c4	0.26369298
250	0xbdfca472	-0.12336053
251	0x3db08716	0.086195156
252	0xbdc874f2	-0.097879305
253	0xbebe73cd	-0.37197724
254	0x3c4cb17d	0.012493488
255	0x3d1ed8da	0.038781025

network.0.bias f4 [64]
0	0xbdacb436	-0.0843281
1	0xbd951e66	-0.07281189
2	0xbe371346	-0.17878446
3	0x3d9b897c	0.075945824
4	0xbce90c58	-0.028448269
5	0x3ddb8029	0.10717804
6	0x3e8ccc3a	0.27499563
7	0xbdc9fbc5	-0.09862474
8	0x3c4cbfe2	0.01249692
9	0xbe0872c8	-0.13325036
10	0xbec7458f	-0.38920256
11	0xbe53aff0	-0.20672584
12	0x3d99917e	0.074984536
13	0xbe91cbe2	-0.28475863
14	0x3d134d16	0.035962187
15	0xbb382cec	-0.0028102947
16	0xbe8c0d65	-0.2735397
17	0x3ea77c44	0.32711995
18	0xbe80f1c6	-0.25184458
19	0x3dae94e6	0.08524494
20	0x3d4bb47d	0.049732674
21	0xbeccf97c	-0.4003409
22	0xbe98c951	-0.29841092
23	0xbe2305ca	-0.15920177
24	0xbeabebf2	-0.3357845
25	0xbd86307f	-0.06552219
26	0x3e1f519b	0.15558474
27	0x3cf6c610	0.03012374
28	0xbdc77532	-0.0973915
29	0xbd3696f4	-0.044577554
30	0xbdaff53a	-0.08591695
31	0x3d15e1b3	0.036592197
32	0xbdd228b8	-0.10261673
33	0xbd4cd021	-0.050003175
34	0xbed27212	-0.41102654
35	0x3e2685d2	0.16261986
36	0x3e17fad0	0.14841771
37	0x3e7b17bc	0.24520773
38	0x3db8809a	0.09008904
39	0x3e15794e	0.14597055
40	0x3d3f31ef	0.04667848
41	0x39e05400	0.00042787194
42	0xbe393635	-0.18087085
43	0xbe520459	-0.20509471
44	0x3dc45884	0.095871955
45	0x3ec0430b	0.3755115
46	0xbe2ae9b5	-0.16690715
47	0xbbd849e1	-0.006600604
48	0xbcb772c0	-0.022393584
49	0x3e3d08a6	0.1846033
50	0xbe56e9d8	-0.20987642
51	0x3e026be8	0.12736475
52	0x3d01f179	0.031724427
53	0xbe39305f	-0.18084858
54	0x3e16af13	0.14715223
55	0x3d4cd23b	0.05000518
56	0xbeb1120b	-0.34584078
57	0x3c7e5edc	0.015525546
58	0xbb070800	-0.0020604134
59	0xbd110cc8	-0.03541258
60	0xbdb43667	-0.08799439
61	0xbcb9eadd	-0.022695
62	0x3e7bd8cf	0.24594425
63	0xbe246e57	-0.16057716

network.2.weight f4 [128, 64]
0	0x3d177dcc	0.036985204
1	0x3e5c8750	0.21535993
2	0xbda83c9b	-0.082146846
3	0xbe9e17ae	-0.3087744
4	0xbdfae4f7	-0.12250703
5	0x3d34238f	0.043979224
6	0xbe0e5647	-0.139001
7	0x3e4fe0bf	0.20300578
8	0xbdfde782	-0.12397672
9	0xbdfc4e51	-0.12319625
10	0xbe8df259	-0.2772396
11	0xbd87a4d8	-0.06623238
12	0x3d1db483	0.038502228
13	0x3d03a511	0.03213984
14	0xbdc6ddbc	-0.09710261
15	0xbe1102e4	-0.14161259
16	0xbd568a09	-0.052377734
17	0x3d2a8f60	0.04164064
18	0x3cd6450a	0.026155967
19	0xbd8d7fff	-0.06909179
20	0xbdb018d6	-0.08598487
21	0xbd61c07c	-0.055115208
22	0xbd3a1a42	-0.045435198
23	0x3daf44b4	0.08558026
24	0xbe06f221	-0.13178302
25	0x3d9df154	0.07712045
26	0x3c25d29a	0.010121012
27	0x3da2480c	0.07923898
28	0x3df52604	0.119701415
29	0x3d457eb0	0.04821652
30	0xbdffb71e	-0.12486099
31	0xbd6789be	-0.056527846
32	0xbd8e21bc	-0.06940028
33	0xbe24d946	-0.16098508
34	0xbd61286a	-0.054970182
35	0x3d8dd9ae	0.06926285
36	0xbd768758	-0.060187668
37	0xbd26006c	-0.040527746
38	0xbd94505f	-0.07241892
39	0x3d3069e0	0.04306972
40	0x3d71c899	0.059029195
41	0xbcb417d8	-0.021984026
42	0xbda1f6dd	-0.079084136
43	0x3d469498	0.048481554
44	0x3a2e8600	0.0006657541
45	0x3e5732a3	0.2101541
46	0xbe07cc19	-0.13261451
47	0xbde42aa7	-0.11140948
48	0xbdf8c782	-0.12147428
49	0xbda8a028	-0.082336724
50	0xbc91e9cc	-0.017811678
51	0xbe094092	-0.13403538
52	0x3d0091a6	0.0313889
53	0x3dd22508	0.102609694
54	0xbe0eca14	-0.13944274
55	0xbded090f	-0.115739934
56	0x3cc13298	0.023583695
57	0xbcf1e330	-0.029527277
58	0x3daad748	0.08341843
59	0x3d66b42a	0.05632416
60	0x3dc5cf02	0.09658624
61	0x3d054f7d	0.03254651
62	0xbdfb87b4	-0.12281743
63	0x3d191165	0.037370104
64	0xbbffa0a6	-0.007801133
65	0xbe7285d5	-0.23683865
66	0xbd90daf3	-0.07073011
67	0x3d8c16e0	0.068403006
68	0xbd667773	-0.05626626
69	0xbd6dcc4d	-0.058056165
70	0xbdd593d5	-0.10428587
71	0x3cbd3070	0.023094386
72	0xbcc737f0	-0.024318665
73	0x3cfeee71	0.031119557
74	0x3d94cb46	0.07265334
75	0xbde303d4	-0.110847145
76	0xbd7c5138	-0.061600894
77	0xbe07d9a1	-0.13266613
78	0xbe1d7fd2	-0.15380791
79	0x3c2e4906	0.010637527
80	0xbdf7f05d	-0.121063925
81	0x3decacc2	0.115563884
82	0x3cb2ba01	0.02181721
83	0x3caf18aa	0.021374065
84	0xbb445900	-0.0029960275
85	0xbc8b09ba	-0.016972411
86	0x3cb97dfa	0.022643078
87	0x3da526e4	0.080640584
88	0x3caaa433	0.02083025
89	0x3de198a4	0.11015442
90	0x3d41fd25	0.047360558
91	0xbccbebf0	-0.024892777
92	0x3d8e2a84	0.06941703
93	0xbcd582f0	-0.026063412
94	0xbdde3b23	-0.10851123
95	0x3d6b79ad	0.057489086
96	0x3b003a3f	0.0019565967
97	0x3be9f971	0.0071403314
98	0x3d32e57f	0.043675896
99	0x3d2f5a6c	0.042810842
100	0x3d92625a	0.07147665
101	0xbddea274	-0.10870829
102	0x3d819ec6	0.06329112
103	0xbcd5b530	-0.026087373
104	0xbdb8151a	-0.089884
105	0xbd747f70	-0.059691846
106	0x3c8ec301	0.01742697
107	0xbd9043ae	-0.07044159
108	0x3df2a4be	0.11847828
109	0xbe4a90f4	-0.19781858
110	0x3c3d8fcc	0.011569928
111	0x3dc9e340	0.098577976
112	0x3d8cf3ca	0.068824366
113	0xbdac1b0a	-0.08403595
114	0xbe0e6177	-0.13904367
115	0xbe337b59	-0.17527522
116	0xbc7615ff	-0.015019893
117	0xbde8a48a	-0.11359508
118	0xbd7eac43	-0.062176
119	0xbdcd50da	-0.10025187
120	0xbda4c6e2	-0.080457464
121	0xbdb7a565	-0.089670934
122	0x3c74d310	0.014942899
123	0xbda0aa5a	-0.07844992
124	0xbdf62fac	-0.120208114
125	0xbdf5fe03	-0.120113395
126	0x3d8e7241	0.06955386
127	0xbd9c1232	-0.07620658
128	0xbd3f087e	-0.04663896
129	0xbe91a218	-0.2844398
130	0x3c8ef2a0	0.017449677
131	0x3d8e50d2	0.06949009
132	0xbd94c4bc	-0.072640866
133	0xbdfa1f20	-0.12212968
134	0xbde5e898	-0.11226004
135	0xbd7d07e0	-0.06177509
136	0xbdd41f7e	-0.10357569
137	0xbcbd0a3d	-0.023076171
138	0xbdc84104	-0.09778026
139	0xbdf93411	-0.12168134
140	0xbda30246	-0.07959418
141	0xbe119bcd	-0.1421959
142	0xbd987120	-0.07443452
143	0xbdaf6b2c	-0.08565363
144	0xbe46cd37	-0.19414221
145	0x3d64b2f0	0.05583471
146	0xbcdb9560	-0.026804626
147	0x3df8f2ea	0.12155707
148	0xbd7b3d80	-0.061337948
149	0xbda8031d	-0.08203719
150	0xbe3977fa	-0.18112174
151	0x3deb42e6	0.11487369
152	0x3befb480	0.0073152184
153	0x3dad91a0	0.084750414
154	0xbc362f30	-0.011119649
155	0xbc7f1760	-0.015569538
156	0xbc5d2d70	-0.013499603
157	0x3d0d321c	0.034471616
158	0xbdfe4e15	-0.12417237
159	0xbdf9fc31	-0.12206305
160	0xbd6c3930	-0.057671726
161	0xbda420be	-0.080140576
162	0xbde32160	-0.1109035
163	0xbdd4dc22	-0.103935495
164	0xbd42a260	-0.047518134
165	0x3d9caf8a	0.07650669
166	0xbd72da88	-0.05929044
167	0x3dd6262c	0.104564995
168	0xbdd4353e	-0.10361718
169	0xbb8d24e0	-0.0043073744
170	0xbddccc86	-0.10781197
171	0xbd8be5c9	-0.068309374
172	0x3dd598ac	0.104295105
173	0x3ce32270	0.027726382
174	0xbd81631e	-0.06317733
175	0xbd1548cc	-0.036446378
176	0x3c1f8ec0	0.009738624
177	0x3c802630	0.01564321
178	0xbd7f5fb0	-0.062347114
179	0x3bd10460	0.0063786954
180	0xbce62e38	-0.02809821
181	0xbd9308ee	-0.071794376
182	0xbd96b0c0	-0.07357931
183	0xbdf836bf	-0.12119817
184	0xbd387748	-0.04503563
185	0x3dfafafa	0.12254901
186	0x3cf1e880	0.02952981
187	0x3b1f2b60	0.0024287328
188	0x3d971694	0.07377353
189	0xbe2083c1	-0.1567526
190	0x3b318140	0.0027085096
191	0x3cb617e8	0.022228196
192	0xbe234aa3	-0.1594644
193	0xbe95accd	-0.292334
194	0xbe30b209	-0.17255415
195	0x3cd6b5d5	0.026209751
196	0xbbf4ee3b	-0.0074746883
197	0xbcd679f4	-0.026181199
198	0xbe04a060	-0.12951803
199	0xbbc4f340	-0.006010443
200	0xbe19877d	-0.14993091
201	0x3ce4ab3e	0.027913686
202	0x3dece001	0.11566163
203	0xbd567e03	-0.052366268
204	0x3d557ebf	0.052122828
205	0xbd5d5a34	-0.054041103
206	0xbd2eb9d0	-0.042657673
207	0xbb0776a3	-0.0020670078
208	0xbde1355c	-0.109965056
209	0xbcf259e8	-0.029583886
210	0xbe324f63	-0.17413096
211	0xbe297445	-0.1654826
212	0xbd1f3b34	-0.03887482
213	0x3db7556f	0.08951842
214	0xbe46098c	-0.1933958
215	0x3d625ee0	0.05526626
216	0x3cbae24a	0.022812981
217	0x3c5ce860	0.013483137
218	0xbd2237fc	-0.039604172
219	0xbcf05d30	-0.02934131
220	0x3d9f2aac	0.07771811
221	0xbd20a4b8	-0.039219588
222	0x38e6cfdd	0.00011005972
223	0xbce71128	-0.028206423
224	0xbdb4f6f1	-0.08836163
225	0x3c2ef38f	0.010678186
226	0xbe18b4ab	-0.1491267
227	0x3d423a08	0.047418624
228	0x3da439d6	0.08018844
229	0xbd5bb1ac	-0.053636238
230	0xbd7136c9	-0.058890138
231	0xbd8320c0	-0.06402731
232	0xbc9b6a63	-0.018971628
233	0xbd836f4e	-0.06417714
234	0x3d98e742	0.07465984
235	0xbd1cfb17	-0.038325395
236	0x3d82b082	0.063813224
237	0x3d09fd67	0.03368893
238	0xbdda1f4d	-0.106505014
239	0xbdedd7d7	-0.11613434
240	0x3d194e00	0.037427902
241	0xbdf9d83e	-0.12199448
242	0xbdd91b11	-0.10600866
243	0xbdaf75b0	-0.08567369
244	0xbda4c040	-0.08044481
245	0xbd98ea8a	-0.0746661
246	0x3cf659b6	0.030072074
247	0xbd79c7eb	-0.060981672
248	0x3cb713e0	0.022348344
249	0xbd1a49ab	-0.03766791
250	0xbd642450	-0.055698693
251	0x3d535086	0.051590465
252	0xbdaf10d6	-0.08548133
253	0xbda45262	-0.08023526
254	0xbd4c761b	-0.04991732
255	0x3caf1df0	0.02137658

network.2.bias f4 [128]
0	0x3e3fcf0e	0.18731329
1	0xbe94d16d	-0.2906603
2	0xbf10c776	-0.56554353
3	0xbf1c90af	-0.6115827
4	0xbde70d22	-0.11281802
5	0xbcde4962	-0.027134601
6	0x3f09f6a3	0.5389196
7	0xbe55637e	-0.20838735
8	0xbe304d67	-0.17217027
9	0xbe32bbcf	-0.17454456
10	0xbea7ea04	-0.32795727
11	0xbf049dab	-0.5180308
12	0x3e2faace	0.17155
13	0xbe1eec0c	-0.15519732
14	0xbe9b55d5	-0.30338922
15	0x3d8059c1	0.06267119
16	0xbd5c5bf0	-0.053798616
17	0x3c34993a	0.01102286
18	0x3e224d39	0.1584977
19	0xbe8b1f02	-0.27172095
20	0x3d3dcc6a	0.046337523
21	0x3f2017bc	0.62536216
22	0xbed3adb7	-0.4134347
23	0xbe3cc7ab	-0.18435542
24	0x3f81d6fb	1.0143732
25	0xbeb4e06e	-0.35327476
26	0xbf1bca72	-0.6085578
27	0xbde13b0a	-0.10997589
28	0xbe707221	-0.23481037
29	0x3f2533b1	0.64532
30	0xbdd2aa02	-0.10286333
31	0xbee055be	-0.43815416
32	0xbea8a3da	-0.3293751
33	0xbeb2cd00	-0.34922028
34	0xbe1b8a21	-0.15189411
35	0x3f1d79b8	0.61513853
36	0xbe2c9965	-0.1685539
37	0xbea5d23d	-0.32386962
38	0xbe757fdf	-0.2397456
39	0xbe560912	-0.20901898
40	0x3dc40d0b	0.095728
41	0xbe1b33b8	-0.15156448
42	0x3f804f03	1.0024112
43	0xbea82b0b	-0.3284534
44	0xbe745d1c	-0.23863643
45	0xbe451218	-0.19245183
46	0xbed9fe22	-0.425767
47	0xbde231df	-0.110446684
48	0xbee358c6	-0.44403666
49	0xbe50304f	-0.20330928
50	0xbe3d771d	-0.1850247
51	0xbeb903e4	-0.3613578
52	0x3f4360cd	0.7631958
53	0xbbda6abc	-0.0066655558
54	0xbeb57420	-0.3544016
55	0xbecd7a6a	-0.40132457
56	0xbe79ca72	-0.24393633
57	0x3f8810a5	1.063008
58	0x3e316df1	0.17327096
59	0xbd50694e	-0.050881676
60	0xbe2e4b7c	-0.17020983
61	0x3e061507	0.13093959
62	0xbef64b83	-0.48104486
63	0xbe54ea52	-0.20792511
64	0xbe5f71c3	-0.2182074
65	0xbdfb41ef	-0.12268435
66	0x3dc3693e	0.09541558
67	0xbd3e9beb	-0.046535414
68	0xbecf4e99	-0.40489653
69	0xbe947f04	-0.29003155
70	0xbead0d65	-0.33799282
71	0xbe5c34cd	-0.21504517
72	0xbe46d3da	-0.19416752
73	0xbdccaa25	-0.0999339
74	0xbe62ed82	-0.22160915
75	0xbee14cb4	-0.44003832
76	0xbf043310	-0.51640415
77	0xbeefde86	-0.4684946
78	0x3f3ffbed	0.74993783
79	0xbea4edef	-0.3221278
80	0xbefced04	-0.4939958
81	0x3db54f3b	0.08853003
82	0x3d814a11	0.06312955
83	0xbea59b00	-0.32344818
84	0xbec2525c	-0.3795346
85	0xbeb318c7	-0.3497984
86	0xbe89e73f	-0.2693424
87	0x3f63cf72	0.8898841
88	0xbeb72fb1	-0.35778573
89	0xbe762637	-0.24038015
90	0xbe732288	-0.23743641
91	0xbeb97afc	-0.36226642
92	0xbcdcdc52	-0.026960526
93	0xbe1d7a15	-0.15378602
94	0x3f7e386c	0.9930484
95	0xbda7e935	-0.081987776
96	0x3d457077	0.048202958
97	0xbda1e491	-0.07904924
98	0xbe8b9a3d	-0.27266112
99	0xbf20e6b0	-0.62852
100	0xbe86b68b	-0.26311144
101	0xbf243312	-0.6414043
102	0xbefe2507	-0.49637625
103	0xbf03ea52	-0.5152942
104	0xbeac5dc0	-0.33665276
105	0x3d40a561	0.047032718
106	0x3ea37c6c	0.31930864
107	0x3ce3fd86	0.02783085
108	0xbef45ca7	-0.47726938
109	0xbe462688	-0.19350636
110	0xbe2ad9c4	-0.16684633
111	0x3da479bd	0.08031032
112	0xbe4abb93	-0.19798116
113	0xbe39ca81	-0.18143655
114	0x3dbc760c	0.09202203
115	0xbc81cd5c	-0.015844993
116	0xbeb6d980	-0.35712814
117	0xbd8cf429	-0.06882507
118	0xbf34f4ac	-0.7068584
119	0xbd88bb9f	-0.06676411
120	0xbe97ab33	-0.29622802
121	0xbe89e4dc	-0.26932418
122	0xbe9c549a	-0.30533296
123	0xbe3edfc9	-0.18640055
124	0x3d0d0cdc	0.03443609
125	0xbd826dd5	-0.06368605
126	0xbe9332a4	-0.28749573
127	0xbdfcfab9	-0.12352509

network.4.weight f4 [128, 128]
0	0xbc2069e6	-0.009790873
1	0xbdc30fdc	-0.09524509
2	0x3b8a5390	0.004221387
3	0x3b7df763	0.003875219
4	0xbd21a389	-0.0394626
5	0xbc4cb0d8	-0.012493335
6	0xbd1dd034	-0.038528636
7	0x3c73b559	0.01487478
8	0x3cdd17ac	0.026988827
9	0xbde938ff	-0.11387824
10	0x3b4c4e55	0.003117462
11	0xbc7500a1	-0.014953763
12	0x3bdb67e1	0.006695733
13	0x3c6e4123	0.014541897
14	0x3c9e28bd	0.019306535
15	0xbd329a28	-0.043604046
16	0xbcfbb755	-0.030727068
17	0xbc9f2ed8	-0.019431517
18	0xbd64bba5	-0.055843014
19	0xbd233b25	-0.039851326
20	0x3dcbc503	0.099496864
21	0xbd44a20c	-0.048006102
22	0xbd9f3385	-0.077734984
23	0xbd589364	-0.052874938
24	0xbd678a3e	-0.056528322
25	0xbdb0e14a	-0.086367205
26	0x3d852c95	0.06502644
27	0x3cfc84bc	0.030825011
28	0x3ba4496f	0.005013637
29	0xbd831fdf	-0.06402563
30	0xbd873105	-0.066011466
31	0xbdb3ec71	-0.08785332
32	0x3c312c7d	0.0108138295
33	0xbd63e6c3	-0.055639993
34	0xbdb1c7af	-0.08680665
35	0xbccdac48	-0.025106564
36	0xbd98c1cb	-0.07458838
37	0xbdee8ef3	-0.11648359
38	0xbe02e3b0	-0.12782168
39	0xbe063fd6	-0.13110289
40	0xbdd75cac	-0.10515723
41	0xbd90c165	-0.07068137
42	0xbd574819	-0.052558992
43	0x3d54268e	0.05179458
44	0x3cdec20e	0.027192142
45	0xbdf21dc5	-0.11822084
46	0xbcc9c0cf	-0.024628071
47	0xbdadfa60	-0.08495021
48	0xbd456b9f	-0.04819834
49	0x3c61daaa	0.013785044
50	0x3d8f73d3	0.070045136
51	0x3c69c0b2	0.014267134
52	0xbd8be695	-0.068310894
53	0xbc1ec3e0	-0.009690255
54	0x3db0bc81	0.08629704
55	0xbde24db0	-0.11049974
56	0x3d96f359	0.07370634
57	0x3c396f84	0.011318091
58	0x3d281f6e	0.0410456
59	0xbe0e1c7a	-0.1387805
60	0xbda0b0dd	-0.07846234
61	0xbdb6ef5e	-0.089323744
62	0xbe1449f1	-0.14481331
63	0x3cdfb97c	0.027310126
64	0xbdbf2aea	-0.09334357
65	0x3dc89382	0.0979376
66	0xbe0807d0	-0.1328423
67	0xba4a8a80	-0.00077263266
68	0xbd11e01a	-0.03561411
69	0xbcb3933b	-0.02192079
70	0xbce076e4	-0.027400441
71	0x3d89a48f	0.0672084
72	0x3c41b15c	0.011822071
73	0x3c6bf008	0.01440049
74	0xbcac4d94	-0.021033086
75	0xbe090012	-0.13378933
76	0x3cb40fb2	0.02198014
77	0xbdedc724	-0.11610249
78	0xbd8b065c	-0.06788322
79	0x3d8b1037	0.06790202
80	0xbd80683f	-0.06269883
81	0xbae190b9	-0.0017209268
82	0x3bfc24f2	0.007694834
83	0xbca274eb	-0.019831141
84	0x3cae70db	0.021294048
85	0xbd89c60b	-0.06727227
86	0xbdfbe33c	-0.12299201
87	0x3bd4b2e0	0.00649105
88	0x3d0a877e	0.03382062
89	0x3b428560	0.0029681548
90	0xbd8ac3ac	-0.06775603
91	0xbd68cab9	-0.056833956
92	0x3d0ea39a	0.03482399
93	0xbc402ab5	-0.011728932
94	0xbcd59678	-0.026072726
95	0xbd36f6c4	-0.044668928
96	0xbd759d6d	-0.059964586
97	0xbd2daed2	-0.04240305
98	0xbdc9ed51	-0.09859718
99	0xbcfd2ea4	-0.030906029
100	0x3ce0c800	0.027439117
101	0xbdd4d758	-0.10392636
102	0xbd897b15	-0.06712929
103	0xbd981ecb	-0.07427748
104	0xbe17446c	-0.14772195
105	0xbe05476a	-0.13015524
106	0x3b177360	0.002310954
107	0x3bc1c290	0.0059130862
108	0xbd767222	-0.06016744
109	0xbd6607a9	-0.05615965
110	0xbe1034a8	-0.14082587
111	0x3cf843a0	0.030305684
112	0xbd0c336f	-0.03422874
113	0xbdf77dd8	-0.1208455
114	0xbe150de8	-0.14556086
115	0xbcb769c3	-0.022389298
116	0xbe0df726	-0.13863811
117	0xbd8caf2a	-0.068693474
118	0xbe04c1f8	-0.12964618
119	0xbcfe7720	-0.031062663
120	0x3b459140	0.003014639
121	0x3cc843e5	0.024446437
122	0xb986f727	-0.00025742615
123	0xbdd70a63	-0.10500028
124	0x3c8b0b42	0.016973142
125	0x3cce8d28	0.025213793
126	0xbdb1beda	-0.0867898
127	0x3d66742e	0.05626314
128	0xbdbd554b	-0.09244784
129	0xbda9516f	-0.08267485
130	0xbc9dda5c	-0.01926916
131	0x3c9bc5ec	0.019015275
132	0x3dac5af1	0.08415783
133	0xbd6c4855	-0.05768617
134	0x3d03289a	0.032021143
135	0xbd88901b	-0.06668111
136	0x3ce31ac8	0.027722731
137	0xbc0c193c	-0.008550938
138	0xbdb91699	-0.09037513
139	0xbce858a0	-0.028362572
140	0xbd7ea1b6	-0.06216594
141	0xbd0feacc	-0.03513603
142	0xbd28e6e0	-0.041235805
143	0xbd902166	-0.0703762
144	0x3c3eb4c6	0.011639779
145	0xbdabc9c0	-0.0838809
146	0xbe10b4c2	-0.14131454
147	0x3bbd8ae0	0.0057843775
148	0xbe09206d	-0.13391276
149	0xbd09f0d9	-0.033676956
150	0xbd854a60	-0.065083265
151	0x3cb68750	0.022281319
152	0xbbdfc8d9	-0.006829363
153	0xbe16d79a	-0.14730683
154	0xbda1c104	-0.07898143
155	0xbb3c3eb4	-0.0028723897
156	0xbe058a1b	-0.13040964
157	0x3cbcc578	0.02304338
158	0xbdb4202c	-0.08795199
159	0xbd727b3c	-0.059199557
160	0xbe11c8a5	-0.14236696
161	0xbcb941c4	-0.022614367
162	0xbd9584bd	-0.073007084
163	0xbd9f7890	-0.07786667
164	0xbc998445	-0.018739829
165	0xbd663ed4	-0.05621226
166	0xbd2bcfb6	-0.041946135
167	0x3ca8f626	0.020625185
168	0xbba68b4a	-0.0050825225
169	0xbd23c8dd	-0.03998648
170	0xbd68917f	-0.05677938
171	0xbdab62be	-0.08368443
172	0x3c1f4d89	0.009723076
173	0xbbbfb185	-0.0058500194
174	0xbc129299	-0.008946084
175	0x3d451f6a	0.048125662
176	0xbb828489	-0.0039830846
177	0xbb6a96a2	-0.003579535
178	0xbd8c147d	-0.06839845
179	0x3b0850eb	0.0020800184
180	0x3d699246	0.057024263
181	0xbda7e96a	-0.08198817
182	0x3d9c0545	0.076181926
183	0xbd826b22	-0.0636809
184	0x3c6c5e45	0.0144267725
185	0xbd2d6973	-0.042336892
186	0x3d740202	0.059572227
187	0xbc3d7df5	-0.011565675
188	0xbd40f70d	-0.047110606
189	0x3cd913b0	0.026498646
190	0xbdae4e1d	-0.08510993
191	0xbd996d42	-0.074915424
192	0xbd5b8d48	-0.053601533
193	0xbd6d2b61	-0.057902697
194	0x3c9ce2dc	0.019151144
195	0x3d58d83e	0.0529406
196	0xbc35b2f5	-0.01109003
197	0xbe0639dd	-0.1310801
198	0xbcbe65a5	-0.023241827
199	0xbd8ec3e0	-0.06970954
200	0xbe179e20	-0.14806414
201	0xbd823899	-0.063584514
202	0x3cb355e4	0.021891542
203	0xbdd1bf9f	-0.10241627
204	0x39ff944e	0.00048747886
205	0xbc84ea09	-0.016224878
206	0xbd762c5c	-0.0601009
207	0xbd7d6ddd	-0.061872352
208	0xbda7238d	-0.08161078
209	0xbd8f1a92	-0.0698749
210	0xbd7f5d57	-0.062344875
211	0xbdf90df2	-0.12160863
212	0xbd5dd302	-0.05415631
213	0x3c197faf	0.009368821
214	0xbdafc57a	-0.085825875
215	0xbdb14c85	-0.08657173
216	0xbd2c248a	-0.042027034
217	0xbd622cfe	-0.05521869
218	0xbdd26ecd	-0.1027504
219	0xbe164540	-0.14674854
220	0x3d95ada9	0.07308514
221	0xbc3b9037	-0.011447958
222	0xbd429f2f	-0.04751509
223	0xbdcfb873	-0.10142603
224	0x3ba040a3	0.004890518
225	0xbd809a94	-0.062794834
226	0xbd525d85	-0.05135872
227	0xbcf36a40	-0.02971375
228	0x3d84e74d	0.064894296
229	0x3c81d6d2	0.015849505
230	0xbd5f0c53	-0.054455113
231	0x3c746793	0.014917272
232	0xbc236fd7	-0.009975395
233	0xbdaaaf48	-0.083342135
234	0xbc928c08	-0.017889038
235	0xbc69b96a	-0.014265398
236	0x3d386ae2	0.045023806
237	0xbe145c51	-0.14488341
238	0xbbb27cb4	-0.0054469947
239	0xbdc83979	-0.09776587
240	0xbd8bf4dc	-0.068338126
241	0xbde934b9	-0.11387009
242	0xbdfbba3b	-0.1229138
243	0xbd6ee48a	-0.05832342
244	0xbdf3386a	-0.118759945
245	0xbca3f8e8	-0.020016149
246	0xbd5b9b60	-0.053614974
247	0xbde84037	-0.11340373
248	0x3d4eae32	0.050459094
249	0xbc1e6ee9	-0.009669998
250	0xbcbb3d11	-0.022856267
251	0xbd0b93e4	-0.034076586
252	0xbbe84342	-0.007088096
253	0xbd592863	-0.05301703
254	0xbcacc1e0	-0.02108854
255	0xbdb0ed8e	-0.0863906

network.4.bias f4 [128]
0	0xbe0f854e	-0.14015695
1	0xbb4c52ed	-0.0031177357
2	0x3c65d021	0.014026673
3	0xbe1a10b0	-0.15045428
4	0xbc1fee5d	-0.00976142
5	0xbddb6d84	-0.10714248
6	0xbe1aaa7e	-0.151041
7	0xbe52a373	-0.20570163
8	0xbe1d8c6c	-0.15385598
9	0xbe0b9d8a	-0.13634315
10	0xbd266019	-0.04061899
11	0xbe85cf47	-0.26134703
12	0xbe64c205	-0.22339638
13	0xbda9f9d5	-0.08299605
14	0xbe3e5dfd	-0.18590541
15	0xbb6ee0e0	-0.0036449954
16	0x3cee2bfd	0.02907371
17	0xbda9de1c	-0.08294317
18	0xbe3ba797	-0.18325649
19	0xbe3cb2b5	-0.18427546
20	0x3f25090c	0.6446693
21	0xbe17819e	-0.14795539
22	0xbdb77f3d	-0.08959816
23	0xbe908809	-0.28228787
24	0xbe893cdc	-0.26804245
25	0xbdd63a67	-0.10460358
26	0xbccf3983	-0.025295978
27	0xbe32e539	-0.17470254
28	0xbdd35c6e	-0.10320364
29	0x3ce4ee8f	0.027945785
30	0xbcc36957	-0.02385394
31	0xbe70879e	-0.23489234
32	0xbe322f6b	-0.17400901
33	0xbdc971ea	-0.098361805
34	0xbdb038b7	-0.086045675
35	0xbd5bfcd2	-0.053707905
36	0xbe2ed11f	-0.17071961
37	0x3f31b113	0.6941082
38	0xbde449e1	-0.11146904
39	0xbd553da5	-0.052060742
40	0x3eead449	0.45865086
41	0xbdd5f283	-0.10446646
42	0xbde873cc	-0.113502115
43	0x3c0a8f16	0.008456966
44	0xbe878e81	-0.2647591
45	0xbe48d290	-0.19611573
46	0xbeb5cc42	-0.355074
47	0xbdba74d9	-0.09104318
48	0xbdf64d1b	-0.120264255
49	0xbea14f96	-0.31506032
50	0xbe03d38e	-0.1287367
51	0x3d9316cc	0.071820825
52	0x3dc7ec8d	0.09761915
53	0xbd32bd3f	-0.04363751
54	0xbd1065ff	-0.03525352
55	0xbe2098eb	-0.15683334
56	0xbe250b0e	-0.16117498
57	0xbe3fd40c	-0.18733233
58	0xbdd33162	-0.103121534
59	0xbdc5d745	-0.096602
60	0xbc52bdd8	-0.012862645
61	0xbd74804c	-0.059692666
62	0xbc9eec04	-0.01939965
63	0xbe2da99e	-0.16959235
64	0xbe8488b9	-0.2588556
65	0xbdbb57a7	-0.09147578
66	0xbe7096e1	-0.23495056
67	0x3e2a4da2	0.16631177
68	0xbe550928	-0.20804274
69	0xbdca91db	-0.09891101
70	0xbda0f018	-0.07858294
71	0xbd0d6320	-0.03451836
72	0xbe0bfd24	-0.13670784
73	0xbd6e676c	-0.0582041
74	0x3e11b72e	0.14230034
75	0xbe8624fa	-0.26200086
76	0xbe071f4e	-0.13195536
77	0xbdd39ec4	-0.103330165
78	0xbc8e4d02	-0.017370705
79	0xbe5c2fe8	-0.2150265
80	0xbbb07e44	-0.005386146
81	0xbe2fa5ce	-0.17153093
82	0xbdeecbaf	-0.11659943
83	0xbe37af6f	-0.17938016
84	0xbe06416e	-0.13110897
85	0xbe29627e	-0.16541478
86	0xbd8ec402	-0.06970979
87	0xbdfa003c	-0.12207076
88	0xbe111d48	-0.14171326
89	0x3eb376ea	0.35051662
90	0x3bb7d281	0.005609811
91	0xbeaa438a	-0.33254653
92	0xbe6ffdd2	-0.23436669
93	0xbc4a7936	-0.0123580005
94	0x3bc62b6f	0.006047658
95	0xbe147d42	-0.14500907
96	0xbdb1dce3	-0.08684709
97	0xbe0397b7	-0.12850843
98	0xbe80f775	-0.25188795
99	0xbe2f27c6	-0.17105016
100	0xbe61f339	-0.22065438
101	0xbe973da5	-0.2953922
102	0x3d75e0cf	0.060028847
103	0xbda17eda	-0.07885523
104	0x3f27d7ce	0.65563667
105	0xbe685581	-0.22688867
106	0xbe802f6e	-0.25036186
107	0xbdffc945	-0.12489561
108	0xbe8a3262	-0.26991564
109	0xbe5e0926	-0.21683177
110	0xbd162a42	-0.036661394
111	0xbd927e72	-0.07153024
112	0xbe7464c9	-0.23866571
113	0xbe5378fc	-0.2065162
114	0xbc8e0a29	-0.01733883
115	0xbe61a079	-0.22033872
116	0xbdc20726	-0.0947402
117	0xbe584e0b	-0.21123521
118	0xbe95732d	-0.29189435
119	0x3d067a6e	0.0328316
120	0xbe2c5bbc	-0.16831869
121	0xbed143a6	-0.40871924
122	0xbd67bd13	-0.0565768
123	0xbdab225b	-0.08356162
124	0xbe44f070	-0.19232345
125	0xbe7273e6	-0.23677024
126	0xbdf4c700	-0.11952019
127	0xbde075b0	-0.10959947

network.6.weight f4 [64, 128]
0	0xbd77e9ce	-0.060525708
1	0xbcef4d6a	-0.029211719
2	0xbdbf7ecf	-0.09350359
3	0xbc8a77c9	-0.016902821
4	0x3ceed8c4	0.029156096
5	0x3d907cf9	0.07055087
6	0x3d1e350a	0.0386248
7	0xbe8e6469	-0.27810982
8	0x3d822f19	0.063566394
9	0xbca77c44	-0.020444997
10	0xbd5bf577	-0.05370089
11	0xbe34574c	-0.17611426
12	0xbe6ff738	-0.2343415
13	0x3e494614	0.19655639
14	0x3be4ed1c	0.0069862735
15	0xbcf10f06	-0.029426109
16	0xbdeebeed	-0.1165751
17	0x3c49b458	0.012311064
18	0x3d12a56a	0.035802282
19	0x3e191234	0.1494835
20	0x3c26e137	0.010185531
21	0x3d4715d8	0.048604816
22	0xbd90160f	-0.07035457
23	0xbd9acd27	-0.07558661
24	0xbe76cb7a	-0.24101058
25	0xbdd5d75f	-0.104414694
26	0xbba09cb0	-0.004901491
27	0x3e610ee4	0.21978337
28	0xbe40a635	-0.18813403
29	0x3d66c6af	0.056341823
30	0x3d8efeb9	0.06982178
31	0x3d182a24	0.037149563
32	0xbe295860	-0.16537619
33	0xbdcc6315	-0.09979836
34	0x3d887195	0.06662289
35	0xbcd59b88	-0.02607514
36	0xbf075efe	-0.5287932
37	0x3eace411	0.3376775
38	0xbe758abd	-0.23978706
39	0xbd86ed1c	-0.06588194
40	0xbeb146d6	-0.34624356
41	0x3d753007	0.059860256
42	0x3e65307c	0.22381777
43	0x3da219e8	0.079150975
44	0x3d831ad7	0.06401604
45	0xbe084285	-0.13306625
46	0xbe40208f	-0.1876242
47	0x3c53153a	0.012883479
48	0x3e1b95fb	0.15193932
49	0xbe4f069b	-0.20217364
50	0x3bd23ebf	0.0064161713
51	0x3d20cae0	0.039255977
52	0xbe808f10	-0.25109148
53	0x3e29f906	0.16598901
54	0x3d8f7814	0.07005325
55	0x3dd2940e	0.102821454
56	0xbe0dfc2e	-0.1386573
57	0xbd096dae	-0.033551864
58	0x3da3dd06	0.08001141
59	0xbc025088	-0.00795377
60	0xbd1b77c2	-0.037956007
61	0x3da36b8b	0.079794966
62	0x3d9a93c7	0.075477175
63	0xbd0261a3	-0.031831395
64	0x3e4037b6	0.18771252
65	0x3e06422f	0.13111185
66	0xbdcbf5b3	-0.09958973
67	0xbdefa4ad	-0.11701331
68	0x3d30b6d4	0.04314311
69	0xbe345007	-0.17608653
70	0x3daef161	0.08542133
71	0xbe1603a4	-0.14649826
72	0xbd2d7f00	-0.042357445
73	0xbd796b33	-0.06089325
74	0xbe6e54b1	-0.23274495
75	0x3e39b7d6	0.18136534
76	0xbdf75b5e	-0.12077974
77	0xbda9a78c	-0.0828391
78	0x3d858500	0.06519508
79	0xbe16aadc	-0.14713615
80	0x3d8ebf00	0.06970024
81	0xbd8d76f7	-0.06907456
82	0xbe0bbf60	-0.13647223
83	0x3d9bc4c8	0.076058924
84	0x3e04e585	0.1297818
85	0xbd92e990	-0.07173455
86	0xbd1d2a1f	-0.038370248
87	0x3d8926fb	0.06696888
88	0xbe1e8c5d	-0.15483232
89	0xbf176927	-0.59144825
90	0x3d579422	0.052631505
91	0x3de6d059	0.11270208
92	0x3e13af1f	0.14422272
93	0xbe4e8a33	-0.20169906
94	0x3e7cba84	0.24680525
95	0xbd9b6f0d	-0.07589541
96	0xbc677590	-0.01412715
97	0xbe18ce3c	-0.14922422
98	0xbe2b32db	-0.16718619
99	0xbd6ac09c	-0.057312593
100	0x3db02bf5	0.08602134
101	0xbd7a7d15	-0.061154444
102	0xbde2f511	-0.11081899
103	0xbd543312	-0.051806517
104	0xbf066678	-0.52500105
105	0xbe3c6389	-0.18397345
106	0xbe42216b	-0.1895806
107	0xbeac800b	-0.3369144
108	0xbdaabcf7	-0.083368234
109	0x3e93ebe9	0.28890923
110	0xbe372bb5	-0.17887767
111	0xbe3d707b	-0.18499939
112	0xbd68e622	-0.056860097
113	0x3e44848a	0.19191185
114	0xbdd8bf14	-0.1058332
115	0x3e0cfe12	0.13768795
116	0x3b858980	0.004075229
117	0xbec5e0d3	-0.3864809
118	0xbdd5237f	-0.10407161
119	0x3d9103d0	0.07080805
120	0x3e146d7f	0.14494894
121	0xbe933966	-0.2875473
122	0xbd730371	-0.059329454
123	0x3cef3639	0.02920066
124	0x3e5db4fd	0.21651073
125	0xbe10db4a	-0.14146152
126	0x3e49d348	0.19709504
127	0xbd6a48e8	-0.057198435
128	0xbe074691	-0.13210513
129	0xbc8fbd0f	-0.017546205
130	0xbd15978a	-0.036521472
131	0xbcba5fdb	-0.022750786
132	0xbda5600e	-0.080749616
133	0xbd8d3ad2	-0.06895985
134	0x3e00be1f	0.12572525
135	0xbd23e212	-0.04001052
136	0x3da8cadb	0.082418166
137	0xbc1ca035	-0.009559681
138	0x3dcf8b35	0.101339735
139	0x37937000	1.757592e-05
140	0xbde2b6ef	-0.11070048
141	0xbd95dad6	-0.0731713
142	0xbde99cee	-0.11406885
143	0xbe0745b8	-0.1321019
144	0x3d0b7a3c	0.03405212
145	0xbb6759e0	-0.0035301372
146	0x3c3a9fce	0.0113906395
147	0x3c2ff4a3	0.010739478
148	0xbe130dab	-0.14360683
149	0xbe1efd19	-0.15526237
150	0x3da6711d	0.081270434
151	0x3b8b1c96	0.004245351
152	0xbe13f6d0	-0.1444962
153	0xbddcaaa4	-0.107747346
154	0x3e13679e	0.14394996
155	0x3cff85c7	0.03119172
156	0xbd59b990	-0.05315548
157	0x3d06179c	0.03273736
158	0xbda0a802	-0.07844545
159	0xbde18e3e	-0.11013459
160	0xba9b8b40	-0.0011867061
161	0x3c1044c6	0.008805459
162	0xbd266600	-0.04062462
163	0x3d233182	0.039842136
164	0xbd817b9a	-0.06322403
165	0xbe5ffee9	-0.21874584
166	0x3e091a88	0.13389027
167	0x3c551b98	0.013007067
168	0x3d21b33e	0.03947758
169	0x3cfd5ea8	0.030928925
170	0xbc8e1c85	-0.017347584
171	0xbdf2aab4	-0.11848965
172	0xbd235d6b	-0.039884012
173	0xbdee9fca	-0.11651571
174	0x3dd7c5a2	0.10535742
175	0xbd95aae8	-0.073079884
176	0xbd1d78d8	-0.038445324
177	0xbbb300d9	-0.0054627475
178	0xbc0f1b4d	-0.008734536
179	0xbd91407f	-0.0709238
180	0x3d971405	0.07376865
181	0xbdbeb1cf	-0.09311258
182	0xbca0f649	-0.019648688
183	0x3d9c2f74	0.076262385
184	0x39443d6a	0.00018714895
185	0xbd682cf5	-0.0566835
186	0x3d00fc24	0.03149046
187	0xbdc4a536	-0.09601824
188	0xbcfa3d00	-0.030546665
189	0xbcf24346	-0.029573094
190	0xbde6e994	-0.1127502
191	0x3d054e71	0.03254551
192	0x3dff7772	0.12473954
193	0x3c66e4e5	0.014092659
194	0xbdfe0747	-0.12403732
195	0xbdcfcfa9	-0.1014703
196	0xbc89f9f7	-0.016842825
197	0xbdb40974	-0.087908655
198	0xbb902420	-0.0043988377
199	0x3c16d0e4	0.009205077
200	0xbe14f64e	-0.14547083
201	0xbb1c5700	-0.0023855567
202	0xbd14f5c4	-0.036367193
203	0x3cec0e9d	0.028815562
204	0xbdc3f5bf	-0.09568357
205	0xbbe5c340	-0.007011801
206	0xbdf60865	-0.1201332
207	0xbc176b05	-0.009241824
208	0xbe31e309	-0.17371763
209	0xbbebf9c8	-0.007201407
210	0x3e08a898	0.13345563
211	0xbe0125e6	-0.12612113
212	0xbda66c66	-0.08126144
213	0xbdaeed2d	-0.085413314
214	0xbd38308e	-0.04496818
215	0x3cd99645	0.026560912
216	0x3c846378	0.016160712
217	0xbe0cd145	-0.13751705
218	0x3cf7fe3d	0.030272597
219	0xbd551462	-0.05202139
220	0xbc62f2ea	-0.013851861
221	0xbd8cca7a	-0.06874557
222	0xbddeeda9	-0.10885174
223	0xbc5d9e41	-0.0135265
224	0x3d4f779a	0.05065117
225	0xbd4e6bf6	-0.05039593
226	0xbb73b46e	-0.0037186402
227	0xbdfd524d	-0.12369213
228	0x3d89484d	0.067032434
229	0x3c5b2a23	0.013376745
230	0xbd7ea922	-0.062173016
231	0xbe031611	-0.12801386
232	0xbe0987dc	-0.13430732
233	0x3c9094a7	0.017649008
234	0xbd0df270	-0.034655035
235	0x3cbeb414	0.023279227
236	0xbd3829a6	-0.044961594
237	0xbd83e916	-0.06440942
238	0x3dd55ad2	0.10417713
239	0xbd4fff1b	-0.050780397
240	0xbdd0d43f	-0.10196733
241	0x3bd1e290	0.006405182
242	0xbd135e36	-0.03597852
243	0x3d8e521b	0.06949254
244	0xbdf97b33	-0.121817015
245	0x3e07c781	0.13259698
246	0xbd6cf197	-0.057847586
247	0xbe1c9ae7	-0.15293466
248	0x3c5c435c	0.013443794
249	0x3a193480	0.000584431
250	0xbda0d306	-0.078527495
251	0xbcd5e9a8	-0.026112393
252	0xbbfc58f9	-0.007701036
253	0x3d962449	0.073311396
254	0xbda1cdc3	-0.07900574
255	0x3b599784	0.0033201883

network.6.bias f4 [64]
0	0xbce13413	-0.027490651
1	0xbde5a334	-0.11212769
2	0xbddadebb	-0.10687014
3	0xbe9805a1	-0.29691795
4	0xbc8b6440	-0.017015576
5	0xbe04ceeb	-0.12969558
6	0xbe81c7ae	-0.25347656
7	0xbedbf93c	-0.42963588
8	0x3e034111	0.1281779
9	0x3ea6a8bc	0.3255061
10	0x3ebd196b	0.36933455
11	0x3b4b0fe7	0.003098482
12	0x3ee30131	0.44336846
13	0xbe31eda6	-0.17375812
14	0xbe881d53	-0.26584873
15	0xbe0b2f25	-0.13592203
16	0xbddb63ec	-0.10712418
17	0xbe400aed	-0.18754168
18	0x3d9afd55	0.075678505
19	0xbe3f89b7	-0.18704878
20	0xbd2204e0	-0.03955543
21	0xbe534bf6	-0.20634446
22	0x3e68c16c	0.22730035
23	0x3ecf33f6	0.4046933
24	0x3c96be20	0.018401206
25	0xbe094019	-0.13403358
26	0xbd55a3e8	-0.052158266
27	0xbe9524a7	-0.29129526
28	0xbdbec6a8	-0.093152344
29	0xbee6a64c	-0.4504875
30	0xbe1aee83	-0.15130048
31	0xbe2f3ff2	-0.17114237
32	0x3e31b088	0.17352498
33	0xbecf7814	-0.405213
34	0xbe2887d0	-0.16458058
35	0x3c89c60e	0.016818073
36	0x3d9fe869	0.078080006
37	0xbbd0f78f	-0.0063771675
38	0xbe5696da	-0.20955983
39	0xbeaeed1f	-0.34165284
40	0xbe61de3c	-0.22057432
41	0x3d6c5a43	0.057703268
42	0xbdcf712c	-0.10129008
43	0xbe9b5354	-0.30337012
44	0xbdd2c629	-0.10291702
45	0xbe4d1cb3	-0.20030479
46	0x3e81f552	0.25382477
47	0x3e7d7592	0.24751881
48	0x3c87b4e4	0.016565748
49	0xbd94e72f	-0.07270657
50	0x3e03bc0c	0.12864703
51	0xbe39c94d	-0.18143196
52	0xbe0c8373	-0.13722019
53	0x3ecfa022	0.4055186
54	0xbe2c3a38	-0.16819084
55	0x3c4cb3b5	0.012494017
56	0xbe03c1e2	-0.12866929
57	0x3e93c999	0.28864744
58	0xbe2d55cd	-0.16927262
59	0xbebd31a8	-0.36951947
60	0xbe321cef	-0.1739385
61	0xbec6891a	-0.38776475
62	0x3e920e8e	0.2852673
63	0xbed1d3d3	-0.40981922

network.8.weight f4 [32, 64]
0	0xbcd36130	-0.025803179
1	0x3db9ea16	0.090778515
2	0x3dbd01ff	0.09228896
3	0xbd01c651	-0.03168327
4	0xbc3d93a0	-0.011570841
5	0xbd92c56e	-0.07166563
6	0x3dd51628	0.104046166
7	0x3d36fa54	0.044672325
8	0x3d56d65a	0.052450515
9	0xbe984048	-0.29736543
10	0xbe144390	-0.14478898
11	0x3d2c8cfe	0.042126648
12	0xbe679b18	-0.22617757
13	0x3dd596de	0.10429166
14	0xbde02472	-0.109444514
15	0x3de0bdd4	0.10973707
16	0x3d1a95f7	0.037740674
17	0xbdcb0fe8	-0.09915143
18	0xbd9f896e	-0.077898845
19	0x3d762b0c	0.060099646
20	0xbddda00e	-0.10821544
21	0x3decf720	0.11570573
22	0x3ce9ef58	0.02855651
23	0xbddafac3	-0.1069236
24	0xbdf49f16	-0.11944406
25	0xbd31a40c	-0.043369338
26	0xbe14b05f	-0.14520405
27	0xbcf7b58e	-0.03023794
28	0xbdecf6b1	-0.1157049
29	0x3c76d170	0.015064582
30	0xbdd0c1b8	-0.10193199
31	0x3d3b9e50	0.045805275
32	0xbe5e73a3	-0.217238
33	0xbb687c00	-0.00354743
34	0xbda12610	-0.07868588
35	0xbdd4cc96	-0.10390584
36	0xbe5c2ec4	-0.21502215
37	0xbc14c7ac	-0.009080809
38	0xbc358340	-0.011078656
39	0xbde43536	-0.11142962
40	0xbd8c543c	-0.06852004
41	0x3d84f9b2	0.06492938
42	0xbd49020c	-0.049074218
43	0x3d25d9ec	0.04049103
44	0xbdaea1f4	-0.08526984
45	0xbe1359eb	-0.1438977
46	0xbea93378	-0.3304708
47	0xbcdd6d48	-0.027029648
48	0xbd9037b0	-0.070418715
49	0x3d94276e	0.07234083
50	0xbe79b2db	-0.24384634
51	0xbcd73720	-0.026271403
52	0xbddb9ae5	-0.10722903
53	0xbdb0e24e	-0.08636914
54	0xbc9a1e78	-0.018813357
55	0xbdbc7d9c	-0.092036456
56	0xbd80ee42	-0.06295444
57	0xbc51cf10	-0.012805715
58	0xbd8d5871	-0.069016345
59	0x3d425e28	0.047453076
60	0x3df1b060	0.11801219
61	0x3d1899dc	0.037256107
62	0x3d1d943f	0.038471457
63	0x3dca3868	0.0987404
64	0xbd4d93d4	-0.050189808
65	0x3d0b6844	0.034034982
66	0xbcd6d26f	-0.02622339
67	0x3d4bc934	0.04975243
68	0xbd46925b	-0.04847942
69	0xbd9d09f0	-0.07667911
70	0x3db32c52	0.08748688
71	0x3dba0c58	0.09084386
72	0xbdecaec5	-0.11556772
73	0xbe2cf471	-0.16890122
74	0xbdc92672	-0.09821786
75	0xbd6d18ac	-0.057884857
76	0xbd74cb34	-0.059764102
77	0xbd3ca840	-0.046058893
78	0xbde043ed	-0.10950456
79	0xbde2b1ca	-0.11069067
80	0xbc23af60	-0.009990543
81	0xbe1d3e1b	-0.15355723
82	0xbd9f882c	-0.077896446
83	0xbe38a404	-0.18031317
84	0xbd97931b	-0.07401105
85	0xbc620e37	-0.013797334
86	0xbda6e652	-0.08149399
87	0xbe2d8ee5	-0.16949041
88	0x3d9636e0	0.07334685
89	0xbe1cfb47	-0.1533023
90	0x3adff235	0.0017085733
91	0xbd1f11bc	-0.038835272
92	0x3cbb7b20	0.022885859
93	0xbdc74284	-0.09729484
94	0xbd4afaa5	-0.04955544
95	0x3e2cc0fe	0.16870496
96	0xbdc8c03c	-0.09802291
97	0x3d08f873	0.033440065
98	0xbd271c90	-0.040798724
99	0xbd54157b	-0.051778298
100	0xbd17efa4	-0.037093773
101	0xbc825c40	-0.015913129
102	0xbc763443	-0.015027109
103	0xbe021a67	-0.12705384
104	0x3d5c4a1c	0.053781614
105	0x3ce27bee	0.027646985
106	0xbdbd88ea	-0.0925463
107	0xbe35d40b	-0.17756669
108	0xbc0e1a73	-0.008673298
109	0x3d9d6a4e	0.07686292
110	0x3cb6b018	0.022300765
111	0xbe31815a	-0.173345
112	0xbd830ade	-0.06398557
113	0xbdd52d9f	-0.10409092
114	0xbdb4af08	-0.08822447
115	0x3d2e0f79	0.042495225
116	0x3d45ffde	0.048339717
117	0xbcdde6f0	-0.027087659
118	0xbdc590d8	-0.096467674
119	0xbe0349e3	-0.12821154
120	0xbc827301	-0.015923979
121	0xbd918fd2	-0.0710751
122	0x3bd24f2d	0.00641813
123	0x3d8ad19a	0.067782596
124	0xbe2cda79	-0.16880216
125	0x3d22d210	0.039751112
126	0xbdd8a7a2	-0.105788484
127	0xbe108fc9	-0.1411735
128	0xbadad11e	-0.0016694402
129	0xbc96b431	-0.018396469
130	0x3c3ef185	0.011654262
131	0xbd7b31ea	-0.0613269
132	0x3c8c9030	0.017158598
133	0xbdf7465a	-0.12073965
134	0xbdd19c60	-0.10234904
135	0xbe58c374	-0.2116831
136	0xbe19ee82	-0.1503239
137	0xbc1163bb	-0.008873875
138	0xbd956d03	-0.07296183
139	0xbdda7a50	-0.106678605
140	0xbe5f60a3	-0.21814208
141	0x3e2b57f9	0.16732778
142	0xbcdf66ae	-0.027270641
143	0xbd8e3b75	-0.06944934
144	0xbe4a9402	-0.19783023
145	0x3ca02ffd	0.019554133
146	0xba4ed2eb	-0.00078897056
147	0xbddd2507	-0.10798078
148	0xbdbf73a3	-0.09348228
149	0x3bc0a08e	0.0058785146
150	0xbdfea3c3	-0.12433579
151	0xbdf55804	-0.11979678
152	0x3ca0f9a7	0.019650294
153	0x3e18df76	0.14928994
154	0xbdeafebc	-0.11474368
155	0xbde71b1a	-0.11284466
156	0xbe661f58	-0.22472894
157	0x3e6d9cf4	0.23204404
158	0xbd9b00b1	-0.07568491
159	0x3ce423b1	0.02784905
160	0x3cb92500	0.02260065
161	0xbe9e6db0	-0.3094306
162	0xbde76606	-0.11298756
163	0xbde327a5	-0.11091546
164	0x3e225179	0.15851392
165	0xbebae2e8	-0.3650124
166	0xbdc4f6ec	-0.09617409
167	0x3d8d82da	0.069097236
168	0xbcbb7d22	-0.022886816
169	0xbd8213b3	-0.063514136
170	0xbd0069b2	-0.0313508
171	0xbdfe04e5	-0.12403277
172	0xbe3e9c7d	-0.18614383
173	0x3d4e1c82	0.050320156
174	0xbe89aa42	-0.2688771
175	0xbe6fab27	-0.23405133
176	0xbdd50057	-0.104004554
177	0x3dd1b6bc	0.10239932
178	0x3d9548e6	0.07289295
179	0xbbdeedf0	-0.0068032667
180	0xbe8e5fc3	-0.27807435
181	0xbdbee0d1	-0.09320224
182	0x3e7d8b6f	0.24760221
183	0xbe8c62a0	-0.27418995
184	0xbd9ac72c	-0.0755752
185	0xbe9cca15	-0.30622926
186	0x3de67e4b	0.11254557
187	0x3d87d55e	0.066324934
188	0x3ded3698	0.115826786
189	0x3c077630	0.008267924
190	0xbcc0e6e3	-0.023547595
191	0x3e0bdbe6	0.13658103
192	0xbe952550	-0.2913003
193	0xbe0fb81e	-0.14035079
194	0xbde7adcc	-0.11312446
195	0x3ca3ae00	0.01998043
196	0xbd344e32	-0.044019885
197	0xbe1242ed	-0.14283343
198	0xbd86b988	-0.06578356
199	0x3d80427f	0.06262683
200	0xbe209893	-0.15683202
201	0xbe4be212	-0.19910458
202	0xbe908f70	-0.28234434
203	0xbe0cd55c	-0.13753265
204	0xbd90065f	-0.07032465
205	0xbdcbe583	-0.09955885
206	0xbd593e17	-0.05303773
207	0x3d2ea243	0.042635214
208	0xbdf7abd6	-0.12093322
209	0x3d4f9eb7	0.05068847
210	0xbe454ec1	-0.19268323
211	0x3dd7412b	0.10510477
212	0x3da1d879	0.07902617
213	0xbdcd6b3b	-0.10030218
214	0xbdcea921	-0.100908525
215	0xbe7baeae	-0.24578354
216	0xbdf070b6	-0.11740248
217	0x3e2d9f9c	0.16955417
218	0x3cc29773	0.023753857
219	0x3a323f00	0.0006799549
220	0xbc7bf936	-0.015379241
221	0x3d8edaf0	0.06975353
222	0xbbcc0632	-0.0062263245
223	0xbd8149bb	-0.06312891
224	0xbe5d7396	-0.21626124
225	0x3dc6972f	0.09696805
226	0xbc707910	-0.014677301
227	0x3e198ab4	0.14994317
228	0xbea28e54	-0.31749213
229	0xbe24f660	-0.1610961
230	0x3d6ed414	0.058307722
231	0x3d6cae18	0.057783216
232	0x3d41b2ce	0.047289662
233	0x3df7606a	0.120789364
234	0x3d4d4801	0.050117496
235	0xbcaca829	-0.021076279
236	0x3c9676fd	0.018367285
237	0xbc5d2e30	-0.0134997815
238	0xbd94d6fa	-0.07267566
239	0x3d44f967	0.04808941
240	0xbe8e2220	-0.2776041
241	0x3dc1cda9	0.09463055
242	0xbcb79ec4	-0.022414573
243	0x3e01799c	0.12644047
244	0x3db0387e	0.08604525
245	0xbe387cc8	-0.1801635
246	0xbb01cac0	-0.0019804686
247	0xbe3a26e3	-0.18178897
248	0xbd0a7252	-0.03380043
249	0xbcaa742d	-0.02080735
250	0x3deb85db	0.1150014
251	0x3d459cee	0.048245363
252	0xbd9e4064	-0.07727125
253	0x3cd2b2ff	0.025720118
254	0xbe91c624	-0.28471482
255	0x3d62d582	0.0553794

network.8.bias f4 [32]
0	0xbee7ea33	-0.45295867
1	0x3c0c6074	0.008567918
2	0xbea13148	-0.3148291
3	0x3de4c170	0.11169708
4	0xbdb94eff	-0.090482704
5	0xbd62b19a	-0.055345155
6	0xb91a0bc1	-0.00014690963
7	0xbda22346	-0.07916884
8	0xbe80b464	-0.25137627
9	0xbeac23ce	-0.33621067
10	0xbd35e754	-0.044410065
11	0x3cc9c685	0.024630794
12	0xbeb6aaf5	-0.35677305
13	0xbe926a17	-0.28596565
14	0xbe159451	-0.1460736
15	0x3daf84b6	0.085702345
16	0x3d1538c2	0.03643108
17	0xbe17a0f1	-0.14807488
18	0xbeeebec9	-0.46629933
19	0xbcf8c654	-0.030368008
20	0xbe13da71	-0.14438798
21	0xbdecfd1b	-0.115717135
22	0xbcf49960	-0.029858291
23	0x3ecbf617	0.3983619
24	0xbb866119	-0.0041009304
25	0xbdb7e1ae	-0.08978592
26	0xbd9d519c	-0.076815814
27	0x3ece985b	0.40350613
28	0xbe8c1977	-0.27363178
29	0xbdf04fe8	-0.11733991
30	0xbd516937	-0.05112573
31	0xbe25a46d	-0.16176005
