trained_models/Genetic_example_easy_50_gens/model.pth (torch, 153423 bytes, 8 tensors)

model.0.weight f4 [128, 24]
-0.0718673 0.012728875 -0.528433 0.22977674 -1.0411038 0.838379 -0.9295716 -0.42965242
0.6125724 -0.33787143 0.17634328 0.07847075 -0.6733307 0.18463501 0.3377404 -0.07211255
0.32690397 0.4331853 -0.87240666 0.46229833 0.43684885 -1.2258594 -1.1583424 0.9408754
-0.4331535 -0.5923411 0.24543841 0.7283215 0.78569055 0.37912676 -0.9110324 -0.39007586
-0.1975764 -0.5532248 -0.76483727 -0.3586194 0.76542175 -0.74391544 -0.5159262 -0.6221067
0.34794837 0.062517025 -0.3393101 0.4571673 -0.033810135 -0.9942256 0.4569756 -0.6043259
-0.5204214 -0.36226547 0.72391397 0.112836584 -0.007001909 0.8756632 -0.63654405 0.848585
-0.64581263 -0.49953467 -0.9803038 -0.73861486 0.13781303 -0.2228285 0.45705488 0.72971493
0.47590554 0.4531446 0.48685944 0.36803377 0.31771526 0.01867134 -0.11710212 -0.38508233
-0.46577957 0.079054706 -0.6272376 0.71760714 0.69446695 -0.06737009 -0.82953644 0.30080736
0.01920322 -0.83949256 -0.6880234 -0.96371037 -0.2730682 -0.6747607 0.95775837 -0.50121117
-0.9756088 0.39600545 0.103815615 0.5857776 -0.7815626 0.3944917 -0.673639 0.0233073
-0.334319 -0.48349184 -0.62238413 0.6122878 -0.5963567 -0.6647691 0.7589849 0.06369157
-0.22320005 -0.14469156 0.21214153 -0.32361317 -0.40140787 -0.730972 0.82475805 -0.80466187
0.08679512 -1.4112465 0.06767838 0.023024311 0.30401024 -0.79569036 0.72209394 -0.5957561
0.049202695 -0.55624366 1.0772892 -0.58551055 -0.7034474 -0.28390944 0.793472 -0.7816958
-0.7837686 0.9643426 -0.6769547 -1.190384 1.1244947 -0.4494835 0.38011956 0.03941853
-0.918765 0.121654205 0.79675066 0.66945314 -0.9767453 -0.62591434 -0.2264904 -0.70347893
0.7334806 -0.25147507 -0.060241025 -0.999315 -0.4408936 0.12554942 -0.28422192 0.82005066
0.33709836 0.6272243 1.0438738 0.8533668 -1.3807315 -0.4761205 0.7387491 -0.09656074
-0.106464684 -0.13527203 0.6302296 -0.12859754 -0.44596523 -0.44803348 0.77257425 0.7359973
0.8366521 -0.78678936 -0.6592606 -0.16601808 -0.68068975 -0.19203164 -0.070333034 -0.5725365
0.29021046 0.6964929 0.7368023 0.94300526 -0.9062661 0.39329007 -0.39335334 0.24373312
0.70765835 -1.003848 -0.046019647 0.31482306 -0.28260443 0.6988074 -0.82849103 -0.37756228
-0.3559528 0.43847606 -0.7047455 -1.7551622 0.7540021 -0.6051411 0.5398518 -0.6217744
0.049300063 -0.79176617 0.2838734 -0.5750705 0.36963144 0.72042835 0.2900618 0.64401424
-1.0143943 0.6850754 -0.2014174 0.22402355 -1.0513456 0.1397619 -0.9708149 0.42670274
0.26265934 -0.44765323 -0.35025442 -0.7012752 -0.8365321 -0.071360156 -0.80568624 0.9900127
0.94304484 -1.2258221 1.1971524 0.33772305 -0.85208726 -0.83433956 -0.36990848 0.43524882
0.37572387 -0.06155808 -0.32287422 1.138853 -0.24398251 0.7041211 -0.22578935 0.84147185
0.10822392 0.07574761 -1.4295553 0.24462399 -0.70691264 0.37811407 -0.49677655 -0.78273237
0.29961938 0.89658743 -0.16671637 0.13005772 -0.08094863 -0.2508924 -0.3223794 0.5535079
00000000: 2a2f 93bd c58c 503c 6347 07bf 984a 6b3e
00000010: e442 85bf 02a0 563f 68f8 6dbf 67fb dbbe
00000020: 8bd1 1c3f 7cfd acbe 5593 343e 46b5 a03d
00000030: 675f 2cbf f610 3d3e 4fec ac3e bfaf 93bd
00000040: f55f a73e 77ca dd3e 0b56 5fbf 5eb2 ec3e
00000050: a7aa df3e f6e8 9cbf 9044 94bf 36dd 703f
00000060: 4cc6 ddbe aba3 17bf 3554 7b3e 4773 3a3f
00000070: 0423 493f e71c c23e 6b39 69bf 06b8 c7be
00000080: 7851 4abe 24a0 0dbf 60cc 43bf f69c b7be
00000090: aef2 433f 3e71 3ebf bd13 04bf 6242 1fbf
000000a0: 4a26 b23e ed08 803d 0eba adbe d511 ea3e
000000b0: 7f7c 0abd 9285 7ebf b5f8 e93e 1ab5 1abf
000000c0: 563a 05bf dc7a b9be 6d52 393f de16 e73d
000000d0: 4570 e5bb 772b 603f 8df4 22bf de3c 593f
000000e0: fa53 25bf 02c3 ffbe 31f5 7abf dd15 3dbf
000000f0: dc1e 0d3e 282d 64be 1903 ea3e 99ce 3a3f
00000100: e4a9 f33e 9202 e83e a445 f93e ec6e bc3e
00000110: 93ab a23e a3f4 983c 3cd3 efbd 8329 c5be
00000120: a97a eebe 6fe7 a13d a592 20bf 1ab5 373f
00000130: 96c8 313f 54f9 89bd 805c 54bf 6c03 9a3e
00000140: 1250 9d3c fce8 56bf 4d22 30bf b9b5 76bf
00000150: 98cf 8bbe 1ebd 2cbf a72f 753f 604f 00bf
00000160: 80c1 79bf 3ac1 ca3e 489d d43d 85f5 153f
00000170: 7d14 48bf d1fa c93e 9b73 2cbf f3ee be3c
00000180: dc2b abbe 3e8c f7be 9154 1fbf e5be 1c3f
00000190: d5aa 18bf 4f2e 2abf d64c 423f ba70 823d
000001a0: 8e8e 64be 062a 14be a13b 593e a0b0 a5be
000001b0: 5585 cdbe fb20 3bbf 5823 533f 52fe 4dbf
000001c0: a4c1 b13d baa3 b4bf f69a 8a3d 7b9d bc3c
000001d0: 3ba7 9b3e 5db2 4bbf 26db 383f 7983 18bf
000001e0: c488 493d fc65 0ebf 9de4 893f 05e4 15bf
000001f0: 2115 34bf 945c 91be fb20 4b3f 371d 48bf
00000200: 0fa5 48bf 28df 763f e74c 2dbf 815e 98bf
00000210: 71ef 8f3f b422 e6be 089f c23e 5375 213d
00000220: 2f34 6bbf d725 f93d daf7 4b3f 4861 2b3f
00000230: fb0b 7abf ec3b 20bf 19ed 67be 3217 34bf
00000240: 62c5 3b3f 57c1 80be 4bbf 76bd 1cd3 7fbf
00000250: cebc e1be 0790 003e 8985 91be d7ee 513f
00000260: 2898 ac3e c691 203f a89d 853f 3f76 5a3f
00000270: cfbb b0bf 11c6 f3be a91e 3d3f a3c1 c5bd
00000280: 280a dabd c084 0abe ba56 213f 13af 03be
00000290: 8e55 e4be a564 e5be 6dc7 453f 526a 3c3f
000002a0: d52e 563f 076b 49bf 4dc5 28bf a500 2abe
000002b0: af41 2ebf f1a3 44be c40a 90bd c191 12bf
000002c0: 7796 943e 5c4d 323f 139f 3c3f cb68 713f
000002d0: 0e01 68bf 515d c93e 9c65 c9be 2d95 793e
000002e0: 1929 353f 177e 80bf 197f 3cbd 7d30 a13e
000002f0: 87b1 90be 0be5 323f fd17 54bf d84f c1be
00000300: 723f b6be ef7f e03e 336a 34bf 28a9 e0bf
00000310: 4806 413f 87ea 1abf ba33 0a3f 9b2c 1fbf
00000320: ddee 493d 30b1 4abf db57 913e d237 13bf
00000330: 5540 bd3e fe6d 383f fb82 943e 1ede 243f
00000340: acd7 81bf 1a61 2f3f 5d40 4ebe 6e66 653e
00000350: 7e92 86bf be1d 0f3e 5387 78bf c878 da3e
00000360: 497b 863e ce32 e5be 8c54 b3be c686 33bf
00000370: f826 56bf 4625 92bd 7441 4ebf 7971 7d3f
00000380: 636b 713f bde7 9cbf 4a3c 993f 09ea ac3e
00000390: 6422 5abf 4797 55bf a564 bdbe efd8 de3e
000003a0: e15e c03e 5324 7cbd c54f a5be efc5 913f
000003b0: 8dd6 79be 4841 343f 5335 67be b36a 573f
000003c0: 81a4 dd3d 9021 9b3d abfb b6bf b67e 7a3e
000003d0: 3af8 34bf 2b98 c13e 7f59 febe 2661 48bf
000003e0: b667 993e c186 653f b2b7 2abe da2d 053e
000003f0: 65c8 a5bd f874 80be ea0e a5be b2b2 0d3f

model.0.bias f4 [128]
0.79286695 -0.10271074 0.29868406 0.5405705 0.64904344 -0.76306033 0.4959778 1.1270173
0.80221 -0.6354033 -0.46625942 0.66214657 1.2349313 -0.47604814 0.29101607 -0.9426842
0.014218747 -0.21691899 0.9058257 0.5673997 -0.13365164 0.23423217 -0.2598482 0.25949293
0.85555476 -0.9550546 -0.5022177 -0.23122185 0.6683922 1.6619686 0.26332378 -0.9592509
-0.50499195 -0.3294978 0.27561936 -0.3865348 -0.9917996 0.7026336 0.7994585 0.53660846
0.21431537 -0.25323433 0.55787987 -0.26097035 -0.5975254 -0.8888254 -0.23679587 0.17632231
0.14352566 0.17001033 0.17041612 0.35310155 1.2349969 -0.27307838 -0.53569084 -0.84188205
-0.0017509921 0.000345822 -0.7596329 0.507876 0.30067587 -0.752843 0.30985767 -0.088131964
0.22523312 0.37978643 -0.6262113 0.25200006 -0.96981245 0.38355833 -0.52268595 0.7297775
-0.9610957 1.089041 -0.1150839 -0.8197658 0.8998397 0.027117176 0.010529568 0.21043177
-0.22450602 -0.6139382 0.71697384 -0.33750886 -1.2721673 1.1395258 -0.5287245 1.0988442
-0.6231739 -0.53153235 0.35647896 0.015541321 0.8748941 -0.22025418 -0.5776268 -0.73858875
0.953156 -1.7938751 -0.6286094 -0.3906472 0.098181605 0.9189804 -0.108990155 -0.055682883
-0.0058774883 -0.17495586 -0.5526495 -0.72922534 -1.4490461 -0.089289166 -0.2860441 0.531421
-0.13235159 0.47742504 -0.03040896 0.38085127 -0.5954643 0.27616304 -0.83387864 0.6177082
-0.9148101 -0.0054683615 0.28135115 0.6247209 0.31774724 0.83478653 -1.030333 0.29843578
00000000: 54f9 4a3f 025a d2bd 1eed 983e d462 0a3f
00000010: b627 263f ec57 43bf cdf0 fd3e 1a42 903f
00000020: a25d 4d3f caa9 22bf 8eb9 eebe 7082 293f
00000030: 3b12 9e3f 95bc f3be 0f00 953e c053 71bf
00000040: bff5 683c 0320 5ebe 31e4 673f 1b41 113f
00000050: fadb 08be 8fda 6f3e d30a 85be 42dc 843e
00000060: a305 5b3f 757e 74bf 5791 00bf 6cc5 6cbe
00000070: c01b 2b3f 63bb d43f 60d2 863e 7891 75bf
00000080: 2747 01bf f0b3 a8be fb1d 8d3e e4e7 c5be
00000090: 94e6 7dbf ccdf 333f 50a9 4c3f 2c5f 093f
000000a0: 7d75 5b3e eea7 81be 37d1 0e3f e89d 85be
000000b0: 6df7 18bf 108a 63bf 9e7a 72be d68d 343e
000000c0: 64f8 123e 3017 2e3e 9081 2e3e bac9 b43e
000000d0: 6114 9e3f eed0 8bbe 0923 09bf 9585 57bf
000000e0: 8c81 e5ba 714f b539 4d77 42bf 2904 023f
000000f0: 30f2 993e 52ba 40bf aaa5 9e3e 887e b4bd
00000100: 83a3 663e 5e73 c23e 624f 20bf 2706 813e
00000110: a145 78bf c261 c43e bfce 05bf b3d2 3a3f
00000120: 5e0a 76bf b265 8b3f 1cb1 ebbd 2cdc 51bf
00000130: e55b 663f d724 de3c 3684 2c3c 6d7b 573e
00000140: e8e4 65be 0e2b 1dbf 998b 373f f6cd acbe
00000150: 61d6 a2bf fbdb 913f 7d5a 07bf eda6 8c3f
00000160: 5388 1fbf 8112 08bf 6984 b63e 06a1 7e3c
00000170: 0ff9 5f3f 508a 61be 5adf 13bf 2714 3dbf
00000180: 0802 743f b39d e5bf 8cec 20bf e902 c8be
00000190: 7013 c93d 4d42 6b3f 3b36 dfbd bc13 64bd
000001a0: f297 c0bb a127 33be 707a 0dbf 83ae 3abf
000001b0: 587a b9bf 3ddd b6bd 5f74 92be 350b 083f
000001c0: 2d87 07be 0e71 f43e 361c f9bc f0fe c23e
000001d0: 5970 18bf 3e65 8d3e 1279 55bf 2022 1e3f
000001e0: ff30 6abf f12f b3bb 420d 903e b5ed 1f3f
000001f0: c4af a23e 92b4 553f f4e1 83bf 93cc 983e

model.2.weight f4 [128, 128]
-0.40187156 -0.40481904 0.07556073 0.5857125 0.29787907 0.9495095 0.9811 0.22930041
-0.11825759 0.28606352 0.86858773 0.8654082 -0.10296523 -0.16898361 0.5183853 0.9263704
0.98843473 0.9344411 0.074399285 0.45142245 -0.4491087 0.14761399 0.13010128 -0.9723793
0.98140454 -0.9061935 -0.6100091 -0.4348141 -0.6010504 0.929636 0.648662 -0.30003816
0.38969633 -0.2555003 0.13370354 0.27912244 -0.2082201 0.7916055 -0.5842702 -0.7019324
-0.16456053 -0.4711411 -0.86056143 0.42295742 -0.45355204 -0.9279072 0.08752468 0.3748229
0.9326285 0.6970654 -0.2283028 0.9316793 0.7708361 -0.025501324 -0.42089602 0.5489563
0.19831255 -0.14140278 -0.6232828 -0.6991688 -1.5091264 -0.55717814 0.21102203 -0.48705578
0.5105634 -1.8480282 -0.6258988 0.5903983 -0.6617694 0.40827107 -0.31929964 -0.64044654
0.6582517 -0.6275765 0.39874992 -0.86598366 -1.0151203 0.6817433 0.66087973 -0.3566139
-0.45853215 0.25764883 0.61644703 -0.04194774 -0.18072735 0.4581436 0.3620999 -0.45480356
0.19920112 0.5758094 0.033133578 -0.23892578 0.4085982 0.06644325 -0.9322652 0.36963487
0.88898385 0.81245786 0.047303654 0.29975912 0.5229222 0.029478475 0.8645704 0.934083
0.8884245 0.19464514 -0.5899755 0.13404977 -1.0333321 0.62710994 0.34081304 0.8452776
0.55579334 -0.48056346 0.26942068 -0.4364029 -0.9293326 0.8167881 0.7461242 -0.82904637
0.97947776 0.28712285 0.88630855 0.32931793 0.09298716 0.23046252 -0.7266078 0.17164
-0.46243468 -1.3529708 0.52626944 -0.041567273 -0.3074104 -0.29472432 0.546102 0.6801606
0.45226792 -0.520277 -0.17500177 0.6775349 -0.11726097 -0.31915492 0.77873856 -0.65124005
0.94139564 -1.0285491 0.35325545 0.93149745 0.09317347 0.51917213 -0.006299121 0.20848793
-0.18164147 0.49051127 -0.0016862642 -0.35931176 -1.0446724 -1.3032548 -1.2365793 -0.43463153
-0.8733688 -0.97738713 -0.56098163 -0.8315366 0.2748015 -0.104682356 -0.6330258 0.10163958
0.7617719 -0.12424859 0.6811432 -0.57000613 0.2863728 -0.9078982 -0.77297145 0.47925946
-0.8777609 -0.84024334 -0.5394727 1.1794769 0.27389282 -0.42607886 -0.33530343 0.67820597
-0.87776464 -0.6330138 -0.06482591 -0.83631164 -0.19137804 -0.27349672 -0.88914835 0.7093029
0.15459687 -0.88198435 -0.015196975 -0.9777752 -0.0632306 -0.32396 -1.3132957 -0.44315556
0.8393414 0.2373071 0.30937007 0.25058618 0.2848138 0.8491335 0.8220689 -0.2667314
0.67468005 -0.4462274 -0.28656277 -0.09781796 0.8430505 1.0546263 0.28873393 -0.8317861
-0.8621829 -0.6561134 -0.31536204 -0.11502991 -0.748317 -0.66054475 -1.1290257 -0.60867345
0.44175145 -0.36994374 0.6576545 0.5381771 0.672081 0.692673 0.8195619 -1.0493348
-0.22647858 0.032854084 0.3432376 0.15393327 0.05040318 0.33996662 0.3323751 -0.3970019
0.15147702 -0.39291874 -0.7477461 0.6735416 0.06941499 -0.14119944 0.7588145 -0.54841805
0.22705516 -0.32342288 -0.4165943 0.40248212 -1.5831114 0.95462614 0.037896708 -0.15579902
00000000: 1cc2 cdbe 7144 cfbe 96bf 9a3d 41f1 153f
00000010: 9b83 983e 0e13 733f 5f29 7b3f bacd 6a3e
00000020: 0931 f2bd eb76 923e c45b 5e3f 648b 5d3f
00000030: 6fdf d2bd 0a0a 2dbe e6b4 043f 9c26 6d3f
00000040: 0f0a 7d3f 8837 6f3f a75e 983d d820 e73e
00000050: 93f1 e5be 1f28 173e 4539 053e daed 78bf
00000060: 543d 7b3f 4cfc 67bf 8e29 1cbf f49f debe
00000070: 70de 19bf a0fc 6d3f b60e 263f 9a9e 99be
00000080: 4786 c73e efd0 82be 95e9 083e 23e9 8e3e
00000090: a637 55be a8a6 4a3f bb92 15bf d7b1 33bf
000000a0: 8e82 28be 6839 f1be c14d 5cbf e08d d83e
000000b0: f937 e8be 548b 6dbf 2440 b33d cae8 bf3e
000000c0: bec0 6e3f e172 323f 36c8 69be 8982 6e3f
000000d0: 8455 453f 27e8 d0bc af7f d7be 6688 0c3f
000000e0: 7212 4b3e e4cb 10be 768f 1fbf bafc 32bf
000000f0: 0e2b c1bf 3aa3 0ebf 2916 583e 605f f9be
00000100: 48b4 023f 308c ecbf e73a 20bf 5824 173f
00000110: b869 29bf e808 d13e 3e7b a3be 4ef4 23bf
00000120: 2f83 283f daa8 20bf f328 cc3e 1bb1 5dbf
00000130: 76ef 81bf bb86 2e3f 6a2f 293f 1996 b6be
00000140: bac4 eabe 8cea 833e 79cf 1d3f 65d1 2bbd
00000150: 9710 39be cc91 ea3e 2865 b93e 03dc e8be
00000160: 61fb 4b3e 3f68 133f 13b7 073d f6a8 74be
00000170: c933 d13e 6613 883d efa8 6ebf c840 bd3e
00000180: 7294 633f 3dfd 4f3f 7ac1 413d 077a 993e
00000190: 3bde 053f d87c f13c 7c54 5d3f 1020 6f3f
000001a0: ca6f 633f 0e51 473e a208 17bf 5844 093e
000001b0: 3a44 84bf 478a 203f 0c7f ae3e 1d64 583f
000001c0: 7948 0e3f 6a0c f6be 82f1 893e 3370 dfbe
000001d0: bee8 6dbf 0619 513f ff01 3f3f 623c 54bf
000001e0: 0ebf 7a3f c401 933e 1ee5 623f 5c9c a83e
000001f0: 0d70 be3d 5efe 6b3e f802 3abf 65c2 2f3e
00000200: 3dc4 ecbe 262e adbf 98b9 063f 7242 2abd
00000210: e564 9dbe 1be6 96be 57cd 0b3f 011f 2e3f
00000220: a98f e73e e030 05bf aa33 33be ed72 2d3f
00000230: 8526 f0bd 4668 a3be 695b 473f abb7 26bf
00000240: 4eff 703f 7fa7 83bf e6dd b43e 9e76 6e3f
00000250: bbd1 be3d 77e8 043f db68 cebb dc7d 553e
00000260: 3900 3abe 4b24 fb3e a305 ddba b6f7 b7be
00000270: d3b7 85bf 0ed1 a6bf 3b48 9ebf 0688 debe
00000280: 1995 5fbf 0b36 7abf 7e9c 0fbf 95df 54bf
00000290: c8b2 8c3e b463 d6bd fb0d 22bf 6a28 d03d
000002a0: 7c03 433f 0b76 febd 675f 2e3f eceb 11bf
000002b0: 759f 923e 046c 68bf 75e1 45bf 7f61 f53e
000002c0: f0b4 60bf 301a 57bf e21a 0abf 19f9 963f
000002d0: ae3b 8c3e 0227 dabe e4ac abbe e89e 2d3f
000002e0: 2fb5 60bf 310d 22bf 72c3 84bd 8518 56bf
000002f0: 9bf8 43be c307 8cbe 3a9f 63bf e094 353f
00000300: a44e 1e3e bac9 61bf bcfc 78bc 7a4f 7abf
00000310: 0b7f 81bd 16de a5be 131a a8bf 49e5 e2be
00000320: 14df 563f a200 733e c165 9e3e d54c 803e
00000330: 1dd3 913e d060 593f 1c73 523f 0591 88be
00000340: d5b7 2c3f eb77 e4be 5bb8 92be c854 c8bd
00000350: 28d2 573f fffd 863f efd4 933e efef 54bf
00000360: 05b8 5cbf 0cf7 27bf 2277 a1be cd94 ebbd
00000370: b491 3fbf 7619 29bf ea83 90bf 06d2 1bbf
00000380: 3f2d e23e 4469 bdbe 0c5c 283f f9c5 093f
00000390: 800d 2c3f 0553 313f cfce 513f 9a50 86bf
000003a0: 00ea 67be 0192 063d d7bc af3e afa0 1d3e
000003b0: 9173 4e3d 1b10 ae3e 122d aa3e d543 cbbe
000003c0: cb1c 1b3e a52c c9be 4a6c 3fbf 396d 2c3f
000003d0: 7229 8e3d 9696 10be ab41 423f 2065 0cbf
000003e0: 2681 683e af97 a5be d94b d5be 2312 ce3e
000003f0: 65a3 cabf 6162 743f 9439 1b3d c789 1fbe

model.2.bias f4 [128]
-0.0073466124 -0.17669858 -0.3281625 -0.11812573 -0.9535259 0.5747202 0.7576278 -0.26464725
-0.56187487 -0.78215677 0.2755589 -0.3982441 0.6139434 -0.29435766 -0.71433413 0.812057
-0.54222023 1.3877823 -1.4565089 -0.82894236 -1.0121958 0.18359607 0.16324021 0.84427303
-1.0215427 -0.5853041 -1.1368184 -0.53087956 0.6067197 1.5008277 -0.8340946 1.536205
-0.3019864 -0.31042472 -0.37993228 -0.07280591 -0.013689034 -0.25754443 0.38278416 0.28195512
-0.7513584 -0.091778584 0.6652343 0.1626419 1.1780657 0.81033134 0.7547963 0.4894924
-0.67245406 0.9279199 -0.035693225 -0.76113623 -0.38413602 -0.3368103 -0.23284808 -0.3708249
-0.029287761 -0.09924256 0.28316373 0.8540092 1.3777741 0.54781574 1.3204348 -0.6728169
-0.58850783 -0.11278733 0.9722974 -0.66857713 -0.3142226 0.4806912 -0.36565092 -0.4747013
-0.16861896 -0.82223827 0.16134167 -0.43755516 0.33592716 0.45436198 0.93860835 -0.17883544
0.94148475 -0.34391356 0.19964373 -0.08618674 -0.63322604 0.05781159 -0.60086244 0.31517833
-0.030301606 0.2708986 -0.4377769 0.29047623 -0.57158244 0.690317 0.87061507 0.24078836
1.4401941 -0.12011379 -0.15071182 -0.5081652 -0.43386015 0.093111746 -0.107368596 -0.41407716
-0.6108688 -0.13893911 -0.34347513 0.020090245 1.0474507 -0.35167778 0.7332288 0.45616075
-0.89363265 -0.2464092 -0.3369453 0.9930028 0.2926537 0.041535717 -0.2751955 0.5456917
-0.09457679 0.5729011 0.555896 0.2590832 0.66870093 -0.6771117 0.28469306 1.0836914
00000000: dabb f0bb 79f0 34be ea04 a8be e7eb f1bd
00000010: 461a 74bf dd20 133f e5f3 413f d87f 87be
00000020: 08d7 0fbf 6d3b 48bf 0e16 8d3e a7e6 cbbe
00000030: 652b 1d3f 0cb6 96be 9ade 36bf f8e2 4f3f
00000040: f2ce 0abf daa2 b13f e26e babf 9135 54bf
00000050: a28f 81bf 9c00 3c3e 7128 273e 4722 583f
00000060: e9c1 82bf 7dd6 15bf 4483 91bf b9e7 07bf
00000070: fb51 1b3f 1f1b c03f 3987 55bf 5ea2 c43f
00000080: f69d 9abe fdef 9ebe 7c86 c2be 441b 95bd
00000090: f847 60bc dddc 83be 49fc c33e 6c5c 903e
000000a0: 0659 40bf 69f6 bbbd cc4c 2a3f 998b 263e
000000b0: dbca 963f e071 4f3f 553a 413f bf9e fa3e
000000c0: f325 2cbf 298c 6d3f 0f33 12bd d3d9 42bf
000000d0: 7aad c4be 6672 acbe ba6f 6ebe c3dc bdbe
000000e0: e3ec efbc af3f cbbd d6fa 903e 59a0 5a3f
000000f0: e75a b03f a73d 0c3f 0204 a93f ba3d 2cbf
00000100: 73a8 16bf 0bfd e6bd 7be8 783f df27 2bbf
00000110: c9e1 a0be 281d f63e 9936 bbbe 0c0c f3be
00000120: 73aa 2cbe 357e 52bf c036 253e 3b07 e0be
00000130: a5fe ab3e 22a2 e83e a348 703f a320 37be
00000140: 2505 713f 7015 b0be 686f 4c3e ac82 b0bd
00000150: 1a1b 22bf d9cb 6c3d 1fd2 19bf 0e5f a13e
00000160: 133b f8bc 39b3 8a3e 4b24 e0be 4db9 943e
00000170: 3a53 12bf 9db8 303f a1e0 5e3f 3991 763e
00000180: 4858 b83f 38fe f5bd 3354 1abe 1d17 02bf
00000190: eb22 debe 5fb1 be3d 11e4 dbbd ec01 d4be
000001a0: e661 1cbf 0e46 0ebe f9db afbe 4c94 a43c
000001b0: dd12 863f 1c0f b4be e2b4 3b3f e78d e93e
000001c0: 1cc5 64bf b152 7cbe 1884 acbe 6e35 7e3f
000001d0: b5d6 953e 5b21 2a3d 6de6 8cbe 74b2 0b3f
000001e0: 7ab1 c1bd a6a9 123f 334f 0e3f 8ea6 843e
000001f0: fc2f 2b3f 3157 2dbf 4ac3 913e 66b6 8a3f

model.4.weight f4 [128, 128]
1.0999125 -0.31949773 -0.8535807 0.13607971 0.3842152 0.52199346 -0.029043956 0.09900534
-0.14555483 -0.47891712 0.8172339 -0.009995962 -0.9001036 0.2595363 -0.11808247 -0.053034607
-0.5541053 -0.36663756 0.9869126 -0.9371158 0.71001923 0.7868013 1.2606196 0.0142560955
-0.11313311 0.35653836 -1.9059167 -1.4577852 0.37875 -0.73592603 -0.087736756 -0.19163793
-0.41458744 0.4083315 0.75851816 -0.3943189 0.10405862 -0.2490695 -0.6925074 0.32261518
-0.61561286 0.29125834 0.6382874 -0.405285 -0.82196766 0.63878894 0.45222437 1.0728548
-0.16143791 -0.3239526 0.469989 -0.41333014 -0.07547223 -0.6608919 0.61582446 -0.5539493
-0.04814555 -0.92972744 0.2971408 0.16429351 -1.0924745 -0.12074368 -0.4467896 -0.26628274
0.28639603 0.688908 -1.5043825 -0.6921945 -0.21460922 -0.5088792 -0.9405471 0.34535623
-0.7039135 -0.29345876 0.34069613 0.5639019 0.6788451 -0.15220734 -0.192291 -0.86200875
-1.0235733 -0.8716785 0.59088975 -0.85600376 -0.53718066 0.4587192 0.41837612 1.6635835
-0.30271697 -0.5003251 -0.22194335 -0.5951667 -0.76869774 -1.931906 0.439408 -0.07683393
0.71472484 0.3085055 -0.47881705 0.30601177 -0.13989213 0.4881932 -0.3766561 -0.31095332
0.4727482 -0.58324456 0.7119122 0.07993146 0.79419637 0.14930111 0.6271723 -0.7202568
0.15390164 0.46678302 0.011165115 0.37596938 0.97862965 0.45439637 -0.3037327 0.0058465847
0.7336808 0.8840741 0.2523832 0.59775364 0.50493324 0.32652602 -0.17118831 0.09604735
0.642246 0.56378806 -0.8987255 0.37480438 0.6451518 -0.7938567 0.33081314 -0.055806704
1.732576 0.7508675 0.9050091 0.2649191 1.0774835 0.98711634 1.1520946 0.78207976
-0.7867858 -0.12730628 0.08585132 0.88554615 0.33060732 0.6249294 0.77232176 0.47737053
0.43255785 0.3290921 0.53697294 -0.5715599 0.43908444 0.4289796 -1.0002387 -0.27507037
0.41093624 0.17856997 -0.15761182 -0.8074455 -1.8245852 1.1903687 0.80197155 0.70791984
-0.84342825 -0.12642604 -0.8902097 0.70770484 0.0923873 0.046339855 -0.13820815 -0.17328551
-0.1720612 -0.693079 -0.16572541 -0.6530432 0.380815 0.18929806 0.050929118 -0.47322124
-0.30040485 0.4035384 0.25617188 -0.27692986 -0.818133 -1.1314422 -0.066159226 -0.42698452
-0.7339468 1.79043 -0.8533118 0.5860878 0.8935919 0.3733789 0.9434243 -0.44380507
-0.15702838 0.69399494 -0.3413766 0.8000493 0.008113768 -0.14058864 -0.9100761 -0.42792115
-1.5417452 0.90588605 -0.14829007 -0.3725395 0.9317886 -0.7515119 -0.5593706 -0.0815654
0.58832234 0.89331996 -0.5834693 0.80772126 -0.60255635 -0.15815328 0.2505502 0.6848604
0.9519189 -0.4893715 0.9757915 -0.9466972 -0.6434472 -0.96934694 -0.91728693 0.46551543
-0.097863436 -0.8055739 -0.23193184 1.0733858 -0.21122622 -0.84209275 -0.09748034 -1.9774537
-0.8306817 -0.6926841 -0.26222876 0.49894685 0.62552834 -0.86764103 -0.91155446 -0.36867556
0.4612262 -0.6145075 -0.27503145 0.20812927 0.2897511 0.39686695 1.0045352 -0.34957743
00000000: efc9 8c3f 3595 a3be 4484 5abf 7b58 0b3e
00000010: dbb7 c43e 5da1 053f 97ed edbc 50c3 ca3d
00000020: 530c 15be a034 f5be 3e36 513f 1ac6 23bc
00000030: 316d 66bf f1e1 843e 39d5 f1bd d13a 59bd
00000040: d8d9 0dbf ebb7 bbbe 4ea6 7c3f d2e6 6fbf
00000050: d2c3 353f cf6b 493f fc5b a13f 6692 693c
00000060: 55b2 e7bd 328c b63e 14f5 f3bf b598 babf
00000070: 85eb c13e a665 3cbf 54af b3bd bc3c 44be
00000080: ce44 d4be d410 d13e 3f2e 423f 2be4 c9be
00000090: b01c d53d 130c 7fbe 2a48 31bf d12d a53e
000000a0: ce98 1dbf d01f 953e ce66 233f 8481 cfbe
000000b0: 796c 52bf ac87 233f f489 e73e 4e53 893f
000000c0: fb4f 25be 1ddd a5be 66a2 f03e 02a0 d3be
000000d0: 2f91 9abd 3630 29bf aca6 1d3f 9fcf 0dbf
000000e0: 4534 45bd 9e02 6ebf d722 983e 8f3c 283e
000000f0: 34d6 8bbf 7648 f7bd 9bc1 e4be 3656 88be
00000100: 80a2 923e 465c 303f 9b8f c0bf a933 31bf
00000110: 85c2 5bbe e845 02bf b2c7 70bf 88d2 b03e
00000120: ad33 34bf 3a40 96be b96f ae3e e05b 103f
00000130: cbc8 2d3f 3edc 1bbe efe7 44be 9bac 5cbf
00000140: 7304 83bf 5226 5fbf 8d44 173f 1023 5bbf
00000150: ac84 09bf 3edd ea3e 6535 d63e 4ef0 d43f
00000160: b8fd 9abe 4e15 00bf 1e45 63be d85c 18bf
00000170: 60c9 44bf b248 f7bf 16fa e03e 1c5b 9dbd
00000180: 35f8 363f 6ff4 9d3e 8227 f5be 93ad 9c3e
00000190: e23f 0fbe 76f4 f93e 11d9 c0be 4635 9fbe
000001a0: 0d0c f23e 844f 15bf e13f 363f 1bb3 a33d
000001b0: 7450 4b3f 64e2 183e 5d8e 203f c062 38bf
000001c0: 6498 1d3e 2ffe ee3e e3ed 363c 0f7f c03e
000001d0: 7987 7a3f a4a6 e83e da82 9bbe b594 bf3b
000001e0: 81d2 3b3f ae52 623f 5f38 813e 6206 193f
000001f0: 4e43 013f 6b2e a73e fd4b 2fbe 79b4 c43d
00000200: 3c6a 243f 6a54 103f e012 66bf 5ce6 bf3e
00000210: ab28 253f 313a 4bbf 5760 a93e 9295 64bd
00000220: 0dc5 dd3f da38 403f adae 673f 7aa3 873e
00000230: fbea 893f a8b3 7c3f d677 933f 6136 483f
00000240: cb6a 49bf 945c 02be d1d2 af3d 27b3 623f
00000250: 5d45 a93e 60fb 1f3f e1b6 453f e969 f43e
00000260: 3978 dd3e c27e a83e 0f77 093f c051 12bf
00000270: adcf e03e 37a3 db3e d207 80bf 06d6 8cbe
00000280: 3c66 d23e 0cdb 363e fe64 21be c0b4 4ebf
00000290: 028c e9bf 005e 983f 024e 4d3f 3c3a 353f
000002a0: eaea 57bf d475 01be c8e4 63bf 252c 353f
000002b0: 8e35 bd3d dcce 3d3d 7086 0dbe c271 31be
000002c0: d030 30be a06d 31bf ecb3 29be d72d 27bf
000002d0: 2ffa c23e 5ad7 413e 0d9b 503d 0e4a f2be
000002e0: aace 99be 969c ce3e f628 833e c0c9 8dbe
000002f0: 2a71 51bf 19d3 90bf 7d7e 87bd b79d dabe
00000300: f0e3 3bbf cf2c e53f a472 5abf da09 163f
00000310: 70c2 643f 852b bf3e 4184 713f 6b3a e3be
00000320: 0ccc 20be a7a9 313f eac8 aebe 08d0 4c3f
00000330: 9cef 043c 78f6 0fbe bffa 68bf 7b18 dbbe
00000340: e857 c5bf 26e8 673f 5ad9 17be 7fbd bebe
00000350: b389 6e3f 1563 40bf e932 0fbf c30b a7bd
00000360: 4b9c 163f 9eb0 643f 3e5e 15bf d2c6 4e3f
00000370: 2241 1abf eff2 21be 1e48 803e 0353 2f3f
00000380: f5b0 733f e78e fabe 79cd 793f bf5a 72bf
00000390: f5b8 24bf 1f27 78bf 51d3 6abf 0a58 ee3e
000003a0: a06c c8bd 173a 4ebf 8a7f 6dbe b564 893f
000003b0: b04b 58be 6493 57bf c6a3 c7bd 341d fdbf
000003c0: 8ea7 54bf bf53 31bf d942 86be f675 ff3e
000003d0: a022 203f b91d 5ebf a25b 69bf 0bc3 bcbe
000003e0: d725 ec3e 5d50 1dbf ecd0 8cbe d71f 553e
000003f0: 425a 943e 2532 cb3e 9c94 803f d0fb b2be

model.4.bias f4 [128]
0.81054634 0.6348691 -0.9226277 -0.45255488 0.7024873 -0.03808774 -0.7855214 0.0814084
-1.3131326 -0.74730724 -0.75347817 0.23083681 -0.42915493 -0.3022941 -0.94776607 0.66927636
-0.8527583 -0.538874 0.8477564 -0.43235788 -0.7005137 -0.55840456 -0.23329425 -0.98763394
0.7408941 -1.3286676 -0.45273986 -1.1863809 1.1999164 -0.84052837 0.23833926 0.44522935
-0.580794 -0.331344 0.17605312 -0.18801929 0.97192305 -0.16263361 0.41662946 -0.78828895
-1.4258965 0.5549043 0.22757138 -0.86375374 0.8724786 -0.38555402 -0.69084704 1.5009633
-0.0010228555 -1.8174949 -0.46442893 0.02746078 -0.5758274 0.09273573 0.2681753 -0.8836112
-0.21991898 -0.8144524 -0.12666628 0.51991016 -0.93490326 -0.72356606 -0.6951059 1.7125067
0.36991468 -1.7039644 -0.9677554 0.81097835 0.8834198 0.74459714 0.6081037 -0.17021333
-0.5543361 -0.77574235 0.22299434 0.14596498 0.30653003 0.02579421 -0.4850389 -0.19055112
0.6757216 -0.01942875 -0.90574 -0.9639784 -0.15457746 0.44207475 0.6943335 -0.9118673
0.78183407 0.5965575 -0.96255845 -1.9177957 -0.99601275 0.8957437 0.14110889 -0.8706294
-0.09733683 -0.79379463 -0.5925492 -0.24541692 1.4389899 0.5408751 0.5850226 0.25604594
0.69796455 0.7594867 0.055778645 0.4292272 -0.87415826 -0.20356189 -0.89298785 0.23495482
-0.27480355 0.76032156 0.32141694 0.041259527 -0.59491056 -0.29294145 -0.3600416 2.099477
1.1630367 0.9136265 -0.11605111 -0.23114349 0.34403312 -1.2348793 0.5292115 0.2940787
00000000: f77f 4f3f c886 223f 5431 6cbf 46b5 e7be
00000010: 35d6 333f e401 1cbd ee17 49bf 72b9 a63d
00000020: bb14 a8bf 874f 3fbf f2e3 40bf 7c60 6c3e
00000030: 32ba dbbe 4bc6 9abe cca0 72bf b255 2b3f
00000040: 5e4e 5abf a5f3 09bf 9006 593f 035e ddbe
00000050: de54 33bf 9af3 0ebf b0e4 6ebe 94d5 7cbf
00000060: 3cab 3d3f c811 aabf 85cd e7be 54db 97bf
00000070: dc96 993f de2c 57bf 350f 743e 1af5 e33e
00000080: eaae 14bf eca5 a9be 4547 343e 2188 40be
00000090: f3cf 783f 6d89 26be 7550 d53e 4ecd 49bf
000000a0: c783 b6bf 350e 0e3f 7908 693e f71e 5dbf
000000b0: c25a 5f3f 5667 c5be 5adb 30bf 911f c03f
000000c0: 5611 86ba aca3 e8bf a1c9 edbe 6ef5 e03c
000000d0: 6d69 13bf 3bec bd3d 464e 893e 5834 62bf
000000e0: 7132 61be f47f 50bf ceb4 01be d518 053f
000000f0: d255 6fbf a03b 39bf 76f2 31bf 6b33 db3f
00000100: 7565 bd3e 811b dabf d1be 77bf 479c 4f3f
00000110: cd27 623f eb9d 3e3f afac 1b3f 674c 2ebe
00000120: f8e8 0dbf 0d97 46bf a158 643e d877 153e
00000130: 81f1 9c3e 614e d33c 0557 f8be d51f 43be
00000140: 17fc 2c3f 0b29 9fbc 94de 67bf 4ac7 76bf
00000150: 8e49 1ebe 9f57 e23e d7bf 313f 2370 69bf
00000160: 4726 483f feb7 183f 3b6a 76bf 547a f5bf
00000170: b1fa 7ebf 764f 653f d97e 103e 91e1 5ebf
00000180: 8858 c7bd 2036 4bbf 4eb1 17bf 934e 7bbe
00000190: d230 b83f ca76 0a3f 0bc4 153f 7418 833e
000001a0: cead 323f b86d 423f 2678 643d abc3 db3e
000001b0: d6c8 5fbf 8772 50be da9a 64bf ff97 703e
000001c0: 0db3 8cbe 6fa4 423f c390 a43e c0ff 283d
000001d0: 0f4c 18bf 6cfc 95be 5f57 b8be d55d 0640
000001e0: 63de 943f 6de3 693f 34ac edbd e1b0 6cbe
000001f0: 1c25 b03e 8610 9ebf 687a 073f 7c91 963e

model.6.weight f4 [12, 128]
0.16448344 -0.48583865 0.87367725 -0.007627158 0.21506715 -1.655805 -0.3997194 -0.65352243
-0.74507564 0.4340677 0.32750785 -1.0435284 0.50547975 -1.0566441 -0.8579503 0.77366394
0.15267585 0.20853059 -1.1776581 -0.3562819 -0.9889619 0.12990253 0.14552134 0.67297906
0.6843528 1.1926564 0.41684508 -0.17804529 -0.73129785 -0.3885309 1.094095 0.8276291
-0.9800689 -0.6501131 -0.073523186 0.6949211 0.36664218 1.0208559 0.31233296 0.42152113
0.18815275 -1.2916151 0.95895785 -1.6171099 -0.8820868 0.20680149 1.1995418 -0.39472687
0.42674297 0.2865703 -0.9915774 -0.47743338 2.3725786 -0.61467236 -1.4355745 0.4121713
1.142538 1.1560895 -0.56099933 0.8384481 -1.7165246 -0.9842942 0.40038437 -0.6175861
-0.06643336 0.8590689 -0.16658361 -0.0778032 1.2661241 0.50066274 -0.053830843 -0.5116654
-0.47740167 0.27636105 0.18046266 -0.1990812 -0.93851966 -0.7624305 0.24416564 -0.41470173
0.85801435 0.7999973 -0.54096603 0.61812747 0.63286585 0.47466683 -0.005983279 -0.27210638
0.75984514 -0.7017041 0.63022786 -0.6796882 -0.039268382 0.2977916 0.3733895 -0.2117064
0.12779889 0.5359674 0.8974274 0.41879514 -0.41244996 1.2187359 0.4581756 -0.63349384
0.96160495 0.2603822 0.41297984 -0.20819372 -0.40266165 -0.8068063 -0.67590857 -0.9283109
0.2369426 0.1083304 0.92759275 0.036956314 -0.10763831 -0.055881675 -0.59546 -0.544095
0.7382431 0.6907441 1.1596808 0.1200128 -0.5883302 -0.48827755 -0.9493587 0.721593
0.18101606 -0.26668376 0.53747517 0.04056502 0.90354353 0.2854287 -1.0163704 0.9989241
-0.31564203 -0.7431619 0.7843682 0.49300203 0.9926228 -0.47368154 0.9474315 -0.85436845
0.16559388 0.50488794 0.60574 0.35202897 -0.015397509 -1.034483 -0.2062286 -1.7808105
-0.36300212 -0.49046552 -0.09893888 -1.2991945 -0.52711385 0.6720393 -0.85480416 0.588649
-0.4451189 0.54177606 1.0836878 -0.5487638 -1.8841016 0.28477085 0.070540756 -0.89123285
-1.2240007 0.58323985 -0.62678504 -1.2083238 0.6353489 -1.7775949 -0.4664621 0.46056333
-0.4238383 0.52509105 -0.8666752 0.9583625 0.7694053 1.0934862 0.84389997 -0.47229508
-0.90978426 -0.5964153 -0.59593946 0.7747918 -1.6328521 -0.11891665 0.7250317 -0.61597556
-1.2138083 0.016620167 0.8209636 -0.08373295 -0.3959399 0.6168007 0.4613886 -0.4747211
-0.715624 0.48971552 -0.33203423 0.86325604 -0.9197696 0.6840707 0.17912431 -0.74633104
-0.9910853 -1.0923427 -0.1264032 -1.5851891 -0.4527888 0.05343888 -1.0076021 0.6462694
-0.1621386 -0.57941955 -1.0011188 -0.3626064 0.3050232 -0.5442262 -0.53906596 -0.8046817
0.7634058 0.8033134 1.2106951 -0.69920564 -0.0054015205 1.5735639 -0.4946833 -0.2588916
0.6296874 0.40712878 -1.8655747 -0.9863505 -1.2841702 0.9965562 0.87658113 0.22580424
-1.0047325 0.3118885 -0.62359166 -0.7931561 -0.28992534 0.39864615 0.6319273 -0.41254774
-1.0534883 1.1162902 0.031745266 -2.170012 0.82063705 1.1844372 -0.6739997 0.9431894
00000000: 596e 283e d8bf f8be 50a9 5f3f 3ded f9bb
00000010: 903a 5c3e 6bf1 d3bf 05a8 ccbe 3f4d 27bf
00000020: 47bd 3ebf 1f3e de3e 1caf a73e 5792 85bf
00000030: 1f67 013f 1d40 87bf a2a2 5bbf d70e 463f
00000040: 0f57 1c3e 0b89 553e 80bd 96bf 956a b6be
00000050: 9b2c 7dbf 2b05 053e 8c03 153e 5b48 2c3f
00000060: bf31 2f3f f7a8 983f b86c d53e 8151 36be
00000070: 5636 3bbf 86ed c6be 4e0b 8c3f 80df 533f
00000080: cce5 7abf d06d 26bf 5393 96bd 59e6 313f
00000090: 86b8 bb3e 68ab 823f 1bea 9f3e 9ed1 d73e
000000a0: 1dab 403e a553 a5bf 437e 753f 75fd cebf
000000b0: 71d0 61bf c5c3 533e 968a 993f a419 cabe
000000c0: 0e7e da3e 58b9 923e 04d8 7dbf 2672 f4be
000000d0: 54d8 1740 2b5b 1dbf e8c0 b7bf 1e08 d33e
000000e0: af3e 923f befa 933f a79d 0fbf 89a4 563f
000000f0: 14b7 dbbf b4fa 7bbf 2eff cc3e 1f1a 1ebf
00000100: 370e 88bd f0eb 5b3f e594 2abe 4957 9fbd
00000110: 5b10 a23f 6f2b 003f bb7d 5cbd 81fc 02bf
00000120: fe6d f4be 327f 8d3e 34cb 383e f1db 4bbe
00000130: d342 70bf a52e 43bf 8f06 7a3e c953 d4be
00000140: d4a6 5b3f a0cc 4c3f c07c 0abf 9a3d 1e3f
00000150: 7f03 223f 8807 f33e 620f c4bb 8751 8bbe
00000160: 3685 423f e1a2 33bf 9d56 213f 0c00 2ebf
00000170: e2d7 20bd 2478 983e e92c bf3e 90c9 58be
00000180: b6dd 023e 2935 093f cdbd 653f 516c d63e
00000190: a42c d3be 8aff 9b3f fe95 ea3e a72c 22bf
000001a0: be2b 763f d150 853e 1872 d33e bc30 55be
000001b0: ab29 cebe dc8a 4ebf 5808 2dbf c8a5 6dbf
000001c0: 15a1 723e 54dc dd3d b876 6d3f 815f 173d
000001d0: 7971 dcbd 2fe4 64bd 1170 18bf cf49 0bbf
000001e0: 80fd 3c3f 9bd4 303f 6c70 943f 45c9 f53d
000001f0: cf9c 16bf 84ff f9be 2c09 73bf 52ba 383f
00000200: 465c 393e c68a 88be f997 093f 8227 263d
00000210: a14e 673f b623 923e 6d18 82bf 7db9 7f3f
00000220: d59b a1be dc3f 3ebf 5bcc 483f c36a fc3e
00000230: 871c 7e3f 6386 f2be df8a 723f e4b7 5abf
00000240: 7191 293e 5640 013f c711 1b3f 243d b43e
00000250: d545 7cbc f069 84bf 972d 53be 99f1 e3bf
00000260: 6adb b9be 4c1e fbbe 78a0 cabd 014c a6bf
00000270: eff0 06bf c40a 2c3f 72d4 5abf b3b1 163f
00000280: a0e6 e3be d6b1 0a3f 48b6 8a3f c97b 0cbf
00000290: 3e2a f1bf 7ccd 913e ac77 903d d627 64bf
000002a0: 0eac 9cbf 354f 153f fc74 20bf 5baa 9abf
000002b0: 3aa6 223f 3b88 e3bf 1fd4 eebe f5ce eb3e
000002c0: 5501 d9be 5e6c 063f 6dde 5dbf 3f57 753f
000002d0: bff7 443f 5bf7 8b3f d409 583f a9d0 f1be
000002e0: 9fe7 68bf acae 18bf 7d8f 18bf c158 463f
000002f0: 4c01 d1bf 938a f3bd ad9b 393f 93b0 1dbf
00000300: 125e 9bbf 0427 883c ac2a 523f 2e7c abbd
00000310: a2b8 cabe a7e6 1d3f 203b ec3e a50e f3be
00000320: 2233 37bf febb fa3e 6400 aabe 59fe 5c3f
00000330: 0576 6bbf 421f 2f3f 5d6c 373e 8d0f 3fbf
00000340: c4b7 7dbf e3d1 8bbf d76f 01be 7ae7 cabf
00000350: efd3 e7be bae2 5a3d 1bf9 80bf e971 253f
00000360: a907 26be d754 14bf a924 80bf 8ca7 b9be
00000370: 002c 9c3e 6952 0bbf 3a00 0abf 9fff 4dbf
00000380: 906e 433f f2a5 4d3f 0ff8 9a3f 24ff 32bf
00000390: 3dff b0bb 8b6a c93f 2147 fdbe 718d 84be
000003a0: 3233 213f 2f73 d03e 27cb eebf 7781 7cbf
000003b0: b05f a4bf 4f1e 7f3f 9f67 603f 3a39 673e
000003c0: 139b 80bf d9af 9f3e b4a3 1fbf 470c 4bbf
000003d0: 1871 94be 591b cc3e fdc5 213f 7539 d3be
000003e0: b4d8 86bf 99e2 8e3f 5307 023d 7ae1 0ac0
000003f0: 4515 523f a39b 973f 3f8b 2cbf dc74 713f

model.6.bias f4 [12]
-0.53152347 -0.2975947 -0.5107738 -0.7800158 -0.8790732 -1.0242702 0.38176548 -0.97783303
1.5773133 0.22374791 1.0690128 0.742181
00000000: ec11 08bf 555e 98be 12c2 02bf 1eaf 47bf
00000010: f10a 61bf 491b 83bf c476 c33e 4453 7abf
00000020: 67e5 c93f 2c1e 653e 69d5 883f 93ff 3d3f
