trained_models/PPO_LSTM_example_easy_10000/agent.pth (torch, 166849 bytes, 11 tensors)

pre_lstm.0.weight f4 [128, 24]
00000000: 766c 31be fa01 80be dbe8 01bd c387 25bf
00000010: ce9f af3d d7de 553e aee1 2dbe 403d efbf
00000020: 63b3 943e 2325 b4be 8111 17bf eaaf 603e
00000030: b7a7 8fbe ddcd 0e3e ca84 a13e 1956 afbd
00000040: 708b bcbd 6a5b 2abe 9480 57be 12a5 9a3d
00000050: 3be5 713c 5287 63be ddaa f6be 8a1f 5abc
00000060: 9119 b8bd 5d08 ca3d d2aa 2e3f e82c a2be
00000070: 9a4b 613f 4adb 7bbc 4609 373f f637 93be
00000080: 8b1b 3bbe 423a 9cbd daa1 a8bd 8677 0fbe
00000090: df23 22bf ebaa 333f 29e7 c0be 56e8 c0be
000000a0: 865a ecbe 609a 4b3c c2e0 e4bd abd2 48be
000000b0: ad6d 58be d603 51be 25fe 0abc 080e d33d
000000c0: c69c cb3d feb3 80be bb3b bcbe 2ddf b3be
000000d0: bd1c 89be 59ff f33e fe35 34be 640c abbf
000000e0: 5504 18be 9247 793e 2721 65bd 6310 033e
000000f0: 28c4 1bbf 1d08 3ebf 38d6 e3be d0d4 283f
00000100: 3bbe 48be 8d20 553e 2977 60be 7299 ba3d
00000110: bb0b 5cbe a018 e0bd 47dc 00bd f234 813e
00000120: 7f11 a7bc e509 10be 84f5 efbe 7004 223f
00000130: eeba c5be ae2e 3040 4415 fcbe d272 a7bf
00000140: 3e53 2a3d 3463 fd3d f97c 6b3e c8d6 6e3d
00000150: 3fa3 613e 8685 1fbf 2551 c7be 53ba b4be
00000160: d82d 903d 99d3 30be 8dfd efba 8975 3c3e
00000170: c1d5 3ebe 9028 d8bc d3d3 1c3e a34d 71be
00000180: 4c9c 32be ed43 0e3e f97f 383f 4ced 12bf
00000190: 8acb 2b3e e040 c1bb aae6 773f 5239 f0be
000001a0: 3dee 463f e3b7 fabe 9a9a 7bbe 4a17 843f
000001b0: f67c 483f 6de7 08bf 69fc 3e3e e46a 6abe
000001c0: d572 f23d 92ab 19bf 307d cabd 6cd8 8e3d
000001d0: 721c aa3e 6622 7e3e eaad 6ebf 3357 1ebe
000001e0: 4aaf 5ebe a49a 8f3e 6c7f 353f 5e40 8ebd
000001f0: 0671 583f 4cb1 743f 0e3a 2f3f db35 b2bf
00000200: bf85 8f3e 3c6b d7be a902 2dbf 65e2 2abd
00000210: f675 bbbe 8635 043f 6763 233c f5e2 09be
00000220: 28ed 8dbd 6dd7 bf3d d28d 97be c35a 6e3e
00000230: a195 d53d 0899 f23b 8b24 a9be 4e29 3f3e
00000240: c4c7 8cbd e8be a53c 1238 f63d 4fe5 15be
00000250: d9bf 92bd d515 e3bd cca7 ca3d 36f0 2dbe
00000260: b5f8 a53c 7278 ffbd d673 9139 1bef 163c
00000270: 38d0 f3bc 20a3 c53d 303c 5ebe 0805 a0bd
00000280: 20ae df3d 3712 07bd 9000 17be c1b0 243d
00000290: a16f 48bd 2997 34be 401d 59be cc2d a1bd
000002a0: 847e b2bd 6ba3 3e3e 6e7a 773f 3d59 e43e
000002b0: f695 2e3e 453d a7bd 3303 783f 63f7 ed3e
000002c0: 4e59 3b3e bdee 06be 7546 cf3d eade 843e
000002d0: ba5e f23e 9a85 d2be 007e d6bd adc4 93bd
000002e0: 37d9 e5bb 3619 9cbd 4748 a7be 6ea3 413e
000002f0: 8a66 ecbe c62f 8c3e 28c0 01be 7b6d 973e
00000300: 3392 b5bd 0a94 fbbc b236 52be 3230 aabe
00000310: 299c 11be db33 1c3f d018 c6be 3387 c8bf
00000320: 612f a23d d74e 493e b44a ddbd b719 453e
00000330: 2591 98be fc55 0f3e 7389 0a3d 7a54 1bbf
00000340: 88c5 9b3e a240 793e aac1 76be 7cb4 683e
00000350: 0313 903e 360d ba3d ce26 b03c 8ae0 8c3e
00000360: 8d73 863e e62d 133e cbfe 1f3e 7938 063f
00000370: df1a ff3e 1ce9 6cbe 2fbb 54be 9890 a83f
00000380: 9b96 d33d 0203 043e cfd9 a83e 0de2 b83d
00000390: faf6 e8be a126 7a3d 2ba1 9a3d 82dc 0c3e
000003a0: 9974 8e3d 56ac 0d3e 0ebf d23e 183b 80be
000003b0: e73d 493e 1e41 623d 285d cc3e a24d f7bd
000003c0: a418 9fbe d50f 8c3b 9446 26bd 05d4 4cbf
000003d0: 3dfb 99bc 4889 19c0 2bd4 b2bd 74af 453f
000003e0: 61c2 5abc 6994 81be f67d 84bb 31c2 81be
000003f0: 4ba9 023f 5a84 0bbe 9e86 53bd 06cd 773d
-0.17326531 -0.25001508 -0.03171621 -0.6466028 0.08575402 0.20885788 -0.16980621 -1.8690567
0.2904311 -0.35184583 -0.59011084 0.21942106 -0.28057644 0.13945718 0.31546623 -0.08561344
-0.09206283 -0.16636434 -0.21045142 0.07551016 0.014764125 -0.2221959 -0.48177233 -0.013313184
-0.089892514 0.098648764 0.682294 -0.31674886 0.88005984 -0.015372107 0.71498525 -0.28753632
-0.18272226 -0.07628299 -0.08233996 -0.14010438 -0.63335985 0.70182675 -0.3767636 -0.37677258
-0.46162814 0.012426943 -0.11175682 -0.19611613 -0.21135588 -0.2041162 -0.008483444 0.103054106
0.099420115 -0.25137323 -0.3676432 -0.35131207 -0.26779738 0.47655752 -0.17598721 -1.3363156
-0.14845403 0.24343708 -0.05593982 0.1279922 -0.60846186 -0.7423113 -0.44499373 0.65949726
-0.19603817 0.20813198 -0.21920456 0.091112986 -0.2148885 -0.10942197 -0.031460073 0.25235707
-0.020394085 -0.14066274 -0.46867 0.6328802 -0.3861918 2.752849 -0.49234974 -1.3081915
0.041583292 0.12372437 0.22996892 0.0583103 0.2203493 -0.62313116 -0.38929096 -0.35298404
0.07039994 -0.17268218 -0.0018309817 0.18404211 -0.18636228 -0.02638653 0.1531518 -0.23564772
-0.17442435 0.13893099 0.7207027 -0.57393336 0.16776863 -0.0058976263 0.9683634 -0.46918732
0.7770727 -0.4896842 -0.24570695 1.0319607 0.78315675 -0.5347813 0.18650974 -0.22892338
0.11838309 -0.6002742 -0.09887159 0.06974873 0.33224827 0.2481781 -0.9323412 -0.15462951
-0.21746555 0.2804767 0.70897555 -0.06945871 0.8454746 0.95583034 0.6844796 -1.3922685
0.28031728 -0.42074 -0.67582184 -0.041719813 -0.36613435 0.5164417 0.00997243 -0.13465483
-0.069299996 0.09367261 -0.29600388 0.2327681 0.1042893 0.0074034967 -0.33035693 0.186681
-0.0687404 0.020232633 0.12022413 -0.14638256 -0.07165498 -0.110881485 0.09895286 -0.16986164
0.020260194 -0.12474145 0.0002774286 0.009212281 -0.029762372 0.09650254 -0.21702647 -0.0781346
0.109218836 -0.032976355 -0.14746308 0.04020763 -0.048934583 -0.17635788 -0.21202564 -0.07870063
-0.08715537 0.18617027 0.9667119 0.44599333 0.17049393 -0.08165983 0.9687988 0.46477804
0.18295786 -0.13177009 0.101208605 0.2595132 0.47337896 -0.41117555 -0.10473251 -0.07215247
-0.0070144194 -0.07621996 -0.3267233 0.1891 -0.4617198 0.27380198 -0.12670958 0.29575714
-0.08865776 -0.030710239 -0.20528677 -0.33239895 -0.14219727 0.61016625 -0.38690805 -1.566626
0.07919193 0.19658981 -0.10805264 0.1924809 -0.29798236 0.13997644 0.033822488 -0.60675776
0.30424142 0.24341062 -0.24097314 0.227251 0.28139505 0.09084551 0.021502879 0.2751506
0.26260033 0.14372978 0.1562454 0.5242992 0.4982519 -0.23135799 -0.2077453 1.3169127
0.1033146 0.12891772 0.32978675 0.09027491 -0.45500928 0.061071996 0.075502716 0.13755992
0.06955833 0.13835272 0.41161388 -0.25045085 0.1965252 0.05523788 0.39914823 -0.12075354
-0.31073487 0.0042743483 -0.040594652 -0.80011016 -0.018796558 -2.399004 -0.08731874 0.77220845
-0.013352008 -0.2530854 -0.004043336 -0.2534347 0.5103957 -0.13624707 -0.051642053 0.06049826

pre_lstm.0.bias f4 [128]
00000000: 1ec1 12bf 2852 013e 9c23 a8be da44 a0bd
00000010: ef92 b73d cc12 eebd 4aaf 46be 7266 f43e
00000020: 9c7d 1bbe c853 4a3e ce33 98be 2dcf f43e
00000030: f7b7 92be bc5d 89be 50d2 29be 12bd 51be
00000040: 41cd e53d 9af0 24be 9a0c 553e 581d 3bbe
00000050: deb3 7bbe 6b1f 8abe d440 123e f0c2 25bd
00000060: 589b 99be 442e 01bd 448e 72bc 59f2 c4bd
00000070: 14ca 4dbe 75e9 1ebd c3e2 98be c6ec 49be
00000080: 809c c73d 6691 38be 1235 24be 2f00 513e
00000090: 761e 10be 0125 bf3e a205 40be 676d dd3d
000000a0: f2a5 b5be 92f8 abbd 6068 13be c863 013b
000000b0: 835e b83d 1ecd c43e d1ec 6abd 7175 14be
000000c0: 3a67 31be abb8 86be 6f7e 24be 3f01 0f3e
000000d0: 2156 bcbe 749b f8be 64d1 3ebe 2463 953e
000000e0: 79dc 423e 9e3e 0cbf 68fa c8bd 1703 1cbe
000000f0: 11a3 cdbe 795c ca3d 5620 4bbd ebd6 8ebe
00000100: 9eb7 e93e 8197 c73d 7853 993e ba5d aa3e
00000110: dbb2 4f3e b880 253e 3f30 d8bc 0ac7 99be
00000120: 6fc7 c5be d35b 753e c0ca c0bd 082b bb3e
00000130: 7477 b3be 0a63 c1be 51a4 473e cecd 1c3f
00000140: 2725 273e dac1 033f 779d 77be 14b0 90be
00000150: c9d4 5ebe f499 e03b 5442 b3be 1d53 9cbc
00000160: edb3 953e df44 9dbe c051 db3e 2bc5 5cbe
00000170: 0147 943e fe27 a0bd 9a47 253c b2b9 cdbc
00000180: 37d2 b13e 7cc0 7ebe 0e0d 173e 39db 19be
00000190: 8e1a 5ebe f988 2e3d 674f 083f e6fd 683e
000001a0: 257f 033f 84e8 3ebe a4a5 61be 6e17 3f3c
000001b0: 1b80 9dbe 4d83 cebe 8475 15be df4e efbe
000001c0: f809 a9be d3a6 edbe f6bb e53e 1f6e 1c3e
000001d0: 5882 95be eff1 cdbd 0710 083f 5b1d 8abe
000001e0: 3510 13be b786 2fbe 7622 90bd 4278 c2bd
000001f0: 6879 933e 4b71 c63e c4d4 54bd e95d b7bd
-0.57325923 0.12628996 -0.32839668 -0.078256324 0.08963572 -0.11624679 -0.19402805 0.4773441
-0.15184635 0.19758523 -0.29727024 0.47814313 -0.2865598 -0.26829326 -0.16584134 -0.20482281
0.1122079 -0.16107407 0.20805588 -0.18272913 -0.24580333 -0.26977095 0.14282542 -0.04046911
-0.3000133 -0.031538263 -0.014804427 -0.09616537 -0.20096618 -0.03879686 -0.29860505 -0.19719228
0.09746647 -0.18024215 -0.1603587 0.20410226 -0.1407412 0.3733292 -0.18752149 0.108118825
-0.3547817 -0.083970204 -0.14395285 0.0019743312 0.09002402 0.38437742 -0.057354752 -0.14497925
-0.17324534 -0.26312765 -0.16063856 0.13965319 -0.3678446 -0.485561 -0.18634564 0.291772
0.19029416 -0.54783046 -0.09813386 -0.15235554 -0.40163472 0.09880919 -0.049591385 -0.27898344
0.456479 0.09745694 0.29946494 0.33274633 0.20283072 0.16162384 -0.026390193 -0.30034667
-0.38628718 0.2396081 -0.094136715 0.36556268 -0.35052073 -0.37770873 0.19496275 0.61251533
0.16322766 0.5146767 -0.24181162 -0.28259337 -0.21760859 0.00685429 -0.35011542 -0.0190826
0.29238835 -0.30716607 0.42835808 -0.21559589 0.28960422 -0.07820128 0.010087872 -0.02511296
0.34730694 -0.24878114 0.14751074 -0.15025033 -0.21689817 0.042611096 0.5324616 0.22753105
0.5136588 -0.18643385 -0.22035843 0.011663301 -0.307618 -0.4033455 -0.1459561 -0.4673986
-0.33015418 -0.4641634 0.44869965 0.15276383 -0.29201007 -0.10055911 0.53149456 -0.2697552
-0.14361651 -0.17141233 -0.07037823 -0.094955936 0.28803563 0.3875831 -0.05196072 -0.08953459

pre_lstm.2.weight f4 [128, 128]
00000000: bbad 54bd b051 fe3d cf3e 98bd 57db 41bd
00000010: 08e6 cdbd 68f0 9dbd e73b b7bc c0a8 543d
00000020: 25dd fcbd 6b28 c93d 390b 4ebc 50be 243e
00000030: f8d2 b8bc 3df0 3e3e d308 7a3e c02d e5bc
00000040: 1295 61bd 496e a23d 3c72 71bd 00dc 183a
00000050: f762 b5bd 686b 9abd 5eef 733e 9bc2 773b
00000060: 07c7 523b 6fed 65ba 41a2 6a3e e1cd 653e
00000070: 0f41 a93d 3c3c bebd 7a95 613b 33f3 18bd
00000080: 1de3 03be ac8f c63c ab2d e4b9 98d0 293e
00000090: f706 e23d 1ef8 c63d 37ac 7c3e a878 3d3e
000000a0: f699 043d 9543 3f3e 4d2d 53bd 8a1d 143c
000000b0: 3833 323e 04e3 ce3d 5f48 debd d6bf 2a3d
000000c0: 28a0 ca3c 053b 03be ecbf 693d 000a 1abe
000000d0: daae 0dbe ed60 bdbc 07e2 773d b286 633d
000000e0: 6125 72bd 9da7 2dbd 9d09 c4bd aae5 213e
000000f0: efdd 083d 044b 283e 29b1 29be 7626 503e
00000100: 1b56 9d3d e0c9 c1bd dfab 893d 4e69 c93d
00000110: 2e65 c93c c6f8 bfbc 56f5 65be a50e 1fbe
00000120: 1836 32be 9761 5cbd e14c 08bd 5747 c6bd
00000130: 4745 3fbc 4539 7ebe 2eb3 95bd 9e47 6f3d
00000140: b620 0fbe d984 5b3e c269 073d a42e 84bd
00000150: e810 3fbc 82e0 983d 47ad f9ba 14e0 97bd
00000160: b606 423b 4d09 1b3e faa1 803c 64cd adbd
00000170: 91b3 2ebe 00e0 43be 929a 423d 7b5c c7bd
00000180: 92e7 7b3e 7e34 0a3d 43ab ec3d 8374 36bd
00000190: f88b 0e3e 24ee bdbd 7b71 063e d108 583e
000001a0: b178 9b3e a01d 8d3b 8b6a d8bd 675e 98bb
000001b0: b921 bfbc eae4 06be d554 4a3c 7ebf e2bc
000001c0: e5f5 82bb 1f89 37be bd14 5fbe d4d8 403e
000001d0: 008c 853b 3145 eabd 976c 453e 6a70 1f3e
000001e0: 5850 91bd b890 22be c093 57bb 01b1 3c3e
000001f0: 8abe 8abd 14fc 483e a001 583e 04d6 d13c
00000200: 760b 0ebd c4c3 4a3b 611b 9dbb 2239 5ebd
00000210: f672 443d 1eb0 22bc 03f0 713c 9bd9 07bc
00000220: 6e1f 963d f0e6 dfbc ef9f 78bc 37d0 a7bd
00000230: 0d20 c43a 59dd a3bd c7cf a8bd 27c9 b2bd
00000240: 91f2 afbd 586f 883c 4c25 a7bd a04f c83b
00000250: 7cdf 15bd 6f78 41bc 4cf9 29bd b964 f4bc
00000260: 85e6 9ebd 5676 28bd 3f1d 123d 13b3 04bd
00000270: bb0a 193d bc2f 63bd 1d33 b73b fd4c 92bb
00000280: d9ea b5bd d515 793d 5641 31bd c328 10bd
00000290: a152 91bd 0c3c 3a3d ae2d fe3c 4fad 50bd
000002a0: b048 1f3d 15c0 1dbd d413 cdba 4bc5 5c3c
000002b0: e05b 2b3d 0e6b c1bd 9502 863b 905d 36bd
000002c0: 32b2 5ebd 375d 603d 9c79 f5bd 5a00 5a3d
000002d0: 692c a1bd 526d cbbd 59d4 89bd 2068 06bd
000002e0: 373b bcbd 198b 03bd cc74 b7bd 9d52 04be
000002f0: dbd2 d23c 1cf8 733d 0261 ffbd 538a 52bc
00000300: 1999 87bd db0b 4d3d e9c0 3f3d 5035 ea3c
00000310: 4564 113d 0805 8cbd eb6b c3bb 13da d1bc
00000320: 3c7d 113d 4ed7 4bbd f312 9abd 94c7 6a3d
00000330: 4f9f 513c 0026 773d 0343 1ebd b03d acbc
00000340: 8135 bdbd a06e cf3c 1024 433c 8fca dabd
00000350: ec38 b63c fcec 9cbd 4af4 48bd d8aa e03c
00000360: 86cd 173d c436 343d 9f57 a0bd 54d6 833c
00000370: 3112 203d 026e 143d d15b c2bd d8bb a9bd
00000380: 9b1e dcbd 2979 273d b56f 613d 1041 b43b
00000390: bba6 ddbc 6254 d7bd c476 f2bd d27a 88bd
000003a0: fb18 fabc 4041 fd3c 46ff 4d3d 8117 d5bd
000003b0: e00f d03b 0c34 ddbd 6e4f c1bd b73c 673d
000003c0: c342 f1bd 35a5 9d3d e383 edbd c0d1 64bd
000003d0: af7b 94bb 82ec a1bd a65c babc 16fc 8bbd
000003e0: a82c 2ebc 5580 77bd a85f 62bd c3c5 9abd
000003f0: 1f41 e33b 19d7 843c 281c d5bd e43d 9fbd
-0.051923495 0.124179244 -0.07433855 -0.04732832 -0.100536406 -0.077118695 -0.02236743 0.051918745
-0.123468675 0.09822162 -0.012575918 0.16088223 -0.022561535 0.18646331 0.24417429 -0.027975917
-0.055073805 0.079311915 -0.058946833 0.00058311224 -0.08856767 -0.07540017 0.2382178 0.0037805203
0.0032162087 -0.0008771037 0.22913457 0.22441818 0.08264362 -0.092888325 0.003442137 -0.037341308
-0.12879606 0.02423843 -0.00043521574 0.16583478 0.11036485 0.09715293 0.2467507 0.18503058
0.03237339 0.18678124 -0.051556874 0.009040246 0.17402351 0.101018935 -0.108536474 0.041686855
0.024734572 -0.12815483 0.057067797 -0.15042877 -0.13836232 -0.023117507 0.06051829 0.055548377
-0.05911768 -0.042396177 -0.09572146 0.15810266 0.033414777 0.16434866 -0.16571487 0.20327172
0.07682439 -0.09462333 0.06722235 0.098345384 0.024584379 -0.023434054 -0.2245687 -0.1553293
-0.17403448 -0.053804006 -0.033276442 -0.09681576 -0.011674232 -0.24826534 -0.073095664 0.05841791
-0.13977322 0.21437396 0.033059843 -0.064542085 -0.011661746 0.074646965 -0.0019048833 -0.074157864
0.002960605 0.15140267 0.015702236 -0.08486441 -0.17060687 -0.19128418 0.04751069 -0.09734436
0.24600056 0.033741467 0.11556103 -0.044544708 0.13920581 -0.09273937 0.13129227 0.21097113
0.30365518 0.00430651 -0.105671965 -0.0046499255 -0.02333151 -0.13173261 0.012349327 -0.027679201
-0.003996598 -0.17923401 -0.21785255 0.18832713 0.004075527 -0.114389785 0.19279705 0.15570226
-0.070954025 -0.15875518 -0.0032894462 0.18426897 -0.06774624 0.1962741 0.2109437 0.025614746
-0.0346789 0.003093944 -0.0047945236 -0.054253705 0.047961198 -0.009929685 0.014766696 -0.008291627
0.073302135 -0.0273318 -0.01517485 -0.08194011 0.0014963165 -0.08001203 -0.082427554 -0.08729773
-0.08591188 0.016654655 -0.08161411 0.0061130077 -0.036590084 -0.011808499 -0.041497514 -0.029833185
-0.07758812 -0.04112848 0.035672422 -0.03239734 0.03736375 -0.055465445 0.00559081 -0.004464744
-0.08882684 0.060811836 -0.0432752 -0.035195123 -0.07095838 0.04546742 0.031027641 -0.05094653
0.03888768 -0.03851326 -0.0015646168 0.013474773 0.041835666 -0.09444247 0.0040896633 -0.044522822
-0.05436916 0.054776397 -0.11986086 0.05322299 -0.07869799 -0.099329606 -0.06729955 -0.032814145
-0.09190982 -0.032115076 -0.08957824 -0.1292214 0.02573531 0.059562787 -0.12469675 -0.012850362
-0.06620998 0.050060134 0.046814833 0.028589875 0.035496015 -0.06836897 -0.0059637926 -0.025616681
0.035519823 -0.049765877 -0.075231455 0.05731924 0.01279433 0.060338974 -0.038638126 -0.021025509
-0.09238721 0.025321305 0.011910453 -0.10683166 0.02224394 -0.07662389 -0.049061097 0.027425215
0.037061237 0.04399754 -0.078292124 0.01609341 0.03907985 0.036237724 -0.09490169 -0.082877815
-0.10748025 0.04088703 0.055038173 0.00550092 -0.027057042 -0.105141416 -0.11839059 -0.06664051
-0.03052949 0.030914903 0.050292276 -0.10404874 0.0063495487 -0.10800943 -0.09438978 0.056454387
-0.11780312 0.07697526 -0.11597421 -0.055864096 -0.004531346 -0.079064384 -0.022749256 -0.06835191
-0.010630764 -0.06042512 -0.055267006 -0.07557251 0.0069352533 0.016215848 -0.10405761 -0.077754766

pre_lstm.2.bias f4 [128]
00000000: a404 133e 8cdb 0d3d 0531 7cbe 2445 c3bc
00000010: 41f0 b3bd 4ebe c3bd 8a1b d0bc 49dd 7ebe
00000020: d117 6abe 0acc c8bd 2ea0 cdbc 83eb f3bc
00000030: 8f70 09bd a5d0 fb3d 1e9b da3d e84f 24be
00000040: 6dd8 00be e9e9 76bc 0036 66bd 43dd a3bd
00000050: b22d 593d 3c7f d6bd 0226 d4bd 4079 95bd
00000060: b166 013e 0bab a9bc 19db adbd 3532 613e
00000070: c63b 39bd df84 183f 5f52 44bd 7293 a9be
00000080: 2dc9 40be 64d2 dcbd 4376 14bd 1e75 c4bc
00000090: 36f8 99bd 3a9c 3bbe 5dd4 95bd 2277 2cbe
000000a0: a57a 85bd 872c 46be 0a95 d43d 7bc4 373d
000000b0: 1fae cb3e e0d9 01bc 51f6 05bf 1ec4 803e
000000c0: 0503 99bd ddc0 2ebe 8d01 fbbd f70e 9bbd
000000d0: 7ff8 b03c b444 443b 87b2 71bc 792a 233e
000000e0: 068b 87be 3139 c7bc 4213 7f3c 16a7 2a3e
000000f0: cffe 34be fe17 e1bd 2d57 9fbc a9c7 523c
00000100: 3362 22be 1905 733c 1c45 32bd 621a f73d
00000110: a53d 38bd 262d eebd 51fb 81be 619d 5abd
00000120: f5f7 7a3d d1d1 193f 8203 1e3e bfd1 153e
00000130: 57dd 99be eb68 993e 85a7 0ebe 5bd6 233d
00000140: 70f5 383e 1ec8 ab3d 5f0b 473c 24bb 8cbd
00000150: cb49 b3be f98f a0bd 1f83 b0bd f0bf a73c
00000160: de87 e63d 91f1 6cbd 45a8 a63c 5117 ac3b
00000170: a8c1 a1ba f217 03be c832 99bd bb7e 85bd
00000180: d566 f3bc 5ce4 32bd 9aaa 9bbd e4d8 bdbd
00000190: 61ca bdbe a33b 56bd e01e 60bb 698d 77be
000001a0: e70e 6dbd 3164 633d d347 39be 67f4 343d
000001b0: f5b7 51bd 2c41 46be 24f3 423d ee24 c9bd
000001c0: f694 bebc d89b f33c 8c77 afbd da3b 4cbd
000001d0: b313 acba 0361 713d 6f8f f0bd 15af d23e
000001e0: 3803 e9bd c7bf 81bd 2f87 cebd d273 e9bd
000001f0: 4c2e 70bd d14d 0a3f d919 5ebc d33c e4bd
0.14357239 0.034633204 -0.24628074 -0.02383668 -0.08786059 -0.09557782 -0.025403757 -0.24889101
-0.22860648 -0.09804542 -0.025100794 -0.029775387 -0.03355461 0.12295655 0.106741175 -0.16046107
-0.1258256 -0.015070417 -0.056203842 -0.08001187 0.053022094 -0.10473487 -0.10358812 -0.07298517
0.1263683 -0.020711442 -0.08489055 0.21991809 -0.04522302 0.59577745 -0.047930118 -0.33120304
-0.18826742 -0.10782316 -0.036245596 -0.023981627 -0.075180456 -0.18321314 -0.07315896 -0.1684232
-0.06517533 -0.19352923 0.103799894 0.044865113 0.3978128 -0.007925481 -0.52328974 0.25149626
-0.07471279 -0.17065759 -0.12256155 -0.07571214 0.021602867 0.0029948177 -0.014752037 0.15934171
-0.26473254 -0.024319263 0.015568556 0.166653 -0.17675327 -0.10990904 -0.019450748 0.0128649855
-0.15857773 0.014832758 -0.04352294 0.12065579 -0.044980664 -0.11629705 -0.25387052 -0.053372744
0.061271627 0.6008578 0.15431026 0.14630793 -0.3005168 0.2996286 -0.13931091 0.039999347
0.18062377 0.08387779 0.012148707 -0.06871632 -0.35017237 -0.078399606 -0.08618759 0.020477265
0.11256383 -0.057847563 0.020343909 0.005251803 -0.0012341039 -0.12802103 -0.07480389 -0.065183125
-0.02971212 -0.04367481 -0.07600899 -0.09269884 -0.37068465 -0.052302968 -0.003419809 -0.24175037
-0.05787554 0.05551547 -0.18093805 0.044178393 -0.051200826 -0.19360799 0.04759516 -0.09821497
-0.02326439 0.029737398 -0.08567724 -0.049861766 -0.001312843 0.05893041 -0.11746108 0.41149202
-0.11377567 -0.06335407 -0.10084378 -0.11399044 -0.058637902 0.5402499 -0.013555967 -0.11144414

lstm.weight_ih_l0 f4 [128, 128]
00000000: cd91 9e3e 9d1c 17be a9b8 4c3f 37b9 68be
00000010: bc90 c1bd 1205 313f 559b 033e 5c73 b6be
00000020: 9017 15be a51c 8a3d 6c7f 0b3e acd0 ac3e
00000030: 9b3d 30bc 4348 29be 6a52 83bc 367b 193f
00000040: 1206 1a3e 2d37 24bd f3a6 233d 91dd 11bd
00000050: 37ee 283e 6244 3e3d 0423 163e 33c7 493e
00000060: 5d7d fbbe 2320 64be 8dbe 143e cd26 37bf
00000070: a6a2 583d db29 f3be 8241 743d 77e8 c73d
00000080: 2886 073f 6886 043d 8ac8 a5bd 060c 353e
00000090: d180 14bd 4116 0b3f 44db 483e ea44 1bbe
000000a0: 2bd6 16be 6773 5cbe b013 0c3e ee6c 153e
000000b0: 9caa 6fbb bf6a 9cbd a8bd 2c3f 2e02 c9bd
000000c0: 59ea 3bbd 3c0d 9bbb 537d c4bc bb73 13be
000000d0: 16b0 bebd 676c 49be af61 d73d 9e0e a73e
000000e0: b716 e0be 08f6 2a3d 63dc bbbd 4d72 313e
000000f0: 2194 803e 8aab bf3d 2471 0b3e 0aca c33e
00000100: 700d 91be ff12 96bd 29ae 95bd cb4b 1d3f
00000110: 7487 0b3f 7c79 b33d 667d 3ebe 27f7 9e3d
00000120: 22ad 3ebf 7c12 d9bb 3b41 003e 5e83 be3e
00000130: fe20 063e 9962 e5bb e8db cd3e 76f0 0abe
00000140: d92e d03d f737 b73e e68d e4bd 69a7 06bc
00000150: f04a afbe 5b73 aa3e 170a b03d 7bdb fd3d
00000160: 5baf 4b3f ec9f cb3e 5f1b 2ebe 21e5 703d
00000170: 5f77 51be 4e64 2bbc 7188 dd3e f5c6 343e
00000180: e3b3 aa3c 3d62 8fbd e6a7 1f3e f575 e83d
00000190: d565 ec3e 991c 093f 7318 d2be 4c68 933e
000001a0: 42b5 f3bd 523d 1d3f e807 ab3e a5c5 ccbd
000001b0: 3a97 823e 38a1 29be b309 1d3e 9c89 253e
000001c0: 6aff a5bd 1b7d c3bd 18b5 cbbb 7b41 153f
000001d0: 58d6 d33d a8bf d8bd f145 8b3e 5c8b 093d
000001e0: c101 93bd fd61 d9bd 03ca b03c bd9f 073e
000001f0: 741e f23c 6103 213f 5957 813e 3f53 9bbd
00000200: 48b5 a23c 0c0a 8fbd ae0a 8c3e 1cbc 3c3d
00000210: 3ce6 5b3b 8da1 d5be 1c84 d33d f4fe d93e
00000220: cf21 5fbd 3ac1 b73d 149c f0bd 9953 d5be
00000230: 5187 d63d 365e 88be 33c0 643e aa46 ab3e
00000240: 70b3 a9be 8e31 f03d c62b 063e 3c87 ec3d
00000250: d383 f0bd 7e03 38bc 365d 5e3c f6d5 b1bd
00000260: f190 de3d 180f 47be 9ce1 d33e bcbc 4abe
00000270: 18d6 ee3d 3bd2 cf3d de73 883d fbcf 22be
00000280: a9f9 b7bd 802f 903d a8a8 9c3d e4f6 b3bd
00000290: 9a0e b33d 3a52 f3be 8ad4 043e 389b 73bc
000002a0: 2813 57bd 5482 803e 6f45 b7bd ffc9 ec3d
000002b0: 1394 60bd b3c7 a9bb d6f3 193e 1aa2 91be
000002c0: bcc3 08bc 7d87 453d f0d4 fb3d fb26 263e
000002d0: b5ad 1b3e 2744 4b3d 97c6 82bd 88fc 7abf
000002e0: 2fa8 dabe 2c35 f1bd 4678 d73d 81a4 b43a
000002f0: 08bf be3b d4ef d23d 2932 f2bd 6bc8 3c3e
00000300: b67d b7bd b646 59bf 10fe c03e 271b c7be
00000310: 037c 2bbf d942 d33d dab2 85be 0379 193d
00000320: 3591 89bd dce8 cebd 828f 383f 31bf abbd
00000330: 8bc0 6f3b 645e 28be b806 62bc 287e dbbd
00000340: 3e14 e2bd 8e3b 603e 21ce 2ebd c560 dd3c
00000350: a549 12be 9361 8fbd 818f a03e f351 d63d
00000360: 2600 15be 2eff dbbe d79b df3a f1c1 16bc
00000370: b251 393d 67ba 0b3e e7d8 843d de15 49be
00000380: d3f8 1c3e 505c c4bd 6015 c3bd 6153 b13d
00000390: 4c42 bf3e d26d e0bd 7d49 ae3d 7f08 cfbe
000003a0: 3bb7 81be dd5d ec3b c56b 49be f30f 35be
000003b0: 6cde c3bd b90f 54bd 3657 243d 9f30 04bd
000003c0: a4c5 02bd bcbe 2ebf cd17 c93c 0584 6dbd
000003d0: 94c0 183e e504 28be 3034 d0be 4c28 60be
000003e0: aded 06be 5d95 33bd fb37 65bc 462a ee3d
000003f0: 8b78 c4bd 3da3 463d 6ced 843d 7237 243e
0.30970612 -0.14757009 0.7996927 -0.22726904 -0.09451434 0.6914836 0.12852223 -0.35634887
-0.1455977 0.06743745 0.13622826 0.33752954 -0.010756875 -0.16531472 -0.016030509 0.5995363
0.15041378 -0.040091682 0.039954137 -0.035611693 0.16497122 0.046451934 0.14661795 0.19704895
-0.49119082 -0.22277884 0.14525814 -0.7154358 0.05288949 -0.4749287 0.059632786 0.09761136
0.5293908 0.032354742 -0.080948904 0.17680368 -0.03625566 0.5433083 0.19614893 -0.15163007
-0.14730136 -0.21528398 0.13679385 0.14592335 -0.0036570197 -0.07637548 0.6747689 -0.09814869
-0.04587779 -0.0047318023 -0.02398554 -0.14399616 -0.093109295 -0.19670258 0.105166785 0.3262834
-0.4376733 0.04173854 -0.09172895 0.17328759 0.25113013 0.0935889 0.13617378 0.3824008
-0.28330564 -0.07327842 -0.07308609 0.61443776 0.5450356 0.08763406 -0.18602523 0.07761984
-0.7448293 -0.006624518 0.12524883 0.372096 0.13098523 -0.007000279 0.40206838 -0.13568291
0.101651855 0.35784885 -0.111598775 -0.008218625 -0.3423686 0.33291134 0.085956745 0.12395378
0.79564446 0.39770448 -0.17002629 0.058812264 -0.20455693 -0.010460926 0.4326816 0.17654021
0.02083773 -0.07001159 0.15591392 0.113506235 0.46171442 0.5355926 -0.41034278 0.2879051
-0.118998066 0.6142169 0.3340447 -0.09998635 0.25506002 -0.16565406 0.15335731 0.16165775
-0.08105357 -0.09545346 -0.0062166564 0.5830304 0.10343617 -0.105834305 0.272018 0.03358017
-0.07178069 -0.10614393 0.021580702 0.13244529 0.029555537 0.6289578 0.25261953 -0.07584237
0.019861832 -0.06984338 0.27351898 0.046077833 0.0033553978 -0.41724816 0.10327932 0.42577326
-0.0544756 0.08972402 -0.117485195 -0.41665342 0.10475028 -0.26634377 0.22338943 0.3345235
-0.33144712 0.11728202 0.13102636 0.115492314 -0.117438935 -0.011231301 0.013572028 -0.08683388
0.10867489 -0.19439352 0.41383064 -0.19798559 0.11661929 0.1014752 0.06662725 -0.15899651
-0.08983166 0.0704031 0.07649356 -0.08787325 0.087430194 -0.4752367 0.12971702 -0.01486855
-0.052508503 0.25099432 -0.0894879 0.11561965 -0.054828715 -0.0051812767 0.15034422 -0.28443986
-0.008347448 0.048224915 0.12296474 0.16225807 0.15202983 0.049625542 -0.06385534 -0.9804158
-0.4270644 -0.1177772 0.10520987 0.0013781936 0.0058211125 0.1029965 -0.118259735 0.18435828
-0.08959524 -0.8487352 0.37693834 -0.38887903 -0.669861 0.103154846 -0.26113015 0.03746892
-0.06717149 -0.10103008 0.72093976 -0.08386076 0.003658327 -0.16442257 -0.013795547 -0.10717422
-0.11039017 0.21897718 -0.04267705 0.027023682 -0.14285906 -0.07001033 0.31359485 0.10464849
-0.14550838 -0.42968124 0.0017059994 -0.009201513 0.045243926 0.13645326 0.06486683 -0.19637248
0.15329294 -0.0958792 -0.09525561 0.086584814 0.37355268 -0.109584466 0.085101105 -0.4043617
-0.25335106 0.007213338 -0.19670017 -0.17681865 -0.09563908 -0.051772807 0.040122233 -0.03227293
-0.031926766 -0.6825979 0.024547482 -0.05798723 0.14917213 -0.16408117 -0.40664816 -0.21890372
-0.13176604 -0.043843616 -0.013990398 0.11629157 -0.09593304 0.04849552 0.06490597 0.16036776

lstm.weight_hh_l0 f4 [128, 32]
00000000: a262 0d3f 9d02 873d 96e3 d43d 689a 26be
00000010: 6b83 efbd 1f04 3e3f 63f0 373e ccac 0dbe
00000020: f8fb 823e b300 febe 8895 41bf 1a0d 753e
00000030: 40d2 933f 69e5 3dbe cfa8 0ebf 9804 b4be
00000040: 7c83 1d3c 9b37 26be 7ee2 5bbd ee16 a33e
00000050: f66b 00bf f1d3 d5be cf02 943e cc1b fd3e
00000060: af34 60bf fa88 963e 26d3 d63e bc37 2f3f
00000070: 577c bcbe 203b cdbe daf8 b9be e346 e23e
00000080: 4af2 093d 12b5 503f be5c b6be a72b 14bf
00000090: 8589 34be d886 00bf 643b e03d d43d 463e
000000a0: 2ae2 083f a033 17be de4e 87be 2107 abbe
000000b0: a339 3ebe d014 4c3f 6741 2abe 660d df3e
000000c0: 09ba f13e 054b 033e 762b 5d3e 370e 473e
000000d0: fff1 53bf 34ff 053f 41ce c8bc 3566 82be
000000e0: 5c7c 03bf 5204 02be cde5 17bf e53f b43e
000000f0: c82f 8d3e 77dd 403f d87b 1abf 8509 fd3e
00000100: 4ee8 c2be a6d5 0abf 44f0 3bbf c41b 123e
00000110: 672b df3e c8c7 8dbe f3a4 52be b816 2fbe
00000120: 0464 2a3e f6b5 aabe c6cf 803f 16b6 03be
00000130: 92f6 0c3f 763a 48bf 3abf cabe 1511 343f
00000140: 802b 613d 310d 5a3f 72d6 09bf 1b05 113c
00000150: fd0a da3e 77f8 f3be b240 9b3e bc27 b13e
00000160: 6bea dc3b 505d 553d b6b0 973e 3d8f f43e
00000170: 2c8f b8be 3b65 0cbf b562 70be 12c6 1dbf
00000180: e79d 76be fc01 0dbf ee11 cd3e 3136 9e3d
00000190: a351 b0be 9f77 65be 998d 43be ac4a 0e3d
000001a0: b0f3 c6bd c9bb 0dbe a1d9 1c3e 7d50 44be
000001b0: d6a1 69be f092 263e 956d 2abe 54d4 753c
000001c0: 0333 8bbe 9146 91bd 0536 6b3e 8481 94bd
000001d0: d09d 02bf 2e0f ee3c 025e 0e3d 85ff 82bd
000001e0: 6d79 fa3c b1dd d5bd 114d 4e3e dc3b c4be
000001f0: 1ddc 45be f0fe 2e3c ec27 dc3d 5806 c5be
00000200: 7004 bd3e 8ef4 163f ff59 293f d1b6 d6bc
00000210: f5d3 0f3f 6c41 2a3e d185 98be 5c28 563e
00000220: 2f55 0dbf b6d7 6d3d 5a56 2abf dab7 133f
00000230: e2f2 063f e3d3 c53c ceed 8dbd 3b25 36bf
00000240: 4acc e9bd 9f18 133f 968c a43e 3d5e 45be
00000250: 5751 0dbf e394 13bf 39ec 16bd 8912 f9be
00000260: ab8d 88bf 6348 173e ea07 373e 873c 003f
00000270: 0837 c2be cb31 203e 5ba4 97be dc96 473f
00000280: ae63 42be 639d 043e 022c 233f c02d 853e
00000290: 6c37 aebd ed3e 163f 5d8c 6fbe f5a6 02be
000002a0: 41f0 043f cd1c 13be b7ee e43d ee9d d6be
000002b0: 4bd9 59be a191 153f c7c7 31be c0d4 81be
000002c0: d49b c43e a68e 9a3e 4f53 833c 126c df3e
000002d0: 1da8 c1be cd3f f5bd 0a73 8e3e b636 a8be
000002e0: 5c0c eebe 2b26 16bf 476c 9ebe 5252 aa3e
000002f0: 231a d03d 0621 f33e 9521 5f3f d75f 07be
00000300: dee7 dd3e 992d 423e 3673 f13e ce19 e7be
00000310: b3f6 1bbf cce5 263e 9e04 fbbe ed57 093d
00000320: 40e6 c63e ed5d 92be 2a63 af3e 61ab 21be
00000330: 1d05 033f 2bcc 52be 4829 1dbf 7adf dc3d
00000340: b2db e1bd 026e 9a3e 63ec e63b 72db 3c3e
00000350: 9ab8 a2bd 082c 25be bb5a be3e a1ce 663e
00000360: 3bc5 cf3c ced1 d4be af94 9bbe 66a2 033f
00000370: ded8 93be e7dd 06bf 5a76 f23d 6b40 923d
00000380: 7d22 bd3c d607 a53d 9b53 c8bd 03b9 d3bd
00000390: 1917 37be aeaa e93c 7ab8 e03e f1a8 c7be
000003a0: 7434 91be 8c84 e33e 9c38 89be fb9d 253f
000003b0: f690 963e 66ac 213e 4bb4 773e 2ef8 6f3d
000003c0: a2c1 91bd f5eb b7bd 8243 6e3e 232e 2dbf
000003d0: 47c0 093d ceed 3ebe d244 88bb ac69 5fbe
000003e0: bf5b 10bf 78f1 af3e 51dc 793e 21e9 cf3c
000003f0: e2ca dc3e 0390 e63d a932 1fbe 8528 4f3e
0.55228627 0.06592295 0.10394971 -0.16269839 -0.11694988 0.7422504 0.17962794 -0.13835448
0.25582862 -0.49609908 -0.7561879 0.23930779 1.1548538 -0.18544544 -0.5572633 -0.35159755
0.009613868 -0.1623215 -0.053682797 0.3185343 -0.50164735 -0.4176326 0.28908393 0.4943527
-0.8758039 0.2940138 0.41957968 0.6844442 -0.36813614 -0.4008417 -0.3632267 0.44194707
0.03367833 0.8152629 -0.35617632 -0.5787911 -0.17630585 -0.50205755 0.10948828 0.19359523
0.534701 -0.14765787 -0.26427358 -0.33403876 -0.18576674 0.7971926 -0.16626512 0.4356491
0.47212246 0.12821586 0.2159861 0.19439016 -0.8279113 0.52342534 -0.024512412 -0.25468603
-0.5136163 -0.1269696 -0.59335023 0.35204998 0.27575517 0.7533793 -0.6034522 0.49421325
-0.3806786 -0.5423225 -0.7341349 0.14268404 0.435878 -0.27691483 -0.20570736 -0.1709851
0.16639715 -0.3334195 1.0063407 -0.12862429 0.55063736 -0.78214204 -0.3959902 0.70338565
0.054973125 0.8517638 -0.5384284 0.008851315 0.42586508 -0.476505 0.30322796 0.34600627
0.006741812 0.052090943 0.29627007 0.47765532 -0.3604673 -0.54841965 -0.23475154 -0.61630356
-0.24083672 -0.5508115 0.40052742 0.0772518 -0.34437284 -0.22408913 -0.19096984 0.03473918
-0.097144485 -0.13841166 0.15317394 -0.19171329 -0.22815642 0.1626699 -0.16643365 0.015004236
-0.27187356 -0.070935376 0.22969826 -0.07251266 -0.5102205 0.029059973 0.03475762 -0.06396393
0.030575478 -0.10442675 0.20146586 -0.3832692 -0.19322248 0.010680899 0.10749802 -0.38481402
0.36917448 0.5896691 0.6615295 -0.02621022 0.56182796 0.16626519 -0.29789594 0.20913833
-0.55208105 0.058067046 -0.6653801 0.5770241 0.5271436 0.024148887 -0.06930123 -0.7115056
-0.11415918 0.57459444 0.3213851 -0.1927423 -0.5520224 -0.5764906 -0.036846373 -0.48646954
-1.0668234 0.14773707 0.17874113 0.5009236 -0.3793261 0.15643995 -0.2961758 0.7796457
-0.18983337 0.12950663 0.63739026 0.26011467 -0.08506665 0.5868977 -0.23393388 -0.12759002
0.519291 -0.14366455 0.11178344 -0.41917366 -0.21274297 0.5842534 -0.17361365 -0.25357628
0.38400137 0.30186957 0.016030936 0.4363714 -0.37823573 -0.1197506 0.27822143 -0.3285424
-0.46493804 -0.5865199 -0.30941984 0.3326593 0.10161235 0.47486132 0.8716062 -0.13220154
0.43340963 0.18962707 0.4715821 -0.45136875 -0.6092331 0.16298598 -0.4902696 0.03353112
0.38847542 -0.28587285 0.34255344 -0.15788032 0.5117968 -0.20585696 -0.61391115 0.10784812
-0.11028232 0.30162054 0.0070472225 0.18443087 -0.07945366 -0.16130078 0.37178597 0.2253976
0.025362602 -0.41566318 -0.30386874 0.51419675 -0.28876394 -0.52682346 0.1183898 0.07141193
0.023087734 0.08058135 -0.097815715 -0.103380226 -0.17879905 0.02852377 0.43890744 -0.3899608
-0.2836033 0.44437063 -0.26801002 0.64694184 0.2940747 0.15788421 0.2418987 0.058586292
-0.07117011 -0.08980552 0.2326794 -0.67648524 0.033630636 -0.18645403 -0.0041585946 -0.21817654
-0.56389993 0.34363914 0.2440045 0.02537972 0.43123537 0.11257937 -0.15546669 0.202303

lstm.bias_ih_l0 f4 [128]
00000000: 249f 00be 6df3 82bd ee4e 873e 22cc b03e
00000010: 7cc0 c03e 47da bb3b 4ff8 8fbe 2119 30be
00000020: d7f3 d03d f603 953d 3c11 ae3e 5fd3 33be
00000030: 3212 27be a38b 0a3d d470 513f c291 e13e
00000040: c648 dcbc 8200 8a3e 5a75 edbd bc4d 773e
00000050: 1d23 223e 8ef5 093d 5ab2 923e 2e69 85be
00000060: cd12 a63d 056b 8f3e 67f3 ffbd ec08 7fbc
00000070: d3e7 47be a516 a4be 8687 6abd a4af 97be
00000080: d2ad d3bd 119c 67be 5dc4 9ebd 06cd 5c3c
00000090: c4cd 29bd 0023 0fbe d5d2 a03d ee6d 57be
000000a0: d532 21be a86a 2abe 50cc c93d 8587 92be
000000b0: 410c 7cbe 23e4 6fbe 5d6d ae3e 4adc 01be
000000c0: e8aa f2bd bca0 423d a531 8cbe fe42 18be
000000d0: 04ec 2ebe 66cc 8ebe c86c 92be 41e7 04bf
000000e0: 46a4 8abe badf a2be bc0a d7be 6786 973d
000000f0: 0abb 63bd 43eb 30be 7ace 5a3e 772c 16bf
00000100: 9f5c b5be 5946 d83d 7450 31be b73c c0be
00000110: 35ae aebd da84 0e3d f5cb 18be 0ef6 c13d
00000120: ed4c 993e ace2 2abe 47ca 293e 0ed4 fdbe
00000130: 3696 50be a800 003d f26f cbbe 88a3 c83c
00000140: 8983 683e e81f 833e a212 5fbe 14b8 953e
00000150: fa15 8e3d 5c15 1a3e 56a3 bc3e f54a 213d
00000160: 4933 0e3d b301 5bbe 14f7 7c3e c62b 71be
00000170: 29b2 70bd bc42 ddbe cf92 2fbc eea2 13be
00000180: dda7 acbe fef3 6dbd 988c e7ba 3eae e33c
00000190: 2028 f93d 0983 9ebe 6a8a 1d3c 52bc c6be
000001a0: f73a 88be f3e2 84be b584 1d3e 635c 053e
000001b0: 2c5c 3f3d a9b3 263c 3e91 8d3e 2468 6cbe
000001c0: e6e4 613e e1eb 21bd 2603 45bd 421a d03e
000001d0: 685a 963e 43df 71be 3b1e b83e bbc5 3e3e
000001e0: 1cad 083e 7a23 623e e851 243d 2eb5 293e
000001f0: 9a6e abbe 58f8 d3be d2b6 243d 1051 2abe
-0.12560707 -0.06394086 0.26427406 0.3453074 0.37646854 0.005732808 -0.28119132 -0.17197086
0.10202759 0.07276146 0.33997524 -0.175611 -0.16315535 0.033824574 0.8181279 0.44056517
-0.02689017 0.26953512 -0.11594649 0.24150747 0.15833707 0.033681445 0.28651696 -0.26056808
0.08109055 0.28011337 -0.12497597 -0.015566092 -0.19522028 -0.32048526 -0.05725815 -0.2962619
-0.10335888 -0.22618128 -0.07752297 0.013476616 -0.041456 -0.13978195 0.07852713 -0.21038029
-0.15742047 -0.16642249 0.09853423 -0.28619018 -0.2461405 -0.23426871 0.34067813 -0.1268169
-0.11849004 0.04751657 -0.27381626 -0.14869305 -0.1708222 -0.2789032 -0.28598619 -0.51915365
-0.27078456 -0.31811315 -0.42000377 0.07398682 -0.055598296 -0.17277245 0.21367827 -0.586616
-0.35422227 0.10560293 -0.17315847 -0.37546322 -0.08529321 0.034794666 -0.14921553 0.09470759
0.29941502 -0.16688031 0.16581069 -0.49575847 -0.20369801 0.031250626 -0.39733845 0.02449204
0.22706427 0.2561028 -0.21784452 0.29242003 0.069377854 0.1504721 0.36843365 0.039378125
0.034716878 -0.21387367 0.24703628 -0.23551854 -0.058763657 -0.43214977 -0.010716154 -0.14417621
-0.3372182 -0.058094017 -0.0017665802 0.027793046 0.12165856 -0.30959347 0.00961552 -0.38815552
-0.26607487 -0.259544 0.15382655 0.13023524 0.04671876 0.01017467 0.27649873 -0.23086601
0.22059974 -0.039531592 -0.048098706 0.40645033 0.2936585 -0.23620324 0.35960564 0.18630116
0.13347286 0.22083846 0.040117174 0.16573021 -0.3348282 -0.4140041 0.040213414 -0.16632485

lstm.bias_hh_l0 f4 [128]
00000000: ec25 e8bd 2ccb 73be af33 b03e f83c c83e
00000010: cb22 013f 1018 07be 8733 a8be 936b 59bd
00000020: 4753 1dbe acec f23c 11b9 ae3e bcd8 053e
00000030: b2c7 75be 4317 9d3c 5220 4c3f 2ce3 923e
00000040: d5ee 1fbe 1046 0c3e 9317 86bd 3e91 5b3e
00000050: 1467 dfbd 77dd 993d 1c76 043e 2d05 5ebc
00000060: 6abf 923e 8399 3d3e a521 40be 1c4b 51bd
00000070: 4c54 ac3d 6d9b b2be 9b08 8ebe 4d86 1cbe
00000080: d3ab 3fbe a3a5 5abe 03ca 593c ccfc ff3d
00000090: 62af 57be d04c 9fbd a7ec 583e f824 0bbf
000000a0: 9000 89be f1d1 bdbe 50bf 8f3e 9ef3 8abe
000000b0: 0185 2fbe 0d82 0abe 150f e63d 1be2 9ebc
000000c0: 3a49 66be 9b75 be3d 3e26 77be 56ad a0bd
000000d0: 0a30 92be cce4 aabe 5780 aebd ffce e8be
000000e0: ddff 55be 03a0 ebbd 34a6 3fbe 77b7 b33d
000000f0: 892c 39be a5a5 adbe 703b 0c3d 31c0 ddbe
00000100: 3fb4 44be efa1 e53c fd19 d43c f764 ffbd
00000110: c83d 07be accb 403e ca38 c1bd 56f3 163c
00000120: 0e79 583e 4db8 b0bd aabb 393e c559 9dbe
00000130: 7c38 e2bd 322a 7fbd 2ac0 dbbe 4690 46be
00000140: 0600 5d3e 526c 7e3e 8ad0 d7bd 8db0 803e
00000150: 39c5 0bbe f1b7 273d 6dd6 b33e fb0f 99bc
00000160: 2e29 2ebe 77ea fdbd f7b6 e13d 818a 13bd
00000170: adad c3bd 7567 84be 8a34 2c3e 8029 ffbd
00000180: 5c9d 23be d160 2b3e 993e 2d3e 82fe 2b3e
00000190: bdce 4abe 72cc c1bd 2f5d 53be 477a f0bd
000001a0: 58b9 3dbe 60d4 4abe 9a4c 803e ef92 d03d
000001b0: 95d0 c3bd a327 5fbe 7c30 983e bd14 51be
000001c0: 22ec b53d 386b 57bd d7ad 68be a452 b63e
000001d0: 6910 ae3b 6908 45be 20cc 2b3e c9e0 163e
000001e0: 1611 173e 5ad7 1e3e 098f 15be 76f9 a03e
000001f0: a629 e0bd a8f6 a1be 936d 95bd 1ace 8fbe
-0.11335358 -0.23807973 0.3441443 0.39109015 0.50443715 -0.13192773 -0.32851812 -0.053081106
-0.15363799 0.02965387 0.3412557 0.13070959 -0.24001959 0.019176131 0.79736817 0.28688943
-0.15618451 0.13698602 -0.06547465 0.21442124 -0.109083325 0.07512944 0.1293568 -0.013551039
0.28661662 0.18515591 -0.18762834 -0.05109702 0.08414516 -0.34884205 -0.2774094 -0.15285607
-0.1871789 -0.21352248 0.013292792 0.12499389 -0.21062997 -0.07778323 0.21184026 -0.54353285
-0.26758242 -0.37074235 0.28075647 -0.2713899 -0.1714058 -0.13526173 0.112333454 -0.019394925
-0.22488871 0.09299775 -0.24135682 -0.07845561 -0.28552276 -0.33377683 -0.08520573 -0.45470425
-0.20898385 -0.11505129 -0.18715745 0.087752275 -0.18083395 -0.3391544 0.03423637 -0.43310693
-0.19209383 0.028031318 0.025891298 -0.124704294 -0.13207161 0.18827695 -0.0943466 0.009213289
0.21139929 -0.086289026 0.18137994 -0.3073255 -0.1104593 -0.0622961 -0.42920047 -0.19390973
0.2158204 0.24846008 -0.105378225 0.25134698 -0.13649453 0.040946905 0.3512453 -0.018684378
-0.17007896 -0.12398236 0.11021226 -0.03602076 -0.095546104 -0.2586018 0.16816917 -0.12459087
-0.15977997 0.16736151 0.1691841 0.16796306 -0.19805427 -0.09462823 -0.20641015 -0.117420726
-0.18527734 -0.19807577 0.25058442 0.10184275 -0.09561268 -0.21792464 0.2972449 -0.20418067
0.088829294 -0.052592486 -0.22722565 0.35609925 0.005312015 -0.1924149 0.16777086 0.14734186
0.14752612 0.15511838 -0.14605345 0.31440324 -0.10945444 -0.31633496 -0.0729629 -0.2808693

fc_pi.weight f4 [12, 32]
00000000: 3bfe 1abe 5830 03bf 8499 d0bf c4cf 95bc
00000010: b284 a83f d7ae 4f3c 8057 e73f b87a 8ebf
00000020: c618 4a3f 70ec b83f 63f6 0ec0 50f5 8c3f
00000030: c692 ecbc ee4b c4bd 4f2a 1640 46b8 723e
00000040: 9deb 573f 8ca7 5dbf c191 853f af8d ebbf
00000050: fd70 853f 4e49 e63d 6d76 59bf 430e 47bf
00000060: d3d1 32be d7eb 3cbf 00da 5ebf 08dc 513f
00000070: 7bfd 973f 6ef5 733d 4759 c0bf 9549 31be
00000080: 4956 143e 3543 04bf e580 b7bf b643 92be
00000090: ce8b b43f a9fc 91be ce34 f43f 59a3 76bf
000000a0: 71dc 8c3c d186 903f 60df bcbf b23d 883f
000000b0: 8f75 833d ff37 03bf 0540 3040 196c be3e
000000c0: 8de7 563f 8e69 5ebf 0098 d83f 816d afbf
000000d0: 1762 6e3f 03a3 c6be 2708 55bf 0134 cdbf
000000e0: c68f 10bf fd87 9ebd b0cc 04bf 7bef 053f
000000f0: a083 833f cc50 d23e b33f abbf b76c ccbe
00000100: f53a 653e 1bca ebbe 4d72 abbf ec4f 9d3d
00000110: ec66 893f de46 1dbf cead e83f 419d aebf
00000120: ed5a 46be 7972 9f3f 468c 03c0 63dc eb3e
00000130: 01ad a93e 0315 743e bbc5 3a40 8046 d13e
00000140: 6261 453f c64d f6bf 3afc 6f3f 035e f7bf
00000150: eac5 d83e 4808 473e 5fdd 7fbf 6321 60bf
00000160: 4f1a eabd e0e5 f0be 4327 773d 3488 4d3f
00000170: 7d89 a53f 6579 9d3e bb04 97bf f314 edbd
00000180: 0f5d 97be 3baf dc3e c265 0bc0 9d6a 2dbf
00000190: 5bdc 443f 2eff 40bf 1f65 643f a786 d2be
000001a0: 8d58 5bbe 243a a13f 7fde f0bf 7878 813f
000001b0: 103a 303e 0948 b7bf 72e1 cf3f 4524 0fbe
000001c0: 0da7 d13f 26e9 363e d6cf 2f3f 7db2 afbf
000001d0: b8b1 f33e 5836 cabf 8273 a4bf f7a0 85be
000001e0: 000d 88bf d5f9 81be 9e2f 7c3e 9f0b b43f
000001f0: e8dd 933f cadb 48bf c79c a3bf 1921 143f
00000200: 282d 193d f9d9 77bd c5fc cbbf 1c2d 183e
00000210: c4ba 663f 4408 0fbd a9cb 9e3f a814 8abf
00000220: 2c04 c5be 0af2 4f3f 5cfe dcbf bf58 a23f
00000230: 56c1 563f bd48 64bf 4e21 1940 c9d6 30bd
00000240: 84c7 9d3f d044 24bf 5a5c 6e3f 5db8 c2bf
00000250: 1708 933f 1894 65be 898c cebe 7cf7 85bf
00000260: ed69 94bf f197 323e ba20 03bf be4a 203f
00000270: 476b 863f b25c b23f e65f 8abf fb00 bbbc
00000280: 953d d13e a270 2cbf f72a f93e 9328 8e3f
00000290: 5414 423e 9ec1 ea3f 8ebd bfbf fe92 3dbe
000002a0: 0796 0dbf 6688 cc3f 0218 8f3e e88e bbbe
000002b0: 1e0b 02bf 8897 7abf 2d48 f7bd 5fa9 afbf
000002c0: 48cc a0bf 7472 d33f 59c3 413f 382c e2be
000002d0: a24d 1d3f 7c54 b7bd 716f 753e 5d28 52bf
000002e0: f280 913e 64bc 20bf 1e05 b13d f464 2c3f
000002f0: 81c5 dfbe 7f9f c33e fda1 f03f 6ae5 39bd
00000300: 0746 3abd fa01 16bf 062d e3bf 565b b63e
00000310: 5944 8c3f 6022 30bf af85 e33f 46da 68bf
00000320: 6afb 233f 0917 4b3f 8941 c6bf a900 8f3e
00000330: fa37 08be 9e3e e03d 3df7 3940 f9ff 1e3f
00000340: 0cfa 983f 632b 8ebf 0060 303f 14f4 e6bf
00000350: 07bb 073f aa32 963e 6bd4 87be a12b 90bf
00000360: 8eca 3cbf 2ec5 f3be 4147 11bf 1efd 703f
00000370: 48ab 333f b874 283f b30b c5bf 806e 91be
00000380: 16ed debd 1471 073e 24d4 7e3d 11fa 0bc0
00000390: 7ac0 e1be baf2 bcbf c335 923f e62f 5e3c
000003a0: 4649 abbd 08bd c3bf 989b 173f 20e2 4e3f
000003b0: b59a 923d f312 efbc bdec 12be e8ab 7e3f
000003c0: 5fa0 a8be 6d9c 21c0 4d36 99bf f7bf 4f3f
000003d0: 6695 bf3e fe67 c9bd 7f65 923f 81be 0040
000003e0: 5f76 77bf 5fee f83e cbe8 983f b09c a2bf
000003f0: 5639 e33e d2de 5ebf 5797 01c0 05fd 313e
-0.15136044 -0.5124564 -1.6296849 -0.018287547 1.3165495 0.012675962 1.8073578 -1.1131201
0.7894405 1.4447155 -2.2337883 1.1012363 -0.02887858 -0.09584795 2.3463323 0.23703107
0.8434389 -0.8658378 1.0435106 -1.8402613 1.0425106 0.112444505 -0.8494633 -0.77756137
-0.17462854 -0.73797363 -0.8705139 0.81976366 1.1874231 0.059560232 -1.5027245 -0.17313226
0.1448604 -0.5166505 -1.433621 -0.28567284 1.4105165 -0.28513077 1.9078615 -0.96343
0.017194958 1.1291143 -1.4755669 1.0643828 0.06418907 -0.5125732 2.7539074 0.37191847
0.8394707 -0.86879814 1.6921387 -1.3705293 0.93118423 -0.38796243 -0.83215564 -1.6031495
-0.5646938 -0.077407815 -0.5187483 0.52318543 1.0274544 0.41077268 -1.3378814 -0.39926693
0.22385772 -0.46052632 -1.3394257 0.076812595 1.0734534 -0.6143626 1.8178041 -1.364174
-0.19370623 1.2456809 -2.0554366 0.4606658 0.33139804 0.2383614 2.9183185 0.408741
0.7710172 -1.9242485 0.9374424 -1.9325565 0.42338496 0.19436753 -0.9994716 -0.87550944
-0.11430799 -0.4705038 0.060340177 0.80285954 1.2932583 0.3075668 -1.1798319 -0.11576261
-0.29563186 0.4310244 -2.1780858 -0.67740804 0.76898736 -0.75389373 0.892168 -0.41118357
-0.21420498 1.2595868 -1.88179 1.0114889 0.17209649 -1.4318858 1.6240675 -0.1397868
1.6379105 0.17862377 0.6867651 -1.3726345 0.47596526 -1.5797834 -1.284775 -0.2609937
-1.0628967 -0.2538592 0.2462754 1.4066046 1.1552095 -0.7846037 -1.278222 0.57863003
0.03739658 -0.06051061 -1.5936514 0.14860958 0.9012873 -0.034919992 1.2405902 -1.0787554
-0.38479745 0.812287 -1.7265124 1.2683333 0.8388876 -0.8917349 2.3926578 -0.043173585
1.2326512 -0.641675 0.9310967 -1.5212513 1.1486844 -0.22419775 -0.40341595 -1.0466151
-1.1594826 0.17440774 -0.5122181 0.6261405 1.0501488 1.3934538 -1.0810516 -0.022827616
0.40867296 -0.67359364 0.48665592 1.1106132 0.18953067 1.8340337 -1.4979722 -0.18513104
-0.5530705 1.5979125 0.27948004 -0.36632466 -0.50798213 -0.9788747 -0.12074313 -1.3723563
-1.2562342 1.6519303 0.756887 -0.4417436 0.61446583 -0.08951661 0.23968293 -0.8209284
0.2841869 -0.6278746 0.08643554 0.6734154 -0.4370537 0.38207623 1.8799435 -0.045384802
-0.04547694 -0.58596766 -1.7748115 0.3561656 1.0958358 -0.6880245 1.7775172 -0.9095806
0.640555 0.79332024 -1.548875 0.2793019 -0.13302603 0.10949443 2.9057152 0.62109333
1.1951308 -1.110699 0.68896484 -1.8043237 0.53019756 0.2933553 -0.2652925 -1.1263314
-0.73746574 -0.47611374 -0.5674935 0.94136226 0.7018323 0.658031 -1.5394195 -0.28404617
-0.10885064 0.1322673 0.06221403 -2.1871378 -0.4409216 -1.4761574 1.1422657 0.013561225
-0.08363585 -1.5292063 0.5922179 0.8081379 0.07158414 -0.02918384 -0.14348121 0.9948106
-0.32934853 -2.5251725 -1.1969696 0.8115229 0.3741867 -0.09834288 1.1437224 2.0116274
-0.96664995 0.48619363 1.1946043 -1.2704067 0.4437968 -0.87058747 -2.024862 0.17381676

fc_pi.bias f4 [12]
00000000: 3d3f 21c0 f72d 12c0 2670 2ec0 f1a1 84bf
00000010: 43e7 f0bf 9dbd c0bc 1d9e 13c0 7e6d 583e
00000020: 9a57 31c0 77ba 07c0 c935 0ac0 7852 22bf
-2.5194848 -2.2840555 -2.725595 -1.036192 -1.8820575 -0.023527915 -2.3065255 0.21135518
-2.7709718 -2.120756 -2.1595328 -0.6340709

fc_v.weight f4 [1, 32]
00000000: db1c 4b3f 1410 5dbf cbb8 c8be 3892 213e
00000010: 4e12 4c3f be6f 133f 8912 c7be 6b3f 3a3e
00000020: 8eb3 d9be e570 33bf f23b ccbd 154e bd3e
00000030: 4dba 6f3e 883b 31be 0663 2f3f 5f68 e5bd
00000040: 0ddf 05bf 5f54 b53d 8c9e 39bf e818 393e
00000050: 1281 063f f7f4 22bf 444c 84bd 4d3c 2b3f
00000060: 2830 13be 13db 563f 82a6 b03f 7eb4 99bd
00000070: d5fb 52bf 8953 8cbf e0c8 a23e 1434 8c3f
0.79340905 -0.8635266 -0.39203486 0.15778434 0.7971543 0.5759238 -0.3888133 0.18188255
-0.42519802 -0.7009414 -0.09972371 0.36973634 0.23410912 -0.17307866 0.6851047 -0.11201548
-0.52293473 0.08853983 -0.7250755 0.18075907 0.52540696 -0.63655037 -0.06459859 0.66888887
-0.14373839 0.8392803 1.3800814 -0.07505129 -0.82415515 -1.0962993 0.3179388 1.0953393
