model/DQNAgent2_20-08-2022__18-13-23.pth/DQNAgent2_20-08-2022__18-13-23.pth (torch, 210511 bytes, 8 tensors)

network.0.weight f4 [128, 13]
0.16772494 -0.0718112 -0.23030294 -0.06752244 0.09021587 -0.15924567 -0.13340987 -0.32848403
0.116752535 0.1845111 0.12220515 0.04949136 -0.21938397 -0.09271138 0.17587349 0.17529815
0.056740534 0.034742344 0.11645339 -0.21040362 0.16177954 0.12880747 -0.20825848 -0.02539608
-0.088101074 -0.10559278 -0.16698274 -0.16362286 -0.268004 0.112338476 0.19826862 -0.21329832
-0.19771095 0.14541794 -0.18029135 0.10662444 -0.111928895 0.0023053384 0.2139981 -0.24395032
0.21808891 0.116040364 0.075500056 0.044429798 0.06362706 -0.01922968 0.0794547 -0.22845945
-0.3093341 0.1997988 0.053772908 0.20552999 -0.21197388 -0.18045901 -0.12322246 0.051100712
-0.21495624 -0.14672749 0.099403955 0.08797316 0.18325487 -0.22602545 -0.14474969 0.10370874
-0.298396 -0.25526935 0.050228827 0.15134485 -0.20085146 -0.192485 0.2188187 0.071594335
0.101096846 -0.035458412 0.081650496 -0.2986605 0.17196086 -0.2841295 -0.13480681 0.14922118
0.0009143658 -0.11042122 0.16070847 0.18582465 0.025194563 -0.01780682 -0.116146155 -0.13639157
0.13105746 -0.14867723 -0.25521812 -0.0620023 0.1323353 -0.10926375 0.11727512 0.17972708
-0.13519758 0.028458357 -0.22059003 -0.03519681 -0.016986936 -0.101643786 0.20762858 -0.17439309
-0.03267414 -0.1877346 0.14570764 -0.1245951 -0.085135385 -0.07931168 -0.069746576 -0.1185106
0.17661831 0.07856566 -0.27676624 0.1172339 -0.25264415 -0.261211 -0.19113207 -0.106855236
-0.25506768 -0.34001505 0.014262827 0.17501673 -0.2730985 0.108862884 -0.042711634 -0.078233525
-0.10532793 -0.14487529 -0.18985681 0.12121143 -0.13411634 -0.31570756 -0.28625914 0.0077629522
0.0012508392 -0.0025398082 -0.20559603 0.006447924 -0.08148765 -0.02591307 0.068142794 0.2286376
-0.15054856 -0.10575391 0.0766916 0.2175417 -0.27135918 0.23647937 -0.27622738 -0.24408677
-0.086031705 -0.18523794 -0.07400565 0.25569513 -0.26439574 0.14948118 0.039835867 -0.29109943
0.17171632 -0.13468234 0.10183972 -0.16094787 -0.1905856 0.057075687 -0.2569051 -0.11396958
0.22850128 0.2653701 -0.10564576 -0.13177857 -0.12737216 0.023853838 -0.10885203 -0.15161523
0.014507115 -0.09060383 0.08031285 -0.062983006 0.26270792 -0.23294576 -0.09317726 -0.08069585
0.11994043 0.038083434 -0.16268992 0.04227355 -0.09175585 0.06671566 -0.12165053 -0.16658467
0.076785505 0.24673387 -0.061365873 -0.18012583 -0.05345407 -0.2514983 -0.16939339 0.18897241
0.18844518 -0.15232356 -0.13361517 -0.20721993 -0.05150363 0.15997198 -0.19089109 0.021380156
0.1873513 -0.1287955 0.16280898 -0.17937325 -0.27068248 -0.035267692 -0.06540213 0.02550393
-0.3167241 0.1373362 0.1437052 0.026860146 -0.27297828 0.08192266 0.3334576 -0.19388251
-0.09620129 -0.14477469 0.17799497 0.016295291 0.057320707 0.17361172 -0.20374975 -0.21673498
-0.2138944 -0.3673036 0.02495501 -0.082459606 -0.3119148 -0.17683414 0.032586355 -0.06779158
0.027187819 -0.31939572 0.016367467 -0.041838996 -0.09486188 -0.030430758 0.16144453 -0.33130097
0.096906856 0.1657447 -0.18835971 -0.15986139 -0.0036507125 0.01637567 -0.20643912 0.116855904
00000000: 16c0 2b3e c011 93bd 89d4 6bbe 3449 8abd
00000010: 19c3 b83d 4c11 23be 999c 08be 0f2f a8be
00000020: f41b ef3d 7af0 3c3e b246 fa3d 74b7 4a3d
00000030: 31a6 60be 77df bdbd 2e18 343e 5c81 333e
00000040: c368 683d fd4d 0e3d 1d7f ee3d 0c74 57be
00000050: 89a9 253e 1be6 033e b641 55be 710b d0bc
00000060: 566e b4bd 0741 d8bd 86fd 2abe c08c 27be
00000070: d237 89be b711 e63d ee06 4b3e e06a 5abe
00000080: bd74 4abe 71e8 143e 4c9e 38be ea5d da3d
00000090: fa3a e5bd 2915 173b 5122 5b3e 1dce 79be
000000a0: b352 5f3e 92a6 ed3d c69f 9a3d 05fc 353d
000000b0: e74e 823d 9087 9dbc 25b9 a23d 46f1 69be
000000c0: 0a61 9ebe 0e98 4c3e fb40 5c3d 7476 523e
000000d0: ae0f 59be 3fca 38be 0f5c fcbd fb4e 513d
000000e0: 7d1d 5cbe bb3f 16be 4d94 cb3d 462b b43d
000000f0: 2aa7 3b3e 3773 67be 4339 14be 3f65 d43d
00000100: 5cc7 98be aab2 82be bebc 4d3d 25fa 1a3e
00000110: 01ac 4dbe ca1a 45be 0212 603e 0da0 923d
00000120: dd0b cf3d d73c 11bd 6038 a73d 07ea 98be
00000130: 8216 303e 6c79 91be cc0a 0abe 70cd 183e
00000140: 0db2 6f3a 8524 e2bd c390 243e d148 3e3e
00000150: d464 ce3c 9cdf 91bc 09de edbd 3baa 0bbe
00000160: ed33 063e d83e 18be f3ab 82be 20f6 7dbd
00000170: e882 073e acc5 dfbd f02d f03d 600a 383e
00000180: 3c71 0abe 8021 e93c 5ae2 61be 882a 10bd
00000190: 3028 8bbc 9e2a d0bd 969c 543e 1a94 32be
000001a0: 52d5 05bd 803d 40be 6234 153e b72b ffbd
000001b0: 765b aebd 296e a2bd 4bd7 8ebd afb5 f2bd
000001c0: 6edb 343e 08e7 a03d 4eb4 8dbe 5418 f03d
000001d0: 935a 81be 73bd 85be 20b8 43be ebd6 dabd
000001e0: 3b98 82be 7416 aebe a2ae 693c 9637 333e
000001f0: 91d3 8bbe 81f3 de3d 65f2 2ebd e638 a0bd
00000200: 2bb6 d7bd 305a 14be d369 42be b33d f83d
00000210: cb55 09be 6ca4 a1be 8f90 92be 5d60 fe3b
00000220: 33f3 a33a e972 26bb c487 52be 1b49 d33b
00000230: ffe2 a6bd a647 d4bc 738e 8b3d fa1f 6a3e
00000240: 6729 1abe 8295 d8bd 7c10 9d3d 40c3 5e3e
00000250: 97ef 8abe a627 723e ad6d 8dbe e2f1 79be
00000260: 6431 b0bd 04af 3dbe 4690 97bd 79ea 823e
00000270: e15e 87be 9811 193e ef2a 233d fc0a 95be
00000280: 67d6 2f3e 2bea 09be 5891 d03d 85cf 24be
00000290: df28 43be 32c8 693d 1189 83be e268 e9bd
000002a0: 3dfc 693e 97de 873e ce5c d8bd f6f0 06be
000002b0: d96d 02be 2069 c33c d0ed debd 0641 1bbe
000002c0: 40af 6d3c 808e b9bd 107b a43d 3cfd 80bd
000002d0: a781 863e 5589 6ebe b8d3 bebd de43 a5bd
000002e0: 54a3 f53d 60fd 1b3d 3098 26be 0827 2d3d
000002f0: 7eea bbbd 38a2 883d ea23 f9bd 2c95 2abe
00000300: b841 9d3d cea7 7c3e c85a 7bbd e872 38be
00000310: a8f2 5abd 63c4 80be 7675 2dbe fc81 413e
00000320: c6f7 403e b5fa 1bbe 6ad2 08be 7631 54be
00000330: 78f5 52bd b2cf 233e f478 43be 7025 af3c
00000340: 05d9 3f3e f8e2 03be 66b7 263e 9fad 37be
00000350: e596 8abe db74 10bd 8df1 85bd 9eed d03c
00000360: a929 a2be dca1 0c3e 7527 133e cf09 dc3c
00000370: cfc3 8bbe 11c7 a73d f4ba aa3e 2389 46be
00000380: 2f05 c5bd d13f 14be 5044 363e b47d 853c
00000390: 1ec9 6a3d 45c7 313e c6a3 50be c6ef 5dbe
000003a0: 2207 5bbe 380f bcbe 736e cc3c 95e0 a8bd
000003b0: 4cb3 9fbe 0214 35be 4579 053d 50d6 8abd
000003c0: fdb8 de3c d687 a3be 1115 863c 5e5f 2bbd
000003d0: f246 c2bd ed49 f9bc b751 253e 48a0 a9be
000003e0: 1a77 c63d fbb8 293e 5ee1 40be b4b2 23be
000003f0: cb40 6fbb 4526 863c c764 53be 2652 ef3d

network.0.bias f4 [128]
0.16214314 -0.17968765 -0.25598773 -0.27520454 -0.31827447 0.12700537 0.16035542 -0.20316532
0.23360428 -0.28332287 0.012275523 -0.17233917 -0.019970035 0.25059983 -0.1542171 -0.08941135
-0.017098702 -0.00496389 -0.07723454 -0.3075806 -0.23207016 -0.0023724437 -0.17301798 -0.22790964
-0.04389285 -0.16205703 0.12395233 -0.22844084 0.12183067 0.014776024 0.0513603 -0.30127186
-0.22376905 0.05860421 -0.18786247 -0.24272412 -0.23805712 0.10613835 0.12322384 0.041680306
-0.23446184 -0.06264171 -0.26811302 -0.24936731 0.010308588 0.07366801 -0.041567735 0.23314264
-0.34816107 -0.19259803 -0.09823176 0.011472881 0.084847555 0.051652763 -0.27670792 -0.050111786
-0.0023898631 -0.19146402 -0.0433179 0.08230031 0.19407728 -0.1126135 0.047020704 -0.03001404
0.11336115 0.256096 -0.115489155 -0.13869661 0.19396862 -0.2585772 -0.3120026 0.06274413
-0.21400158 0.176959 -0.14391899 0.16568159 0.06048126 0.030523269 0.04745111 -0.2038307
0.022318646 0.098912686 -0.29032832 -0.18845963 0.050572634 -0.07384893 0.07869422 0.2108607
-0.14588748 0.16016918 -0.3404042 -0.25013784 0.12989485 -0.02213329 -0.011442437 -0.17529969
-0.14725919 -0.18273108 -0.2620772 0.20164874 -0.25637388 0.14731044 -0.17958884 0.04055574
0.017807841 -0.15123993 0.061485987 -0.27537498 -0.27629486 0.16569494 0.02867691 -0.21820365
0.14099613 0.047273476 0.15583044 0.023000503 0.22380213 0.037533283 0.020330839 -0.02887261
-0.14818887 -0.072796576 -0.18137705 -0.0518589 0.27475134 -0.20362937 0.11111771 -0.043107975
00000000: da08 263e 0a00 38be d310 83be 9ce7 8cbe
00000010: dff4 a2be b20d 023e 3634 243e 920a 50be
00000020: f635 6f3e b20f 91be 461f 493c ae79 30be
00000030: 3398 a3bc 9f4e 803e 16eb 1dbe 4c1d b7bd
00000040: 9412 8cbc 21a8 a2bb 242d 9ebd 347b 9dbe
00000050: cda3 6dbe 007b 1bbb a02b 31be 2561 69be
00000060: fdc8 33bd 47f2 25be b8da fd3d 65ec 69be
00000070: 5c82 f93d 2317 723c 2e5f 523d 4e40 9abe
00000080: b723 65be f80a 703d 055f 40be ac8c 78be
00000090: 3fc5 73be 105f d93d c85c fc3d f8b8 2a3d
000000a0: c416 70be 4c4a 80bd 1c46 89be 255a 7fbe
000000b0: 5ae5 283c 41df 963d ee42 2abd f2bc 6e3e
000000c0: 2b42 b2be 6b38 45be bc2d c9bd c0f8 3b3c
000000d0: 8ec4 ad3d d991 533d a9ac 8dbe 0442 4dbd
000000e0: 409f 1cbb 250f 44be 1c6e 31bd 118d a83d
000000f0: 32bc 463e e8a1 e6bd c898 403d 01e0 f5bc
00000100: e429 e83d 041f 833e 9485 ecbd 7c06 0ebe
00000110: b69f 463e 3b64 84be cebe 9fbe ff7f 803d
00000120: 3b23 5bbe bd34 353e 805f 13be 6fa8 293e
00000130: 33bb 773d ef0b fa3c 185c 423d ffb8 50be
00000140: 98d5 b63c bc92 ca3d eaa5 94be 90fb 40be
00000150: 4025 4f3d 1c3e 97bd 6f2a a13d deeb 573e
00000160: 8763 15be 6403 243e 7649 aebe 1112 80be
00000170: 2803 053e e050 b5bc 0f79 3bbc c381 33be
00000180: 1dcb 16be db1d 3bbe fc2e 86be 027d 4e3e
00000190: 7043 83be 8cd8 163e 23e6 37be c71d 263d
000001a0: c0e1 913c a4de 1abe bbd8 7b3d f3fd 8cbe
000001b0: 8576 8dbe efab 293e d7eb ea3c c770 5fbe
000001c0: 4a61 103e d5a1 413d 0492 1f3e 8d6b bc3c
000001d0: 632c 653e 80bc 193d dc8c a63c 4086 ecbc
000001e0: d3be 17be 5f16 95bd e8ba 39be ff69 54bd
000001f0: 35ac 8c3e 3884 50be af91 e33d fd91 30bd

network.2.weight f4 [256, 128]
-0.081113115 0.12843761 0.008054689 -0.02241061 -0.031435423 -0.048523113 0.0844296 -0.041814584
0.052748553 -0.031291433 -0.031151094 -0.04292476 0.12974139 0.0702162 -0.031727683 0.07541067
0.0329026 0.12316586 0.028273758 0.05500773 -0.026938649 -0.04344141 -0.036442842 -0.07032005
-0.005520028 0.017105415 -0.041826617 0.09396927 0.004019521 -0.001541324 -0.08513231 -0.04938737
0.03882059 -0.02722365 0.024041742 0.023423528 0.12632151 0.007861353 0.02448415 0.06186595
-0.014312245 0.013340251 -0.075631104 -0.0627998 0.10344601 0.10072184 -0.030371184 -0.05269102
0.05628577 -0.03286363 0.06326482 -0.056439456 -0.010470822 -0.024287246 0.05274325 -0.06815399
0.03545081 0.0021848334 -0.037100554 0.000576721 0.024552323 -0.083643414 -0.06921193 0.14031261
0.053017385 0.012100747 -0.12948619 -0.0865466 0.06547601 -0.00472522 -0.0627326 0.057699088
0.1032072 -0.00414323 -0.009781877 -0.061249286 -0.04340231 -0.010407743 -0.034125786 -0.0025724769
-0.0095624775 -0.05213799 0.12538527 0.009214674 -0.08120685 0.094515264 0.2478308 -0.01939191
-0.063577 0.04190109 0.055802654 -0.026438411 -0.088367105 -0.023321085 0.007376638 0.12797733
0.07090557 0.0103766695 0.02380856 -0.015202902 -0.005735129 -0.026543252 0.08129473 0.06924971
0.08053871 0.03752757 -0.13270225 0.12021206 0.033281554 -0.009819301 -0.019195747 0.0002479694
0.024842478 0.06659632 0.059362244 0.03427419 -0.021731291 0.0276241 0.124646425 -0.02514401
0.032215312 -0.027258012 -0.034944635 -0.07142442 -0.07288545 0.105611175 0.057833448 0.052263144
0.031987235 0.023007125 0.014380455 0.0557793 0.022070669 -0.015689343 0.07995134 -0.017724723
-0.06242532 0.036031917 -0.0845063 0.061058484 0.043530367 0.06475871 0.074247636 0.021958679
-0.08508512 0.01115346 -0.05175455 0.07472525 -0.061381172 -0.059724294 0.03304766 -0.07945438
0.023359016 0.054543085 0.03327646 0.039354138 -0.047329657 0.05217377 -0.046606038 0.08453793
0.004402235 -0.053931635 -0.028661028 -0.018651806 -0.068996936 -0.06104912 -0.060091913 -0.07389451
0.024164557 0.076750614 0.04944224 -0.026228238 0.010366999 -0.036340583 -0.049469102 0.08615861
-0.07483663 -0.03410405 0.060385145 -0.06335607 0.08292847 -0.05998097 -0.0513013 0.08265913
-0.08419829 0.013401948 0.08226351 -0.029808156 -0.08295959 0.053605653 0.034874327 0.031165712
0.07846061 -0.05944457 -0.029092703 0.031427324 -0.059608594 0.033217467 -0.036604367 -0.061412394
0.033118486 -0.08050639 -0.060157396 -0.03266524 0.06554306 -0.08666674 0.043705456 -0.023022376
-0.03854577 0.012463622 -0.08546701 0.013087451 0.057902418 0.083502375 0.019986413 0.017354198
0.011820175 -0.057168014 0.061977677 -0.064530216 -0.0635866 0.08640789 -0.04407552 0.084960155
0.012758158 0.05508644 -0.064933784 0.07654997 0.07573461 -0.0030817688 -0.006367989 -0.050267767
-0.016213588 -0.045441203 -0.08697909 -0.034707528 0.02998297 0.07175573 -0.046850193 0.016963951
-0.068615794 -0.039758302 0.02630116 -0.039423328 -0.037236657 -0.062855095 -0.06100043 0.022538982
-0.023460098 0.036280774 -0.07612485 0.04850494 -0.07766784 -0.045935713 0.032796435 -0.035404533
00000000: a21e a6bd 2685 033e d0f7 033c 7596 b7bc
00000010: 6ec2 00bd 2cc0 46bd 6de9 ac3d c545 2bbd
00000020: de0e 583d 722b 00bd 9430 ffbc e0d1 2fbd
00000030: edda 043e 83cd 8f3d e3f4 01bd e970 9a3d
00000040: e0c4 063d 623e fc3d 5e9e e73c c94f 613d
00000050: 71ae dcbc 9fef 31bd 1745 15bd f503 90bd
00000060: 5ae1 b4bb a820 8c3c 6352 2bbd f672 c03d
00000070: 30b6 833b 4006 caba d959 aebd 694a 4abd
00000080: 5702 1f3d 2204 dfbc 30f3 c43c b3e2 bf3c
00000090: 6d5a 013e e8cc 003c fc92 c83c 2667 7d3d
000000a0: e87d 6abc 1191 5a3c 7be4 9abd 2e9d 80bd
000000b0: 80db d33d 4147 ce3d fdcc f8bc 8ad2 57bd
000000c0: e88b 663d 049c 06bd fc90 813d 0f2d 67bd
000000d0: d08d 2bbc 0cf6 c6bc 4e09 583d 5294 8bbd
000000e0: de34 113d 6c2f 0f3b c0f6 17bd 172f 173a
000000f0: f421 c93c 3d4d abbd fcbe 8dbd 1cae 0f3e
00000100: c228 593d 3642 463c 0798 04be 583f b1bd
00000110: 4918 863d 05d6 9abb f379 80bd e155 6c3d
00000120: 4c5e d33d efc3 87bb 2a44 20bc 88e0 7abd
00000130: 9fc6 31bd 3d85 2abc 7bc7 0bbd 0097 28bb
00000140: f0ab 1cbc a58e 55bd ff64 003e 25f9 163c
00000150: c74f a6bd 3891 c13d 5bc7 7d3e c8db 9ebc
00000160: a834 82bd 7aa0 2b3d 5391 643d 5e95 d8bc
00000170: d0f9 b4bd dc0b bfbc b9b7 f13b 7d0c 033e
00000180: f136 913d e802 2a3c 2b0a c33c 9815 79bc
00000190: c0ed bbbb 3c71 d9bc da7d a63d cbd2 8d3d
000001a0: 7bf1 a43d 82b6 193d 19e3 07be be31 f63d
000001b0: 3d52 083d 22e1 20bc 6640 9dbc e401 8239
000001c0: 7482 cb3c a763 883d d325 733d 1863 0c3d
000001d0: d205 b2bc f04b e23c a046 ff3d d0fa cdbc
000001e0: 34f4 033d 324c dfbc 1b22 0fbd f746 92bd
000001f0: f844 95bd ac4a d83d c4e2 6c3d e111 563d
00000200: 0c05 033d 7079 bc3c 009c 6b3c d678 643d
00000210: 8ccd b43c f086 80bc 87bd a33d 7033 91bc
00000220: b1b1 7fbd 3496 133d a411 adbd 7618 7a3d
00000230: e64c 323d 37a0 843d 250f 983d b0e2 b33c
00000240: 1b41 aebd 00bd 363c 94fc 53bd 8d09 993d
00000250: d36a 7bbd 76a1 74bd fc5c 073d fab8 a2bd
00000260: 685b bf3c 9268 5f3d e64c 083d ce31 213d
00000270: bedc 41bd 2ab4 553d f9e5 3ebd 3922 ad3d
00000280: a040 903b 6be7 5cbd 88ca eabc accb 98bc
00000290: 444e 8dbd a40e 7abd f022 76bd 0156 97bd
000002a0: c0f4 c53c 6d2f 9d3d f283 4a3d 9adc d6bc
000002b0: 58da 293c ddd9 14bd 1da0 4abd ed73 b03d
000002c0: f243 99bd b0b0 0bbd 6a56 773d d4c0 81bd
000002d0: 67d6 a93d 9bae 75bd 5021 52bd 3149 a93d
000002e0: 2770 acbd d893 5b3c c579 a83d 3c30 f4bc
000002f0: b8e6 a9bd 9a91 5b3d 62d8 0e3d 3c4f ff3c
00000300: f5af a03d 267c 73bd d253 eebc f0b9 003d
00000310: 2428 74bd 0a0f 083d 76ee 15bd 908b 7bbd
00000320: 40a7 073d 89e0 a4bd 9a67 76bd fdcb 05bd
00000330: 713b 863d 557e b1bd 7e04 333d 6c99 bcbc
00000340: 2be2 1dbd 3834 4c3c 5409 afbd c06c 563c
00000350: 162b 6d3d 4b03 ab3d 8cba a33c 642a 8e3c
00000360: 68a9 413c 0229 6abd 4edc 7d3d 6b28 84bd
00000370: b139 82bd 9ff6 b03d 8888 34bd 97ff ad3d
00000380: 9807 513c 52a2 613d 01fc 84bd 3bc6 9c3d
00000390: bf1a 9b3d 80f7 49bb 90aa d0bb 93e5 4dbd
000003a0: 5cd2 84bc 8e20 3abd 1822 b2bd 7b29 0ebd
000003b0: d89e f53c abf4 923d fde5 3fbd fcf7 8a3c
000003c0: 7086 8cbd 9ad9 22bd 8875 d73c 5b7a 21bd
000003d0: 7785 18bd 2cba 80bd 96db 79bd aca3 b83c
000003e0: 642f c0bc 269b 143d 58e7 9bbd 1ead 463d
000003f0: 5110 9fbd 1627 3cbd 8e55 063d 5804 11bd

network.2.bias f4 [256]
0.01764372 -0.080065995 0.010991778 -0.032568928 -0.03940864 -0.02381754 0.010765435 0.022284178
-0.118933685 -0.07460195 -0.0645496 0.042102046 -0.037115183 -0.12129883 -0.14166524 0.023542676
-0.113211095 -0.0009912763 0.013925403 0.0004788945 -0.090092845 0.0107393395 -0.12960224 -0.024661798
0.011277873 0.13896234 -0.049908143 -0.058607087 -0.08866389 -0.0018592029 -0.06273576 -0.13863358
-0.007709123 0.012487876 -0.10420565 -0.041582946 -0.12754408 -0.050184835 0.009100629 -0.10270488
-0.057442896 -0.058034513 0.03730647 -0.11005159 -0.0402739 -0.015308293 -0.07491538 0.022052642
-0.14635676 -0.084418766 0.007268332 -0.011091426 0.0034785392 0.14325939 0.052754402 0.04573652
-0.05032466 -0.0062281024 -0.08744403 -0.09462137 -0.014054649 0.034039736 -0.032016974 -0.01784889
-0.03048177 0.06464167 0.19622603 0.09747934 -0.11846691 -0.0389624 -0.059959684 -0.10574775
-0.10082393 -0.09507561 0.0070914775 0.011889672 -0.009538546 -0.010892654 -0.1052964 -0.054878592
-0.10022995 -0.011024322 -0.14268745 -0.029342614 -0.068123534 0.18761957 -0.020736068 -0.111829676
-0.1365496 -0.06722365 -0.05471123 0.012524628 0.009502574 -0.10133876 0.060411938 0.03532231
-0.085064225 0.0057290285 -0.04235439 -0.13549323 0.073856495 -0.0075442544 -0.031087585 0.012719432
-0.09873188 -0.05082323 -0.11384476 0.022672882 0.02739666 -0.11031051 -0.12259468 -0.06830482
0.025345704 -0.0006186314 -0.06709208 -0.098745495 -0.205568 0.07515897 -0.051353157 0.20654882
-0.0048666405 0.0050824224 0.06922029 -0.038198777 0.0179736 -0.08904613 -0.059150204 0.037397802
-0.015292614 0.009775228 -0.006839858 -0.075772665 -0.031025667 -0.10181021 0.09710509 -0.02222549
-0.099691056 -0.06050345 -0.022946484 0.01594869 -0.12469892 -0.08086682 -0.023637295 -0.11765125
-0.100689456 -0.03551294 0.028790452 -0.11332461 -0.095465384 -0.15081708 0.05111701 0.003252595
-0.12000721 -0.096567266 -0.04107287 -0.10078225 -0.0064382986 -0.11767088 0.06708483 -0.02701732
0.008880202 0.068055965 -0.12905177 -0.11335468 -0.059825733 0.009951001 -0.044110823 0.019292869
-0.21750562 0.006724773 -0.13818632 -0.0691302 -0.029445421 -0.019684594 -0.045678023 -0.012756447
0.07075714 -0.12291317 -0.02711904 0.034528673 -0.07594235 -0.019509625 -0.08478654 -0.034779068
0.060275182 -0.0022804365 -0.012635707 -0.08160454 -0.01424609 0.0034080944 -0.02174732 -0.060218625
0.019381605 -0.09157412 -0.015386664 0.09626727 -0.039257906 -0.013534718 -0.031277522 0.011507023
-0.07851002 -0.019495366 0.23567735 -0.070440665 0.00034366903 -0.0049395342 -0.021837607 -0.13300303
-0.027098523 -0.0675973 0.014086192 -0.028544333 0.016705364 -0.10424446 -0.11500466 -0.22523138
0.06626949 -0.0758676 -0.037053585 0.02907022 0.027057521 -0.09537718 -0.11495117 -0.061530713
-0.056558024 -0.08434497 -0.0041528344 0.07431538 -0.114417285 -0.12786154 0.07423789 -0.028988747
-0.08459112 -0.12803227 0.07291775 -0.020212851 -0.28449708 -0.05772978 0.12666963 -0.01032684
0.052472945 -0.082306705 -0.049690556 -0.0345661 -0.11767318 -0.03178507 -0.04814306 -0.023571886
-0.07641951 -0.04078607 -0.22010456 -0.020283561 -0.04046471 -0.06294243 -0.087208934 0.027762275
00000000: 9089 903c a4f9 a3bd dc16 343c ff66 05bd
00000010: f46a 21bd 001d c3bc 8261 303c 4f8d b63c
00000020: 8193 f3bd e8c8 98bd 9532 84bd 3273 2c3d
00000030: 1706 18bd 856b f8bd b110 11be 92dc c03c
00000040: 38db e7bd b7ed 81ba 6027 643c 2214 fb39
00000050: 9982 b8bd 0ef4 2f3c 73b6 04be 8a07 cabc
00000060: d4c6 383c 254c 0e3e 7b6c 4cbd fc0d 70bd
00000070: 6a95 b5bd 7fb0 f3ba 9b7b 80bd f6f5 0dbe
00000080: d09c fcbb f399 4c3c c669 d5bd e152 2abd
00000090: ea9a 02be 9d8e 4dbd ce1a 153c f056 d2bd
000000a0: 3e49 6bbd 99b5 6dbd abce 183d ba62 e1bd
000000b0: 3ff6 24bd a2cf 7abc 3c6d 99bd bea7 b43c
000000c0: 8cde 15be bfe3 acbd 302b ee3b d0b8 35bc
000000d0: 34f8 633b 97b2 123e 0015 583d 3856 3b3d
000000e0: 3b21 4ebd 1c15 ccbb db15 b3bd d9c8 c1bd
000000f0: 7845 66bc 406d 0b3d 3b24 03bd d637 92bc
00000100: e8b4 f9bc da62 843d 7aef 483e 40a3 c73d
00000110: c89e f2bd 0a97 1fbd 4998 75bd 4792 d8bd
00000120: c77c cebd 00b7 c2bd a05f e83b e6cc 423c
00000130: 9047 1cbc 1a77 32bc a4a5 d7bd 60c8 60bd
00000140: 5c45 cdbd 5c9f 34bc a91c 12be ec5f f0bc
00000150: 5a84 8bbd 581f 403e b0de a9bc f506 e5bd
00000160: a9d3 0bbe 8eac 89bd e218 60bd 1934 4d3c
00000170: afb0 1b3c b28a cfbd 8272 773d 20ae 103d
00000180: 2736 aebd 93ba bb3b cc7b 2dbd bdbe 0abe
00000190: 1342 973d cb35 f7bb 64ab febc 2a65 503c
000001a0: f133 cabd 052c 50bd 7127 e9bd 7bbc b93c
000001b0: f66e e03c 7aea e1bd eb12 fbbd 66e3 8bbd
000001c0: cba1 cf3c a72b 22ba 9367 89bd 143b cabd
000001d0: 6b80 52be f2ec 993d b057 52bd 8981 533e
000001e0: 5778 9fbb 738a a63b 5ec3 8d3d 5276 1cbd
000001f0: 5f3d 933c d15d b6bd 7c47 72bd 702e 193d
00000200: df8d 7abc 4728 203c e320 e0bb b32e 9bbd
00000210: 8a29 febc df81 d0bd 09df c63d 3b12 b6bc
00000220: d32a ccbd 77d2 77bd 44fa bbbc d4a6 823c
00000230: 2662 ffbd 819d a5bd 00a3 c1bc 23f3 f0bd
00000240: 4636 cebd 0476 11bd f4d9 eb3c bc16 e8bd
00000250: 5b83 c3bd cb6f 1abe 1260 513d 7d29 553b
00000260: 57c6 f5bd 0fc5 c5bd 073c 28bd ed66 cebd
00000270: 5df8 d2bb 6efd f0bd c563 893d 6d53 ddbc
00000280: 447e 113c ed60 8b3d 2626 04be 8026 e8bd
00000290: d40b 75bd 8609 233c 8dad 34bd 140c 9e3c
000002a0: cbb9 5ebe 7c5b dc3b b780 0dbe 2294 8dbd
000002b0: 8637 f1bc 9641 a1bc e118 3bbd 6b00 51bc
000002c0: 1fe9 903d e6b9 fbbd c028 debc f06d 0d3d
000002d0: aa87 9bbd a6d2 9fbc 91a4 adbd 7f74 0ebd
000002e0: 1ce3 763d 6073 15bb ff05 4fbc 4820 a7bd
000002f0: 6f68 69bc 565a 5f3b 7027 b2bc cea7 76bd
00000300: 2cc6 9e3c 368b bbbd 5918 7cbc c627 c53d
00000310: e6cc 20bd b9c0 5dbc dc1c 00bd f487 3c3c
00000320: ddc9 a0bd bfb4 9fbc 6755 713e 3243 90bd
00000330: 7a2e b439 d1db a1bb c8e4 b2bc f231 08be
00000340: b9fd ddbc 7470 8abd c5c9 663c ced5 e9bc
00000350: b0d9 883c 1f7e d5bd 9087 ebbd 0ea3 66be
00000360: 4cb8 873d 7960 9bbd 80c5 17bd ac24 ee3c
00000370: bca7 dd3c 1c55 c3bd 856b ebbd a107 7cbd
00000380: 63a9 67bd 0ebd acbd 8014 88bb a932 983d
00000390: 9c53 eabd 23ee 02be 090a 983d cf79 edbc
000003a0: 1c3e adbd e41a 03be e755 953d 6c95 a5bc
000003b0: 9aa9 91be 1076 6cbd afb5 013e e831 29bc
000003c0: dfed 563d 6b90 a8bd 5388 4bbd 2f95 0dbd
000003d0: a3fe f0bd 1031 02bd a831 45bd d419 c1bc
000003e0: d581 9cbd 4b0f 27bd 1763 61be b629 a6bc
000003f0: 53be 25bd f6e7 80bd 999a b2bd b66d e33c

network.4.weight f4 [64, 256]
0.027581178 -0.032265253 0.081312835 0.085061535 0.009491147 0.018369019 -0.011195804 0.012837529
0.02783884 -0.06078513 0.02325578 0.011496864 -0.0921299 0.06746388 0.03481885 0.02525957
0.051509637 0.04885897 0.046279624 0.019163601 0.036413018 0.08855794 -0.031011038 0.08882503
0.026251309 -0.2967665 0.09519505 -0.014937997 0.0080908965 -0.11945523 -0.27164486 -0.052362897
-0.05871185 0.00070678495 0.053660452 5.870768e-05 -0.07819704 -0.027307928 0.011970907 0.02513159
-0.01906968 0.0034500114 -0.028833423 -0.010593057 0.03982337 0.09898242 0.011664454 0.082699426
-0.105774194 0.0011746809 -0.021523528 0.032558687 0.026539626 -0.10810261 0.04543886 -0.055624135
0.04714328 -0.08531635 0.019176738 -0.015442271 0.009160057 -0.0017716975 -0.068799615 0.03779106
-0.03672923 -0.1615925 -0.023168758 -0.008981015 0.093251124 0.060307823 0.012147404 -0.06756025
-0.009830032 0.02322764 -0.024186209 0.009816205 -0.0024972856 -0.017409988 -0.18174684 0.11196818
0.013166865 0.029663807 0.094208695 -0.031549945 0.05915857 0.008865312 0.0049657077 -0.028840706
0.03727153 0.054010816 -0.031207435 -0.07778043 0.09387524 -0.024937004 0.015362628 0.06060157
0.09892528 0.09543217 -0.03125104 0.08946192 -0.012404077 0.0016651253 0.06836488 -0.020041032
0.023568297 0.020163141 0.041159384 -0.09138095 0.10647981 0.06756391 0.011579143 -0.07811451
0.037282743 -0.002372588 -0.00097293407 0.0006169677 -0.045541696 -0.04876074 -0.05839445 -0.115376785
-0.0071212756 0.097949594 -0.017917488 0.050591014 0.04396143 -0.0001609698 0.008429356 -0.024112457
0.07787128 0.074681826 -0.16797042 0.01213451 -0.029952867 -0.09841007 -0.12568915 0.07808742
-0.053940345 -0.062422372 -0.061162084 0.012466883 -0.09058855 -0.052548572 -0.020680847 0.05568645
-0.04736758 0.05401453 0.10818055 -0.09616599 -0.11645943 0.016114496 -0.028579533 -0.02031112
0.0061408095 0.026013311 0.030719899 -0.05334517 0.11555974 -0.047224887 0.007798694 -0.019031767
-0.037460744 -0.06195704 -0.021913778 -0.093708135 0.04434421 0.040523097 -0.032130133 0.019049143
-0.050640874 0.09464208 0.016295891 0.014393017 -0.042018242 0.04533793 0.026243798 -0.09227525
0.038238265 0.029363558 -0.067008674 0.077520326 0.01573073 -0.034566227 -0.0029020987 -0.046502016
-0.017934637 0.049863324 0.0008211185 -0.030724086 0.061969172 -0.043970425 0.009294592 0.034644585
-0.0062518343 0.09591568 0.055478673 0.013800576 0.0024530739 -0.0011602861 -0.034489796 -0.019434322
-0.015558389 0.0948717 -0.13624278 -0.025199011 0.043173127 0.035841472 -0.101044685 0.004443987
-0.017698413 -0.09233299 -0.035676897 -0.09912333 0.016371042 0.007213831 -0.012175582 -0.17630835
-0.17085458 -0.014323741 0.048505798 0.014181979 0.040729336 -0.0072770515 0.09790501 0.02826048
-0.024445951 0.02697782 -0.029436417 0.006459772 0.021882981 -0.031936653 -0.019735014 -0.0048973695
0.07341921 -0.046149947 -0.08824462 0.0069276644 -0.104199566 -0.045671273 0.03479322 -0.030804
-0.08000019 0.037905265 0.004054375 0.022423677 -0.029778397 0.037361696 -0.01240854 -0.06490162
0.048169374 -0.017823912 -0.19712108 -0.0009293486 -0.022440895 -0.016169839 0.040236168 -0.064016424
00000000: ecf1 e13c 9228 04bd 5887 a63d be34 ae3d
00000010: c180 1b3c a07a 963c 9b6e 37bc 8054 523c
00000020: 470e e43c d4f9 78bd e882 be3c 585d 3c3c
00000030: 9aae bcbd 812a 8a3d 369e 0e3d 28ed ce3c
00000040: c5fb 523d 5820 483d b48f 3d3d fcfc 9c3c
00000050: d125 153d de5d b53d dc0a febc e6e9 b53d
00000060: fc0c d73c c7f1 97be 9ff5 c23d 80be 74bc
00000070: ae8f 043c f2a4 f4bd 0915 8bbe 7a7a 56bd
00000080: d67b 70bd 8947 393a 10cb 5b3d e43c 7638
00000090: c525 a0bd e0b4 dfbc a021 443c c4e0 cd3c
000000a0: 0438 9cbc 9619 623b 1234 ecbc 808e 2dbc
000000b0: d41d 233d 4cb7 ca3d 441c 3f3c 515e a93d
000000c0: 24a0 d8bd c0f7 993a 1c52 b0bc 425c 053d
000000d0: a169 d93c e764 ddbd 191e 3a3d 22d6 63bd
000000e0: 5019 413d 57ba aebd 8918 9d3c 9401 7dbc
000000f0: 1014 163c 4e38 e8ba d0e6 8cbd ccca 1a3d
00000100: 6471 16bd 8178 25be 68cc bdbc 1b25 13bc
00000110: 72fa be3d 5605 773d e805 473c 075d 8abd
00000120: 240e 21bc e447 be3c 2822 c6bc 26d4 203c
00000130: 80a9 23bb 649f 8ebc d81b 3abe 934f e53d
00000140: d6b9 573c 8301 f33c 7df0 c03d 843a 01bd
00000150: 4250 723d d03f 113c 60b7 a23b 5843 ecbc
00000160: 08aa 183d 723a 5d3d bca6 ffbc 594b 9fbd
00000170: a941 c03d b048 ccbc 88b3 7b3c 5a39 783d
00000180: 5699 ca3d f171 c33d 1701 00bd d037 b73d
00000190: 783a 4bbc 5540 da3a e302 8c3d 172d a4bc
000001a0: 4d12 c13c 2c2d a53c be96 283d ef25 bbbd
000001b0: 1612 da3d f25e 8a3d 72b6 3d3c 80fa 9fbd
000001c0: cab5 183d 6c7d 1bbb 800c 7fba 00bc 213a
000001d0: ee89 3abd 57b9 47bd 052f 6fbd aa4a ecbd
000001e0: 9759 e9bb cc99 c83d b2c7 92bc 8638 4f3d
000001f0: e710 343d 00ca 28b9 481b 0a3c 7d87 c5bc
00000200: fa7a 9f3d c9f2 983d 7000 2cbe d3cf 463c
00000210: b75f f5bc 388b c9bd a8b4 00be 4cec 9f3d
00000220: 8df0 5cbd 9aae 7fbd 1885 7abd e641 4c3c
00000230: 7d86 b9bd 2c3d 57bd e16a a9bc 7a17 643d
00000240: 8204 42bd 573e 5d3d c48d dd3d adf2 c4bd
00000250: 4882 eebd 8c02 843c a01f eabc 8263 a6bc
00000260: d838 c93b de19 d53c 4ca8 fb3c 7780 5abd
00000270: 96aa ec3d e26e 41bd 308c ff3b 82e8 9bbc
00000280: 7070 19bd aac6 7dbd 8684 b3bc 0dea bfbd
00000290: 46a2 353d 8cfb 253d e39a 03bd f30c 9c3c
000002a0: ce6c 4fbd b5d3 c13d f67e 853c b0d0 6b3c
000002b0: 521b 2cbd 44b4 393d 3cfd d63c cefa bcbd
000002c0: ba9f 1c3d d88b f03c d83b 89bd fac2 9e3d
000002d0: bbdd 803c 5195 0dbd 2331 3ebb e678 3ebd
000002e0: a9eb 92bc 7c3d 4c3d 5440 573a 14b1 fbbc
000002f0: 63d3 7d3d 551a 34bd 5848 183c 7be7 0d3d
00000300: 30dc ccbb 716f c43d 9b3d 633d d01b 623c
00000310: c0c3 203b be14 98ba 2c45 0dbd ba34 9fbc
00000320: 9de8 7ebc 184c c23d 3a83 0bbe 286e cebc
00000330: 4ed6 303d 82ce 123d 84f0 cebd dd9e 913b
00000340: 43fc 90bc 1419 bdbd f021 12bd 2c01 cbbd
00000350: 901c 863c 0062 ec3b 187c 47bc 2d8a 34be
00000360: 81f4 2ebe 20ae 6abc 04ae 463d 885b 683c
00000370: ced3 263d 5574 eebb 6c82 c83d 8682 e73c
00000380: e042 c8bc 9700 dd3c a424 f1bc 7fac d33b
00000390: f043 b33c 02d0 02bd 53ab a1bc 1d7a a0bb
000003a0: d05c 963d ba07 3dbd 98b9 b4bd 7601 e33b
000003b0: 9566 d5bd cd11 3bbd 5683 0e3d ac58 fcbc
000003c0: 24d7 a3bd 8d42 1b3d 90da 843b dcb1 b73c
000003d0: d3f1 f3bc 9408 193d 304d 4bbc 24eb 84bd
000003e0: 404d 453d 7403 92bc 1cda 49be 879f 73ba
000003f0: f8d5 b7bc 9c76 84bc aece 243d 0b1b 83bd

network.4.bias f4 [64]
0.036259796 -0.06811978 -0.12189259 -0.06077602 -0.03186095 -0.023779074 -0.08027341 -0.010001406
-0.10117583 -0.103913374 -0.09301449 -0.040753506 -0.062278096 -0.063394114 -0.009724982 -0.10112884
-0.08111144 -0.050230157 -0.07829719 -0.04864143 0.008076968 -0.042112496 -0.032131333 -0.00106974
-0.08660328 -0.08640295 -0.037868593 -0.06576702 -0.10076913 0.04230872 -0.028626578 -0.051164526
-0.02461201 -0.13562016 -0.109725945 -0.06794349 -0.018720524 -0.015645014 -0.025400152 0.061314885
-0.009440634 -0.085036 -0.046050593 -0.0027180996 -0.10017519 -0.005102873 -0.003310643 0.13213728
-0.024621494 -0.11347133 -0.061913744 -0.0478796 -0.111748405 -0.048199233 -0.10641317 -0.15991943
-0.09824971 -0.10377195 -0.050780907 0.00092484895 0.003151616 -0.09131168 -0.0456115 -0.099196926
00000000: 2785 143d 6282 8bbd d2a2 f9bd 47f0 78bd
00000010: a180 02bd 55cc c2bc 6366 a4bd f0dc 23bc
00000020: 4635 cfbd 89d0 d4bd 627e bebd 26ed 26bd
00000030: 5117 7fbd c6d4 81bd 8855 1fbc a31c cfbd
00000040: c11d a6bd 23be 4dbd 475a a0bd 3c3c 47bd
00000050: 4255 043c 277e 2cbd 259c 03bd 8536 8cba
00000060: 0f5d b1bd 08f4 b0bd 191c 1bbd dcb0 86bd
00000070: 0c60 cebd e94b 2d3d 4982 eabc e591 51bd
00000080: 209f c9bc 03e0 0abe ffb7 e0bd f525 8bbd
00000090: c95b 99bc f929 80bc fb13 d0bc 5125 7b3d
000000a0: e4ac 1abc 5b27 aebd 8c9f 3cbd 2522 32bb
000000b0: a628 cdbd 0036 a7bb 5ff7 58bb ff4e 073e
000000c0: 04b3 c9bc a863 e8bd 4499 7dbd 661d 44bd
000000d0: 59dc e4bd 8f6c 45bd 26ef d9bd ebc1 23be
000000e0: 2537 c9bd 6386 d4bd a4ff 4fbd 9071 723a
000000f0: 588b 4e3b 9e01 bbbd 20d3 3abd c227 cbbd

network.6.weight f4 [12, 64]
-0.13115646 0.02373043 -0.043659028 0.07410032 0.105521806 -0.06602501 -0.021929989 0.016501166
-0.02160322 0.11925463 0.04179086 -0.02778988 0.16359538 0.12975025 0.07190914 1.0437897e-05
-0.0003467056 0.087366246 0.11435347 0.07528027 0.06978313 0.13667983 0.20155488 -0.054213908
0.0027251039 0.052496605 -0.005972564 0.033695914 0.09235821 0.048014272 -0.012094095 0.17720118
0.043017223 0.0545302 -0.014506174 -0.10302334 0.068226695 0.020282978 0.009362044 -0.09994866
0.072376825 0.07970163 0.023688994 -0.0032757656 0.075053304 0.006746769 -0.012273605 -0.021602571
-0.089463525 0.13647836 0.022844309 0.09853722 0.043792173 -0.116298184 0.092158765 0.05460276
0.107028596 0.04280126 0.0015754305 0.06170092 -0.08375812 -0.0073523396 0.15979543 -0.043227337
-0.05069037 0.1031359 0.030575836 -0.13799374 0.05103441 0.015318239 0.032645315 0.0746305
0.025484934 -0.13806716 0.021305852 -0.12690838 0.12190516 0.031724278 0.07141994 0.03980109
0.1620896 0.07070591 0.05409412 0.16593832 -0.13268717 -0.047211565 -0.010979446 0.06435643
0.029144797 0.12035929 -0.14524686 0.12161923 0.1292423 -0.06694771 -0.0037365854 0.06421009
0.0018989444 0.009590526 -0.009775409 0.15871276 0.06613968 0.03939075 0.024100939 -0.1198457
-0.051531114 0.026298976 -0.054344427 0.16067983 0.115741745 0.065443695 0.007936994 0.067830205
0.12529455 -0.06397629 -0.017542642 -0.14497995 0.0035202205 -0.09283705 -0.009424493 -0.034907047
0.15523592 -0.016339168 0.07736004 -0.0429428 -0.16427632 0.13542649 0.12186489 0.027781932
0.08654617 -0.007857798 0.101546906 0.047980707 -0.012206569 0.0034621926 -0.001141248 0.09840516
-0.03265341 0.19154698 -0.06902991 -0.035696425 0.12343722 0.0972372 0.06017508 0.112899445
0.071752995 0.0020739462 -0.0033784234 0.049610928 -0.025220085 0.15413487 0.13637643 0.06416492
0.13882695 0.032165572 -0.08013788 0.08225319 0.13955052 -0.10649047 -0.06614746 0.033728223
0.01189366 0.0993294 0.04963144 0.052537285 0.07776766 -0.063947804 0.024187785 0.02008933
0.1360478 0.07590212 -0.0044700205 0.17599657 0.034720067 -0.052403525 -0.04109247 0.06870164
0.0011245799 0.080314845 0.19588688 0.089946076 -0.0594978 -0.032564133 -0.08038092 -0.034171227
-0.054800194 -0.027856749 0.043457847 -0.027201984 0.05429817 0.14749739 -0.006126945 0.020117357
-0.041317455 0.01851651 -0.014510766 -0.07769421 -0.078794844 -0.0028209933 -0.076293096 -0.15893228
-0.0064149657 0.014216918 0.16168769 -0.13112429 0.14230879 -0.108740434 -0.14388835 -0.10424242
0.14939025 -0.09445346 -0.17936997 0.082020976 -0.05137107 -0.1653438 0.0054988316 0.03465285
0.06423447 0.003756983 0.021362811 0.0038452372 0.15511806 -0.07016642 0.017740352 -0.1410846
0.05129233 0.013257065 0.15259033 0.13727944 -0.04027677 -0.046459906 -0.07054493 0.116912335
-0.0777776 -0.16159937 0.06180448 -0.0241746 0.021171886 0.010425523 -0.020759322 -0.110316254
0.015802866 0.02923198 -0.054653317 0.00054513727 0.012175641 -0.017020201 0.036955543 -0.033260725
0.008033619 -0.042841695 -0.071224794 0.11957803 -0.050169986 0.099211685 0.17179699 -0.10412339
00000000: e14d 06be 5266 c23c cfd3 32bd e9c1 973d
00000010: d11b d83d 1f38 87bd 85a6 b3bc 742d 873c
00000020: 3cf9 b0bc c53b f43d e52c 2b3d 9aa7 e3bc
00000030: 8c85 273e 40dd 043e 1945 933d 6d1e 2f37
00000040: 0ac6 b5b9 13ed b23d 2732 ea3d 8b2c 9a3d
00000050: 75ea 8e3d ccf5 0b3e 6764 4e3e 670f 5ebd
00000060: a897 323b ae06 573d 80b5 c3bb ba04 0a3d
00000070: 4d26 bd3d 9daa 443d 5026 46bc 3a74 353e
00000080: d432 303d 0f5b 5f3d 4eab 6dbc e7fd d2bd
00000090: 70ba 8b3d 7d28 a63c 4263 193c e2b1 ccbd
000000a0: 4d3a 943d 9c3a a33d 6c0f c23c 3aae 56bb
000000b0: 8cb5 993d 0014 dd3b 3b17 49bc e0f7 b0bc
000000c0: a738 b7bd fcc0 0b3e fd23 bb3c e2cd c93d
000000d0: 6c5f 333d be2d eebd bcbd bc3d 25a7 5f3d
000000e0: cf31 db3d 6050 2f3d ad7e ce3a 1bba 7c3d
000000f0: 6189 abbd e5eb f0bb 6aa1 233e 260f 31bd
00000100: b5a0 4fbd ea38 d33d 2d7a fa3c 3b4e 0dbe
00000110: 7509 513d 5af9 7a3c 18b7 053d e0d7 983d
00000120: c8c5 d03c 7a61 0dbe 9c89 ae3c 45f4 01be
00000130: 6aa9 f93d 51f1 013d 9e44 923d 7806 233d
00000140: d1fa 253e 43ce 903d cc91 5d3d bceb 293e
00000150: 25df 07be ea60 41bd 22e3 33bc 4ecd 833d
00000160: 12c1 ee3c ee7e f63d 98bb 14be 8113 f93d
00000170: 1858 043e e21b 89bd 80e1 74bb 9480 833d
00000180: 00e6 f83a 9521 1d3c 0929 20bc 9985 223e
00000190: 3e74 873d 3258 213d 556f c53c aa71 f5bd
000001a0: 4a12 53bd f370 d73c 4398 5ebd 4189 243e
000001b0: 020a ed3d 5807 863d 2a0a 023c 90ea 8a3d
000001c0: 374d 003e 0006 83bd 96b5 8fbc a075 14be
000001d0: 80b3 663b 5a21 bebd 3069 1abc b1fa 0ebd
000001e0: 2af6 1e3e b8d9 85bc f16e 9e3d cae4 2fbd
000001f0: 0d38 28be 3ead 0a3e 4d94 f93d ef96 e33c
00000200: 1e3f b13d febd 00bc d3f7 cf3d 6b87 443d
00000210: 10fe 47bc f4e5 623b ee95 95ba a588 c93d
00000220: 95bf 05bd e424 443e 8e5f 8dbd 6a36 12bd
00000230: a7cc fc3d 4c24 c73d 257a 763d d337 e73d
00000240: 3cf3 923d 0beb 073b 8a68 5dbb d434 4b3d
00000250: 5a9a cebc 88d5 1d3e 43a6 0b3e e668 833d
00000260: a728 0e3e 0cc0 033d 541f a4bd 5c74 a83d
00000270: 55e6 0e3e ad17 dabd 5278 87bd 9b26 0a3d
00000280: a0dd 423c 366d cb3d 564a 4b3d 5631 573d
00000290: a744 9f3d 11f7 82bd 7625 c63c 6192 a43c
000002a0: 1d50 0b3e 9272 9b3d 4079 92bb 7238 343e
000002b0: a136 0e3d 14a5 56bd 9450 28bd 72b3 8c3d
000002c0: a466 933a 1c7c a43d 9296 483e a635 b83d
000002d0: f7b3 73bd f861 05bd c09e a4bd 21f7 0bbd
000002e0: 2b76 60bd d633 e4bc db00 323d b2d6 debc
000002f0: c267 5e3d 8e09 173e 8ac4 c8bb 28cd a43c
00000300: 7e3c 29bd f0af 973c 90be 6dbc 241e 9fbd
00000310: 315f a1bd 6ae0 38bb 8e3f 9cbd 25bf 22be
00000320: a234 d2bb 13ee 683c 7591 253e 7245 06be
00000330: 65b9 113e 4eb3 debd 7857 13be 0d7d d5bd
00000340: c2f9 183e d170 c1bd c3ac 37be 9dfa a73d
00000350: 796a 52bd e34f 29be 8b2f b43b 26f0 0d3d
00000360: 5d8d 833d b737 763b 1001 af3c 6000 7c3b
00000370: 45d7 1e3e 69b3 8fbd 3754 913c 7b78 10be
00000380: e817 523d 2934 593c a440 1c3e fb92 0c3e
00000390: 41f9 24bd be4c 3ebd dc79 90bd bc6f ef3d
000003a0: dd49 9fbd 4e7a 25be b226 7d3d d009 c6bc
000003b0: aa70 ad3c d0cf 2a3c 740f aabc 7ded e1bd
000003c0: 0375 813c e877 ef3c 28dc 5fbd 8be7 0e3a
000003d0: 577c 473c f36d 8bbc b25e 173d 663c 08bd
000003e0: 719f 033c c67a 2fbd 4ede 91bd 54e5 f43d
000003f0: 0b7f 4dbd 7f2f cb3d 8deb 2f3e a53e d5bd

network.6.bias f4 [12]
0.44328073 0.43349183 0.44919464 0.447133 0.43421134 0.44784978 0.41993 0.4534293
0.43111506 0.4559869 0.44924185 0.43420362
00000000: b1f5 e23e a4f2 dd3e d7fc e53e 9eee e43e
00000010: f350 de3e 914c e53e 1101 d73e e327 e83e
00000020: 1dbb dc3e 1d77 e93e 0703 e63e f04f de3e
