model/DQNAgent2_20-08-2022__02-51-56.pth/DQNAgent2_20-08-2022__02-51-56.pth (torch, 42319 bytes, 8 tensors)

network.0.weight f4 [64, 13]
0	0xbe1e957a	-0.15486708
1	0xbd5aa650	-0.053381264
2	0xbe6dbdb9	-0.23216905
3	0xbe586957	-0.21133934
4	0x3d888c84	0.06667426
5	0x3dad5580	0.084635735
6	0xbe7d8b0e	-0.24760076
7	0x3e37b784	0.179411
8	0xbdf78e08	-0.12087637
9	0x3e134176	0.1438044
10	0xbe304c88	-0.17216694
11	0xbe3c152c	-0.18367451
12	0xbd8efb3a	-0.069815114
13	0xbec25e32	-0.3796249
14	0x3ed9efef	0.42565867
15	0x3e59e52c	0.21278828
16	0xbf144205	-0.5791324
17	0xbd63d819	-0.05562601
18	0xbee4ee8d	-0.4471325
19	0xbe0b7263	-0.13617854
20	0x3ddc40d0	0.107545495
21	0x3e03581c	0.1282658
22	0xbead6905	-0.33869186
23	0xbed5454c	-0.41654432
24	0xbdd92c53	-0.10604157
25	0xbd8b64ac	-0.06806311
26	0xbe400dbd	-0.1875524
27	0x3e98dfc8	0.29858232
28	0xbe8efba0	-0.2792635
29	0xbea0f9e8	-0.31440663
30	0x3dcd4004	0.10021976
31	0xbe6665f7	-0.22499834
32	0xbe97f6b0	-0.29680395
33	0xbee43905	-0.44574752
34	0xbe8f3ad9	-0.27974585
35	0xbe004cf6	-0.12529358
36	0xbe1af1b6	-0.15131268
37	0xbf10d3cc	-0.56573176
38	0xbe503b4a	-0.20335117
39	0x3d54756b	0.05186979
40	0x3ca99908	0.020702854
41	0x3e3132c0	0.17304516
42	0xb9d72630	-0.00041036448
43	0x3e8cb131	0.27478936
44	0xbea6c2b9	-0.32570437
45	0xbe0b5533	-0.1360672
46	0xbe874d4e	-0.26426166
47	0x3e008394	0.12550193
48	0x3da4ee74	0.08053294
49	0xbe201351	-0.15632369
50	0xbe04740b	-0.12934892
51	0x3e191d42	0.14952567
52	0x3a9e638c	0.0012084111
53	0x3e71c724	0.23611122
54	0xbba5ab77	-0.0050558406
55	0x3e0a2f36	0.13494572
56	0x3e593ea4	0.21215302
57	0x3df8b293	0.12143435
58	0x3df4e664	0.11958006
59	0xbe33af07	-0.17547236
60	0xbe9aa36d	-0.3020281
61	0xbda41037	-0.08010905
62	0x3d65ee41	0.05613542
63	0xbe184f01	-0.14873888
64	0xbe81bccf	-0.25339362
65	0xbe9efdcd	-0.3105301
66	0xbc99a9cc	-0.018757723
67	0x3e58d886	0.21176347
68	0x3d93a11c	0.072084635
69	0x3e35899c	0.17728275
70	0x3c9f5db1	0.019453855
71	0x3dee559e	0.11637424
72	0xbdeabd03	-0.114618324
73	0xbe3a2729	-0.18179001
74	0xbe8484f8	-0.25882697
75	0xbe257dd4	-0.16161281
76	0x3e280585	0.16408356
77	0x3d19f4fc	0.03758715
78	0xbe932655	-0.28740183
79	0x3c19e3c7	0.009392685
80	0x3e3cf9a5	0.18454607
81	0xbe9d75ef	-0.3075404
82	0x3e623f66	0.22094497
83	0xbe14cbca	-0.14530864
84	0x3c6c3eda	0.014419282
85	0xbed3fd3b	-0.41404137
86	0xbce027dd	-0.027362758
87	0xbdb71c4a	-0.089409426
88	0x3d0e7270	0.034777105
89	0xbed3fc1a	-0.41403276
90	0x3c8fb8e8	0.017544225
91	0xbddf9322	-0.10916735
92	0xbdfca897	-0.123368435
93	0xbf3069f7	-0.6891169
94	0x3e1f7cfd	0.15575023
95	0x3ea0133f	0.31264684
96	0xbe90e464	-0.28299248
97	0xbd879c39	-0.06621594
98	0xbe8f331d	-0.27968684
99	0x3c892fc5	0.016746411
100	0xbe0192de	-0.12653682
101	0x3e7b5677	0.24544702
102	0xbdc74063	-0.09729078
103	0x3d333d37	0.04375955
104	0x3d2193e0	0.039447665
105	0x3df9598c	0.12175283
106	0xbe1adc5f	-0.15123127
107	0xbe376668	-0.17910159
108	0x3ddf8220	0.10913491
109	0xbe0769d1	-0.1322396
110	0xbd23d73c	-0.040000185
111	0x3e4c9872	0.19980028
112	0xbe64916b	-0.22321098
113	0xbe3a432c	-0.18189687
114	0x3b905080	0.0044041276
115	0x3d81fcdc	0.06347057
116	0xbe606258	-0.21912515
117	0xbd5d1ef6	-0.053984605
118	0x3ef62771	0.48076966
119	0x3e1d7def	0.15380071
120	0xbe816149	-0.25269535
121	0xbebfe777	-0.3748128
122	0xbe56d0c6	-0.20978078
123	0xbd7f378c	-0.062308833
124	0x3d7f1320	0.0622741
125	0xbc1f6fb4	-0.009731222
126	0x3de5c9e7	0.112201504
127	0xbeeb5f17	-0.45970985
128	0xbe1ffff4	-0.15624982
129	0xbe80a87e	-0.2512855
130	0xbe85db91	-0.26144078
131	0x3e45e7ee	0.19326755
132	0x3dc1d0e1	0.094636686
133	0x3cd377d3	0.025813973
134	0xbe4ec675	-0.20192893
135	0xbe1be25a	-0.15223065
136	0x3c71595d	0.0147307785
137	0xbe933a1d	-0.28755274
138	0x3e35c40d	0.17750569
139	0x3cdfb0ac	0.027305923
140	0xbeb362b3	-0.3503624
141	0xbeb9b282	-0.36269003
142	0xbea0236e	-0.3127703
143	0x3e53c73c	0.2068147
144	0x3c380c34	0.011233378
145	0xbdba966a	-0.091107205
146	0xbe7dbeb1	-0.24779774
147	0xbdd5dc23	-0.10442378
148	0x3d16b9c0	0.03679824
149	0xbe7fbb02	-0.24973682
150	0x3b81de09	0.003963236
151	0x3ba53e4c	0.0050428268
152	0xbe0f0941	-0.13968374
153	0x3dd1fd70	0.102534175
154	0xbd8464a1	-0.06464506
155	0xbdc88ca7	-0.09792452
156	0x3d89434b	0.06702288
157	0x3e6a1a6f	0.22861646
158	0x3e0999d3	0.13437586
159	0x3e2aaff9	0.1666869
160	0x3f139c5d	0.57660466
161	0x3d29e3ec	0.04147713
162	0xbd31c9a8	-0.043405205
163	0x3e1c3e71	0.15258195
164	0xbe90b387	-0.28261968
165	0xbd9cd72d	-0.07658229
166	0xbe951d75	-0.29124036
167	0x3d083788	0.033256084
168	0xbd59640d	-0.05307393
169	0x3e378d3c	0.1792497
170	0x3db45d68	0.08806878
171	0xbe7bf1e5	-0.24603994
172	0xbe8cfb8f	-0.27535674
173	0x3e6ab07a	0.22918883
174	0xbdeea9c8	-0.11653477
175	0x3cf9b0d0	0.030479819
176	0xbe41e951	-0.1893666
177	0xbe7c569e	-0.24642417
178	0xbde47e98	-0.11156958
179	0xbe8c3358	-0.27382922
180	0xbe30b617	-0.17256962
181	0xbe524153	-0.20532732
182	0xbddc2249	-0.10748727
183	0xbe426f48	-0.18987763
184	0x3d3ba086	0.045807384
185	0xbcd68a7a	-0.026189078
186	0xbd0abb9c	-0.033870324
187	0xbeb55d50	-0.35422754
188	0xbe340c88	-0.17582905
189	0x3d22d544	0.039754167
190	0xbeb06e93	-0.3445936
191	0xbd36c93a	-0.0446255
192	0xbee0d5e2	-0.4391318
193	0x3ca1bcf9	0.01974343
194	0xbe119eae	-0.14220688
195	0xbe89f8ad	-0.26947537
196	0xbe04398b	-0.12912576
197	0x3d7a1614	0.06105621
198	0xbe8b02a3	-0.2715045
199	0x3e61cb9d	0.22050329
200	0x3dcab6c8	0.09898144
201	0xbe0bc9d7	-0.13651215
202	0x3d87bc35	0.066276945
203	0xbe942afb	-0.28939041
204	0xbd8d0857	-0.06886356
205	0x3cd71ebb	0.02625977
206	0xbe2d424c	-0.16919822
207	0xbe0c852b	-0.13722675
208	0xbdbd5c2b	-0.09246095
209	0xbe829519	-0.25504377
210	0xbef2d0c3	-0.47424898
211	0xbe9d7f16	-0.3076102
212	0x3e2ff712	0.17184094
213	0xbef64fae	-0.48107666
214	0xbed6f134	-0.41980898
215	0xbe3d90c7	-0.1851226
216	0xbdb226ab	-0.086987816
217	0xbf156f9a	-0.58373415
218	0xbe3a4343	-0.18189721
219	0xbe8afe73	-0.27147254
220	0xbf0a0698	-0.5391631
221	0x3e2ab0b8	0.16668975
222	0xbe0e09aa	-0.13870874
223	0xbe23164c	-0.15926474
224	0x3e113054	0.14178592
225	0xbdd6bfa4	-0.10485771
226	0xbe048258	-0.12940347
227	0xbe58fb9e	-0.21189734
228	0xbd80b7b4	-0.062850386
229	0xbe50e8c0	-0.20401287
230	0xbd7751f8	-0.060380906
231	0x3d9def18	0.07711619
232	0x3e060c7e	0.13090703
233	0xbe5e3c2b	-0.2170264
234	0xbd43cf4b	-0.04780511
235	0xbdf281c0	-0.11841154
236	0xbe1d6e04	-0.15373999
237	0xbe940c95	-0.2891585
238	0xbe8754e0	-0.26431942
239	0xbebdd45a	-0.37076074
240	0xbe86d30e	-0.26332897
241	0x3c6fc6cb	0.014634798
242	0xbe83d007	-0.2574465
243	0xbe9993dd	-0.29995623
244	0xbeef89b3	-0.46784744
245	0xbe483984	-0.1955319
246	0xbdd13e85	-0.10217003
247	0x3e3f8cdb	0.18706076
248	0x3e7b964b	0.24569051
249	0x3edc414c	0.43018568
250	0x3e955534	0.29166567
251	0xbf0bff4d	-0.54686433
252	0xbe8770e3	-0.26453313
253	0xbd23176c	-0.03981726
254	0x3ec180e8	0.3779366
255	0x3eaeec12	0.34164482

network.0.bias f4 [64]
0	0xbd39812c	-0.045289204
1	0xbf056820	-0.5211201
2	0xbe76fb59	-0.24119319
3	0xbe4b1bd0	-0.19834828
4	0xbdbaf09c	-0.09127924
5	0xbe882cb1	-0.26596597
6	0xbed124ce	-0.40848392
7	0xbe232f68	-0.15936053
8	0x3e254ac4	0.16141802
9	0xbe5e13d5	-0.21687253
10	0xbe89f86a	-0.26947337
11	0x3e0a9407	0.1353303
12	0xbdf2ed06	-0.11861615
13	0x3e387a16	0.18015322
14	0xbe81eb1d	-0.2537469
15	0xbd668e14	-0.05628784
16	0xbee5ad2a	-0.44858676
17	0xbe1479f2	-0.14499643
18	0xbec6baaf	-0.38814303
19	0xbdfa0979	-0.12208838
20	0xbccf008f	-0.025268821
21	0xbe97c86d	-0.296451
22	0xbeb95685	-0.36198822
23	0xbe92fe8f	-0.28709838
24	0x3d40f811	0.047111575
25	0xbeb275de	-0.3485555
26	0xbe89d0dc	-0.2691716
27	0xbe6102c6	-0.21973714
28	0x3e173c4a	0.14769092
29	0xbe1e2bb2	-0.15446356
30	0xbe108822	-0.1411443
31	0xbed2bcef	-0.4115977
32	0xbdc3edfd	-0.09566877
33	0xbd8a01af	-0.06738602
34	0x3d3bc130	0.045838535
35	0x3e0d443a	0.13795558
36	0xbe93c8fc	-0.28864276
37	0xbe081401	-0.13288881
38	0xbd1255dc	-0.035726413
39	0xb8fe4580	-0.00012124609
40	0xbe902172	-0.28150517
41	0x3d262388	0.04056123
42	0xbe48bf74	-0.19604284
43	0x3ec4d376	0.38442582
44	0xbe677bad	-0.22605772
45	0xbe4c8a2f	-0.19974588
46	0xbe232828	-0.15933287
47	0x3e211af9	0.15732946
48	0xbed39973	-0.4132801
49	0xbe5ec2ea	-0.21754041
50	0xbe2563c1	-0.16151334
51	0xbeb15d72	-0.34641606
52	0x3cbb7ed0	0.022887617
53	0x3e612acc	0.21988982
54	0xbd5629cc	-0.052285954
55	0x3e01e510	0.12685037
56	0x3e6e8f84	0.23296934
57	0xbe9076a0	-0.28215504
58	0xbe6acfe2	-0.22930863
59	0xbeaf8407	-0.34280416
60	0xbdabf8ca	-0.08397062
61	0x3d6f4fef	0.05842584
62	0xbdbc4d6c	-0.091944546
63	0xbd8ae8da	-0.06782694

network.2.weight f4 [64, 64]
0	0xbdfc2bf4	-0.12313071
1	0xbe3effa1	-0.18652202
2	0x3d606b5b	0.054789882
3	0x3de32a46	0.110920474
4	0x3d8ef7e0	0.06980872
5	0x3d41fdfb	0.047361355
6	0xbca63204	-0.020287521
7	0x3dc29ee8	0.09502965
8	0x3c844408	0.016145721
9	0xbdf9ff78	-0.1220693
10	0xbe43f78c	-0.191374
11	0xbdcfb8ee	-0.101426944
12	0xbd4210b3	-0.047379207
13	0x3d19655c	0.03745018
14	0xbe248b98	-0.16068876
15	0xbe3433d8	-0.17597902
16	0xbd3ef520	-0.04662049
17	0xbd74db64	-0.05977954
18	0x3da14bfc	0.07875821
19	0xbe6d6bd3	-0.23185663
20	0xbe37694b	-0.1791126
21	0x3da71dae	0.08159958
22	0xbd434034	-0.04766865
23	0xbddad62e	-0.10685383
24	0xbe3b9488	-0.18318379
25	0x3bc7097c	0.0060741287
26	0x3d8faea8	0.07015735
27	0xbd4f0a0e	-0.0505467
28	0x3d8d9ab4	0.06914273
29	0xbdba7bfe	-0.09105681
30	0xbcc4c6a8	-0.024020508
31	0xbdf1fd2a	-0.11815865
32	0xbd9b0f1f	-0.075712435
33	0x3d0eb778	0.03484294
34	0x3d58b038	0.05290243
35	0xbe7bb8a8	-0.2458216
36	0xbd9a4d73	-0.075343035
37	0xbdc61b38	-0.0967316
38	0xbb97af60	-0.0046290606
39	0xbd3fc3ba	-0.04681752
40	0xbc2164a0	-0.009850651
41	0x3c773c30	0.015090033
42	0xbc922a88	-0.017842546
43	0xbe8552b7	-0.2603967
44	0xbe256d93	-0.1615508
45	0x3d9198b2	0.071092024
46	0x3d5f4936	0.05451318
47	0xbd98b187	-0.07455736
48	0xbd7e7ed4	-0.06213267
49	0xbde0c146	-0.10974364
50	0xbca0c320	-0.019624293
51	0x3d05be90	0.032652438
52	0xbd906c66	-0.07051925
53	0xbdaec7fd	-0.085342385
54	0xbd897a22	-0.06712748
55	0xbe0bcf16	-0.13653216
56	0xbdd64d72	-0.1046399
57	0xbdb5a781	-0.088698395
58	0xbdbff3fa	-0.09372707
59	0xbd61f628	-0.055166394
60	0xbd90637c	-0.07050225
61	0x3d89a390	0.0672065
62	0xbd84ef94	-0.064910084
63	0xbc290265	-0.010315512
64	0x3ce206d0	0.02759114
65	0xbeda0638	-0.4258287
66	0xbd6a7880	-0.057243824
67	0xbdd4cf90	-0.10391152
68	0xbd32dba0	-0.043666482
69	0x3cd85d90	0.026411802
70	0xbded5e01	-0.115901954
71	0x3d49f31c	0.049304113
72	0xbcba6120	-0.022751391
73	0xbed4acbb	-0.41538033
74	0xbe96fe05	-0.29490677
75	0x3c9473a0	0.01812154
76	0xbbe160e0	-0.0068780035
77	0x3ddf7050	0.10910094
78	0xbd74387c	-0.05962418
79	0xbc236b61	-0.009974332
80	0xbcf81688	-0.030284181
81	0x3d9c4fb6	0.07632391
82	0x3dc736d6	0.09727256
83	0xbe9d8134	-0.30762637
84	0xbec156fb	-0.37761673
85	0x3d992cf0	0.07479274
86	0xbd09ead0	-0.0336712
87	0x3bae9640	0.00532797
88	0xbd9b70c4	-0.07589868
89	0xbdf4258e	-0.119212255
90	0xbdd26104	-0.102724105
91	0xbe309122	-0.17242864
92	0x3d818604	0.063243896
93	0xbdd05cf2	-0.10173978
94	0x3e0f51a7	0.13995992
95	0x3c9be918	0.019032046
96	0xbbd6e269	-0.006557752
97	0xbe8dbb14	-0.27681792
98	0x3dab9e0c	0.083797544
99	0xbe095f9f	-0.13415383
100	0x3eb1d0c5	0.3472959
101	0xbcd026e0	-0.025409162
102	0x3dd2813a	0.10278554
103	0x3d580a00	0.05274391
104	0x3d295ee0	0.041350245
105	0x3dd5b9a2	0.10435797
106	0x3bb028c0	0.0053759515
107	0xbe3bf480	-0.18354988
108	0xbdb6ec78	-0.089318216
109	0x3d1f9e38	0.03896925
110	0xbe3f7dfc	-0.18700403
111	0x3d91df16	0.071226284
112	0xbeb013e0	-0.34390163
113	0x38586000	5.158782e-05
114	0x3e12701a	0.14300576
115	0xbd9b36b8	-0.07578796
116	0xbcb63ab0	-0.022244781
117	0xbdff456a	-0.124644116
118	0x3d089e54	0.03335412
119	0xbec24321	-0.3794184
120	0xbe95775e	-0.29192632
121	0x3b8c70a4	0.0042858887
122	0xbc43e1c0	-0.011955678
123	0x3d19cc59	0.037548397
124	0xbbba32c0	-0.0056823194
125	0x3da6dfce	0.08148156
126	0x3d7958ff	0.06087589
127	0x3da6b15a	0.08139296
128	0xbdcdf966	-0.100573346
129	0xbdfa09df	-0.12208914
130	0xbda9af4c	-0.08285388
131	0xbd6b5668	-0.05745545
132	0x3cec89a8	0.028874233
133	0xbd672494	-0.056431368
134	0x3d2cd98c	0.042199656
135	0xbe13b0fc	-0.14422983
136	0x3dd668e0	0.10469222
137	0xbea9b4f1	-0.3314586
138	0xbdd61b39	-0.10454411
139	0x3d38cd10	0.045117438
140	0xbe420fac	-0.18951291
141	0xbda0ef42	-0.07858135
142	0xbd9c868a	-0.07642849
143	0xbd2e0420	-0.042484403
144	0x3df1afc8	0.11801106
145	0xbd00d46c	-0.03145258
146	0xbdda378c	-0.10655126
147	0xbee80e3e	-0.45323366
148	0xbe9c2644	-0.30497944
149	0xbda3ace6	-0.07991962
150	0x3d4868dc	0.048928127
151	0x3d48137c	0.048846707
152	0x3d93e394	0.072211415
153	0xbd9f2ab2	-0.07771815
154	0xbd92e274	-0.07172099
155	0xbdb02f7c	-0.08602807
156	0xbdabf546	-0.083963916
157	0x3dd0d64c	0.10197124
158	0xbd4d4098	-0.05011043
159	0xbd14a4b8	-0.0362899
160	0x3dccb7ae	0.099959716
161	0x3c5dd130	0.013538644
162	0x3d3e7434	0.04649754
163	0xbcf7be10	-0.030241996
164	0xbd7372d4	-0.05943568
165	0x3af07800	0.001834631
166	0xbcb42be8	-0.021993592
167	0xbbf8af20	-0.007589236
168	0xbd0d010c	-0.034424827
169	0xbc6496e0	-0.013951987
170	0x3ddb562c	0.10709795
171	0xbe7fa82d	-0.24966498
172	0xbdd663cc	-0.104682535
173	0xbdd0aa82	-0.10188772
174	0x3d6daff8	0.058029145
175	0xbda391b6	-0.079867765
176	0xbe88f832	-0.26751858
177	0x3dd37358	0.103247344
178	0xbe4ef9c4	-0.20212466
179	0x3dfa3d86	0.12218766
180	0xbb6ffe80	-0.00366202
181	0xbe61d55a	-0.22054043
182	0xbdcd96cc	-0.10038528
183	0xbe2688f3	-0.1626318
184	0xbdb6b324	-0.08920887
185	0xbd606324	-0.054782048
186	0x3c3b1a50	0.011419848
187	0x3cf0afc8	0.029380694
188	0xbd909544	-0.0705972
189	0xbe599e49	-0.21251787
190	0xbe41e185	-0.18933685
191	0x3c4fa400	0.012673378
192	0x3d43c57c	0.047795758
193	0x3e40e93b	0.1883897
194	0xbd0771d0	-0.033067524
195	0xbdb33552	-0.087504044
196	0x3de04610	0.10950863
197	0x3d8244b4	0.0636076
198	0xbb4d2b00	-0.0031306148
199	0x3d736324	0.05942072
200	0x3d2b3898	0.04180202
201	0xbedb1e4b	-0.4279655
202	0x3d3df89d	0.046379674
203	0x3dcf9e6e	0.1013764
204	0x3e25f9aa	0.1620852
205	0x3d253a10	0.040338576
206	0x3e27420a	0.16333786
207	0x3bf70c00	0.0075392723
208	0x3dd26b16	0.10274331
209	0x3d81b798	0.06333846
210	0xbe0281a8	-0.12744772
211	0xbefaac83	-0.4895974
212	0xbef2021a	-0.47267228
213	0x3d466350	0.048434556
214	0xbbdc43e0	-0.0067219585
215	0xbda40826	-0.08009367
216	0xbb798940	-0.0038076192
217	0xbe14ada7	-0.14519368
218	0x3cf52218	0.029923484
219	0xba453800	-0.0007523298
220	0x3de1b266	0.11020355
221	0x3d174058	0.036926597
222	0x3e508e25	0.20366724
223	0x3dc106bc	0.094251126
224	0xbd6ddf60	-0.058074355
225	0x3dba7896	0.09105031
226	0x3c8a25c8	0.016863719
227	0x3e9b9fe0	0.30395412
228	0x3e77ab0b	0.24186341
229	0xbcd51550	-0.02601114
230	0x3e814693	0.25249156
231	0x3d4563f0	0.04819101
232	0x3be29300	0.0069144964
233	0xbdccaf1e	-0.099943385
234	0xbcc80660	-0.024417102
235	0xbe21891e	-0.15774962
236	0xbdbfff56	-0.09374873
237	0xbde28344	-0.11060193
238	0xbe6dec82	-0.23234752
239	0x3deceef4	0.11569014
240	0xbcc5ca5c	-0.024144344
241	0x3d2b9754	0.041892365
242	0x3e45525d	0.192697
243	0x3d29cd34	0.041455463
244	0xbda6ca5e	-0.08144067
245	0xbf2faccd	-0.6862305
246	0x3d63a304	0.055575386
247	0xbe730c47	-0.23735152
248	0xbe8f1953	-0.27949008
249	0xbc1ccd40	-0.00957042
250	0x3db72d6a	0.08944209
251	0x3d920d88	0.07131487
252	0x3dfd8928	0.12379676
253	0xbded985a	-0.116013244
254	0xbd4a7d21	-0.04943574
255	0x3a9e6717	0.0012085167

network.2.bias f4 [64]
0	0xbe96c72a	-0.29448825
1	0xbe8c5cb1	-0.27414468
2	0xbeebdcc9	-0.46066883
3	0xbd05dc5a	-0.032680847
4	0xbe6c0d74	-0.23052007
5	0xbf027f64	-0.5097563
6	0x3e580ce1	0.21098663
7	0xbde43589	-0.111430235
8	0xbeefb462	-0.4681731
9	0xbe2848c0	-0.16434002
10	0xbea53cfd	-0.32273093
11	0xbd9091fb	-0.070590936
12	0xbee7189e	-0.4513597
13	0xbee4ee16	-0.44712895
14	0xbea8012a	-0.32813388
15	0xbe88f471	-0.26748994
16	0xbe0ad2bd	-0.13556953
17	0x3e0b487f	0.13601874
18	0xbe4aec53	-0.19816713
19	0xbf118a8f	-0.5685205
20	0xbea84b67	-0.32870027
21	0xbee48f94	-0.4464079
22	0xbe40db58	-0.18833673
23	0x3c8c4dc9	0.017126935
24	0xbe81f6fd	-0.2538375
25	0xbf0f7828	-0.5604272
26	0x3f5ec3ce	0.87017524
27	0xbdc9d59c	-0.09855196
28	0xbd4f7d71	-0.05065674
29	0xbeb395dd	-0.35075274
30	0xbe669d21	-0.22520877
31	0xbe49fc63	-0.19725184
32	0xbe777442	-0.24165443
33	0xbe0d3658	-0.13790262
34	0xbf1ceec5	-0.61301833
35	0xbf1b4d8a	-0.6066519
36	0xbe8e6070	-0.2780795
37	0xbea88d1d	-0.3292016
38	0x3c06cccd	0.008227539
39	0xbe9dc975	-0.30817762
40	0xbe7ecf55	-0.24883778
41	0xbe57ef03	-0.2108727
42	0xbe9d69d4	-0.30744803
43	0xbe44b876	-0.19210991
44	0xbf20ce5d	-0.62814885
45	0xbe0025f1	-0.12514473
46	0xbddfc78a	-0.10926731
47	0xbf1f7201	-0.6228333
48	0xbea65803	-0.32489023
49	0xbf3e0f81	-0.7424241
50	0xbe8d0955	-0.27546182
51	0xbf0aa6b2	-0.54160607
52	0xbe25c03e	-0.16186616
53	0xbf353345	-0.70781356
54	0x3f061153	0.52370185
55	0xbe901c0b	-0.28146395
56	0x3e1a1d5b	0.1505026
57	0xbe8a4547	-0.2700598
58	0xbdc5de4f	-0.096615426
59	0xbdb3b0aa	-0.0877393
60	0x3e2cd5fd	0.16878505
61	0xbf2df1e5	-0.67947227
62	0xbeff1880	-0.4982338
63	0xbe981a38	-0.29707503

network.4.weight f4 [64, 64]
0	0xbdd5ecca	-0.104455546
1	0x3ccf2af0	0.025289029
2	0xbd97aee2	-0.07406403
3	0xbdc96e2a	-0.09835465
4	0x3b8f1bf2	0.004367345
5	0xbdad2d2a	-0.0845588
6	0xbd6cd826	-0.057823323
7	0x3e686563	0.22694926
8	0xbea4c9f8	-0.3218534
9	0xbe02aee2	-0.12762025
10	0xbe856909	-0.26056698
11	0x3e00c7ff	0.12576292
12	0xbe02a885	-0.12759598
13	0x3ddce663	0.1078613
14	0xbeb10dee	-0.3458094
15	0x3c9a09bb	0.018803468
16	0xbe64e5f9	-0.22353353
17	0x3cd0a08b	0.025467178
18	0x3d49665b	0.04916988
19	0xbe05eb87	-0.13078128
20	0xbd51b7a5	-0.051200528
21	0xbe759104	-0.239811
22	0xbe034086	-0.12817582
23	0xbe4cd13b	-0.2000169
24	0x3dd8a28c	0.10577878
25	0xbca5c5da	-0.020235945
26	0xbd90a668	-0.070629895
27	0xbdd9aeb6	-0.106290266
28	0x3ce01b0c	0.027356647
29	0x3db9d949	0.09074647
30	0x3ce2bca0	0.027677834
31	0xbdb4aac5	-0.08821634
32	0xbe93a6f3	-0.2883831
33	0x3ac23504	0.0014816825
34	0x3eb332a4	0.34999573
35	0xbe1c6c92	-0.15275791
36	0xbe96f81a	-0.2948616
37	0x3e4f4ce4	0.20244175
38	0x3e1372b4	0.14399225
39	0xbd3d22ac	-0.046175644
40	0x3edbd260	0.4293394
41	0x3e1cae8c	0.1530096
42	0xbe452fbd	-0.19256492
43	0xbdc8a538	-0.09797138
44	0xbd3f98fa	-0.04677675
45	0xbd730cdf	-0.059338447
46	0xbdf99d25	-0.12188176
47	0xbedce083	-0.4314004
48	0xbb4a216f	-0.0030842682
49	0x3e84707f	0.25867078
50	0x3cc5e1b3	0.024155473
51	0xbd4afc2f	-0.049556907
52	0x3e3f417d	0.18677326
53	0x3f07058f	0.52742857
54	0xbe8a2c0a	-0.26986724
55	0x3ddb04cd	0.10694275
56	0xbe0729fd	-0.13199611
57	0xbee00866	-0.43756407
58	0xbcbf0c5c	-0.023321323
59	0xbe19f63e	-0.1503534
60	0x3dca25d1	0.09870494
61	0x3ec2e5ab	0.38065848
62	0xbe076601	-0.13222505
63	0x3d36de6f	0.044645723
64	0x3d50f860	0.05101812
65	0x3ccf4b25	0.025304386
66	0x3d9bf8e6	0.07615833
67	0xbe22489d	-0.15848012
68	0xbeb69b49	-0.35665348
69	0xbb9e3daf	-0.0048291306
70	0x3d47b88b	0.04875998
71	0x3e370f21	0.17876865
72	0xbea1e0eb	-0.3161691
73	0xbe1c3984	-0.15256315
74	0xbdd80825	-0.105484284
75	0xbdaa4997	-0.083148174
76	0x3c05a705	0.008157496
77	0xbb88fac0	-0.0041802824
78	0xbc1f9b09	-0.009741553
79	0x3d428168	0.047486693
80	0xbdaefaaa	-0.08543904
81	0xbdfe1fe3	-0.12408426
82	0x3dcedd8a	0.10100849
83	0x3c8033f0	0.015649766
84	0xbd12f0f9	-0.03587434
85	0xbe2d54a0	-0.16926813
86	0xbda10ae3	-0.078634046
87	0xbe01758e	-0.126425
88	0xbe725bb5	-0.23667796
89	0xbd27edbd	-0.04099821
90	0xbd436d50	-0.04771167
91	0xbdc99ac9	-0.09843976
92	0xbdf65c86	-0.12029366
93	0xbcc7072b	-0.02429541
94	0x3df751b6	0.12076132
95	0xbb9b147f	-0.004732668
96	0x3c129370	0.008946285
97	0xbe12866c	-0.1430909
98	0xbda9f38d	-0.08298407
99	0xbe5f84e6	-0.2182804
100	0xbe084a2d	-0.13309546
101	0x3df6864c	0.12037334
102	0x3e397345	0.18110378
103	0xbd3ed490	-0.046589434
104	0xbdb8ff08	-0.09033018
105	0xbcd02e88	-0.025412813
106	0xbd59d162	-0.0531782
107	0xbd8d2337	-0.06891482
108	0x3e85f349	0.26162174
109	0xbde96fb3	-0.11398258
110	0x3d6cbb0e	0.057795577
111	0xbe0b7003	-0.13616948
112	0xbd877f3c	-0.06616065
113	0xbf2092c4	-0.62723947
114	0xbd953bee	-0.07286821
115	0x3d650b91	0.055919234
116	0x3de2a023	0.110657
117	0x3dcf930e	0.1013547
118	0xbe05ba66	-0.13059387
119	0xbdcd6657	-0.100292854
120	0x3de8d4c6	0.11368708
121	0xbea64405	-0.3247377
122	0x3c97cb10	0.018529445
123	0xbda5de85	-0.08099083
124	0xbc99b571	-0.018763276
125	0xbd67fe78	-0.056639165
126	0x3e1dfab0	0.15427661
127	0xbdbc0af4	-0.09181777
128	0xbd9532ba	-0.07285066
129	0x3e7df47d	0.24800296
130	0x3e3e92c8	0.1861068
131	0xbdd7eb5a	-0.105429366
132	0x3b82a720	0.003987208
133	0xbd5a1432	-0.053241916
134	0x3d1825b4	0.03714533
135	0xbe857c8b	-0.2607158
136	0x3d4553b6	0.048175536
137	0xbd0aa894	-0.033852175
138	0xbdd2c0d8	-0.10290688
139	0xbe1ad54c	-0.15120429
140	0x3d848bf3	0.06472006
141	0x3d5852c7	0.052813318
142	0x3d23412a	0.039857067
143	0xbdc00822	-0.09376551
144	0xbde9d65a	-0.114178374
145	0x3c088baa	0.00833408
146	0x3d9d9a2e	0.07695423
147	0x3e97d96a	0.2965806
148	0xbd157728	-0.03649059
149	0x3e863af9	0.26216868
150	0x3c839f78	0.016067252
151	0xbd6b358d	-0.057424117
152	0x3d325116	0.04353436
153	0x3cbb4725	0.022861073
154	0xbe7f714b	-0.24945562
155	0x3d493af6	0.049128495
156	0x3ccc486c	0.024936877
157	0xbd3fbf45	-0.04681327
158	0x3d9c9dba	0.076472715
159	0x3ddddbea	0.10832961
160	0x3e867ab3	0.26265487
161	0xbe0a03f5	-0.13478072
162	0x3be8a7cc	0.007100081
163	0x3e5fd4fb	0.2185859
164	0xbe6590ce	-0.2241852
165	0x3e29ab1d	0.16569181
166	0xbb0c9ce7	-0.0021455826
167	0x3e053cf4	0.13011533
168	0x3d0edc08	0.034877807
169	0x3e56f1ba	0.20990649
170	0x3d0682dc	0.03283964
171	0x3e5a1691	0.21297671
172	0xbe624392	-0.22096089
173	0xbe9b8736	-0.30376595
174	0xbdb9f58e	-0.09080039
175	0x39bdea00	0.00036223233
176	0x3cba3a30	0.022732824
177	0xbe0e84e5	-0.13917883
178	0xbe00e55f	-0.12587498
179	0x3dbed75d	0.09318421
180	0x3e9f3d3c	0.31101406
181	0xba9e3c00	-0.0012072325
182	0xbe2b5464	-0.16731411
183	0xbd05cdcd	-0.03266697
184	0x3d51f3d4	0.051257923
185	0xbcda4178	-0.026642546
186	0xbec8e713	-0.39238796
187	0x3d5b1dad	0.053495098
188	0x3bd5934e	0.006517804
189	0xbd8c5cf3	-0.06853666
190	0x3e23148b	0.15925805
191	0xbe99ef45	-0.3006536
192	0xbd67820c	-0.056520507
193	0xbddafa8e	-0.10692321
194	0xbe430183	-0.19043545
195	0xbe6eec36	-0.23332295
196	0xbcb7f0ff	-0.022453783
197	0x3d117347	0.035510328
198	0x3e8a092e	0.2696013
199	0xbe50431a	-0.20338097
200	0xbdb2e3bf	-0.08734845
201	0xbe11b846	-0.14230451
202	0xbcf7c0d8	-0.030243322
203	0xbe166ffb	-0.14691155
204	0xbe3c1417	-0.18367039
205	0xbd035eb4	-0.032072738
206	0xbd8514dc	-0.06498119
207	0x3be19d8e	0.006885237
208	0xbdf48df3	-0.11941137
209	0xbdc18855	-0.094498314
210	0x3deaea88	0.114705145
211	0xbd67532c	-0.056475803
212	0xbcdf98a1	-0.027294459
213	0x3d8b406a	0.067993954
214	0xbdb432fb	-0.08798786
215	0xbdd8f3cf	-0.10593378
216	0x3dcd059c	0.100108355
217	0xbe3a3be8	-0.18186915
218	0xbe70e2ca	-0.23524013
219	0xbebd71bc	-0.37000835
220	0x3d345a24	0.044031277
221	0x3b6e6444	0.003637568
222	0x3de3df90	0.111266255
223	0x3d9533c0	0.07285261
224	0xbdace349	-0.08441789
225	0xbe2a5576	-0.16634163
226	0x3d8c9656	0.06864612
227	0xbd881ba8	-0.066459
228	0xbe2a080f	-0.16604637
229	0x3cbede7c	0.023299448
230	0x3d4ad14e	0.049516015
231	0x3cd3ee50	0.025870472
232	0xbd763a98	-0.060114473
233	0xbd33555c	-0.043782577
234	0xbe02924f	-0.12751125
235	0xbc761cbb	-0.015021498
236	0x3d23e3c4	0.040012136
237	0x3c4d22f0	0.012520537
238	0xbd89f4be	-0.06736134
239	0xbe1d13ab	-0.15339534
240	0x3dafa186	0.0857573
241	0x3dab55a6	0.083659455
242	0xbcebc450	-0.028780133
243	0xbd8e395a	-0.06944533
244	0x3cd092dd	0.025460655
245	0xbd72e7ec	-0.05930321
246	0xbdb2e73b	-0.0873551
247	0xbccb5419	-0.024820374
248	0xbcc81c00	-0.024427414
249	0xbe02e153	-0.12781267
250	0xbded058a	-0.11573322
251	0xbc556f10	-0.013026968
252	0x3d09d75a	0.03365264
253	0xbe8bfc18	-0.2734077
254	0xbdc29aae	-0.09502159
255	0x3d93976e	0.07206617

network.4.bias f4 [64]
0	0xbe9b5551	-0.3033853
1	0xbee3d43c	-0.4449786
2	0xbf4417d5	-0.76598865
3	0xbeb53bb8	-0.35397124
4	0xbf152929	-0.5826593
5	0x3e3a84ba	0.18214694
6	0x3e57b8ff	0.21066664
7	0xbef476fd	-0.4774703
8	0xbf2585c9	-0.64657265
9	0x3f698283	0.9121477
10	0xbed8d991	-0.4235349
11	0xbf21dea8	-0.6323037
12	0xbf01f1fd	-0.5075987
13	0xbe445b0b	-0.19175355
14	0xbf386df8	-0.720428
15	0xbf09c833	-0.53821105
16	0xbf0427cd	-0.5162323
17	0x3f3075c2	0.68929684
18	0xbea6c01f	-0.32568452
19	0x3db1d78e	0.08683692
20	0xbe90e727	-0.28301355
21	0xbdc934d8	-0.09824532
22	0xbe4523f4	-0.19251996
23	0xbee8e5ed	-0.4548792
24	0xbef4bebd	-0.47801772
25	0xbedcec79	-0.43149164
26	0xbea31956	-0.31855267
27	0xbed0d2bc	-0.40785778
28	0xbf225370	-0.63408566
29	0xbea11ab0	-0.31465673
30	0xbf3554b8	-0.70832396
31	0xbf2bd2fc	-0.6711881
32	0x3e0c603f	0.1370859
33	0xbf18bc38	-0.596622
34	0xbed53685	-0.41643158
35	0xbe863682	-0.2621346
36	0xbf34cabb	-0.7062184
37	0xbf510938	-0.8165469
38	0xbe681bc2	-0.22666839
39	0xbf0b5d65	-0.54439384
40	0xbef85f30	-0.48510122
41	0xbf3ce1b7	-0.73781914
42	0xbec6c51c	-0.38822258
43	0xbe6eedcb	-0.23332898
44	0xbe9d82b7	-0.3076379
45	0x3deaa8ae	0.11457954
46	0xbf171806	-0.5902103
47	0xbe8c32ff	-0.27382657
48	0xbce6e062	-0.028183166
49	0xbd3ff21f	-0.046861764
50	0xbecc2286	-0.3987009
51	0xbef4960c	-0.47770727
52	0x3cba9f99	0.02278118
53	0xbefcfb1d	-0.49410334
54	0xbeadc60a	-0.33940154
55	0xbe826c54	-0.25473273
56	0xbe201f09	-0.15636839
57	0xbec1842f	-0.3779616
58	0xbe55afdd	-0.20867868
59	0xbf2dbbc4	-0.6786463
60	0xbe8eefd4	-0.2791735
61	0x3efa814f	0.4892678
62	0xbe84e45b	-0.2595547
63	0xbe765ce0	-0.24058867

network.6.weight f4 [12, 64]
0	0x3f1de3f6	0.61675966
1	0xbdf92aa6	-0.12166338
2	0x3eb7ea2c	0.35920846
3	0xbcd40e67	-0.025885774
4	0xbe7ebd2d	-0.24876852
5	0x3efe57bb	0.49676308
6	0xbdb4e60b	-0.0883294
7	0x3efb3224	0.49061692
8	0x3d74e5c4	0.059789434
9	0x3f3def6e	0.74193466
10	0x3e5dd4d9	0.21663226
11	0x3ecb1644	0.39665425
12	0x3ee32f95	0.4437224
13	0x3e9d380a	0.30706817
14	0xbc862167	-0.01637335
15	0x3eb22898	0.34796596
16	0x3e940daf	0.2891669
17	0x3f3a49e8	0.7276902
18	0x3e1a3e17	0.15062748
19	0x3f2428bd	0.6412466
20	0x3f4861a8	0.7827401
21	0xbccfcba1	-0.025365653
22	0x3cc047a5	0.023471663
23	0xbbbde020	-0.00579454
24	0x3dc584ba	0.09644456
25	0xbdefa1a6	-0.11700754
26	0xbdae7088	-0.085175574
27	0x3ee67667	0.4501221
28	0x3c27d2b5	0.010243108
29	0x3e826768	0.25469518
30	0x3e03d999	0.12875976
31	0x3d9bbaf8	0.07604021
32	0x3f49cbbc	0.788265
33	0xbda64969	-0.081194706
34	0x3e49efcf	0.19720386
35	0x3e7a2ce6	0.2443119
36	0x3c86c746	0.016452443
37	0x3f05d955	0.5228475
38	0x3eb175d2	0.34660202
39	0x3d8f0cda	0.06984873
40	0x3e858861	0.2608061
41	0x3e341748	0.17587006
42	0x3eacfd6c	0.33787096
43	0xbbf38774	-0.0074319188
44	0x3f07a8a4	0.529917
45	0x3f406c44	0.751652
46	0x3e9d6fbf	0.30749318
47	0x3e2929ab	0.16519801
48	0x3e2c693e	0.16837022
49	0x3e9d9d2c	0.30783975
50	0x3e8b6e56	0.27232617
51	0x3eb10f33	0.3458191
52	0x3e6fd313	0.23420362
53	0x3d95d130	0.0731529
54	0x3ef90d16	0.48642796
55	0x3f0fc42c	0.5615871
56	0x3f4253e6	0.7590927
57	0xbdf30ad8	-0.11867303
58	0x3ece5827	0.4030163
59	0x3ed944ab	0.42435202
60	0x3e349d8e	0.17638227
61	0x3f7344fa	0.95027125
62	0xbd925199	-0.0714447
63	0x3d734c9b	0.05939923
64	0x3f1a152f	0.60188574
65	0x3ecc6225	0.39918628
66	0x3ec122d7	0.37721893
67	0x3c9a7451	0.018854292
68	0x3ebbaeda	0.3665684
69	0x3f1b90e7	0.6076798
70	0x3ece5a43	0.4030324
71	0x3f0a3f7d	0.54003125
72	0x3e8e91db	0.27845654
73	0x3f456d78	0.7712016
74	0x3e57ac46	0.21061811
75	0x3e5d50fd	0.21612926
76	0x3ef385b6	0.4756295
77	0x3d55e293	0.05221803
78	0x3dcf7814	0.10130325
79	0x3f388751	0.72081476
80	0x3ea816ae	0.32829803
81	0x3f4b0115	0.79298526
82	0x3c76acea	0.015055874
83	0x3efce176	0.49390763
84	0x3f23a8e9	0.6392961
85	0x3f011e14	0.5043652
86	0x3e179577	0.1480311
87	0x3e91ab31	0.2845092
88	0x3ea57edc	0.3232335
89	0x3d653990	0.0559631
90	0xbcaa1cca	-0.02076568
91	0x3e96b65d	0.29436007
92	0x3ec774f5	0.3895642
93	0x3d8273e6	0.06369762
94	0xbdfbfd97	-0.12304228
95	0x3da79df1	0.08184422
96	0x3f29b5b8	0.66292906
97	0x3ea4ccd7	0.3218753
98	0x3e80e2da	0.25173074
99	0x3ebabe6a	0.364734
100	0xbe2180b8	-0.15771759
101	0x3e971af0	0.2951274
102	0x3e4c9ea3	0.1998239
103	0x3db72387	0.08942323
104	0x3ef312fc	0.4747542
105	0x3e388b3c	0.18021864
106	0xbe1dbd48	-0.15404236
107	0x3e8c5054	0.27405035
108	0x3effc5d3	0.49955615
109	0x3f02ad61	0.51045805
110	0xbdcf99ca	-0.10136755
111	0xbd59f7e3	-0.05321492
112	0x3e7008d2	0.23440865
113	0x3e81241a	0.25222856
114	0x3eadbb4d	0.33931962
115	0x3eaefdeb	0.341781
116	0x3e88ec8f	0.2674298
117	0x3e381a01	0.1797867
118	0x3ed3af00	0.41344452
119	0x3e1b6f4d	0.15179177
120	0x3f29c57a	0.6631695
121	0x3e693b04	0.22776419
122	0x3ed3f298	0.41396022
123	0x3e7cd698	0.24691236
124	0x3dfd0a33	0.12355461
125	0x3f0458ac	0.516978
126	0x3e7bf74d	0.24606057
127	0x3e5ec081	0.21753122
128	0x3ef3aefd	0.47594443
129	0x3e926aa6	0.2859699
130	0xbcb92843	-0.022602206
131	0x3e052f57	0.1300634
132	0xbde083a4	-0.109626085
133	0x3f2b66e4	0.66953874
134	0xbdfc07c4	-0.12306169
135	0x3eba6f16	0.36412877
136	0xbc5b890c	-0.013399374
137	0x3f3fd557	0.74934906
138	0x3dda57cc	0.10661277
139	0x3d1e17da	0.038596965
140	0x3f244026	0.6416038
141	0x3f185576	0.59505403
142	0xbdb61388	-0.08890444
143	0x3eed07ff	0.46295163
144	0xbcb41a35	-0.021985153
145	0x3f5849a4	0.84487367
146	0x3d154171	0.036439363
147	0x3eccd59d	0.40006724
148	0x3f102f98	0.5632262
149	0x3e375157	0.17902122
150	0x3e0ccf6c	0.13751
151	0xbdf47d23	-0.119379304
152	0x3e325745	0.17416103
153	0x3dddf208	0.108371794
154	0x3c5b5460	0.013386816
155	0x3d1b747b	0.03795288
156	0x3ecf446c	0.4048189
157	0x3e28add6	0.16472563
158	0x3d0e3077	0.03471419
159	0x3ccda1a0	0.025101483
160	0x3f5062e4	0.81400895
161	0x3e0afbac	0.13572568
162	0xbd95d49c	-0.07315943
163	0x3d845fa3	0.06463554
164	0x3e43cea1	0.19121791
165	0x3eab4ffe	0.33459467
166	0x3d0ba7c4	0.03409554
167	0x3d8b882a	0.068130806
168	0x3f3ba674	0.7330086
169	0x3e89dc7b	0.26926026
170	0x3e302b14	0.17203933
171	0x3e179ff6	0.14807114
172	0x3e96cfe7	0.29455492
173	0x3ecf20ee	0.4045481
174	0x3ee9cdbc	0.45664775
175	0x3dbd0290	0.092290044
176	0x3e8f8ad4	0.28035605
177	0x3eb04fa1	0.34435752
178	0x3eaadae0	0.33370113
179	0x3e548fc8	0.20757973
180	0x3e325a4a	0.17417255
181	0xbc17747d	-0.009244082
182	0xbd8407ef	-0.06446826
183	0x3f011e37	0.5043673
184	0x3ef176d4	0.4716097
185	0x3e8a0434	0.26956332
186	0x3eede2ce	0.464621
187	0x3eadc4be	0.33939165
188	0xbc966667	-0.018359376
189	0x3f4e7881	0.80652624
190	0x3d5beed5	0.053694565
191	0x3db7c8f3	0.08973875
192	0x3e9bc5ad	0.30424252
193	0xbceadda8	-0.028670147
194	0x3ec83ba9	0.39108017
195	0xbd89b4e9	-0.06723959
196	0x3e2ff5a9	0.17183556
197	0x3f377d8d	0.7167595
198	0x3d7e6818	0.06211099
199	0x3e955537	0.29166576
200	0x3edc6fd4	0.43054068
201	0x3f63ca4e	0.8898057
202	0x3e6a72db	0.22895376
203	0x3e5e7fa0	0.21728373
204	0x3e1cf493	0.15327673
205	0x3edab690	0.4271741
206	0xbe59db9c	-0.2127518
207	0x3f049978	0.51796675
208	0x3e3edb1e	0.18638274
209	0x3f66ce25	0.901583
210	0x3da888a3	0.082291864
211	0x3ed2ebf5	0.41195646
212	0x3f56a75a	0.8384911
213	0xbea5717c	-0.32313144
214	0x3dac56d7	0.08415001
215	0x3d0424bd	0.0322616
216	0xbe345f73	-0.17614536
217	0xbd9764bd	-0.07392261
218	0x3d713820	0.058891416
219	0x3e840beb	0.25790343
220	0x3e976b75	0.2957417
221	0x3d30fee1	0.04321182
222	0x3cd74c92	0.026281629
223	0xbde7e3d2	-0.1132275
224	0x3f09ca1b	0.53824013
225	0xbe93d1b2	-0.28870922
226	0xbe4afaf0	-0.19822288
227	0x3e141df4	0.14464551
228	0xbeac20cf	-0.3361878
229	0xbcbcdb57	-0.023053808
230	0x3ee2847d	0.44241706
231	0x3ea22676	0.31669968
232	0x3efdd43a	0.4957598
233	0x3eeb4894	0.4595381
234	0x3e37341d	0.17890973
235	0xbd8d6d5b	-0.069056235
236	0x3ee2e5d6	0.44315976
237	0x3ef25cf9	0.47336558
238	0x3e2c3e92	0.16820744
239	0x3ea5ce99	0.32384184
240	0x3e01d954	0.1268056
241	0xbdc5ecf2	-0.09664334
242	0xbe7d69c5	-0.24747379
243	0xbc9a74ca	-0.018854517
244	0x3eaf907b	0.34289917
245	0x3d54a103	0.051911365
246	0x3f048756	0.51769006
247	0x3e8b9e8b	0.27269396
248	0x3f3a6384	0.728081
249	0x3e3ea558	0.18617761
250	0x3e4b8b0f	0.19877265
251	0x3e9deaf2	0.30843312
252	0x3e661729	0.22469772
253	0x3f20a15a	0.627462
254	0x3e16ad68	0.14714587
255	0xbe0d8301	-0.13819505

network.6.bias f4 [12]
0	0x3f445240	0.76688004
1	0x3f2b22ee	0.66850173
2	0x3ea5579d	0.32293406
3	0x3f2a7329	0.6658197
4	0x3f05511f	0.52076906
5	0x3ee9975c	0.4562329
6	0x3ee240ab	0.44189963
7	0x3f20d6f5	0.62828
8	0x3f085b7d	0.532646
9	0x3edb2945	0.42804924
10	0x3f286e6b	0.65793484
11	0x3f7a6ffc	0.97827125
