model/DQNAgent2_20-08-2022__22-44-04.pth/DQNAgent2_20-08-2022__22-44-04_iter_10.pth (torch, 826191 bytes, 8 tensors)

network.0.weight f4 [256, 27]
000000 29 31 05 bc f2 f9 e8 bd f0 a9 a0 bd 94 e6 28 3d
       -0.0081293965 -0.11375798 -0.07844913 0.04123552
000010 4f ec a8 bc 78 49 ce bc c1 2d 29 be e9 f0 7c 3d
       -0.020620493 -0.025181517 -0.1652136 0.061753187
000020 a3 65 f0 bc 29 2f 12 be 01 52 10 be 6a 98 37 3c
       -0.02934534 -0.14275803 -0.14093782 0.011205772
000030 9d e4 08 bd 0c b8 7a bd 20 96 4e be 48 ae 5c 3c
       -0.033421148 -0.061210677 -0.20174456 0.013469286
000040 a3 ca 26 be 7b a4 d6 3d bf 00 bd 3b 83 d5 10 3e
       -0.16288237 0.10480591 0.005767911 0.14143948
000050 53 37 a7 bd 96 c6 e6 3d 58 aa a9 3c 4b db 21 3e
       -0.08164849 0.11268346 0.020711109 0.1580631
000060 b8 c3 04 bd 6e 49 c9 3d af 9a 41 be 8b 55 14 3e
       -0.032413214 0.09828459 -0.18906663 0.14485757
000070 a8 89 d7 3c d2 fb f3 bd ee 0e fc 3d ca 68 ff 3d
       0.026310757 -0.11913265 0.12307535 0.12471159
000080 58 98 90 bd ae b4 f1 3d 5e 91 27 be 28 45 e7 bc
       -0.07060307 0.1180204 -0.16364047 -0.028231218
000090 d2 12 a7 3d 00 a5 3c be 28 89 57 bd 90 41 6d bc
       0.081578866 -0.18422318 -0.052621037 -0.014480963
0000a0 1f a7 38 3e f1 3a 8a bd c0 af 73 3c 52 4c 20 be
       0.18032502 -0.067495234 0.014873445 -0.15654114
0000b0 ab d2 42 be e8 9c 4e bd 5d 14 13 3e 10 09 2e bc
       -0.19025676 -0.050442606 0.14363237 -0.010622278
0000c0 46 4c 98 3d 08 07 63 bd 58 13 3d 3d 8d a3 0d 3e
       0.07436423 -0.055426627 0.046161026 0.13831921
0000d0 a0 3a 6d 3c 00 26 ff 3b 92 66 20 bd 74 9b 08 bc
       0.014479309 0.0077865124 -0.03916032 -0.008337844
0000e0 14 fd e7 bd 9c 69 19 3d 40 d9 a3 bd 72 11 b5 3d
       -0.11327568 0.037454233 -0.080004215 0.08841218
0000f0 fb 9a 31 be c7 bb fc bd cb 5f 25 bc 9c c9 c7 bd
       -0.17344277 -0.12340503 -0.01009364 -0.09755251
000100 b5 f2 6f be 5d 0d 66 be 37 db 87 bd 1a db cc 3d
       -0.23432429 -0.22466035 -0.06633609 0.10002728
000110 b6 4b d4 bc 1e 3b 01 be 64 8d 0e bd b8 9d b5 bb
       -0.025915008 -0.12620208 -0.03480281 -0.005542483
000120 d7 12 0a bd 12 60 1e be 30 e3 4c bc 12 e0 f2 3d
       -0.033709373 -0.15466335 -0.012505338 0.11859144
000130 ee f5 f7 3d 79 6c e0 bd b0 7b ac bd d7 56 2e 3e
       0.12107454 -0.109581895 -0.08422029 0.17025314
000140 bc 77 61 bd 4a ba 5c 3c 41 8d 6f be 94 31 65 be
       -0.05504583 0.013472149 -0.23393728 -0.22382194
000150 99 60 af bd 61 06 9d 3d 77 b0 c8 bd 75 1e 62 3e
       -0.085633464 0.07667232 -0.09799283 0.22081931
000160 3c 6b fb 3c 4a b8 f4 bd 15 00 cc bd 56 e1 00 3e
       0.030690782 -0.11949213 -0.09960953 0.12585959
000170 30 6e ab bd 30 55 5a be 47 7d ad 3d c6 44 ae bd
       -0.08370626 -0.21321559 0.084711604 -0.08509211
000180 a4 e1 06 3e 48 7d 9c bd 58 9d db bc b8 83 43 be
       0.13172013 -0.07641083 -0.026808426 -0.19093215
000190 bf f0 f0 bd 0e a5 16 be 80 a6 09 bd 00 9e 9c bc
       -0.11764669 -0.14711401 -0.033606052 -0.019118309
0001a0 3e 36 d4 bd c5 2e b7 bd 53 54 a0 bd 18 76 c6 bc
       -0.103619084 -0.089444675 -0.078285836 -0.024226233
0001b0 d4 9e 24 bd 16 3a 73 be 0e 88 32 3d 20 12 d6 bb
       -0.040190533 -0.23752627 0.043586783 -0.0065329224
0001c0 82 21 24 be e0 e3 e7 bd f4 e8 fb bd d7 4a 62 be
       -0.16028407 -0.113227606 -0.12300292 -0.22098862
0001d0 eb 3b 88 be da 50 86 be 63 08 51 be 79 19 fd bc
       -0.26608214 -0.2623356 -0.20413356 -0.030895935
0001e0 2b 22 98 3d 2a fd 98 38 61 2c 35 be b5 f4 b7 bd
       0.07428392 7.29508e-05 -0.1769271 -0.08982221
0001f0 93 60 b8 3d ab ab 74 be 63 a3 8c bc 70 26 6e bc
       0.09002795 -0.23893611 -0.017167753 -0.014535531
000200 df 38 98 bd d9 0d 34 be 84 02 49 bd c0 3f 4c 3c
       -0.07432722 -0.17583407 -0.049074665 0.012466371
000210 9f b0 44 3e 8e 09 ca 3d 4f 46 08 3e 80 40 c5 bd
       0.19208 0.09865104 0.1330807 -0.09631443
000220 8c 46 88 bd 30 b3 8a bd 73 7f 38 3e 13 11 45 3e
       -0.06654081 -0.067724586 0.18017368 0.19244795
000230 c0 d3 03 be 40 16 f8 bd d4 6a f2 bd 3c f0 42 be
       -0.12873745 -0.12113619 -0.11836782 -0.19036955
000240 73 89 2c 3e 50 4f 30 3d e4 56 9d bd 68 29 1e 3d
       0.16849308 0.04304439 -0.07682589 0.038613707
000250 75 04 22 3e c8 55 8e 3c c6 2d 82 3d 9c 00 45 be
       0.15822013 0.017374888 0.06356387 -0.19238514
000260 cc 4c ad bd 04 f3 1d be 3b b4 3f be a8 43 57 3d
       -0.084619135 -0.15424734 -0.18721096 0.052554756
000270 fc 4f 55 3d 4e d7 c2 3d 96 6e e3 bd fa c5 a5 bd
       0.052078232 0.09513722 -0.11105077 -0.08094402
000280 39 1b e0 bd a7 9d 14 be 23 b1 d5 bd e4 d0 e0 3d
       -0.10942692 -0.14513265 -0.10434177 0.10977343
000290 bb bd b6 3d 00 f4 6b bd 4c 46 26 be d0 6c b9 bd
       0.08922907 -0.057605743 -0.16237754 -0.090539575
0002a0 08 cb 26 be 24 46 04 bd 1c 99 6e be ac 5c 58 be
       -0.16288388 -0.032293454 -0.23300594 -0.21129102
0002b0 24 f4 54 be fa dc 31 3c 6e 05 a9 3c 83 12 fb 3d
       -0.20796257 0.010855908 0.020632472 0.1225939
0002c0 ae 28 69 be 15 3c 2b bb 80 79 1d be 5b da 15 3d
       -0.22769424 -0.002612834 -0.1537838 0.036585193
0002d0 e8 67 17 be d0 20 48 3c df ab ca bd e7 b6 0a be
       -0.14785731 0.012214854 -0.09896063 -0.13546334
0002e0 06 0a f1 3d 63 13 1a be f8 d4 3e 3d 3f fb fc bd
       0.1176949 -0.15046458 0.04658982 -0.12352609
0002f0 28 1c c3 3c 06 4c 8d 3d 61 8f ac 3c 52 42 6c be
       0.023817137 0.06899266 0.021064462 -0.23072174
000300 ed 2d 2f 3e 74 9d 7e 3c 2c e8 1b be ad 8d e7 bc
       0.17107363 0.015540469 -0.15225285 -0.028265798
000310 ce 42 e3 bd 50 3d 70 be 8c f6 12 bd 9e 71 1e bd
       -0.11096726 -0.23460889 -0.035879657 -0.038682573
000320 2c c5 c6 bd 7d 94 10 3d 3e e7 91 3d 64 9b 3d be
       -0.09705576 0.03529786 0.07124184 -0.18516308
000330 1c 1c 1d bd 4c 74 f8 bd bd c8 15 3d 62 03 9d 3c
       -0.038356885 -0.12131557 0.036568392 0.019166652
000340 30 1e 21 3d fe 49 0a be 7a 93 40 be 64 f4 7f bd
       0.03933543 -0.13504788 -0.18806258 -0.06248893
000350 6f 1a 44 3e 4d 52 05 3e aa d7 08 be 60 ec 7a bd
       0.19150709 0.13019677 -0.1336352 -0.06126058
000360 98 0e 42 be fd 03 e9 3d 1a da 6f be 00 34 65 bc
       -0.1895088 0.11377714 -0.23423043 -0.013989449
000370 47 b3 f6 3c ba 3d dc 3d bc 32 4c bd c3 5a 66 be
       0.030114783 0.10753961 -0.04985307 -0.2249556
000380 c2 95 b6 3d fc 85 46 3d 6a 10 78 3d 78 fe db bd
       0.08915283 0.04846762 0.06056253 -0.107418954
000390 f1 7f 55 be 94 8a 80 bd 3c 5d 06 3b 0c 63 19 3d
       -0.20849587 -0.06276432 0.002050235 0.037447974
0003a0 1b bd 9d bc 28 c6 db bd 1e 03 fe 3d 8e da 87 bd
       -0.019255212 -0.10731155 0.12402938 -0.06633483
0003b0 c6 fb da bd 10 c8 43 3d 80 2f 65 bb 6a 0c fa bd
       -0.10692553 0.047798216 -0.003497094 -0.12209399
0003c0 c8 b3 b8 3c b9 8d ff bd 3e 50 b0 3d bf fa 47 be
       0.022546664 -0.12478203 0.08609055 -0.19529246
0003d0 6e 49 54 3d 83 5d 10 bd 5d 8a cc bd b8 b9 5c bc
       0.05182784 -0.03524543 -0.09987328 -0.013472013
0003e0 3d 79 ed bd 17 ba fb bd a6 01 e5 3d e6 c7 76 be
       -0.1159539 -0.12291353 0.11181955 -0.24099693
0003f0 33 04 c0 3d b3 af 95 3d a9 a1 9e 3d 2f 0d ee bd
       0.09375801 0.073089026 0.07745678 -0.11623608

network.0.bias f4 [256]
000000 79 58 f5 3d 87 dc aa bd 44 47 79 be 43 27 41 be
       0.119797654 -0.083428435 -0.24343592 -0.18862633
000010 27 c6 68 be bc 6b 73 3d c7 ac 07 3e 69 0b d8 bd
       -0.22731839 0.059428915 0.13249503 -0.10549051
000020 dc 1e 13 3e ac 81 76 be 9f 87 dc 3d 62 f4 87 bd
       0.1436724 -0.24072903 0.10768055 -0.06638409
000030 7f 56 7f bd be 9a da bd ca f6 e6 bd f7 e1 13 3d
       -0.06233835 -0.10674046 -0.1127754 0.03610417
000040 ca 91 17 3c 2c bb 60 be b9 f6 05 be f4 92 50 be
       0.009251067 -0.219464 -0.13082398 -0.20368558
000050 cc 9d 06 be cf d6 cd bd b8 12 32 be 4c 31 cf bd
       -0.13146132 -0.10050737 -0.17389953 -0.101168245
000060 0e 3d 02 be 7e cc eb 3d a8 30 1d be 0f ac 09 be
       -0.12718603 0.11513613 -0.15350592 -0.13444541
000070 0c 12 a0 be b0 8c 21 bc ef a1 0c be 98 81 c3 bd
       -0.3126377 -0.009860203 -0.13733648 -0.095462024
000080 05 cc 20 be 61 13 be bd 31 17 9a bd 64 8c 6c be
       -0.15702827 -0.0928104 -0.07523955 -0.2310043
000090 e3 a4 c9 bd 80 07 82 be e1 cc 86 be 82 ac 27 be
       -0.09845903 -0.25396347 -0.26328185 -0.163744
0000a0 7e 43 af 3d a6 35 c0 bd a7 a8 15 bd f0 a5 84 be
       0.08557795 -0.093852326 -0.036537793 -0.2590785
0000b0 e4 96 41 be aa 3a ac 3d 1e 04 8b 3d 6d 86 37 be
       -0.18905216 0.08409627 0.06787895 -0.17922373
0000c0 08 6b 5e bd 28 4b 45 3d 48 22 42 be df e4 95 bd
       -0.05430129 0.048167378 -0.1895839 -0.07319044
0000d0 4b 28 1c be 12 9f 1f be d6 de 79 3d 4c 6e ef bd
       -0.15249746 -0.15588024 0.06100353 -0.11690959
0000e0 20 ba 64 3c 00 d8 62 39 22 a9 79 3d a1 cf 1d be
       0.013960391 0.00021633506 0.060952313 -0.15411235
0000f0 54 26 5b be b4 94 45 be 40 5b 58 3c 15 90 f5 bd
       -0.2140134 -0.19295007 0.013205349 -0.11990372
000100 bc 55 52 3c 49 d0 35 3d 3a 4e 82 be 42 1a 73 3d
       0.0128378235 0.04438809 -0.25450307 0.059351213
000110 89 e4 f4 3d 76 23 05 bd 31 a9 fc 3d de cc 8b be
       0.11957652 -0.03250452 0.12336958 -0.2730474
000120 2a 70 29 be 76 66 ec bc b6 d8 09 bc bf c7 27 be
       -0.16546693 -0.028857451 -0.008413484 -0.16384791
000130 e1 9a 3b 3e 94 79 a6 bd 9c 88 d0 3c 07 16 86 bd
       0.183208 -0.08128658 0.025455765 -0.0654717
000140 5c 13 71 bd 6c 9a 36 be e6 f9 21 bd 57 5d d2 bd
       -0.058856353 -0.17832345 -0.039544962 -0.102717094
000150 32 27 0b bd bb cd 82 be 43 d5 3f 3e 3e 07 81 3d
       -0.033972926 -0.25547585 0.18733697 0.063002095
000160 d0 6a 07 be 6a 48 84 3d a0 92 bb bb bb 4e b5 3e
       -0.1322434 0.064591244 -0.005724266 0.3541163
000170 ac 42 d0 3d c2 64 91 3d 62 f4 46 be e0 d2 06 3c
       0.10168967 0.07099296 -0.19429162 0.008228987
000180 fc 77 45 be 55 47 06 3e f4 d6 e6 bd 18 ac b9 3c
       -0.19284052 0.13113149 -0.11271468 0.022665069
000190 56 d4 a3 3d 09 ef 1e be d2 75 1c be 0b 7d e2 bd
       0.07999484 -0.15520872 -0.1527932 -0.11059006
0001a0 8b 5b 3f 3e 15 aa 16 3e ca 91 aa 3d 1b 52 46 bd
       0.18687265 0.14713319 0.08328588 -0.048418146
0001b0 f9 b8 22 3e bc 91 7b bd 6c eb f0 bd 08 cb 4b 3d
       0.15890874 -0.06141828 -0.11763653 0.049754173
0001c0 fb fe 53 be f4 85 0e be d2 3b b0 3d bd 03 85 be
       -0.20702736 -0.13918287 0.0860516 -0.25979415
0001d0 00 f8 77 be ae 1a b6 3d 46 f7 a7 3d 1c 8a 80 be
       -0.24215698 0.088918075 0.082014605 -0.2510537
0001e0 36 1b 4d 3d 2e 2f 10 be 51 08 03 3d ee 22 c2 3c
       0.05007478 -0.14080498 0.031990353 0.023698296
0001f0 db 15 8d be ec b6 13 be 5f 9b 45 bd 09 53 ef bd
       -0.27555737 -0.14425248 -0.048243877 -0.116857596
000200 20 bc 26 be 06 d3 20 bd 5d 19 81 bd 5d 1c 2c 3d
       -0.16282701 -0.039263748 -0.06303666 0.042019237
000210 f7 75 93 bd 49 31 40 be 44 87 dc bd cd 89 14 be
       -0.072002344 -0.18768801 -0.10767987 -0.14505692
000220 15 4d 21 be e2 aa ed bc 8c a2 de 3c 37 28 57 be
       -0.1575206 -0.029012147 0.027177118 -0.21011434
000230 28 38 4a be c9 c7 c2 bd f6 28 f1 3d 7e b0 fc 3d
       -0.19747984 -0.09510762 0.11775391 0.12338351
000240 d2 e4 ca 3d 9a 29 8b 3d 1c a7 3e 3e 7a 47 d0 bd
       0.09906925 0.06795044 0.18618435 -0.10169883
000250 80 f4 dd bb 15 1c 02 3e 52 bd 75 3d 2d c6 d3 bd
       -0.0067735314 0.12706025 0.059995003 -0.103405334
000260 01 c0 23 bd 8f 01 32 be 89 21 f1 bd 82 98 f7 b9
       -0.03997803 -0.17383407 -0.117739744 -0.00047225138
000270 8e d9 86 bd a3 c2 fc bd 5e 51 bd bd be 5a 9d 3d
       -0.06584464 -0.123418115 -0.09244035 0.07683323
000280 6b 27 24 3e 49 79 35 be f4 cd 1b bd 79 10 25 be
       0.16030662 -0.17722048 -0.03803821 -0.16119565
000290 41 67 62 be c3 8b 24 3d 41 d0 3f be 70 90 9f bd
       -0.221097 0.04017235 -0.18731786 -0.07791221
0002a0 0f 7b 17 3e 33 fa 16 3e a5 55 81 3d 45 31 e4 3b
       0.14793037 0.14743881 0.063151635 0.006963881
0002b0 8e fd 31 be eb 9b 67 bd 0d eb 29 3a 3b d7 00 3e
       -0.1738188 -0.05654518 0.00064818637 0.12582104
0002c0 0d e0 2a 3e 7b d6 95 bc f1 18 34 3e 3e 73 d7 3d
       0.16687031 -0.018290749 0.1758764 0.105200276
0002d0 f9 6c 9a 3d 6f 8c 3f be eb 33 f7 bd 83 4b 28 be
       0.07540316 -0.18705915 -0.120704494 -0.16435055
0002e0 f1 0c 9e 3d 57 76 f2 3d 6e 87 12 be ee 0c 21 be
       0.07717312 0.11838978 -0.14309475 -0.15727589
0002f0 46 9f df 3d 7e 34 c4 3d 99 75 19 3e d0 76 23 bd
       0.10919051 0.095803246 0.14986266 -0.03990823
000300 9a ea 10 bc 00 69 5a bd 32 70 3c 3d d2 3a a2 3d
       -0.008844996 -0.053322792 0.046005435 0.07921375
000310 54 9d 70 3d f1 0a 17 be 22 02 04 3e 52 03 fe bb
       0.05874379 -0.14750268 0.12891439 -0.0077518607
000320 64 4e aa bc c8 d8 ca bd 1e 19 e7 3d 5f e3 a1 3d
       -0.020789333 -0.09904629 0.112840876 0.07904696
000330 35 ad 72 be b2 5f 93 bc 48 2c fb bc 6a fc 96 be
       -0.23698886 -0.017989967 -0.030660763 -0.29489452
000340 cc 9b 33 bd 75 65 5c be 1b f1 74 3d 40 40 e0 3c
       -0.04384975 -0.21523078 0.05980025 0.027374387
000350 47 76 3c 3e b1 97 95 bc fe d1 e0 bd ad 4b 47 bd
       0.18404494 -0.018260809 -0.10977553 -0.048656154
000360 0b d4 80 bd ab 5d 78 3d 6e b2 46 be 71 e8 e8 bd
       -0.06290444 0.060636204 -0.19404003 -0.1137246
000370 c1 5f ff bd 87 ea 8a bc a3 e4 15 3e d7 7f 30 be
       -0.124694355 -0.016957534 0.14637999 -0.17236267
000380 80 78 7a bd 48 20 12 be 01 21 47 be 61 2e 42 be
       -0.061150074 -0.14270127 -0.19446184 -0.18963005
000390 33 cf 3e 3e b7 1f 46 bd 30 5d 82 bd 15 4b cd 3d
       0.18633728 -0.04837009 -0.0636543 0.100240864
0003a0 87 2d cf bd 58 25 10 3d ee 86 d0 bd 20 d6 9a bb
       -0.101161055 0.035191864 -0.10181986 -0.0047252327
0003b0 7f a9 35 3e dc 5b 58 3d c8 e7 31 be 78 48 fd bc
       0.17740439 0.05282198 -0.17373574 -0.030918345
0003c0 51 b5 30 3e b5 5f 61 be f6 9a 07 be ff 8b 17 be
       0.17256667 -0.22009166 -0.13242707 -0.14799498
0003d0 83 4d c4 3b af 23 59 3d e5 49 1f be 00 76 81 bd
       0.0059906854 0.053012546 -0.15555532 -0.06321335
0003e0 44 39 79 3d 66 12 ee bd ef af 37 be 7e 74 59 be
       0.06084563 -0.11624603 -0.17938207 -0.21235844
0003f0 73 a1 88 be 7a 41 f0 3d 71 fe 3f be f2 7b 98 3d
       -0.26685676 0.11731239 -0.18749405 0.07445516

network.2.weight f4 [512, 256]
000000 28 91 cb 3c e0 d4 ae 3b f4 98 57 3d b2 a0 56 3d
       0.02484949 0.0053354353 0.0526361 0.052399345
000010 a0 e4 a1 3b ee 7d 13 3d b0 c9 51 3d a8 66 47 3d
       0.0049405843 0.036008768 0.051217735 0.048681885
000020 5e 6d 76 3d 08 29 0e 3d 50 08 90 3c 9a fe 28 3d
       0.060162894 0.0347071 0.017582089 0.041258432
000030 0e e8 05 bd 84 e0 87 3c d0 94 bc 3b 40 aa 5d 3b
       -0.032692008 0.01658655 0.0057550445 0.00338234
000040 80 02 2d bb 74 38 4f 3d 32 eb 71 3d 18 83 3b 3d
       -0.0026399195 0.050590947 0.05906219 0.045779318
000050 30 df b1 3c c8 0c 54 3d 7c 66 cd bc e1 30 79 bd
       0.02171287 0.05177 -0.025073282 -0.06083763
000060 56 aa 22 3d a0 0a f1 3b d0 31 a8 3c 68 4d 20 3c
       0.039713226 0.007356003 0.020531565 0.00978408
000070 78 48 3a bc 90 20 e8 3c fc b1 5a 3d 1c 53 bb 3c
       -0.011369817 0.02833584 0.053392395 0.022866778
000080 a0 50 10 bc 52 d2 46 bd ec b1 29 bd a0 0d 38 3b
       -0.008808285 -0.04854042 -0.041429445 0.0028084293
000090 d0 ce 86 bc 3c e6 71 bd c6 d4 6c bd a4 b8 1a bd
       -0.016456038 -0.05905746 -0.057820104 -0.037773743
0000a0 14 56 b4 3c 10 47 75 bd 20 b6 21 bc 10 33 31 3e
       0.022013701 -0.059882224 -0.009870082 0.17304635
0000b0 b8 76 83 3c 80 d5 01 3d a0 fc 8b bc 90 4e f8 3b
       0.01604782 0.03169775 -0.017088234 0.0075777248
0000c0 bc 76 a1 3c c8 c8 f8 3c 80 5c 97 3a 0c 4e ab 3c
       0.019709937 0.030369177 0.0011547953 0.02091124
0000d0 5c ed b8 3c d0 53 93 bc b0 ef 05 bc 02 c6 5c 3d
       0.02257412 -0.0179843 -0.008174822 0.053899772
0000e0 00 48 1c 39 80 8f 58 3b e0 99 21 bd f7 ba a9 3d
       0.00014904141 0.0033044517 -0.039453387 0.08287614
0000f0 30 ca 24 3c 80 88 7b bc 50 2f 1c 3d 80 5a 7c bd
       0.010057971 -0.015352368 0.03813106 -0.061609745
000100 8c df 33 3d ec 79 44 3d 39 30 b5 bd 30 f4 bd 3b
       0.043914363 0.047967836 -0.08847088 0.0057969317
000110 5a 4f 39 bd 5c 97 0e bd 88 76 b9 bc 08 ca 01 3d
       -0.04524169 -0.034812316 -0.022639528 0.031686813
000120 f4 50 5f bd 36 a1 46 bd b6 ea 01 bd 92 9f 1c 3d
       -0.054520562 -0.048493586 -0.03171798 0.038238116
000130 08 27 82 3c 4a d3 36 bd 99 9f 78 3d c4 66 89 bc
       0.015887752 -0.044635095 0.06069908 -0.016772635
000140 28 c4 4b bd 60 39 42 3d d8 50 60 bd a8 ee 8b bc
       -0.049747616 0.047418 -0.0547646 -0.017081574
000150 de 09 4b bd ac aa 25 3d 40 b8 84 3c aa 85 25 3d
       -0.049569957 0.04044597 0.016201138 0.040410675
000160 7c f7 f7 3c b0 0f a4 bc 58 53 8b bc 99 6c 25 be
       0.030269377 -0.020027012 -0.017007515 -0.16154708
000170 be 9e 13 bd 10 f9 e1 3c f0 4f 49 3c bc ed 07 3d
       -0.03604006 0.027584583 0.012287125 0.033185706
000180 80 1e 14 3b 20 27 b3 bb c0 91 ac 3a e2 a2 48 3d
       0.0022601187 -0.0054673105 0.0013165995 0.048983462
000190 92 b9 72 bd 58 5d 53 bd e8 ac 14 bd c0 89 3a 3b
       -0.059259005 -0.05160269 -0.03629771 0.0028463453
0001a0 b2 df 68 3d 1e 03 2e bd ce 2c 5b bd 1e 48 1f 3d
       0.056853957 -0.04248344 -0.053509526 0.038887136
0001b0 12 9d 27 bd 54 e3 a1 3c e4 af 3b 3e 80 13 66 3c
       -0.04092128 0.019761719 0.18328816 0.014042735
0001c0 06 32 04 3d fe 5e 79 3d 70 d7 98 3c cc b7 b9 3d
       0.03227427 0.060881607 0.018657416 0.090682596
0001d0 b0 7f 6a bd c0 2a 59 3b 0a 26 2a bd 5c b2 56 bd
       -0.05725068 0.0033137053 -0.041540183 -0.05241619
0001e0 22 aa 3c 3d a4 11 6e 3d 78 f2 43 3d f0 39 cf 3b
       0.04606069 0.058122292 0.047838658 0.0063240454
0001f0 21 ed ea 3d 2c 99 e3 3c 80 cc 05 ba 58 85 5b bc
       0.1147101 0.027782999 -0.000510402 -0.013398491
000200 a0 aa 52 bc 38 74 49 3c 40 a0 7e 3b 04 ba a1 bc
       -0.012858063 0.012295775 0.003885284 -0.01974202
000210 78 02 b3 3c 0c ae 51 bd f2 af 55 3d fa f1 63 bd
       0.021851763 -0.051191375 0.052169748 -0.05565069
000220 1c c0 16 3d 82 03 07 3e a0 45 d6 bc 88 2c de bc
       0.036804304 0.13184932 -0.026156247 -0.027120844
000230 8c 06 ea bc 70 e5 b8 bc 40 0e 5a bc 20 3b 8f bc
       -0.028567575 -0.022570342 -0.0133090615 -0.017484248
000240 90 db c4 3b 00 c9 9c bb f1 dc 08 be 1c d8 00 bd
       0.006007619 -0.0047847033 -0.13365532 -0.031456098
000250 f2 69 42 bd 92 9e 21 bd 6f 77 8b 3d 02 d8 72 bd
       -0.04746432 -0.039457865 0.068098895 -0.059288032
000260 20 96 f9 bb c8 4b 96 bc 14 1f 02 3d be 3c 62 3d
       -0.0076167732 -0.018346682 0.03176792 0.05523371
000270 18 64 0a bd 7c fb 49 bd 1c 7c df 3c 8c 8b 99 3c
       -0.033786863 -0.0493121 0.02728086 0.018743299
000280 7c 0d 48 bd 34 68 8e bc 90 1f 99 3c ec 29 18 3d
       -0.048840985 -0.017383672 0.018691808 0.037149355
000290 ba 49 60 bd 92 61 51 3d 8c 35 82 bc b4 64 ed 3c
       -0.05475781 0.05111844 -0.015894674 0.028978683
0002a0 7a 46 7c bd b8 24 45 3c 00 f0 f3 3b 4c 1f ba bc
       -0.06159065 0.01203268 0.0074443817 -0.022720002
0002b0 50 60 55 bd 7a 6d 0f bd 88 62 f8 3c e4 42 c3 bc
       -0.052093804 -0.035016514 0.03032042 -0.023835607
0002c0 3c a9 35 bd 30 96 69 3d 7c b6 f6 3c 54 64 ab bc
       -0.044350848 0.057027996 0.030116312 -0.020921864
0002d0 90 78 f5 3c 8e e3 1d 3d ee d0 03 bd f8 9c a9 bc
       0.029964715 0.03854709 -0.032181673 -0.020704731
0002e0 18 29 cd 3c de 0b 48 3d 06 a6 35 3d 80 60 58 bd
       0.02504401 0.048839442 0.044347785 -0.052826405
0002f0 e8 35 7a 3d 9e b2 1c 3d ee a8 6a 3d 80 9e 39 bd
       0.061086565 0.03825628 0.05729001 -0.045317173
000300 00 7e 5a b9 84 4b af 3c a6 f8 57 bd fe f2 5f bd
       -0.00020837039 0.021398313 -0.052727364 -0.054675095
000310 12 91 49 3d c4 c8 00 be e4 86 34 bd 80 57 70 ba
       0.049210615 -0.12576586 -0.044073954 -0.0009168312
000320 00 4e e7 b9 5c 0a 72 bd d0 d8 d6 3b d4 85 7f bd
       -0.00044117868 -0.05909191 0.006556608 -0.062383488
000330 78 9f 6a bd f8 13 db bc 30 8f 72 bd 76 c2 47 3d
       -0.057280988 -0.02674292 -0.059218585 0.048769437
000340 ee 6f 4b bd 6c e0 89 3c 34 a5 38 3d a0 0e 66 3c
       -0.04966729 0.016830646 0.045079425 0.014041573
000350 3c 6f 64 3d 96 c4 32 bd 70 ea a1 3b 84 8c 88 bc
       0.055770144 -0.04364451 0.004941277 -0.016668566
000360 c8 14 13 3c 30 d8 3c be 40 5a 52 3c a8 c3 07 bc
       0.008977123 -0.18441844 0.0128389 -0.008286394
000370 34 e6 2b bd 2a 77 72 3d 60 a9 31 bb 00 a7 03 3b
       -0.041967586 0.059195675 -0.0027109012 0.0020088553
000380 5a 2e 01 3d c8 64 3c bd 95 c5 fe 3d 28 e1 e5 3c
       0.031538345 -0.04599455 0.124400295 0.028061464
000390 5e 82 27 3d 2e 8a 73 bd aa 2e 32 bd 68 2f 20 3c
       0.040895812 -0.05945795 -0.043501534 0.0097769275
0003a0 b0 a1 d7 bd 58 5a 26 3d 00 df 57 bb 0c e6 2c 3d
       -0.10528886 0.040613502 -0.0032939315 0.042211577
0003b0 18 b8 f6 3c 30 12 ed bb 60 3a c7 bc 34 ba 0d bd
       0.03011708 -0.007234834 -0.024319828 -0.034601405
0003c0 94 1f f4 bc 6c ad 6a 3d 98 75 05 bd 20 e8 17 bd
       -0.029800214 0.057294294 -0.03258285 -0.037086606
0003d0 00 ca 7c 39 38 48 e0 3c 00 f5 7a 3d f8 a5 63 bd
       0.00024107844 0.027378187 0.061268806 -0.055578202
0003e0 d8 69 22 3c 3e 90 68 3d 02 df 72 bd bc 7c 60 bd
       0.00991293 0.056778185 -0.059294708 -0.054806456
0003f0 fb 1e ae bd 78 c3 5a bd 50 d2 93 bc e0 09 4c bc
       -0.08502003 -0.05340907 -0.01804462 -0.012453526

network.2.bias f4 [512]
000000 4a 78 95 bd f8 ee 0d bd cd 9d 0a be 69 81 0c bb
       -0.07298334 -0.034651726 -0.13536759 -0.002143944
000010 39 2a a1 bd 95 b1 9a bd bb ef 83 bd 02 60 14 3c
       -0.078693815 -0.07553402 -0.06442209 0.009056093
000020 bf 1c 0e be 4b 43 59 be 2f 16 d3 bd 08 df 93 bd
       -0.13878153 -0.21217076 -0.103069656 -0.07220274
000030 a2 a3 2e bd 1f 98 7b bc 40 4e 33 bd ad d5 38 bd
       -0.04263652 -0.015356093 -0.043775797 -0.045125652
000040 c9 10 85 bd aa 3d 5d bd 12 91 95 bd ad a6 76 bb
       -0.06497342 -0.054013886 -0.073030606 -0.0037635968
000050 f2 7f 53 bd 82 0a ed bd 17 43 42 be fa 87 31 be
       -0.05163569 -0.1157427 -0.18970905 -0.17337027
000060 c3 45 bd bd fe ef 24 3c 1e bd 6d 3d 6b c6 79 3d
       -0.092418216 0.010066984 0.058041684 0.06098024
000070 7a 5a f2 bd 4c 7f c5 bd 21 b2 1a bc d6 3a ec bd
       -0.11833663 -0.096434206 -0.009441883 -0.115346596
000080 b0 f1 87 bd 73 18 2b be f8 61 d9 bd 28 99 7d bd
       -0.06637895 -0.16708545 -0.10614389 -0.06191364
000090 89 e1 35 be 92 ff 11 bd 37 76 1d be 66 70 14 3d
       -0.17761816 -0.03564412 -0.15377127 0.036240004
0000a0 6a 93 1b be 9f fe a1 bd 7a 31 d4 bd 72 85 2f 3c
       -0.15192953 -0.07909893 -0.103609994 0.010712968
0000b0 ae 9f 9d bd 33 8f b7 be b4 1a b5 bd 3b 26 1b be
       -0.07696472 -0.3585144 -0.08842984 -0.15151303
0000c0 d9 60 54 bc 8f 5f ce bb eb c3 89 be a6 dc b3 bd
       -0.012962543 -0.0062980126 -0.26907286 -0.0878232
0000d0 bd 62 8c bd 08 87 c0 bb d1 01 39 be b9 1d 28 be
       -0.0685477 -0.005875472 -0.18067099 -0.16417588
0000e0 37 42 01 be 70 7b b1 bd 6d b2 c6 3d bc 4e 6b be
       -0.12622915 -0.08666122 0.09702001 -0.22979254
0000f0 57 db 56 be 29 bd df bd e7 05 05 be 37 d2 1d 3c
       -0.20982109 -0.10924751 -0.12990533 0.009632639
000100 50 9e 79 bc b4 f9 c1 bd 23 71 30 be 9b 52 1d be
       -0.015235499 -0.09471455 -0.17230658 -0.15363543
000110 3a 6c be bd 6e a8 20 be 3c 2a 05 be 68 5d b9 3c
       -0.09297986 -0.15689251 -0.13004392 0.022627547
000120 9c 65 75 bd 75 72 ad bd 57 fb 4a be 1e c5 01 be
       -0.059911355 -0.084690966 -0.19822441 -0.1267285
000130 b0 1f 82 bd 33 0c b2 bd 5f 4c 19 bd 33 c8 3e bd
       -0.063537 -0.08693733 -0.03742635 -0.046577644
000140 80 ac 47 bd 75 96 a5 bd 58 5b 8e bd 5b 5e 0e be
       -0.048748493 -0.08085338 -0.06951016 -0.13903181
000150 f4 a2 7c bd a9 21 26 bd 2a 4a 1e be 43 a1 17 be
       -0.06167884 -0.040559445 -0.15457979 -0.1480761
000160 09 2b 42 bd b2 de 2f be af 0a d3 bc af 2d 65 be
       -0.047404323 -0.17174795 -0.02576193 -0.22380708
000170 44 e1 95 bc 8a 33 37 be cd 93 49 be 1a 66 1f be
       -0.018295892 -0.17890754 -0.19685288 -0.15566292
000180 3e 34 ad bd f3 08 16 be 56 db 1f bd 20 ac 26 be
       -0.0845723 -0.14651851 -0.039027534 -0.16276598
000190 69 9d 1e be 93 1c fd bd 40 9e f0 bd ee b5 cf bd
       -0.15489735 -0.12358966 -0.11748934 -0.10142122
0001a0 3c 5a e0 bd 3a 0b 2b be 5f bc 66 be db c7 2d be
       -0.10954711 -0.16703501 -0.22532795 -0.1697077
0001b0 77 3e 64 be 86 76 86 bd da 05 18 bd 20 3f 8a bd
       -0.22289453 -0.06565575 -0.037114955 -0.067503214
0001c0 c4 b7 6f bd a0 6b 21 be 52 46 f0 bd 5e 20 80 bd
       -0.058524862 -0.15763712 -0.117321625 -0.062561736
0001d0 f9 0e 34 be 2f 17 bc bd 88 92 6d bd c9 be 47 be
       -0.17583837 -0.091841094 -0.05800107 -0.19506373
0001e0 5a 7f 59 bc 00 e4 8f bd db 0a 8b 3b 0e e0 f3 bd
       -0.013274992 -0.070259094 0.0042432374 -0.119079694
0001f0 30 70 90 bc ba 44 f4 bd a3 34 85 be d9 3a 52 bd
       -0.01763162 -0.11927171 -0.2601672 -0.051325653
000200 cd 03 fe bc d8 ec 98 bd e1 c8 44 bd 1c 82 0b 3e
       -0.031007672 -0.07467049 -0.048043136 0.13623852
000210 b2 30 a6 bd b4 c8 d2 bd ea 07 05 be 7a c9 1c be
       -0.08114757 -0.10292187 -0.129913 -0.15311232
000220 e9 cd 24 bc e2 09 27 be df af 32 bc 81 df 4e be
       -0.010058858 -0.16312364 -0.010906189 -0.20202447
000230 36 58 68 3d 70 17 d0 bc 48 ad 9d bc c4 d2 c6 bc
       0.05672475 -0.0254018 -0.019247666 -0.024270423
000240 f5 d6 a8 3c 22 f0 45 be 73 05 ac bd 63 6e 88 bb
       0.020610312 -0.19329885 -0.08399477 -0.0041635497
000250 0a b7 5d be 55 d5 1a be 98 50 66 bd b3 47 ad bd
       -0.21651855 -0.15120442 -0.056229204 -0.08460941
000260 37 3d 63 bc 20 0d a8 bd 90 d3 76 bd de 3e 25 bd
       -0.013869575 -0.082056284 -0.060260355 -0.040343158
000270 e1 7e 7e be 2f e7 4f bd 93 55 e6 bd b4 03 b1 bd
       -0.24853088 -0.050757583 -0.11246791 -0.086432844
000280 82 73 a7 bd 38 f3 35 bd f8 81 97 bc 1d 4a ab bd
       -0.08176328 -0.044421405 -0.018494591 -0.08363745
000290 6b b0 40 bd 86 6a 60 be f9 ca 22 be 78 17 ba 3d
       -0.047043245 -0.21915635 -0.1589774 0.090865076
0002a0 92 51 86 3a f9 98 5e bc 8e 06 a9 bd 86 b8 0b be
       0.0010247699 -0.013586276 -0.08253203 -0.13644609
0002b0 8e 54 fa bd 2c 4b 0c be 4c 14 a3 bc e1 5e f9 bd
       -0.12223159 -0.13700551 -0.01990714 -0.121763
0002c0 27 97 27 be 8d 48 98 be 7f 85 5d bd 82 cd 83 bd
       -0.16366254 -0.29742852 -0.05408239 -0.06435682
0002d0 3d bc c9 bd 18 51 aa bd 45 c3 d7 bd dd a8 c4 bd
       -0.09850357 -0.08316249 -0.105352916 -0.096025206
0002e0 ec c2 2c bd e5 ca 3b be e9 6b 37 be c1 d9 35 be
       -0.04217808 -0.18339117 -0.17912258 -0.17758848
0002f0 cc 98 4e be 13 03 b1 3d 9f a1 6a bd 6c 4c 1e 3e
       -0.20175475 0.086431645 -0.05728304 0.1545884
000300 84 bc 5c be 74 60 87 ba 39 a3 32 bd 39 bc 11 bd
       -0.21556288 -0.0010328428 -0.043612693 -0.035579894
000310 52 b3 03 be 9a 71 6b bd 37 e9 39 be 5b c1 1a be
       -0.12861374 -0.057481386 -0.1815537 -0.15112822
000320 4f e2 5a be ed 3a 9e bd 89 e4 05 be fa e3 b9 bd
       -0.21375392 -0.07726083 -0.1307546 -0.09076686
000330 a3 ae 9e bd 9a 11 fb bd 5f 49 a6 bd 79 10 7c bd
       -0.07748153 -0.122592166 -0.08119463 -0.061539147
000340 83 31 c4 bd 7a aa 27 bd 22 ee 0f be c5 46 8e bb
       -0.09579756 -0.040934063 -0.14055684 -0.0043419325
000350 b4 f1 e7 bd ab 05 b9 bd fe 9f 3a be c4 67 1e 3e
       -0.11325398 -0.09034284 -0.18225095 0.15469271
000360 b2 7b d2 bd 9f 64 28 bc 24 f5 79 be 67 9f ed 3d
       -0.10277499 -0.010277896 -0.2440992 0.11602669
000370 39 15 af bd e6 37 08 bd 28 32 3f bd fa 9b 24 be
       -0.0854897 -0.033256434 -0.046678692 -0.16075125
000380 bf 51 2b bd 98 de 39 bd 51 d9 1e bd 86 ed 3a be
       -0.041826006 -0.045378298 -0.038781468 -0.1825467
000390 a7 cc 7e be 89 ea 14 be 0b 3b 7c be 27 34 23 be
       -0.24882756 -0.14542593 -0.24631898 -0.15937863
0003a0 79 5a 7b be 7f d2 37 bd 29 c5 fd bd 2e 9d d5 bd
       -0.24546231 -0.04487848 -0.12391121 -0.1043037
0003b0 dc bf 94 bd e3 e3 12 be e9 7a bc bd 4d c2 f7 bd
       -0.07263157 -0.14344744 -0.09203131 -0.12097607
0003c0 39 a3 55 bd 43 2a c9 bd 16 9c f0 bd 2c 7e 1a bd
       -0.052157614 -0.09822514 -0.11748521 -0.037717983
0003d0 72 1e 2a bc 8f f6 5c bd 8d 93 a4 bd 08 b2 b0 bd
       -0.010383235 -0.053946074 -0.080359556 -0.08627707
0003e0 df f3 2b be a6 56 f7 bd 06 d6 0c bd 93 4b d0 bb
       -0.16792248 -0.12077074 -0.034383796 -0.0063566654
0003f0 f3 bc 4d bd 91 db 42 be 5d aa b0 bc 34 0c 9c bd
       -0.050229024 -0.1902907 -0.02156561 -0.07619515

network.4.weight f4 [128, 512]
000000 1a dc 6f bd 91 dd 47 bc ab 28 22 3e 97 b1 77 bd
       -0.058559515 -0.012198822 0.15835826 -0.060472097
000010 39 41 70 3d 0d 81 9f 3c 4a 0b 51 bc 59 80 2c be
       0.05865595 0.019470716 -0.012759039 -0.16845836
000020 8b bf a2 3c 8d 5e 2a be 9e 63 81 3d 9c ca ee bc
       0.019866725 -0.16637631 0.063178286 -0.029149346
000030 f2 53 7c bc ec cf 10 3d 13 1a 09 bd 0c fb 3e bc
       -0.0154008735 0.03535454 -0.033472132 -0.011656534
000040 ff 26 4c bd a4 8f 09 3e 90 cd 8c 3c 64 98 6f 3c
       -0.049841877 0.13433701 0.017187864 0.014623735
000050 10 83 b7 bd 2c 2b bc bc 9e 90 d5 3d 82 c8 13 3e
       -0.08960545 -0.022969805 0.10427974 0.14431956
000060 ae 16 07 bd 69 6f 08 3d 4e 10 9f 3c 70 1d 0b be
       -0.032980613 0.033309374 0.019416954 -0.13585448
000070 75 a9 ac bd fc b8 75 3c 6b b0 67 bb 71 55 a1 3c
       -0.08430759 0.014997717 -0.0035352956 0.019694062
000080 9f 56 bc 3d d8 bd 80 bc 07 7d 4f 3d d2 68 72 bd
       0.09196209 -0.015715525 0.050656345 -0.059181996
000090 ae c0 96 3d c2 02 4d 3d c1 dc a8 3c 99 e4 1e bd
       0.073609695 0.05005146 0.020613076 -0.038792226
0000a0 09 e7 22 bc fe 1e f9 3d 6e 85 9a bc 92 a9 a9 3d
       -0.009942778 0.121641144 -0.018862452 0.08284296
0000b0 f1 92 d8 bc 65 66 a6 3d 13 50 0f bd de e0 83 bb
       -0.026437255 0.08124999 -0.034988474 -0.004024609
0000c0 03 c5 b3 bd 37 1a 6b 3d cf cd 88 bd f3 18 54 bd
       -0.087778114 0.057398047 -0.0667988 -0.051781606
0000d0 2c 01 88 bb b5 85 14 3d d4 7f 9d 3d b8 a4 5f 3c
       -0.0041505303 0.036260325 0.07690397 0.013650112
0000e0 35 5b 98 3d 79 fc 21 bd d3 ed b9 bd af 5a ab bc
       0.07439271 -0.039547417 -0.090785645 -0.020917265
0000f0 8f 4b d2 3d 60 4f 2f bd a3 6e b1 3d 3b e5 8d 3d
       0.10268318 -0.042800307 0.086636804 0.06928488
000100 21 1e 15 bd f3 ca 63 bd 10 a0 cc 3b 39 b0 72 3d
       -0.036405686 -0.05561347 0.006244667 0.05925009
000110 4e 75 1b bd 21 f7 9d 3d 65 f6 5d 3d 3a 99 f7 bc
       -0.037953667 0.07713152 0.05419006 -0.030224431
000120 21 52 21 3d 71 1d 45 3d f0 4b ec bc 0d 43 76 3d
       0.039384965 0.04812378 -0.028844804 0.06012254
000130 7a 49 9f 3d 98 58 62 bd 72 34 b1 3c 6b 6c fd 3c
       0.077776864 -0.05526027 0.021631453 0.030935487
000140 e1 f3 9d bd 0a 1d b9 3c 26 d7 1d bd 29 50 74 3c
       -0.07712532 0.022596855 -0.03853526 0.01491169
000150 58 d7 16 3e f0 fc b5 3b 11 8e 1a 3e 23 fa 0a 3d
       0.14730585 0.005553834 0.15093257 0.033929955
000160 aa 7d e6 bb c1 54 0f 3e 30 02 2c 3d b9 0f ac bd
       -0.0070340233 0.13997175 0.041994274 -0.08401436
000170 7a 85 81 bc d6 43 86 3d 7b 30 20 3e 8c 90 d9 3c
       -0.015810717 0.065559074 0.15643494 0.026558183
000180 11 f6 ca 3d f9 fe 12 be 1a 0d 7f 3d a0 b1 b0 bb
       0.09910215 -0.14355077 0.062268354 -0.0053922683
000190 1d cc d9 bd 35 e4 1d 3d 7a 13 e1 bb a6 59 d3 3c
       -0.10634635 0.038547713 -0.006868777 0.025799584
0001a0 7d ba 8e 3c fb b4 27 bd 87 0b a2 bd d1 31 74 3d
       0.017422909 -0.04094408 -0.07912355 0.05961782
0001b0 b2 fc 46 3d ab f7 2b bd 3c 08 a3 bd eb 6c 10 3e
       0.048580833 -0.04198424 -0.07960555 0.14104049
0001c0 81 22 01 3d fb ae 9a 3d c0 c2 1e 3b 31 34 da bd
       0.031527046 0.07552906 0.0024224967 -0.10654486
0001d0 e3 7c f9 3d dc 18 0e 3d 82 69 27 bd b9 29 4a bd
       0.121820234 0.034691676 -0.040872104 -0.049356196
0001e0 bb 8c 0b bd 0d 91 d7 3c 6c fc e2 bc cd a9 10 3e
       -0.034069758 0.026314283 -0.027708255 0.14127274
0001f0 01 4c ca bc 20 c6 92 bc 6a 7c 40 3d f9 63 7e 3d
       -0.024694445 -0.017916739 0.04699365 0.06210706
000200 57 be 69 3d 45 91 b0 3d 8c c7 e9 bc 06 b7 2e be
       0.057066288 0.08621458 -0.028537534 -0.17062005
000210 59 f0 9b 3d e4 5b 74 3d 30 37 6b bd 58 e9 1c 3e
       0.07614202 0.059657946 -0.057425678 0.15323389
000220 a1 4f 6a 3d d8 66 9c 3c 0f f7 7c bd 52 7b 14 3d
       0.057204846 0.019092008 -0.06175905 0.03625042
000230 d0 8d b9 bb 7e e5 2d bd b5 50 b6 3d d0 90 98 bb
       -0.0056626573 -0.04245519 0.089021124 -0.004655935
000240 50 07 f6 bd 72 ed ac bd 41 f8 f3 bc 35 dd 2b 3d
       -0.120131135 -0.084437266 -0.029781463 0.041959006
000250 21 36 39 3d b3 b5 2d bd c8 43 88 bd fe 22 26 bd
       0.045217637 -0.04240961 -0.06653553 -0.040560715
000260 be f6 77 3d b8 9c a6 bb c0 db ad ba e7 63 2d 3d
       0.060538046 -0.0050846003 -0.0013264343 0.042331602
000270 60 3b a7 bc 15 36 a2 3d f6 41 a7 3c 4b c1 88 bc
       -0.020414054 0.079204716 0.020417195 -0.016693732
000280 4b 96 bf 3d b1 7f 18 3d 12 e5 54 3d 4e fb 59 3d
       0.09354838 0.03723115 0.05197627 0.05321818
000290 9f ca 28 bd fc 56 c5 bd f7 ec 1a 3e ca a7 12 be
       -0.04120886 -0.096357316 0.15129457 -0.14321819
0002a0 c0 3a b5 3d 8f 22 a0 3d 1d f5 be bc a2 49 7b 3d
       0.08849096 0.078190915 -0.023310238 0.06134952
0002b0 6b a4 00 3d 6b a0 16 3e 75 58 a7 bc 85 56 0b bd
       0.0314068 0.14709632 -0.020427922 -0.03401806
0002c0 ef 9e 78 3d 7a 3f 20 3e a3 73 8b bd 90 f2 1f 3d
       0.060698446 0.15649214 -0.06809165 0.039049685
0002d0 71 7c e8 bd 0a 65 1c 3d 0c 81 e3 bc 00 05 c0 3d
       -0.1135186 0.038182296 -0.027771495 0.09375954
0002e0 e3 63 5e bd 72 c6 17 3d 2d 31 2b bb d0 0d 8a 3c
       -0.05429448 0.037054487 -0.002612184 0.01685229
0002f0 93 40 ed bc b1 49 99 bd 40 0f 6a 3d 58 8d b5 ba
       -0.028961455 -0.07484759 0.05714345 -0.0013851328
000300 79 dc 2e bc ec f4 23 3d c3 65 8c bc 9e 84 b5 bc
       -0.010672682 0.040028498 -0.017138368 -0.022157963
000310 01 63 3c 3d 34 d8 ab bd 6a 32 05 3d f8 c3 a8 3d
       0.045992855 -0.08390847 0.03251878 0.08240503
000320 9f e6 f5 bc 12 6f ef 3c ef dd 87 bd 75 fc 5a bd
       -0.030017195 0.029227767 -0.06634127 -0.053463418
000330 9a f1 d9 3c cf cb 0d 3e fa fa 5f 3d 30 4b cf 3d
       0.026604462 0.13847278 0.05468271 0.10121763
000340 fb 20 7b 3d 5b 43 68 3d cf 90 4b 3d 0b 5b d2 3d
       0.06131075 0.05670486 0.049698647 0.10271271
000350 c8 f1 69 3d 6e 3a 8d 3d e7 01 6c 3e ad a6 8f 3d
       0.057115346 0.0689591 0.230476 0.07014213
000360 e7 da ef 3c 6f 32 74 bd fa 6a db 3c 5e 17 08 bc
       0.029279185 -0.05961841 0.026784409 -0.008306352
000370 28 8c a3 3d cd 56 1e 3d e4 e2 c1 3c 4f 38 7e bc
       0.07985717 0.038657 0.02366776 -0.015516355
000380 ce 30 c4 3c c5 d3 b9 3c 9f 1b 4d 3d 6e ae f9 3c
       0.023949053 0.022683987 0.05007517 0.030478682
000390 de 47 04 3e bc 20 b4 3d 3c 09 55 3e e4 36 8d 3d
       0.1291804 0.08795306 0.20804304 0.06895235
0003a0 14 d2 06 bc 0b c3 87 3c a0 53 1e 3b d6 51 24 3e
       -0.008228797 0.016572496 0.002415873 0.16046843
0003b0 1a 27 e5 bc a1 87 b2 bd 64 40 29 3d c1 c7 92 bc
       -0.027972747 -0.087172754 0.041321173 -0.017917516
0003c0 38 43 1a bb 29 b2 b1 bd e2 42 11 3d a9 1f 10 bd
       -0.00235386 -0.086765595 0.035464175 -0.035186443
0003d0 34 ae 1e 3c d5 48 6d bc f6 18 b9 3c 1c db ba 3d
       0.009685088 -0.014482697 0.02259491 0.09123823
0003e0 94 8b 30 3d fe 08 e5 3c 2e a7 ad 3c 23 fd b2 bd
       0.043101862 0.02795839 0.021197882 -0.08739688
0003f0 f4 b3 25 bd b0 c0 4f 3d 18 81 51 3d 76 96 f6 3c
       -0.04045482 0.05072087 0.051148504 0.030101042

network.4.bias f4 [128]
000000 2e de b9 bd 83 aa 2f bd 6a 01 85 bd 59 12 d2 3c
       -0.090755805 -0.042887222 -0.0649441 0.025643514
000010 76 db 5e bd bd e8 e1 bd bc 7b e6 bd 49 3a b3 bd
       -0.054408513 -0.110307194 -0.11254069 -0.087513514
000020 ad e8 dd bd 9a 74 73 bd a8 3c 83 bd 32 f4 18 bd
       -0.10835395 -0.05943737 -0.06408054 -0.037342258
000030 a0 b7 a1 bd cf 0a 02 be ad e4 4e bd 22 f0 15 be
       -0.07896352 -0.12699436 -0.05051105 -0.14642385
000040 70 3a af bd a6 f7 af bd ea 3c 06 be 4c 8f 24 bc
       -0.08556068 -0.08592157 -0.13109174 -0.01004393
000050 b1 86 47 bb 68 b8 e9 bb 96 f7 bd bd c8 8e 8c bd
       -0.0030445273 -0.0071325786 -0.09275739 -0.06863171
000060 b3 20 80 bd 4a 13 e6 bd 3e d5 7c bd bf 5c 80 bd
       -0.06256237 -0.11234148 -0.0617268 -0.0626769
000070 0c 0a 31 bd f3 e3 bb bd 36 12 c4 bd 5d c0 f0 bc
       -0.043222472 -0.09174337 -0.09573786 -0.029388601
000080 fa 8c f6 bd 22 6b c9 bd c3 82 3d be 1c c5 3b bc
       -0.12038608 -0.09834887 -0.18506913 -0.011460569
000090 68 cc 59 bd 73 f1 90 bd ac 19 04 be 48 b5 84 bd
       -0.053173453 -0.07077303 -0.12900418 -0.06479889
0000a0 9f 85 10 bd 98 b8 d2 bd 71 1d a4 bd cf 2f 16 bd
       -0.03528368 -0.10289115 -0.08013428 -0.036666688
0000b0 e6 45 e8 bd cd d3 23 be 63 92 55 bd 35 fb 46 be
       -0.11341457 -0.15998764 -0.05214156 -0.19431765
0000c0 3c a2 aa bd 42 2a 91 bd b0 56 92 bd 81 7d f8 bd
       -0.08331725 -0.07088138 -0.071454406 -0.12133313
0000d0 9d b2 14 bd ad 26 ec bd 94 d1 31 ba 73 e3 a3 bd
       -0.03630315 -0.11530814 -0.0006783244 -0.08002367
0000e0 00 e1 8b bd 06 24 76 bd de d5 ec bd 4f 7b 94 bc
       -0.06830025 -0.06009295 -0.115642294 -0.018125204
0000f0 36 59 14 be a9 41 42 bd db d5 d2 bd b2 6e 5e be
       -0.14487156 -0.0474259 -0.10294696 -0.21721914
000100 10 ac 35 bd 15 52 c6 bd 8c 04 bc bd fc 85 95 bc
       -0.044353545 -0.09683625 -0.09180555 -0.018252365
000110 b9 26 ac bc 6d 4a cf bd 06 23 c3 bd 3d 47 85 bd
       -0.021014558 -0.101216175 -0.095281646 -0.06507728
000120 af 6c 36 be ee 4b 87 bc 32 34 24 be 84 c0 0f be
       -0.17814897 -0.016515698 -0.16035536 -0.14038283
000130 1e 86 8a bd f8 2c 47 bd 60 e2 e6 bd 90 77 b0 bd
       -0.06763862 -0.04862687 -0.11273646 -0.08616555
000140 83 a7 ba bd ff a6 dc bd d1 6c a3 bc 37 36 c8 bc
       -0.091139816 -0.107740395 -0.019949349 -0.024439914
000150 d2 83 ce bd 81 0d 5e bc b1 7b 64 bd f3 4c 23 bd
       -0.100837365 -0.013553024 -0.055782024 -0.039868306
000160 ad a6 6d bc 2c 8c 15 be b1 07 0d be 64 29 92 bc
       -0.014505071 -0.14604253 -0.13772465 -0.017842002
000170 f9 67 6f bd 27 1d 38 be 72 e7 db bd 68 c7 89 bc
       -0.058448765 -0.1797987 -0.10737504 -0.016818717
000180 10 18 0d be 4d 4b c8 bd 43 3a 3f be ad 78 bd bd
       -0.1377871 -0.097799875 -0.18674569 -0.09251533
000190 bc aa 3c bd 8d fe 03 bd f2 a0 c9 bd d2 1c 2c bd
       -0.046061262 -0.03222518 -0.09845151 -0.042019673
0001a0 65 91 98 bd 45 ad 00 be b1 11 5c bd b1 fd 32 bd
       -0.07449607 -0.12566097 -0.05372781 -0.04369897
0001b0 32 36 84 bd ae be dd bc c5 13 7f bd ac 6b 03 be
       -0.064556494 -0.027068462 -0.062274713 -0.12834042
0001c0 97 33 f4 bc 15 25 30 bc 8c b2 c7 bb 4d b9 85 bd
       -0.029809756 -0.010751029 -0.0060942825 -0.06529484
0001d0 75 b4 90 bc a9 69 da bc de d0 f4 bb d2 be 1b be
       -0.017664174 -0.02666171 -0.007471188 -0.15209511
0001e0 9f e8 41 bd 1b e1 37 be b6 c1 0a bd 5e b4 cd bd
       -0.047340985 -0.17956965 -0.033876143 -0.10044168
0001f0 e8 39 27 be c1 b6 98 bc 6f 12 37 bd dd 40 b1 bd
       -0.16330683 -0.018641831 -0.044695314 -0.0865495

network.6.weight f4 [12, 128]
000000 bb 89 90 bc 16 ff 2c bc 52 c3 71 3b 8c 7f 62 bc
       -0.0176438 -0.010558864 0.0036890102 -0.013824355
000010 f0 27 bb bb 44 22 28 bd a4 c6 98 3d 3e e6 72 bc
       -0.005711548 -0.041048303 0.07459763 -0.014825402
000020 2a d3 8f bd 28 8f c5 bd 06 6d 31 be cc cd 77 3d
       -0.07022698 -0.096464455 -0.17326745 0.060498998
000030 3d e3 01 3b 4e 62 83 3c ee 5c 8c bd 13 33 11 3c
       0.0019819282 0.016038086 -0.068536624 0.008862275
000040 38 92 21 bc 1c 10 2a bd c9 84 13 3e 74 98 a3 3c
       -0.009861521 -0.04151927 0.14406122 0.019970156
000050 9e c1 a9 3d 31 68 6c bc e2 82 29 3d 76 d2 ed bc
       0.08288883 -0.014429138 0.041384585 -0.02903102
000060 02 25 1c 3d 50 3e 5f 3d 7d 4e 9c bd e3 63 9c 3c
       0.03812123 0.054502785 -0.07632158 0.019090598
000070 a8 e1 24 3d 39 80 d9 bd 9f 3f 45 bd 6b bb e2 bb
       0.040254265 -0.1062016 -0.048156377 -0.0069193146
000080 e4 ad 89 3d 52 0d 12 bd 21 90 99 3d f2 09 6e bd
       0.0672262 -0.035657234 0.074981935 -0.058114953
000090 5f 14 8c 3d b5 c6 04 3e 5f 0a 44 bd 35 ff 1e 3c
       0.06839823 0.12966426 -0.047861453 0.009704401
0000a0 f2 e4 d5 bb 63 41 d8 3d 1e e7 67 bd 2a 27 3e 3d
       -0.0065275365 0.105593465 -0.056616895 0.04642407
0000b0 e8 15 28 bc 8c dc ce bd e8 53 ce bd 85 49 ab 3c
       -0.010259129 -0.1010066 -0.100745976 0.02090908
0000c0 01 08 92 3c 8d ff ca 3c 98 dd b8 bc 9d ed ba 3d
       0.017826082 0.02478006 -0.022566602 0.091273524
0000d0 bc 7c 4b 3d 71 e2 2d 3d 22 d1 46 3b eb de a4 bd
       0.049679503 0.04245228 0.0030337055 -0.08050331
0000e0 6e 7f 28 3d 97 e0 40 bb 16 60 29 3e 5e eb 73 3c
       0.04113715 -0.002943074 0.1654056 0.014887659
0000f0 54 91 40 3d c8 d6 00 bc 53 70 b1 bd cd 5e ad 3d
       0.047013596 -0.007863708 -0.08664002 0.084653474
000100 8a ac 0a 3d 22 38 eb bc 4e be 5c 3d a8 5d 8e bd
       0.033855952 -0.02871329 0.053892426 -0.06951457
000110 3f 60 91 3d cd 0d e8 3c ae ac 3b bd 8c 46 92 bc
       0.070984356 0.028326893 -0.045818977 -0.017855905
000120 39 d2 bb bd 06 7c 70 bc ab 2c 5d 3e c5 b9 5c 3d
       -0.09170956 -0.014678007 0.2159907 0.0538881
000130 f2 0f 34 3d da 7d 70 bd 56 84 3a 3c 87 a6 b2 3c
       0.04396052 -0.05871377 0.01138409 0.021807922
000140 97 bb 20 be 9d 20 4b 3d 9f dd 39 bb 10 17 fd 3b
       -0.1569656 0.04959165 -0.0028360856 0.0077236965
000150 46 e6 87 3b 28 ba f1 bc cb d0 07 3d d9 0e 0a 3b
       0.004147324 -0.029507712 0.033158105 0.0021065979
000160 cf 77 66 bc e6 4d c4 bc 3b c4 d7 bd d0 c0 4d 3c
       -0.0140666505 -0.023962926 -0.10535475 0.012558177
000170 18 27 15 3c c4 7c 03 be 6e 4a 11 3d 5e 23 f9 3b
       0.009103559 -0.12840563 0.035471372 0.007603093
000180 10 ee 06 3d 6a 8a e4 bb 38 9b 15 bd fb 2d 28 3a
       0.032941878 -0.006974508 -0.03652498 0.0006415543
000190 71 7d b1 3d 90 17 d5 3c c2 ab 85 3d ba 63 b6 3d
       0.08666504 0.026012212 0.06526901 0.0890574
0001a0 c3 21 0f bb 84 37 36 3c 47 e8 9b bd 97 8c ed bd
       -0.0021840192 0.011121634 -0.07612663 -0.11599081
0001b0 18 b3 90 bc 92 a6 6f bd c3 5a 4f bc ab 0d 8c 3d
       -0.017663524 -0.058508463 -0.012655917 0.068385445
0001c0 86 8f f6 3c 03 73 a6 3d d4 7f a8 bd 73 7e a2 3d
       0.030097734 0.081274055 -0.08227506 0.079342745
0001d0 68 c3 ba bd c4 c9 e1 bd c1 71 9b 3c 1b f4 bc 3d
       -0.09119302 -0.11024812 0.01897514 0.09226247
0001e0 ff b0 00 bd 65 09 41 bd 3c a4 a3 3b 98 e8 4f 3e
       -0.031418797 -0.0471281 0.0049939435 0.20303571
0001f0 89 2a c1 3c 7b 6e 36 3d 6e d5 9a bd da d7 18 bb
       0.023579853 0.044538956 -0.0756024 -0.0023322017
000200 b0 cf af 3d 20 97 2e bb d2 b0 31 3d 75 9e e6 3d
       0.08584535 -0.002664037 0.04338152 0.11260692
000210 c0 15 9f bb 3c 66 9c bc 21 6f 92 3d 8e 69 8a bd
       -0.0048548877 -0.019091718 0.071501024 -0.06758414
000220 90 b8 21 bc ea 29 d1 3d be 6c 80 3e 86 15 a1 bd
       -0.009870663 0.102130726 0.25082964 -0.078654334
000230 44 0e b8 bc 76 e1 1d bd dc 9a fd 3c 4c b3 8d 3d
       -0.02246774 -0.038545094 0.030957632 0.06918964
000240 65 69 8d 3d 66 26 1e 3d 64 ae b0 3d 18 b1 10 3d
       0.06904868 0.03861084 0.08627012 0.03532514
000250 90 d1 8a bd e8 8a 04 bc 94 81 2a bd 3f 2d a5 3d
       -0.06778252 -0.008089758 -0.04162748 0.08065271
000260 39 60 9d 3d 14 f2 30 3e 6f 86 86 3d ba ce 4f bd
       0.07684369 0.17279845 0.0656861 -0.05073426
000270 89 67 22 bd bc 14 6a bd 00 34 ee 3c d0 2d c0 3b
       -0.03964952 -0.05714868 0.02907753 0.0058648363
000280 a6 2e c5 3c d0 ce a6 bc d8 2b 0f 3d 82 bf 29 3d
       0.024070095 -0.020362288 0.034953922 0.0414424
000290 8a fa 77 3d 98 75 ab bd ca 8c b0 bd 17 06 9a 3d
       0.060541667 -0.083720386 -0.086206034 0.07520693
0002a0 03 e5 55 bd 90 b8 39 bc b7 63 12 3d bb 4a 6a bd
       -0.052220356 -0.011335507 0.035739627 -0.057200175
0002b0 59 e2 44 bd 06 2e 38 3e 64 e6 91 3c ee b5 cc 3d
       -0.048067424 0.17986307 0.017810054 0.09995638
0002c0 dd b8 a4 3d 22 c9 96 bc 08 18 13 3c 1f c7 21 3d
       0.080430724 -0.018406454 0.008977897 0.039496537
0002d0 66 20 1d 3d 57 d7 9f 3d a4 d9 2a 3e 4e d2 2c 3d
       0.038360976 0.07804745 0.16684586 0.04219275
0002e0 87 80 ae 3d 7c 3e 19 3e 3a 03 e1 bb 00 6d 4a 3a
       0.085206084 0.14965242 -0.0068668397 0.0007721931
0002f0 5e 4d 0c 3e e5 da af 3d 28 23 55 3c 00 8d 87 ba
       0.13701388 0.08586673 0.01300887 -0.0010341704
000300 54 07 15 3d ef e7 50 bd 37 d2 8a bd 99 94 8a 3d
       0.03638394 -0.05100244 -0.067783765 0.06766624
000310 5a 37 1c bd 3c d2 08 3d c4 4d 3c 3e 88 b8 c5 3c
       -0.038138725 0.03340362 0.1838904 0.024135843
000320 93 b9 d2 3d e4 87 91 bd e2 54 a7 3c b6 56 5a 3d
       0.10289302 -0.07105997 0.020426217 0.05330535
000330 91 a6 6c bd 78 0c 14 3c 42 29 42 3e 26 43 96 bd
       -0.057776038 0.009036176 0.18961051 -0.07337026
000340 14 25 b4 3c 16 41 19 3e 40 f8 67 bc a3 2e 9d 3d
       0.021990336 0.14966235 -0.0141583085 0.07674911
000350 a2 b9 98 bd bc 16 00 3e f0 23 1c bd 16 de 32 3d
       -0.07457282 0.12508672 -0.03812021 0.04366883
000360 00 ad 46 3a 5d ac 10 3e b8 45 16 bd aa 5f 6d bd
       0.00075788796 0.14128251 -0.036687583 -0.05795256
000370 22 de 24 3d 94 20 ae bc 79 b5 a3 bd ac 9d 85 bd
       0.040250905 -0.021255769 -0.079935975 -0.06524214
000380 df d2 2f 3e 48 e8 1e 3c 16 50 01 3e b2 0e 56 3e
       0.17170285 0.009698935 0.12628207 0.20904043
000390 10 1f 05 3c a0 0a 12 3b c8 a9 b6 3c 98 bd ca 3c
       0.008125082 0.0022284165 0.022297755 0.024748608
0003a0 32 11 b4 bd 1c 6f 45 bd 77 e6 87 3d 46 61 51 3d
       -0.08792342 -0.048201665 0.066357546 0.051118158
0003b0 22 2d 71 3d 10 c3 a2 3d 40 d9 d0 3b 5f f8 e6 3d
       0.058880933 0.079473615 0.0063735545 0.11277842
0003c0 98 c8 51 3c 1d 7c df 3d 70 9e 85 bc 03 c8 96 3d
       0.012804173 0.109123446 -0.0163109 0.07362368
0003d0 89 d8 6e 3e 89 c0 e3 3d a4 36 95 bc 85 10 1c 3d
       0.23324789 0.111207075 -0.018214531 0.03810169
0003e0 2a ce 64 3d 48 32 b3 bc c6 04 24 bd 71 e9 de 3c
       0.055860676 -0.021874562 -0.040043615 0.027210923
0003f0 c0 67 a3 3a 3e d0 41 3d fa 90 74 bd 0a 40 18 3d
       0.0012466833 0.047317736 -0.059708573 0.037170447

network.6.bias f4 [12]
000000 46 59 b4 3f 66 62 b4 3f 81 5e b4 3f f0 99 19 3f
       1.4089744 1.4092529 1.409134 0.60000515
000010 19 c6 d8 3e c6 8a dd 3e de ed 8e 3f 5d c0 99 3f
       0.42338637 0.43269938 1.1166341 1.201183
000020 dd 91 b3 3f e1 62 b4 3f 92 5e b4 3f ea 67 b4 3f
       1.4028889 1.4092675 1.409136 1.4094212
