trained_models/DQN2_28-08-2022__08-23-44/policy_net.pth_iter_2000.pth (torch, 286081 bytes, 12 tensors)

network.0.weight f4 [128, 23]
00000000: 9658 56be 02a2 3a3e 4c38 82be 7830 f0bc
00000010: 6ac8 aebd 1179 19be e1c8 d0bd 89fe 2dbe
00000020: aff5 03be d901 8e3d 684b e93d cdaa 52bd
00000030: f65f 963d d296 163c c05b 61be a10b f0bc
00000040: 109a ca3d 278c 50be 6488 03bd dbe3 7b3d
00000050: 1dcd 09bd fdfd bfbd 2f2b aebd 4f30 03be
00000060: be46 2dbe c079 91bb c7c6 31be 146e 6bbd
00000070: c8cc b3bc 6c51 4abe b2de fe3d 6043 19be
00000080: 5c51 543d d485 1ebd 400f bbbc 3985 04be
00000090: cbc4 ecbd b42f 613d 412c d0bd a3e5 3fbe
000000a0: 8216 e53d 0058 01ba 8abd 96bd 648e 3fbe
000000b0: 3c5a d0bd bb5f 503e 43fd c13e 2ab2 0c40
000000c0: dc39 de3f 7ce7 813f 36b5 10c1 00ac 8e3f
000000d0: 5683 783f fe77 f23f 9055 dcbe 461f df3f
000000e0: 2459 96bf 5bb0 853f 0f7a 71bf f36e 1fbf
000000f0: 15e0 d9be e85d 0a3e d641 bec0 e7bd 4f3f
00000100: 27e2 8dbe 11eb adbe b9fa a1bf f368 34bc
00000110: 1e85 1640 1d41 16be ed7c 693c 8368 893d
00000120: 16d7 5b3d 0bbe d8be 4d22 49be 3313 8cbe
00000130: 00b9 55be df4f a63d ca49 48be b433 393c
00000140: 7d21 ba3d b4fd 02be bb90 8bbe 21fe 44bd
00000150: 613d d23d 849c 6bbe 50f4 383e 6347 a7bb
00000160: 297f bcbe e478 db3d deeb 323d 7c5a 0bbe
00000170: 8d11 8f3e dddc 133f 2605 573f 55c4 323f
00000180: fbc9 a440 508f 1740 e9d3 39bd 39e3 c03f
00000190: ee2a 6bbe a8a1 0240 e6ce 0240 e79f a73f
000001a0: 044d 973f fa45 3040 1bc0 b13f df87 6140
000001b0: deb0 01c0 ccf5 f03f f946 bbbf fb6a 27c0
000001c0: b366 683f a89c 1e3f feae e2bf c2b1 053e
000001d0: 7ba0 0dc0 7874 1c40 fdc2 183f 6d64 bdc0
000001e0: 09fe 3ec0 d439 8940 9078 2a3f aac3 d83f
000001f0: 33d4 ff3d 0b76 5d40 3add 0340 b624 b53e
00000200: 4f4c ca3f 06c9 0c40 0b27 ccbf 84b3 a43f
00000210: fa20 afc0 0692 c5c0 7fd9 fbbf 441a 86bf
00000220: ab4a 63bf bdc6 2fc0 3820 d63e db1b cebf
00000230: d72c 83c0 255c 2dc0 411e 8240 dcee 0fc1
00000240: f6e1 f040 35af f0bf 1a4a 06bf ccea 4fc0
00000250: d8f6 dd3f 4eaa d5be 7e1a 983e 4846 2740
00000260: 95af 0140 cca4 8f3f 5845 b4be ea42 fec0
00000270: 4f14 443f d2e0 2bc0 286c f03f 2c01 0140
00000280: bd06 b13f 7906 1f3f f5a9 57bf 7487 2cc0
00000290: 6571 bf40 f95b 2240 2264 ca3f 3754 acbf
000002a0: 43e3 683f 6b5d f43f a1f7 e03d 9056 163f
000002b0: 1ea8 933d 31a9 3240 9d59 d13f 8b8d a83f
000002c0: fac6 1ec1 bc11 aabf 25e9 cc3d 2ee1 d33f
000002d0: 1bf9 c6c0 5d92 e3bf d6fa 34bf 6eee 3840
000002e0: bf3b 313f abf3 afbf 3ebe 3dc1 2e11 893e
000002f0: a444 c0c0 8cc4 b3c0 93d6 0a41 d621 1a3f
00000300: ce11 3ebe a922 933f c49e 8340 df69 a03f
00000310: 7d89 e63f 050a 853f 6e77 ba3f fdd8 0ac0
00000320: 5e28 933f d9de 2bc0 631f 01c0 c784 1c40
00000330: c17e bd3f 43ad 58c1 79a2 8f3e c0bf 57be
00000340: 4579 e03f f7c6 af3f 9a61 a83f 589b 00c0
00000350: a917 a340 ac53 07c1 cfe3 3c3f 059d 37be
00000360: a2a5 ca3f f867 97bf 822b a83f db7e 9dbf
00000370: a89e e9be 021f 7b40 2ca6 c53e 6bc7 0740
00000380: e637 39c0 c3d2 99bf f719 a8c0 387b abbf
00000390: 6fab 0340 0941 ebc0 83c9 ff3a d5d0 373d
000003a0: 046a 7340 d8f7 1940 1d81 abc1 dbef 1cc0
000003b0: 1e44 973f b10a 90be 7f70 85bf b5c8 e9bf
000003c0: 7c53 893f 3922 35bf 0f11 36bf 6d34 eebe
000003d0: 6cd1 df3f f757 fc3f aa60 9940 fd26 253e
000003e0: ed31 f33f 1a1c 3f40 d653 a43f 221e 2740
000003f0: 5b9c 1c40 6ecf 593e 38bb 2a40 7bd6 6c3e
-0.2093223 0.18225864 -0.25433576 -0.029319987 -0.0853432 -0.1498759 -0.101945646 -0.16991629
-0.1288669 0.06933946 0.11391336 -0.05143242 0.07342522 0.009191232 -0.22007656 -0.02930242
0.09892666 -0.20365964 -0.032112494 0.061496597 -0.033642877 -0.09374616 -0.0850433 -0.12811397
-0.16921517 -0.0044395626 -0.17360984 -0.057478026 -0.021948233 -0.19757622 0.124448195 -0.14967108
0.051835403 -0.038701847 -0.02283442 -0.12941445 -0.11560973 0.054977134 -0.10164691 -0.18739943
0.11185934 -0.00049340725 -0.073603705 -0.18706661 -0.10173461 0.20349018 0.37888536 2.1983743
1.7361407 1.0148768 -9.044241 1.114624 0.970754 1.8942869 -0.4303403 1.7431419
-1.1745954 1.0444444 -0.9432687 -0.6227867 -0.42553774 0.13512385 -5.9455366 0.81149143
-0.27711603 -0.33968404 -1.265464 -0.01101135 2.3518748 -0.14673276 0.014250976 0.06709387
0.05367192 -0.4233249 -0.19641991 -0.27358398 -0.20871353 0.08120703 -0.19559398 0.011303831
0.09088419 -0.12792093 -0.27258858 -0.04809392 0.10265613 -0.23008925 0.18061948 -0.0051049455
-0.36815766 0.107164174 0.04368197 -0.13608736 0.27943078 0.57758886 0.8399223 0.6983083
5.149656 2.368122 -0.04536811 1.5069343 -0.22965595 2.0411167 2.043878 1.3095673
1.1820378 2.754271 1.3886751 3.523918 -2.02642 1.8825011 -1.4631034 -2.6159046
0.90781707 0.6195779 -1.7709653 0.1305609 -2.21292 2.4446087 0.5967253 -5.918509
-2.984255 4.288309 0.66590214 1.6934712 0.12491646 3.4603298 2.0603776 0.3537957
1.5804538 2.1997695 -1.5949415 1.2867284 -5.4727755 -6.174075 -1.967575 -1.0476766
-0.8878581 -2.746505 0.41821456 -1.6102251 -4.0992236 -2.708749 4.066193 -8.995815
7.527583 -1.8803469 -0.5245682 -3.2487059 1.7340956 -0.41731495 0.29707712 2.6136646
2.0263417 1.1222167 -0.35209155 -7.945668 0.7659349 -2.685597 1.8783007 2.0156965
1.3830181 0.6211925 -0.8424371 -2.6957674 5.982592 2.5368636 1.5811808 -1.34632
0.90971774 1.9091009 0.109847315 0.58725834 0.072098 2.7915766 1.6355473 1.3168195
-9.923578 -1.3286662 0.10005406 1.6553094 -6.2179084 -1.7779042 -0.70695245 2.8895526
0.6923179 -1.3746237 -11.858946 0.2677092 -6.008379 -5.6177425 8.677386 0.6020788
-0.1856148 1.1494952 4.1131306 1.2532309 1.8010708 1.0393683 1.4567697 -2.169494
1.1496694 -2.6854765 -2.0175407 2.445604 1.4804307 -13.5423 0.28053644 -0.2106924
1.7537009 1.3732594 1.3154786 -2.0094814 5.096638 -8.457928 0.7378511 -0.17930992
1.5831797 -1.1828604 1.3138278 -1.2304338 -0.45628858 3.9237676 0.38603342 2.1215465
-2.8940368 -1.2017444 -5.2531695 -1.3396978 2.0573385 -7.351689 0.0019515011 0.044876892
3.8033457 2.4057522 -21.438044 -2.4521396 1.1817663 -0.28133157 -1.0424956 -1.8264376
1.0728602 -0.70755345 -0.7111978 -0.46524373 1.7485785 1.9714345 4.79305 0.16128154
1.8999611 2.9860902 1.2838085 2.6112142 2.4470432 0.21270534 2.667677 0.23128693

network.0.bias f4 [128]
00000000: f63f 5ebe 0fb4 2abe 14f8 1d40 87a7 7cbe
00000010: 0a1f 6540 9cd4 8240 cb1f b33f a06d 983f
00000020: 2aa8 853e f3f4 5ebf afc8 f33e 4384 16bf
00000030: bc4f 09be d7ea 7740 2631 9240 167a bf3f
00000040: ee95 b5be 44b0 b63f 3f83 d33f 0ad7 673f
00000050: 1606 a83f 3fd4 3abe fabd 16bf 0f22 e43f
00000060: 5eb7 093f ee2c b83f c337 c3bf a332 323f
00000070: ea00 a13f 839a 303f 33d3 02bd 9e47 83be
00000080: d846 1f40 36cd 943f d1b4 063e 0e84 a03f
00000090: a76a a0bf 7678 c63f 813d c03f 35bc 8fbd
000000a0: 8633 833c 7e99 0840 7d3f a9bd ade8 d63f
000000b0: d043 9a40 a200 4940 0344 e7bd 5c29 1ebf
000000c0: 55d8 9040 d7a8 e2bd 8dad 3640 ccd3 1a40
000000d0: 6e69 9b3e 8adf e83f c606 7cbe 579e 6c3f
000000e0: 7fa0 89bf ce87 88be b90a 07c0 1455 2ec0
000000f0: 72e7 643f e333 a03d cc92 babf 31b8 0dc0
00000100: 823d 7140 2daf 8bbe 7eb2 cb3f 4460 2c40
00000110: 46b3 2f40 f47f a940 661b 1340 df4f a740
00000120: 9730 6340 526f 0140 0185 16be ee93 5c40
00000130: ff69 2c3f 0c8e 50bc aea1 5340 88a2 2540
00000140: 2b71 813d 80ea c5bd 6ecf 3840 e7ff ccbd
00000150: 56a0 583f cd09 2640 1f67 963e 82d4 b5bd
00000160: 4fbe 13c0 7c16 0840 c9c0 6240 ca92 6640
00000170: e243 fd3f 9a86 ecbd 2666 cf3f 2359 ec3f
00000180: 1393 c3bf d7fb 9040 e54f bd3f 94e0 35be
00000190: aee9 0cc0 a9df 023f ccfd 21be 0724 a43f
000001a0: eb66 af3f 35ab b23e 823f 9cbf 08b0 d2bd
000001b0: 144f 9cbf c763 0dbe 1aac 1240 0961 2240
000001c0: 52ea 5540 fe0a 4a3f de5d 0ebe 82cf 0fbe
000001d0: a83b 623f 13b4 a13f 62bf 7d40 b2e2 893f
000001e0: 7cf7 bfbc 2ab2 83bd a543 db3f d4dc 6340
000001f0: f68b 563f a401 36be 8bca 05be 6fbc 94be
-0.21704087 -0.1667025 2.4682665 -0.24673282 3.5800195 4.0884533 1.3994077 1.1908455
0.26104861 -0.8709251 0.47614047 -0.58795565 -0.13409323 3.8737085 4.5684996 1.4959133
-0.3546595 1.4272542 1.6524428 0.905625 1.3126857 -0.18245028 -0.5888363 1.7822894
0.5379542 1.4388711 -1.5251392 0.69608516 1.2578404 0.68985766 -0.031939697 -0.25640577
2.488699 1.1625125 0.13154913 1.25403 -1.2532548 1.5505512 1.501877 -0.070183195
0.01601578 2.1343684 -0.082640626 1.6789757 4.820778 3.1406636 -0.11292269 -0.6178186
4.5264077 -0.1106736 2.8543427 2.419177 0.30353874 1.8193219 -0.24611959 0.9242911
-1.0752105 -0.2666611 -2.1100295 -2.7239428 0.8941566 0.078223966 -1.4576049 -2.2143672
3.7693791 -0.27282086 1.5913846 2.6933756 2.745317 5.2968693 2.2985473 5.2285
3.5498407 2.0224195 -0.14699174 3.446529 0.6734924 -0.012729179 3.3067431 2.5880451
0.06320413 -0.09663868 2.8876605 -0.10009747 0.84619653 2.5943482 0.2937555 -0.08878423
-2.3084905 2.1263723 3.5430167 3.6027093 1.9786341 -0.11549111 1.6203048 1.8464702
-1.5279258 4.530742 1.4790007 -0.17761451 -2.2017627 0.5112253 -0.15819472 1.2823495
1.3703283 0.34896246 -1.2206881 -0.102874815 -1.2211633 -0.13807593 2.2917542 2.5371726
3.3424268 0.7892302 -0.13902995 -0.14044002 0.8837228 1.2633079 3.964806 1.0772307
-0.02343344 -0.064304665 1.7130018 3.5603533 0.83807313 -0.17774063 -0.13065545 -0.29050013

network.2.weight f4 [128, 128]
00000000: 5494 a1bc b630 7e3d bf21 02be bfb6 a9bd
00000010: 02bf bcbd 0ef3 8bbd a8ea 16bd 45c4 9bbd
00000020: 2f7a ecbd a08d 8bbd e1af 21bd fb52 90bd
00000030: 788d 94bd 14e1 25bd 6e08 37bc ed59 04bd
00000040: 47c8 373d 45f9 04be 5a3f e0bd 330e e1bd
00000050: 19a9 68bd a460 d0bc bc88 c1bc d4a4 fdbb
00000060: bc8c a5bc 8617 743c 6357 a1bd a615 653d
00000070: e91f d53c b2bd e0bb 64f2 81bd abd7 37bd
00000080: fa5f 81bd 7976 263b de18 80bd bf33 69bd
00000090: 50c2 ce3b 99ca 8d3d ccab e1bd 10d1 d8bb
000000a0: 54d7 88bd 9699 1bbd 4038 e43c 3d1f 20bd
000000b0: ef1f e2bc 41e6 f3bc d1b0 0ebd 6b29 4fbd
000000c0: 24e7 ef3c 662d 793d 16b1 e5bc 1274 2c3c
000000d0: bf2c 4ebd 8d00 363d f05e d13c 7300 e0bc
000000e0: dfc1 9cbc 5d77 ad3d a19c 81bd a21e 873c
000000f0: fe66 a6bd 92ed 7f3d f31e 0cbd 2078 62bd
00000100: c645 17bd 8cb3 97bc c063 d33c 5e83 c5bd
00000110: 7df8 a1bd ed4b 033d 2e2f 6d3d eaf4 91bd
00000120: 40e8 d2bc 441d 94bc 1247 0abd 0e13 063d
00000130: e4ea cabd 7e7e 2f3d b9ea c23c f9bb 9cbd
00000140: 85b6 15be d9f3 833d 2956 3c3b eed9 613c
00000150: 64af 9abd a4f2 a43c dc2b 9dbd a960 8c3d
00000160: 0fed 7a3d a1f0 563c 099c 8b3d 485e 433d
00000170: 3b53 8d3d 98da 96bc 3674 b1bd 1ba3 41bd
00000180: c793 debd 3e8c 04be 3b53 e0bd 583f 56bd
00000190: 9050 5f3d 911a c43c a08b 933c 8f2d e5bd
000001a0: 160c 73bc 6bd0 793c cac3 e6bc 7454 a33c
000001b0: e378 90bd 448e 2ebd d07d 4ebc c98f 01be
000001c0: c03c 9b3a 96ee 56bd 224c 983c c780 ccbd
000001d0: d959 ebbd b8f4 ebbd b87c 2ebc b3a9 8fbd
000001e0: faa9 223d 7a39 3e3d f40e e9bd 59fa fc3b
000001f0: a43d 1e3c df07 68bd a27a f6bd 2e0a 683d
00000200: 1dd5 8bbd 9858 10bc 92af 5e3d 4021 83bc
00000210: bcb9 7abd 6021 3e3c 96a9 7ebd 9eff 8cbd
00000220: af9f 863d 9c7c f4bc dabb 34bd 2acf e9bc
00000230: 20fb b33c 976f babc f958 adbc d0a6 e43c
00000240: 2b5c d3bb 6064 55bd 1a1a 1e3d 402b 80bb
00000250: 5c36 cfbc d126 803d 35be ab3d d290 ebbd
00000260: c961 b4bd 5e45 1abe 60c8 083c 78bb e53c
00000270: e677 e0bd bd14 17bd 2ded de3c 30d0 abbc
00000280: 1269 29bc 4673 a1bb f3dd 593a 8caa ecbc
00000290: a067 ce3b 7192 bc3c ce41 213d 180f a83c
000002a0: 14c0 f73c ad92 75bb f08e 9bbb 4a48 03bd
000002b0: f01c 073d 6924 c2bd 3437 c53c b5e8 dfbd
000002c0: 6ceb 08be b7f8 a5bd f1b5 9f3c 6dda 97bd
000002d0: 102d b3bc de4c 423d 28b5 7abd ac19 0dbe
000002e0: 4f12 78bd c4ae d3bc a458 6cbd 6a96 8fbd
000002f0: 22e0 c8bd fd60 82bc a175 25bd 7fd9 1fbd
00000300: 2e39 e73c 525e ddbd 0e8f 043d ed4b 24bd
00000310: 227e 6c3d 774c 803d adf1 003b 448c 853c
00000320: 4b07 23bd c168 2ebd b518 3dbd 3ba7 95bd
00000330: 2531 d5bd 725f bbbd 1c55 c3bd 3820 d03c
00000340: 281d b7bd ab9f 8cbd 10fd d8bc 82d4 d4bc
00000350: 2219 a7bd 2705 98bd 50f3 4b3b 38c9 9ebd
00000360: 22b8 973c e474 e53c f6df 7a3d daf9 ccbc
00000370: bc7a a7bc 40e5 49bc 34ec b0bc 3003 9cbd
00000380: 0169 03bd 2c68 99bd 9135 ce3c 2179 b13d
00000390: b09f c73c 849f f63c 7f2b 913d 3d39 0dbc
000003a0: 5f5a 89bb 5c47 f1bd 9c79 69bd a064 e9bc
000003b0: 567b 79bd 5e9b 3bbd 60cd 85bd 6d08 e5bd
000003c0: ae73 8cbc dc4a a8bc 24db bbbd 1a2c 293d
000003d0: 6e22 7c3d c204 523c 10e1 94bc cc51 603b
000003e0: badf 233d 0f3b b13d 914f 66bd 72df 88bd
000003f0: 34e7 a6bd b6dd 8bbd 06ef 4cbd d8db 0abc
-0.019724049 0.062058173 -0.12708186 -0.08286809 -0.09216119 -0.068334684 -0.03684488 -0.07605795
-0.11546742 -0.06814122 -0.03947437 -0.07047077 -0.072535455 -0.040497854 -0.011171443 -0.032312322
0.044868734 -0.12985714 -0.10949583 -0.109890364 -0.05680189 -0.025436707 -0.02362477 -0.0077405963
-0.020208709 0.014898187 -0.07877996 0.05592885 0.026016193 -0.006858551 -0.063450605 -0.04488341
-0.06317134 0.0025400205 -0.06254743 -0.056934115 0.006309785 0.06923408 -0.11019096 -0.006616719
-0.066816956 -0.037988268 0.027858853 -0.03909229 -0.027603118 -0.02977288 -0.034836594 -0.05057661
0.029285021 0.06083431 -0.028038543 0.01052572 -0.050335642 0.04443412 0.025557965 -0.027343964
-0.019135414 0.08470032 -0.06328703 0.016494099 -0.08125113 0.062482424 -0.034209203 -0.05529034
-0.036931776 -0.018518232 0.0258044 -0.09644197 -0.079087235 0.03205483 0.057906322 -0.07126792
-0.025745511 -0.018080361 -0.033759184 0.032733016 -0.09908083 0.04284524 0.023793565 -0.076530404
-0.14620407 0.064429946 0.002873788 0.013784869 -0.07552984 0.020135231 -0.07674381 0.06854374
0.061261233 0.013118894 0.06816871 0.047697335 0.069006406 -0.01841478 -0.086647436 -0.04727469
-0.1086803 -0.12944123 -0.10953375 -0.052306503 0.05452019 0.02393845 0.018010914 -0.1119033
-0.0148344245 0.015247445 -0.028169531 0.019937731 -0.07054307 -0.042616144 -0.012603238 -0.12652506
0.0011843666 -0.052473627 0.01859099 -0.099855 -0.114917465 -0.11521286 -0.010649852 -0.070147894
0.039712884 0.046441533 -0.11379805 0.0077202735 0.009658251 -0.05664813 -0.12035109 0.056650333
-0.068277575 -0.008810185 0.054366656 -0.016007066 -0.061212286 0.011604637 -0.06217345 -0.068846926
0.06573426 -0.029844575 -0.04412446 -0.028541166 0.021970332 -0.022758288 -0.02116059 0.027911574
-0.0064501963 -0.05209768 0.03859911 -0.003911406 -0.025294475 0.06257404 0.083858885 -0.11502232
-0.088077135 -0.15065524 0.008348554 0.028043494 -0.10960369 -0.036885012 0.027212704 -0.020973295
-0.010339992 -0.0049270717 0.0008310966 -0.028889917 0.006298974 0.023019047 0.039369397 0.02051501
0.030242957 -0.0037471459 -0.004747264 -0.032051362 0.03298658 -0.09479601 0.024074174 -0.10933057
-0.13371056 -0.08104079 0.019495936 -0.07414708 -0.021872073 0.047436588 -0.06120792 -0.13779324
-0.060564335 -0.02584017 -0.05770172 -0.07011111 -0.09808375 -0.015915388 -0.040395383 -0.03902578
0.028225508 -0.10809006 0.03236299 -0.04011147 0.057737477 0.062645845 0.00196753 0.016302235
-0.039801877 -0.04258037 -0.04616614 -0.07307287 -0.10409764 -0.09149064 -0.09537718 0.025405988
-0.08941108 -0.06866392 -0.026487857 -0.025980238 -0.081590906 -0.07422858 0.0031120367 -0.07753223
0.018520419 0.02800984 0.061248742 -0.025021482 -0.020444266 -0.012322724 -0.021597005 -0.076177955
-0.03208256 -0.07490572 0.025172027 0.08665682 0.024368137 0.03010536 0.07088374 -0.008619604
-0.0041916813 -0.11781189 -0.05700074 -0.028490365 -0.060908638 -0.045802467 -0.06533313 -0.11183248
-0.017145004 -0.020543508 -0.09172657 0.041301824 0.061556272 0.012818517 -0.018173724 0.0034228442
0.040008284 0.08653843 -0.056228224 -0.06683244 -0.08149567 -0.068293974 -0.050032638 -0.008475266

network.2.bias f4 [128]
00000000: 1bfd c7bd 2b83 14be 8a50 bbbd a804 52bc
00000010: 750c dabc 96b8 eebd e112 b93e 9db9 6340
00000020: 87e8 dfbd ebc6 e6be 0c87 99bd d170 0340
00000030: 3f30 0dbd 6675 65bf 3f93 1bbc 983f d03f
00000040: 1879 e23c ac20 76bd 0b72 08bf f418 9cbd
00000050: c6ad 0fbf 8f8f 003d ed85 f6bc fee6 853f
00000060: fcd4 903f 1d38 1c40 ffd0 c3bd b98a 6c40
00000070: 89e9 dcbd 587e fabd 2aca f4bd b655 c73f
00000080: 826b ac3f 36d8 df3e e92b d03b 6742 3abf
00000090: 71e9 1f3c 5b94 113f 9a4b efbd baba ac3d
000000a0: f3f7 c5bd f593 20bd 5668 21bc dc12 d23f
000000b0: 6859 2540 d541 923c c107 7d3f 2fa0 dbbd
000000c0: cdcb 943f 734d d640 d485 373f acf5 a33f
000000d0: 2b36 c5bd 7d6a a740 f77d 443d a733 d1bd
000000e0: ce67 63bd eac1 1640 9433 be40 e384 1140
000000f0: b3a1 3639 6ad6 39bd 05ab 0e3c 6444 91bd
00000100: d501 0340 5c48 34bd ce3d a73f 6aa1 cabc
00000110: 81fc 7440 84b7 9ebd d179 0a40 e31a 90bf
00000120: 8ae9 63be bb4f c13f fc84 d23f 8c99 bfbd
00000130: 9046 ab3f 76e4 5940 c72b c7bd e50c a040
00000140: 6eee dbbd 9900 4abf 7395 3d40 7065 90bd
00000150: 1049 8f3e 5d29 83bd ee2b a740 668d 31bd
00000160: 9834 07bf c5b1 c7bb 3eeb 0a41 8987 97bd
00000170: 1d27 1dbe 7d38 043f ed1a 873c 120e e7bd
00000180: dd54 e3bc 7f9d 8abd 4350 e3bb 99e2 33bd
00000190: f301 203d 0d35 21bd 8e7d c03f 3a98 c2be
000001a0: 0718 0840 77f9 f7bd 2a6b adbd 15ef 00be
000001b0: 5aa1 8cbf dccf 3c40 d151 efbd 81e3 bf3f
000001c0: d899 d33f 8d03 05be 9ccd fd3f 48fe 633f
000001d0: be8d 5440 83c7 083f 0dc8 2440 970f 10be
000001e0: 657b d3bd 1757 27bd 6ffc 9b3f c8a6 68bd
000001f0: 4f5e 82bf ac2e dabd 5946 043f ad42 023d
-0.09765073 -0.14503162 -0.09146221 -0.012818493 -0.026617268 -0.11656301 0.36147216 3.558204
-0.10933023 -0.45073637 -0.07496461 2.0537608 -0.03446984 -0.8963226 -0.009495555 1.6269407
0.027645633 -0.060089752 -0.53299016 -0.07621947 -0.5612453 0.03138691 -0.030093158 1.0461118
1.1314998 2.440925 -0.09561347 3.695967 -0.10786731 -0.122311294 -0.11952622 1.5573032
1.3470309 0.43719643 0.0063528907 -0.7275757 0.009760247 0.56867 -0.11684342 0.08434053
-0.09666433 -0.039203603 -0.009851536 1.6412005 2.583582 0.017853657 0.98839957 -0.10723912
1.1624695 6.6969543 0.7168858 1.2809348 -0.09629472 5.231749 0.047971692 -0.1021493
-0.055518918 2.3555856 5.943796 2.2737358 0.0001741711 -0.045370497 0.008707766 -0.070931226
2.0469868 -0.04401432 1.3065736 -0.024735171 3.8279116 -0.077498466 2.163685 -1.1258205
-0.22257057 1.5102457 1.6446834 -0.093554586 1.3380909 3.4045691 -0.09725147 5.001574
-0.10738836 -0.7890716 2.9622467 -0.07050598 0.2798543 -0.06404374 5.2241125 -0.04334774
-0.52814627 -0.00609419 8.682432 -0.07398898 -0.15346952 0.51648694 0.016492331 -0.112819806
-0.027750427 -0.06768321 -0.006937058 -0.043917272 0.03906436 -0.039357234 1.5038316 -0.38006765
2.1264665 -0.121081285 -0.084677055 -0.12591203 -1.098674 2.9501867 -0.11685527 1.4991304
1.6531324 -0.12989636 1.9828372 0.8905988 3.3211513 0.5342943 2.5747101 -0.14068447
-0.1032627 -0.04085454 1.2186412 -0.05679968 -1.0185031 -0.10653433 0.5166984 0.03180187

network.4.weight f4 [128, 128]
00000000: b755 88bd 1139 12bd 63b6 d5bd 4b61 5f3d
00000010: 6742 9c3d d0ee 9c3c a005 ce3f 9e8b 2440
00000020: 5af9 67bd fe16 a8c0 5987 a8bb d04a 8440
00000030: 1239 f13c dec9 0d40 5fc4 f63d 9387 f8bf
00000040: 7bbb a2bc 1b23 843d ffb5 0a40 2df9 2a3c
00000050: e5a8 23c0 0193 c53b 5bbf 9e3d 1710 77c0
00000060: 73c0 2b40 9b2b 24c0 b124 c5bd 4ea0 d041
00000070: fa62 07bb 29d5 9d3d 757b 7bbd 27fc c040
00000080: 27ea 93c0 d740 a2bf 0eec 3a3d 6dbf 6bbf
00000090: 1dce f6bd c754 f6bf 54a7 8dbc 705d fabf
000000a0: 403c 1e3d bfc3 b03d c721 c6bc d5e4 5940
000000b0: b637 96bf 9602 be3c dece cabf 2ae7 843d
000000c0: 3fb4 8e40 caf1 ef3f 75fa b740 58e0 3ac0
000000d0: f747 0cbd 1f87 623f e1b0 24bc 68ab ae3c
000000e0: da76 5abc 41c0 8240 0604 62be 6833 5e3f
000000f0: 624a b0bd f9df 18bd 98e9 e93d 700b e53d
00000100: d533 5940 92bf 2ebd 960e 8440 62ef bcbd
00000110: 06dd d6bb 24f9 ebbc 95d0 033f e244 9d41
00000120: 935f 2b40 6f41 5640 3bdd b83f 3853 62bc
00000130: c45f a43f 30cf 96be d0d6 4e3d 4fda e73f
00000140: d962 29bd 5428 07bf 7b54 dabe cb92 4e3d
00000150: 9ac7 2dc0 3978 5fbc 60bf 2ac0 d738 abbc
00000160: 4483 6bc0 0780 d1bc 3f9b f4be 4826 0fbd
00000170: b6f4 0d3d b3b0 4ebf 6267 e63f 6771 1d3d
00000180: 2538 18bf b4c5 333d 221c 5dbd 5c57 09bd
00000190: afa7 e9bd 1982 2fbd 8624 9440 ae82 4b40
000001a0: e7f8 513f 19ca c1bc d305 2a3f f777 303d
000001b0: 0aed bb40 be2b 0f40 4c31 a93d 90af 87be
000001c0: 6ea3 3240 88b3 393d 4bf3 28c0 3005 2f40
000001d0: a03d 2f3f 97d0 fcbf a9fe 0440 faf9 a9bd
000001e0: 94fe 0cbd a3b0 08be 1440 9840 d21f dd3d
000001f0: 289c 6bc0 67eb ccbd cd57 7a40 d066 94bf
00000200: 1f60 a13d 262a 94bd 78ac 6a3d f593 6abc
00000210: 3019 c93d da45 43bc 859e 9d40 debf 5840
00000220: a3f9 503c 7053 c4c0 0d17 18be 536b 44bf
00000230: ed6a b93d b05b 9bc0 3b22 603d 75bc 8a3f
00000240: 70e9 63bd 2cb4 c43d 44a3 b5bf 0a7c 2b3d
00000250: f966 6440 2f28 e0bd 2ad9 803b 26ce 2240
00000260: 2888 1cbf f10f f9c0 e090 2bbd 599a e6c1
00000270: 49d6 60bd ba17 063c 2c15 593d 480b cb3d
00000280: 3eb7 c53f 1282 96c0 b3e2 8f3d 1c47 abbf
00000290: d617 8bbd d82e 3c40 f61d bcbc 21f6 52c0
000002a0: 822e 053d 0519 2dbd c291 bf3c b3cf 6a3f
000002b0: 0dc5 4fc1 e959 31bd e543 00c1 a763 a6bd
000002c0: 209d 0440 79aa 693f 2759 8e40 c9d5 ef3e
000002d0: 5f14 57bd da1c cabf 9f73 6abd 8e98 e2bd
000002e0: d719 583d c464 e1c0 6e5f 3040 c5d3 ddbe
000002f0: 1216 b23c 236c 7fbc cc89 d0bc be56 16bd
00000300: 39c1 ea40 9651 90bc 6915 0b40 f04d 703b
00000310: a84b 4a40 e9f2 903d 2818 c7c0 0e4c 2a41
00000320: 8181 4ac1 d786 d43f d0de 7c40 8f6e ed3c
00000330: 735e dfc0 9f3e 443f b85f e8bc 5b83 fc3f
00000340: 2e42 453d 9c93 05c0 5e5b e53f bed6 983d
00000350: 2f9f 9fbf b5cb 58bd c7eb 7440 52ed 89bc
00000360: 39ec 03c1 e363 f33c 799c df3f ce7b f4bc
00000370: c8d9 68bd e53e 463f c834 3f40 4a0a 7f3c
00000380: d2f8 e9c0 486d 9e3d d761 5bbd 00ea b23d
00000390: d990 c8bd fc8f 263d 35b9 1541 7e54 3f40
000003a0: db60 cfbf b8ac f2bd a665 5ec0 3cce 1dbd
000003b0: dd9b 25c0 8ff6 6c3e 6531 123d 9a48 8dbe
000003c0: 3f4d f23f 241f 8f3d 90df ec3f 17b3 9e40
000003d0: 009d 7f3f 8597 1b40 cd45 093f 1de0 6abd
000003e0: 03f3 a0bd bc3f 95bd 9a32 2d3f 0bf5 e6bc
000003f0: edd1 3ac0 d646 87bd fef1 8b3f a99c 3abe
-0.06656974 -0.035698954 -0.10435178 0.054536145 0.07629853 0.019156843 1.6095467 2.5710216
-0.056634285 -5.2528067 -0.005143088 4.1341324 0.029446159 2.215446 0.120491736 -1.9416374
-0.019864788 0.06452008 2.1673582 0.010435385 -2.5571835 0.006029487 0.07751342 -3.860357
2.6836212 -2.5651615 -0.09626139 26.078274 -0.002065836 0.07706673 -0.061397035 6.0307803
-4.622333 -1.2676038 0.045635276 -0.9208897 -0.12051032 -1.9244622 -0.017291702 -1.9559765
0.038631678 0.086310856 -0.024186028 3.4045918 -1.1735752 0.023194592 -1.5844381 0.064894035
4.4595027 1.8745663 5.7493234 -2.9199429 -0.03424832 0.8848743 -0.010051937 0.021321967
-0.0133340005 4.0859685 -0.22071847 0.8679719 -0.086079374 -0.037322972 0.114215076 0.11183822
3.3937886 -0.042663164 4.1267805 -0.09225346 -0.0065571098 -0.028805323 0.51490146 19.658634
2.6777084 3.3477437 1.4442514 -0.013813786 1.2841725 -0.29454947 0.05049783 1.8113497
-0.041354034 -0.5279591 -0.42642578 0.05043296 -2.7153077 -0.013639503 -2.6679306 -0.020901127
-3.6798868 -0.025573744 -0.47774693 -0.034948617 0.034657203 -0.8073837 1.80003 0.038438227
-0.5946067 0.043889716 -0.053981908 -0.033530578 -0.11408936 -0.04284868 4.6294584 3.179851
0.8202042 -0.023655938 0.6641514 0.043083157 5.8726854 2.2370448 0.08261356 -0.2650113
2.791225 0.04533723 -2.6398494 2.7346916 0.6845341 -1.9751157 2.0780432 -0.08299632
-0.034422472 -0.13348632 4.757822 0.10797085 -3.681406 -0.10005837 3.911609 -1.1593876
0.07879662 -0.07234602 0.057293385 -0.014317502 0.09819257 -0.011918509 4.9256005 3.3867106
0.0127548305 -6.1351852 -0.14852543 -0.76726264 0.090535976 -4.8549423 0.054720145 1.0838763
-0.055642545 0.096046776 -1.419045 0.04186634 3.568785 -0.109451644 0.003932138 2.5438323
-0.6114526 -7.783196 -0.04188621 -28.825365 -0.05489186 0.008184368 0.052998707 0.09914261
1.5446546 -4.7033777 0.07025661 -1.3381076 -0.06791656 2.940359 -0.022963505 -3.2962725
0.032515056 -0.04226019 0.023384932 0.91723174 -12.985608 -0.043298636 -8.016576 -0.08124476
2.0720901 0.91275746 4.448383 0.46842793 -0.05250966 -1.5790055 -0.05723917 -0.11064254
0.052759018 -7.0435505 2.7558246 -0.4332563 0.02173904 -0.015589747 -0.025456332 -0.036703818
7.3360868 -0.017617028 2.1731818 0.0036667548 3.1608677 0.070775814 -6.2216988 10.643568
-12.656617 1.660365 3.9510994 0.028983383 -6.9802794 0.7665805 -0.028365955 1.9727587
0.048158817 -2.0871344 1.7918508 0.07462834 -1.2470454 -0.052928645 3.8268907 -0.016836796
-8.245172 0.029710716 1.7469627 -0.02984419 -0.056848317 0.7743972 2.9875965 0.015566418
-7.3116236 0.077356875 -0.053560104 0.08736038 -0.097932525 0.040664658 9.357717 2.989532
-1.6201433 -0.1184935 -3.4749541 -0.03852676 -2.5876381 0.2314093 0.035691638 -0.27594453
1.8929824 0.069883615 1.8505726 4.9593616 0.9984894 2.431123 0.5362213 -0.057342637
-0.07858851 -0.07287547 0.67655337 -0.028193017 -2.9190629 -0.06605308 1.0933225 -0.18223824

network.4.bias f4 [128]
00000000: d09f e13f e203 893f 5503 f2bd 4fc6 f140
00000010: 9a68 3abd ee6b 493d 7b38 1ebe 94b9 1e40
00000020: 22c7 b13f e7aa 93bd 5683 483d de7a edbd
00000030: 4869 2141 79e6 393c 8b16 b1bd cd2f 25bd
00000040: 5dad 6a40 0ea6 0abe a0f0 e03f 9410 36c0
00000050: b3b9 ca40 4ede edbb 096c babd 554a df3f
00000060: 508d 683f 703d 2440 9045 08c0 f506 5c3f
00000070: f856 303d e598 f93f 2a1e 793f a92c 56bf
00000080: 3ec1 fcbd 89fa e8bd a15f ba40 b54c 4d3f
00000090: 4a0c bfbe e336 1fc0 1316 dabd c38b e7bd
000000a0: 095c babd 9243 d5bd 80e9 533d eb01 9fbc
000000b0: b7f2 a63f 936e a33f f3a0 75bf dc44 1b40
000000c0: 028e ec40 f268 723f 104b 13be e121 a2bd
000000d0: 746a ddbb 4e2c 943f f4f9 033c a328 ec3c
000000e0: fad1 1b40 c14a 7a3f a73d 80ba 29b2 b83f
000000f0: c803 cf3f 8d97 8dbf b59b 9c40 f4c0 57bd
00000100: 27fa 573c 7cf9 07bc 2352 89bf 6e67 533f
00000110: 9164 1741 f966 50bd 93d4 9d3f 7638 553f
00000120: b418 03be 8572 f6bd 464d 02be ebfc c9bd
00000130: 0381 5d40 53bf 5d3d 256b a03f 7d2b 783f
00000140: fb27 e0bb 91d7 1abd b71b 473d eca1 8f3a
00000150: 46fe 63bd 98c5 913e bb25 02be 4d0d 0640
00000160: 1456 79ba 9317 f63e 58ea 65be 2571 913f
00000170: d2ed 6b3f 1f69 dbbd 43ca bdbd 7934 cc3f
00000180: dc26 4f40 9038 9a3f b1d7 0240 f25d e83f
00000190: 81ca 323d 1704 c03f 91b1 1ebf 4e67 bbbe
000001a0: 233c d13f 7762 b6bf 677e 903f 3bfc 3e41
000001b0: 3aa1 d5be 0a25 1440 e015 7e3f 68b8 953d
000001c0: 00e8 3a41 9cfe 2140 fa02 b5bd 8afc 8e3c
000001d0: 7907 f7bd ea7d 9840 240a 3a3d 1d28 a53f
000001e0: 42e6 8940 9014 fcbf 025a 53be 9632 8fbc
000001f0: 0abd cabe e215 f53f 30ab f53c a60e 613e
1.7626896 1.070431 -0.11817042 7.5554576 -0.045509912 0.049175195 -0.15451233 2.4800768
1.3888896 -0.072103314 0.048953377 -0.11595701 10.088203 0.011346453 -0.08646878 -0.04032879
3.6668313 -0.13539907 1.7573433 -2.8447618 6.3351684 -0.007259167 -0.09102637 1.7444559
0.90840626 2.5662498 -2.1292458 0.85948116 0.04305169 1.9499785 0.9731165 -0.83661896
-0.123415455 -0.11375911 5.8241735 0.8019517 -0.37314063 -2.487725 -0.106487416 -0.11305954
-0.090995856 -0.10413279 0.051736355 -0.019410094 1.3042821 1.276812 -0.95948714 2.4260778
7.392335 0.94691384 -0.14384103 -0.07916618 -0.006757075 1.1576021 0.008055199 0.02882797
2.434691 0.97770315 -0.0009783999 1.442937 1.6173029 -1.1061875 4.894007 -0.05267425
0.0131822 -0.008299228 -1.0728191 0.82579696 9.462052 -0.050879452 1.2330498 0.8328928
-0.12802392 -0.120335616 -0.1272479 -0.098626934 3.4609993 0.05413754 1.2532698 0.9694136
-0.0068407035 -0.037803236 0.048610415 0.0010958291 -0.055662416 0.28471065 -0.12709706 2.0945618
-0.0009511423 0.4806486 -0.22452676 1.1362654 0.9215976 -0.1071341 -0.09267094 1.5953513
3.2367468 1.2048512 2.0444148 1.815367 0.043650154 1.5001248 -0.61989695 -0.36602253
1.6346477 -1.4248799 1.1288575 11.93658 -0.4172457 2.3147607 0.9925213 0.07310563
11.681641 2.5311651 -0.08838458 0.017454404 -0.12061972 4.7653704 0.045419827 1.2902867
4.3093576 -1.9693775 -0.20639804 -0.017480176 -0.3959735 1.9147303 0.029988855 0.21978244

network.6.weight f4 [128, 128]
00000000: 7ef5 243a c2ea f0bc 7aad 5a3d f9f9 7bb9
00000010: 0dcc b33d f7c4 97bd 605b 27bc c2d2 98bd
00000020: f00b a13c 8eb3 9bbd 47b4 b13d 0543 70bd
00000030: b4d8 a7bd 4e67 eebc 0005 60bb d2ce 6fbd
00000040: 13e3 03bd 7bb3 823d 1f34 e9bd 77f6 653c
00000050: a007 afbd a874 b4bc 00ed de3b 67b6 93bd
00000060: 3ada d4bd 9e9c 513d e031 f43c f8c0 fc3c
00000070: 4433 a73d b2a7 ddbd 203f 79bd 4144 583b
00000080: 9a5f 343d 267b 443d 534b b2bc 2af5 adbd
00000090: e4d2 203d b1ba 9bbd d222 363d 2043 9cbb
000000a0: d024 a43b 6cc0 83bc 5400 013d dde1 9cbd
000000b0: aa08 193c f530 08be 0b84 adbd f3b7 98bd
000000c0: f3fb 653c e7ab 4abd a1f7 953d acd6 9dbc
000000d0: c049 8a3c 40bc 80bd 14e9 fc3c 78dd 33bc
000000e0: bceb 8fbd 7738 363d bee0 e9bc b2d2 48bd
000000f0: a31c a03d c651 c8bc 04df 183d 82d5 efbc
00000100: fe1c a33d 78bb 513c 47a5 31bd 6969 a6bd
00000110: f517 b9bd 8735 803d 90ba 30bd d678 943d
00000120: 80ee 7abb 10cd 9b3b 6fff 61bd 91ae 8cbd
00000130: 4847 97bb af5c a53d 82d5 093d 7e9b ecbc
00000140: b4fb 62bd ca5e 683d 239d a4bd 7633 233d
00000150: 9f89 843d 4c7e a9bc db0c 9b3d c0c0 99bd
00000160: 6e99 763d eee9 45bd a370 7bbd b4cd 8abd
00000170: ec1c 52bd 2036 683b ee2c 7c3d 00d8 bd38
00000180: 1d14 b5bd 4b55 02bd 36b9 7dbd 0507 0abc
00000190: 6b2a 153d 3fbe eb3c 414f 9cbd d6f3 71bd
000001a0: 7ee5 043b 7063 80bc e0c5 c53b ef32 9bbd
000001b0: a878 e13c 6fd0 6bbd e988 0f3c f966 5ebd
000001c0: 5698 8abd 41ef 6e3d 401a 8f3b f6ce 643d
000001d0: 5c6d 9b3c d8de adbd 2c38 3fbd d1ba 45bd
000001e0: a649 7dbd 0c99 363d e375 d7bc ffd3 83bd
000001f0: dda1 cebc 9d9a 9abc d29e 2abd e68a 19bd
00000200: 0779 9440 564c 29c0 e168 f3bc c752 28bf
00000210: 41d4 1c3d 0bbc 8cbd 5e00 9dbd 31b1 0642
00000220: adc6 d03e 1dfa 05bd a0ee ae3d d790 143d
00000230: 0512 9ec0 c437 d73c 84ff 863c db5d c93b
00000240: 1680 b240 8c99 583d 53b3 93c1 28d4 bb40
00000250: 4529 7140 8884 703d 7fec 0e3e 1dd6 9ebf
00000260: d9ca 27c1 7ffe a83f 54a7 45c1 1036 0cc0
00000270: 332b 1f3f 831b af41 ba7d ee3f c834 79c0
00000280: f330 8bc0 16fe 433d 1c49 f83e 2576 edc0
00000290: 8822 6741 7ae6 95c1 a88c 32bc 3bb9 a43d
000002a0: 9f16 c13b e836 23bd 6ffe 96bd 73da edbd
000002b0: 656e 8f40 2e5f 3440 cd78 8a40 df0b c540
000002c0: 64a3 b83d 9648 5540 bab3 e4bc a589 c53c
000002d0: a4c6 e23c 153c 0e41 f17f b73c 6e0b a8bd
000002e0: 6661 693f 269c 6bc1 34af 2b3d e1de b43e
000002f0: 38f2 1540 0259 1340 3017 1640 e077 d5bd
00000300: fad8 153c a84d 90bd 82d2 5340 011c 9d41
00000310: 4173 84bf 358d b03d 0d0a b7c0 d66e c13f
00000320: 09c5 90bc fb83 4dbb 0427 e9b8 d5ce 91bd
00000330: 3f02 32c0 dcd6 993d 478a 7340 e5e1 98c0
00000340: 0033 76bd d681 073e 9228 31bd bb65 ab3b
00000350: 641f 1a3d 1442 1b41 7ef6 3bbd 9261 15bf
00000360: 22d8 e4bb 6596 0ac0 a25a d7bd 12df 1ec1
00000370: 8f1a b040 983c 563d 3bbd 0b3d 3b7d 31bf
00000380: 61d4 2a41 c83f dd3f 9d41 0b41 ba04 3740
00000390: 0084 e0bb a350 db41 6252 cd3f 5881 3840
000003a0: d528 8541 5b41 b041 29b2 1741 5f70 2e40
000003b0: d6e9 1641 9a3b efc0 a8ed b240 5639 e53b
000003c0: 92f6 eb3f 2263 a140 e0af bdbb 4f80 873d
000003d0: e6bc 3c3e be5c 1940 a6e8 6cbd 4db1 82c0
000003e0: 4650 9c3e 0217 9bc0 d2d5 2f41 c5b1 b03d
000003f0: e510 c6bf 3a7e 5540 fbe0 17bd dd70 533e
0.00062926847 -0.029408816 0.053388096 -0.00024030347 0.08779154 -0.07410615 -0.010214657 -0.07462074
0.019659013 -0.07602607 0.08676963 -0.058657665 -0.0819563 -0.029101994 -0.0034182668 -0.05854685
-0.032198977 0.063818894 -0.113868944 0.014035813 -0.08546376 -0.022028282 0.006803155 -0.07212525
-0.10393186 0.051174752 0.029808939 0.030853733 0.08164075 -0.10823001 -0.060851216 0.0032999667
0.044036485 0.047969006 -0.021764433 -0.08494027 0.03926362 -0.07603968 0.0444668 -0.004768744
0.005009271 -0.016082965 0.031494454 -0.076602675 0.009340445 -0.13299926 -0.08472451 -0.074569605
0.01403712 -0.049480345 0.07322622 -0.019267403 0.01688087 -0.06285906 0.030872859 -0.010978095
-0.07027385 0.044487443 -0.028549548 -0.04902906 0.07817962 -0.024453055 0.03732206 -0.029276613
0.07964514 0.012801044 -0.04337051 -0.08125574 -0.090377726 0.062602095 -0.04314667 0.0724961
-0.003828913 0.00475467 -0.05517524 -0.068692334 -0.0046166517 0.080743186 0.033650883 -0.028882738
-0.055415824 0.056731023 -0.08037784 0.039844 0.06471562 -0.020690106 0.07570811 -0.07507467
0.060204916 -0.048318796 -0.061386716 -0.06777516 -0.051297113 0.0035432652 0.061566286 9.0524554e-05
-0.08841727 -0.031819623 -0.06194421 -0.008424525 0.036417406 0.02877724 -0.07632304 -0.05907043
0.002027839 -0.015672415 0.0060355514 -0.07578074 0.027523354 -0.057571825 0.008760669 -0.05429742
-0.06767337 0.05833364 0.004367143 0.055861436 0.018973045 -0.0848977 -0.04668443 -0.048273865
-0.061837815 0.04457955 -0.02630133 -0.064369194 -0.025223667 -0.018872553 -0.04165537 -0.03748598
4.639774 -2.6452842 -0.029713096 -0.6575131 0.03828836 -0.06871804 -0.07666086 33.67304
0.40776578 -0.03270923 0.08541608 0.036270943 -4.9396996 0.026271708 0.016479261 0.0061452216
5.5781355 0.05288081 -18.46256 5.869648 3.768144 0.05872014 0.13957404 -1.2409092
-10.487023 1.3202666 -12.353352 -2.1907997 0.6217529 21.888433 1.8632119 -3.8938465
-4.3497252 0.047849737 0.48493278 -7.420672 14.4459305 -18.737537 -0.010897793 0.080431424
0.005892589 -0.039847285 -0.07372748 -0.116139315 4.482226 2.8183093 4.327246 6.157699
0.09015539 3.3325553 -0.027917732 0.024113486 0.02768261 8.889668 0.022399874 -0.08205305
0.91164243 -14.725622 0.041915134 0.35326293 2.3429089 2.3023076 2.3451653 -0.10423255
0.0091459695 -0.07046062 3.3097234 19.638674 -1.0347673 0.08620683 -5.719977 1.511195
-0.017672079 -0.0031359184 -0.00011117573 -0.07119528 -2.781387 0.07511684 3.8053148 -4.777575
-0.06010723 0.13233122 -0.04325158 0.005230633 0.037627593 9.703632 -0.04588937 -0.58352005
-0.006983773 -2.1654294 -0.10515334 -9.929461 5.503242 0.05230388 0.03411601 -0.6933171
10.67685 1.728509 8.703519 2.8596635 -0.006851673 27.414373 1.6040766 2.8828945
16.644938 22.031912 9.480996 2.7256086 9.432089 -7.4760256 5.591511 0.0069953604
1.8434622 5.043351 -0.005788788 0.0661627 0.18431434 2.3962855 -0.05783906 -4.084143
0.30529994 -4.8465586 10.989702 0.08627657 -1.5473906 3.3358293 -0.037079792 0.20648523

network.6.bias f4 [128]
00000000: 3920 23bd 5a28 d240 0f32 e83f 3ffc 34c0
00000010: 0a68 18c0 29b1 24be d906 19be 7c2c 0cc0
00000020: 3542 c03f 1a7d 14be 2c6f 21c0 1d63 eabe
00000030: a93e bc3e 1d5a 393f 9ae9 42bd 1579 a93f
00000040: 9442 0bbe 6fcd 10be 417c cbbc 4130 f73f
00000050: d9cc fa40 3dfc 74bc b656 1440 3422 51c0
00000060: a5bd 6640 5254 0bbf 8138 ae3e 999d 76bf
00000070: 7a12 573f 7bec 5a3f ca65 bebd c0f2 38be
00000080: 4c23 a9be 7d64 d43d c278 c7be b3a7 513e
00000090: fe16 b83f e983 74c0 ed02 a640 df2a bf3f
000000a0: 6be1 f040 6b23 b240 7c46 31bf 7063 0440
000000b0: 3730 673f c275 8340 7428 0dc0 68d3 56bf
000000c0: c8b6 3fbe d26d e83f 0a4c 13be 91b7 97bd
000000d0: 0f1c c5c0 7968 ddc0 86c9 2bc0 be30 f040
000000e0: 4347 96c0 882a 2dc0 4cd9 1240 5ab3 06c0
000000f0: 0035 c33e 7af4 a640 2351 7540 fc3b f4bf
00000100: 9ed3 63be d601 9bbc d4bb bc40 cf61 ecbf
00000110: b77c 5840 2b55 7ec0 3176 643f ac3e 95bf
00000120: 625b bdbf ed24 ff3e f3d6 6cc0 804b f240
00000130: 247d e340 1ffb 0dbf ed97 b4bd 02c1 d5bf
00000140: dd69 34be 260b 9f3f 8f96 fbbc 3cb8 5640
00000150: 5c02 2cbd c559 183c 2534 b4bf 2a05 823f
00000160: 2788 1cbe 11ef 0b3f 0890 2fc1 1bc8 0bc0
00000170: 740f bfbd 2e48 2cc0 0d07 5abd 0926 83bf
00000180: 544b 8f3f 3079 46be aca2 8ebd ad22 94c0
00000190: 28bd 2a40 bdd6 01c0 a585 113f 91c4 3140
000001a0: 0e28 06bf 5b69 163f 0798 27bf 3a6d 2c40
000001b0: c7fb 0abe 8743 af40 0b38 af40 a545 1e41
000001c0: 170f be3f ef36 8f40 7239 bcbc 7100 113f
000001d0: 5a2e 9cbe c065 d13f 6660 0d40 577d 45c0
000001e0: 3ed5 b1c0 ec67 463f 1e78 4cc0 4ab5 8dc0
000001f0: d1c9 48c0 bee0 a6be 7526 97bd fa2f 38be
-0.03982565 6.5674257 1.8140277 -2.8278959 -2.38135 -0.16083206 -0.14944018 -2.190215
1.5020205 -0.14500847 -2.5224104 -0.45778742 0.36766556 0.72403127 -0.04758606 1.3240076
-0.13599616 -0.14140867 -0.024839522 1.9311601 7.837506 -0.014952716 2.3177924 -3.2677126
3.605325 -0.5442554 0.34027484 -0.96334225 0.8401257 0.8551709 -0.092967585 -0.18061352
-0.33034742 0.10370729 -0.38959318 0.20474128 1.4382017 -3.8205512 5.187857 1.4934958
7.527517 5.5668235 -0.69248176 2.0685692 0.90307945 4.1081247 -2.205594 -0.8391633
-0.1872207 1.8158514 -0.14384475 -0.074080594 -6.159675 -6.919003 -2.684175 7.50595
-4.696199 -2.705721 2.2945127 -2.1046968 0.38126373 5.2173433 3.8330772 -1.9080806
-0.22248694 -0.018921774 5.897928 -1.8467349 3.382612 -3.9739482 0.89242846 -1.1659751
-1.4793513 0.4983286 -3.7006195 7.5717163 7.109026 -0.55461305 -0.0881804 -1.6699526
-0.17618509 1.2425277 -0.03071144 3.3549948 -0.041994438 0.0092987465 -1.4078413 1.0157826
-0.15286313 0.5466166 -10.972664 -2.1840885 -0.09329119 -2.6919055 -0.05322938 -1.0245982
1.1194863 -0.19382167 -0.06964621 -4.629233 2.6677952 -2.0287316 0.5684455 2.7776225
-0.5240487 0.5875451 -0.6546635 2.6941667 -0.13572608 5.476993 5.475591 9.892003
1.4848355 4.4754558 -0.02297661 0.566413 -0.30504113 1.6359177 2.2090087 -3.0857751
-5.5572805 0.7750232 -3.1948314 -4.42838 -3.137318 -0.3259334 -0.07380382 -0.17987052

network.8.weight f4 [128, 128]
00000000: 02b5 e6bc cfb6 bdbd 74a9 96bd d79b 19be
00000010: 65e2 edbd 981e e93c 80d9 d3bc 477a eabd
00000020: 7ed5 cc3b fdba 89bd 394e 8fbc 13ec a63d
00000030: c625 c3bb eb47 d03c 80e0 cbbb 27a5 0ebd
00000040: 80a9 093a dc12 113d f0b9 babc 9f6b f8bc
00000050: 3510 6e3d da70 1c3d 8516 933d 3756 3b39
00000060: 4802 bcbc 507c 5cbd ba12 89bd 8a0b ccbd
00000070: 27d8 0f3d a15f 8c3c 9393 1abd 3403 a5bd
00000080: aaf2 1e3d 5e0b fe3a edd9 873c 283b c0bd
00000090: 6b07 a6bc ffa3 c5bd ace1 783c 73d4 a0bd
000000a0: 1b7e 58bd cba6 59bd 0f72 36bd d9cd 10bd
000000b0: 17c9 6c3c e928 2e3c 1dd9 363d b127 a3bd
000000c0: d44e 7fbd 77d7 e43c a0e6 68bd e898 7dbd
000000d0: dfc7 823c f6a1 59bb 752b 31bc aa09 9cbc
000000e0: d630 053d 2758 91bd 4568 003c ac92 99bd
000000f0: 098f d6bd 1988 9b3d e19b c53b 6cce 64bd
00000100: 1e6d a5bc 764a 0e3d b7b1 23bb d215 eebc
00000110: 24cb 9abd e32b 79bc 2321 a53c 6692 ad3c
00000120: 6325 f43c d7d6 3e3d 2260 28be b140 a5bd
00000130: ef0b 4dbc 87e8 80bc 9b3b 70bd 71bd 9fbd
00000140: 7fd0 70bd fb48 c6bd 20aa 893b 6253 b5bd
00000150: 5f6f 84bd d60b 76bd 9cca 0abe 3e90 143d
00000160: 8ad8 163d 307c a4bc 0c5a f2bc 6576 b4bd
00000170: 6fc2 9f3d b8e6 4ebd 0441 49bd 1784 d8bd
00000180: d72e afbd db73 863d c76c 5ebd 3ba8 8c3d
00000190: 72c9 8bbd 7cae 83bd d5fc 623c 0e33 663d
000001a0: 14f9 34bd 251b 3ebd 2c1b abbb 4c6c 36bd
000001b0: 245a c4bc b3f1 f4bd 3ac2 e6bd f6d0 693d
000001c0: 219c 0cbe a6fc d23b 5206 1f3d b78a 65bc
000001d0: 98f4 b8bc b526 07bd 6a2e 473d 4ac4 cabd
000001e0: a45a c53c 4c95 7abd 34f5 183d 590f f0bd
000001f0: 41da d2bd 94e9 d1bc 2031 b8bb d48e 92bd
00000200: 783c 44bc d51b 3d40 7bba f8c0 7364 ce41
00000210: 2a72 3340 240f c93c c6b2 84bc e8a5 8241
00000220: 8a86 3940 399c 0bbd 70ae ae41 b1d0 0841
00000230: f5b0 6c40 b51f 9f41 778a aa3c 0f74 2341
00000240: 8cd4 c3bc a6e3 79bd 07a6 dcbd 2c04 4041
00000250: 9219 7440 b1ce 02bd efed 7441 9983 df41
00000260: cd26 d141 237e 6ebf 794b 7d40 f7f0 ab3f
00000270: 9e45 be41 4ea5 5a40 9f20 303c 7f3f 2d3d
00000280: e519 763f baa4 a641 1f4f c740 e7a9 7341
00000290: 644d 4040 f7fd ea41 1036 3b41 2791 6741
000002a0: 63e3 8440 a5de 4a41 f3f1 a9c0 3cd9 0141
000002b0: 612e ca41 3685 cb3f b746 9041 a49d fd41
000002c0: 7284 9e3d 210f 3d40 5752 793d 5450 87bc
000002d0: 5c85 a841 df8b d7c0 dba0 9941 aebb 2f41
000002e0: a0ec 73c0 3dbf f93f 0c8c e93f 1a9a 8041
000002f0: a0bc ac40 3441 9641 bbcb 4840 5520 6341
00000300: a4ad ea3d 4ac3 a1bc 01ea da40 ebc8 41bf
00000310: ea49 b341 2b6d 91c0 4e4d 5e41 1d65 eb40
00000320: 008d d140 0601 9b40 8821 a241 5cf1 4141
00000330: 1b95 3241 6ffe 0e41 b197 9fbd 00d2 cc41
00000340: de5c 623d 0edc 2241 9acf 233c 498a 0d40
00000350: 1d4a c33c 8fb0 c741 3e97 9141 0a83 3440
00000360: 347f 923c cf16 9a40 c3ec 763f b5ef 9541
00000370: 8bc2 76bd 15fd 5341 d724 513d 7e5a cd41
00000380: 3e7d 4140 0d49 c7bd 6304 7dbd 9389 5bc1
00000390: d83b 1941 f62f f6c0 8eb7 3cbe 7c66 6441
000003a0: 923d d140 707c b540 7910 8040 d442 f340
000003b0: 97e5 823d f269 d4bf c534 cd3c a8f0 5341
000003c0: 4b5d 0140 b82d 6a40 7e70 82ba bd82 1f40
000003d0: c2e3 38be feff d53f 1d6b 4b41 b0ef e741
000003e0: c5bf 20c1 d654 0e41 1a51 35c0 9e91 9e3c
000003f0: 69e4 9340 af66 0a3d 0fa1 8d3d 28d4 ba40
-0.028162483 -0.092633836 -0.07356539 -0.15000854 -0.11615447 0.028456971 -0.025860548 -0.11449104
0.006251036 -0.06725118 -0.017493354 0.08150496 -0.0059554307 0.025424918 -0.006221831 -0.03482547
0.0005251393 0.035418376 -0.02279374 -0.030324755 0.058120925 0.03819356 0.0718203 0.00017865827
-0.022950307 -0.05382949 -0.06693025 -0.099631384 0.03511825 0.017135443 -0.037738394 -0.080572516
0.03880564 0.001938205 0.016583407 -0.09386283 -0.020267209 -0.096504204 0.015190523 -0.078530215
-0.05285464 -0.05313758 -0.04454237 -0.03535256 0.01445224 0.010629871 0.04464065 -0.07966555
-0.062331036 0.027934773 -0.056860566 -0.0619134 0.015964447 -0.0033208109 -0.010813584 -0.019047577
0.032517277 -0.07096892 0.00783736 -0.074986786 -0.104765005 0.07594318 0.006030545 -0.05586092
-0.020193633 0.03473898 -0.0024977752 -0.02906314 -0.07558277 -0.015208217 0.020157402 0.021187972
0.029802984 0.046591606 -0.16442922 -0.080689795 -0.012515052 -0.015735878 -0.058650594 -0.07799805
-0.058792587 -0.09681889 0.0042011887 -0.08853795 -0.06466555 -0.06006988 -0.13553852 0.036270373
0.0368276 -0.020078748 -0.029583953 -0.088116445 0.07800757 -0.050513 -0.04913427 -0.10572069
-0.08553856 0.065650664 -0.054302957 0.06868025 -0.06825532 -0.06429765 0.013854225 0.056201033
-0.044182852 -0.046412606 -0.005221745 -0.044536874 -0.023968764 -0.11960163 -0.112675145 0.057084046
-0.13731433 0.0064388094 0.038824387 -0.014010123 -0.022577569 -0.0329959 0.04862825 -0.099007204
0.024091072 -0.061177537 0.03734322 -0.11721677 -0.10295535 -0.025624074 -0.0056210905 -0.071561486
-0.0119773075 2.9548237 -7.7727637 25.799047 2.803843 0.024543352 -0.016198527 16.331009
2.8988366 -0.034084532 21.835175 8.55095 3.6983006 19.890482 0.020817978 10.215835
-0.023905061 -0.061008118 -0.10773855 12.001019 3.8140607 -0.031935398 15.308089 27.939257
26.143946 -0.9316122 3.9577315 1.3432912 23.783993 3.4163394 0.010749965 0.042296883
0.9613326 20.830433 6.2284083 15.22898 3.0047235 29.374006 11.700699 14.472938
4.152757 12.679357 -5.310785 8.115536 25.272646 1.5900028 18.034529 31.701973
0.07740106 2.9540484 0.06086954 -0.016517796 21.065117 -6.735824 19.203543 10.98332
-3.8113174 1.9511486 1.8245864 16.075245 5.3980255 18.781837 3.1374347 14.195394
0.114589006 -0.019746441 6.841065 -0.756972 22.41109 -4.544576 13.893873 7.356093
6.548462 4.843875 20.266373 12.121426 11.161403 8.937118 -0.07792605 25.60254
0.055264346 10.178724 0.009998227 2.2115653 0.02383905 24.96121 18.198849 2.820498
0.01788292 4.8152843 0.9645502 18.742044 -0.060244124 13.249288 0.051060524 25.669186
3.0232692 -0.0973073 -0.06177176 -13.721087 9.57711 -7.6933546 -0.18429396 14.275021
6.538766 5.67144 4.002011 7.6019077 0.06391447 -1.6594832 0.025049577 13.246254
2.0213192 3.6590405 -0.0009951738 2.4923546 -0.18055633 1.6718748 12.713651 28.992035
-10.046819 8.895712 -2.833075 0.019356545 4.621632 0.033789333 0.06915485 5.838398

network.8.bias f4 [128]
00000000: 9659 f1bd cbf5 5241 5c5c ecbd dc73 4141
00000010: a536 00be 73c9 3c41 eba2 3640 b407 4d41
00000020: 74bf c8bd bc28 91bc cc18 4941 07a9 03be
00000030: a08c b2bd 4ece d1bd bdb3 5241 c7ce 1841
00000040: 71a7 1b41 ab2a 5841 19f1 3141 d8a5 443c
00000050: f3fb 4c41 addb 4141 e2e5 34bd 45c0 c2bd
00000060: 985e 3141 6ab3 9ebe 10cc 3841 744b 6141
00000070: 9722 2541 7cbd ebbb e2c2 5441 499d 4041
00000080: ec02 8ebc d605 b6bd 941e 2b41 d3e9 7bbd
00000090: 0ce7 4d41 0f32 cdbc d489 4141 98f6 c13f
000000a0: 9154 0fc1 9a76 4ebd 7109 6241 9df5 603c
000000b0: 62a6 6b40 6682 c5bd 2560 ff3c 93b6 f2bd
000000c0: 0f60 c6bd 4227 a140 e176 723d 9179 4d41
000000d0: 3eb0 4141 47ce 9d3a b28c c5bd a36a 5c41
000000e0: a728 2b41 fb66 7741 27b0 5b41 7edb 283d
000000f0: 01e8 d4bd a463 2841 f797 e4bd 334c 5741
00000100: f02d ee3a 7eed 3b41 dced d63c 00c8 b1be
00000110: 997a 2b41 aa66 7bbd b1ac ccbc 4ad5 25bc
00000120: b6cd bc40 b419 4141 f47e d9bd 4833 d1bd
00000130: dc40 a5bd 710f 4441 f87e 0241 78c5 863b
00000140: a8a1 01be 2bfa 2641 fa3f c0bd 3874 a1bd
00000150: 9cf9 f3bd d511 efbc f4c1 4241 985b 3041
00000160: 2030 4641 7929 dabd 05ff 1c41 3445 c9bd
00000170: eb0f 4e41 3ff0 8840 8584 f340 6810 aac0
00000180: a380 5241 5605 3c41 35ca 06be c035 b6bd
00000190: 324b 1441 0941 5cbc af2f 4e41 2c67 2c41
000001a0: e07c 01be cabf 5241 369d 7540 70c8 72bc
000001b0: 4850 5e41 61ec 5241 b46a 223d 55b1 a53c
000001c0: 6b25 05be af46 7b3c 870a 2941 3819 88bd
000001d0: 3d0a 26bd 51a3 64bc 8b60 4c41 e504 39bc
000001e0: f25f 08be 597f 5041 6d53 01be 4375 f5bd
000001f0: 019c 0140 f927 0abe 5ae8 0e41 5219 58c1
-0.11784665 13.185008 -0.11541054 12.090786 -0.12520845 11.799182 2.8536937 12.814381
-0.09802142 -0.017719619 12.568554 -0.12857448 -0.08718228 -0.102444276 13.168881 9.550483
9.728379 13.510417 11.121362 0.012002431 12.811511 12.116132 -0.044164546 -0.09509329
11.085594 -0.30996257 11.54982 14.080921 10.320945 -0.007194219 13.297579 12.0384
-0.017335378 -0.08887832 10.694965 -0.06150229 12.868908 -0.025048284 12.096149 1.515338
-8.958146 -0.050406076 14.127305 0.013730434 3.6820302 -0.09644012 0.031173775 -0.118512295
-0.096862905 5.036042 0.059195403 12.842179 12.105528 0.0012039625 -0.09645976 13.776034
10.697425 15.462642 13.730506 0.04122495 -0.10395814 10.524326 -0.111617975 13.456103
0.001817165 11.7454815 0.026236467 -0.347229 10.717431 -0.061377205 -0.02498469 -0.010121653
5.900111 12.068775 -0.106199175 -0.10214859 -0.080690116 12.25377 8.155998 0.0041128956
-0.12659323 10.436076 -0.093872026 -0.07883495 -0.119128436 -0.029183308 12.172352 11.022362
12.386749 -0.106524415 9.812261 -0.098276526 12.878886 4.279327 7.6099267 -5.3145027
13.156405 11.751303 -0.13163073 -0.08896971 9.268358 -0.01344324 12.8866415 10.775188
-0.12645292 13.1718235 3.8377204 -0.014818296 13.8946 13.18271 0.03965254 0.02022616
-0.13002555 0.0153366765 10.56507 -0.06645435 -0.040537108 -0.013954953 12.77357 -0.011292671
-0.1331785 13.031091 -0.1262948 -0.119852565 2.0251467 -0.13491811 8.931726 -13.506182
