trained_models/DQN2_28-08-2022__08-23-44/policy_net.pth_iter_750.pth (torch, 286081 bytes, 12 tensors)

network.0.weight f4 [128, 23]
000000 96 58 56 be 02 a2 3a 3e 4c 38 82 be 78 30 f0 bc
       -0.2093223 0.18225864 -0.25433576 -0.029319987
000010 6a c8 ae bd 11 79 19 be e1 c8 d0 bd 89 fe 2d be
       -0.0853432 -0.1498759 -0.101945646 -0.16991629
000020 af f5 03 be d9 01 8e 3d 68 4b e9 3d cd aa 52 bd
       -0.1288669 0.06933946 0.11391336 -0.05143242
000030 f6 5f 96 3d d2 96 16 3c c0 5b 61 be a1 0b f0 bc
       0.07342522 0.009191232 -0.22007656 -0.02930242
000040 10 9a ca 3d 27 8c 50 be 64 88 03 bd db e3 7b 3d
       0.09892666 -0.20365964 -0.032112494 0.061496597
000050 1d cd 09 bd fd fd bf bd 2f 2b ae bd 4f 30 03 be
       -0.033642877 -0.09374616 -0.0850433 -0.12811397
000060 be 46 2d be c0 79 91 bb c7 c6 31 be 14 6e 6b bd
       -0.16921517 -0.0044395626 -0.17360984 -0.057478026
000070 c8 cc b3 bc 6c 51 4a be b2 de fe 3d 60 43 19 be
       -0.021948233 -0.19757622 0.124448195 -0.14967108
000080 5c 51 54 3d d4 85 1e bd 40 0f bb bc 39 85 04 be
       0.051835403 -0.038701847 -0.02283442 -0.12941445
000090 cb c4 ec bd b4 2f 61 3d 41 2c d0 bd a3 e5 3f be
       -0.11560973 0.054977134 -0.10164691 -0.18739943
0000a0 82 16 e5 3d 00 58 01 ba 8a bd 96 bd 64 8e 3f be
       0.11185934 -0.00049340725 -0.073603705 -0.18706661
0000b0 3c 5a d0 bd bb 5f 50 3e c9 2b 20 be a3 c4 e8 3e
       -0.10173461 0.20349018 -0.15641703 0.45462522
0000c0 17 c7 16 bf 2d a8 8a 3e 8d 1a 6e bf c1 e6 99 3f
       -0.58897537 0.27081433 -0.93009263 1.2023546
0000d0 bd 4d d9 bd 64 cb 9b 3d dc 88 e0 be 85 87 b8 3f
       -0.106105305 0.07607153 -0.43854415 1.4416357
0000e0 f9 fb f5 bc d2 7f 1e 3e 2f 28 35 bf 87 0c 42 bf
       -0.030027376 0.15478447 -0.7076444 -0.75800365
0000f0 a8 f5 a4 3f 83 03 8a be 23 e6 41 c0 0a 39 2e be
       1.2887468 -0.26955804 -3.0296714 -0.17013946
000100 e5 36 a6 bc 2e fe c5 3d 2b b5 83 bf ee 7f 35 3e
       -0.020289848 0.096676216 -1.0289663 0.17724583
000110 3d 88 5f 3f 1d 41 16 be ed 7c 69 3c 83 68 89 3d
       0.8731726 -0.14673276 0.014250976 0.06709387
000120 16 d7 5b 3d 0b be d8 be 4d 22 49 be 33 13 8c be
       0.05367192 -0.4233249 -0.19641991 -0.27358398
000130 00 b9 55 be df 4f a6 3d ca 49 48 be b4 33 39 3c
       -0.20871353 0.08120703 -0.19559398 0.011303831
000140 7d 21 ba 3d b4 fd 02 be bb 90 8b be 21 fe 44 bd
       0.09088419 -0.12792093 -0.27258858 -0.04809392
000150 61 3d d2 3d 84 9c 6b be 50 f4 38 3e 63 47 a7 bb
       0.10265613 -0.23008925 0.18061948 -0.0051049455
000160 29 7f bc be e4 78 db 3d de eb 32 3d 7c 5a 0b be
       -0.36815766 0.107164174 0.04368197 -0.13608736
000170 e6 8a 48 bd 25 30 40 3f 84 d7 91 3d b0 d7 13 bf
       -0.04896059 0.7507346 0.071211845 -0.5775099
000180 f1 a3 24 40 36 88 be 3f 51 52 79 be 84 a4 8d 3f
       2.5725062 1.4885318 -0.24347807 1.1065831
000190 a7 c8 a2 bf b5 7c c3 3f f2 84 8c 3f fe b8 ab 3e
       -1.2717484 1.5272433 1.0978072 0.33539575
0001a0 49 b4 90 bf 40 f9 fd 3f d2 9e 35 3f 4b 27 99 3f
       -1.1305019 1.984169 0.70945466 1.1965116
0001b0 3e 7f 68 bf 7f be f1 3f 87 0d 4c c0 cb f7 f6 3e
       -0.90819156 1.888626 -3.1883256 0.48235926
0001c0 d7 b0 68 3f 53 58 83 c0 6d 7b bd bf e2 35 62 3f
       0.90894836 -4.104532 -1.4803292 0.8836347
0001d0 4b 6c e7 be 4a 7c ef 3f 5d 69 f7 3e d0 66 72 be
       -0.45199808 1.8709805 0.48322573 -0.23672032
0001e0 6b 2e 2c c0 8f 16 09 40 68 3b 11 40 27 c5 a4 3f
       -2.6903331 2.1420019 2.2692509 1.2872666
0001f0 79 b5 49 3f 11 97 ac 3f c1 0e e3 3f 1e c3 26 be
       0.7879253 1.3483602 1.7738878 -0.16285369
000200 3d ca 74 3f c2 5e 72 3f 5d 0d 10 c0 71 ec c1 3f
       0.9562109 0.9467584 -2.2508156 1.5150281
000210 52 a8 90 c0 ca 68 1c c0 14 7c 91 bd 66 bb 49 3f
       -4.520547 -2.4438958 -0.07103744 0.7880157
000220 6d 0a b1 3f 8a 3b 32 3e 34 e6 1d 3e 2b ae 4b 3e
       1.3831307 0.17405525 0.15419847 0.19890659
000230 8c e5 f4 bd b0 16 86 bf ff 54 1f be 44 b0 3f bf
       -0.11957845 -1.0475674 -0.15559767 -0.74878335
000240 22 73 f8 3e 0a 13 87 bf 28 77 28 3f 2b 94 a6 bd
       0.4852534 -1.0552685 0.6580682 -0.081337295
000250 0d 17 a2 3d d9 44 08 3f 0a 0d f3 bd ba 74 e1 3e
       0.07914553 0.53230053 -0.118677214 0.44034368
000260 4a b1 19 3e 8b ff 9e 3f 73 bf ea bf fc f2 1e c0
       0.15009037 1.2421736 -1.8339676 -2.4835806
000270 28 38 02 3f 4b 86 63 3e 68 20 be bf 59 40 eb 3e
       0.5086694 0.22219197 -1.485364 0.4594753
000280 12 11 08 3f 18 fd e6 bd eb 32 4d be 89 f6 d5 bf
       0.5315105 -0.112787426 -0.20038955 -1.6715862
000290 c4 af 1c 40 4d 24 16 3f d3 e8 74 3e cb d6 40 3f
       2.448228 0.5864914 0.2391694 0.7532775
0002a0 cf a6 69 3f 73 ae 38 3f 15 57 2e bf 16 86 fb be
       0.91270155 0.7214119 -0.68101627 -0.49125737
0002b0 c0 a3 e2 be 69 b9 87 3f a4 69 27 3f b0 85 a8 3e
       -0.44265556 1.0603458 0.6539557 0.32914495
0002c0 97 2d f0 c0 5e 8f 42 3f a5 06 8b be a8 51 87 3f
       -7.505565 0.7600001 -0.27153507 1.0571795
0002d0 3d 5c 26 3e ab d8 84 be b8 59 2c 3f e0 5f dc 3f
       0.16246124 -0.25946555 0.673244 1.7216759
0002e0 dd 1d ba 3e 13 2d 5a be 69 e7 83 c0 e1 7b 15 bf
       0.3635091 -0.21306257 -4.1219983 -0.5839215
0002f0 ac 16 ac bf 62 52 d6 c0 82 ca ee 3f 94 28 0d 3f
       -1.3444419 -6.6975565 1.865555 0.5514004
000300 46 5d ac bd 09 17 a5 bf 96 3b 9c 3f 0d 53 84 3f
       -0.08416228 -1.2897655 1.2205684 1.0337845
000310 11 88 d6 bf d8 c0 8f 3f 7b f9 e8 3f 56 20 2a c0
       -1.6760274 1.1230726 1.8201135 -2.6582236
000320 e2 3b de 3e 68 6c c7 3f f1 11 06 c0 da bf 1b 40
       0.43405062 1.5579958 -2.094845 2.4335847
000330 08 b5 d0 bf e1 c5 22 3f 69 4b fd 3e 89 35 5c 3f
       -1.6305246 0.6358319 0.49471596 0.8601919
000340 6b 6f f3 3e 41 32 7d c0 41 48 81 3f 3d eb 3f 3e
       0.47545943 -3.9561923 1.0100175 0.1874208
000350 5b 5c e2 3f db a0 61 bf 9e e3 57 3d 08 99 3a be
       1.7684435 -0.8813607 0.052707307 -0.1822244
000360 ca c3 92 3f 34 83 ed bd 04 98 69 bf e3 6a 05 bf
       1.1466 -0.11597291 -0.9124758 -0.5211622
000370 5e 41 3f 3f e6 ae 81 3f a7 93 8d 3e 79 67 8d 3f
       0.7470912 1.01315 0.27651712 1.1047202
000380 61 d7 40 c0 e0 97 9e bf a2 c0 37 bf 0a 47 ce be
       -3.0131457 -1.2390099 -0.7177831 -0.40288574
000390 cb 7f e2 bf 7a 58 ab c0 c5 ca 91 3e ae 1f a6 bf
       -1.7695249 -5.3545504 0.28475013 -1.2978418
0003a0 15 a2 36 c0 a9 6b 11 3f 01 fa b7 bf 31 3f 91 3f
       -2.8536427 0.568049 -1.437317 1.134741
0003b0 45 36 fb bf 5c 27 00 3f df 25 46 bf 74 20 cc 3e
       -1.9625937 0.5006006 -0.77401537 0.3986851
0003c0 e8 68 3c 3e ad 29 62 3d b7 c3 45 bf 56 95 20 be
       0.18399394 0.055215526 -0.7725176 -0.15681967
0003d0 67 95 7f 3f ee 1c 2c bf f4 a0 17 40 3b 6d ee 3f
       0.99837345 -0.67231643 2.3691988 1.8627084
0003e0 82 88 17 40 c7 da a3 3f d6 5d ef 3f 44 e2 e6 bf
       2.3677068 1.280114 1.8700511 -1.8037801
0003f0 93 5c 37 40 2d 2d 20 3f aa 79 a4 bd 4f 9f 95 3f
       2.8650253 0.6256893 -0.08031018 1.1689242

network.0.bias f4 [128]
000000 f6 3f 5e be 0f b4 2a be 26 37 89 3f 87 a7 7c be
       -0.21704087 -0.1667025 1.0719955 -0.24673282
000010 65 98 ba 3f d7 71 46 40 28 fc 9d 3e 29 a3 46 bd
       1.4577757 3.1006982 0.30856442 -0.048495445
000020 84 7a 30 bf 41 b6 c9 be 04 69 86 3e 51 d8 ca be
       -0.68936944 -0.3939686 0.26251996 -0.3961816
000030 af 7f d2 bd 53 db ac 3f 29 4e f9 3f a0 a1 d3 bc
       -0.1027826 1.3504432 1.9476978 -0.025833905
000040 01 91 30 3e 76 22 c3 3f 72 53 3e 3f 5d 60 95 be
       0.17242815 1.5244892 0.7434608 -0.29175082
000050 4f ca 09 40 06 4d 1a be a4 69 0e be a3 95 95 3f
       2.152973 -0.15068445 -0.13907486 1.168629
000060 0a 19 b2 be 1c 91 06 3e 3a 0d 03 be c0 24 69 3f
       -0.34784728 0.13141292 -0.12798014 0.910717
000070 82 3c ad 3f fb 1b aa 3e 33 d3 02 bd 9e 47 83 be
       1.353409 0.33224472 -0.031939697 -0.25640577
000080 1a 00 90 3f 40 fe eb 3e 77 9d 80 3f 07 10 78 3f
       1.1250031 0.46092415 1.0048054 0.96899456
000090 45 75 0e 3f 4b 55 a6 3e ae f7 93 3f 35 bc 8f bd
       0.5564769 0.32486948 1.1559961 -0.070183195
0000a0 e8 31 0a bf df 96 15 bf 7d 3f a9 bd 8a 44 96 be
       -0.539824 -0.58433336 -0.082640626 -0.29349166
0000b0 42 4e ac 3f 9f ae 54 40 03 44 e7 bd 22 3b d2 bc
       1.3461382 3.323158 -0.11292269 -0.025662962
0000c0 5a 0a 80 40 d7 a8 e2 bd db 90 a5 3f d2 d4 56 be
       4.0012636 -0.1106736 1.2934831 -0.20979622
0000d0 82 eb a7 3f 82 73 0f 3f a6 f5 d9 be e3 3a d0 3e
       1.3118746 0.56035626 -0.42570227 0.40669927
0000e0 9f 3d 17 bf ce 87 88 be ad e4 aa bf 8b da 6d bf
       -0.590784 -0.2666611 -1.3351036 -0.92911595
0000f0 46 34 66 3f 2f c5 b8 3e 15 18 d7 3c d2 c9 83 bf
       0.8992351 0.3608794 0.0262566 -1.0295966
000100 10 e3 90 3f 35 e6 96 be 09 1f e3 3e d3 6e 7f 3f
       1.1319294 -0.2947251 0.44359615 0.9977848
000110 78 81 b1 3f 18 6e 56 3f ea ee a6 3f 34 01 ef 3f
       1.3867636 0.8376174 1.3041661 1.8672242
000120 56 1f 58 3f ce c3 c1 3f 01 85 16 be d1 71 fe 3f
       0.84422815 1.513788 -0.14699174 1.9878484
000130 bc cd aa 3e 24 51 03 3f d4 dc cc be 37 49 58 3f
       0.33360088 0.51295686 -0.40012228 0.84486717
000140 be 44 5e 40 80 ea c5 bd b4 9d 29 3f a6 c9 8b 3b
       3.4729457 -0.09663868 0.6625626 0.0042659817
000150 5f e2 09 3d 8f be 77 3e 34 f8 55 be 82 d4 b5 bd
       0.03366315 0.24193786 -0.20895463 -0.08878423
000160 35 20 75 be 9a b4 ca 3e 98 99 ef 3f b4 66 54 3f
       -0.23938067 0.39590913 1.8718748 0.8296921
000170 d2 03 06 3f 9a 86 ec bd 0a b0 29 3e 96 58 a6 3e
       0.5234958 -0.11549111 0.1657106 0.3248946
000180 19 d5 5d be 27 4e 88 3f 9d 8f ba bc 94 e0 35 be
       -0.21663322 1.064885 -0.022773558 -0.17761451
000190 39 22 da be 2b f7 f2 3e 93 76 01 be 7d 87 0c 3e
       -0.42604235 0.474542 -0.12642889 0.1372356
0001a0 56 65 79 3e 34 bb 2f 3e e8 16 ae 3d 08 b0 d2 bd
       0.24355063 0.17161256 0.08500463 -0.102874815
0001b0 5b b2 0f bf c7 63 0d be 4c aa 96 3f 15 25 3c 3f
       -0.56131524 -0.13807593 1.177072 0.7349408
0001c0 ed 7f be 3f dd 16 10 3f 0f 26 54 3e 85 5c a5 be
       1.488279 0.56284887 0.20717643 -0.3229715
0001d0 7a f2 3f bf 62 f7 e4 be 8d d2 28 3d 7d 52 90 be
       -0.74979365 -0.44719988 0.041216422 -0.28187934
0001e0 7c f7 bf bc 2a b2 83 bd 0f 0c bf 3e 4f 4f 49 3f
       -0.02343344 -0.064304665 0.37313887 0.7863664
0001f0 c2 b0 87 bd a4 01 36 be a3 46 36 bf d8 78 84 be
       -0.06625511 -0.17774063 -0.71201533 -0.25873446

network.2.weight f4 [128, 128]
000000 54 94 a1 bc b6 30 7e 3d bf 21 02 be bf b6 a9 bd
       -0.019724049 0.062058173 -0.12708186 -0.08286809
000010 02 bf bc bd 0e f3 8b bd a8 ea 16 bd 45 c4 9b bd
       -0.09216119 -0.068334684 -0.03684488 -0.07605795
000020 2f 7a ec bd a0 8d 8b bd e1 af 21 bd fb 52 90 bd
       -0.11546742 -0.06814122 -0.03947437 -0.07047077
000030 78 8d 94 bd 14 e1 25 bd 6e 08 37 bc ed 59 04 bd
       -0.072535455 -0.040497854 -0.011171443 -0.032312322
000040 47 c8 37 3d 45 f9 04 be 5a 3f e0 bd 33 0e e1 bd
       0.044868734 -0.12985714 -0.10949583 -0.109890364
000050 19 a9 68 bd a4 60 d0 bc bc 88 c1 bc d4 a4 fd bb
       -0.05680189 -0.025436707 -0.02362477 -0.0077405963
000060 bc 8c a5 bc 86 17 74 3c 63 57 a1 bd a6 15 65 3d
       -0.020208709 0.014898187 -0.07877996 0.05592885
000070 e9 1f d5 3c b2 bd e0 bb 64 f2 81 bd ab d7 37 bd
       0.026016193 -0.006858551 -0.063450605 -0.04488341
000080 fa 5f 81 bd 79 76 26 3b de 18 80 bd bf 33 69 bd
       -0.06317134 0.0025400205 -0.06254743 -0.056934115
000090 50 c2 ce 3b 99 ca 8d 3d cc ab e1 bd 10 d1 d8 bb
       0.006309785 0.06923408 -0.11019096 -0.006616719
0000a0 54 d7 88 bd 96 99 1b bd 40 38 e4 3c 3d 1f 20 bd
       -0.066816956 -0.037988268 0.027858853 -0.03909229
0000b0 ef 1f e2 bc 41 e6 f3 bc d1 b0 0e bd 6b 29 4f bd
       -0.027603118 -0.02977288 -0.034836594 -0.05057661
0000c0 24 e7 ef 3c 66 2d 79 3d 16 b1 e5 bc 12 74 2c 3c
       0.029285021 0.06083431 -0.028038543 0.01052572
0000d0 bf 2c 4e bd 8d 00 36 3d f0 5e d1 3c 73 00 e0 bc
       -0.050335642 0.04443412 0.025557965 -0.027343964
0000e0 df c1 9c bc 5d 77 ad 3d a1 9c 81 bd a2 1e 87 3c
       -0.019135414 0.08470032 -0.06328703 0.016494099
0000f0 fe 66 a6 bd 92 ed 7f 3d f3 1e 0c bd 20 78 62 bd
       -0.08125113 0.062482424 -0.034209203 -0.05529034
000100 c6 45 17 bd 8c b3 97 bc c0 63 d3 3c 5e 83 c5 bd
       -0.036931776 -0.018518232 0.0258044 -0.09644197
000110 7d f8 a1 bd ed 4b 03 3d 2e 2f 6d 3d ea f4 91 bd
       -0.079087235 0.03205483 0.057906322 -0.07126792
000120 40 e8 d2 bc 44 1d 94 bc 12 47 0a bd 0e 13 06 3d
       -0.025745511 -0.018080361 -0.033759184 0.032733016
000130 e4 ea ca bd 7e 7e 2f 3d b9 ea c2 3c f9 bb 9c bd
       -0.09908083 0.04284524 0.023793565 -0.076530404
000140 85 b6 15 be d9 f3 83 3d 29 56 3c 3b ee d9 61 3c
       -0.14620407 0.064429946 0.002873788 0.013784869
000150 64 af 9a bd a4 f2 a4 3c dc 2b 9d bd a9 60 8c 3d
       -0.07552984 0.020135231 -0.07674381 0.06854374
000160 0f ed 7a 3d a1 f0 56 3c 09 9c 8b 3d 48 5e 43 3d
       0.061261233 0.013118894 0.06816871 0.047697335
000170 3b 53 8d 3d 98 da 96 bc 36 74 b1 bd 1b a3 41 bd
       0.069006406 -0.01841478 -0.086647436 -0.04727469
000180 c7 93 de bd 3e 8c 04 be 3b 53 e0 bd 58 3f 56 bd
       -0.1086803 -0.12944123 -0.10953375 -0.052306503
000190 90 50 5f 3d 91 1a c4 3c a0 8b 93 3c 8f 2d e5 bd
       0.05452019 0.02393845 0.018010914 -0.1119033
0001a0 16 0c 73 bc 6b d0 79 3c ca c3 e6 bc 74 54 a3 3c
       -0.0148344245 0.015247445 -0.028169531 0.019937731
0001b0 e3 78 90 bd 44 8e 2e bd d0 7d 4e bc c9 8f 01 be
       -0.07054307 -0.042616144 -0.012603238 -0.12652506
0001c0 c0 3c 9b 3a 96 ee 56 bd 22 4c 98 3c c7 80 cc bd
       0.0011843666 -0.052473627 0.01859099 -0.099855
0001d0 d9 59 eb bd b8 f4 eb bd b8 7c 2e bc b3 a9 8f bd
       -0.114917465 -0.11521286 -0.010649852 -0.070147894
0001e0 fa a9 22 3d 7a 39 3e 3d f4 0e e9 bd 59 fa fc 3b
       0.039712884 0.046441533 -0.11379805 0.0077202735
0001f0 a4 3d 1e 3c df 07 68 bd a2 7a f6 bd 2e 0a 68 3d
       0.009658251 -0.05664813 -0.12035109 0.056650333
000200 1d d5 8b bd 98 58 10 bc 92 af 5e 3d 40 21 83 bc
       -0.068277575 -0.008810185 0.054366656 -0.016007066
000210 bc b9 7a bd 60 21 3e 3c 96 a9 7e bd 9e ff 8c bd
       -0.061212286 0.011604637 -0.06217345 -0.068846926
000220 af 9f 86 3d 9c 7c f4 bc da bb 34 bd 2a cf e9 bc
       0.06573426 -0.029844575 -0.04412446 -0.028541166
000230 20 fb b3 3c 97 6f ba bc f9 58 ad bc d0 a6 e4 3c
       0.021970332 -0.022758288 -0.02116059 0.027911574
000240 2b 5c d3 bb 60 64 55 bd 1a 1a 1e 3d 40 2b 80 bb
       -0.0064501963 -0.05209768 0.03859911 -0.003911406
000250 5c 36 cf bc d1 26 80 3d 35 be ab 3d d2 90 eb bd
       -0.025294475 0.06257404 0.083858885 -0.11502232
000260 c9 61 b4 bd 5e 45 1a be 60 c8 08 3c 78 bb e5 3c
       -0.088077135 -0.15065524 0.008348554 0.028043494
000270 e6 77 e0 bd bd 14 17 bd 2d ed de 3c 30 d0 ab bc
       -0.10960369 -0.036885012 0.027212704 -0.020973295
000280 12 69 29 bc 46 73 a1 bb f3 dd 59 3a 8c aa ec bc
       -0.010339992 -0.0049270717 0.0008310966 -0.028889917
000290 a0 67 ce 3b 71 92 bc 3c ce 41 21 3d 18 0f a8 3c
       0.006298974 0.023019047 0.039369397 0.02051501
0002a0 14 c0 f7 3c ad 92 75 bb f0 8e 9b bb 4a 48 03 bd
       0.030242957 -0.0037471459 -0.004747264 -0.032051362
0002b0 f0 1c 07 3d 69 24 c2 bd 34 37 c5 3c b5 e8 df bd
       0.03298658 -0.09479601 0.024074174 -0.10933057
0002c0 6c eb 08 be b7 f8 a5 bd f1 b5 9f 3c 6d da 97 bd
       -0.13371056 -0.08104079 0.019495936 -0.07414708
0002d0 10 2d b3 bc de 4c 42 3d 28 b5 7a bd ac 19 0d be
       -0.021872073 0.047436588 -0.06120792 -0.13779324
0002e0 4f 12 78 bd c4 ae d3 bc a4 58 6c bd 6a 96 8f bd
       -0.060564335 -0.02584017 -0.05770172 -0.07011111
0002f0 22 e0 c8 bd fd 60 82 bc a1 75 25 bd 7f d9 1f bd
       -0.09808375 -0.015915388 -0.040395383 -0.03902578
000300 2e 39 e7 3c 52 5e dd bd 0e 8f 04 3d ed 4b 24 bd
       0.028225508 -0.10809006 0.03236299 -0.04011147
000310 22 7e 6c 3d 77 4c 80 3d ad f1 00 3b 44 8c 85 3c
       0.057737477 0.062645845 0.00196753 0.016302235
000320 4b 07 23 bd c1 68 2e bd b5 18 3d bd 3b a7 95 bd
       -0.039801877 -0.04258037 -0.04616614 -0.07307287
000330 25 31 d5 bd 72 5f bb bd 1c 55 c3 bd 38 20 d0 3c
       -0.10409764 -0.09149064 -0.09537718 0.025405988
000340 28 1d b7 bd ab 9f 8c bd 10 fd d8 bc 82 d4 d4 bc
       -0.08941108 -0.06866392 -0.026487857 -0.025980238
000350 22 19 a7 bd 27 05 98 bd 50 f3 4b 3b 38 c9 9e bd
       -0.081590906 -0.07422858 0.0031120367 -0.07753223
000360 22 b8 97 3c e4 74 e5 3c f6 df 7a 3d da f9 cc bc
       0.018520419 0.02800984 0.061248742 -0.025021482
000370 bc 7a a7 bc 40 e5 49 bc 34 ec b0 bc 30 03 9c bd
       -0.020444266 -0.012322724 -0.021597005 -0.076177955
000380 01 69 03 bd 2c 68 99 bd 91 35 ce 3c 21 79 b1 3d
       -0.03208256 -0.07490572 0.025172027 0.08665682
000390 b0 9f c7 3c 84 9f f6 3c 7f 2b 91 3d 3d 39 0d bc
       0.024368137 0.03010536 0.07088374 -0.008619604
0003a0 5f 5a 89 bb 5c 47 f1 bd 9c 79 69 bd a0 64 e9 bc
       -0.0041916813 -0.11781189 -0.05700074 -0.028490365
0003b0 56 7b 79 bd 5e 9b 3b bd 60 cd 85 bd 6d 08 e5 bd
       -0.060908638 -0.045802467 -0.06533313 -0.11183248
0003c0 ae 73 8c bc dc 4a a8 bc 24 db bb bd 1a 2c 29 3d
       -0.017145004 -0.020543508 -0.09172657 0.041301824
0003d0 6e 22 7c 3d c2 04 52 3c 10 e1 94 bc cc 51 60 3b
       0.061556272 0.012818517 -0.018173724 0.0034228442
0003e0 ba df 23 3d 0f 3b b1 3d 91 4f 66 bd 72 df 88 bd
       0.040008284 0.08653843 -0.056228224 -0.06683244
0003f0 34 e7 a6 bd b6 dd 8b bd 06 ef 4c bd d8 db 0a bc
       -0.08149567 -0.068293974 -0.050032638 -0.008475266

network.2.bias f4 [128]
000000 1b fd c7 bd 2b 83 14 be 8a 50 bb bd a8 04 52 bc
       -0.09765073 -0.14503162 -0.09146221 -0.012818493
000010 75 0c da bc 96 b8 ee bd af d6 8c bd 68 9b af 3f
       -0.026617268 -0.11656301 -0.06876885 1.3719301
000020 87 e8 df bd 49 e5 09 be 0c 87 99 bd 60 dd 8f 3f
       -0.10933023 -0.13466372 -0.07496461 1.1239433
000030 3f 30 0d bd 41 88 73 be 3f 93 1b bc 81 77 65 3f
       -0.03446984 -0.23782445 -0.009495555 0.89635473
000040 18 79 e2 3c ac 20 76 bd a2 4d c5 3d f4 18 9c bd
       0.027645633 -0.060089752 0.09633948 -0.07621947
000050 f2 06 31 bf 8f 8f 00 3d ed 85 f6 bc a5 58 35 3c
       -0.6915122 0.03138691 -0.030093158 0.011068498
000060 1d 5c bb 3e 03 45 ee 3f ff d0 c3 bd d2 c5 25 3c
       0.36593714 1.8614811 -0.09561347 0.010117965
000070 89 e9 dc bd 58 7e fa bd 2a ca f4 bd 04 7e 7b 3f
       -0.10786731 -0.122311294 -0.11952622 0.9823916
000080 20 32 de 3f 34 59 34 3f e9 2b d0 3b ee c3 e3 be
       1.7359047 0.70448613 0.0063528907 -0.4448542
000090 71 e9 1f 3c 70 67 45 3e 9a 4b ef bd 89 ba 19 3f
       0.009760247 0.1927774 -0.11684342 0.60050255
0000a0 f3 f7 c5 bd f5 93 20 bd 56 68 21 bc 40 90 69 3f
       -0.09666433 -0.039203603 -0.009851536 0.91235733
0000b0 3e 65 c3 3e d5 41 92 3c f6 5b 8b 3f 2f a0 db bd
       0.3816318 0.017853657 1.0887439 -0.10723912
0000c0 9c 0f 4a 3f f8 39 15 40 34 be 87 be 5b 03 c1 3e
       0.7893007 2.3316631 -0.265123 0.37697873
0000d0 2b 36 c5 bd 35 c6 ae 3f f7 7d 44 3d a7 33 d1 bd
       -0.09629472 1.3654238 0.047971692 -0.1021493
0000e0 ce 67 63 bd 2c 76 cc 3f 62 d6 77 40 48 48 05 3f
       -0.055518918 1.5973563 3.87246 0.5206342
0000f0 b3 a1 36 39 6a d6 39 bd 05 ab 0e 3c 64 44 91 bd
       0.0001741711 -0.045370497 0.008707766 -0.070931226
000100 ce be 76 3f 5c 48 34 bd 6a 7f 08 3f 6a a1 ca bc
       0.96384895 -0.04401432 0.5331942 -0.024735171
000110 a2 95 8b 3f 84 b7 9e bd 18 5c 39 3f f0 91 39 bf
       1.0905039 -0.077498466 0.7240615 -0.7248831
000120 df 36 54 3f a7 45 fa 3e 82 7e 79 3f 8c 99 bf bd
       0.82896227 0.48881266 0.9745866 -0.093554586
000130 a3 ff d8 3f 98 e0 b1 3f c7 2b c7 bd 5b 4a e9 3f
       1.6953014 1.3896666 -0.09725147 1.8225816
000140 6e ee db bd d0 51 b9 3e f0 3d 6f 40 70 65 90 bd
       -0.10738836 0.3619523 3.7381554 -0.07050598
000150 08 4d 9c be 5d 29 83 bd 34 36 cb 3f 66 8d 31 bd
       -0.3052752 -0.06404374 1.5875916 -0.04334774
000160 4d ff 8a ba c5 b1 c7 bb 44 a9 bb 3f 89 87 97 bd
       -0.001060465 -0.00609419 1.4661031 -0.07398898
000170 1d 27 1d be 7d 4d ef bd 1b 1d 88 3e 12 0e e7 bd
       -0.15346952 -0.116847016 0.26584706 -0.112819806
000180 48 f3 74 3f 7f 9d 8a bd 43 50 e3 bb 99 e2 33 bd
       0.9568372 -0.06768321 -0.006937058 -0.043917272
000190 f3 01 20 3d 0d 35 21 bd e4 70 87 3f 58 12 0b be
       0.03906436 -0.039357234 1.0581326 -0.13581216
0001a0 93 7e 5d 3f 77 f9 f7 bd 4a 4e e1 be 15 ef 00 be
       0.8652126 -0.121081285 -0.44005042 -0.12591203
0001b0 d0 40 a4 bf b1 a1 ef 3f d1 51 ef bd d4 a8 a2 3f
       -1.2832279 1.8721219 -0.11685527 1.2707772
0001c0 25 6c ee 3e 8d 03 05 be 69 2f a4 3f 4f 86 49 3f
       0.46566883 -0.12989636 1.2826968 0.78720564
0001d0 f0 4a 14 40 0a 38 03 be fa 25 38 3f 97 0f 10 be
       2.3170738 -0.12814346 0.7193295 -0.14068447
0001e0 65 7b d3 bd 17 57 27 bd bf 70 79 3d c8 a6 68 bd
       -0.1032627 -0.04085454 0.06089854 -0.05679968
0001f0 28 cf 02 be ac 2e da bd 2e 74 df bc de 67 db 3f
       -0.12774336 -0.10653433 -0.027277078 1.7141073

network.4.weight f4 [128, 128]
000000 b7 55 88 bd 11 39 12 bd 63 b6 d5 bd 4b 61 5f 3d
       -0.06656974 -0.035698954 -0.10435178 0.054536145
000010 67 42 9c 3d d0 ee 9c 3c e9 c0 95 3f 7b 55 db 3f
       0.07629853 0.019156843 1.1699497 1.7135462
000020 5a f9 67 bd 3c 77 19 c0 59 87 a8 bb 45 e4 05 40
       -0.056634285 -2.3979025 -0.005143088 2.0920575
000030 12 39 f1 3c 74 c3 e1 3f 5f c4 f6 3d 7f 75 15 bf
       0.029446159 1.7637773 0.120491736 -0.5838241
000040 7b bb a2 bc 1b 23 84 3d b7 da 1c 40 2d f9 2a 3c
       -0.019864788 0.06452008 2.4508493 0.010435385
000050 18 42 4a bf 01 93 c5 3b 5b bf 9e 3d c8 61 03 3e
       -0.790071 0.006029487 0.07751342 0.1283027
000060 da 90 13 40 e3 d3 b0 bf b1 24 c5 bd bd 37 54 40
       2.305716 -1.3814663 -0.09626139 3.315902
000070 fa 62 07 bb 29 d5 9d 3d 75 7b 7b bd 2c 94 7f 40
       -0.002065836 0.07706673 -0.061397035 3.9934187
000080 4b 79 d9 be 59 37 ed 3f 0e ec 3a 3d 8b d9 45 3f
       -0.42475352 1.8532516 0.045635276 0.7728507
000090 1d ce f6 bd 7c 95 91 be 54 a7 8d bc 7a d1 6b 3b
       -0.12051032 -0.2843436 -0.017291702 0.0035983012
0000a0 40 3c 1e 3d bf c3 b0 3d c7 21 c6 bc 00 d2 eb 3f
       0.038631678 0.086310856 -0.024186028 1.8423462
0000b0 5c 1e a1 3f 96 02 be 3c 80 38 ca be 2a e7 84 3d
       1.258739 0.023194592 -0.3949623 0.064894035
0000c0 1a 19 94 3f 3b 5e b7 3f 77 a8 23 40 39 af 87 bf
       1.157016 1.4325632 2.5571573 -1.0600349
0000d0 f7 47 0c bd b4 20 83 3e e1 b0 24 bc 68 ab ae 3c
       -0.03424832 0.25610888 -0.010051937 0.021321967
0000e0 da 76 5a bc ff 23 6d 3f 9e ab 32 3f c8 ea 85 3f
       -0.0133340005 0.9263305 0.6979312 1.0462275
0000f0 62 4a b0 bd f9 df 18 bd 98 e9 e9 3d 70 0b e5 3d
       -0.086079374 -0.037322972 0.114215076 0.11183822
000100 b9 db 5d 3f 92 bf 2e bd be 56 2d 40 62 ef bc bd
       0.86663395 -0.042663164 2.7084193 -0.09225346
000110 9f 96 93 3f 24 f9 eb bc 60 81 10 3f f8 30 2c 41
       1.1530341 -0.028805323 0.5644741 10.761955
000120 80 5c 01 40 9c 09 0b 40 01 96 8d 3f 38 53 62 bc
       2.0212708 2.1724615 1.1061403 -0.013813786
000130 20 a0 d6 3f 70 dd ac bf d0 d6 4e 3d 68 44 1e 3f
       1.6767616 -1.3505077 0.05049783 0.6182313
000140 d9 62 29 bd 6b 97 a5 3f d4 6d 1a 3f cb 92 4e 3d
       -0.041354034 1.2936834 0.60323834 0.05043296
000150 4a 1a b2 bf 39 78 5f bc 75 de 01 c0 d7 38 ab bc
       -1.3914273 -0.013639503 -2.0292027 -0.020901127
000160 0d 42 85 bf 07 80 d1 bc 7e 5c 00 bf 48 26 0f bd
       -1.0410782 -0.025573744 -0.5014113 -0.034948617
000170 b6 f4 0d 3d b8 f2 0a bd bb 2d ab 3f 67 71 1d 3d
       0.034657203 -0.03392288 1.3373331 0.038438227
000180 13 a9 bc 3d b4 c5 33 3d 22 1c 5d bd 5c 57 09 bd
       0.09211936 0.043889716 -0.053981908 -0.033530578
000190 af a7 e9 bd 19 82 2f bd f5 05 3f 3f 4c 86 5a bf
       -0.11408936 -0.04284868 0.74618465 -0.8536117
0001a0 79 1e dc 3f 19 ca c1 bc f4 45 ca 3f f7 77 30 3d
       1.71968 -0.023655938 1.5802598 0.043083157
0001b0 3b 54 fc 3f 72 75 dd 3f 4c 31 a9 3d 05 c8 19 3d
       1.9713205 1.7301466 0.08261356 0.03754427
0001c0 c1 f1 d6 3f 88 b3 39 3d 9d 8f be bf 56 32 16 3f
       1.6792527 0.04533723 -1.4887577 0.58670557
0001d0 51 63 8c 3e 1d 53 8c bf 1b b3 36 3f fa f9 a9 bd
       0.27419522 -1.0962864 0.71367043 -0.08299632
0001e0 94 fe 0c bd a3 b0 08 be 2e ab a2 40 d2 1f dd 3d
       -0.034422472 -0.13348632 5.083396 0.10797085
0001f0 73 c7 4a 3d 67 eb cc bd 85 5d 28 40 e9 5c 00 3d
       0.049506616 -0.10005837 2.630708 0.031338606
000200 1f 60 a1 3d 26 2a 94 bd 78 ac 6a 3d f5 93 6a bc
       0.07879662 -0.07234602 0.057293385 -0.014317502
000210 30 19 c9 3d da 45 43 bc 41 7c 64 40 1e 5c 61 3f
       0.09819257 -0.011918509 3.5700839 0.88031185
000220 a3 f9 50 3c b1 35 a9 c0 0d 17 18 be 7a 85 07 c0
       0.0127548305 -5.287804 -0.14852543 -2.1175218
000230 ed 6a b9 3d b0 3b 80 bf 3b 22 60 3d 1f b1 12 40
       0.090535976 -1.0018215 0.054720145 2.2920606
000240 70 e9 63 bd 2c b4 c4 3d 94 d9 8a bd 0a 7c 2b 3d
       -0.055642545 0.096046776 -0.06779781 0.04186634
000250 35 eb 63 40 2f 28 e0 bd 2a d9 80 3b 7e 4a 45 c0
       3.561231 -0.109451644 0.003932138 -3.0826716
000260 c4 8a ea bf a3 06 81 c0 e0 90 2b bd 4d c8 82 c0
       -1.8323598 -4.03206 -0.04188621 -4.086951
000270 49 d6 60 bd ba 17 06 3c 2c 15 59 3d 3a 02 d9 bf
       -0.05489186 0.008184368 0.052998707 -1.6953804
000280 82 a5 5c 3f 4e 40 81 c0 b3 e2 8f 3d 86 77 64 c0
       0.86190045 -4.0390997 0.07025661 -3.5697951
000290 d6 17 8b bd 95 b2 2c 40 f6 1d bc bc 00 13 4a c0
       -0.06791656 2.6983998 -0.022963505 -3.1574097
0002a0 82 2e 05 3d 05 19 2d bd c2 91 bf 3c cd 59 c3 3e
       0.032515056 -0.04226019 0.023384932 0.3815445
0002b0 76 e9 ec c0 e9 59 31 bd 90 bb 1c c0 a7 63 a6 bd
       -7.4034986 -0.043298636 -2.448948 -0.08124476
0002c0 53 9a c0 3f 6e 1c 21 bf c1 54 9c bf d3 47 a0 bf
       1.5047096 -0.62934005 -1.2213365 -1.2521919
0002d0 5f 14 57 bd d4 e6 37 c0 9f 73 6a bd 8e 98 e2 bd
       -0.05250966 -2.8734636 -0.05723917 -0.11064254
0002e0 d7 19 58 3d 31 76 44 c0 0c 6e eb 3f ae c8 f0 bf
       0.052759018 -3.0697138 1.8392959 -1.8811243
0002f0 12 16 b2 3c 23 6c 7f bc cc 89 d0 bc be 56 16 bd
       0.02173904 -0.015589747 -0.025456332 -0.036703818
000300 ec 33 f2 3f 96 51 90 bc 31 64 2c c0 f0 4d 70 3b
       1.8922095 -0.017617028 -2.6936152 0.0036667548
000310 ed fa d6 3f e9 f2 90 3d 3d 35 13 c1 f5 b2 09 40
       1.6795326 0.070775814 -9.200498 2.1515477
000320 06 26 42 c1 b7 96 56 bf eb aa f1 3f 8f 6e ed 3c
       -12.134283 -0.8382372 1.8880285 0.028983383
000330 21 6d 92 c0 53 b8 2c c0 b8 5f e8 bc 86 45 3d bd
       -4.5758214 -2.6987503 -0.028365955 -0.04620888
000340 2e 42 45 3d c0 69 bf bf c2 30 ad 3f be d6 98 3d
       0.048158817 -1.4954147 1.3530505 0.07462834
000350 05 23 46 c0 b5 cb 58 bd 94 e0 2b 40 52 ed 89 bc
       -3.0958874 -0.052928645 2.6855822 -0.016836796
000360 17 76 81 c0 e3 63 f3 3c 3d 64 9c 3f ce 7b f4 bc
       -4.0456653 0.029710716 1.221809 -0.02984419
000370 c8 d9 68 bd 4a c6 ca bd 47 78 4b 40 4a 0a 7f 3c
       -0.056848317 -0.09901102 3.1792161 0.015566418
000380 d7 15 23 c1 48 6d 9e 3d d7 61 5b bd 00 ea b2 3d
       -10.192832 0.077356875 -0.053560104 0.08736038
000390 d9 90 c8 bd fc 8f 26 3d 35 44 64 40 3c d4 6c bf
       -0.097932525 0.040664658 3.566663 -0.92511344
0003a0 0f a6 14 c0 b8 ac f2 bd 10 87 d8 3e 3c ce 1d bd
       -2.3226354 -0.1184935 0.42290545 -0.03852676
0003b0 42 f8 41 c0 73 b0 9a bf 65 31 12 3d 6c ac 57 c0
       -3.0307775 -1.2085098 0.035691638 -3.3698988
0003c0 1a 6c 33 c0 24 1f 8f 3d 84 65 f7 3f b7 7a c3 3f
       -2.803473 0.069883615 1.9327855 1.5271825
0003d0 50 99 49 be 0b 6a bb 3f 0d 46 9d be 1d e0 6a bd
       -0.1968739 1.4641737 -0.30717507 -0.057342637
0003e0 03 f3 a0 bd bc 3f 95 bd a8 d0 88 3f 0b f5 e6 bc
       -0.07858851 -0.07287547 1.0688677 -0.028193017
0003f0 8a 2c 8a bf d6 46 87 bd a7 94 3f c0 c2 6f 2d c0
       -1.0794842 -0.06605308 -2.993448 -2.7099462

network.4.bias f4 [128]
000000 67 cc bd 3f c0 7d a3 3e 55 03 f2 bd a6 2b 94 40
       1.4828004 0.31931877 -0.11817042 4.630328
000010 9a 68 3a bd ee 6b 49 3d 7b 38 1e be 4c d6 00 3f
       -0.045509912 0.049175195 -0.15451233 0.5032699
000020 cc ca e1 3f e7 aa 93 bd 56 83 48 3d de 7a ed bd
       1.7640014 -0.072103314 0.048953377 -0.11595701
000030 7a 33 a7 3f 79 e6 39 3c 8b 16 b1 bd cd 2f 25 bd
       1.3062584 0.011346453 -0.08646878 -0.04032879
000040 39 0c 14 40 0e a6 0a be b8 99 03 3f 98 c8 29 c0
       2.313246 -0.13539907 0.5140643 -2.6528683
000050 3e 19 3e 40 4e de ed bb 09 6c ba bd 46 09 14 bd
       2.9702907 -0.007259167 -0.09102637 -0.036141656
000060 7f 83 c9 3f b1 d4 a9 3f dd 26 17 c0 0d b6 21 3f
       1.5743254 1.3268033 -2.361747 0.6316841
000070 f8 56 30 3d 2a 59 e8 3f cc 8a c6 bd 80 41 f3 be
       0.04305169 1.8152211 -0.09694442 -0.4751091
000080 14 70 4a bf 89 fa e8 bd 0c 7d 90 3f 92 a6 5f 3e
       -0.7907727 -0.11375911 1.1288161 0.21840885
000090 e9 d5 44 3e 2f 51 95 be 13 16 da bd 61 9a c4 bd
       0.19222225 -0.291635 -0.106487416 -0.09599758
0000a0 40 9b 72 bd 92 43 d5 bd 80 e9 53 3d eb 01 9f bc
       -0.05923009 -0.10413279 0.051736355 -0.019410094
0000b0 6e 30 65 bf 26 7f fc 3f e0 94 a0 3e bb c3 b2 3e
       -0.8952702 1.9726303 0.31363583 0.34914955
0000c0 84 07 88 40 02 3b db 3e 10 4b 13 be e1 21 a2 bd
       4.2509174 0.42818457 -0.14384103 -0.07916618
0000d0 74 6a dd bb 40 4a 8a 3f f4 f9 03 3c a3 28 ec 3c
       -0.006757075 1.0803909 0.008055199 0.02882797
0000e0 f3 be 98 3f 65 74 aa 3f a7 3d 80 ba e9 2f cc 3e
       1.1933273 1.3316771 -0.0009783999 0.39880303
0000f0 ed 64 19 3e 70 89 1c bf 68 45 45 40 f4 c0 57 bd
       0.14979906 -0.61147213 3.0823612 -0.05267425
000100 27 fa 57 3c 7c f9 07 bc 3f 41 18 3e 9c 43 04 3f
       0.0131822 -0.008299228 0.1486864 0.51665664
000110 e1 90 d0 3f f9 66 50 bd 59 b6 0e 3f fb d2 98 3f
       1.6294214 -0.050879452 0.5574699 1.1939386
000120 b4 18 03 be 85 72 f6 bd 46 4d 02 be eb fc c9 bd
       -0.12802392 -0.120335616 -0.1272479 -0.098626934
000130 5a 62 f4 3f 53 bf 5d 3d 38 9b d0 3e c4 89 3e bf
       1.9092515 0.05413754 0.40743423 -0.74428964
000140 fb 27 e0 bb 91 d7 1a bd b7 1b 47 3d ec a1 8f 3a
       -0.0068407035 -0.037803236 0.048610415 0.0010958291
000150 46 fe 63 bd 02 33 9a bf bb 25 02 be 15 64 8d 3f
       -0.055662416 -1.2046816 -0.12709706 1.1046168
000160 14 56 79 ba 00 1e 9e 3f 58 ea 65 be 7d 9f 42 3f
       -0.0009511423 1.2352905 -0.22452676 0.7602461
000170 28 c9 12 3f 1f 69 db bd 43 ca bd bd 59 c0 28 3f
       0.5733819 -0.1071341 -0.09267094 0.659185
000180 f5 b2 af 3f 7f 8b 83 3d 26 7f fc bd 88 91 38 3f
       1.3726488 0.06423091 -0.12328939 0.72097063
000190 81 ca 32 3d 5e cf c5 3e 21 cd 8f bf ea 74 36 bf
       0.043650154 0.3863477 -1.1234475 -0.71272147
0001a0 91 04 4b 3f e8 51 93 be 5d 60 2c 3f b8 b6 de 3f
       0.7930384 -0.28773427 0.6733454 1.7399511
0001b0 ba 77 82 be 2d 28 88 3f a3 70 3d 3f 68 b8 95 3d
       -0.2548197 1.0637261 0.73999995 0.07310563
0001c0 62 c2 43 40 20 02 12 3f fa 02 b5 bd 8a fc 8e 3c
       3.0587392 0.5703449 -0.08838458 0.017454404
0001d0 79 07 f7 bd 80 a2 62 40 24 0a 3a 3d 3c 5e d6 be
       -0.12061972 3.5411682 0.045419827 -0.4186877
0001e0 72 93 c0 3f 09 f5 08 bf 1f ff 91 3f 96 32 8f bc
       1.5044997 -0.53498894 1.1405982 -0.017480176
0001f0 3e 92 aa be e0 43 73 3f 30 ab f5 3c a6 0e 61 3e
       -0.333147 0.95025444 0.029988855 0.21978244

network.6.weight f4 [128, 128]
000000 7e f5 24 3a c2 ea f0 bc 7a ad 5a 3d f9 f9 7b b9
       0.00062926847 -0.029408816 0.053388096 -0.00024030347
000010 0d cc b3 3d f7 c4 97 bd 60 5b 27 bc c2 d2 98 bd
       0.08779154 -0.07410615 -0.010214657 -0.07462074
000020 f0 0b a1 3c 8e b3 9b bd 47 b4 b1 3d 05 43 70 bd
       0.019659013 -0.07602607 0.08676963 -0.058657665
000030 b4 d8 a7 bd 4e 67 ee bc 00 05 60 bb d2 ce 6f bd
       -0.0819563 -0.029101994 -0.0034182668 -0.05854685
000040 13 e3 03 bd 7b b3 82 3d 1f 34 e9 bd 77 f6 65 3c
       -0.032198977 0.063818894 -0.113868944 0.014035813
000050 a0 07 af bd a8 74 b4 bc 00 ed de 3b 67 b6 93 bd
       -0.08546376 -0.022028282 0.006803155 -0.07212525
000060 3a da d4 bd 9e 9c 51 3d e0 31 f4 3c f8 c0 fc 3c
       -0.10393186 0.051174752 0.029808939 0.030853733
000070 44 33 a7 3d b2 a7 dd bd 20 3f 79 bd 41 44 58 3b
       0.08164075 -0.10823001 -0.060851216 0.0032999667
000080 9a 5f 34 3d 26 7b 44 3d 53 4b b2 bc 2a f5 ad bd
       0.044036485 0.047969006 -0.021764433 -0.08494027
000090 e4 d2 20 3d b1 ba 9b bd d2 22 36 3d 20 43 9c bb
       0.03926362 -0.07603968 0.0444668 -0.004768744
0000a0 d0 24 a4 3b 6c c0 83 bc 54 00 01 3d dd e1 9c bd
       0.005009271 -0.016082965 0.031494454 -0.076602675
0000b0 aa 08 19 3c f5 30 08 be 0b 84 ad bd f3 b7 98 bd
       0.009340445 -0.13299926 -0.08472451 -0.074569605
0000c0 f3 fb 65 3c e7 ab 4a bd a1 f7 95 3d ac d6 9d bc
       0.01403712 -0.049480345 0.07322622 -0.019267403
0000d0 c0 49 8a 3c 40 bc 80 bd 14 e9 fc 3c 78 dd 33 bc
       0.01688087 -0.06285906 0.030872859 -0.010978095
0000e0 bc eb 8f bd 77 38 36 3d be e0 e9 bc b2 d2 48 bd
       -0.07027385 0.044487443 -0.028549548 -0.04902906
0000f0 a3 1c a0 3d c6 51 c8 bc 04 df 18 3d 82 d5 ef bc
       0.07817962 -0.024453055 0.03732206 -0.029276613
000100 fe 1c a3 3d 78 bb 51 3c 47 a5 31 bd 69 69 a6 bd
       0.07964514 0.012801044 -0.04337051 -0.08125574
000110 f5 17 b9 bd 87 35 80 3d 90 ba 30 bd d6 78 94 3d
       -0.090377726 0.062602095 -0.04314667 0.0724961
000120 80 ee 7a bb 10 cd 9b 3b 6f ff 61 bd 91 ae 8c bd
       -0.003828913 0.00475467 -0.05517524 -0.068692334
000130 48 47 97 bb af 5c a5 3d 82 d5 09 3d 7e 9b ec bc
       -0.0046166517 0.080743186 0.033650883 -0.028882738
000140 b4 fb 62 bd ca 5e 68 3d 23 9d a4 bd 76 33 23 3d
       -0.055415824 0.056731023 -0.08037784 0.039844
000150 9f 89 84 3d 4c 7e a9 bc db 0c 9b 3d c0 c0 99 bd
       0.06471562 -0.020690106 0.07570811 -0.07507467
000160 6e 99 76 3d ee e9 45 bd a3 70 7b bd b4 cd 8a bd
       0.060204916 -0.048318796 -0.061386716 -0.06777516
000170 ec 1c 52 bd 20 36 68 3b ee 2c 7c 3d 00 d8 bd 38
       -0.051297113 0.0035432652 0.061566286 9.0524554e-05
000180 1d 14 b5 bd 4b 55 02 bd 36 b9 7d bd 05 07 0a bc
       -0.08841727 -0.031819623 -0.06194421 -0.008424525
000190 6b 2a 15 3d 3f be eb 3c 41 4f 9c bd d6 f3 71 bd
       0.036417406 0.02877724 -0.07632304 -0.05907043
0001a0 7e e5 04 3b 70 63 80 bc e0 c5 c5 3b ef 32 9b bd
       0.002027839 -0.015672415 0.0060355514 -0.07578074
0001b0 a8 78 e1 3c 6f d0 6b bd e9 88 0f 3c f9 66 5e bd
       0.027523354 -0.057571825 0.008760669 -0.05429742
0001c0 56 98 8a bd 41 ef 6e 3d 40 1a 8f 3b f6 ce 64 3d
       -0.06767337 0.05833364 0.004367143 0.055861436
0001d0 5c 6d 9b 3c d8 de ad bd 2c 38 3f bd d1 ba 45 bd
       0.018973045 -0.0848977 -0.04668443 -0.048273865
0001e0 a6 49 7d bd 0c 99 36 3d e3 75 d7 bc ff d3 83 bd
       -0.061837815 0.04457955 -0.02630133 -0.064369194
0001f0 dd a1 ce bc 9d 9a 9a bc d2 9e 2a bd e6 8a 19 bd
       -0.025223667 -0.018872553 -0.04165537 -0.03748598
000200 1b bf d2 3f fd 19 48 3f e1 68 f3 bc f7 14 5c bf
       1.6464571 0.78164655 -0.029713096 -0.8596949
000210 41 d4 1c 3d 0b bc 8c bd 5e 00 9d bd da 58 4f bf
       0.03828836 -0.06871804 -0.07666086 -0.8099495
000220 3e 25 a0 3f 1d fa 05 bd a0 ee ae 3d d7 90 14 3d
       1.2511365 -0.03270923 0.08541608 0.036270943
000230 46 83 7d c0 c4 37 d7 3c 84 ff 86 3c db 5d c9 3b
       -3.9611373 0.026271708 0.016479261 0.0061452216
000240 6e ae 63 bf 8c 99 58 3d f1 2b 5e 3f fd e1 69 3f
       -0.88938034 0.05288081 0.867858 0.91360456
000250 85 b2 aa 3f 88 84 70 3d 7f ec 0e 3e 3e 8a fd bb
       1.333573 0.05872014 0.13957404 -0.007737427
000260 b4 80 e0 bf bf b4 29 3f 6f f3 28 c0 a9 26 83 3f
       -1.7539277 0.6629142 -2.639858 1.0246173
000270 33 2b 1f 3f 79 97 ad 40 e9 4f f1 3f 20 ad d1 bf
       0.6217529 5.4247403 1.8852512 -1.6380959
000280 1d 13 e1 3e 16 fe 43 3d a2 69 85 3d 9c bd 74 c0
       0.43959895 0.047849737 0.065142885 -3.8240728
000290 cb 54 98 40 af 8c 8b bf a8 8c 32 bc 67 7a f4 3d
       4.7603507 -1.0902308 -0.010897793 0.11937409
0002a0 a1 3e 1a 3d e8 36 23 bd 6f fe 96 bd 73 da ed bd
       0.037657384 -0.039847285 -0.07372748 -0.116139315
0002b0 bf f5 37 40 bb 40 d2 3f 5d 65 86 be 97 7a 81 40
       2.8743742 1.6426004 -0.2624921 4.0462146
0002c0 19 50 f0 3d c8 e2 82 3f ba b3 e4 bc a5 89 c5 3c
       0.117340274 1.0225458 -0.027917732 0.024113486
0002d0 a4 c6 e2 3c e4 46 08 c0 f1 7f b7 3c 6e 0b a8 bd
       0.02768261 -2.1293268 0.022399874 -0.08205305
0002e0 62 cb 9b bd fc d3 03 bf 34 af 2b 3d 90 a2 fd 3f
       -0.076071516 -0.5149534 0.041915134 1.9815235
0002f0 88 c3 9a 3f 65 7c b9 3f de 71 17 3f e0 77 d5 bd
       1.2090921 1.4491087 0.5915812 -0.10423255
000300 fa d8 15 3c a8 4d 90 bd ba b7 43 3f d2 1c e9 3e
       0.0091459695 -0.07046062 0.7645222 0.455298
000310 7a 0d a9 be 35 8d b0 3d fd 51 e0 bf 6c 0f 2b 3f
       -0.33018094 0.08620683 -1.7525021 0.66820407
000320 09 c5 90 bc fb 83 4d bb 04 27 e9 b8 d5 ce 91 bd
       -0.017672079 -0.0031359184 -0.00011117573 -0.07119528
000330 73 41 87 bf dc d6 99 3d cb ab 19 40 5b 86 83 c0
       -1.0566849 0.07511684 2.4011104 -4.110151
000340 00 33 76 bd d6 81 07 3e 92 28 31 bd bb 65 ab 3b
       -0.06010723 0.13233122 -0.04325158 0.005230633
000350 64 1f 1a 3d ba a2 13 41 7e f6 3b bd 2c f8 26 40
       0.037627593 9.227228 -0.04588937 2.6088972
000360 22 d8 e4 bb b8 d7 49 3e a2 5a d7 bd 17 5e 8f bf
       -0.006983773 0.19711196 -0.10515334 -1.1200589
000370 7c be 75 40 98 3c 56 3d 3b bd 0b 3d 59 03 d7 3c
       3.8397512 0.05230388 0.03411601 0.026246713
000380 11 ec 03 40 3d 48 ef 3f 0c 43 10 40 0d 1b 1b 40
       2.0612833 1.869392 2.2540922 2.423526
000390 00 84 e0 bb f8 47 a2 3f c0 b2 13 3f 0e 56 57 40
       -0.006851673 1.2678213 0.57694626 3.3646274
0003a0 f4 8b d4 bf 10 06 16 41 7f 8a 5d bf 6e 54 1d 40
       -1.660521 9.37648 -0.86539453 2.4582782
0003b0 5b 95 da 3f ba f1 9f bf 27 70 07 c0 56 39 e5 3b
       1.707683 -1.2495644 -2.1162202 0.0069953604
0003c0 83 9c b9 3f 3d 74 2e 40 e0 af bd bb 4f 80 87 3d
       1.4500889 2.7258446 -0.005788788 0.0661627
0003d0 e6 bc 3c 3e 8c 16 de 3f a6 e8 6c bd db 0e db 3f
       0.18431434 1.7350631 -0.05783906 1.7113909
0003e0 94 4a 4e 3f 03 3e 5f bf 10 c6 8e bf c5 b1 b0 3d
       0.8058255 -0.87204 -1.1154194 0.08627657
0003f0 39 4d b6 3e fe d3 1e 40 fb e0 17 bd dd 70 53 3e
       0.3560579 2.481689 -0.037079792 0.20648523

network.6.bias f4 [128]
000000 39 20 23 bd a6 11 51 40 4c c3 15 c0 f4 86 15 c0
       -0.03982565 3.2667022 -2.340045 -2.336362
000010 7f 80 96 c0 29 b1 24 be d9 06 19 be 3a 4d a7 c0
       -4.7031856 -0.16083206 -0.14944018 -5.228177
000020 e2 10 30 bf 1a 7d 14 be b1 99 52 c0 a4 e5 bf bf
       -0.6877576 -0.14500847 -3.2906306 -1.4991956
000030 bb c7 a5 bf 14 a6 4f 40 9a e9 42 bd fc 7b 00 be
       -1.2951578 3.2445116 -0.04758606 -0.12547296
000040 94 42 0b be 6f cd 10 be 41 7c cb bc 1d 33 56 3f
       -0.13599616 -0.14140867 -0.024839522 0.8367174
000050 0a 4a b8 40 3d fc 74 bc a1 02 aa 3f 68 8c 42 bf
       5.759038 -0.014952716 1.3282052 -0.7599549
000060 84 96 8b 40 bd fb 55 3d de 29 95 bf 94 ab 9c bf
       4.3621235 0.05224203 -1.1653402 -1.2239861
000070 d9 17 45 40 22 98 ba bf ca 65 be bd c0 f2 38 be
       3.0795805 -1.4577677 -0.092967585 -0.18061352
000080 4c 23 a9 be fb c5 20 40 f9 33 90 bf 04 01 d6 3f
       -0.33034742 2.5120838 -1.1265861 1.671906
000090 0b 9d 99 bc 83 03 f6 bd d8 65 85 40 f2 73 c9 be
       -0.018751642 -0.120123886 4.168682 -0.39346272
0000a0 32 c1 da 40 a8 c0 6d 40 f2 31 c0 bf ac 5a 61 3f
       6.8360834 3.7148838 -1.5015242 0.8802898
0000b0 21 a2 2b bf 64 82 86 40 36 f7 2f bf 02 ab 56 3e
       -0.67044264 4.203417 -0.6873659 0.20963672
0000c0 c8 b6 3f be 88 f9 b8 bd 0a 4c 13 be 91 b7 97 bd
       -0.1872207 -0.09031969 -0.14384475 -0.074080594
0000d0 d5 6b e7 bf ae 11 93 c0 d8 2f 8f 3d 1b 67 ad 40
       -1.8079783 -4.595908 0.06991547 5.418836
0000e0 f9 4d 41 c0 fd f7 e7 bf 70 a1 97 3e 15 4c e6 bf
       -3.020384 -1.8122555 0.29615355 -1.7991968
0000f0 da e8 94 bf a4 f2 40 40 e2 85 17 40 93 70 8f bf
       -1.1633561 3.0148096 2.3675466 -1.120623
000100 9e d3 63 be d6 01 9b bc a8 49 98 40 03 91 f0 3f
       -0.22248694 -0.018921774 4.7589912 1.8794254
000110 e0 60 a2 40 fd 20 76 c0 d0 70 1b 3e 63 b9 f1 bf
       5.0743256 -3.8457634 0.15179753 -1.88847
000120 7f 94 bf bf 72 0c 29 bf 84 65 0b c0 32 d9 a7 40
       -1.4967192 -0.66034615 -2.178071 5.245263
000130 7d 46 aa 40 92 c5 10 c0 ed 97 b4 bd 98 5e f1 3d
       5.3211045 -2.2620587 -0.0881804 0.117856205
000140 dd 69 34 be e5 3a b4 3f 8f 96 fb bc 9b 86 c1 bf
       -0.17618509 1.4080473 -0.03071144 -1.5119203
000150 5c 02 2c bd a9 85 49 40 7c b0 4f be c8 a4 90 be
       -0.041994438 3.148783 -0.20282167 -0.28250718
000160 27 88 1c be 78 9b 6c bf 8c 0e d7 c0 96 57 cb bf
       -0.15286313 -0.92424726 -6.7205257 -1.5886104
000170 74 0f bf bd d3 a0 be bf 0d 07 5a bd db de 37 40
       -0.09329119 -1.489283 -0.05322938 2.872977
000180 3e 70 aa bf 30 79 46 be ac a2 8e bd f2 04 64 c0
       -1.3315504 -0.19382167 -0.06964621 -3.5628018
000190 c9 a3 1f 40 f1 cb f7 bd 20 74 2a bf 88 6d 96 3f
       2.4943717 -0.120994456 -0.6658344 1.1752176
0001a0 ce 0f 13 c0 79 55 96 bf 21 1b d1 bf fd 2b f4 3f
       -2.2978396 -1.1744834 -1.6336404 1.9075924
0001b0 c7 fb 0a be 6f ef 78 40 ce 16 2f 3e 95 54 00 41
       -0.13572608 3.8896139 0.17098543 8.02065
0001c0 49 63 d6 bf 31 27 41 40 72 39 bc bc a9 b8 03 c0
       -1.674905 3.018017 -0.02297661 -2.0581458
0001d0 5a 2e 9c be 9e 02 bc be ac 62 0d 40 97 42 9f bf
       -0.30504113 -0.36720747 2.2091475 -1.2442197
0001e0 36 e3 89 c0 ee 1d 50 bf 1e 78 4c c0 f1 43 08 c0
       -4.3089857 -0.8129567 -3.1948314 -2.1291468
0001f0 78 f3 7f c0 be e0 a6 be 75 26 97 bd be 88 ce bf
       -3.9992352 -0.3259334 -0.07380382 -1.613548

network.8.weight f4 [128, 128]
000000 02 b5 e6 bc cf b6 bd bd 74 a9 96 bd d7 9b 19 be
       -0.028162483 -0.092633836 -0.07356539 -0.15000854
000010 65 e2 ed bd 98 1e e9 3c 80 d9 d3 bc 47 7a ea bd
       -0.11615447 0.028456971 -0.025860548 -0.11449104
000020 7e d5 cc 3b fd ba 89 bd 39 4e 8f bc 13 ec a6 3d
       0.006251036 -0.06725118 -0.017493354 0.08150496
000030 c6 25 c3 bb eb 47 d0 3c 80 e0 cb bb 27 a5 0e bd
       -0.0059554307 0.025424918 -0.006221831 -0.03482547
000040 80 a9 09 3a dc 12 11 3d f0 b9 ba bc 9f 6b f8 bc
       0.0005251393 0.035418376 -0.02279374 -0.030324755
000050 35 10 6e 3d da 70 1c 3d 85 16 93 3d 37 56 3b 39
       0.058120925 0.03819356 0.0718203 0.00017865827
000060 48 02 bc bc 50 7c 5c bd ba 12 89 bd 8a 0b cc bd
       -0.022950307 -0.05382949 -0.06693025 -0.099631384
000070 27 d8 0f 3d a1 5f 8c 3c 93 93 1a bd 34 03 a5 bd
       0.03511825 0.017135443 -0.037738394 -0.080572516
000080 aa f2 1e 3d 5e 0b fe 3a ed d9 87 3c 28 3b c0 bd
       0.03880564 0.001938205 0.016583407 -0.09386283
000090 6b 07 a6 bc ff a3 c5 bd ac e1 78 3c 73 d4 a0 bd
       -0.020267209 -0.096504204 0.015190523 -0.078530215
0000a0 1b 7e 58 bd cb a6 59 bd 0f 72 36 bd d9 cd 10 bd
       -0.05285464 -0.05313758 -0.04454237 -0.03535256
0000b0 17 c9 6c 3c e9 28 2e 3c 1d d9 36 3d b1 27 a3 bd
       0.01445224 0.010629871 0.04464065 -0.07966555
0000c0 d4 4e 7f bd 77 d7 e4 3c a0 e6 68 bd e8 98 7d bd
       -0.062331036 0.027934773 -0.056860566 -0.0619134
0000d0 df c7 82 3c f6 a1 59 bb 75 2b 31 bc aa 09 9c bc
       0.015964447 -0.0033208109 -0.010813584 -0.019047577
0000e0 d6 30 05 3d 27 58 91 bd 45 68 00 3c ac 92 99 bd
       0.032517277 -0.07096892 0.00783736 -0.074986786
0000f0 09 8f d6 bd 19 88 9b 3d e1 9b c5 3b 6c ce 64 bd
       -0.104765005 0.07594318 0.006030545 -0.05586092
000100 1e 6d a5 bc 76 4a 0e 3d b7 b1 23 bb d2 15 ee bc
       -0.020193633 0.03473898 -0.0024977752 -0.02906314
000110 24 cb 9a bd e3 2b 79 bc 23 21 a5 3c 66 92 ad 3c
       -0.07558277 -0.015208217 0.020157402 0.021187972
000120 63 25 f4 3c d7 d6 3e 3d 22 60 28 be b1 40 a5 bd
       0.029802984 0.046591606 -0.16442922 -0.080689795
000130 ef 0b 4d bc 87 e8 80 bc 9b 3b 70 bd 71 bd 9f bd
       -0.012515052 -0.015735878 -0.058650594 -0.07799805
000140 7f d0 70 bd fb 48 c6 bd 20 aa 89 3b 62 53 b5 bd
       -0.058792587 -0.09681889 0.0042011887 -0.08853795
000150 5f 6f 84 bd d6 0b 76 bd 9c ca 0a be 3e 90 14 3d
       -0.06466555 -0.06006988 -0.13553852 0.036270373
000160 8a d8 16 3d 30 7c a4 bc 0c 5a f2 bc 65 76 b4 bd
       0.0368276 -0.020078748 -0.029583953 -0.088116445
000170 6f c2 9f 3d b8 e6 4e bd 04 41 49 bd 17 84 d8 bd
       0.07800757 -0.050513 -0.04913427 -0.10572069
000180 d7 2e af bd db 73 86 3d c7 6c 5e bd 3b a8 8c 3d
       -0.08553856 0.065650664 -0.054302957 0.06868025
000190 72 c9 8b bd 7c ae 83 bd d5 fc 62 3c 0e 33 66 3d
       -0.06825532 -0.06429765 0.013854225 0.056201033
0001a0 14 f9 34 bd 25 1b 3e bd 2c 1b ab bb 4c 6c 36 bd
       -0.044182852 -0.046412606 -0.005221745 -0.044536874
0001b0 24 5a c4 bc b3 f1 f4 bd 3a c2 e6 bd f6 d0 69 3d
       -0.023968764 -0.11960163 -0.112675145 0.057084046
0001c0 21 9c 0c be a6 fc d2 3b 52 06 1f 3d b7 8a 65 bc
       -0.13731433 0.0064388094 0.038824387 -0.014010123
0001d0 98 f4 b8 bc b5 26 07 bd 6a 2e 47 3d 4a c4 ca bd
       -0.022577569 -0.0329959 0.04862825 -0.099007204
0001e0 a4 5a c5 3c 4c 95 7a bd 34 f5 18 3d 59 0f f0 bd
       0.024091072 -0.061177537 0.03734322 -0.11721677
0001f0 41 da d2 bd 94 e9 d1 bc 20 31 b8 bb d4 8e 92 bd
       -0.10295535 -0.025624074 -0.0056210905 -0.071561486
000200 78 3c 44 bc 94 98 10 bf 53 62 74 c0 2a a2 28 40
       -0.0119773075 -0.56482816 -3.8185012 2.6348977
000210 5e ba d0 be 24 0f c9 3c c6 b2 84 bc 36 4f c5 40
       -0.40767187 0.024543352 -0.016198527 6.1659193
000220 06 0d 7d 3e 39 9c 0b bd 81 50 c7 3f ac 79 e7 3f
       0.24712 -0.034084532 1.5571443 1.8084006
000230 c3 59 94 be 13 94 8e 3f 77 8a aa 3c b5 ef 56 40
       -0.28974733 1.1138939 0.020817978 3.3583806
000240 8c d4 c3 bc a6 e3 79 bd 07 a6 dc bd 6b 10 4d 40
       -0.023905061 -0.061008118 -0.10773855 3.204127
000250 4f 7d e7 3e b1 ce 02 bd c2 ad 0e 41 3b 83 05 bf
       0.4521279 -0.031935398 8.917421 -0.52153367
000260 cc 6f 09 41 df 0a 3d bf cd f0 e1 bd 6b af a1 3e
       8.589794 -0.7384471 -0.11032257 0.31579146
000270 5b 72 39 40 a2 36 77 be 9f 20 30 3c 7f 3f 2d 3d
       2.8976047 -0.24141935 0.010749965 0.042296883
000280 e5 19 76 3f c8 61 00 40 de 4e 17 3f 83 c2 6b 3f
       0.9613326 2.005968 0.59104717 0.92093676
000290 9c c3 29 3f 27 d6 b4 3f 78 34 39 40 2d e0 01 40
       0.663141 1.4127854 2.8938274 2.0293076
0002a0 44 e6 6b c0 d1 63 16 40 c0 83 15 c0 df 69 ba 3f
       -3.6859293 2.3498423 -2.3361664 1.4563559
0002b0 c7 c8 33 3f dc b7 d7 3f ef e8 09 40 fa 49 c7 3e
       0.70228237 1.6852984 2.1548421 0.38923627
0002c0 72 84 9e 3d 7f f3 35 3e 57 52 79 3d 54 50 87 bc
       0.07740106 0.17768668 0.06086954 -0.016517796
0002d0 21 89 a6 3d 89 30 bd be e9 8e bd 3e 1b 9f 84 40
       0.08131624 -0.36951092 0.37023094 4.144422
0002e0 89 71 5b bf b4 29 6b 40 89 97 04 bf 28 62 f1 3d
       -0.85720116 3.6744204 -0.51793724 0.117863
0002f0 9a 24 fb 3d 0f 41 a6 40 17 ea 73 3c d7 04 fc bc
       0.122628406 5.1954417 0.014887354 -0.030764027
000300 a4 ad ea 3d 4a c3 a1 bc be c0 69 40 c7 b1 44 3f
       0.114589006 -0.019746441 3.652389 0.76833767
000310 ea cc 8f 40 a9 03 c6 c0 bb 59 d5 40 d6 9d 7c 3e
       4.493764 -6.187947 6.6672034 0.24669585
000320 10 5b 3e 3e b7 dc 2c 3e 31 0b 19 bf bf 8b b7 40
       0.18589425 0.16881071 -0.597827 5.735809
000330 0f 86 87 40 35 85 d5 3f b1 97 9f bd 12 36 47 40
       4.2351146 1.6681277 -0.07792605 3.1126752
000340 de 5c 62 3d 45 55 24 3f 9a cf 23 3c c7 be ec 3d
       0.055264346 0.6419261 0.009998227 0.115598254
000350 1d 4a c3 3c ab 8a 4a 40 c4 83 d8 3f d5 c2 05 3e
       0.02383905 3.1647136 1.6915212 0.13062604
000360 34 7f 92 3c 58 73 19 3f 94 9e 39 c0 32 cd e0 3f
       0.01788292 0.59941626 -2.9003038 1.7562621
000370 8b c2 76 bd 38 66 f8 3e d7 24 51 3d 8c 32 06 40
       -0.060244124 0.48515487 0.051060524 2.0968351
000380 16 03 38 be 0d 49 c7 bd 63 04 7d bd 25 bd d4 c0
       -0.17969927 -0.0973073 -0.06177176 -6.648089
000390 9f ec 45 40 c1 47 c2 bf 38 56 0c bf bb c2 34 3f
       3.0925672 -1.5178148 -0.5481906 0.70609635
0003a0 2b 3f 86 c0 bf ee 02 3f 06 6b d7 3e 0c cf 4b 3f
       -4.195211 0.5114555 0.4207384 0.79612803
0003b0 97 e5 82 3d b4 5f cb bf b1 68 09 bf 6e 28 e9 40
       0.06391447 -1.5888581 -0.5367537 7.2861853
0003c0 bf 07 51 bf 7f c4 d7 3f 7e 70 82 ba 8f 19 1d bd
       -0.81652445 1.6856841 -0.0009951738 -0.038354453
0003d0 c2 e3 38 be 3e 1d 5f c0 16 4a ac 3f 0b 69 85 3f
       -0.18055633 -3.4861598 1.3460109 1.0422682
0003e0 8d 9c b6 3f 3c 8e b8 3f 1a 51 35 c0 2c 3c 5a 3f
       1.4266526 1.4418406 -2.833075 0.85248065
0003f0 b9 03 0a 3e af 66 0a 3d 0f a1 8d 3d 23 50 4a 3f
       0.13477983 0.033789333 0.06915485 0.7902853
