model/DQNAgent3_20-08-2022__19-06-48.pth/DQNAgent3_20-08-2022__19-06-48.pth (torch, 149249 bytes, 12 tensors)

network.0.weight f4 [64, 13]
000000 46 4e 32 3e d6 e8 ae 3d 51 2e cb 3e 25 48 01 3e
       0.17412671 0.08540504 0.39683774 0.12625177
000010 e9 d2 7e 3e 37 3b a9 bd d2 ec c8 3d cd c5 0e 3e
       0.24885143 -0.082632475 0.09810795 0.13942643
000020 39 23 bf bd 0b cb dc bd 7f 49 ea bd 52 4b 3d 3e
       -0.0933289 -0.10780915 -0.114397995 0.18485764
000030 cd 7b 2b be 86 35 31 3e e8 09 22 bd 7e 51 55 3e
       -0.16746445 0.17305574 -0.03956023 0.20831868
000040 c3 71 10 be b2 13 87 be d6 79 98 bd 40 1c 3d be
       -0.14105897 -0.26382214 -0.07445113 -0.18467808
000050 42 d4 af bd 40 bd 22 bd 3a c1 56 be 82 d4 89 be
       -0.08585407 -0.039731264 -0.20972148 -0.26919943
000060 88 10 2f 3e 98 08 83 be b0 16 2e 3e 09 43 08 3e
       0.1709615 -0.25592494 0.17000842 0.13306822
000070 f5 a9 cf 3c e5 75 1f 3e dc f5 6f 3e b8 1c 99 3d
       0.025349597 0.15572317 0.23433632 0.07476181
000080 d0 0e bb bc 13 72 ca be fa fb 5d be 95 88 40 be
       -0.022834212 -0.39540157 -0.21678153 -0.18802102
000090 d2 45 4b 3e ab e8 2a 3e 42 94 80 bd 55 cf 1c be
       0.19850853 0.16690318 -0.06278278 -0.15313466
0000a0 d8 8d 41 bd a6 90 41 be 62 63 00 3e 30 c8 c0 bc
       -0.047254413 -0.18902835 0.12537912 -0.023532957
0000b0 e3 01 73 be 2b 16 80 3e d0 6e 8b 3c 42 b5 cd bd
       -0.23731188 0.25016913 0.017020613 -0.10044338
0000c0 1c e8 48 bd 7c 45 1a be a6 05 76 3e db f9 6d be
       -0.04904948 -0.15065569 0.24025592 -0.23239844
0000d0 2f e2 de bd d0 c5 8e be 8f 46 ac 3d e0 99 6f 3e
       -0.10882985 -0.27885294 0.084118955 0.23398542
0000e0 78 f1 0e be 60 50 35 3e c0 e4 b1 be 8f 76 c3 be
       -0.139593 0.17706442 -0.34744835 -0.3817639
0000f0 23 56 e6 be ac 9c cf be 77 05 2a 3e 66 3a 47 3e
       -0.44987592 -0.4054922 0.16603647 0.19455871
000100 8f 05 b3 3d af ac 79 be c5 f9 0e be ee 98 6a be
       0.087412946 -0.2438228 -0.13962467 -0.229099
000110 b4 3a a9 3d 3c 9a ca bd 29 78 67 be 5e c5 1b 3e
       0.0826315 -0.09892699 -0.22604431 0.15212008
000120 56 2a 1c be 64 8f ec 3d da 98 89 be 54 36 f2 3d
       -0.15250525 0.11550787 -0.2687443 0.118267685
000130 70 88 c2 bc c0 92 98 3c cb 09 b0 be 5e b8 c0 bd
       -0.0237467 0.018624663 -0.3438247 -0.09410165
000140 eb 8c 1c 3e 94 f3 59 be 9f 3d 75 3e 4b c8 b6 bc
       0.15288131 -0.21284324 0.23949288 -0.022312304
000150 5d 6e ba 3d 64 67 eb be 3c 86 8e bd 6c 24 72 be
       0.091030814 -0.45977318 -0.06959197 -0.23646706
000160 b8 3d b6 3d d5 ea 01 bd 78 b5 85 be 70 37 18 be
       0.08898491 -0.031718094 -0.26115012 -0.14864898
000170 26 ed 8e 3e 59 db 34 3c 01 07 2e be ab cb f2 3d
       0.27915305 0.011038625 -0.1699486 0.11855253
000180 04 8c 91 3e c1 71 01 be 16 d2 a2 3c 1f 15 55 be
       0.28427136 -0.1264105 0.019875567 -0.20808838
000190 63 15 f9 3d 07 ae 62 3e 7b 77 8e 3e bf fe 6c bd
       0.12162282 0.22136699 0.2782553 -0.057860132
0001a0 7b 99 63 3e 49 ff 65 ba 20 42 27 be a1 1b 43 3e
       0.22226517 -0.0008773697 -0.16333818 0.19053508
0001b0 7d 1a fd 3d 66 f1 7e 3e 25 50 2f 3e e0 0a 86 3c
       0.12358568 0.24896774 0.17120416 0.016362607
0001c0 e5 fb 71 be 40 18 0f 3e ba 28 08 3d 7d a8 8f 3e
       -0.23631246 0.13974094 0.033241965 0.28058234
0001d0 f9 cd 8c bd a7 04 80 be 27 39 09 bf 2e cd 3a 3e
       -0.06875224 -0.2500355 -0.5360283 0.18242332
0001e0 9d 7f 5f be b9 b7 55 3c 02 9b ce be 87 25 fa 3d
       -0.21826024 0.013044291 -0.40352637 0.12214189
0001f0 38 04 bf 3b 4d 63 6f be 3b 62 84 3d a6 7e cf 3d
       0.0058293603 -0.23377724 0.064640485 0.10131578
000200 da ab 18 be ce c4 83 be 02 00 c4 3d 63 7c e2 bb
       -0.14909306 -0.25736088 0.09570314 -0.0069118007
000210 ca 52 70 3e a3 b3 aa bd de 58 0a be 8b cf c2 3d
       0.23469082 -0.08335044 -0.13510463 0.09512242
000220 3f 6c 89 3c b2 e1 c8 bb 00 05 8a bd 9d 93 9d be
       0.016775249 -0.0061304206 -0.06739235 -0.30776682
000230 9c 72 16 3e 72 0f 30 be 7a 34 c0 bd 12 ca 07 be
       0.14692158 -0.17193392 -0.09385009 -0.13260677
000240 5b 52 67 3e 50 65 43 bd 2c 0d 21 3e 28 de ca 3d
       0.2259001 -0.04770404 0.15727681 0.09905654
000250 f3 01 94 3d 9c c5 a0 3e 3b 82 b4 3e 62 6e 0e 3e
       0.07226934 0.31400764 0.35255608 0.13909295
000260 e9 63 09 3d 85 5d e4 3d a7 d9 2b 3d 14 be 0d 3e
       0.033542547 0.1115065 0.041955616 0.1384204
000270 55 61 3d 3e 4b fa 1c 3e 3c a9 2f 3e ee f2 b7 3d
       0.1849416 0.15329854 0.17154402 0.08981882
000280 55 e4 32 be 8f f1 06 3d ec a9 dc 3d de 58 68 bd
       -0.17469914 0.032945212 0.107745975 -0.056725375
000290 78 81 bd be 94 da 4b bd a0 76 b0 3d 42 e9 9e be
       -0.3701284 -0.049769 0.08616376 -0.31037337
0002a0 05 a0 02 3e 7e 9b 24 3b 5c 06 1a 3e fa 62 b3 bd
       0.12756355 0.0025117095 0.15041488 -0.08759113
0002b0 14 03 3d 3e 8e 6c cf bd 59 a5 f1 bd aa 72 b3 3d
       0.18458205 -0.10128127 -0.11799116 0.08762105
0002c0 53 84 dc 3d 11 d2 19 3e 41 72 42 3e e9 6b 9a be
       0.10767426 0.1502154 0.18988897 -0.30160454
0002d0 3d 59 54 3e 8f 2d 95 3d 50 69 9b 3c 19 2f 11 be
       0.20737167 0.0728408 0.018971115 -0.14178123
0002e0 7c c0 36 bd 48 af 44 bd b0 a1 39 3d 58 6f 1b 3d
       -0.04461716 -0.048018724 0.045320213 0.037947983
0002f0 e2 36 de bd d8 b5 07 bd 80 68 3f bc d0 f0 7e 3d
       -0.10850312 -0.033132404 -0.01168263 0.062241375
000300 e0 04 a6 bc c2 bf 8a be a0 de f3 bd 48 aa 45 3d
       -0.020265996 -0.27099425 -0.11907697 0.048258096
000310 c2 fa a7 3e 8c 25 b3 be 45 b4 73 3c f9 da 32 be
       0.328085 -0.34989583 0.014874523 -0.17466344
000320 d1 32 de 3e 85 cd c0 3e 50 82 f0 3e 8c 6c 5b 3e
       0.43398145 0.376568 0.4697442 0.21428126
000330 83 45 86 3e 20 56 55 3e 25 a0 27 bc 5b 50 11 3d
       0.26224908 0.20833635 -0.0102310525 0.035477024
000340 43 34 7f bc 9f 6a 9d be 46 15 2d be 93 7e 91 be
       -0.015576425 -0.30745408 -0.16902646 -0.2841688
000350 80 91 39 3e bf 96 4e be 3c ff 18 3e 58 62 10 3e
       0.1812191 -0.20174693 0.14941114 0.14100015
000360 49 ae 4c bc 61 bc 23 be da 49 d7 bd c5 9a d8 bd
       -0.012492725 -0.1598983 -0.10512133 -0.10576395
000370 62 a0 5d be e8 c2 2f 3d c2 d6 e8 bc 1c af 30 3e
       -0.21643212 0.042910486 -0.028422717 0.17254299
000380 d9 bc f8 bd 5d b1 4f be 2e 83 ce 3d 80 0b ec 3d
       -0.12145395 -0.20282502 0.10083614 0.11525631
000390 48 39 5e be e8 e0 d8 3c 81 fc c5 bd a1 09 91 be
       -0.21701539 0.026474431 -0.09667302 -0.2832766
0003a0 44 39 7a 3c d8 73 74 3d 09 f9 6c 3e 2d 4f 1c 3d
       0.015272442 0.05968079 0.23141874 0.038161445
0003b0 38 1b 56 be c1 3a 2f be 57 60 2c 3e 02 76 17 be
       -0.2090882 -0.17112257 0.16833626 -0.1479111
0003c0 7d bb 92 bd 3e 8f 50 bd 79 fb 80 bd 9c 5f fa 3d
       -0.07164667 -0.050917856 -0.062979646 0.12225267
0003d0 fa 72 88 3d 2d dc 39 3c 4e 7d c3 bd 0d 81 94 be
       0.06662555 0.011343998 -0.09545384 -0.29004708
0003e0 55 8c 0e bd a9 f2 87 3e 12 4e 4d 3d 4c 6b 30 3e
       -0.0348018 0.26552323 0.05012328 0.1722843
0003f0 8b ea 8f be ad a9 6a 3e d7 89 4a be 1d 0f 0e be
       -0.2810863 0.22916289 -0.19779144 -0.13872953

network.0.bias f4 [64]
000000 17 7a db bd 15 af 8b 3e f7 3d 5b 3e 01 ad 89 3e
       -0.10716646 0.27282014 0.21410356 0.26889804
000010 6f d1 9e bd 32 47 2e 3e 48 c0 c7 3d 4e 4b 7a bc
       -0.0775479 0.17019346 0.097534716 -0.015276743
000020 58 a0 ad 3d cf f2 d1 be 40 e9 c4 3d 83 fb d0 3d
       0.08477849 -0.4100556 0.096148014 0.10204222
000030 85 83 98 be 50 65 91 be 10 bd be bc d0 7c c5 3e
       -0.2978784 -0.28397608 -0.023283511 0.38571787
000040 9e 13 93 bd 40 12 8b 3c 35 d1 8f be a2 8b 9a be
       -0.07181476 0.016976476 -0.280893 -0.30184656
000050 74 dc 88 be b8 7e 9b 3d c6 73 02 3e e0 c0 cd bd
       -0.26730692 0.07592529 0.12739477 -0.100465536
000060 fa 13 b0 be f8 1f 23 3d ce 80 53 3e 09 8e 51 3e
       -0.3439024 0.03982541 0.20654604 0.20464338
000070 72 af 20 3e 20 5f 18 be ae 48 f4 3c f0 6e a5 bc
       0.15691927 -0.14880037 0.029819813 -0.0201945
000080 f9 17 62 3e 56 91 27 3e 74 55 8c 3d 72 8f 5c 3e
       0.22079457 0.16364035 0.068522364 0.21539095
000090 5f a0 43 be e5 28 9f bd 5d c7 c8 3e a8 93 fc 3d
       -0.19104145 -0.07771472 0.39214602 0.12332851
0000a0 0b fd 86 3e aa 61 9d 3e da 8d 87 3d d9 a3 66 be
       0.2636493 0.30738574 0.06618853 -0.2252344
0000b0 3e 7f 81 bd 8a 5d 31 3e 1d ea 5a be ec eb 20 3d
       -0.06323098 0.17320839 -0.2137837 0.039287493
0000c0 16 0e db 3c 40 8b 2c 3c 8d 77 ba bd cd 41 36 3e
       0.026740115 0.010531247 -0.09104834 0.17798539
0000d0 6f 85 a2 be f4 77 f3 3d 49 48 ca 3d 2d 2f 10 3e
       -0.31742427 0.118881136 0.098770685 0.14080496
0000e0 92 47 6f bd bf 2c cc bc d4 a0 53 3e 76 fb 67 3e
       -0.058417864 -0.02492368 0.2066682 0.22654518
0000f0 30 dd ea 3d 3b ba 98 be b2 00 aa 3e 0d 77 f9 bc
       0.114679694 -0.29829583 0.33203655 -0.030452276

network.2.weight f4 [128, 64]
000000 3a 36 d2 3d ac ac 1b bd 74 f8 16 3e d0 d1 1d 3c
       0.10264249 -0.03800647 0.14743215 0.009632543
000010 97 e6 b2 3d 58 7f 85 3d e9 08 ed bd 99 45 33 bc
       0.08735388 0.065184295 -0.11573965 -0.010941886
000020 83 9f a7 bd 75 f2 1d be 97 a9 55 3d 24 25 32 be
       -0.08184721 -0.15424521 0.052163687 -0.1739698
000030 59 e4 7d 3d 92 47 2f be b0 5a ba bc 63 0d df bc
       0.061985347 -0.17117146 -0.022748321 -0.027228063
000040 36 57 cb bd 50 77 92 3c 4d 90 a1 3d a8 21 fc 3c
       -0.099287435 0.017879158 0.07888851 0.030777767
000050 f0 4a f3 bc c0 7c 9b bd 43 4b 56 bb e4 90 b1 3d
       -0.029698819 -0.075921535 -0.0032698668 0.08670214
000060 ab 68 4c bd 70 67 95 bc 9c 0c 46 3d 46 f0 b1 3c
       -0.049904507 -0.0182378 0.04835187 0.021721017
000070 ac 7f 6b 3d 62 1a f7 bd 49 fa 5e 3d a4 7a 4d 3d
       0.057494804 -0.12065579 0.05443791 0.050165787
000080 f7 e6 47 be 80 83 3e 3b 94 78 0b be dd f7 bb 3d
       -0.195217 0.002907008 -0.13620216 0.091781355
000090 a0 e5 a2 3d 2d 15 40 3d 90 33 1e 3d 98 f2 8a bc
       0.07953954 0.046895195 0.038623393 -0.01696138
0000a0 e8 78 46 3d e8 17 5a be 8f 6a 4d 3d ec 2b 64 3d
       0.04845515 -0.21298182 0.05015045 0.05570595
0000b0 b0 c3 1f 3d bc c8 bd bd e6 b2 af 3b f6 68 da bc
       0.03900498 -0.09266803 0.0053619025 -0.026661377
0000c0 f4 b8 2c 3e 80 63 99 3c e2 d9 ec bd 04 d5 93 3b
       0.16867429 0.018724203 -0.11564995 0.0045114774
0000d0 d4 21 0d 3d 7b cb cd 3b c6 49 c3 bd b3 bc 3f be
       0.03445609 0.0062803603 -0.095355555 -0.18724327
0000e0 76 f5 16 3e d9 6f a3 3d 12 c2 a6 3d cd 4d 2a be
       0.14742073 0.079803176 0.08142485 -0.16631241
0000f0 50 f2 aa 3d 6e 04 61 be ec 6c c8 bc b4 2f ea bd
       0.08346999 -0.21974346 -0.024466 -0.1143488
000100 73 55 16 3d 04 2b 87 bd 90 e0 50 3c 0c 90 3d bd
       0.036702584 -0.066000015 0.012748852 -0.046279952
000110 b6 25 d6 bd 60 b5 47 bd 72 20 e6 bd a9 10 e5 bd
       -0.104564115 -0.048756957 -0.11236657 -0.11184818
000120 0d 33 35 be 7e d9 dd bd 20 d7 c7 3c 02 a1 56 bd
       -0.17695256 -0.10832499 0.024394572 -0.052399643
000130 50 f5 42 3c 51 0c 2f 3c d8 86 d2 bc 5e 0c c8 bc
       0.011899307 0.010684089 -0.025699064 -0.02441996
000140 b6 5a ff bc b1 4f 04 bd b6 aa c7 3c d8 f3 f8 bc
       -0.031171184 -0.032302562 0.024373394 -0.030389711
000150 c2 06 cf bd 80 fd e0 ba 82 18 0c 3c d8 2f ea bd
       -0.10108711 -0.0017165393 0.008550765 -0.11434907
000160 f1 cb 30 3d 18 d1 df bc 4c 35 25 3d b5 d0 10 be
       0.043163244 -0.027321383 0.04033403 -0.14142115
000170 00 05 1d bc dc 3b 36 bd 84 14 8e 3d 24 44 40 3d
       -0.009583712 -0.04449068 0.06937507 0.046939984
000180 0c af 04 be 50 cf 41 bd 43 55 8d bc 50 c8 9d bc
       -0.129574 -0.04731685 -0.01725257 -0.019260556
000190 e2 6c 00 be b7 8b c4 bd 5d 68 e5 bc 8c 28 02 3d
       -0.12541535 -0.09596961 -0.028003866 0.03177695
0001a0 c6 16 ba 3d e0 b8 61 bd 48 01 da bc 44 94 d9 3d
       0.09086375 -0.05510795 -0.02661194 0.106239825
0001b0 dc fa d8 bd a4 f2 64 3d 40 1e aa bd b7 c7 8d 3d
       -0.10594723 0.055895463 -0.08306551 0.06922858
0001c0 e8 b2 ed 3d 5e 2a e9 bd 00 02 d1 bd f0 8f 22 3c
       0.11606389 -0.11385034 -0.102054596 0.009922013
0001d0 fa d4 d6 3d 11 0a 26 be 54 f8 10 be fc 84 12 bd
       0.10489841 -0.16214778 -0.1415723 -0.035771355
0001e0 7a 1b 80 bd 58 ee 0e be 4c e6 8a 3d 10 56 87 bd
       -0.06255241 -0.13958108 0.06782207 -0.06608212
0001f0 40 3e 40 bd 88 a7 91 bd 08 70 2a 3c 30 7a 3b 3c
       -0.046934366 -0.07112032 0.010402687 0.011442706
000200 10 b7 8b bd 8e 3c b3 3d 96 7d ec bd fc 58 9a 3d
       -0.06822026 0.08751784 -0.11547391 0.07536504
000210 43 11 1c 3d 58 a5 ab bc 0f 40 13 be 60 a9 74 b9
       0.0381024 -0.020952865 -0.14379905 -0.0002333275
000220 7e af 05 be 7d e4 3a be 28 ff 6c bd 30 79 92 bd
       -0.13055226 -0.18251224 -0.057860523 -0.07152021
000230 44 96 4e be 88 b5 0f bc 12 ab 98 bd 46 a2 09 bd
       -0.2017451 -0.008771308 -0.07454504 -0.03360202
000240 00 b7 7e 3a bc 7a 05 bd ee a3 2e be 04 af 22 3d
       0.00097166 -0.03258775 -0.17054722 0.03971769
000250 a6 f1 8f 3d 24 d5 eb bd 42 ab dd bd 69 e6 13 bc
       0.07028513 -0.11515263 -0.108236805 -0.009027102
000260 81 51 75 bd 4a 81 8a 3d 76 d1 d4 bd 54 dc 77 3c
       -0.05989218 0.06762941 -0.10391514 0.015128214
000270 5c 01 02 3d c0 94 4f bc 9c a2 62 be d4 db 8c bd
       0.031739578 -0.012669742 -0.22132343 -0.068778664
000280 aa 8e ea 3b c4 9e 7f bd 49 3f 7c bd bd 7f c0 bd
       0.00715812 -0.06240727 -0.06158379 -0.09399364
000290 06 9d 50 be a3 c1 f8 bc 83 cd 3c be 1e 71 be 3d
       -0.203724 -0.03036577 -0.18437771 0.09298919
0002a0 70 0c b1 bc 21 36 ce bd 3d 4f 08 bd 44 3e 39 bd
       -0.021612376 -0.10068918 -0.033278693 -0.045225397
0002b0 46 3b c1 bd 98 51 8f bc 2e 6b 0a 3b 2d 52 24 3d
       -0.09435134 -0.017494962 0.0021121013 0.04011743
0002c0 eb f8 e5 bc 2c 01 06 3d b4 00 29 3d f3 63 6c bd
       -0.028072795 0.03271596 0.041260436 -0.057712507
0002d0 7a f1 99 3d 72 16 a2 bd 7e e5 68 3c 60 17 4e bd
       0.07516761 -0.07914437 0.014214871 -0.05031526
0002e0 9c bf ca bd 0d 89 33 bc 98 f2 bc 3d 0b ec 2a be
       -0.09899828 -0.010957968 0.092259586 -0.16691606
0002f0 b4 c2 89 bd ed b1 4f bd 4e 57 fc bd 0c 10 50 bd
       -0.0672659 -0.050706793 -0.123213395 -0.050796553
000300 5e ec 8c bd 1a 7e e2 bd 3f 5e 2c 3e 40 6d 95 bc
       -0.06881021 -0.11059208 0.16832827 -0.018240571
000310 15 a2 32 3e c0 d1 2b bd 71 ae 09 3e 1e 27 22 3e
       0.17444642 -0.04194808 0.1344545 0.15835235
000320 73 07 b3 bd a3 0e c4 bd 22 6d 91 3c 2f 0f 97 bd
       -0.08741655 -0.09573104 0.017752234 -0.07375943
000330 5b 42 3a bb a3 4e a9 bd ac 1f 0b 3d 2b 07 10 be
       -0.0028420899 -0.08266952 0.03396575 -0.14065234
000340 8e f1 b3 3d 14 b4 83 bd ee 67 cb bd 00 96 8e bd
       0.08786307 -0.064308316 -0.099319324 -0.06962204
000350 14 48 07 3d 20 85 e2 bb 86 d2 2e be bc dd 8a 3d
       0.033027723 -0.0069128424 -0.17072496 0.06780574
000360 95 94 89 3c 0e 4a d4 3d 34 38 3c bd ee 35 85 3d
       0.016794482 0.10365687 -0.045952037 0.06504427
000370 9c d6 da 3d 84 c2 ad 3d e2 b2 80 3d 28 b1 cd bc
       0.10685465 0.084843665 0.06284119 -0.025108889
000380 4d 2f 02 be 92 f1 ca bd e6 4a 6c bd 66 bc c6 3c
       -0.12713356 -0.09909357 -0.057688616 0.024259757
000390 97 3e be 3d 1a 44 43 bd 21 ae bf bd 74 ce 6c bd
       0.09289282 -0.04767237 -0.09359384 -0.057814077
0003a0 a8 bd 81 3c 54 91 77 bc 4c 5a ef bc 22 85 a0 bd
       0.015837505 -0.0151103325 -0.029217862 -0.07837893
0003b0 a6 fa c9 bd 70 89 2c 3c 55 ba 3e 3c 7d 2d 31 bd
       -0.098622605 0.0105308145 0.011641105 -0.04325627
0003c0 96 76 d7 3c ca a5 c6 3d d8 45 c7 bc d3 3e 2d 3e
       0.026301663 0.096995905 -0.024325296 0.16918497
0003d0 8d 3e 8b 3d 05 f3 20 3d 87 0c 2e be 5d 5c 28 be
       0.0679904 0.03929426 -0.16996966 -0.16441484
0003e0 78 62 17 3e ae 27 03 bd 1c 20 09 bd d1 37 06 be
       0.14783657 -0.032020263 -0.033477888 -0.1310723
0003f0 1a c9 90 bd 79 93 1b be e0 fa 13 be 52 fa ee bd
       -0.07069607 -0.15192975 -0.1445117 -0.116688386

network.2.bias f4 [128]
000000 e2 fc 65 3d b4 b2 93 bd 13 9d 23 be 5f 9a dd 3d
       0.05614937 -0.07211819 -0.15977888 0.108204596
000010 72 21 8a bd 12 d0 9d 3d b8 d4 3f be bd 5f 19 be
       -0.067446604 0.07705702 -0.1873349 -0.14977928
000020 87 d6 36 3d aa b3 2f 3e b3 b2 f3 bd 0e 0b 91 be
       0.044638183 0.1715838 -0.118993185 -0.28328747
000030 e9 e1 22 bd 93 6a e6 bd cb c7 09 3c cc d4 8d be
       -0.039766226 -0.11250796 0.008409451 -0.27701414
000040 78 69 9f be d2 72 1f be e4 56 18 3e bc 62 0d bd
       -0.31135154 -0.15571144 0.14876896 -0.03451799
000050 b9 d4 da 3c 6f 76 d8 bd bf 20 01 3e ce f8 3e 3d
       0.026712762 -0.105694644 0.12610148 0.046623997
000060 4d b7 b5 be b7 37 05 be 0c e4 2e be 7e 97 d2 bd
       -0.3549141 -0.13009535 -0.1707918 -0.10282801
000070 03 19 21 be 40 53 2d bd 87 58 71 bd fd 8b f0 bd
       -0.15732197 -0.04231572 -0.058922317 -0.11745451
000080 70 52 03 bc db 16 de 3c 62 34 25 be df 7c ed bb
       -0.00801526 0.027110508 -0.16133264 -0.007247552
000090 be 11 0a 3d 49 5d 8a bd 1e 9a 43 be 2d 0c 91 3c
       0.033708327 -0.06756074 -0.1910176 0.017706001
0000a0 38 7e 1b bc 74 59 4f be 8e 01 5f be 8d b8 23 be
       -0.009490542 -0.20248967 -0.21777937 -0.1598837
0000b0 1b bb 8a 3d ed b2 2a bd 44 33 ed bd 8f e0 1e be
       0.06773969 -0.041674543 -0.11582044 -0.1551535
0000c0 09 c1 8a bd 0a 29 a4 3c 3c 3b a2 3c 67 0e f0 bd
       -0.067751 0.0200391 0.019803636 -0.11721497
0000d0 dc d4 90 bd b7 5e b7 be d2 f3 73 3e e8 8e 1d be
       -0.0707185 -0.3581445 0.23823479 -0.15386546
0000e0 d6 5a 9f bc fe de 09 bd ac b3 e3 bd 10 ae 3f bd
       -0.019452494 -0.033659928 -0.11118254 -0.04679686
0000f0 e3 06 25 be cd fc 63 bc 40 0f b2 3d 02 88 82 3d
       -0.16115908 -0.013915253 0.08694315 0.06373598
000100 24 b5 14 bd e3 b1 88 3c 13 f3 82 bd 94 8a 62 3d
       -0.03630556 0.016686385 -0.06394019 0.05530794
000110 24 fa 58 be 86 6d 0a bd e0 85 b1 3d 7e 48 46 3d
       -0.21189171 -0.033795856 0.08668113 0.048408978
000120 66 e3 e8 3d b8 46 f1 bd a6 82 e4 bd 50 78 f3 3c
       0.11371498 -0.11781067 -0.11157732 0.029720455
000130 45 c5 d1 bd ce 9f e5 bc a4 fb af bd 09 81 08 be
       -0.10242704 -0.028030302 -0.085929185 -0.13330473
000140 d4 14 ac bd bd 21 e4 bd 46 2e 0a be 2e ff 04 be
       -0.0840241 -0.111392476 -0.13494214 -0.12987968
000150 72 78 08 be ca 8d b8 bd 22 41 28 3b 69 7c 8c be
       -0.13327196 -0.09011419 0.0025673588 -0.27438667
000160 ea 82 11 3e c8 4c a5 3d d6 99 b2 3d 48 11 a5 3d
       0.14210096 0.080712855 0.08720748 0.08059937
000170 9d e7 e7 bd 4f b5 3a 3d 26 8a 01 be a9 94 0c be
       -0.113234736 0.045583066 -0.12650356 -0.13728584
000180 b7 3a a1 3d 2b 4e 36 bd f4 34 3e 3d 1a 4e f5 bd
       0.07872527 -0.04450814 0.04643722 -0.11977787
000190 0b 95 02 be 70 e4 0f 3c a1 84 30 bd e2 87 9c bd
       -0.12752168 0.008782491 -0.043095235 -0.07643105
0001a0 9c 67 08 be 96 dc f9 3c ed 4a 88 bc ef 4c 0d 3d
       -0.13320774 0.030500691 -0.01663729 0.034497198
0001b0 06 a2 2d bc 3c 0e ac 3c 98 95 21 bd 5f 33 50 bd
       -0.010597711 0.021002881 -0.039449304 -0.05083024
0001c0 0d 7f d6 3d 37 32 a8 3e f9 e3 d4 3d ee 0f 22 bd
       0.10473452 0.3285081 0.10395045 -0.039565973
0001d0 9d 6f 49 bd 1e 54 f9 ba 9c d9 de 3d 38 86 fc 3b
       -0.04917871 -0.0019022261 0.108813494 0.00770643
0001e0 a0 61 33 bd b1 b2 5d bc ec 82 7d bd 40 c5 24 3d
       -0.043794274 -0.013531373 -0.061892435 0.040227175
0001f0 3a 3f 4d bd f5 25 70 bd f5 37 0b be a0 34 01 3d
       -0.050109126 -0.05862995 -0.13595565 0.031544328

network.4.weight f4 [128, 128]
000000 f6 fb a8 3c a3 42 ae bd 4a d8 48 bd 04 12 fd 3d
       0.020627957 -0.08508804 -0.049034394 0.12356952
000010 31 d1 6f 3d e3 9a af bd 96 ca 5a 3d ec 86 f3 3d
       0.05854911 -0.08574464 0.053415857 0.11890969
000020 17 8c 35 3c 01 2d 1f 3e b2 8a 1f 3d a9 5a af 3d
       0.011080763 0.15544511 0.03895063 0.08562214
000030 f3 7d 02 3d db b3 82 bd 88 10 4c 3c 8b f8 9b be
       0.031858396 -0.06381961 0.012455113 -0.3046306
000040 e1 24 50 be 9d c3 92 3d d1 8c bd 3b 0c ac 6a bd
       -0.20326568 0.071662165 0.005784609 -0.057292983
000050 07 d8 ab 3d a6 cb 79 3d 6e 82 6e 3d 1d ea 18 3e
       0.08390813 0.06098523 0.058229856 0.14933057
000060 c6 bd ac bd c3 30 d4 bc 11 10 17 bc 0a d8 00 ba
       -0.08434634 -0.025902158 -0.009220139 -0.0004915005
000070 97 3c af 3d 48 f8 e3 bc a5 71 83 3d 58 07 b0 bc
       0.085564785 -0.02782835 0.0641816 -0.021487877
000080 94 b1 de bc 41 0f 0e bc 8e 87 57 39 c5 74 8c 3d
       -0.027184285 -0.008670629 0.00020554496 0.068582095
000090 d1 b6 14 3a 32 5b e2 3d c2 c2 4d bd 00 e3 d4 3d
       0.0005672994 0.110525504 -0.050234564 0.10394859
0000a0 fb 29 81 3d c7 a8 97 3d 0b 02 a4 3d ec 45 82 bc
       0.06306835 0.074052386 0.08008202 -0.015902482
0000b0 18 10 49 bd a7 0e a3 3d bb df a8 bd e0 40 0c bb
       -0.049087614 0.07961779 -0.08245798 -0.0021400973
0000c0 20 64 e0 bd ce 0b 38 bd a0 a0 ee 3c be 51 10 3e
       -0.10956597 -0.044933133 0.029129326 0.14093682
0000d0 58 d2 c8 3d 07 04 91 bd 3a 2e 1b 3d 88 4e 96 bd
       0.09805745 -0.07080846 0.037885882 -0.073391974
0000e0 69 8e c6 3d 28 93 8e bc 34 09 9a bd 80 84 1e 3c
       0.09695131 -0.017404154 -0.075212866 0.009675145
0000f0 64 59 f3 3c 8f 77 1b bd af 13 87 3d a7 c1 94 3d
       0.02970571 -0.037955817 0.06595551 0.07263499
000100 00 88 d3 b9 bb 29 d9 3d 2e bc 00 3d 68 c5 05 3c
       -0.00040346384 0.106036626 0.031429462 0.008164741
000110 3a a6 6b bd 08 00 ae bc 61 78 86 bc c5 47 f5 3d
       -0.057531573 -0.02124025 -0.016414823 0.119765796
000120 ed 02 b3 bd cc e2 0e 3d 81 be 1e be 56 af 4d 3d
       -0.087407924 0.03488426 -0.15502359 0.05021604
000130 5f 4e 49 bd 7a 80 6a 3d 4c 27 74 bd 88 fa 30 3b
       -0.049147006 0.05725143 -0.05960779 0.0027004797
000140 ec a5 06 3e 40 d7 22 3c 10 38 4c 3c 1e 41 b4 bd
       0.13149232 0.009939015 0.012464538 -0.088014826
000150 a9 56 16 bd 86 e7 0d bd 52 e6 02 be 24 d6 68 bd
       -0.03670374 -0.034644626 -0.12783173 -0.056844845
000160 37 30 a3 bb 1c 10 d5 3c 10 e2 c9 bb e7 bd 30 3e
       -0.004980113 0.026008658 -0.006160982 0.17259942
000170 6f ef 4c bd ad 4b b4 bd 30 8b bd 3b 67 d0 96 3d
       -0.05003303 -0.088034965 0.0057844147 0.07363968
000180 86 95 f6 3c 03 ee e6 39 00 c0 7c bb cf f4 93 3d
       0.030100595 0.0004404635 -0.003856659 0.07224428
000190 88 af c8 3c 63 8c 8c bd ae f4 09 3d d6 84 6c bd
       0.024497762 -0.06862714 0.03368061 -0.05774387
0001a0 60 61 48 bb b2 e6 26 3d 18 42 0b 3e 29 0f c8 3d
       -0.0030575618 0.040747352 0.13599432 0.097685166
0001b0 6e ac 16 3d b3 fa 9f 3d f0 88 0f bc 4a 4e e7 bc
       0.036785536 0.07811489 -0.008760676 -0.028235573
0001c0 77 ae 00 3e 68 eb 92 bd 35 f4 68 3d b3 ea 66 bd
       0.12566553 -0.071738064 0.05687352 -0.05637617
0001d0 d9 21 68 3d 92 84 be 3c e0 a1 2a bc 1d 46 f7 3d
       0.056672905 0.023256574 -0.010414571 0.1207392
0001e0 d8 1a 75 bc ba ca 1b 3e 29 cd 49 bb 87 06 9e bd
       -0.014960013 0.15214053 -0.003079245 -0.07716089
0001f0 42 f8 6e bd 3e 70 8c bd b2 83 a7 bd d4 fb f8 3c
       -0.058342226 -0.06857346 -0.08179416 0.030393519
000200 9e c4 81 3d 30 a1 0a bc c3 49 83 3d 68 58 d1 3c
       0.0633633 -0.008461282 0.06410553 0.02555485
000210 66 49 79 3d f4 fd a1 3c 2a fa 99 bd b6 a0 5b 3d
       0.060861014 0.019774415 -0.07518418 0.053620063
000220 08 6e 0e 3e db 10 45 3d 00 8f 79 3c 6d 45 4d bd
       0.13909161 0.048111778 0.015231848 -0.050115038
000230 5f 8a 04 3e 0a c0 f7 3d fe c8 e0 3d 6e 53 5b be
       0.1294341 0.120971754 0.10975836 -0.21418545
000240 21 6d a9 3d 81 1d 77 3b be ca 02 3e 19 5b 50 bd
       0.08272768 0.0037706795 0.12772653 -0.050868127
000250 39 ed 31 3e 51 66 61 3c b3 ea ff 3d b5 22 b3 3d
       0.1737565 0.013757304 0.12495937 0.08746854
000260 f8 b1 4c bd fb c2 0a be 78 4e 54 bc 43 f4 a3 3c
       -0.04997441 -0.13550942 -0.0129581615 0.020013934
000270 90 83 aa be 20 af f2 3c 1f 0c 01 3e a2 4b 58 3d
       -0.333035 0.029624522 0.1260228 0.052806504
000280 30 a9 ab 3b c9 01 d7 3c b4 ff 12 3e 45 6d 98 3d
       0.0052386746 0.026245968 0.14355356 0.074427165
000290 f5 20 1f 3e 79 08 8e bd 64 51 84 bc 2f 81 d7 3c
       0.15539916 -0.0693521 -0.016152091 0.026306717
0002a0 5f 2f 88 3d 64 27 98 be 40 d9 66 3c 34 34 b0 bd
       0.0664966 -0.29717553 0.014089882 -0.08603707
0002b0 fe 41 96 bd 6f c3 f6 3d 02 f5 5f 3d 44 ef 09 3d
       -0.07336806 0.12048995 0.054677017 0.033675447
0002c0 ce 29 df bd cb c9 44 3d d9 86 d3 3d f9 08 10 bd
       -0.108966455 0.048044007 0.103284545 -0.035164807
0002d0 56 80 06 3e 98 7e 41 bc 5c 25 ae be 4b 59 b0 3d
       0.13134894 -0.011809967 -0.34012878 0.08610781
0002e0 e2 86 f3 bc 57 93 57 bd f8 0f 04 bd 58 f9 1a 3d
       -0.029727403 -0.05263075 -0.03224179 0.03783545
0002f0 6f 11 b0 3d da 89 24 3c 28 0c 3b bd 79 87 1a 3e
       0.08597075 0.010042632 -0.04566589 0.15090741
000300 4f 86 c1 bd 78 ff dd 3d ab 10 8b 3b 62 30 e1 bc
       -0.094494455 0.108397424 0.0042439303 -0.027488891
000310 98 d5 04 3d 16 f9 c7 bd c2 87 3c 3d ff 97 b5 3d
       0.03243026 -0.09764306 0.046027906 0.088668816
000320 2c e8 c7 bc ba 26 8a bd 0d 88 d3 bc 3a 82 26 3d
       -0.0244027 -0.06745668 -0.02582171 0.040651537
000330 ce 67 87 bd 98 ef 27 3c f7 c3 42 3d ac 6e 8a bd
       -0.06611596 0.010249995 0.047550168 -0.0675939
000340 43 69 27 3d dd 38 86 3d c0 c3 0c 3a 02 77 21 3d
       0.04087187 0.065538146 0.0005369745 0.039420135
000350 40 ca 6f bc 33 6f 85 3d cb 5a 60 3b 66 58 8b bd
       -0.0146356225 0.0651535 0.0034233804 -0.0680397
000360 87 f9 99 3d 1a 85 07 bc 00 b4 51 bc 57 91 2f 3d
       0.07518297 -0.00827148 -0.012799263 0.042863216
000370 80 f2 dc 3b 00 14 9a bd bf a2 c3 bd 68 3b ed 3c
       0.0067427754 -0.07523346 -0.09552526 0.028958991
000380 d2 74 9f 3d fd 46 2a 3e a8 ab d6 3c 6b 56 18 bd
       0.077859536 0.16628642 0.026204899 -0.03719179
000390 f4 b5 3f bd 9c 93 fc 3c 9d 0f 00 3d a6 20 37 be
       -0.046804383 0.030832104 0.03126489 -0.17883548
0003a0 4a 4b 92 bd fa c8 a2 bd 36 f0 58 3b 90 05 67 ba
       -0.071432665 -0.079484895 0.0033102161 -0.00088127796
0003b0 a2 22 6f 3d f1 c2 22 bc 92 75 af bd d2 75 4f 3d
       0.058382638 -0.009934173 -0.08567347 0.05064947
0003c0 9e 3b 6d 3d 4d 77 74 be fe 72 2f 3e 8f 9f e8 bd
       0.057918184 -0.23873635 0.1713371 -0.113585584
0003d0 13 5e 17 3e 34 56 ba bc 74 d3 a6 3c 84 ab 23 3e
       0.1478198 -0.022746183 0.0203645 0.15983397
0003e0 70 e8 14 3c 44 f5 3d 3e a5 f8 a7 bb 2a 4d 5d 3d
       0.009088621 0.18550593 -0.0051260763 0.054028668
0003f0 c0 2f dc bc 85 05 4d bc dd 3c 7b bd 9b 9e 48 bd
       -0.026878238 -0.012513523 -0.06133734 -0.048979383

network.4.bias f4 [128]
000000 d8 ea 30 bd b6 e6 39 be 89 90 b9 bc 6f a2 2b 3e
       -0.043192714 -0.18154415 -0.022651928 0.16761182
000010 7f 4a 5a 3e 2a 03 4b 3e b6 e9 68 bb 1b 16 64 be
       0.2131748 0.19825426 -0.0035539693 -0.22274058
000020 1a 6f d3 bd 46 e3 62 bd 42 9f 5b be 8d 61 81 3d
       -0.10323925 -0.055392526 -0.21447471 0.063174345
000030 96 d4 b9 3e 52 2f 71 be 83 1c c4 bd 17 aa 3a bc
       0.36295003 -0.23553208 -0.09575751 -0.011393092
000040 eb 18 5b 3e 9d f8 84 be f8 2d 12 3c 23 6b 10 3e
       0.21396224 -0.25970927 0.008922093 0.1410337
000050 98 ea 54 3e 87 c2 0d bd f8 73 8a 3e b2 4f 48 bd
       0.20792615 -0.034609344 0.27041602 -0.04890413
000060 30 71 03 bd 6a 40 a0 be 4f f6 37 bc ee d6 ed bc
       -0.032090366 -0.31299144 -0.011228158 -0.02903315
000070 2d ea 25 be db 3c 30 3e 55 cf 81 be b4 f1 01 3e
       -0.16202612 0.17210715 -0.25353494 0.12689859
000080 37 68 f9 bd 9f 46 39 3e 27 9c 93 be ab 06 e7 bb
       -0.121780805 0.18093346 -0.28830072 -0.0070503554
000090 2c d0 f4 bd 91 ef 8e 3d 48 66 38 be 39 70 e7 bd
       -0.11953768 0.069792874 -0.18007767 -0.11300702
0000a0 8a 49 a0 bd ee 4c bf 3d 5a 31 25 3e c4 bf bc be
       -0.078265265 0.09340845 0.16132107 -0.36865056
0000b0 b0 5e 7d be 38 05 bb be fe e4 c8 bd 78 78 2f bc
       -0.24743152 -0.3652742 -0.09809302 -0.010709874
0000c0 84 c3 96 bd ad 91 8a be 9b ae 30 be 6d 38 59 be
       -0.073615104 -0.27064267 -0.17254107 -0.21212931
0000d0 56 a7 54 bd a1 cb 0c 3e 67 45 ee 3d 65 6d d7 bc
       -0.051917396 0.13749553 0.11634331 -0.02629728
0000e0 e1 52 94 3e 82 90 1f 3e b7 98 90 be 02 5b 09 be
       0.28969482 0.15582469 -0.28241512 -0.13413623
0000f0 98 2c 94 be f1 9e 25 be 16 a8 ca 3d 9a 9f be be
       -0.28940272 -0.16173913 0.09895341 -0.3723114
000100 9f 40 97 be a0 c2 89 be 49 84 1f 3e b1 dd 7f be
       -0.2954149 -0.269063 0.15577807 -0.24986912
000110 d8 2a 07 bc 37 39 6f be 32 f9 8a be 43 de 8f be
       -0.008249961 -0.2336167 -0.27143246 -0.2809926
000120 e3 bb fc bd 36 11 07 be cd e4 df 3d cd c8 55 3c
       -0.12340524 -0.13190159 0.10932312 0.013048363
000130 15 aa 69 be c1 64 52 3d e7 78 3b be 7b d9 4c bc
       -0.22818787 0.051365618 -0.1830784 -0.012503023
000140 f3 5b d6 be fb aa 1e be 7f 1d 88 3e 1c 2a 89 3e
       -0.41867027 -0.15494911 0.26585004 0.2678994
000150 8f 77 06 bd 02 48 90 be 39 bc 31 3d 93 10 07 3e
       -0.032828864 -0.28179938 0.043392394 0.13189916
000160 0c df 90 be 57 72 91 be 1f cd a8 3e df 84 5c bd
       -0.2829517 -0.28407547 0.32968995 -0.053837653
000170 7a d7 5d 3d fb 57 0a be f1 55 57 be ee 2c b2 be
       0.054160573 -0.13510124 -0.21028878 -0.34799904
000180 f5 23 fa bb a1 47 7f 3e bb 29 f4 bc 42 fc 85 be
       -0.007633681 0.24929668 -0.029805055 -0.2616902
000190 a1 ca 0b 3e b3 8c de be e6 fa 5f be cc 4c a5 bd
       0.13651516 -0.4346672 -0.21873054 -0.080712885
0001a0 04 1b 74 be 39 c1 41 3e 5c 6c 9c bd de 51 c5 bd
       -0.2383843 0.18921365 -0.076378554 -0.096347556
0001b0 6d 2f 66 bd ae 81 c5 bc 5e 52 7f be 55 ae 24 3e
       -0.056197572 -0.024109688 -0.24933764 0.16082127
0001c0 8c 17 c1 3e 0e cb 4d 3e 6b d3 74 be ff 96 96 bd
       0.37713277 0.2009699 -0.23908775 -0.07353019
0001d0 c3 97 85 3e fc 0b 93 3d db 74 7c be 4b 12 0a 3d
       0.26092348 0.0718002 -0.24653952 0.03370885
0001e0 a2 2d 57 bc 5d 38 6d 3e a6 1f 85 be c5 d1 92 be
       -0.013133438 0.23166032 -0.26000708 -0.28675666
0001f0 87 18 98 be b1 3f 97 be 4d aa cc 3c 1e d7 95 bd
       -0.29706213 -0.2954078 0.02498355 -0.07316421

network.6.weight f4 [64, 128]
000000 15 95 72 bb 79 5c 53 3c b6 82 e5 bd 57 f1 f6 bc
       -0.003701513 0.012900465 -0.11206572 -0.030144377
000010 2b d4 05 bd f5 58 8d be 4e 1f fc bd df c9 73 bc
       -0.032673042 -0.2760693 -0.123106584 -0.014879673
000020 56 20 3e bd c6 ca ed bd 5e 26 bf 3b ac a0 24 3d
       -0.046417557 -0.116109416 0.005833431 0.04019229
000030 cd e7 cc be 24 ac 15 bd 8c 88 fa 3c 9c af 11 bd
       -0.400206 -0.03654112 0.030582689 -0.035567865
000040 78 c2 ad bd 8d 1d df bd 1a c9 fa bc 01 62 39 be
       -0.084843576 -0.10894308 -0.03061347 -0.18103792
000050 b2 1d 8b be 59 3e 59 3e b9 ec 80 3d 73 f0 87 3d
       -0.27171093 0.2121519 0.06295151 0.06637659
000060 51 7b 02 be b9 26 fb bd 5a 60 38 bd 19 51 46 bd
       -0.12742354 -0.12263245 -0.045013763 -0.048417185
000070 3c 4f 4c bd 69 53 08 3d 20 7f 05 be 97 41 cb bd
       -0.04988025 0.03328267 -0.13036776 -0.0992462
000080 ba d7 d4 bd 59 63 4e bd 3c 5b 00 be 8c 85 2b 3c
       -0.10392709 -0.050387714 -0.12534803 0.010468852
000090 29 f1 41 bb 7e 39 0a be 80 db 13 be 60 a8 ed bb
       -0.0029593206 -0.13498494 -0.14439201 -0.007252738
0000a0 df 89 76 bd 2c 96 68 bd f0 99 20 bd 1d 2c dc 3c
       -0.060190078 -0.05678384 -0.039209306 0.026876504
0000b0 55 09 b4 bb 8e d5 5c bc 96 6c 4c bd ba a5 5d bd
       -0.0054942765 -0.01347865 -0.049908243 -0.054113127
0000c0 4f a7 2d 3b ef bd 6d bd 10 90 4f be 80 68 e9 bd
       0.0026497429 -0.058042463 -0.20269799 -0.11396885
0000d0 ae 04 84 3c 77 fc 61 be 1f 22 b9 bd 46 90 01 3d
       0.016115513 -0.22068964 -0.09039711 0.03163173
0000e0 6a b5 64 bd 62 03 27 3d e2 0c dc 3c 21 e5 ca bd
       -0.055837072 0.04077471 0.026861612 -0.09906984
0000f0 8a 86 f4 bb 5a 72 e5 bd 2a 12 3b 3d 82 67 a0 bd
       -0.0074623274 -0.112034515 0.04567162 -0.078322425
000100 b0 e9 e0 3c 20 c4 3b 3a b7 20 2b be 4f 12 38 be
       0.02745518 0.0007162709 -0.16711698 -0.17975734
000110 db ef d5 bb c9 32 9d 3d b0 e1 00 bc 61 32 7e bd
       -0.006528837 0.07675702 -0.007866308 -0.062059764
000120 ef 79 8c 3c 13 4f 41 bb 42 b4 4c be f2 7a a4 bd
       0.017147986 -0.0029496595 -0.19990638 -0.080312625
000130 d2 0d 4e bd dc e3 cb 3a 26 09 56 be eb 74 af bd
       -0.05030615 0.0015555578 -0.20901927 -0.08567222
000140 9e 85 2c 3d 03 0d 56 bd 28 60 89 bc 18 17 2a bd
       0.042119615 -0.052258503 -0.016769484 -0.04152593
000150 0f 58 ed bd 60 09 76 bd c6 80 8a bd aa df 6b 3d
       -0.115890615 -0.060067534 -0.06762843 0.05758635
000160 04 c2 f5 bd e7 d3 91 3c 5b 1b b6 be bb 95 04 be
       -0.11999896 0.017801238 -0.35567746 -0.12947743
000170 0e a8 45 3d d8 e1 e2 3c 0a ff 30 3c e6 75 9d bc
       0.048255973 0.027695581 0.010802994 -0.019221257
000180 3f a6 bd 3b 38 fb 23 3d 2a 99 30 3d a6 d4 0e be
       0.0057876403 0.040034503 0.04311482 -0.13948306
000190 56 8e 50 bc 84 18 8d 3e 49 9b af 3d da b3 71 3d
       -0.012729248 0.27557766 0.0857454 0.05900941
0001a0 10 b4 52 3c 20 a5 ad bd 00 b2 cc 3b 22 b9 0c be
       0.012860313 -0.08478761 0.006246805 -0.13742498
0001b0 b8 ad 02 3d 9c f1 4f bc 93 e5 95 3b e0 c2 cb 3c
       0.031903952 -0.0126918815 0.0045744865 0.024873197
0001c0 17 2c 27 be 96 73 44 bd 9a de 98 bd 34 49 c5 bd
       -0.16325413 -0.047961794 -0.07464333 -0.09633103
0001d0 a9 17 df bd e1 19 7c bd ec 11 02 be 7f 54 56 bc
       -0.10893185 -0.061548118 -0.12702149 -0.013081669
0001e0 6f 9b 45 3a d7 11 90 be 92 ea ea bd 78 32 78 bd
       0.0007538115 -0.2813861 -0.11470522 -0.060595006
0001f0 e7 2d 27 bc 73 4b e4 3a 5d b6 d9 bd d4 84 85 3b
       -0.010203815 0.0017417505 -0.10630486 0.0040746722
000200 19 32 21 bd 6f 55 d7 bc 71 54 87 3d 08 3d 09 3d
       -0.039354417 -0.026285855 0.06607903 0.03350547
000210 bb c4 af bd b8 c1 b6 bd a1 a5 56 b7 f2 7c 3e bc
       -0.08582445 -0.08923668 -1.27939575e-05 -0.011626469
000220 f4 5a c5 bc c6 ba c8 bd 77 7d 0d bd 65 e9 a0 bd
       -0.024091221 -0.09801249 -0.03454348 -0.078570165
000230 f5 13 84 bd b6 ee 4c bc a0 d9 54 bb 64 f0 19 3a
       -0.06449119 -0.012508085 -0.0032478347 0.0005872308
000240 09 1d 5b bd 43 05 16 be f4 ef d9 3d 41 28 ef bb
       -0.053494487 -0.14650445 0.106414706 -0.0072985
000250 16 04 f8 bb fa 5a 42 3d af 44 fc bd d5 cc 0f 3d
       -0.0075688465 0.047450043 -0.12317788 0.035107452
000260 66 c6 1d be ba 6d 33 bc 1e d3 96 bd 7b 5d ba bb
       -0.15407714 -0.010951454 -0.07364486 -0.0056874133
000270 7a b9 c7 3d b1 73 a8 bd 5c 2f ef 3d 61 0e 8a bd
       0.09752174 -0.082251914 0.11678955 -0.06741024
000280 6f 92 a6 bd 58 fc a8 bb 2a 96 05 be c6 3f 65 bd
       -0.08133399 -0.005157035 -0.13045564 -0.055969022
000290 2f 42 04 be 0a 30 da 3c 90 b6 0b bd 68 c6 25 bd
       -0.12915872 0.026634235 -0.034109652 -0.040472418
0002a0 ba 1b 34 bb 67 a3 14 3d 4e 76 b0 bd 46 9f 57 3d
       -0.0027482347 0.036288645 -0.08616315 0.05264213
0002b0 da 15 4a 3d a8 3a 21 bd c0 07 8b 3c 48 16 06 3c
       0.049337246 -0.03936258 0.016971469 0.008184023
0002c0 44 28 65 bc 21 17 85 bb a3 0c bf bc 3c 18 85 bd
       -0.013986651 -0.004061595 -0.023321455 -0.06498763
0002d0 e7 8a ae bc d0 fa be bc cf e5 93 bc dd ee 45 bd
       -0.021306468 -0.023312956 -0.018053917 -0.0483235
0002e0 60 41 7d 3c 0f e6 d3 bd 52 94 98 3d 53 fe 48 bd
       0.015457481 -0.103466146 0.07450165 -0.049070667
0002f0 89 98 17 be de d9 b4 bc de f3 61 3d 68 98 d3 3c
       -0.14804281 -0.022076543 0.05516421 0.025829509
000300 8f 6d 44 3d 1c 5d d7 bd 0d e1 84 3d da df 23 3d
       0.047956046 -0.10515806 0.064882375 0.040008403
000310 f9 1e bd bc 72 78 68 bd 20 24 25 3b 36 fb 3a 3d
       -0.023086058 -0.05675549 0.0025198534 0.04564973
000320 52 84 d2 bd 20 6f ad bd 82 5a ae 3c 58 bc c4 3d
       -0.10279144 -0.08468461 0.021283392 0.09606236
000330 c2 fe 0e be d4 8d c7 3d 8d 49 54 bd f0 3c 29 bd
       -0.1396437 0.097438484 -0.051827956 -0.04131788
000340 5c a7 01 bd 49 a0 86 3d 08 b6 36 bd 5f ca 14 be
       -0.031653747 0.06573541 -0.044607192 -0.14530323
000350 51 e4 6e 3d 60 57 d6 bd 04 d1 08 bd a0 68 f3 3b
       0.05832321 -0.10465884 -0.033402458 0.0074282438
000360 7a e7 ff 3d 58 a6 be bd f8 4c c2 bd 1f 7f 4f bd
       0.124953225 -0.09309071 -0.09487337 -0.05065834
000370 b9 e0 58 bd ff cc a5 3d 16 62 bf bd bc 2c dd 3d
       -0.052948687 0.080957405 -0.0934488 0.10799548
000380 3d e1 93 bd 1e cd 08 be b1 e1 24 3d 52 ca 5c 3d
       -0.07220695 -0.13359496 0.0402543 0.053903885
000390 1c 09 d2 3c c5 2d 77 bd a6 20 7a 3d 11 e2 b4 3c
       0.02563911 -0.060346384 0.061066292 0.022080453
0003a0 ea db fb bc 64 26 9b bb bd e0 96 3d ab 38 28 bd
       -0.030744512 -0.004734801 0.07367084 -0.041069668
0003b0 30 58 42 3c e8 7c 15 3d b2 42 16 be 70 90 6a 3c
       0.011861846 0.036496073 -0.1467388 0.014316663
0003c0 fd 7f 79 bd 92 ab 6c bd a6 71 6e 3d 86 44 fc bd
       -0.060913075 -0.05778081 0.058213852 -0.12317757
0003d0 93 91 a9 3d c1 92 15 bd 5a 73 d3 3d eb 0e 89 bd
       0.08279719 -0.03651691 0.10324736 -0.066922985
0003e0 e4 3a 5a bc a6 ac 36 3d 5e c3 16 bd 3d b2 8d 3d
       -0.013319705 0.044598244 -0.03680741 0.06918762
0003f0 80 44 3c 3c 86 10 66 3d c2 00 0c 3e 5c 7a c7 3d
       0.011490941 0.0561681 0.13672164 0.09740135

network.6.bias f4 [64]
000000 87 86 9a be 47 6a 92 3d 15 cd 30 be ab ed 81 bd
       -0.3018076 0.07149177 -0.17265733 -0.0634416
000010 0c 3d 9b be 10 7f be bd 5e 72 3c 3c d8 f3 9e be
       -0.30320013 -0.09301579 0.011501877 -0.31045413
000020 c8 c0 1e be 5a ae 69 bd c2 ac d7 bc 80 71 29 be
       -0.15503228 -0.05705104 -0.026327495 -0.16547203
000030 d5 55 96 bd fa 4b 8f be b3 51 0f be be a4 a3 be
       -0.0734059 -0.27987653 -0.1399601 -0.31961626
000040 60 fb 6d bd 3d de a9 be 4d 4a 17 bd 31 d2 48 be
       -0.058101058 -0.33177367 -0.036936093 -0.19611432
000050 21 ad 4e be b2 26 0f be 3c 19 11 be 4a 3f 70 3d
       -0.20183231 -0.13979605 -0.14169782 0.058654107
000060 2c 25 6b 3d 70 9c b1 be ea 85 7d bb f4 51 56 3c
       0.057408497 -0.34689665 -0.0038684555 0.013081063
000070 58 e9 1d be 58 08 89 bb 1e ce 62 be 70 81 40 be
       -0.15421045 -0.004181903 -0.2214894 -0.18799376
000080 44 1a c5 bd 03 03 33 be 26 c9 14 be 8b 32 ce bd
       -0.096241504 -0.17481618 -0.14529857 -0.10068234
000090 68 c9 0d 3b a0 e6 f9 bd c1 0b 77 be 36 f6 dd bd
       0.002163494 -0.12202191 -0.24125578 -0.10837977
0000a0 51 a3 e0 bd 58 34 c1 ba 68 83 49 3c 88 5f 64 be
       -0.1096865 -0.0014740331 0.012299396 -0.22302067
0000b0 fe 7d 88 3c 0a 85 b0 bd 68 e5 95 be c1 95 de 3c
       0.01666164 -0.08619125 -0.29276586 0.027171018
0000c0 aa 61 89 3b df b3 0f be 1f 38 ff ba 5e 70 c1 bc
       0.0041925507 -0.14033459 -0.0019471681 -0.023613151
0000d0 3f c2 6a bd 25 dc de bd e8 57 ab bd c9 a1 22 be
       -0.057314154 -0.10881833 -0.08366376 -0.15882029
0000e0 75 c4 9b be 7d 34 c3 3c b4 5c 05 be 94 b8 85 be
       -0.30423322 0.02382874 -0.13023645 -0.26117384
0000f0 2a d2 35 be b3 0d 24 bc c4 be 33 be d5 f6 27 bd
       -0.17755952 -0.010013032 -0.1755324 -0.04100688

network.8.weight f4 [32, 64]
000000 d6 f3 16 bd 3a 34 d9 bb ea c6 e2 bd 7b 92 f4 3c
       -0.036853634 -0.0066285403 -0.11073096 0.029855004
000010 fe 99 69 3e 69 76 f9 bd b6 ae 35 3e 82 4b ff bd
       0.2281265 -0.12180788 0.17742428 -0.12465574
000020 a8 17 1b bc 7a 70 96 3d 71 fc a0 3b 84 3f 12 3e
       -0.009466089 0.07345672 0.004912906 0.14282042
000030 07 8f 0a bd a5 77 4e be 89 18 a4 bc f5 8b 9b 3d
       -0.033827808 -0.20162828 -0.02003123 0.07595054
000040 49 f1 bf bc 57 f4 81 be 22 57 33 3e 4e 8d d1 be
       -0.023430483 -0.2538173 0.17513707 -0.4092812
000050 21 95 0d 3d 75 d9 07 3e 0c b3 01 3d 51 5b 07 3e
       0.03456605 0.13266547 0.031664893 0.13218428
000060 af dd 95 bd 83 01 a9 be 3a bf 00 3e 52 bd da bc
       -0.073176734 -0.33008966 0.12572947 -0.026701603
000070 f1 ae 3e 3e 84 4b 02 3e 6d 4a 0e bd a6 ba 70 3d
       0.18621422 0.1272412 -0.034738947 0.05877175
000080 a4 f8 73 bd 98 8f 0f 3d c3 f9 26 be c0 91 f8 3d
       -0.059563294 0.03504905 -0.16306214 0.121371746
000090 6d 9e b4 bc 4d ca 25 3c 6c bd 80 3d 11 cd 1b bd
       -0.0220482 0.010119033 0.06286129 -0.038037363
0000a0 ed 7f 04 be f6 06 89 3a 72 fe 98 bd ac c6 3d bd
       -0.12939425 0.0010454345 -0.074704066 -0.046332046
0000b0 e9 19 ab 3d 11 d8 0b bc 43 f4 2b 3e ac 41 d0 3d
       0.08354551 -0.008535401 0.16792397 0.10168776
0000c0 3d 11 1b 3e 75 fb 97 3c 3c b6 77 bd 98 09 a7 bd
       0.15143295 0.018552521 -0.060476527 -0.08156127
0000d0 a0 9d 7f bd 21 e5 2e 3e 5e e9 97 39 3c 2e 02 3d
       -0.062406182 0.17079593 0.00028974836 0.031782374
0000e0 c7 61 91 3e 57 0b 5f bd e5 51 26 3d 37 e7 34 3c
       0.2839491 -0.054454174 0.040605444 0.011041454
0000f0 27 4b 0a be 61 25 f8 3b 67 e5 48 3e ac 3e 4e bd
       -0.13505231 0.0075728153 0.1961876 -0.050352737
000100 71 85 b5 3e a6 ec 33 be f4 c1 77 3e b6 a9 dd bd
       0.3545337 -0.17570743 0.24195081 -0.108233854
000110 56 2c 12 3e 50 fc fc bc c7 68 27 3e 7e c0 5c 3e
       0.14274725 -0.03088203 0.16348563 0.21557805
000120 49 1d f7 bd 4a 1e d1 bd 7c 23 9d bd af 6a 2c 3d
       -0.120661326 -0.10210855 -0.07672784 0.04209393
000130 24 c0 d7 bd c7 5c b7 3e 2a 1b be 3d f7 94 0e bd
       -0.10534695 0.3581297 0.09282525 -0.034810033
000140 1a ef e3 3d 2e 43 9b 3e 29 55 ef 3c e0 09 29 be
       0.111295894 0.30324692 0.029215412 -0.16507673
000150 45 10 83 3e 40 d4 52 bd 8a 93 ec bd 66 b3 f1 3d
       0.2559835 -0.05147195 -0.11551578 0.11801796
000160 06 1e f0 bd 93 b3 54 be 31 da 9c b9 34 0e aa 3c
       -0.117244765 -0.20771627 -0.00029917204 0.020758726
000170 ce 60 fb 3b b8 8c a0 3d e2 f2 f9 bc 5c b7 c7 3d
       0.007671452 0.0783934 -0.030511323 0.0975177
000180 ed 1c 24 3d 80 da 93 3e 24 20 24 bd e3 c4 bc 3e
       0.04006665 0.2887764 -0.040069714 0.36868963
000190 70 eb a7 3c 1f a0 d4 bd 96 f1 75 3e 16 c7 92 3d
       0.020498008 -0.10382103 0.24017939 0.07166879
0001a0 c0 76 d5 3d b0 af 3c 3c 14 b6 be bd 58 d9 9d be
       0.104230404 0.011516497 -0.093120724 -0.30829883
0001b0 89 3a 2d 3b 54 5c 96 3d cb 52 00 3e 84 1f 03 be
       0.0026432595 0.07341829 0.12531583 -0.12804991
0001c0 e1 d5 df 3d 0a 74 d1 3d 8e d3 14 bd c0 4d 24 bc
       0.10929466 0.10227211 -0.036334567 -0.010028303
0001d0 34 58 be 3d 24 fd c2 bc 93 c4 52 bd 4c 63 12 3e
       0.09294167 -0.023802347 -0.051457 0.14295691
0001e0 ad 59 a4 3e 48 af 8e bd 42 6b ef 3c 56 c5 d0 3e
       0.32099667 -0.06967026 0.02922595 0.40775555
0001f0 19 ea 10 3e 1b 4a a7 bd 5c df 9e 3d 5c 71 b3 bd
       0.14151801 -0.08168431 0.07757446 -0.08761856
000200 e0 ec c4 bc 8a 25 de 3d c7 d2 73 3e 58 a0 b9 bc
       -0.024038732 0.10847004 0.23810874 -0.022659466
000210 b4 9e f3 bd 74 ee dd 3d d8 36 0e bd dc db b9 bd
       -0.118955046 0.10836497 -0.03472027 -0.09075138
000220 4a 3b cd bd 5c 19 83 bd 9c a2 eb 3d 69 4c 8b ba
       -0.10021074 -0.06401321 0.11505625 -0.001062763
000230 14 5a 88 3d ea 7a 13 be c4 4b 92 3d 4f 55 bd 3d
       0.06657806 -0.14402357 0.071433574 0.09244787
000240 a2 66 a4 3d 0a ac bd bd 90 e2 97 bd d6 c8 59 3e
       0.08027388 -0.092613295 -0.0741626 0.21268019
000250 fc b8 97 3c e0 8a 1b 3d e4 20 ac bd a9 cb 3e bd
       0.018520825 0.03797424 -0.08404711 -0.046580944
000260 d0 3b 8c 3c 62 15 e7 3d a0 39 74 bc 2c 63 aa 3d
       0.017118365 0.11283375 -0.014906317 0.08319697
000270 96 e2 71 3d 3c 61 00 3d 1e e4 45 bd d0 fc 9a 3d
       0.05905398 0.03134273 -0.048313253 0.075677514
000280 e8 9a a0 bc be b5 de bd 90 da 51 3d e2 ae 81 ba
       -0.019605115 -0.10874508 0.051233828 -0.0009894038
000290 4e bf 1b be 80 a3 52 bd 9c 32 07 3e 3a 9b 81 bd
       -0.15209696 -0.051425457 0.132029 -0.06328435
0002a0 60 6f 65 bd c0 0a 9b bc e0 21 1c 3c b0 f7 95 3d
       -0.05601442 -0.018926024 0.009529561 0.07322633
0002b0 52 16 de bd a8 f0 cc 3c 43 cb 1a 3e d7 ae 81 bd
       -0.10844101 0.025017098 0.151166 -0.06332176
0002c0 54 f8 92 bd 34 fc ef 3d cc d3 60 bd 86 3c 9f bd
       -0.07176271 0.11718026 -0.054889485 -0.07775216
0002d0 6c b0 0d 3d 78 59 94 bc 86 53 9d bd ce 9d 8b be
       0.034592077 -0.018109068 -0.076819465 -0.27268833
0002e0 cc 94 bb bd 68 07 8c 3c a4 ca 28 3d 4e 5d fc 3d
       -0.0915924 0.017093375 0.04120888 0.12322484
0002f0 68 3c 99 3e 1c 88 ae 3d fb 59 cd 3d 1c 60 07 bd
       0.299289 0.085220546 0.10026928 -0.03305064
000300 e9 8e 51 3e 05 7b 11 be 72 6f 0c 3d 87 9a 2d bd
       0.20464672 -0.14207084 0.03428597 -0.042383697
000310 66 ab 01 3e fd a3 8c bb 77 c0 42 3c 5a 9c 98 3e
       0.1266304 -0.00429201 0.0118867075 0.29806787
000320 dd 48 3e bd 8c 5f 03 be a8 a2 2c be 3e 34 78 bd
       -0.046456207 -0.12829417 -0.16858923 -0.060596697
000330 de 9a 78 3d 50 63 0c be 11 55 bc 3d 60 64 24 be
       0.060694568 -0.1370976 0.09195913 -0.16053915
000340 41 2d 07 3e 84 6e db bd 93 20 a3 bc f6 c8 25 be
       0.13200857 -0.107144386 -0.019912994 -0.16189942
000350 89 e7 86 bb b1 90 b3 bc 06 10 cc bd 2a e5 aa bd
       -0.0041169566 -0.02191958 -0.09963994 -0.08344491
000360 50 4c f3 bd c8 39 44 bd 8f fe 11 bc f3 89 1a 3e
       -0.1187979 -0.047906667 -0.008910789 0.15091686
000370 57 a0 05 3c f0 02 56 3d 3a aa a4 3b ca 24 ce 3d
       0.008155904 0.052248895 0.0050251754 0.10065611
000380 4f 76 d2 3c 8e 65 73 3d 51 40 0b 3e 57 f6 7c 3d
       0.02569118 0.059423022 0.13598754 0.061758365
000390 5d e0 52 bd b8 a6 6f 3d a3 fb ee bd 46 11 82 3d
       -0.0514835 0.058508605 -0.1166909 0.06350951
0003a0 ce 1b aa 3d f9 73 6e 3d f6 ee b1 3d 84 37 7f bd
       0.083060846 0.05821607 0.08688156 -0.062308803
0003b0 13 0e 98 bd d8 68 dd 3c 9a bd 6d bc 4d 0d 1c bd
       -0.074245594 0.027027532 -0.014510537 -0.038098622
0003c0 53 8b b9 bc d8 15 a4 bd 26 2e 4d 3c df b9 05 3d
       -0.022649443 -0.08011979 0.01252321 0.032647964
0003d0 92 f0 19 bd 85 af e6 bd 7d 4b 5c bd 3d 24 b2 bb
       -0.03758294 -0.112639464 -0.05378293 -0.005436449
0003e0 2e 28 81 bd d5 15 2f be ef 40 09 3d 9f a5 91 bc
       -0.06306492 -0.17098172 0.03350919 -0.01777917
0003f0 bd 01 9d bd 94 a9 35 3d d1 65 75 3d 87 cc 8b 3d
       -0.07666347 0.044351175 0.059911553 0.0682612

network.8.bias f4 [32]
000000 bd d9 6f be 90 d1 40 41 66 5b 26 be 23 74 69 be
       -0.23422904 12.051163 -0.16245803 -0.22798209
000010 d2 b7 bd bd a3 7d 33 be ca d7 2d be c2 7a a1 be
       -0.092635766 -0.17528395 -0.16976848 -0.3153897
000020 50 aa fc be 08 6e f4 be 63 2f 0b bd bb 22 c6 be
       -0.49348688 -0.47740197 -0.03398074 -0.38698372
000030 84 e2 bb bd d2 89 d8 bd dc bc b6 bd 34 3c ba 40
       -0.09174064 -0.10573162 -0.08922741 5.819849
000040 6c 9a 35 bf ae 4d b5 bd ec 87 d8 be 28 f0 b1 be
       -0.70938754 -0.08852707 -0.422912 -0.34753537
000050 18 20 92 be 21 28 a4 40 bf 6c 91 bd 5e d8 08 be
       -0.2854011 5.1298985 -0.0710082 -0.13363788
000060 13 88 a5 bd 42 3f 32 40 7c 2f 81 bd 4e 9b 93 be
       -0.08082595 2.785111 -0.06307885 -0.28829426
000070 fe 85 31 be b9 85 d5 bd 92 e7 ff bc 87 bf a5 bd
       -0.1733627 -0.10425896 -0.031238351 -0.080931716
