model/DQNAgent2_20-08-2022__05-00-11.pth/DQNAgent2_20-08-2022__05-00-11.pth (torch, 210255 bytes, 8 tensors)

network.0.weight f4 [64, 13]
0	0x3e5f47f9	0.21804799
1	0xbe5bfe99	-0.2148384
2	0xba141614	-0.0005649042
3	0xbe180f49	-0.14849581
4	0x3eade3d1	0.33962873
5	0xbf00e0e3	-0.5034315
6	0xbe4560b1	-0.19275166
7	0xbee8a270	-0.4543643
8	0xbe136589	-0.14394201
9	0x3e4c8f58	0.19976556
10	0x3abb1b88	0.0014275173
11	0xbe28385d	-0.16427751
12	0x3e74f9b0	0.23923373
13	0xbd502697	-0.050818052
14	0xbe654eee	-0.2239339
15	0xbe1f4faa	-0.15557733
16	0x3e4e9c9f	0.20176934
17	0xbe2cd409	-0.1687776
18	0x3dae5df2	0.085140124
19	0xbe783b7c	-0.24241441
20	0x3d4319e3	0.04763211
21	0x3c217e66	0.009856796
22	0xbce6ba7f	-0.0281651
23	0xbdb82d85	-0.08993057
24	0xbe958aef	-0.2920756
25	0x3dd7490c	0.105119795
26	0x3b0923d2	0.0020925892
27	0x3ea77549	0.3270667
28	0x3d8c3c2c	0.068474144
29	0x3e315902	0.1731911
30	0x3f16187f	0.5863113
31	0x3eaa05f4	0.33207667
32	0x3e62635c	0.22108215
33	0x3ea87537	0.32901928
34	0x3e3f8fb6	0.18707165
35	0x3d91e250	0.07123244
36	0xbec5b271	-0.38612702
37	0xbe955b66	-0.29171294
38	0xbf12b69c	-0.5730989
39	0x3d04095c	0.03223549
40	0x3e526509	0.20546354
41	0x3f0e98f7	0.55702156
42	0x3e629838	0.2212838
43	0x3eec0b65	0.46102443
44	0x3e58cec8	0.21172631
45	0x3ed83290	0.42226076
46	0x3ddb41cf	0.10705911
47	0x3e1a98a1	0.15097286
48	0x3eaab31e	0.3333978
49	0xbf230893	-0.6368496
50	0xbeb86f1c	-0.3602227
51	0xbf328384	-0.69731927
52	0xbe3b480a	-0.182892
53	0xbdc2e156	-0.09515636
54	0x3dff44d8	0.12464303
55	0xbe59c0f4	-0.21265012
56	0x3a9b3600	0.0011841655
57	0x3db49e00	0.088191986
58	0xbe3ab79c	-0.18234104
59	0xbcfc4b68	-0.030797675
60	0xbdbc4102	-0.09192087
61	0xbe2aef04	-0.1669274
62	0x3d907294	0.07053104
63	0xbe542c2c	-0.20719975
64	0xbaab4800	-0.0013067722
65	0x3ce5af58	0.028037712
66	0x3cced8e7	0.025249911
67	0xbd835f65	-0.064146794
68	0x3e3d5ffe	0.1849365
69	0xbdd52440	-0.10407305
70	0xbd9fc81d	-0.078018405
71	0x3e1b2e23	0.15154319
72	0x3db7f6ad	0.089825965
73	0xbe858e6b	-0.2608522
74	0xbe716e82	-0.23577312
75	0x3d8ce120	0.06878877
76	0xbe97c27f	-0.29640576
77	0xbe40c127	-0.18823682
78	0xbdaee8d9	-0.08540506
79	0x3e5f066a	0.2177979
80	0xbe2c40e4	-0.16821629
81	0xbe10eb4d	-0.1415226
82	0x3e6e6c9c	0.23283619
83	0xbda85560	-0.08219409
84	0x3df37d08	0.11889082
85	0xbe3d2ba7	-0.18473683
86	0xbe6a8c19	-0.22905006
87	0xbe0175b8	-0.12642562
88	0x3d249b19	0.040186975
89	0x3d29fcd1	0.04150087
90	0xbcc303c6	-0.02380551
91	0x3e5dfd7e	0.21678731
92	0x3d00a1c3	0.031404268
93	0x3e920411	0.28518727
94	0xbdc3585b	-0.09538337
95	0x3ded663e	0.11591767
96	0xbe0c2156	-0.13684592
97	0xbc300070	-0.010742292
98	0x3e22bf5c	0.1589331
99	0x3ce707ae	0.028201904
100	0xbddd214d	-0.10797367
101	0xbdb9a0e6	-0.09063892
102	0xbe28135d	-0.16413637
103	0xbe27667e	-0.16347691
104	0xbc1c649f	-0.009545474
105	0x3df6d999	0.12053222
106	0xbe0c994d	-0.13730355
107	0x3bd4c249	0.006492887
108	0x3c8c756f	0.01714584
109	0xbec7d55f	-0.39029977
110	0xbe92ef24	-0.28698075
111	0x3d72e053	0.059295963
112	0x3e51ccc9	0.20488276
113	0xbe1863b4	-0.14881784
114	0xbe44b564	-0.1920982
115	0xbd93f622	-0.072246805
116	0xbe1002dc	-0.14063591
117	0xbea5030e	-0.32228893
118	0x3ea82ded	0.3284754
119	0xbea569a5	-0.32307163
120	0xbd1214e2	-0.035664447
121	0x3f306b1a	0.68913424
122	0xbd10f77b	-0.035392266
123	0xbe91cf33	-0.28478393
124	0xbe9271b9	-0.28602389
125	0xbebec5e5	-0.37260357
126	0xbe32ae2a	-0.17449251
127	0xbd32de93	-0.043669295
128	0xbd86fcb1	-0.06591166
129	0x3ae6d871	0.0017612112
130	0x3e16970c	0.14706057
131	0x3e80b62e	0.25138992
132	0xbd842157	-0.064516716
133	0x3d2b9ffb	0.041900616
134	0xbda738f6	-0.08165161
135	0x3cd63f79	0.026153313
136	0x3e060420	0.13087511
137	0xbe2275ca	-0.15865245
138	0xbd6cb537	-0.057790007
139	0xbe9ef6b1	-0.31047586
140	0x3cc0fea8	0.02355893
141	0x39d972af	0.0004147491
142	0xbdf0540d	-0.117347814
143	0xbe3686d3	-0.17824869
144	0x3e74a4c2	0.23890975
145	0x3dbbb2d3	0.091649674
146	0xbeda103d	-0.42590514
147	0xbe505d53	-0.203481
148	0x3e05ec56	0.13078436
149	0x3e2eddbd	0.17076774
150	0x3d21eedd	0.03953444
151	0xbe705c6f	-0.2347276
152	0xbe917589	-0.28409985
153	0xbe0b5601	-0.13607027
154	0xbdcaa836	-0.09895365
155	0xbc314842	-0.01082045
156	0xbda51b14	-0.08061805
157	0xbed720ff	-0.42017362
158	0xbdcf0e68	-0.1011017
159	0xbd462fc1	-0.048385385
160	0x3e982afa	0.2972029
161	0x3e0f71a4	0.14008194
162	0xbde74c4c	-0.11293849
163	0xbea7502c	-0.32678354
164	0xbe5a4cee	-0.21318409
165	0xbe55c69b	-0.20876543
166	0xbe12c95c	-0.14334625
167	0x3e1b150a	0.15144745
168	0xbeb5a35d	-0.354762
169	0x3dd2c2c0	0.10291052
170	0x3e6eaebd	0.23308845
171	0x3eaec9ed	0.34138432
172	0x3e73c0da	0.23804036
173	0x3eca6eb1	0.39537576
174	0x3e67cec2	0.22637466
175	0x3de990c2	0.114045635
176	0x3e6c8d9b	0.23100893
177	0x3e6fee2c	0.23430699
178	0x3e86ad6d	0.26304188
179	0xbf0a35e6	-0.5398849
180	0xbf3ab1b7	-0.7292742
181	0xbeac20c8	-0.3361876
182	0xbdf3f497	-0.11911886
183	0x3e0851a5	0.13312395
184	0xbe41d37d	-0.18928333
185	0xbe7765fa	-0.24159995
186	0x3ba61ac7	0.00506911
187	0xbe1cb845	-0.15304668
188	0x3c7f0b31	0.015566633
189	0xbe3e8524	-0.18605477
190	0xbdc67d78	-0.096919
191	0x3d47e428	0.04880157
192	0xbe8a3f8e	-0.27001613
193	0x3deda639	0.1160397
194	0x3e485ad1	0.19565894
195	0xbe502a79	-0.20328702
196	0xbca36b45	-0.019948611
197	0xbd53779a	-0.051627733
198	0x3db598a2	0.08867003
199	0x3e0d6335	0.13807376
200	0x3a8fcff8	0.0010972014
201	0xbe1a7193	-0.15082388
202	0xbea38b90	-0.31942415
203	0xbdacfb29	-0.084463425
204	0xbe8ac5eb	-0.27104124
205	0x3e19c5a8	0.15016806
206	0xbd19bd23	-0.03753389
207	0xbdc854fb	-0.09781834
208	0xbc4133a0	-0.0117920935
209	0x3bbb0980	0.0057079196
210	0xbcf18e50	-0.029486805
211	0x3dfd5e88	0.12371546
212	0x3d2e7dd0	0.042600453
213	0xbd4743d4	-0.04864867
214	0xbc447f00	-0.01199317
215	0xbe643fad	-0.22289915
216	0x3e84980b	0.2589725
217	0xbe0ea2c3	-0.13929276
218	0x3c49f500	0.012326479
219	0xbd96d290	-0.0736438
220	0xbe7194fd	-0.23591991
221	0x3de28b30	0.11061704
222	0xbe0cd481	-0.13752939
223	0x3a4b5c00	0.00077575445
224	0xbd6060f8	-0.054779977
225	0x3d3a4b58	0.04548201
226	0x3e1c3218	0.15253484
227	0xbe53653c	-0.20644087
228	0x3d92aa2c	0.07161364
229	0xbd89caea	-0.06728156
230	0x3bbc0800	0.0057382584
231	0xbe71b6a0	-0.23604822
232	0x3d747c98	0.059689134
233	0xbd8a1fda	-0.067443565
234	0x3e009ab4	0.12559015
235	0xbd7d676a	-0.0618662
236	0x3d616337	0.05502626
237	0xbd203731	-0.039115135
238	0xbdcb78cf	-0.09935152
239	0x3e4e98b4	0.20175439
240	0xbe54ee7a	-0.20794097
241	0x3d16630a	0.036715545
242	0x3c014bae	0.007891579
243	0xbdd5de1f	-0.10442757
244	0xbe302ae8	-0.17203867
245	0xbe309976	-0.1724604
246	0xbea674d0	-0.32510996
247	0xbe467455	-0.19380315
248	0xbd894c07	-0.06703954
249	0x3dbb0f51	0.09133781
250	0x3e68ac62	0.22722009
251	0x3da40da6	0.08010416
252	0xbe1de85f	-0.15420674
253	0xbea8cf8f	-0.32970855
254	0xbef13e62	-0.47117907
255	0x3e443026	0.19158992

network.0.bias f4 [64]
0	0x3e4c2294	0.19935066
1	0x3e25c3b3	0.16187935
2	0x3e92ffd5	0.2871081
3	0x3e86aa4c	0.263018
4	0x3d8f670c	0.070020765
5	0x3e25d708	0.16195309
6	0x3de1e1d9	0.11029405
7	0x3dbdea89	0.0927325
8	0x3e3d5897	0.18490826
9	0xbec7b332	-0.39003903
10	0xbc84c2e1	-0.016206207
11	0xbdd7ef45	-0.10543684
12	0x3db0b49f	0.08628201
13	0xbe6980da	-0.22803059
14	0xbe43ea4c	-0.19132346
15	0xbd3a5eda	-0.045500614
16	0x3cff9da0	0.031203091
17	0x3e439a7e	0.19101903
18	0x3dd06838	0.10176128
19	0xbdb8732c	-0.09006342
20	0xbe1f775d	-0.15572877
21	0x3d04d126	0.032426022
22	0xbe339bf3	-0.17539959
23	0x3e49e500	0.19716263
24	0x3d864e74	0.065579325
25	0xbe38e5c9	-0.18056406
26	0x3e7b7272	0.24555376
27	0xbcad8857	-0.021183176
28	0x3d7b70d0	0.061386883
29	0x3e612702	0.21987537
30	0x3e3bd1ed	0.18341799
31	0x3d7fda1c	0.062463865
32	0xbe840a12	-0.25788933
33	0x3e05bcfb	0.13060372
34	0x3cffd756	0.03123061
35	0xbeb37489	-0.35049847
36	0xbede1d48	-0.43381715
37	0x3dc57b0f	0.09642612
38	0xbeab824d	-0.3349785
39	0xbe21ff84	-0.15820128
40	0xbe2c81bc	-0.16846365
41	0x3e75ed95	0.24016412
42	0xbe945730	-0.2897277
43	0x3e30145a	0.17195264
44	0xbd39c669	-0.045355234
45	0xbc51efab	-0.012813489
46	0x3ea40add	0.32039538
47	0xbe251382	-0.16120723
48	0x3e1fe121	0.15613224
49	0x3b6d8233	0.0036240935
50	0x3d11a12d	0.0355541
51	0xbdfce005	-0.12347416
52	0xbdf132f9	-0.117773004
53	0xbdbb5007	-0.091461234
54	0x3c26e0c4	0.010185424
55	0xbe5e4d6a	-0.21709219
56	0x3e6af766	0.22945938
57	0xbe060e4e	-0.13091394
58	0x3e26bc46	0.16282758
59	0xbdd07b3e	-0.101797566
60	0xbe15cde9	-0.1462933
61	0xbe674ce9	-0.22587933
62	0x3df82513	0.12116446
63	0x3d53cf3d	0.05171131

network.2.weight f4 [256, 64]
0	0xbbe4c66e	-0.0069816625
1	0x3d7d3be8	0.06182471
2	0x3c82189f	0.01588088
3	0xbd9cee9c	-0.076626986
4	0x3db19ef0	0.08672893
5	0xbd7d0c24	-0.061779156
6	0x3c161709	0.009160765
7	0xbc3ba050	-0.011451796
8	0xbdb6518c	-0.089022726
9	0xbe150e92	-0.1455634
10	0x3cb221d8	0.021744654
11	0xbd0ea9ae	-0.034829788
12	0x3d6195c5	0.055074472
13	0xbd1cc4cd	-0.03827362
14	0x3e28a0ec	0.16467637
15	0x3dd9fa46	0.10643439
16	0xbc14d1b0	-0.0090831965
17	0xbde58106	-0.1120625
18	0xbd1feddc	-0.0390452
19	0x3d06be55	0.03289636
20	0xbd3883e8	-0.04504767
21	0xbcf6c080	-0.030121088
22	0x3b82ebe0	0.0039954036
23	0xbe32cd16	-0.17461047
24	0xbd8d370f	-0.06895267
25	0xbd85177c	-0.0649862
26	0xbdae3892	-0.08506884
27	0xbdad7734	-0.08470002
28	0x3d4426cc	0.047888562
29	0xbe219b52	-0.15781906
30	0x3bb892fe	0.005632757
31	0xbdf89342	-0.12137462
32	0x3cc0ae38	0.023520574
33	0xbe202c65	-0.15641935
34	0x3cb9f3dc	0.022699289
35	0x3dab8246	0.08374457
36	0xbdf66384	-0.120307
37	0xbe2f337e	-0.17109486
38	0xbd507c50	-0.050899804
39	0xbe005737	-0.1253327
40	0x3c08f710	0.008359686
41	0xbd2bb03e	-0.041916125
42	0xbe3aa221	-0.1822591
43	0x3df8c726	0.121473595
44	0x3e15e28a	0.14637199
45	0x3d77a1b0	0.06045693
46	0x3cc5342d	0.02407273
47	0xbe50ae24	-0.2037893
48	0xbd0463ab	-0.032321613
49	0x3c0946a0	0.008378655
50	0xbdcb4406	-0.09925084
51	0xbe09432e	-0.13404533
52	0x3c242a5a	0.010019863
53	0xbd521f60	-0.051299453
54	0xbdd3027d	-0.10303209
55	0xbd5e5c68	-0.054287344
56	0xbd81f0b0	-0.063447356
57	0xbc0d8dd0	-0.008639768
58	0xbd6b433e	-0.057437174
59	0x3ccf479c	0.0253027
60	0xbc8caec0	-0.017173171
61	0x3cad7f90	0.02117899
62	0x3b6e7c80	0.0036390126
63	0xbc0d905a	-0.008640373
64	0xbe012102	-0.12610248
65	0x3dfbbe23	0.12292125
66	0x3dba631c	0.09100935
67	0xbd9d197e	-0.07670878
68	0xbd9d533a	-0.0768189
69	0x3dd55752	0.10417046
70	0xbdb598e5	-0.08867053
71	0xbde46f7a	-0.11154075
72	0x3b02f600	0.0019983053
73	0x3d7a6a18	0.061136335
74	0xbdfc9240	-0.123325825
75	0xbe0d2d47	-0.13786803
76	0xbe24d2b8	-0.16096008
77	0xbb1e8445	-0.0024187726
78	0xbd5a9989	-0.05336908
79	0x3cb6e239	0.022324668
80	0xbdeb2882	-0.114823356
81	0x3df9421e	0.12170814
82	0x3d26ec5b	0.04075275
83	0xbe195d80	-0.14977074
84	0xbde37bfd	-0.11107633
85	0xbd92f793	-0.07176127
86	0x3bf0b82b	0.0073461733
87	0xbdd193b9	-0.10233254
88	0xbcf281c4	-0.029602893
89	0xbde5a73a	-0.112135366
90	0x3c69f4f0	0.014279589
91	0xba9dd04e	-0.0012040229
92	0x3ddded20	0.10836244
93	0xbe11876e	-0.14211819
94	0xbcc2dd15	-0.02378706
95	0xbdb81c81	-0.08989812
96	0xbd2e16c4	-0.04250218
97	0x3d437b5f	0.047725078
98	0xbda0a6ba	-0.078443006
99	0x3dbf9ee4	0.09356478
100	0xbd9c6685	-0.076367415
101	0x3d1020fe	0.035187714
102	0x3d84548c	0.064614385
103	0xbe28c4d0	-0.16481328
104	0x3db9156c	0.09037289
105	0x3d5db78b	0.05413012
106	0x3cb8899e	0.022526558
107	0x3cbb5638	0.02286826
108	0x3cf5c2c1	0.030000092
109	0xbd31a064	-0.04336585
110	0x3c846228	0.016160086
111	0x3d374a46	0.044748567
112	0xbdaf682a	-0.085647896
113	0xbdab75e7	-0.083720975
114	0xbdd3c57c	-0.103404015
115	0xbd41016e	-0.047120504
116	0x3d98bf1a	0.07458325
117	0x3d5817b0	0.052756965
118	0xbd5f37ca	-0.054496564
119	0x3d893732	0.06699981
120	0x3d8c649c	0.06855127
121	0xbd40a71c	-0.047034368
122	0xbe08d6ed	-0.13363238
123	0xbe10def1	-0.14147545
124	0xbd8ea430	-0.0696491
125	0xbdd665f6	-0.10468666
126	0xbd8d2f8e	-0.06893836
127	0xbd08a8d3	-0.03336413
128	0xbd288a32	-0.04114742
129	0x3cf3cf6d	0.029761994
130	0xbc31706d	-0.010830027
131	0xbc71ef00	-0.014766455
132	0xbd9d11fe	-0.07669447
133	0xbbad5cc0	-0.0052905977
134	0xbd9c840b	-0.07642373
135	0xbd866d7c	-0.06563851
136	0x3d914316	0.07092874
137	0x3d9554eb	0.072915874
138	0xbe0284aa	-0.1274592
139	0x3c08266c	0.008309942
140	0xbacbac76	-0.0015539068
141	0x3c80f1f7	0.015740378
142	0x3d9e5495	0.077309765
143	0xbd076a58	-0.0330604
144	0x3d892cf2	0.06698026
145	0x3d146130	0.036225498
146	0x3c9de08d	0.019272113
147	0x3d1e3434	0.038624004
148	0xbd792d90	-0.060834467
149	0xbbffd9d0	-0.0078079477
150	0xbd689a14	-0.056787565
151	0xbc5ca9fa	-0.01346826
152	0xbe182b04	-0.14860159
153	0xbd9e4e25	-0.07729749
154	0xbcba6e30	-0.02275762
155	0x3d4f6ead	0.050642658
156	0xbd658f9c	-0.05604516
157	0x3d86d424	0.06583431
158	0xbd07ba88	-0.033136874
159	0x3e11f08a	0.14251915
160	0x3bac7620	0.005263105
161	0x3c9cafe8	0.019126847
162	0xbddd93f8	-0.108192384
163	0xba0d3700	-0.0005386919
164	0x3d730a27	0.059335854
165	0x3c97d0b2	0.01853213
166	0xbd063164	-0.032761946
167	0xbe25749f	-0.16157769
168	0xbdce8eaa	-0.10085805
169	0x3dac4bf7	0.08412927
170	0xbe15f9bf	-0.14646052
171	0xbd825b5e	-0.06365083
172	0xbc54ba41	-0.0129838595
173	0xbc3b9b00	-0.011450529
174	0x3cea220f	0.028580694
175	0xbe242332	-0.16029051
176	0x3d86bd82	0.065791145
177	0xbd5cbd2e	-0.053891353
178	0xbd3652bc	-0.044512495
179	0xbe23b04a	-0.15985218
180	0xbdc08504	-0.09400371
181	0xbc0e4800	-0.008684158
182	0x3ccd5050	0.02506271
183	0xbd9367c6	-0.071975276
184	0x3bc14dcb	0.005899166
185	0xbd49c6ba	-0.049261786
186	0xbe24a709	-0.16079344
187	0xbd6d0998	-0.057870477
188	0x3c60a4b0	0.01371114
189	0xbcd1f36e	-0.025628772
190	0xbd2d33f8	-0.04228589
191	0xbe1108cc	-0.14163512
192	0xbce1e696	-0.027575772
193	0xbd266065	-0.040619273
194	0xbd9f3bf7	-0.07775109
195	0xbe104fda	-0.14092961
196	0xbd77ddb4	-0.060514167
197	0x3dcbba26	0.09947614
198	0x3d73149b	0.059345823
199	0x3c0938b0	0.008375332
200	0xbdb7274c	-0.08943042
201	0x3d8c1822	0.068405405
202	0xbe14fc54	-0.1454938
203	0xbcc56690	-0.024096757
204	0x3cc2b347	0.023767127
205	0xbe21f51c	-0.15816158
206	0xbb78d36b	-0.0037967812
207	0xbc610150	-0.013733223
208	0x3dafbf0c	0.08581361
209	0xb9df7600	-0.0004262179
210	0x3d84bc89	0.06481273
211	0x3dc88408	0.09790808
212	0xbc9fb9d3	-0.019497788
213	0xbd267733	-0.04064102
214	0x3d4acd07	0.049511936
215	0xba908536	-0.0011026028
216	0x3c9decfe	0.019278046
217	0x3dc6a055	0.0969855
218	0xbd9311d8	-0.07181138
219	0xbdd083d0	-0.10181391
220	0x3d7f5aa4	0.0623423
221	0xbc54f724	-0.012998376
222	0x3dbfd534	0.09366837
223	0x3e00449e	0.12526175
224	0xbcbeaad8	-0.023274824
225	0xbddf5213	-0.10904326
226	0xbdbe8efb	-0.09304615
227	0x3d972c9a	0.07381554
228	0xbd4e20ef	-0.050324377
229	0x3d6578f9	0.05602357
230	0x3d8e593c	0.06950614
231	0x3a8d3e40	0.0010775998
232	0x3dfdd8da	0.12394877
233	0xbe013382	-0.12617305
234	0xbd465390	-0.048419535
235	0xbd94ba34	-0.07262078
236	0xbda5e591	-0.08100427
237	0xbbef6260	-0.0073054284
238	0xbda1e043	-0.07904103
239	0x3d0e0995	0.034677107
240	0x3d13dd40	0.036099672
241	0xbdf2b7e8	-0.118514836
242	0xbcd4886b	-0.025943955
243	0x3d523f96	0.05133017
244	0x3d5f815e	0.054566734
245	0xbddf8e10	-0.10915768
246	0xbd4f77f9	-0.050651524
247	0x3a400087	0.00073242973
248	0xbd927a3c	-0.071522206
249	0xbd224f0b	-0.039626162
250	0xbd2687ef	-0.04065698
251	0x3cc95703	0.024577623
252	0x3dfdc960	0.12391925
253	0xbc81ed73	-0.015860295
254	0x3dc45085	0.095856704
255	0x3d957385	0.07297424

network.2.bias f4 [256]
0	0x3ad9e9e6	0.0016625493
1	0xbc8696a8	-0.01642926
2	0x3d8220f6	0.06353943
3	0x3c34a9fb	0.011026855
4	0xbc7f59d0	-0.015585378
5	0x3c36e6fd	0.01116347
6	0x3cfae66a	0.030627448
7	0xbdf745b5	-0.120738424
8	0xbe0021de	-0.1251292
9	0xbceffb0b	-0.029294511
10	0xbde6f24e	-0.11276685
11	0x3d53bf7b	0.051696282
12	0xbcacc971	-0.021092148
13	0xbc63e610	-0.013909832
14	0x3c879960	0.016552627
15	0xbd56b153	-0.052415203
16	0x3daeab12	0.08528723
17	0x3c552a71	0.013010607
18	0xbda97266	-0.08273773
19	0xbdea96be	-0.11454533
20	0x3d35c40c	0.044376418
21	0xbd6cdb4a	-0.057826318
22	0xbd5eb7ca	-0.054374494
23	0x3d3f74fa	0.046742417
24	0x3d783a52	0.060602494
25	0x3d48b161	0.048997287
26	0x3d166096	0.036713205
27	0xbdaff684	-0.08591941
28	0xbe452304	-0.19251639
29	0xbdc779d2	-0.09740032
30	0xbc42f659	-0.011899554
31	0x3b8f6671	0.0043762256
32	0xbc152869	-0.009103873
33	0x3d429096	0.04750117
34	0x3d363915	0.04448803
35	0xbd2a31e7	-0.041551497
36	0xbdd787dd	-0.10523961
37	0xbdcc1a3b	-0.099659406
38	0xbdbd979f	-0.09257435
39	0xbc68df43	-0.014213386
40	0x3d028322	0.03186334
41	0xbdf2e986	-0.11860947
42	0xbc8654cd	-0.016397858
43	0xbd5fbef6	-0.054625474
44	0xbda9593d	-0.08268974
45	0xbd6e0825	-0.058113236
46	0xbd6e18d1	-0.058129136
47	0xbdcc9fb2	-0.09991397
48	0x3dc4ccb0	0.096093535
49	0xbd796899	-0.060890768
50	0xbe3453fd	-0.17610164
51	0x3e9e3091	0.30896428
52	0xbe2054aa	-0.15657297
53	0x3cfd809a	0.030945111
54	0xbd30b657	-0.043142643
55	0xbe05f2ca	-0.13080898
56	0x3d0a134f	0.03370982
57	0xbbe45e9c	-0.006969286
58	0xbd254e64	-0.040357962
59	0xbd41f5f0	-0.047353685
60	0xbdb0175d	-0.08598206
61	0xbd195ca7	-0.037441876
62	0xbb0f6c8e	-0.0021884772
63	0xbe4127a9	-0.18862785
64	0xbe09af53	-0.13445787
65	0xbe105eb4	-0.14098626
66	0x3cd7e135	0.026352504
67	0xbda80068	-0.082032025
68	0xbe20f100	-0.15716934
69	0x3cb0b885	0.02157236
70	0x3d261c6f	0.04055446
71	0x3d0966c5	0.033545274
72	0xbe792f31	-0.24334408
73	0xbd34503b	-0.044021826
74	0x3cc8ab98	0.024495885
75	0x3d5995da	0.053121425
76	0xbddc9a28	-0.107715905
77	0xbc01d1bb	-0.007923539
78	0xbe2be5c6	-0.1678687
79	0x3c85b8bc	0.01632344
80	0xbcb005e6	-0.021487188
81	0x3db153ce	0.086585626
82	0xbbf6db60	-0.0075334758
83	0x3c301a22	0.010748418
84	0xbdb11e75	-0.08648387
85	0xbde728b9	-0.11287064
86	0x3d32ea79	0.04368064
87	0xbd70b177	-0.058762994
88	0xbe2c2455	-0.16810735
89	0xbd8e87f4	-0.06959525
90	0xbda675f9	-0.0812797
91	0x3cd31c9f	0.025770484
92	0xbdc58c71	-0.09645928
93	0xbd2a3bbc	-0.041560873
94	0xbd492a57	-0.049112644
95	0xbb7d03ee	-0.0038607079
96	0x3d842eb4	0.064542204
97	0xbdad4867	-0.08461075
98	0xbdc670f7	-0.09689515
99	0x3ce32f18	0.027732417
100	0xbe2dd5f7	-0.16976152
101	0x3c6fbfef	0.014633163
102	0xbe0296dd	-0.12752862
103	0xbe0feb61	-0.14054634
104	0xbe306447	-0.17225753
105	0xbca3c859	-0.019992994
106	0x3cf507d4	0.02991096
107	0x3d13be73	0.0360703
108	0x3cf914c7	0.030405415
109	0xbe0d2dbe	-0.1378698
110	0xbb8095e1	-0.003924117
111	0xbbbf24c0	-0.0058332384
112	0xbe25af4e	-0.16180155
113	0xbdeb725b	-0.11496421
114	0xbc4e76b6	-0.012601545
115	0xbe28a008	-0.16467297
116	0xbaa42a15	-0.0012524748
117	0x3c37e873	0.011224854
118	0xbd0db9fe	-0.034601204
119	0x3d1d35ec	0.038381502
120	0xbb81765a	-0.003950876
121	0x3d4fc18d	0.050721694
122	0xbe25f05f	-0.16204976
123	0xbc61fa20	-0.013792545
124	0x3d72976e	0.059226446
125	0xbccf1146	-0.025276791
126	0xbd1923a2	-0.037387498
127	0xbd3c9e66	-0.046049498
128	0xbe22c6d4	-0.1589616
129	0x3ed585b3	0.41703567
130	0xbc7c7791	-0.015409366
131	0xbd7c1810	-0.061546385
132	0xbe3e7636	-0.18599781
133	0xbdff59af	-0.12468278
134	0xbde9d7e4	-0.11418131
135	0xbe12861f	-0.14308976
136	0xbcca66da	-0.024707247
137	0xbe1a9be4	-0.1509853
138	0xbd9b9b0f	-0.075979345
139	0x3b372a26	0.0027948706
140	0x3df6ea88	0.12056452
141	0xbd2ad697	-0.041708555
142	0xbdd2ea3f	-0.10298585
143	0xbd4cbb2a	-0.04998318
144	0xbc7a0a6c	-0.015261274
145	0x3c9c0d78	0.019049391
146	0xbd62fd06	-0.055417083
147	0xbe0952b3	-0.13410453
148	0x3c0477d0	0.008085206
149	0xbd80a131	-0.06280745
150	0xbd8e78f8	-0.06956667
151	0xbdffdf6f	-0.124937885
152	0x3d87e774	0.06635943
153	0xbde29e87	-0.11065393
154	0xbdde2ac8	-0.108480036
155	0x3b81c1d2	0.0039598728
156	0xbd9b01ac	-0.07568678
157	0x3db54224	0.08850506
158	0xbdfc6604	-0.123241454
159	0xbb107947	-0.0022044943
160	0xbe4ea40a	-0.20179763
161	0xbc54df62	-0.012992712
162	0x3d3ad705	0.045615215
163	0x3d1f9256	0.038957916
164	0x3cbb5eb6	0.02287231
165	0xbd6e86a0	-0.058233857
166	0x3d4fe49f	0.05075514
167	0x3e1479a9	0.14499535
168	0x3be00930	0.0068370327
169	0xbd5fa178	-0.054597348
170	0xbe3560e1	-0.17712738
171	0xbd64f2d3	-0.055895638
172	0x3d8d7d26	0.06908636
173	0x3cf4c06e	0.029876914
174	0x3bb7ea76	0.0056126667
175	0xbdd83015	-0.10556046
176	0xbe1f930b	-0.15583436
177	0xbe064d03	-0.13115315
178	0xbdbf6e7e	-0.093472466
179	0xbd662b61	-0.056193713
180	0xbe3dc7e6	-0.18533286
181	0xba56f6a3	-0.0008200204
182	0xbe1b6c88	-0.1517812
183	0xbc5f0b9e	-0.01361361
184	0xbdf2d892	-0.11857714
185	0xbdca562d	-0.09879718
186	0xbd0710f5	-0.032975156
187	0xbe3b0b49	-0.18266024
188	0x3d2ea9cc	0.0426424
189	0xbde08d6f	-0.10964476
190	0xbe33fe3a	-0.17577448
191	0x3cb0c9ee	0.021580663
192	0x3cc26d3c	0.023733728
193	0xbd210ed2	-0.039320774
194	0xbe183c24	-0.14866692
195	0xbe21e2a6	-0.15809116
196	0xbe2deea7	-0.1698557
197	0xbe411b20	-0.18858004
198	0xbd47622f	-0.04867762
199	0x3d70fb20	0.05883324
200	0xbe40cb37	-0.1882752
201	0xbe1d6016	-0.15368685
202	0xbc01befb	-0.007919068
203	0xbdccc3eb	-0.09998306
204	0xbdeeb0ef	-0.11654841
205	0xbd453e09	-0.048154864
206	0xbdcbf87a	-0.099595025
207	0x3d8c9e0c	0.068660825
208	0xbe37a5c4	-0.17934328
209	0xbdf6db33	-0.12053528
210	0x3d6d4dc4	0.05793549
211	0xbe35b94a	-0.17746463
212	0xbdc2d64c	-0.0951353
213	0xbbf37240	-0.007429391
214	0x3bcee4dd	0.0063139037
215	0xbe038f62	-0.12847665
216	0x3c82224a	0.01588549
217	0xbe11e973	-0.1424921
218	0xbd51589c	-0.051109895
219	0xbdcf5d9a	-0.10125275
220	0xbe0c3027	-0.13690244
221	0xbe5107f6	-0.20413193
222	0xbe11457b	-0.14186661
223	0xbc0750e9	-0.008259037
224	0x3aad5b65	0.001322609
225	0xbda681f2	-0.08130254
226	0xbdfe0bd2	-0.12404598
227	0x3c9f82f2	0.01947162
228	0xbe0270da	-0.12738362
229	0xbe2412b2	-0.16022757
230	0xbdf11dd5	-0.11773268
231	0x3d82b95c	0.06383011
232	0xbdf958f6	-0.12175171
233	0xbd2430b8	-0.040085524
234	0xbcc2e15d	-0.023789102
235	0xbd85c97c	-0.06532571
236	0x391a2ebe	0.00014703997
237	0xbc867880	-0.01641488
238	0xbe3ea68a	-0.18618217
239	0xbe188862	-0.14895776
240	0xbdc1a0c3	-0.09454491
241	0x3d6ab6b9	0.057303164
242	0x3d11104f	0.035415944
243	0xbd5b45d4	-0.05353339
244	0xbe18bb2c	-0.1491515
245	0x3e59031b	0.21192591
246	0x3d1c6d7a	0.038190342
247	0xbe2e3724	-0.17013222
248	0xbe02f2f1	-0.12787987
249	0xbc1205cd	-0.008912516
250	0x3cd83d12	0.026396308
251	0xbe1c2d25	-0.15251596
252	0x3d996f07	0.0749188
253	0x3cb7463a	0.022372354
254	0x3bdf79c9	0.006819938
255	0xbe3ef4b9	-0.18648042

network.4.weight f4 [128, 256]
0	0xbbc37120	-0.0059644133
1	0xbd5c1c7e	-0.05373811
2	0xbdb6b7bc	-0.08921763
3	0xbdc5bf43	-0.09655621
4	0x3d3fa0f0	0.04678434
5	0x3d4cdd78	0.050015897
6	0x3db583ae	0.088630065
7	0xbd8ccc53	-0.06874909
8	0xbc8be82c	-0.017078482
9	0x3db6a811	0.08918775
10	0x3dbbc58d	0.09168539
11	0xbb13f440	-0.0022576004
12	0xbce79217	-0.028267903
13	0x38bd7c3d	9.0353635e-05
14	0x3ce13a51	0.027493628
15	0xbc92482c	-0.01785668
16	0x3d809ee3	0.06280305
17	0x3d80c46f	0.06287467
18	0xbdf7ffbe	-0.12109326
19	0x3d82ff56	0.06396358
20	0xbd266728	-0.04062572
21	0xbca1ec58	-0.019766018
22	0x3ca51adc	0.02015441
23	0xbd7a2068	-0.06106606
24	0x3df33979	0.118761964
25	0x38a0a8d9	7.660845e-05
26	0x3d2d3595	0.042287428
27	0x3d0fab75	0.035075624
28	0xbc4553b7	-0.012043885
29	0xbce3ab34	-0.027791597
30	0x3d659f42	0.056060083
31	0x3d416d96	0.04722365
32	0xbc81049c	-0.015749268
33	0xbd117fa1	-0.035522107
34	0xbdc71af0	-0.09721935
35	0xbd9cbaf1	-0.07652844
36	0x3d5c35b6	0.05376216
37	0xbbcffea9	-0.0063474965
38	0x3d755aa1	0.059900884
39	0x3d4f978f	0.050681647
40	0xbd39c606	-0.045354865
41	0x3b597de5	0.0033186611
42	0x3dc8fbf7	0.098136835
43	0x3d175ed0	0.036955655
44	0x3df339b1	0.11876238
45	0x3cc4db6c	0.02403041
46	0xbcf1c4f5	-0.029512862
47	0x3d777208	0.060411483
48	0x3d02c2a4	0.031923905
49	0xbd4fba27	-0.050714638
50	0x3c0ccac0	0.008593261
51	0xbdd1fc8a	-0.10253246
52	0xbc74dd60	-0.014945358
53	0xbcf56094	-0.029953279
54	0x3d4777a2	0.048698075
55	0x3c55dae0	0.013052672
56	0x3dd65148	0.10464722
57	0x3ca80b37	0.02051316
58	0x3c85e16c	0.016342841
59	0xbda92cc8	-0.082604945
60	0x3b975a60	0.004618928
61	0xbdae512f	-0.08511578
62	0x3d6801a4	0.05664219
63	0x3d0703f2	0.032962747
64	0x3c72a780	0.014810443
65	0xbd226716	-0.03964909
66	0x3d9949ba	0.07484765
67	0xbca17174	-0.019707419
68	0x3d0b96f5	0.03407951
69	0xbce9b4bc	-0.028528564
70	0xbd2fcab2	-0.042917915
71	0xbb85ff3d	-0.0040892647
72	0xbd37031e	-0.044680707
73	0xbc95fff9	-0.018310534
74	0xbd4af3ea	-0.04954902
75	0x3dc0e8ff	0.094194405
76	0x3d02bfd4	0.031921223
77	0x3cd15294	0.025552072
78	0xbdcf10b5	-0.101106085
79	0x3d0c355d	0.03423058
80	0xbd13aced	-0.036053587
81	0x3d793416	0.06084069
82	0xbd640c9e	-0.055676095
83	0x3df8c341	0.12146617
84	0xbcc709e9	-0.024296718
85	0x3c001d60	0.007819504
86	0x39d301d3	0.00040246415
87	0xbc9664fc	-0.0183587
88	0x3d311bca	0.043239392
89	0xbc9188e3	-0.017765468
90	0xbd59b11c	-0.05314742
91	0x3d897161	0.067110784
92	0xbddc4f14	-0.107572705
93	0xbc760693	-0.015016216
94	0xbc068e58	-0.008212648
95	0x3d1bc053	0.03802521
96	0xbc08d2f0	-0.008351073
97	0x3d1621a6	0.036653183
98	0x3d7f4367	0.06232014
99	0x3cca4688	0.024691835
100	0xbc2db9c0	-0.010603368
101	0xbdadbcea	-0.08483298
102	0x3caa6007	0.020797743
103	0x3bf65ff0	0.007518761
104	0x3c680250	0.014160708
105	0x3d62039c	0.055179223
106	0x3d32c23c	0.043642268
107	0xbd8eb9e1	-0.06969047
108	0x3d6bc670	0.05756229
109	0x3d80a9bf	0.062823765
110	0xbd4e350f	-0.05034357
111	0xbd4a907e	-0.049454205
112	0xbc40b440	-0.011761725
113	0xbb7f0098	-0.0038910266
114	0x3ba54db0	0.0050446615
115	0x3d652c30	0.055950344
116	0x3ba0e5dc	0.004910214
117	0x3d43d74c	0.047812745
118	0x3d7f0be0	0.062267184
119	0x3d4a5342	0.049395807
120	0xbceb70f6	-0.028740387
121	0xbd721c1b	-0.059108835
122	0xbc133a60	-0.008986086
123	0x3d3f6dc2	0.046735533
124	0x3d09ce51	0.033644024
125	0x3c814b20	0.015782893
126	0xbbb0ead4	-0.0053990874
127	0x3baeb2d0	0.0053313747
128	0xbd378a7a	-0.044809796
129	0xbdd648d4	-0.104631096
130	0x3d717b0c	0.058955237
131	0x3c4d9428	0.01254753
132	0xbd10d6c0	-0.03536105
133	0x3cfa912c	0.030586801
134	0x3ddf51f7	0.109043054
135	0x3ca66a7e	0.020314451
136	0xbdcc1c55	-0.099663414
137	0x3c5c228c	0.013435971
138	0xbd55bc52	-0.05218155
139	0xbc8618f0	-0.016369313
140	0xbd0b3fce	-0.033996396
141	0xbdae5dc6	-0.085139796
142	0xbd433dea	-0.047666468
143	0xbd181280	-0.037127018
144	0xbdc069d1	-0.09395183
145	0x3dd0cd0f	0.10195362
146	0xbd91288f	-0.07087814
147	0x3dd64b63	0.104635976
148	0x3d267e5e	0.040647857
149	0xbc9b58ec	-0.0189633
150	0x3ded5702	0.11588861
151	0x3d8eb045	0.069672145
152	0xbd33ed7a	-0.043927647
153	0xbd772d20	-0.06034577
154	0x3da07ea9	0.078366585
155	0x3d7d17b9	0.0617902
156	0x3d9ce673	0.07661142
157	0x3a3f3680	0.0007294193
158	0x3cf781ce	0.030213263
159	0x3c0e79af	0.008696004
160	0xbcdc9178	-0.026924834
161	0xbd77a6a6	-0.060461663
162	0xbd98e95a	-0.07466383
163	0x3da18af8	0.07887834
164	0x3cf927c2	0.030414466
165	0xbc6eed10	-0.014582887
166	0xbd64af98	-0.05583152
167	0xbd549093	-0.05189569
168	0x3d8b4256	0.06799762
169	0xbcc77339	-0.024346935
170	0xbd055d4a	-0.03255967
171	0xbd4f4462	-0.050602324
172	0x3d47f896	0.048821054
173	0x3d368931	0.04456443
174	0x3d815d7f	0.06316661
175	0xbcc14d20	-0.023596346
176	0x3d4810b3	0.04884405
177	0xbb0fcead	-0.0021943257
178	0xbbad8b30	-0.0052961335
179	0x3d0ee654	0.034887627
180	0xbc2d6ec3	-0.01058549
181	0x3cc46000	0.023971558
182	0x3d4658df	0.048424598
183	0x3cbb9c94	0.02290181
184	0xbb570604	-0.0032809982
185	0x3d57e876	0.052711926
186	0xbc83802a	-0.016052324
187	0x3ab74ee2	0.0013985301
188	0x3ccce950	0.025013596
189	0x3d91fd47	0.07128387
190	0x3dd04a9f	0.10170483
191	0xbd49ebc7	-0.04929712
192	0xbc888850	-0.016666561
193	0x3d374a6c	0.04474871
194	0xbd2f6fd0	-0.042831242
195	0xbd997c83	-0.07494452
196	0x3d3dad10	0.046307623
197	0x3d5f4009	0.054504428
198	0x3bc5c357	0.006035249
199	0xbd624d8a	-0.05524973
200	0x3cfbf418	0.030756041
201	0x3dea07a1	0.11427236
202	0xbd56b24d	-0.052416135
203	0x3a1322ed	0.00056128093
204	0xbda3453f	-0.07972192
205	0x3cd115cc	0.025523089
206	0xbd5db0fe	-0.05412387
207	0xbd8d9a3a	-0.06914182
208	0xbcecfd8d	-0.028929496
209	0x3cc40434	0.023927785
210	0xbd2d2f80	-0.042281628
211	0x3cceee2c	0.025260054
212	0x3be1eec7	0.0068949196
213	0xbd7ae168	-0.06125012
214	0x3dfaaf3d	0.12240455
215	0xbcc302a6	-0.023804974
216	0xbbb281a6	-0.005447584
217	0x3d3f2dee	0.04667466
218	0x3d250a72	0.040293165
219	0xbde4c360	-0.11170077
220	0xbd7e05e3	-0.062017333
221	0xbcf4b258	-0.029870197
222	0xbd48ffa9	-0.04907194
223	0x3cbfa690	0.023394853
224	0xbd9eef5e	-0.077604994
225	0xb9cec324	-0.00039436773
226	0x3c32a852	0.0109043885
227	0xbd299a7b	-0.04140709
228	0xbc6e5498	-0.014546536
229	0xbb871f20	-0.0041235834
230	0xbd959701	-0.07304192
231	0x3c1c1df8	0.0095286295
232	0x3d6b8b80	0.057506084
233	0xbc95070e	-0.01819184
234	0xbd6986b2	-0.05701322
235	0x3d38ad92	0.045087405
236	0x3bbbddba	0.005733219
237	0xbbe6da10	-0.007045038
238	0xbb20a560	-0.0024512634
239	0xbcbe840c	-0.023256324
240	0x3db6b5b4	0.08921376
241	0x3c671905	0.014105086
242	0x3d192b4a	0.0373948
243	0xbd261f44	-0.04055716
244	0xbc9a06e8	-0.018802121
245	0x3bf7053f	0.007538467
246	0xbda32958	-0.0796687
247	0x3ba0c8cf	0.0049067507
248	0x3cc8feb0	0.024535507
249	0x3c910c44	0.017706044
250	0x3deea2a5	0.11652116
251	0x3c2ea31c	0.0106590055
252	0x3cfcc900	0.030857563
253	0x3d28086c	0.041023657
254	0x3db430a2	0.087983385
255	0x3ce7eee4	0.028312154

network.4.bias f4 [128]
0	0xbd2ab13b	-0.041672926
1	0xbd576288	-0.0525842
2	0xbda0644d	-0.07831631
3	0xbdc8c4e1	-0.09803177
4	0xbd5a810d	-0.05334573
5	0xbc1d9556	-0.009618124
6	0xbd7ac988	-0.06122735
7	0x3c61d93a	0.013784701
8	0x3adb2799	0.0016720175
9	0xbd3fd725	-0.046836037
10	0xbd8bf966	-0.06834678
11	0xbda4f1d5	-0.08053938
12	0xbd8461ad	-0.06463943
13	0xbd480a37	-0.048837867
14	0x3b0f0768	0.0021824483
15	0xbdb73688	-0.08945948
16	0xbd841fb6	-0.06451361
17	0xbdc7bc29	-0.097526856
18	0xbdc0f1e9	-0.09421141
19	0xbd57447e	-0.052555554
20	0xbde6fe95	-0.112790264
21	0x3ddeb6c6	0.10874705
22	0xbcefd293	-0.029275214
23	0xbcb810e8	-0.022468999
24	0xbd8300e7	-0.063966565
25	0xbc83b4aa	-0.016077358
26	0xbd19f592	-0.03758771
27	0xbb86484c	-0.004097974
28	0xbe05562e	-0.13021156
29	0xbdb6bb20	-0.0892241
30	0xbcbdd22f	-0.023171512
31	0x3d5eef4f	0.05442744
32	0xbd31bfe6	-0.0433959
33	0xbc87d860	-0.016582668
34	0xbca9ab9b	-0.02071171
35	0xbd7d1121	-0.061783914
36	0xbd1d267f	-0.03836679
37	0xbc1f4cf4	-0.009722937
38	0xbd1df479	-0.038563225
39	0x3e4df444	0.20112711
40	0xbdce35d4	-0.10068861
41	0xbd383b88	-0.04497865
42	0xbc8aab6e	-0.016927447
43	0xbc62d15c	-0.0138438605
44	0xbd444216	-0.047914587
45	0x3cd47c5f	0.025938211
46	0xbc19d7d4	-0.009389836
47	0xbc4e5a2f	-0.012594744
48	0xbd84b444	-0.064796954
49	0xbdae07ef	-0.08497607
50	0xbd74f1c4	-0.05980088
51	0xbd382c7b	-0.044964295
52	0xbcce48d8	-0.025181219
53	0x3dcbf5b7	0.09958976
54	0xbd94b6b0	-0.072614074
55	0xbdac707c	-0.08419892
56	0xbdb2e0fa	-0.08734317
57	0xbd8a27e4	-0.0674589
58	0xbd1c6eff	-0.03819179
59	0xbd88d500	-0.066812515
60	0x3c9bc57d	0.019015068
61	0xbde99185	-0.11404709
62	0xbdbe59aa	-0.09294446
63	0xbc9177c5	-0.017757306
64	0x3e901042	0.28137404
65	0xbdd614db	-0.104531966
66	0xbce4f7ff	-0.027950285
67	0x3b9d2243	0.004795344
68	0xbd2dd96a	-0.04244367
69	0x3e7f597f	0.24936484
70	0xbcc17fe3	-0.023620551
71	0xbd4b933f	-0.04970097
72	0xbb3339df	-0.0027347726
73	0xbca270f7	-0.019829256
74	0xbd64bf31	-0.055846397
75	0xbd81abe2	-0.06331612
76	0xbde16419	-0.1100542
77	0xbc459377	-0.012059084
78	0x3e690f29	0.2275969
79	0xbd5bed4d	-0.053693105
80	0xbd43567d	-0.047689904
81	0xbd1e39b6	-0.038629256
82	0xbd869698	-0.06571692
83	0xbce2485d	-0.027622396
84	0xbcdd804a	-0.027038712
85	0xbbdb48bb	-0.0066920198
86	0xbacd8ac3	-0.0015681613
87	0x3a89babb	0.001050792
88	0xbd6b87f5	-0.057502706
89	0xbe17bbc2	-0.14817718
90	0xbd63edb8	-0.05564663
91	0xbdd8af89	-0.10580356
92	0xbcdf6b4d	-0.027272845
93	0xbdcfe234	-0.10150567
94	0xbdbc29fe	-0.09187697
95	0xbdbd5a9d	-0.09245799
96	0xbdd9699a	-0.10615845
97	0xbd92d660	-0.07169795
98	0xbca0ce66	-0.019629668
99	0xbdaf751b	-0.08567258
100	0xbd12d971	-0.0358519
101	0xbce6825f	-0.028138338
102	0xbd7a8388	-0.061160594
103	0xbe1928c6	-0.1495696
104	0xbcef5627	-0.029215885
105	0xbdbae82a	-0.09126313
106	0xbd97fa03	-0.07420733
107	0xbce165a9	-0.027514296
108	0xbccdf062	-0.025139038
109	0xbd4f00b2	-0.050537772
110	0xbd822f29	-0.06356651
111	0xbc6ce616	-0.014459154
112	0xbcea1824	-0.028575964
113	0xbdc9dc94	-0.09856525
114	0xbcab2c53	-0.020895159
115	0xbd9c9457	-0.07645481
116	0xbde3f9fc	-0.11131665
117	0xbc9bfac6	-0.019040477
118	0xbdb5d052	-0.088776246
119	0xbab51413	-0.0013815187
120	0xbd22482b	-0.039619606
121	0xbd7bf887	-0.06151631
122	0xbd2feb79	-0.042949174
123	0xbce70955	-0.028202692
124	0x3bc66506	0.0060545234
125	0x3e96ab50	0.29427576
126	0xbcc9cc4f	-0.024633555
127	0x3e50ffcf	0.20410083

network.6.weight f4 [12, 128]
0	0x3dfc324d	0.123142816
1	0x3ca74303	0.020417696
2	0x3e07ea5f	0.13272999
3	0x3d5ec111	0.05438334
4	0x3dfecbec	0.12441239
5	0x3ddd0889	0.107926436
6	0xbd9c1a83	-0.07622244
7	0x3dfd38b7	0.12364333
8	0x3dfe3540	0.124125004
9	0x3d92e08a	0.07171734
10	0x3dad6bc1	0.08467818
11	0x3dec8b7a	0.115500405
12	0xbc02dae8	-0.007986762
13	0x3ba85a4a	0.0051377164
14	0x3d507264	0.05089034
15	0xbdb42333	-0.08795776
16	0x3d965cb7	0.07341903
17	0x3dc034e5	0.09385089
18	0x3cd68351	0.026185663
19	0x3d7a5583	0.061116707
20	0x3de16335	0.1100525
21	0x3e87106f	0.26379725
22	0xbc77e070	-0.015129194
23	0x3d811d79	0.063044496
24	0xbda179f7	-0.07884591
25	0x3c2ee84f	0.010675504
26	0x3e02deb4	0.12780267
27	0x3c0b8071	0.00851451
28	0x3a3c6733	0.0007187009
29	0x3db4daed	0.08830819
30	0x3df8cd70	0.12148559
31	0x3e508dfc	0.20366663
32	0xbd08ea49	-0.033426557
33	0x3de55e00	0.1119957
34	0x3bd8c58c	0.0066153463
35	0x3d929f11	0.07159246
36	0xbc9a1cad	-0.018812502
37	0x3e143d54	0.1447652
38	0x3db5161b	0.08842107
39	0x3e5962b2	0.21229056
40	0x3dba69fe	0.09102248
41	0x3d84296b	0.06453212
42	0x3e0141ec	0.12622803
43	0x3cffb94f	0.031216292
44	0x3b63108b	0.0034647312
45	0x3d96bb96	0.07359998
46	0x3d9a22d0	0.07526171
47	0x3d463795	0.04839285
48	0x3d037ca4	0.03210129
49	0x3d8f9e6a	0.07012637
50	0x3d4ed1a0	0.050492883
51	0x3dab2d18	0.0835821
52	0x3cc376f1	0.023860427
53	0x3e39cb42	0.18143943
54	0xbcabb5ad	-0.020960653
55	0xbd177ef8	-0.03698632
56	0x3e0ce6b8	0.13759887
57	0xbca1ab04	-0.019734867
58	0x3e234c39	0.15947045
59	0x3d3ddfc1	0.046355966
60	0x3d1a09f0	0.037607133
61	0xbcd9c89f	-0.026584921
62	0x3a07144e	0.0005152867
63	0x3e1a4627	0.15065823
64	0x3e7c70da	0.24652424
65	0x3d12d385	0.035846252
66	0x3d835180	0.06412029
67	0x3d563d52	0.052304573
68	0x3c297f73	0.010345328
69	0x3e8d465c	0.27592742
70	0x3d94d45e	0.07267068
71	0x3e14d615	0.14534791
72	0x3dc965cd	0.0983387
73	0x3cf7a35c	0.030229263
74	0x3e2ffcf5	0.17186339
75	0x3cafaf07	0.021445764
76	0xbc87b0e6	-0.016563844
77	0xbd9e2f3b	-0.07723852
78	0x3eebb446	0.46035975
79	0x3da666fd	0.08125112
80	0x3c0f024b	0.008728574
81	0x3c8a7df9	0.016905772
82	0x3dcc5309	0.09976775
83	0x3db53873	0.088486575
84	0x3c836fac	0.01604446
85	0x3dd0bf5a	0.101927474
86	0x3d270122	0.040772565
87	0x3d603cb7	0.054745402
88	0xbcd8904e	-0.026435997
89	0x3b871217	0.0041220295
90	0x3dd529a2	0.104083315
91	0x3d40b002	0.047042854
92	0x3db3147a	0.0874414
93	0x3d9d6203	0.0768471
94	0x3d78df2d	0.060759712
95	0x3cc49330	0.023995966
96	0x3dd2a50e	0.10285388
97	0x3dea0948	0.114275515
98	0x3e23e5c6	0.1600562
99	0x3d9524af	0.072823875
100	0x3c293136	0.010326674
101	0x3c37a4ac	0.011208694
102	0x3c93c11d	0.01803642
103	0xbd2bf921	-0.041985635
104	0x3ca279ef	0.019833533
105	0x3dba6de4	0.09102991
106	0x3da5e2af	0.08099877
107	0x3aabc361	0.0013104492
108	0x3e1f2a2d	0.15543433
109	0x3de16c9a	0.11007042
110	0x3e688d6b	0.22710197
111	0xbd6d4c3d	-0.057934035
112	0xbd951c98	-0.072808444
113	0x3de54ec3	0.11196663
114	0xbdb9be95	-0.09069554
115	0x3d5669ec	0.05234711
116	0x3dd229ea	0.10261901
117	0x3e0fc381	0.14039423
118	0x3de6e4df	0.112741224
119	0x3c8d92d3	0.017281925
120	0x3d1f7ba9	0.03893629
121	0x3e22f3fe	0.15913388
122	0xbce2c9b0	-0.027684063
123	0x3daf812b	0.08569559
124	0x3d91eb2c	0.071249336
125	0x3edc4839	0.43023852
126	0x3c7db29e	0.01548448
127	0x3e9e6f85	0.30944458
128	0x3df37166	0.118868634
129	0x3d1c14b2	0.038105674
130	0x3cdffd5e	0.027342495
131	0x3cfac5fe	0.030611988
132	0x3df0743c	0.1174092
133	0x3d3b9eef	0.045805868
134	0x3d970215	0.07373444
135	0x3d80b02f	0.06283604
136	0x3e0b547f	0.13606451
137	0x3d33ec3c	0.043926463
138	0x3d9222f1	0.07135571
139	0x3e1339d7	0.14377533
140	0x3e0181f6	0.12647232
141	0x3dc6f860	0.097153425
142	0x3d0f2aac	0.034952804
143	0x3d8408ee	0.06447016
144	0x3e0b8872	0.13626269
145	0x3c392244	0.0112996735
146	0x3e0f9f48	0.14025605
147	0x3b14445a	0.0022623749
148	0x3deaeb47	0.11470657
149	0x3e5be5f9	0.21474446
150	0xbc9042bf	-0.017609952
151	0xbc406788	-0.011743434
152	0x3d55e5f6	0.05222126
153	0x3e0ac62c	0.13552159
154	0x3dcab9f9	0.09898753
155	0x3dac4b4c	0.08412799
156	0x3e01172a	0.12606493
157	0x3d914e1a	0.07094975
158	0x3c2c3d71	0.010512696
159	0x3e6d0422	0.23146108
160	0xbcfc97e4	-0.030834146
161	0x3dad57c7	0.08464008
162	0x3d594259	0.05304179
163	0x3db0a151	0.08624519
164	0x3cbbac51	0.022909315
165	0x3d9e7a9c	0.0773823
166	0xbcd77b8a	-0.026304025
167	0x3e784a87	0.2424718
168	0x3d3ba94a	0.045815744
169	0x3c9ff9ec	0.019528352
170	0x3d12649b	0.035740476
171	0xbcc81720	-0.02442509
172	0x3ddf5e32	0.10906638
173	0x3d8a0cc0	0.06740713
174	0x3c8ab4f6	0.016931992
175	0x3ba84237	0.0051348465
176	0x3d733dee	0.059385233
177	0x3de9c7c8	0.114150584
178	0x3dacfada	0.08446284
179	0x3df543d2	0.11975826
180	0x3dd99ebd	0.1062598
181	0x3e81af73	0.2532917
182	0x3d3271f6	0.043565713
183	0x3de4d636	0.1117367
184	0x3db37c30	0.08763921
185	0x3d3509d4	0.044198826
186	0x3cac3cb8	0.021025047
187	0x3d91272a	0.07087548
188	0x3e2363a2	0.15955976
189	0x3c85c1da	0.016327787
190	0x3e05ba26	0.13059291
191	0x3e255153	0.16144304
192	0x3e92d6c7	0.28679487
193	0xbd56db3a	-0.052455164
194	0xbd87db05	-0.066335715
195	0x3e05ed27	0.13078748
196	0xbc89a741	-0.016803386
197	0x3eacc7d5	0.3374621
198	0x3d52d47c	0.051472172
199	0x3e2c7a89	0.16843618
200	0x3d126b50	0.035746872
201	0x3d334e6c	0.04377596
202	0x3e496990	0.19669175
203	0x3d7e0dea	0.06202499
204	0x3d9b3268	0.075779736
205	0xbd189e66	-0.037260436
206	0x3ec181f1	0.3779445
207	0x3d931596	0.071818516
208	0xbb5c85d1	-0.0033649097
209	0x3cbe659c	0.02324181
210	0x3d9c587e	0.07634066
211	0x3d1611ef	0.036638197
212	0x3b0b1b07	0.0021225826
213	0x3e0feb68	0.14054644
214	0x3ba23c34	0.0049510244
215	0x3c28cff1	0.010303483
216	0x3b709202	0.0036708121
217	0xbc317898	-0.010831974
218	0xbbeb9478	-0.0071893297
219	0x3d02a095	0.031891424
220	0x3d0b8dbe	0.034070723
221	0xbbc39ebd	-0.005969851
222	0x3d9800e1	0.07422043
223	0x3df639b4	0.12022725
224	0x3d7dc88f	0.061958846
225	0x3e16befa	0.1472129
226	0x3d39f01b	0.045394998
227	0x3d2d1c0e	0.042263083
228	0x3dc79e58	0.097469985
229	0x3d2f2063	0.042755496
230	0x3cf79146	0.030220639
231	0x3cf6df0f	0.03013566
232	0x3b5ba4fc	0.0033515086
233	0x3d30df83	0.043181907
234	0xbabcce08	-0.0014404664
235	0x3b254bef	0.0025222262
236	0x3d450b2d	0.04810636
237	0x3e070925	0.13187082
238	0x3c33823c	0.010956343
239	0x3d5d5b8a	0.054042377
240	0xbcf174bc	-0.029474609
241	0xbc5075e0	-0.012723416
242	0x3d80ce83	0.06289389
243	0x3ca9b50c	0.020716213
244	0x3e0a7d04	0.13524252
245	0x3e15f7cc	0.14645308
246	0x3d8bd0e8	0.06826955
247	0x3c947900	0.018124104
248	0x3dced970	0.10100067
249	0x3dee456d	0.11634336
250	0x3d0f43bb	0.034976702
251	0xba0fd3b9	-0.0005486566
252	0x3db5fd79	0.08886237
253	0x3f01e5ff	0.5074157
254	0x3d5a18bd	0.05324625
255	0x3e8e2081	0.27759174

network.6.bias f4 [12]
0	0x3d3ac54c	0.045598313
1	0x3e1410e9	0.14459576
2	0x3e2e65ab	0.17030971
3	0x3e03c8a0	0.12869501
4	0x3e145037	0.14483725
5	0x3e3219d1	0.1739266
6	0x3d610395	0.054935057
7	0x3e11739c	0.14204258
8	0x3e611923	0.21982245
9	0x3d8920c5	0.066957034
10	0x3e37847d	0.17921634
11	0x3e5e78fb	0.21725838
