model/DQNAgent2_20-08-2022__23-39-04.pth/DQNAgent2_20-08-2022__23-39-04_iter_60.pth (torch, 826191 bytes, 8 tensors)

network.0.weight f4 [256, 27]
000000 ca c7 fe 3d e7 e6 fa bc 19 d7 fd 3c 34 7a 09 3e
       0.124404505 -0.030627681 0.030986356 0.13425523
000010 ad 09 44 be 37 e5 25 3b 5a f2 40 bd 58 e5 42 3d
       -0.19144316 0.0025313625 -0.047106124 0.047582
000020 65 f5 a7 bd 32 86 a4 ba c0 f2 42 3d 85 1f 4f be
       -0.08201102 -0.00125522 0.047594786 -0.20226867
000030 7f d8 8b 3d 33 2b 90 bd 7c c0 db bc 09 84 fa bd
       0.06828403 -0.070394896 -0.026825182 -0.12232215
000040 c3 b1 a4 3d 0b 8c bf 3c be 51 1a 3e 44 96 0f be
       0.08041718 0.023382207 0.15070245 -0.14022166
000050 8f 33 f9 bd 80 25 84 3c 34 fc 01 bd 03 4d 83 be
       -0.12168037 0.016131163 -0.03173466 -0.25644693
000060 b2 a5 a1 3d 5a f7 ec 3d 74 6b 42 be 71 7c c3 3d
       0.07892932 0.11570616 -0.18986303 0.0954522
000070 0a 08 57 be 9c a8 39 be 63 8f 72 be 64 d4 a1 3d
       -0.2099916 -0.18130726 -0.2368751 0.079018384
000080 2c f5 35 bd 24 f5 fa 3d 8b fc d0 bd 4f 4c c9 3b
       -0.044423267 0.12253788 -0.10204419 0.00614313
000090 22 d3 ef bb 99 50 57 be b3 2b 26 be af 9d c0 3d
       -0.00731887 -0.2102684 -0.16227607 0.09405076
0000a0 d4 b5 51 be c7 ff 1a bc 67 15 4e be ee 43 50 3b
       -0.20479518 -0.009460396 -0.20125352 0.003177877
0000b0 64 ef 3a bd 12 4b 22 bb fa ff f1 3d 9d c8 a0 bd
       -0.045638457 -0.0024763984 0.11816402 -0.07850764
0000c0 69 92 d1 3d 0e 1f b5 3d a4 8f c1 bd f8 7e 90 3c
       0.10233004 0.08843814 -0.094512254 0.017638668
0000d0 a6 d9 8d bd 48 05 e4 3c 39 e5 43 3d bd f4 05 be
       -0.06926279 0.02783455 0.047826026 -0.13081641
0000e0 33 17 40 be ff f4 f4 bb 56 ff cb bd 31 9f f9 3d
       -0.1875885 -0.007475495 -0.09960811 0.121885665
0000f0 d2 a8 ba bc 9a 02 4e be 11 a5 14 3e 4c 29 a7 bd
       -0.022785578 -0.2011818 0.14516093 -0.08162174
000100 fc 43 43 3d cb 70 dd 3c f9 08 4f be 39 79 4f bd
       0.047672257 0.027031323 -0.20218267 -0.050652716
000110 70 1b 81 bd 23 8f 19 3e a8 02 63 be ad 48 c1 3d
       -0.063040614 0.14996009 -0.22168982 0.0943769
000120 5a f9 f1 bc 16 eb 87 bd 99 92 2c be 96 5f 20 be
       -0.029537845 -0.06636636 -0.16852798 -0.15661463
000130 d7 69 c0 bd 59 94 f2 bd c2 69 8c 3d 6c f1 6f bd
       -0.09395187 -0.11844701 0.06856109 -0.058579847
000140 96 0a fc 3d 58 46 18 be d7 70 f9 bd 7e f6 66 bd
       0.123067066 -0.14870584 -0.121797256 -0.056387417
000150 52 be 4c be 8d dd 2b be b3 85 1c be 96 8e 60 be
       -0.19994476 -0.16783734 -0.15285377 -0.21929392
000160 04 6d 98 3d 72 31 b1 3d 6e eb ef bc c6 5b 7a be
       0.07442668 0.08652009 -0.029287066 -0.24449071
000170 6c ab d4 3a 1b a7 93 bd b1 7a 81 3d 3d 02 0e bb
       0.0016225404 -0.07209607 0.0632223 -0.0021668815
000180 22 43 14 be 04 2d 5b 3d 87 18 b0 bd 3c 7a e8 bd
       -0.14478734 0.053509727 -0.08598428 -0.11351439
000190 80 34 7e bc 27 ce 3e 3e 6f 6a 34 be b0 7a a1 bd
       -0.015515447 0.18633328 -0.17618726 -0.07884729
0001a0 30 8e 4d 3d 00 8e d6 3b 08 2d 87 bc 63 25 04 3e
       0.05018443 0.0065476894 -0.016500965 0.12904887
0001b0 90 c9 93 bc 13 e6 f2 bd 16 3b 38 be 09 0a 1e bd
       -0.018040448 -0.118602894 -0.1799129 -0.03858379
0001c0 c1 be 97 3d 56 83 c7 3c ad 18 a4 3d 7b 86 a8 bd
       0.0740943 0.024354618 0.08012519 -0.08228775
0001d0 49 1f 57 3d 94 21 50 bd 20 0a 6c be 67 76 88 bd
       0.05252007 -0.050813273 -0.23050737 -0.066632085
0001e0 99 a5 9d bd c5 0d c5 3b 1d c0 91 bc 85 f4 3c be
       -0.07697601 0.0060136043 -0.017791802 -0.18452652
0001f0 45 47 b4 3b 80 28 4c bc ef 89 ab bd 9e f6 86 3d
       0.00550166 -0.012460828 -0.08375918 0.06590007
000200 60 82 77 3c da 77 ce 3d a6 64 13 be c4 45 0c be
       0.015106767 0.100814536 -0.14393863 -0.13698488
000210 d0 5b 66 3c 30 78 7b 3c 96 6d f8 3d fd a3 97 bc
       0.014059976 0.015348479 0.12130277 -0.018510813
000220 b2 40 fe bd 75 3e 35 3e c7 a3 49 be 9e a4 06 3e
       -0.124146834 0.17699607 -0.19691382 0.13148734
000230 03 d6 dd bd 67 b9 4a be 69 cb da 3d 7a 4d cb 3d
       -0.10831835 -0.19797288 0.10683329 0.09926887
000240 27 35 3f be b1 04 6b 3d ea 65 4f be 12 0e e2 bc
       -0.1867262 0.05737752 -0.20253721 -0.0275946
000250 45 f1 72 be 72 80 b9 bd 45 6b 15 be e5 c5 7a 3d
       -0.2372485 -0.09057702 -0.14591701 0.061223883
000260 22 8d 48 3d d8 4a bf 3d 60 70 4a bd 15 90 13 be
       0.04896272 0.09340447 -0.049423575 -0.14410432
000270 91 74 3e 3d a6 d0 bc 3d da c1 8e bd 3b dc 40 3e
       0.046497885 0.09219484 -0.06970568 0.18834011
000280 e8 82 3c 3d 04 c1 72 bd 28 e0 50 3d 02 9e 1f bc
       0.04602328 -0.059266105 0.050995022 -0.009742262
000290 ba 83 d5 3d 99 94 a8 bd da 48 92 3d 1d aa 51 bd
       0.104255155 -0.08231468 0.071428016 -0.051187623
0002a0 ac 86 66 be e8 95 65 be 1b 25 c4 3c 6d b3 c0 3d
       -0.2251231 -0.22420466 0.023943475 0.09409223
0002b0 3d 87 53 be cc 1b c6 bd ab 66 ac bd 89 5b 15 bd
       -0.20657058 -0.096732706 -0.0841802 -0.036464248
0002c0 44 31 1b be c7 8e c0 3d cc 7b 8f bc 7b f6 97 bc
       -0.15155512 0.094022326 -0.017515086 -0.018550148
0002d0 c4 97 a8 bd 40 25 e1 bc 8d 3b 14 3e 47 30 c8 3d
       -0.08232072 -0.027483582 0.14475842 0.09774833
0002e0 c0 75 73 bd b6 dd 09 be ac ba 32 bd 30 9a 0e 3d
       -0.059438467 -0.13463482 -0.043635055 0.034815013
0002f0 da 50 83 3d 95 6f 87 3d 06 7e 09 be cb f7 26 3d
       0.064119056 0.066130795 -0.1342698 0.040763658
000300 c9 a8 04 bd 23 06 e5 bb 79 df be bd 79 e9 e6 3c
       -0.03238753 -0.006989257 -0.09319968 0.0281875
000310 11 0b 09 bd 48 28 69 3d 85 2c 39 be 0a 7a 6e be
       -0.03345782 0.05692318 -0.18083389 -0.23288742
000320 d1 e0 1c 3d b1 2b 02 3e 72 60 1d be d6 bb 6f be
       0.03830034 0.1271198 -0.15368822 -0.23411497
000330 5d 05 6c be 77 dc be 3d be 17 b5 3d d4 52 f5 3d
       -0.23048921 0.09319394 0.08842419 0.11978689
000340 64 1b 7e bd f2 c1 11 be cf 57 31 be 2f 6a 8d bd
       -0.06203784 -0.1423414 -0.17318653 -0.069050185
000350 8f ca 56 3e de ea 83 bd a8 8a dd 3c 96 18 39 be
       0.20975707 -0.06441282 0.027043656 -0.18075785
000360 c6 23 30 be e5 bf 82 bd 88 63 ca bc 0a 9c f5 3d
       -0.17201146 -0.06384257 -0.024705663 0.11992653
000370 95 5f 5f be 76 60 a0 bd 29 25 d9 bd 86 64 b6 3d
       -0.21813805 -0.078308985 -0.10602791 0.08905892
000380 aa 30 9e bd 85 32 5f be 29 7a b0 bd 69 a9 7d bd
       -0.07724126 -0.21796615 -0.0861705 -0.06192914
000390 a6 5a 01 bc 24 dd 49 bd 44 b7 11 3e 4d c6 6a be
       -0.007895147 -0.04928316 0.14230067 -0.22927208
0003a0 c6 65 7c bd ed 30 a6 bc 08 d0 55 3c 53 9c 20 3e
       -0.061620496 -0.020287002 0.013050087 0.15684633
0003b0 00 ac 65 bc 8c f8 46 bd f6 0f ce 3d a4 f9 aa 3d
       -0.014018059 -0.048576877 0.10061638 0.083483964
0003c0 8a 42 a9 3d d6 82 e7 3d b2 8b b2 3d 02 db 1f be
       0.082646444 0.11304252 0.08718051 -0.15610889
0003d0 e8 e0 ac 3d 52 5c 35 be 1c 6f 16 be 30 90 fc bd
       0.08441335 -0.17710999 -0.14690822 -0.12332189
0003e0 4a 35 b1 3b 90 04 3a be d7 df d6 3d af 3f 73 be
       0.005407964 -0.18165803 0.10491913 -0.23754762
0003f0 fa 40 61 be 71 b9 8e 3d e1 67 e4 3d 87 1d 2c 3d
       -0.21997443 0.06968964 0.11152626 0.042020347

network.0.bias f4 [256]
000000 91 ae c9 3c 42 7a 43 be 92 f9 09 be b3 87 e0 bd
       0.024619373 -0.19089606 -0.1347411 -0.109633826
000010 bc 68 67 be b9 cb 4b 3d 5d 0c 25 3d ec 89 70 3c
       -0.22598547 0.049754832 0.040294994 0.014681321
000020 54 97 68 be 07 e4 8b bd f0 5c 97 3e 90 5c 61 be
       -0.22713977 -0.06830602 0.29563093 -0.22007966
000030 8b 9f 6e be f0 b0 ca 3d 6e 75 c0 3d 40 82 1c be
       -0.23303048 0.098970294 0.09397398 -0.15284061
000040 28 4b 1c be 34 1a 7b bd a8 d8 1b be 4a 96 21 be
       -0.15263045 -0.061304286 -0.15219367 -0.15779987
000050 d6 0b e7 bd b0 e0 bf 3c ee f0 74 be 29 55 a0 3d
       -0.112815544 0.023422569 -0.23920032 0.07828743
000060 37 ed 50 be c0 cd c8 bb 07 ad 17 3d 8a 91 08 be
       -0.2040299 -0.006128043 0.037030246 -0.13336769
000070 a5 ea b0 3d b8 57 a5 bc da f9 7f bd cf de a0 bd
       0.08638505 -0.02018343 -0.062494136 -0.07854997
000080 c2 55 f6 bc a2 7c 65 bd b7 33 78 3d 03 f3 08 3e
       -0.03007019 -0.056027062 0.060596194 0.13373952
000090 f7 9e 80 bd 73 a8 09 3d b0 d1 85 be 8a c6 4a 3c
       -0.0628032 0.03360791 -0.2613654 0.012376437
0000a0 31 44 94 3d 41 cb dc bd cd f2 14 bc ba 6f 66 3d
       0.07239569 -0.10780955 -0.009091091 0.056258895
0000b0 ac e0 00 be ad 81 23 3e 17 54 6f 3d fb 92 8c bd
       -0.12585706 0.15967436 0.058429804 -0.06863972
0000c0 cd fe 4e be 51 4e bb bc 9b 83 34 3e 8e 2a 0d be
       -0.20214386 -0.022864493 0.17628329 -0.13785765
0000d0 fe ac 96 3d fe c0 5b be b2 6c 3f be ba 9b 96 bc
       0.073572144 -0.2146034 -0.18693808 -0.018384803
0000e0 29 03 99 bd 40 6c 28 3c 0c d0 63 bd 10 39 03 3d
       -0.07471306 0.010279715 -0.05561833 0.03203684
0000f0 9e 36 bd 3d 6c 6f 4f 3d 0a ec 8d 3b cc c5 2b 3d
       0.09238933 0.05064337 0.0043311166 0.04193668
000100 d5 61 90 bd 09 6d 41 be 4f 37 3e 3c 07 34 b1 bd
       -0.0704991 -0.1888925 0.011609866 -0.086525016
000110 a8 d1 16 3d 84 4d 0f bd 9f fc 50 be 0a 9b 5e be
       0.036821038 -0.034986034 -0.20408867 -0.2173883
000120 a0 03 5f be 92 29 52 be a8 73 b0 bc 54 d0 a0 bd
       -0.21778727 -0.2052367 -0.021539524 -0.078522354
000130 44 f6 67 3d 44 53 17 be 61 e5 bf bd 46 4e 07 3d
       0.05663134 -0.14777857 -0.093699224 0.03303363
000140 06 00 f3 bd 82 e8 dd bd 0b a4 0f 3e d5 9e 90 be
       -0.11865239 -0.10835363 0.14027421 -0.2824618
000150 9b 51 4d be be 00 66 3d 82 68 9c 3d d7 dd 5b be
       -0.20050661 0.05615305 0.07637121 -0.21471344
000160 20 0f 0b be 0f 46 04 be bc 59 50 3d f8 4d 44 bd
       -0.13579988 -0.1291735 0.050866827 -0.04792592
000170 2a c2 a4 bd 1e 13 5b 3c c5 c4 3b 3d 17 2a fd 3d
       -0.08044846 0.013371257 0.04584195 0.123615436
000180 73 17 61 3d 05 aa 90 bc e4 29 5a be 04 43 22 3d
       0.054954004 -0.017659197 -0.21305043 0.039614692
000190 53 01 59 be d2 6f e6 bd 3c 73 46 bd 78 a9 2e bd
       -0.21191911 -0.11251797 -0.04844974 -0.042642087
0001a0 51 f4 98 bd f4 08 06 be 54 63 a8 3d 8b 67 44 3e
       -0.07468475 -0.13089353 0.0822207 0.19180124
0001b0 40 34 4b bc 9c 98 47 be 3e 5e d6 3d 5f c0 15 be
       -0.012402594 -0.1949181 0.10467194 -0.14624165
0001c0 f9 45 24 be 93 8e 08 3e 33 57 2f 3e 84 6a 61 bd
       -0.16042317 0.13335638 0.17123108 -0.05503322
0001d0 31 5e 60 3d 0c ca 46 be 86 ab 56 be a0 86 43 bc
       0.054777328 -0.19413012 -0.20963868 -0.011933953
0001e0 9c 25 53 bd 0c a6 3f bc 35 ea 2a be 4e b6 c3 3c
       -0.05154954 -0.0116973035 -0.16690905 0.02389064
0001f0 75 1c 3a 3e 93 10 28 be 51 49 29 bd c2 ff 32 be
       0.18174918 -0.16412573 -0.041329686 -0.17480376
000200 5b 3a 43 be d8 38 93 3d 2e 28 2d be 13 b6 c1 bc
       -0.1906523 0.071885765 -0.16909859 -0.02364639
000210 fb d8 4f bd 4d 07 a9 3c 4c f6 b8 bd 92 d1 70 be
       -0.050744038 0.020633364 -0.090313524 -0.23517445
000220 0d d4 a4 bd 7c 5d 5e be a6 e0 d3 3d 8b ea 01 bd
       -0.08048258 -0.21715349 0.10345583 -0.03171782
000230 cd 6d 7f bd 5c f6 b2 bc 89 5e b3 bd 3c b7 2f be
       -0.062360574 -0.021845989 -0.087582655 -0.17159742
000240 9c c4 88 bd 37 d3 6a be 7f 76 67 bb 22 91 9a bd
       -0.06678125 -0.22932135 -0.0035318432 -0.07547213
000250 45 c2 ec bd 50 09 5a 3d a3 78 96 bd d4 f8 f0 bd
       -0.115604915 0.053231537 -0.073472284 -0.1176621
000260 2c df da 3d 4f 2d 26 3e b9 be 59 be ce fb 79 be
       0.10687098 0.16228221 -0.21264161 -0.24412462
000270 e3 e1 a9 3d 8b 6a 2c be 38 67 3d be a0 48 68 3d
       0.082950376 -0.16837518 -0.18496406 0.056709886
000280 63 d0 ac 3c 02 21 68 be b9 5c 0f 3e 5b ae 66 be
       0.02109546 -0.22668841 0.14000215 -0.22527449
000290 f7 4f ed bc 38 7b 0f be a1 c6 f0 3d 89 4c 00 3e
       -0.028968794 -0.14011848 0.117566355 0.12529196
0002a0 33 c6 04 be dc 9d ec bd a0 f8 7f bd d4 68 aa bc
       -0.12966232 -0.11553547 -0.062492967 -0.02080194
0002b0 34 4f f3 bd 31 ca 1f 3d 69 30 d4 bd 6b 19 62 3b
       -0.11880341 0.039011184 -0.10360796 0.0034500014
0002c0 cf 08 44 3e 4a 6d f7 bd cc cc 8a bd c7 d4 5c ba
       0.19143985 -0.12081392 -0.06777343 -0.000842404
0002d0 6f 22 fa 3d 7f 84 9e bd 7c b3 5a be 0a bc 3b be
       0.12213599 -0.077401154 -0.2135753 -0.1833345
0002e0 22 db ff 3d 57 81 ca bd 78 94 8b 3d 85 16 26 3c
       0.12492968 -0.09887951 0.068154275 0.010137205
0002f0 e4 b2 87 bc 26 5c a0 3c b9 f9 36 bd 19 85 22 be
       -0.016564794 0.01957519 -0.044671748 -0.15871085
000300 9c 5e 05 3d 35 6b 01 be 8f 6e 7a bd 73 58 24 3c
       0.03256093 -0.12638552 -0.061140593 0.010030854
000310 d7 d2 2a bc 36 4e 69 3e 70 13 ad bd 4d 76 69 be
       -0.010426245 0.22783741 -0.08450973 -0.22799034
000320 25 3e 87 be 5a 51 85 3d f7 75 04 3e f6 29 d8 3d
       -0.264146 0.06509657 0.12935625 0.105548784
000330 f3 1d c0 bc 6b 24 e3 3d bd d9 88 3d d9 74 10 be
       -0.02345178 0.110909306 0.06682155 -0.14107074
000340 e7 a3 78 bd c9 11 a1 3d 91 2d 9d 3d 6c 60 97 3d
       -0.060703184 0.078647204 0.07674707 0.07391438
000350 10 16 5b 3d 9d 42 38 bd 1d 1e a9 3d a5 2d 5c be
       0.053487837 -0.044985402 0.08257697 -0.21501787
000360 79 ac db 3d 74 ce d3 3c 42 03 5d 3d 2a 09 dc 3d
       0.10726256 0.02585528 0.053958185 0.107439354
000370 a4 b3 15 be 9f 32 34 be fb 94 22 3e 7a 09 fb bc
       -0.14619309 -0.17597435 0.15877144 -0.030644167
000380 a0 31 5a 3c 7b cd 95 bd 5c 77 4b bc 52 f7 26 3d
       0.013317496 -0.07314583 -0.012418594 0.040763207
000390 e1 d4 78 be 9e ae 07 bd 4d ec a5 bd d9 77 03 be
       -0.24299957 -0.033125512 -0.081017114 -0.12838687
0003a0 fa 40 30 be 85 3a e0 bc 13 94 5f be 36 27 5b 3c
       -0.17212287 -0.027371654 -0.2183383 0.013376048
0003b0 21 8e b1 bc e5 14 e8 bd 8b 43 93 3d e1 f4 a0 bd
       -0.021674218 -0.1133211 0.07190617 -0.07859207
0003c0 11 97 1d bc b4 28 da bd 86 20 aa 3d 14 72 3d bd
       -0.009618537 -0.10652295 0.083069846 -0.04625137
0003d0 48 81 3d be b3 c0 a3 bc 4a 36 ca 3d b5 64 4d be
       -0.18506348 -0.019989347 0.09873636 -0.20057948
0003e0 95 98 4f 3d 02 c4 2a be f4 ff c1 ba 62 9f 34 3e
       0.050682623 -0.16676334 -0.0014801011 0.17638925
0003f0 ab 93 ed 3d 38 06 04 bd 13 8e 5d bd 6f 33 d8 3c
       0.11600431 -0.032232493 -0.05409057 0.026391713

network.2.weight f4 [512, 256]
000000 87 b6 cf 3d 4c a4 45 3d e5 1a c5 bd e2 c3 db 3d
       0.10142236 0.04825239 -0.0962427 0.10730721
000010 4c c1 b7 bc 74 f3 5b bd 7a 39 56 bd a7 ae bd bd
       -0.022431038 -0.053698972 -0.052300908 -0.09261828
000020 c7 07 08 3b 43 cc 0d 3e 6c 8d 5e bd df c6 2d bd
       0.0020756589 0.13847451 -0.05433409 -0.042425986
000030 d4 13 75 bd a3 36 f9 3d a2 81 0c be 46 7d 9e bd
       -0.059833363 0.12168624 -0.13721326 -0.07738738
000040 78 18 7b 3d 6d 5c 1f 3e 2d cc 00 bd 34 2e 0b bc
       0.061302632 0.15562601 -0.031444717 -0.008494902
000050 39 77 15 be bd 52 40 3d 88 64 64 bc 65 d3 5c bd
       -0.14596261 0.046953905 -0.013939984 -0.05391254
000060 bd b4 33 bc b0 4f d7 bd ad d5 14 be 16 7b c9 bc
       -0.010968384 -0.10513246 -0.14534636 -0.024594825
000070 c0 6a 47 bb 40 a7 77 bc 80 be 98 3c 0a d9 ed 3d
       -0.0030428618 -0.015115559 0.018645525 0.116136625
000080 02 a1 66 3c 2a 20 b4 3d 4a 81 4e 3d 14 a4 55 3d
       0.014076473 0.08795197 0.05041627 0.05215843
000090 96 eb 4b bd 70 e7 e9 3b a1 9b d8 3c 79 a3 a8 3d
       -0.04978522 0.007138185 0.026441397 0.08234305
0000a0 42 3e 46 3d 1c bb 9d 3c f2 45 24 bd e3 f2 d2 bb
       0.048399217 0.01925426 -0.040105768 -0.0064376458
0000b0 4f 73 31 3c 3c f6 6c bd f6 a9 72 bd 90 d1 b0 3c
       0.010830714 -0.057852015 -0.05924412 0.021584302
0000c0 35 bb 92 3d b0 92 e8 3b 48 68 24 3d c8 c3 56 bd
       0.07164613 0.0070975646 0.040138513 -0.052432805
0000d0 90 66 c8 3c 3f 6c db 3d a8 93 da bc c0 c4 af bb
       0.024462968 0.10714006 -0.026681736 -0.0053640306
0000e0 64 a6 04 3e 54 5f a8 bc a4 25 4d 3d 45 4c 12 be
       0.12954098 -0.020553268 0.050084725 -0.14286907
0000f0 a6 1d dc bb 9c 02 e6 3c 88 4d 03 be c5 62 dd 3d
       -0.0067174016 0.028077416 -0.12822545 0.108098544
000100 c5 0c 8d 3d 7c 0c c8 3c 10 42 e7 bd 59 83 a2 3d
       0.06887201 0.024420016 -0.11291897 0.07935209
000110 e8 87 97 3c 8b 14 28 bc 98 c0 e9 3d a4 4c cf bc
       0.018497422 -0.010258804 0.114136875 -0.0253051
000120 56 00 30 bd 6e 4a 45 3d 52 5a 61 bd 3e 90 57 3d
       -0.04296907 0.048166685 -0.055017777 0.052627794
000130 82 71 71 bd 14 d7 83 bc 51 3c 5a 3d 3f 47 92 bd
       -0.05894614 -0.016093768 0.05328018 -0.07142495
000140 10 fa 48 bd 69 ab 8c 3a 94 80 05 bd 7a 70 88 3b
       -0.049066603 0.0010732237 -0.032593325 0.004163799
000150 42 a3 88 3d c8 62 51 bc a0 e1 ac 3b 94 e2 27 bd
       0.06671764 -0.012779899 0.00527592 -0.040987566
000160 a4 15 a6 bc 1d d5 07 3d b6 d8 5c 3d 3c e6 b5 bc
       -0.02027399 0.033162225 0.05391761 -0.02220451
000170 40 9e 04 bc fc 48 7f bd 37 7f 97 3c 70 ea c0 bb
       -0.00809437 -0.062325463 0.018493278 -0.005887322
000180 86 c4 c7 bd aa 1b 05 3c 64 0e c7 3c f8 4c 0c 3c
       -0.09754281 0.008124271 0.024298854 0.008563273
000190 85 c0 8c bd 10 54 35 bc e2 bc 75 bd be 82 0f be
       -0.06872658 -0.011067405 -0.059994586 -0.14014718
0001a0 67 53 17 3d 6d d2 20 be 68 cc 6d 3d 70 3f ac 3c
       0.036944773 -0.15705271 0.058056265 0.021026343
0001b0 0c b8 d9 bc 7c fc 60 3d 5f 4b 3e bd 88 4d 1c bd
       -0.026577018 0.054928288 -0.0464586 -0.038159877
0001c0 3d 68 93 3d 7a c0 49 bd 62 8a 10 bd 00 1d 3e 3d
       0.07197616 -0.049255826 -0.035288222 0.046414375
0001d0 04 5e 99 bc 4b 4d e0 3c ff 44 01 3d c7 71 4c 3c
       -0.018721588 0.027380606 0.03155994 0.0124782985
0001e0 e0 52 46 bc fe 8e 19 bd aa ea 4e be b8 03 be bd
       -0.01210472 -0.037489884 -0.20206705 -0.09278053
0001f0 88 32 df 3c 93 cb d5 bc 72 ac 99 bd 8f f4 65 bb
       0.027245775 -0.026098048 -0.075035945 -0.0035088395
000200 30 ba c5 bb d1 88 e6 bd 20 d6 42 3d 78 4f b1 3c
       -0.006034158 -0.112565644 0.047567487 0.021644339
000210 64 27 80 bc fc 57 db bc b9 bd 1c 3d e3 f8 aa 3d
       -0.015643783 -0.026775353 0.03826687 0.083482526
000220 fc 51 64 bd 60 e7 c0 bb 05 e3 94 3d 28 b1 ef bc
       -0.05574225 -0.005886957 0.07269863 -0.02925928
000230 a1 46 59 be bb cf 03 be c0 24 76 3b e8 3c c3 3c
       -0.21218349 -0.12872212 0.0037558526 0.023832753
000240 02 05 6e bd d8 31 1e 3d d9 f5 09 be 00 de 3e 39
       -0.058110245 0.038621753 -0.1347269 0.00018202513
000250 43 78 c3 3c 5a 97 dc bd 60 80 3d 3d 69 19 66 3d
       0.023861056 -0.107710555 0.046265006 0.056176577
000260 c8 aa 0d 3c 8a 83 45 3d c0 7d 01 bb 73 cf 82 bc
       0.008646674 0.04822115 -0.001975879 -0.01596806
000270 00 18 1a bc 13 fd be bd c5 cc 2b 3b 2d 58 bc bc
       -0.009405136 -0.09325614 0.0026214581 -0.022991264
000280 c8 74 22 3c e8 c6 3e bd 6a 61 46 bd 86 14 67 3d
       0.009915538 -0.04657641 -0.048432745 0.056416057
000290 de e8 09 3d 14 79 1b 3d 10 8f 86 bb 2c b2 1a bd
       0.033669345 0.037957266 -0.00410641 -0.037767574
0002a0 54 8a 04 bd 3c 2f e1 bd f6 a0 fb bc 1e 09 9f 3d
       -0.032358482 -0.10995337 -0.0307164 0.07765411
0002b0 04 25 8e bc 5d ec 65 bd 20 c3 b4 3b 1a e9 5c 3d
       -0.017351635 -0.056133617 0.005516425 0.05393324
0002c0 60 5b 2f bc 12 1f 7e 3d 8e 4b 26 be 60 8e 62 bc
       -0.010702938 0.06204135 -0.1623976 -0.01382789
0002d0 90 32 05 3e a6 e4 13 3d e7 1c ab bd f0 78 b9 bb
       0.1300757 0.036106728 -0.08355122 -0.005660169
0002e0 22 fd c4 39 78 2c 06 be cf 89 87 bb 22 35 1f 3d
       0.00037572632 -0.13102901 -0.004136301 0.03886903
0002f0 79 bb c6 3d 1c 59 db bc 29 db 6b 3d 22 ed e4 bd
       0.09703726 -0.02677589 0.057582054 -0.11178042
000300 60 cd 7d 3c d5 be 86 bd 95 77 50 bb 1a 5f 6e 3c
       0.01549086 -0.06579367 -0.0031809558 0.014549041
000310 d0 e4 4d 3c c0 1c ff 3a b0 b5 09 bd b6 8f 72 3c
       0.01256676 0.0019463524 -0.033620536 0.014804771
000320 84 14 ce bc 88 08 96 bc 6e 88 42 3d e0 9d 57 3b
       -0.025156267 -0.018314615 0.04749339 0.0032900497
000330 e0 33 43 3d bd 96 51 3d b7 d4 e0 bc ba 5c 79 3d
       0.047656894 0.051169146 -0.02744518 0.060879447
000340 f4 7b 51 3d a2 27 61 3d a1 28 e6 bd ca 09 0e 3d
       0.0511436 0.054969437 -0.11238218 0.034677304
000350 f6 f1 16 bd 0d 3d 4b be 13 36 e3 3d 92 66 4a 3d
       -0.036851846 -0.19847508 0.11094298 0.049414225
000360 e7 4f 0d be c6 68 15 3d 94 99 46 be 5a c4 2c bd
       -0.13800012 0.036476873 -0.19394523 -0.042179443
000370 70 0b ea 3d 7c 45 18 3d 48 69 40 3d 5c 07 ef 3c
       0.11427963 0.03717564 0.046975404 0.029178314
000380 b9 04 44 3e 6c ac cf 3c 34 7d c2 3c 87 ef 7a bb
       0.19142427 0.025350772 0.023741342 -0.0038289742
000390 e3 cc 8c bd 13 aa 42 be 00 82 7c 3c 74 ea 34 bd
       -0.068750165 -0.1901019 0.015411854 -0.044168904
0003a0 a8 a8 b5 3c cc 2b 09 bd c5 d3 29 3d f8 08 fd 3d
       0.022175148 -0.033489034 0.041461725 0.12355226
0003b0 03 48 15 3c a1 bd 0f bd 20 03 8a 3d d7 c0 cb 3a
       0.009111407 -0.035092954 0.06738877 0.0015545142
0003c0 04 e3 24 be ba 04 4c bd f8 2f 7d bd 6a 82 8b bd
       -0.16102225 -0.049809195 -0.061813325 -0.06811984
0003d0 93 b3 8b bb 1e 5a 5f bd 9a b8 8d bd ee 1c 64 bd
       -0.0042633503 -0.0545293 -0.069199756 -0.055691652
0003e0 eb ce 58 3d f0 a6 09 3d 6e 12 6e 3d 86 3a cd 3d
       0.052931707 0.03360647 0.058123045 0.10020928
0003f0 c9 97 43 be b8 56 11 bd ea 0f d3 bb f3 37 af 3d
       -0.1910087 -0.035483092 -0.006441106 0.08555593

network.2.bias f4 [512]
000000 1c b0 b2 bc 78 77 94 bd 1c cb 90 bd fc fb ed 3a
       -0.021812491 -0.07249349 -0.0706999 0.0018156762
000010 fd 17 e9 bd 83 5a ce bd bf 19 83 bb b3 d0 7c be
       -0.113815285 -0.100758575 -0.004000872 -0.24688987
000020 65 fb 27 bd f7 3b 22 be cb ba 2a 3d 58 f3 93 bd
       -0.041011233 -0.15843187 0.041682046 -0.072241485
000030 0d 94 bd bc 08 96 6f bd 3b 84 28 be ec bb e0 bd
       -0.023141885 -0.05849269 -0.16456692 -0.10973343
000040 94 be f4 bd 66 c9 2e bd ae ea 02 be b7 a6 31 be
       -0.119504124 -0.042672537 -0.12784836 -0.17348753
000050 1b 10 1c bc f1 1b 68 bd b0 54 e9 bd d1 36 6f bd
       -0.009525324 -0.056667272 -0.11393106 -0.058401886
000060 f8 6c e7 bd 19 3d ed bd 35 39 0a be 5b 40 ac bd
       -0.11300081 -0.11583919 -0.13498385 -0.08410712
000070 50 b2 b4 bc 0c 3b 03 bd 49 37 a3 bd e9 22 84 bc
       -0.022057682 -0.032038733 -0.07969529 -0.016129928
000080 c9 8b 37 bd 8f 6c 1d 3c 45 26 d8 bd b3 64 96 bd
       -0.044811044 0.009608402 -0.10554174 -0.073434256
000090 f6 83 50 bc d7 5f ae 3a b5 b6 61 bd 0b 05 66 bd
       -0.012726774 0.0013303709 -0.055105884 -0.056157153
0000a0 c9 f5 cf bc 6d 82 8e bd a7 77 03 be d0 f4 fe 3b
       -0.025385754 -0.069584705 -0.12838612 0.007780649
0000b0 ee f0 5f bd be 50 0e be 1e b2 e5 bd fb 85 22 3b
       -0.054673128 -0.13897988 -0.11215614 0.0024799097
0000c0 fc 66 86 bd 2a 51 2c be e5 5d e5 bd 35 b5 46 be
       -0.065626115 -0.16827837 -0.111995496 -0.19405062
0000d0 73 50 02 be 96 f6 a7 bd 87 b3 17 3d fd 45 08 be
       -0.12726001 -0.082013294 0.037036445 -0.13307948
0000e0 74 24 2d 3a 3b c6 40 bc 44 c8 8b bd aa fc ef bc
       0.0006604858 -0.011766012 -0.06825307 -0.029295284
0000f0 b5 15 9c bd 8b 49 cf bd 31 e0 a0 bc dd 85 08 bd
       -0.07621328 -0.10121449 -0.019638153 -0.033330787
000100 63 bd f4 bc f8 27 db bd 4e 3c d3 bd a5 6a f4 3a
       -0.029875463 -0.10700983 -0.103142366 0.0018647505
000110 68 d0 dc bd c7 31 0d be ef 0b d3 bd 6e 63 6b bd
       -0.10781938 -0.1378852 -0.103050105 -0.05746787
000120 a5 d6 95 bd af 81 95 bd 4f f7 ed 3b aa e6 0c bd
       -0.07316331 -0.07300126 0.0072621475 -0.034399666
000130 4f d7 aa bd 94 74 e8 bd 14 4a 0d be 75 8b 03 3e
       -0.08341848 -0.113503605 -0.1379779 0.12846167
000140 d1 36 39 bd 6a 55 e1 bd 99 7e 87 bd 6f 84 bb bd
       -0.045218293 -0.110026196 -0.066159435 -0.09156119
000150 8e ce 75 3b 82 b6 e5 bc 70 99 eb bd 77 14 cc bc
       0.003750715 -0.028041128 -0.11503875 -0.024912102
000160 93 7d 63 bd f2 1d 7d bd 0d 99 62 bd f1 e6 a7 bd
       -0.05553968 -0.061796136 -0.05532174 -0.081983455
000170 05 be a0 bd 64 86 e7 bd 4e 1d 85 bb 64 14 b2 bd
       -0.07848743 -0.1130493 -0.0040623313 -0.086952955
000180 a4 a9 da bd bf 54 04 3c b4 f3 cf bd 9b 60 9b 3c
       -0.10676888 0.008076846 -0.101539046 0.018966964
000190 ad c3 15 be b8 a2 ce bc 71 5c c6 bd cf 1f 28 be
       -0.14625426 -0.025224075 -0.096856005 -0.16418384
0001a0 91 fd 69 bd 0e c7 97 bc d5 e0 26 bd b2 c7 46 be
       -0.057126585 -0.018527534 -0.04074176 -0.19412115
0001b0 e5 4e 04 be e3 a8 de bc d2 66 04 be 16 0b fb bb
       -0.12920721 -0.02718014 -0.12929848 -0.0076612337
0001c0 25 f6 f7 bd 35 2e da bc 33 1d 51 bd 2c d0 e4 bb
       -0.12107495 -0.026633361 -0.051053237 -0.006982824
0001d0 3b 91 54 3e 8d 03 a9 bd 8e 3f 67 bd 38 26 0b bd
       0.20758526 -0.082526304 -0.056457095 -0.033971995
0001e0 64 75 f2 bd 77 eb a3 bc c1 f6 f4 bd 86 7e d6 3d
       -0.11838797 -0.02000974 -0.11961127 0.10473351
0001f0 25 bb 12 be a5 9a 03 be d3 fb 9b bd 11 ad c0 bd
       -0.14329202 -0.12851961 -0.07616391 -0.0940801
000200 bf e7 60 bd 2e b6 8c bd df 50 c9 3d 72 ab c8 bd
       -0.05490851 -0.068706855 0.09829878 -0.097983256
000210 fe 18 00 bd 79 d2 e4 bd bb d9 d5 bd fd 51 28 be
       -0.031273834 -0.11172957 -0.104419194 -0.16437526
000220 9d 64 94 bd 84 61 be bd 4d 8d 0b bd c5 8e b8 bd
       -0.07245753 -0.092959434 -0.0340703 -0.09011606
000230 8f 90 55 3c eb b8 c4 bd ae 85 01 be 85 60 07 be
       0.013034954 -0.09605583 -0.12648651 -0.13220413
000240 3f 6a 09 be 94 97 d3 bd af b3 76 bd fd 09 14 bc
       -0.13419436 -0.103316456 -0.060229953 -0.0090355845
000250 f8 be fe bd d5 e4 65 bd c6 38 ed bd a9 64 de bd
       -0.12438768 -0.056126434 -0.11583094 -0.10859043
000260 22 a1 f1 bd ec 0b c4 bd e0 c5 53 3c a1 7f ba bd
       -0.11798312 -0.095725864 0.012925595 -0.091063745
000270 41 ad f8 bb 9c 47 23 be 18 e2 b3 bc 6d 5a 99 bd
       -0.007589013 -0.15945286 -0.021958396 -0.074879505
000280 fc a8 04 bd c3 91 cc bd 0a 1f a0 bd c1 fa ca 3b
       -0.03238772 -0.09988739 -0.0781842 0.006194443
000290 65 0c 82 bd e0 c1 1f bd 60 a7 5d bc e3 35 e7 bd
       -0.0635002 -0.039003253 -0.013528675 -0.11289575
0002a0 72 93 23 be 4e 1d e8 3c 97 ec 83 bd b7 4e 00 be
       -0.15974215 0.028334286 -0.0644161 -0.12530027
0002b0 33 2f cb bd 55 af 42 be 90 e8 3c bc fc fc 36 bd
       -0.09921112 -0.19012196 -0.011530057 -0.04467486
0002c0 22 1f c3 bc f5 0e 2c be 40 cd 43 be 7e 97 b7 bd
       -0.023818556 -0.1680258 -0.19121265 -0.08964442
0002d0 1f 35 d6 bb 11 23 00 be 0d ae ae bd 45 17 a7 bd
       -0.0065370942 -0.12513377 -0.08529291 -0.08158735
0002e0 db fc 8d bd 35 f1 d0 bd 3f 96 24 be 05 de b2 3c
       -0.06932994 -0.102022566 -0.1607294 0.021834383
0002f0 6e 3a df bd 5d f4 29 be f8 c3 c3 bd f1 80 98 bd
       -0.108998165 -0.16597123 -0.095588624 -0.074464686
000300 fb 23 e8 bd 0d 2f 60 bd 95 a7 48 bd 93 02 1e bc
       -0.11334988 -0.05473237 -0.048987944 -0.009644168
000310 9f 14 09 be 97 f0 de bb ec 8f 49 bc 9b d7 c9 bd
       -0.13386773 -0.006803583 -0.01230238 -0.098555766
000320 b0 51 86 bd ec ac 06 be ec 62 d8 bd 7c f1 46 be
       -0.065585494 -0.13151902 -0.10565743 -0.19428056
000330 c1 14 25 be 7f 13 fc bd 7b 76 a4 bd ab 00 ef bc
       -0.16121198 -0.12308406 -0.08030411 -0.029175123
000340 d4 4c 3e 3c aa 78 f5 bd 19 f8 7d bd 6e c1 5d bd
       0.011614997 -0.119859055 -0.062004182 -0.054139547
000350 42 4b 93 bd 2b 6a fd bd a1 66 66 3e 94 d1 99 bd
       -0.07192089 -0.123737656 0.22500087 -0.07510677
000360 bc ce b8 bd 6a 2d 60 bd 5f d1 52 be 5d 34 d2 3d
       -0.090238065 -0.05473081 -0.20587681 0.10263894
000370 70 4c 86 bd 33 f0 f5 bd f0 95 75 bd 21 b7 59 bd
       -0.06557548 -0.12008705 -0.059957445 -0.05315316
000380 6e d8 43 3c 5a a2 02 be c0 84 c4 bd 11 8a 80 bd
       0.011953456 -0.12757245 -0.095956326 -0.06276334
000390 16 c7 7c bd 2d db 09 be 81 28 cb bd da 32 a6 bc
       -0.0617133 -0.13462515 -0.09919835 -0.02028792
0003a0 a9 d6 77 bd a1 09 0f bc 27 db 6a bd f1 49 82 bd
       -0.06050745 -0.008730323 -0.057337906 -0.063617595
0003b0 3e aa da 3d 25 bc b2 3c 6f df 14 bd 08 5b f7 bd
       0.10677002 0.02181823 -0.036345895 -0.1207791
0003c0 f2 c7 15 3c 06 53 9a bd 7c 7d 91 3c 95 c4 a4 3c
       0.009141909 -0.07535367 0.01776003 0.020113269
0003d0 3e 10 89 bc af a0 9c bd 2a 02 30 bd bc f9 2c bd
       -0.016731378 -0.076478355 -0.042970814 -0.042230353
0003e0 fe 19 10 be be 06 48 bd c4 d7 85 bd 1f 4a a3 bd
       -0.14072415 -0.048834555 -0.06535295 -0.07973122
0003f0 c2 a3 c5 bd 4a ea bb bd 0f 5e 16 be a0 da 49 bd
       -0.09650375 -0.091755465 -0.14684318 -0.049280763

network.4.weight f4 [128, 512]
000000 08 89 4e 3c 04 fa 27 bc ad 17 f7 bd c8 f8 e2 3b
       0.012605913 -0.010252479 -0.12065063 0.0069266297
000010 60 4e b1 3b 6e fe c6 bd dc 5d 8f 3c 49 c1 1a bd
       0.0054109544 -0.09716497 0.01750081 -0.037781987
000020 28 74 1d bc c9 46 8e bd 8b 1f b6 bd 91 88 20 bd
       -0.009610213 -0.06947095 -0.08892735 -0.03919274
000030 f0 ca 02 bb 7c 5d 3e bd 51 31 23 bd e0 e8 0d bb
       -0.0019957386 -0.046475872 -0.039841954 -0.0021653697
000040 7f f5 64 bd df c2 98 bc 8a 44 db bc e1 e5 83 bd
       -0.055898186 -0.01864761 -0.02676608 -0.0644033
000050 0c 77 69 3c cc bd 50 bc 33 93 27 3d ab 72 06 3d
       0.014249574 -0.012740564 0.040911864 0.0328242
000060 d2 a1 9d bc e4 6e 7b bd e3 36 0f 3d 3e 6b b8 bd
       -0.019242201 -0.06138505 0.034964453 -0.0900483
000070 08 fe 4d bc 8c 3d 90 3c 80 84 df ba 48 82 e7 bc
       -0.012572773 0.017607473 -0.0017053038 -0.028260365
000080 7c 0e 74 bd ab 0a 0f 3d 4a 59 23 bd f7 e8 cd bd
       -0.059584126 0.034922283 -0.039880075 -0.100542
000090 df 7f 8c bd 62 96 a1 3c ea 6a 9e bd c6 3e b0 bd
       -0.06860327 0.019725028 -0.07735236 -0.08605723
0000a0 0f 3f a1 bd f1 cb c4 bc 5f fe 9f bd be b1 84 bc
       -0.078733556 -0.024023028 -0.07812189 -0.016198035
0000b0 73 60 8e bc b3 fd 1c 3d bd 15 9d bc 40 e1 09 bb
       -0.017379975 0.038327884 -0.019175405 -0.00210388
0000c0 65 71 55 bd b1 f9 2f 3d 56 59 c5 3c 20 45 17 3b
       -0.052110095 0.042962734 0.02409045 0.0023081973
0000d0 b8 f8 be bd 04 a3 77 bd fd 6a 00 3d f4 da 3a bd
       -0.09324783 -0.0604582 0.031352032 -0.045618966
0000e0 47 eb 67 bd 26 d4 79 bc cc ba 64 3c 4e 09 8e bd
       -0.056620862 -0.015248334 0.0139605515 -0.069353685
0000f0 23 2f aa bc 68 2a 51 3c a9 bf a9 bd b6 4a 1f bd
       -0.02077443 0.012766458 -0.082885094 -0.03888961
000100 22 87 1a bd 53 2f ad bd cd a6 34 3d 02 d7 f3 bc
       -0.03772653 -0.08456292 0.044104386 -0.02976561
000110 bc 4c 38 bd ec fd d2 bd 2d cd b6 bc 5b be 94 bd
       -0.044995055 -0.10302338 -0.022314632 -0.0726287
000120 c2 07 c2 3c 68 93 e2 bb 52 35 4b bc a1 9b 0a 3d
       0.02368534 -0.006914545 -0.012402849 0.033839826
000130 ab ae a1 bd 41 99 0f 3d 16 a4 92 bd 7c 91 a7 bd
       -0.078946434 0.035058264 -0.07160203 -0.08182046
000140 24 04 83 bd 10 10 dd bb ff e4 be bd 39 13 d2 bc
       -0.06397274 -0.0067462996 -0.09321021 -0.025643932
000150 4d a9 1f bd bb e6 98 bd 69 e3 11 bd 9f ce 12 3d
       -0.038979817 -0.07465883 -0.035617266 0.03584158
000160 00 2c 6b b8 61 8d a4 bc 27 f7 5d bd d0 34 31 bd
       -5.6069344e-05 -0.020086946 -0.05419078 -0.043263257
000170 86 be 89 bd 1a 8b fb 3c e9 8c c7 bd ed 6a 9f bd
       -0.067257926 0.030705977 -0.09743673 -0.07784066
000180 6d fe 8b bd 59 18 93 bd ce 8c a9 bc 71 31 9b bd
       -0.06835637 -0.07182378 -0.020697024 -0.075777896
000190 57 01 2e bd 03 e2 93 bd 5e b5 c5 3c c9 97 47 bd
       -0.042481747 -0.07220843 0.024134334 -0.048728738
0001a0 c1 50 23 bd 98 b6 a9 bc e0 f8 22 bb ae d8 8b bc
       -0.039871935 -0.02071695 -0.002486758 -0.017071094
0001b0 1b 9b e0 bc 00 ed 97 3a c0 28 b3 3b 88 42 e5 bb
       -0.02741771 0.0011591017 0.0054675043 -0.0069964565
0001c0 66 76 5e bc b8 1d 89 bc f7 5a 57 bd ec 6e c0 bc
       -0.013578033 -0.016737804 -0.052576985 -0.023490392
0001d0 d0 91 c5 bc c6 a0 85 3c a0 d6 80 bd c0 e3 7e bc
       -0.02411738 0.016312014 -0.062909365 -0.0155572295
0001e0 8e 97 54 bc b1 88 02 bd e8 b1 8b 3c 1b dd a7 bd
       -0.012975587 -0.03186864 0.017052606 -0.081964694
0001f0 97 22 28 bd 9e 30 c0 3c 36 04 e4 3c 50 fa a6 3b
       -0.041048612 0.023460682 0.02783404 0.0050957575
000200 05 34 4b bc fc 02 5b 3c b8 8f 1c bc 5d 2f 26 bd
       -0.012402539 0.013367411 -0.00955575 -0.040572513
000210 44 e8 4e 3c 38 15 87 3c b2 84 05 bd fb 2c 9e bd
       0.012628619 0.01648961 -0.03259725 -0.07723423
000220 c7 40 a5 bd bc 4b 78 bd f0 64 a8 3b b5 71 8e bd
       -0.08068996 -0.0606191 0.005138986 -0.06955282
000230 b0 61 74 bd 85 14 0c 3d ae aa a1 3c bf 1c 14 3d
       -0.059663475 0.034199256 0.019734707 0.036160227
000240 b9 f2 69 bd 3a fc c2 bc 29 e5 0b 3d 8c d7 a2 bd
       -0.057116244 -0.023801912 0.03415409 -0.079512686
000250 55 13 97 bd ca 46 8d bd 9a 8c ec bc 2d ec be bd
       -0.07376734 -0.068982676 -0.028875638 -0.09322391
000260 5b e8 bb bd a2 9d 65 bc d1 ae 31 3d 34 8b ce bd
       -0.09175178 -0.014014633 0.04337961 -0.10085145
000270 7e 4b fd 3c 12 75 be bd f5 3b 4b bd ea 77 9f bd
       0.030919787 -0.09299673 -0.049617726 -0.07786544
000280 56 6f 0a bd 30 05 92 bc 14 26 31 bd 40 8f d4 bd
       -0.033797584 -0.01782474 -0.043249205 -0.10378885
000290 76 c0 66 bd 7e ea 0e bd 87 00 23 3d 9a c9 b9 bd
       -0.05633589 -0.034891598 0.039795425 -0.090716556
0002a0 2c 97 1e 3c cb b6 2d 3d f2 00 c5 3c ae ea 9a bd
       0.009679597 0.042410653 0.024048302 -0.07564293
0002b0 26 8f fd 3c 58 28 ee 3b 97 54 b7 bd 3b 87 e4 bc
       0.030952048 0.007267993 -0.08951681 -0.027896514
0002c0 58 0e a2 3b 94 79 99 bd ef 0e b4 bd b4 52 a9 bd
       0.0049455576 -0.07493892 -0.08791911 -0.082677275
0002d0 bb 3c 52 bd 68 e8 f4 bc 0c 47 69 bd 94 3c 08 bd
       -0.05132745 -0.029895976 -0.05695252 -0.033260897
0002e0 bd 18 11 3d b0 aa 89 bc 00 1f d0 bb 27 95 70 bd
       0.035423983 -0.016805023 -0.0063513517 -0.058735993
0002f0 b3 39 b2 bd 74 ff 89 bd 9c 2e 50 3c 70 98 0d bc
       -0.087024115 -0.06738177 0.012706425 -0.008642301
000300 f1 df f4 bc 1b 5e 8f bd 40 10 19 bd 3f b7 02 bd
       -0.02989194 -0.07000371 -0.037369013 -0.03191304
000310 1c 02 0a bd 20 8f d8 ba 20 dd 68 bd c4 58 3d 3c
       -0.033693418 -0.0016522147 -0.056851506 0.011556808
000320 3a 7f ca 3c 89 8a 85 bd 51 e4 b3 bd fd fe d1 bd
       0.02471887 -0.06520564 -0.08783782 -0.10253713
000330 db a5 18 3d 60 82 2c bd 99 10 a4 bc 3d 47 8e bd
       0.037267547 -0.042116523 -0.020027446 -0.069471814
000340 2a 93 ad bc f1 03 11 3d 68 6c 21 bd 65 72 3b bd
       -0.021188337 0.03540415 -0.039410025 -0.045763392
000350 cc 27 29 bd 4c 3c dc bc 5c 56 9f bd fa bc a7 3c
       -0.04129772 -0.02688422 -0.077801436 0.020475853
000360 af 5b 53 bd a0 55 b3 bb 71 35 cf bd be 60 a5 bd
       -0.05160111 -0.005472854 -0.10117615 -0.08075093
000370 4d 93 b2 bd 18 82 73 3c 06 ef 7e bd 00 e6 e4 b9
       -0.08719502 0.01486256 -0.06223967 -0.00043658912
000380 12 48 f1 3c b0 a5 c0 bd 39 1b 10 bd fb cd ae bc
       0.029453311 -0.094066024 -0.03518221 -0.021338454
000390 ec f9 1f bc b0 72 74 3b 80 04 c3 bd df 9d b0 bd
       -0.009764176 0.0037299804 -0.09522343 -0.086238615
0003a0 ba 9b 88 bd 20 f4 80 bb ac 03 89 bd 94 15 16 bd
       -0.066703275 -0.003935352 -0.066901535 -0.036641672
0003b0 5b e4 90 bc fa 3d c0 3c 1b af 06 bd ab fe 2b 3d
       -0.017687013 0.023467053 -0.032881837 0.041990917
0003c0 9e 7d 7c bd 9c 87 fd bc 6b 37 55 bd 62 fe aa bc
       -0.061643235 -0.030948453 -0.052054804 -0.020873252
0003d0 1c 32 21 bd e0 d2 6c bd df 73 b0 bc a0 b3 84 3b
       -0.03935443 -0.057818294 -0.021539627 0.0040497333
0003e0 64 85 36 bd 0c 48 93 3c 9f e1 cb bd 5e 50 a5 bc
       -0.044560805 0.01797869 -0.09955143 -0.020179924
0003f0 48 45 d6 bb 23 e9 1d bd 28 1b d0 bc 5b 16 1c bd
       -0.0065390207 -0.038552415 -0.025403574 -0.038107257

network.4.bias f4 [128]
000000 9e f3 60 bd 9e 8c a4 bd 59 dc 2a be ea da b6 bd
       -0.05491983 -0.08034633 -0.16685618 -0.08928473
000010 80 db 51 3c ce 38 b4 bd 1f 89 2d 3d d7 bf 4c bd
       0.012808681 -0.08799897 0.042367097 -0.04998764
000020 98 cf 22 bd 4b 74 80 bd de bc fb bc 4f 5e 48 bd
       -0.039748758 -0.06272181 -0.030729707 -0.048918065
000030 45 b0 d9 bd b6 59 03 be e5 12 a0 3d bc ed 94 bd
       -0.10629324 -0.12827191 0.07816104 -0.07271907
000040 64 32 91 bd f0 91 b8 bd f5 6e b4 bd aa c6 23 3d
       -0.070896894 -0.0901221 -0.08810226 0.039984383
000050 e9 89 f2 bd 28 34 07 be 5e b7 4b bc b9 e2 f6 bd
       -0.118427105 -0.1320349 -0.012433855 -0.12054963
000060 31 ac 33 3c f4 b9 f3 bd f2 7a 91 bd 72 81 10 be
       0.010966347 -0.11900702 -0.07103528 -0.1411188
000070 60 43 13 bd a1 53 77 bd e2 ef a4 bd b4 75 9d bb
       -0.035952926 -0.06038249 -0.080535665 -0.004805291
000080 17 c5 64 bd d6 60 aa bd df 4b 7d bd 2d 13 be bd
       -0.055852022 -0.08319251 -0.061839934 -0.09281001
000090 6f 87 0c be 4a 39 8e 3d 95 a8 6a bd d0 42 e9 bd
       -0.13723539 0.06944521 -0.05728968 -0.113896966
0000a0 54 ff 94 bd e9 3c ef bd e6 eb d3 3d 51 3c 11 bd
       -0.072752625 -0.116815396 0.103477284 -0.035457913
0000b0 21 85 b5 bc 70 11 6f bd a5 0a aa bd 25 62 e2 bd
       -0.022158207 -0.05836624 -0.083028115 -0.11053876
0000c0 8d b4 b0 bd 27 f6 4d be 15 6a fe bd 72 97 57 bc
       -0.08628187 -0.20113431 -0.12422577 -0.013158666
0000d0 df fe 5e bc a7 17 6d bd e9 6c c9 bd f6 41 21 be
       -0.013610571 -0.057883885 -0.09835226 -0.15747818
0000e0 16 cb 76 bd d7 05 ee 3c 37 07 9d bd ac ae 6f bd
       -0.06025227 0.029055519 -0.07667392 -0.05851619
0000f0 50 af 05 be 34 1b 23 3d e4 79 5f bd 68 12 bf bd
       -0.13055158 0.039820865 -0.054559603 -0.093296826
000100 d5 67 b7 bd b9 df 5c bd 12 d3 8d bd 81 be 08 3c
       -0.08955351 -0.053924296 -0.06925024 0.008346201
000110 f3 e1 97 bd 4e 08 9d bd e2 f6 11 bd 9d bd 91 bd
       -0.07416143 -0.076675996 -0.035635836 -0.07116244
000120 58 47 98 bc ec 25 13 be 3d b5 70 bd 8a a7 fb 3c
       -0.018588707 -0.14369935 -0.058766592 0.030719537
000130 66 1c a4 bd 8e 81 9d bd bf 11 e1 bd 37 4d b0 bd
       -0.08013229 -0.07690726 -0.10989713 -0.086084776
000140 17 ed a5 bd 32 0e c6 bd 76 44 9f bc 85 7a cd bd
       -0.08101862 -0.09670676 -0.019441824 -0.10033134
000150 a0 fc be bd bc 98 bc bd 98 6e 66 bd 06 30 10 bd
       -0.09325528 -0.09208819 -0.056257814 -0.03520205
000160 11 69 07 be 0a 9e 12 be 92 8d c9 bd 77 82 bb bd
       -0.13223673 -0.143181 -0.098414555 -0.091557436
000170 d7 d8 a0 bd c3 60 57 bd 72 f6 62 bd b4 fe 12 bd
       -0.07853859 -0.052582514 -0.05541081 -0.035887435
000180 30 32 12 bd 11 99 1a bd 84 08 31 bc f0 12 3a bd
       -0.035692394 -0.03774363 -0.010805253 -0.045428216
000190 ce ea cb bd 67 c5 21 bd 45 65 f6 3c 0c 4c 91 bd
       -0.09956895 -0.0394949 0.030077586 -0.07094583
0001a0 fe 67 72 bd 6f 87 c6 bd 46 7f 97 3c 53 99 b3 bd
       -0.059181206 -0.09693801 0.018493306 -0.08769479
0001b0 36 28 c4 bd a5 88 94 bd 42 f1 f7 bd f0 2c c5 bc
       -0.09577982 -0.072526254 -0.12106563 -0.02406928
0001c0 dc 9f 38 bc d3 84 05 be c9 17 a9 bd d8 e6 bf bd
       -0.011268582 -0.1303895 -0.0825649 -0.09370202
0001d0 4f 67 5c bd 3e f4 3d bd f6 51 01 be 43 80 ea 3d
       -0.05380946 -0.046375506 -0.12628922 0.11450245
0001e0 55 98 a0 3d a1 65 a6 bd 6e d0 8f bd 6c 75 e7 bd
       0.07841555 -0.08124853 -0.07022177 -0.11301693
0001f0 4e c4 07 be 56 18 ab bd c5 ac 59 bd d0 96 27 bd
       -0.13258478 -0.08354251 -0.05314328 -0.04091531

network.6.weight f4 [12, 128]
000000 4c 79 d5 bb e1 f1 af 3d 96 1e 1b 3e d1 c9 96 bd
       -0.006514704 0.085910566 0.15148386 -0.07362712
000010 08 c8 44 3d 41 d3 0e 3e de ae 17 bc ee 17 4b 3d
       0.048042327 0.13947774 -0.009258 0.049583368
000020 69 62 2f bc b5 08 e3 3b ae 8a 08 3c a8 7c 94 3d
       -0.010704615 0.006928528 0.008333845 0.07250339
000030 e8 d6 92 bd 4a 87 70 3d 26 b2 c3 3d 0e d8 2b bd
       -0.07169896 0.05872277 0.095554635 -0.041954093
000040 de c6 89 3c 55 ba 72 bc 51 0a 5a 3d e4 b4 7f bd
       0.01681846 -0.014814933 0.053232495 -0.06242837
000050 23 a8 8d 3d 1c 3e 41 3d e1 07 fb 3b 54 07 43 be
       0.06916835 0.047178373 0.0076608513 -0.19045764
000060 28 21 01 3e 4c 6a 74 3d d9 2d c2 bd 82 0f 38 bc
       0.12610304 0.059671685 -0.09481401 -0.011234166
000070 8f 5d 35 3e 7c 55 95 bd 16 73 52 3d 3b 92 ef bd
       0.17711471 -0.072916955 0.051379286 -0.11697813
000080 84 9a 3f bd 0b d9 97 3c 7c 1f aa bc 53 25 82 3c
       -0.046778217 0.018536111 -0.020766966 0.015886938
000090 41 3e 59 3c f9 38 24 3c db 74 a4 3d a6 20 41 3d
       0.013259471 0.010023349 0.08030101 0.047150277
0000a0 6d ad 15 3e 60 31 10 3e dd 2a 00 be 48 ff 41 3d
       0.14616938 0.14081335 -0.12516351 0.047362596
0000b0 f7 ed 1a bd db 03 b3 bd ac fb b0 bd fa e7 e5 bc
       -0.037824597 -0.0874097 -0.086417526 -0.028064717
0000c0 8d a2 c7 b9 18 ee 7f 3d 03 60 05 3e 24 f1 7f bd
       -0.00038077348 0.062482923 0.13024907 -0.06248583
0000d0 ad f0 01 3d 89 fd 8d 3c 94 94 39 3d 75 92 9d 3d
       0.031723667 0.017332809 0.04530771 0.0769395
0000e0 8f 4e 62 bd f0 9a ca bd 04 44 1a bd 75 11 f8 3d
       -0.0552507 -0.09892833 -0.03766252 0.12112705
0000f0 c3 09 9b 3b f2 24 61 bd b1 c3 78 bc e2 79 c4 3d
       0.0047313883 -0.054966874 -0.015183375 0.0959356
000100 44 d1 1e 3c b7 a5 9e bd 1b 22 ae 3d 48 fe 49 3c
       0.0096934475 -0.07746451 0.08502599 0.012328692
000110 3e 30 5d 3d 62 b5 10 bc ee 9f ba 3a 07 58 20 3d
       0.054001085 -0.0088323075 0.0014238337 0.03914645
000120 cc 47 3c bd bd 41 1e ba f1 fc b0 3c 82 54 5c bc
       -0.04596691 -0.00060370174 0.021604987 -0.013447883
000130 ff 2f 25 3d 17 20 87 3d 60 51 1b 3e 12 71 b8 3d
       0.040328976 0.065979175 0.15167761 0.090059415
000140 ae c6 8c bd f0 81 c9 3d d3 b8 03 3e 07 37 86 3d
       -0.06873833 0.09839237 0.12863474 0.065534644
000150 91 91 59 3d 60 e5 61 3d dc 8e d0 3c 6c db e7 3c
       0.05311734 0.05515039 0.025458746 0.02830287
000160 3e bb 49 3e 64 05 30 3d 13 51 b4 bd 8b 9e 08 3c
       0.19700333 0.04297389 -0.08804526 0.008338581
000170 e2 88 41 bd 3e bf 41 3c 02 5d 88 bd 73 e5 0b 3e
       -0.047249682 0.011825381 -0.06658365 0.13661747
000180 50 bf 03 bc 7e bb 32 3d 9e 95 d1 3c bb 90 02 bc
       -0.008041218 0.043635838 0.025584038 -0.007969077
000190 b9 15 b6 3d 4e 57 f9 3d 0b 50 51 bc 1f 4c 1a 3c
       0.08890862 0.12174855 -0.012775431 0.009417563
0001a0 14 ef 47 3c d0 a5 90 bd 17 d4 28 bd c7 ea 80 3c
       0.012202997 -0.07062876 -0.04121789 0.01573695
0001b0 c0 b6 9d 3c 9c bd 19 bd fb f6 17 3d a2 07 9c 3d
       0.019252181 -0.03753434 0.037100773 0.07618643
0001c0 b6 dc 23 3d ca d6 78 3b 86 07 af 3d e8 ad 2f bd
       0.04000541 0.003796982 0.08546357 -0.04289046
0001d0 a1 aa 27 bd 40 eb ef 3d 52 c4 07 3e e0 e9 44 3d
       -0.04093421 0.11714792 0.13258484 0.048074603
0001e0 cc 3f e4 3c 04 3e 25 bd ec 78 16 3e 56 c1 25 bb
       0.027862452 -0.040342346 0.14694566 -0.002529224
0001f0 31 e0 d9 3c bd 95 a0 3d f4 8e 3c bd f3 70 86 3d
       0.02659616 0.0784106 -0.04603477 0.06564512
000200 43 ea 63 bb 55 29 d4 3d a3 1d ef bb 52 75 90 3d
       -0.0034777082 0.10359446 -0.007297234 0.07053627
000210 94 fd c4 3d a1 87 9f 3c f2 1c 05 bd 3d 99 f8 3d
       0.09618679 0.019473853 -0.032498308 0.12138603
000220 1e 5d cd 3b b3 d1 7b 3b b2 65 a9 3d 56 d9 c8 3d
       0.006267204 0.003842455 0.0827135 0.098070785
000230 ce 7c e9 3d 88 07 53 3d 14 eb 85 3d 3d 4c 1c 3e
       0.11400758 0.051520854 0.06538978 0.15263458
000240 f4 9d f3 3d 4f 72 8c 3c 17 4a aa 3d b7 09 29 bd
       0.118953615 0.01714435 0.08314913 -0.04126903
000250 fd 23 19 bd 21 3f e2 bb ac c7 01 bd 1e a7 51 bd
       -0.037387837 -0.006904498 -0.031684563 -0.051184766
000260 f0 c6 a2 3d ed 36 e7 3c 5e fa 0f 3e d3 f7 a1 3d
       0.079481006 0.028224433 0.14060351 0.07908597
000270 a5 11 26 3e 08 20 0d 3d 2a 2b c9 bd e8 2d 66 3d
       0.16217668 0.034454376 -0.09822686 0.056196123
000280 c0 5e 1f 3e bb ee bb 3d 6d 06 d9 3c 62 e8 81 3d
       0.15563488 0.091763936 0.026492322 0.06343152
000290 71 cc b8 3d ee 0f 08 be 92 1d 0e 3e ef 93 03 3d
       0.09023369 -0.13287327 0.13878468 0.032123502
0002a0 0a 76 41 3d 94 64 3b 3d d4 25 aa bd c5 8b 48 3d
       0.04723171 0.045750216 -0.083079964 0.04896142
0002b0 cb 5e b2 3b 36 62 15 3e 0c c6 8a 3d 5b d7 98 3d
       0.005443429 0.14588246 0.06776056 0.07462951
0002c0 36 78 e7 3d c6 83 80 bc 80 ca 82 3d 0e 0b fe 3d
       0.11302225 -0.015687834 0.0638628 0.12404452
0002d0 f9 89 fe 3d 4e 27 f1 3d ad d8 e7 3d 38 72 97 bc
       0.1242866 0.11775075 0.113206245 -0.018487081
0002e0 25 56 90 3d 3f f1 53 bd 7d 55 c0 3d be aa a8 bd
       0.07047681 -0.051743742 0.093913056 -0.082356915
0002f0 f4 2b 50 3d 7c 0e 1c 3e 0a fa 14 bc d8 69 cb 3d
       0.050823167 0.152399 -0.009092817 0.099322975
000300 f2 31 8c bd 54 7d 90 bc 2c 09 e8 3c 33 da 1c 3d
       -0.06845464 -0.017637886 0.028324686 0.03829403
000310 56 d8 67 3d 8e 62 11 3c ee 6c 88 bc 4c b8 b2 3d
       0.0566028 0.008873595 -0.016653504 0.08726558
000320 5b fb c2 3d b0 8e 88 3d f0 4f c0 3d 6d ec 00 bd
       0.095205985 0.066678405 0.09390247 -0.031475473
000330 ed 8f c4 3d 5d 6e 17 3d e4 cd 59 3b 46 7e 9c 3d
       0.09597764 0.036970485 0.0033234293 0.07641272
000340 c3 fb d0 3d f9 5e 0e 3b 96 28 15 3d 0b b1 ba bb
       0.1020427 0.0021724089 0.03641566 -0.0056973747
000350 d1 6e a1 3d d7 87 42 bc 87 69 0e 3d c2 6c a9 3d
       0.07882465 -0.011873207 0.034768607 0.08272697
000360 fd 92 8d 3d d9 06 96 3c ab 73 9a 3d f3 d1 d3 bd
       0.069128014 0.018313812 0.07541593 -0.10342779
000370 0c e8 08 bd bf 8e d3 3d 07 02 90 bd d2 9d e8 3d
       -0.033424422 0.10329961 -0.07031637 0.11358227
000380 44 10 ab 3c 20 17 02 bc 0c 57 36 3d 36 16 01 3e
       0.02088178 -0.007940084 0.044516608 0.12606129
000390 a6 71 64 bd ff 86 fb 3d df e0 45 3d 0a 08 c9 3d
       -0.055772446 0.12281608 0.048310157 0.098159865
0003a0 7b e3 ce 3d be ef 6f 3d d9 44 7b bd 2e ba 01 bd
       0.10101982 0.058578245 -0.061344955 -0.031671695
0003b0 7c e7 76 bc f0 69 03 3c 60 85 17 bc 9f a0 59 bc
       -0.015069839 0.008020863 -0.009248108 -0.013282924
0003c0 6e 55 6e 3d ed 59 0b 3e 06 ee 9e 3c b4 31 a0 bd
       0.05818694 0.13608523 0.019400608 -0.0782198
0003d0 de f6 7d 3c 5a f5 44 3a 30 fe 9a bd f5 97 a9 bd
       0.015500752 0.0007513367 -0.07568014 -0.08280937
0003e0 e3 c1 e3 bd 59 48 ba 3d a1 87 f5 3c 5f 1b 98 3c
       -0.11120965 0.090958305 0.0299719 0.018567739
0003f0 8e 55 03 3d a0 e4 df 3c 8e 24 06 3c 08 4f 74 3c
       0.032064013 0.027330697 0.008187426 0.014911421

network.6.bias f4 [12]
000000 81 05 15 be 6b 33 6e be a4 a9 95 bd 8b 5d cb bd
       -0.14552881 -0.23261802 -0.07307747 -0.09929951
000010 bc 93 3a be bc a6 1b 3f 97 9a a1 bc c8 57 86 bd
       -0.18220419 0.6080129 -0.019727034 -0.06559712
000020 bf eb 81 bd df 9f f8 bd a3 b6 38 bf 2c 95 ae bd
       -0.06343793 -0.12139868 -0.7215368 -0.08524546
