model/DQNAgent2_20-08-2022__23-31-43.pth/DQNAgent2_20-08-2022__23-31-43_iter_80.pth (torch, 826191 bytes, 8 tensors)

network.0.weight f4 [256, 27]
000000 5e 75 ef 3d de 1c f3 bd 28 33 82 bc a9 31 97 bd
       0.11692308 -0.1187074 -0.015893534 -0.07382519
000010 69 d9 1e 3e 4d 61 3c 3e 5e 5d f2 3d 27 dc 3f 3e
       0.15512623 0.18396492 0.11834215 0.18736325
000020 dd 37 c7 bd 54 b6 25 be d0 80 c9 bc 94 60 20 bd
       -0.09727452 -0.16182834 -0.024597555 -0.039154604
000030 8a d2 87 bd e0 e9 8f bd 7c 4d 25 bd 66 ef 43 be
       -0.06631954 -0.0702703 -0.040357098 -0.19134292
000040 0b 6d 34 be 16 a3 d5 3d 44 6d 41 be 66 b6 be 3d
       -0.17619722 0.10431497 -0.18889338 0.093121335
000050 b4 35 47 bd 19 5f 20 3e aa ec a6 bd 67 7f ea bd
       -0.0486352 0.15661277 -0.08150609 -0.11450081
000060 34 39 ed bd c0 fc d7 3c 31 fc e8 bd 14 9c 5a bd
       -0.11583176 0.026365638 -0.11376227 -0.053371504
000070 04 26 1a be 61 9c 16 3e fc 15 6d 3d 5f 36 03 be
       -0.15053564 0.14708091 0.057882294 -0.1281371
000080 91 5c d4 bd cc d5 5f 3d 68 34 10 3d 91 f6 b1 bd
       -0.10369218 0.054647252 0.03520623 -0.08689607
000090 dd 90 12 be 9a 2b bf bd e3 5b 37 be 30 72 4b 3c
       -0.14313073 -0.09334488 -0.17906146 0.012417361
0000a0 80 d6 ad 3b 1f 47 36 be 5b 05 3b 3e a8 fc f0 3c
       0.0053051114 -0.17800568 0.18263762 0.02941735
0000b0 4c 79 05 be c0 b2 a8 bd 25 68 c9 bd 35 86 2f 3e
       -0.13034552 -0.08237219 -0.09834317 0.1714104
0000c0 ec 98 1a bd e0 a5 8d 3c bb e2 a8 bd 16 cc 1c be
       -0.037743494 0.01729101 -0.082463704 -0.15312228
0000d0 cc 46 2d be 7a 42 9b bd 24 fb 16 be 90 83 24 3b
       -0.16921538 -0.07581039 -0.1474424 0.0025102831
0000e0 c2 ed 25 be 9e 07 b4 3e 5a 81 fb bb b0 31 b5 bd
       -0.16203979 0.3516206 -0.007675332 -0.08847368
0000f0 5a d2 59 3e 3f 0f da 3d 7a 2e 2a be 5b fa f1 3c
       0.21271649 0.10647439 -0.16619292 0.029538324
000100 16 65 34 be 8b c0 3d be ba 73 1f 3d 83 29 36 be
       -0.17616686 -0.1853048 0.038928725 -0.17789273
000110 8c e0 d1 3d a6 d5 da bd 70 fb 89 bc d0 f9 df 3d
       0.10247907 -0.106852815 -0.016843528 0.1093632
000120 63 ee 62 bd 90 a2 54 bd 8e 5d 8e 3d 60 f6 2a be
       -0.055403125 -0.051912844 0.06951438 -0.16695547
000130 64 14 3f bd 8b a2 2a 3e 40 01 0a be 68 9a 2b bd
       -0.046650305 0.16663568 -0.1347704 -0.0418953
000140 b2 7f cd 3d c2 f5 8f bd cc 4c a8 bd b5 07 06 3e
       0.100341216 -0.070292965 -0.08217773 0.13088877
000150 4e 80 cf 3d cb 53 14 be 2f d9 45 be e8 7d 3e be
       0.10131894 -0.1448509 -0.1932113 -0.18602717
000160 bc aa 67 be 98 88 5e be 38 c7 a9 bc c0 5c b0 3d
       -0.22623724 -0.21731794 -0.020724878 0.08611441
000170 b9 7e 00 be b7 9f 2c be 99 76 5f be 10 e0 ef 3d
       -0.12548341 -0.16857801 -0.21822585 0.117126584
000180 73 9d d1 3c 36 c2 67 be 1d cf 0b 3e fc 2a 56 3d
       0.025587773 -0.2263268 0.13653226 0.052287087
000190 1a 7c e3 3d f0 c4 2a be f6 a1 c0 3d 56 3c 8f 3d
       0.11107655 -0.16676688 0.094058916 0.0699393
0001a0 4f 34 04 3e 24 ed 53 3d 7d 91 28 be 52 b0 fd 3d
       0.12910579 0.051739827 -0.1646175 0.12387146
0001b0 6f 64 48 bd 7e c5 68 bd 1a 3d 9e bd ba 86 75 bd
       -0.048923906 -0.05682897 -0.07726498 -0.05994294
0001c0 60 55 04 3d c9 58 94 be b1 20 ab bd 93 56 17 bc
       0.032307982 -0.28973988 -0.08355845 -0.0092369495
0001d0 e5 6d ee bd ab f5 83 bd 7e 9d 55 bd cd 35 0f be
       -0.116420545 -0.06443342 -0.05215215 -0.13985367
0001e0 b8 f5 14 3e 6a b5 4f 3e 76 b0 4f be 88 93 7d be
       0.1454686 0.20284048 -0.20282158 -0.2476331
0001f0 11 5d 16 be aa 6d 41 be 0f f2 8b bc 5e 54 a0 3d
       -0.1468394 -0.1888949 -0.017083196 0.07828592
000200 be f1 a4 3d d3 13 26 3e 2c 69 55 3d d0 05 49 3c
       0.08053921 0.162185 0.052102253 0.012269452
000210 57 99 63 3e e8 d5 89 3c 3b 76 a5 bd 51 fd cd 3d
       0.22226463 0.016825631 -0.08079191 0.10058082
000220 49 84 eb 3d 42 73 f4 3b d2 82 85 3d ff 74 63 3d
       0.11499841 0.007460029 0.065190926 0.055531498
000230 52 8f 80 3c 6a 0d c5 bd 9c 77 dd bc 1b f8 6f 3d
       0.01569334 -0.09621699 -0.027034573 0.05858622
000240 43 e1 29 bd 1e 0f 07 3e 37 e0 bc bd e9 ea 23 3e
       -0.041474592 0.1318936 -0.09222453 0.1600758
000250 e8 fb b5 bd 71 08 e4 3d c4 be 96 bd f5 12 b2 bd
       -0.08885938 0.111344226 -0.073606044 -0.08695022
000260 1f 21 3e be 92 a5 6c be 9b d3 99 bd 10 f3 5b bc
       -0.18567322 -0.23110035 -0.07511064 -0.01342465
000270 30 46 02 be c8 cf 46 3d 6c 21 08 3d 80 1f 0f be
       -0.12722087 0.048538 0.033235 -0.1397686
000280 d5 18 23 3e b0 52 8d bc 6e bb 99 3d 11 5f ee 3c
       0.15927441 -0.017251343 0.075064525 0.029098066
000290 b7 ff 73 be be e1 52 3d 2c 50 a8 bd 7f 70 f9 3d
       -0.23828016 0.051484816 -0.082184166 0.1217966
0002a0 f6 3e 39 be c1 aa 46 be 09 89 84 bd 2f 4a 0c 3d
       -0.18090424 -0.19401075 -0.0647145 0.034250434
0002b0 59 e2 3c 3d 89 55 04 be 47 2a 7b 3d b2 7e 8d bd
       0.0461143 -0.12923254 0.061319616 -0.06908931
0002c0 2b 36 62 be 42 bd 15 be 62 d8 67 bc a1 33 a1 3d
       -0.22090976 -0.14622977 -0.014150711 0.078711756
0002d0 2b f0 89 bd f2 9b 38 be 16 85 a5 3d b6 f6 f2 3d
       -0.067352615 -0.18028238 0.08082025 0.118634626
0002e0 42 d5 c6 bd db b7 08 3e 45 48 e2 bd b2 c5 10 be
       -0.097086444 0.13351385 -0.110489406 -0.14137915
0002f0 d0 57 43 3d e2 ac 91 be 4c 22 00 3e 4e 5f 67 be
       0.047691166 -0.28452212 0.12513083 -0.2259495
000300 53 44 99 3c a5 3c c1 bd 2c 91 c2 bd f1 8b d7 bd
       0.018709337 -0.09435395 -0.095003456 -0.105247386
000310 a6 a5 1c bd 5b c8 15 3d 8f 34 8a be 41 48 11 be
       -0.038243912 0.036568027 -0.26993224 -0.14187719
000320 08 b0 ef 3d 4d b2 88 be 4d 53 7d be fb 14 c5 bd
       0.11703497 -0.26698533 -0.24738808 -0.09623142
000330 f0 c7 03 be d4 52 bb bb 6d 5f fc bd a6 8c 8b bc
       -0.12869239 -0.005716661 -0.123228885 -0.01703484
000340 9b 37 da bd ae 3f d5 bc e4 d1 80 3d 46 89 fa 3d
       -0.10655137 -0.026031341 0.062900335 0.12233214
000350 15 1a 33 3e 08 cd 94 3c 52 a4 f8 3d c0 d5 22 3b
       0.17490418 0.018164173 0.121407166 0.0024846643
000360 c5 81 d5 bc 3c 04 58 bc b5 06 36 be 6f 5a 02 be
       -0.026062855 -0.013184603 -0.17775996 -0.1272981
000370 2f 74 91 bc bd 97 ba 3d 59 94 63 be fe 57 38 be
       -0.017755596 0.09110973 -0.22224559 -0.18002316
000380 65 09 9e 3d a8 7b 5f be ab 2f 4f bd 72 2f 6f be
       0.077166356 -0.21824515 -0.05058257 -0.23357943
000390 aa 95 b5 bd 41 b6 29 be a2 19 85 be de b8 51 3d
       -0.08866437 -0.1657343 -0.2599612 0.051201694
0003a0 ae 18 ac 3b 55 5b 9f 3d 6d 9d 15 3d d8 23 c6 3c
       0.0052519655 0.07781092 0.036527086 0.024187014
0003b0 f6 12 14 3e 2f fb 20 be 2c f8 28 be a0 29 86 bb
       0.14460358 -0.15720819 -0.1650092 -0.0040943176
0003c0 75 63 3c be 90 6a 47 3c 2a fb 81 bd ca f3 61 be
       -0.18397315 0.012171403 -0.06346734 -0.22065654
0003d0 3d d9 cd 3d 11 f5 8f 3d aa a0 1c be 1f 09 0b 3e
       0.100512005 0.070291646 -0.15295663 0.13577698
0003e0 13 20 05 3d 66 2c 3e 3e c9 8a 62 bd 3f 2a 2c be
       0.03250129 0.18571624 -0.055308137 -0.1681299
0003f0 fa 23 b1 bd e7 00 6b be 99 6f 3c be 5d 53 ea 3d
       -0.0864944 -0.22949563 -0.18401946 0.114416815

network.0.bias f4 [256]
000000 c0 9c 1b be 79 08 1d 3e a6 54 4d bd 91 fb 80 3d
       -0.15196514 0.15335263 -0.050129555 0.062979825
000010 d3 26 72 be d1 5b e5 bc 3a ef 80 bc 0b fd e7 bd
       -0.23647623 -0.027997883 -0.015739072 -0.11327561
000020 b8 9a 39 be 79 3e 94 bc 71 b7 d4 bd 26 68 dd bd
       -0.18125427 -0.018096196 -0.10386551 -0.1081088
000030 8d 05 79 be 93 60 3a 3c a1 c4 a5 3d 2b f2 28 be
       -0.24318524 0.011375564 0.080941446 -0.1649863
000040 1b 9b 8a be fc 00 c0 bd a7 ad 20 be b9 69 10 3e
       -0.2707146 -0.09375188 -0.15691243 0.1410283
000050 00 e9 58 bc 7f 79 9b be cf c8 4c 3e f4 a1 8b bd
       -0.013239145 -0.30366132 0.19998477 -0.068179995
000060 77 19 a6 3d c8 51 cd 3c 6d c3 0c 3d 40 26 aa 3d
       0.08110326 0.02506341 0.03436606 0.08308077
000070 a0 33 d8 3d af ac 8b bd a4 53 e0 bd 69 46 01 3e
       0.10556722 -0.06820046 -0.10953453 0.12624516
000080 c4 f5 d6 3d 7a de 96 bc cc 63 e0 ba 6c 64 d3 bd
       0.10496095 -0.018416632 -0.0017119586 -0.10321888
000090 86 87 bc bc 3e bb d3 3a d4 4e f4 3d ad f8 3d 3e
       -0.023013841 0.0016153825 0.11929098 0.18551894
0000a0 c3 cc 50 3d 67 54 17 3d da 74 16 be b2 28 3b be
       0.050976526 0.036945727 -0.14693013 -0.18277243
0000b0 00 2b b5 bd 3f 8f 02 3e a5 25 a4 bd 78 65 68 be
       -0.08846092 0.12749957 -0.080149926 -0.22694957
0000c0 a4 cb e5 3b 5e b5 ee 3d 7a 7c 93 3a 1b e7 0b be
       0.0070128012 0.11655687 0.0011252307 -0.13662378
0000d0 e7 37 a3 bd f5 d6 ce bd 07 96 3f be a5 34 84 bd
       -0.07969647 -0.100995935 -0.18709575 -0.06455354
0000e0 cd c3 88 3e 19 3e f4 3b 4f e4 9b bd e6 64 16 3c
       0.26711884 0.0074536917 -0.07611906 0.0091793295
0000f0 26 f1 ad bd d3 3d 6e be 7e 21 61 be a0 2d 37 bc
       -0.08493261 -0.23265772 -0.21985433 -0.011180311
000100 5c 07 08 bd 54 d3 97 bd ac f9 36 be 7a 68 92 3d
       -0.033210143 -0.074133545 -0.1786868 0.071488336
000110 ab 3b 4c 3e ae 2a 3c bd 4e 13 97 bd aa b0 eb bd
       0.19944637 -0.04593914 -0.07376729 -0.11508305
000120 b4 db 9f 3a 0e fb 99 3d 09 fb ad bd 7a ce 09 be
       0.0012196214 0.07518588 -0.08495147 -0.13457671
000130 85 d2 01 3e ff c8 3c 3e 64 c3 08 3e f9 05 01 3b
       0.12677963 0.18436049 0.13355786 0.0019687398
000140 f3 d9 9d bd af bb 29 be e0 97 3c 3c f3 93 36 be
       -0.07707586 -0.16575502 0.011510819 -0.17829876
000150 f1 07 7c be bf 29 23 be fc 88 69 be 19 2c f7 3d
       -0.24612404 -0.15933894 -0.22806162 0.12068958
000160 2b e3 8c 3d 34 a1 f4 3d 8a d1 8e be 04 be 48 be
       0.06879266 0.119448096 -0.2789424 -0.19603735
000170 3b 6b 6c be 8f 5f 72 be c8 61 c4 bc 4f 2b 3a be
       -0.2308778 -0.23669265 -0.023972407 -0.18180583
000180 98 bf 7b be 62 c1 75 3b ce 3a 2c 3e 13 b5 16 be
       -0.24584806 0.0037499298 0.16819307 -0.14717512
000190 98 67 02 bd 06 b0 9c 3d d4 c2 38 be 01 41 4b bd
       -0.031837076 0.07650761 -0.18043071 -0.04962254
0001a0 d6 24 c2 3d fb f0 99 bb 66 40 9d bd b4 92 5c be
       0.09479682 -0.0046979166 -0.07678299 -0.21540338
0001b0 08 99 33 3d ca 04 c7 bd 1a 1b 04 bd 6c c4 ac bd
       0.043847114 -0.0971771 -0.03225241 -0.08435902
0001c0 cf 94 a4 be c5 5e 99 3d 1b 9a 00 be f7 43 a6 3d
       -0.32144782 0.07488779 -0.12558787 0.08118432
0001d0 b1 0d af 3d f8 6c df b9 30 cf 2c bc da c8 a5 bd
       0.08547533 -0.00042615063 -0.010547444 -0.0809495
0001e0 62 ae c0 3d 82 20 be bc ed 0b d2 3d 13 63 d3 bd
       0.09408261 -0.02320886 0.10256181 -0.10321631
0001f0 00 48 80 bc 8a 82 c8 bd 2f 27 b0 3d 12 e4 6a 3c
       -0.015659332 -0.09790523 0.08601224 0.014336603
000200 ed 3b 9a bc d1 9c 68 bd 7e 90 56 3d c0 cf 0e 3d
       -0.018827403 -0.056790177 0.052383892 0.034866095
000210 3b 7b 08 be c2 93 98 3c 8f fe 3e bd 44 ca a9 3d
       -0.13328259 0.018625144 -0.046629485 0.08290532
000220 4e 1b c2 bc c3 4b 28 3e e9 3d 59 be 38 c6 34 3e
       -0.02369466 0.16435151 -0.21215023 0.1765374
000230 b5 37 1b 3e c8 75 32 bd 24 7f 7d 3d af 48 03 3d
       0.1515797 -0.043569356 0.06188883 0.03205174
000240 bc 70 e4 bd c5 2b 63 be 60 e7 bf 3d 60 a4 cb bc
       -0.11154315 -0.22184666 0.09370303 -0.024858654
000250 c5 a2 4a be 69 13 c7 bc 76 0a 40 3d 68 6f 73 bd
       -0.19788654 -0.024301248 0.046884976 -0.059432417
000260 89 23 3b be 51 c5 13 be 13 7c c9 3c f6 ca be 3d
       -0.18275274 -0.14430739 0.024595296 0.093160555
000270 28 6b 13 bd 77 cd 45 bd c4 63 17 3c ed ee bb bd
       -0.035990864 -0.04829165 0.009240095 -0.09176431
000280 73 4a 88 bc 4c 0d 2e be 73 1d a6 bd 11 ef 08 3e
       -0.016637063 -0.1699726 -0.08111086 0.13372447
000290 d7 4a d0 bd d4 00 5b be c5 d4 c7 3d c2 2c 9d 3d
       -0.101705246 -0.21387035 0.097573794 0.076745525
0002a0 a8 26 73 be 90 b3 31 bc f4 e5 30 3d de e2 13 3d
       -0.23745215 -0.010846034 0.04318805 0.03610503
0002b0 38 2c 60 be 06 85 49 3b ad 20 0d 3d 4d 5b cb bd
       -0.21891868 0.0030749454 0.03445499 -0.099295236
0002c0 c7 73 ed bd 00 68 48 bb b4 9a d0 be c7 fd 06 3e
       -0.115943484 -0.0030579567 -0.4074303 0.13182746
0002d0 7a f4 0d 3e 50 cf 2f be 9d 48 94 bd 05 0e 4f be
       0.13862792 -0.17168927 -0.072404124 -0.20220192
0002e0 6b 15 6e be 62 64 fb bd a5 69 9e be 19 e5 2a be
       -0.23250358 -0.12275006 -0.30939975 -0.16688956
0002f0 86 5a 03 bc 62 a0 7c be 97 67 a7 bd d4 d9 24 be
       -0.008017188 -0.24670556 -0.08174055 -0.1609872
000300 e0 ce 50 be a1 7d 15 be 7b 68 09 3e 5b 25 02 bc
       -0.20391417 -0.14598705 0.13418762 -0.007943477
000310 8a d2 3e be 2a db 00 be 70 19 c7 bd 34 c7 bc bc
       -0.18635002 -0.12583604 -0.09721649 -0.023044206
000320 a0 5b 85 3c 43 ea 32 be 71 50 e8 3c f6 99 72 be
       0.016279042 -0.17472176 0.02835867 -0.23691544
000330 ae a3 cc bd de 6a 37 be 57 9d 07 be cb dd 50 bc
       -0.09992157 -0.1791186 -0.13243614 -0.012748192
000340 ad d6 21 be 7a 10 2a be 59 3f d8 bd 94 2a d2 bd
       -0.15804549 -0.16607848 -0.105589576 -0.102620274
000350 98 30 44 be ca 2d 97 be df 63 7b 3d b0 15 20 be
       -0.19159162 -0.29527122 0.06137454 -0.15633273
000360 e6 8b 04 3d cb d7 2a bd 4c bd 4c be 27 a6 b6 3c
       0.03235998 -0.041709702 -0.19994086 0.022296024
000370 56 a9 69 be aa eb ea bc 6e af f0 bd d3 c9 f5 3d
       -0.22818503 -0.028676827 -0.117522106 0.120013855
000380 b4 00 c3 3d ad c3 6f be 77 f8 44 3e 25 e0 a1 be
       0.095216185 -0.23414488 0.19235407 -0.3161632
000390 3e cd 6a 3d f0 52 12 3c e2 0b 11 bd 78 a8 f0 3c
       0.05732464 0.008930907 -0.035411723 0.029377207
0003a0 c5 33 53 be 4a 65 2d be 2e 94 03 3c cc de 80 bd
       -0.20625217 -0.1693317 0.008030934 -0.06292495
0003b0 50 01 b5 3c d1 96 a9 3d a8 c4 d3 3d da 9e 5a be
       0.022095352 0.08280719 0.103402436 -0.2134966
0003c0 e7 be 6b bc 03 5a a0 bd 71 4a c0 bd 92 25 9e 3e
       -0.014388776 -0.078296684 -0.093891986 0.3088804
0003d0 fd e6 8f bc d5 4d 87 be b7 20 fe 3d 6a 3f 2b be
       -0.017566198 -0.2642657 0.124085836 -0.1672341
0003e0 20 71 86 bd 63 b5 8f 3d 8f 88 a3 3d 58 9f 25 bd
       -0.06564546 0.07017019 0.07985031 -0.040435165
0003f0 85 3d 45 be 9a 16 c6 3d 5c 13 52 bd 62 63 7a be
       -0.19261749 0.0967228 -0.051287994 -0.24451974

network.2.weight f4 [512, 256]
000000 da 0d 29 3d 3a 02 64 bd c2 9d 38 bd 8b 24 c0 bd
       0.041272976 -0.055666186 -0.045072325 -0.0938197
000010 a8 9a 01 bc 3b 6b 31 3d 60 b2 9b 3c de bd 21 3e
       -0.007910408 0.043315154 0.019005954 0.15795085
000020 98 fa c4 bc 4b ff 9f 3d d9 7c a2 bd ce 66 5e bd
       -0.024045274 0.07812365 -0.07933969 -0.05429726
000030 f7 35 cc bd 37 0a d0 bc 0e 66 97 bd 70 8d f3 bb
       -0.099712305 -0.025395496 -0.07392512 -0.007432632
000040 06 0d 60 bd 40 78 9e 3a db c9 32 bc 20 b4 b3 3c
       -0.05469992 0.0012090281 -0.010912384 0.021936476
000050 c8 98 b4 3c 78 a0 df bc 00 96 a5 3b c8 f2 21 bd
       0.022045508 -0.027298197 0.005053282 -0.039538175
000060 04 46 bc bc 34 15 67 3d 65 fb b0 bd 3e a6 69 3d
       -0.022982605 0.056416705 -0.086417 0.057043307
000070 33 ef d8 3a 3c 1a 81 3c f9 f7 14 3b 16 58 7c bd
       0.0016550779 0.01575958 0.002273081 -0.061607443
000080 ad 07 6a bd 58 5c 2e 3d e0 6e 78 3d 51 ae 81 bd
       -0.057136226 0.042568535 0.060652614 -0.06332076
000090 a1 19 60 bd ae 89 7d bd 95 37 14 3c 60 14 95 3b
       -0.05471194 -0.06189888 0.009046455 0.004549548
0000a0 78 9c 4d bd ce 43 ab bd 0b 49 5d 3c 6c 54 d7 3c
       -0.05019805 -0.08362542 0.013506184 0.026285373
0000b0 42 b8 a1 3d f0 7e 6e 3c 2e 90 56 3d 75 d1 db bd
       0.078964725 0.014556631 0.052383594 -0.1073331
0000c0 ac 04 98 3c 13 8f 93 bc 30 97 91 bc 84 46 9c bb
       0.018556915 -0.018012559 -0.017772287 -0.0047691483
0000d0 8e e9 4a 3d 7a a7 4b bd 72 6d 07 bd 63 1a b7 bc
       0.04953914 -0.049720265 -0.03306336 -0.02235145
0000e0 ec 06 79 bd f0 48 7e bd 80 7a 07 3d 24 40 b1 bb
       -0.060797617 -0.062081277 0.03307581 -0.0054092575
0000f0 ca 34 32 bd fe c3 10 bd 30 e7 a8 3b 86 76 17 bd
       -0.043507375 -0.035343163 0.005154513 -0.036978267
000100 48 fc f3 bc 52 f4 21 bc b1 56 dc 3d 6c ad d4 bc
       -0.029783383 -0.009884911 0.107587226 -0.0259616
000110 99 5d 47 3e 7d 04 72 bd e0 f6 4e 3d 7c 69 a3 3c
       0.19469298 -0.05908631 0.050528407 0.01994776
000120 55 0d 99 bd e6 81 4e 3d e0 f8 30 bc 0c e6 8b bd
       -0.07473246 0.05041685 -0.010801524 -0.06830987
000130 07 89 ae bd 40 a8 ea bc 6e 59 5b 3d 8c 62 6b 3d
       -0.0852223 -0.028644681 0.053552084 0.05746703
000140 81 19 a6 bd b8 06 0f bb 9a 1a 5c 3d de b2 08 3d
       -0.08110333 -0.0021824073 0.053736307 0.033373706
000150 00 be aa 3a 80 33 ff 3a bd fc cf bd 73 2c 8c bc
       0.0013026595 0.0019470304 -0.10155628 -0.017111039
000160 df fa 05 3e 4f 9f ae bd 88 30 64 3c d0 34 44 bd
       0.13083981 -0.085264795 0.013927586 -0.04790193
000170 72 82 a2 bd 26 45 10 3c 80 ef 12 3a 00 f6 09 3b
       -0.07935037 0.008805549 0.0005605146 0.0021051168
000180 1a 32 8a bd c4 74 b3 bd 66 39 bc bd 39 66 5c bd
       -0.06747837 -0.08762506 -0.091906354 -0.053808425
000190 b7 5f 40 3e e6 6f 77 3d 2b 79 a6 bd 74 19 88 bd
       0.18786512 0.06040945 -0.0812858 -0.0664548
0001a0 88 76 3f bc 00 37 84 3c 78 d7 04 3c 88 ba 6a 3d
       -0.011685975 0.016139507 0.008108012 0.057306796
0001b0 28 bd 26 bc fa 07 9c bd 84 75 54 bd 9e b3 34 3d
       -0.010176934 -0.07618709 -0.051869884 0.04411661
0001c0 df 25 61 3c 14 be b5 3d 20 79 cd bb 43 90 2c 3e
       0.013741939 0.08874145 -0.0062705427 0.16851906
0001d0 5c 9c a6 3d 5c f4 f8 bc ac 6a 6f 3d d3 87 7e bd
       0.08135292 -0.030389957 0.05845134 -0.06214125
0001e0 c0 ba 2d 3d d1 d6 cd bd 2d c5 d6 bd 94 95 13 bd
       0.042414427 -0.100507386 -0.10486827 -0.03603132
0001f0 d8 37 78 3c 61 40 6a bd be 0c 8f 3d 54 ba c7 bc
       0.015150033 -0.057190303 0.06984852 -0.02438084
000200 2a 65 bc 3c 4b 07 91 bd fa a0 77 3d 80 3f 24 bd
       0.022997458 -0.07081469 0.060456254 -0.04009962
000210 55 ca c3 bd a4 83 bd 3c 4d 59 33 bd fc 33 41 bd
       -0.09560076 0.02313406 -0.043786336 -0.047168717
000220 40 8d 2a bc 08 be 63 bd 9d cb 38 bd 80 5f 79 ba
       -0.010409653 -0.05560115 -0.045116056 -0.0009512827
000230 3a 17 5f bc 26 0e 4d 3d da 1b 29 bd 15 e6 d8 bd
       -0.0136163775 0.05006232 -0.041286327 -0.1059076
000240 1b ed 64 bd d2 7a ba bd 93 d1 4f bb a0 b8 2e 3b
       -0.055890184 -0.09105457 -0.003171061 0.0026660338
000250 2a c3 4d bc 81 ff 4b 3c 7e 7a 71 3d 12 4b 29 3d
       -0.012558738 0.012451054 0.05895471 0.04133136
000260 cc 55 2a 3d c7 fe 6d 3c ca 06 af 3d e8 ed 43 bc
       0.04158573 0.014526076 0.08546217 -0.011958577
000270 30 31 14 bd 42 6f 80 bd a0 c0 d6 bb 37 0c bf 3d
       -0.03617972 -0.06271221 -0.0065537244 0.09328502
000280 86 f4 d1 bc 38 31 49 bc ce 2d e1 bc f0 da f4 bb
       -0.025629293 -0.012279801 -0.027487662 -0.0074723884
000290 b0 a8 46 bd 52 34 a5 3b c9 74 df bb 0c f4 ac bd
       -0.048500717 0.0050416375 -0.006819342 -0.08444986
0002a0 b1 ab e1 3d a4 79 db 3b 14 8a 10 bd 91 98 a6 bd
       0.11019076 0.0066978503 -0.03528793 -0.081345685
0002b0 7a eb d5 3b 15 ae a2 bd 7a fb 77 3c 80 31 41 3c
       0.006528315 -0.0794336 0.01513564 0.011791587
0002c0 c0 17 a0 bd 70 81 c5 3c c2 a7 75 bd f8 d9 6f bc
       -0.0781703 0.024109572 -0.05997444 -0.01463937
0002d0 4f d4 2a bd 28 a5 a6 bc 77 a4 c5 bd 34 00 df 3d
       -0.04170638 -0.020342425 -0.0965051 0.108887106
0002e0 af 60 f7 bc 5a cb ce bc dc 32 35 bd 24 aa f5 bc
       -0.03019747 -0.02524345 -0.044237956 -0.029988356
0002f0 02 6e b4 bc 98 99 4a 3c 45 c3 d9 bd f7 33 ac bc
       -0.022025112 0.012365721 -0.10632948 -0.021020873
000300 4d 65 aa bd f0 81 60 3c ba 50 74 3d 42 77 2d bd
       -0.08320103 0.0137028545 0.0596473 -0.04235006
000310 7e dc 90 bb 8c 98 82 bc 60 23 2c bb e4 cf c0 bd
       -0.004420816 -0.01594188 -0.0026266202 -0.09414652
000320 e0 04 2e 3b 88 36 a1 3b 82 93 34 3d c9 b5 d7 bd
       0.0026553199 0.0049198307 0.044085987 -0.1053272
000330 be 88 05 bd 6e 11 42 3c 98 1c 38 3c c8 22 0a 3c
       -0.03260111 0.011844976 0.011237286 0.008431144
000340 e4 a6 9f 3d b0 81 a6 bb 2f cf 66 bd a4 9d 87 3c
       0.07795504 -0.005081378 -0.05634993 0.016554661
000350 58 71 37 bc be 72 80 bd a1 60 08 bd 94 48 00 3d
       -0.011196457 -0.06271885 -0.033295278 0.031319216
000360 a4 47 e0 bc d4 52 c6 bb 77 9a f4 bc 7c 66 4f bd
       -0.02737791 -0.0060523544 -0.02985881 -0.050634846
000370 ac 51 e4 3c 7b d3 60 bc f6 3a 2e 3c 27 ce 0b 3e
       0.027870975 -0.013722296 0.010634175 0.1365286
000380 aa 7d 4a 3d 60 0c 20 bd b0 70 74 bd 16 63 84 bd
       0.04943625 -0.0390743 -0.05967778 -0.06464212
000390 60 be 62 3c 74 18 2c bd a1 f1 1c bd 24 20 14 bd
       0.013839334 -0.042015508 -0.038316373 -0.036163464
0003a0 82 d0 8e bd 71 18 93 bd dc d4 bc bb a0 48 9b bc
       -0.069733635 -0.07182396 -0.0057626795 -0.018955529
0003b0 80 cd a6 3a 9a ba 78 bd fc b5 80 3c b2 c9 a5 bd
       0.0012726039 -0.060724832 0.015711777 -0.08095111
0003c0 f4 b4 79 3d d8 9e a5 bc 36 73 4b bc 9f da 9e bd
       0.060963586 -0.020217344 -0.012417605 -0.077565424
0003d0 80 41 65 3b d5 ce 61 bd 8f 9c 25 3e 98 86 f2 3c
       0.0034981668 -0.05512889 0.16173004 0.029605195
0003e0 6a 4c 7e bd 52 b3 38 bd 87 db 64 bd c4 ac c1 bc
       -0.062084593 -0.04509289 -0.05587342 -0.023641951
0003f0 6e 34 f3 37 36 11 05 bc f3 2b 9e bd 80 34 de 3b
       2.8992272e-05 -0.008121779 -0.077232264 0.006781161

network.2.bias f4 [512]
000000 91 b0 ad bd c0 5b b6 3e 6e 78 90 3e 7f 71 96 bd
       -0.08480943 0.35616875 0.2821688 -0.073458664
000010 b7 0a 89 be 9e c6 e4 bc 64 98 65 bd 8b a1 6f 3e
       -0.26765987 -0.02792674 -0.056053534 0.23401468
000020 2c 60 1a be 0f 6e 5d bc b1 07 f6 bd 5f ce 2f bd
       -0.15075749 -0.01351501 -0.12013186 -0.04292142
000030 33 8a ab bd c2 99 76 3e 00 28 d5 3c 0e fc e4 be
       -0.08375969 0.24082091 0.02602005 -0.44723552
000040 a7 92 75 be 5d 57 df be 80 59 c4 3b b3 35 6a be
       -0.23981725 -0.4362134 0.0059921145 -0.22872047
000050 10 c3 a9 be e1 b2 0d be 84 f5 ca 3d b6 6e a5 be
       -0.33156633 -0.13837768 0.0991011 -0.32311028
000060 70 8d 2b be 57 56 be bd 82 a6 a0 bd e3 33 b0 bd
       -0.16753173 -0.09293812 -0.07844259 -0.086036466
000070 0e 79 e3 bd 8d 18 01 bd b8 4b 8d bd 49 9e 12 be
       -0.11107074 -0.031517554 -0.06899208 -0.14318193
000080 e5 4d 68 3c ef ed a4 bd 2b aa 52 3c 39 5b cf bb
       0.014178728 -0.08053195 0.012857954 -0.0063280133
000090 72 e0 58 bd ed f1 b6 bc 04 63 af bc 7a e9 5e be
       -0.052948423 -0.022332156 -0.021409519 -0.21768752
0000a0 69 53 71 be 70 e9 84 bd 75 29 85 bc 77 a4 a6 bd
       -0.23566975 -0.06489837 -0.01625512 -0.08136838
0000b0 41 ae 30 3e 23 f6 13 be b5 bf 39 bd 1b 9b 57 3b
       0.17253973 -0.14449362 -0.04534884 0.0032898847
0000c0 80 60 ed 3d 2e 25 c3 bd 01 97 f6 bb 5e b0 5a be
       0.115906715 -0.09528576 -0.0075253253 -0.21356341
0000d0 d5 50 90 bd bc f2 c2 3e c2 c1 06 bd 9d 1b 86 bc
       -0.070466675 0.38075817 -0.032899626 -0.016370589
0000e0 82 7b 44 be 03 51 79 be da 86 8f 3d ea 30 f7 3d
       -0.1918774 -0.2434731 0.07008143 0.120698765
0000f0 c5 be d6 bd 7b a4 47 be 62 89 45 be cd 5a 1f be
       -0.10485605 -0.19496338 -0.19290689 -0.15561981
000100 63 b9 94 bd ea b9 67 bc df 91 e3 3d 86 92 df be
       -0.07261922 -0.014143446 0.11111807 -0.43666476
000110 90 2f 4e bd 4e 09 01 be 15 cd ce 3d a7 f4 d2 bd
       -0.050338328 -0.12601206 0.1009771 -0.1030057
000120 12 95 35 bd a2 a1 a8 bb 2a e0 4d bb 7d b4 87 be
       -0.044331618 -0.0051462213 -0.003141413 -0.2650489
000130 0f 8c 0b be 92 f4 5d 3d bc d6 15 be 13 1c 78 bd
       -0.13627647 0.05418832 -0.14632696 -0.06057365
000140 ff fd eb 3d f0 9b 05 be db 4b 16 be 2f 1f 9a bb
       0.11523055 -0.13047767 -0.14677374 -0.0047034244
000150 ba e7 07 be f9 f8 e2 bc 58 40 eb bd cd 8e 1f 3c
       -0.1327199 -0.02770661 -0.11486882 0.009738636
000160 e1 50 87 3e 8a fc 96 be c7 f6 8a be 69 2b 56 be
       0.26428893 -0.29489547 -0.271414 -0.20914997
000170 0d be 04 bd 18 9f a5 bd 60 84 5a 3e cb 97 39 bd
       -0.03240781 -0.08086985 0.2133956 -0.045310777
000180 8b 3a 35 be e3 31 6d be f7 4c 53 be 1e 75 8f be
       -0.17698114 -0.23163562 -0.20634829 -0.2801904
000190 5e 38 a4 be eb 9a 18 be 8f fe 56 bc 7a ad 55 be
       -0.32074255 -0.14902847 -0.013122215 -0.20866957
0001a0 4b d9 5e 3e 69 17 46 be c8 96 4b be 35 5c 31 be
       0.21762578 -0.19344868 -0.19881737 -0.1732033
0001b0 10 c8 87 bc 9f fb d6 bd 57 2f 0e be f4 67 56 3e
       -0.01657489 -0.10497212 -0.13885246 0.20938092
0001c0 47 ad 53 3c cd 9f 21 be d8 d6 71 bd bf e2 72 bd
       0.0129197305 -0.15783615 -0.05904278 -0.059298273
0001d0 8d bf 3c be cf 30 eb 3c 8f 4b 2c be 6a e0 42 be
       -0.18432446 0.028709797 -0.16825698 -0.1903092
0001e0 05 01 09 3e 43 d6 b8 3e f5 cf 8a be 6f d3 cc bd
       0.13379295 0.3610097 -0.27111784 -0.10001265
0001f0 f0 b8 b3 bd 05 25 f2 bd a6 8f 4a be ed ca 38 be
       -0.087755084 -0.11823467 -0.1978136 -0.1804616
000200 bf 79 bf bd d6 ff be 3d 9e f1 e7 bd e2 d1 b9 be
       -0.09349393 0.093261406 -0.11325382 -0.3629294
000210 85 1a bf bd eb 3b be 3e 6d a0 23 be 23 a4 8f bd
       -0.0933123 0.3715509 -0.15979166 -0.070137285
000220 63 16 97 be 60 51 b7 bd c1 08 85 bd 81 cf 68 3e
       -0.29509267 -0.08951068 -0.0649581 0.22735406
000230 ef 23 54 3e 07 7c 3b bd 2d 73 dd 39 82 61 c6 3e
       0.20716833 -0.04577258 0.00042238217 0.38746268
000240 3a 38 90 be 32 96 dd bd ff ae 65 bd fe f2 84 3d
       -0.28167897 -0.10819663 -0.056075092 0.064916596
000250 f3 91 3b bd 51 c2 44 be 75 d3 95 be 35 65 37 bd
       -0.045793485 -0.19214751 -0.2926289 -0.044774253
000260 6b ea 66 bd 11 b9 21 be 27 a9 65 be aa 09 c2 bd
       -0.056375902 -0.15793253 -0.22427808 -0.094744995
000270 bb ec b1 bd 86 a4 2a be 95 5c 03 bf 65 29 9b be
       -0.08687731 -0.16664323 -0.51313144 -0.3030502
000280 1c b4 b4 bd 9e a7 bc bc b6 ef 97 bd 5a a5 30 3d
       -0.08823416 -0.023029145 -0.07418768 0.04312644
000290 9c 8b 7a bd 75 84 6f bc 9f c9 87 3d 08 7d fc 3b
       -0.061168298 -0.014618983 0.06630253 0.0077053346
0002a0 47 ca e2 bd c3 45 0c bf c7 24 7d bd 09 4e c0 bc
       -0.110737376 -0.5479395 -0.06180265 -0.02347471
0002b0 4a b9 96 3c f1 c1 af bd 6f 37 de bd 1f e0 e6 bd
       0.0183989 -0.08581913 -0.10850417 -0.112732165
0002c0 b6 4c 28 3e c0 5d 6a be 34 9c 10 bd 01 b7 dd bd
       0.16435513 -0.22887325 -0.035305217 -0.10825921
0002d0 46 dd c5 3d 92 16 17 3e 86 b3 50 bc b9 ef f6 bd
       0.09661345 0.14754704 -0.012738114 -0.12057442
0002e0 d3 17 af be 19 f1 d5 be 21 6a df bd d3 e6 4f be
       -0.34197864 -0.41785505 -0.10908914 -0.20302896
0002f0 b4 e1 59 bd ea 45 5e bc b5 a4 b1 bd af 8e f6 3c
       -0.053193763 -0.0135664735 -0.086739935 0.030097334
000300 c1 1d af 3d 77 a1 08 be 0a 1b 96 bc 11 fa d6 be
       0.08550597 -0.13342844 -0.01832344 -0.4198766
000310 e1 5f 35 3e ae ea ba bd 18 3a ac bd e4 aa 38 be
       0.17712356 -0.09126793 -0.08409518 -0.1803394
000320 51 61 cb bd 83 ee 0b bd 31 6c f1 bd 80 5f 52 be
       -0.09930671 -0.03416301 -0.11788214 -0.20544243
000330 7b 85 e1 bd 6b 3f 90 bd dc 58 0a bd 06 f4 36 bd
       -0.110117875 -0.07043346 -0.03377615 -0.044666313
000340 6b b5 7f 3e e1 e8 f3 be 02 52 05 3e f2 f4 d3 bd
       0.24971549 -0.4763861 0.13019565 -0.10349454
000350 df ee 6e be 5e e0 e7 bd 0e 22 52 be 5b a1 b4 be
       -0.2333331 -0.113220915 -0.20520803 -0.35279354
000360 83 47 ab bd f3 cf 68 bd 51 01 4f be d4 97 6d bd
       -0.08363249 -0.05683894 -0.20215346 -0.058006123
000370 40 09 b2 bd ad 18 16 be 89 c7 2d 3e f8 f0 a7 be
       -0.086931705 -0.1465785 0.16970648 -0.32801032
000380 a1 69 8b 3e 5a 38 06 be d9 e1 84 be d0 c6 c4 be
       0.27229026 -0.13107434 -0.25953558 -0.38432932
000390 f8 18 fc bd c6 d5 d0 bc 8f d4 2f be b7 ec 8e 3d
       -0.1230945 -0.02549256 -0.17170928 0.069787435
0003a0 bd 74 d6 3c 1b 26 a8 bd f4 cb 54 be dd e2 82 3e
       0.026178712 -0.08210393 -0.20780927 0.25563708
0003b0 45 b2 fe bc 28 7c 79 be f3 c1 92 bb 4d fb 05 be
       -0.031090865 -0.24363768 -0.004478687 -0.13084145
0003c0 dd 8d 4c be 59 3e 6e 3e 42 ea cd be ea 6f f9 3c
       -0.19975992 0.23265971 -0.40217787 0.030448873
0003d0 ba f7 39 be d6 a7 5e be 81 91 b1 3d 8c 1e c0 bd
       -0.18160906 -0.21743712 0.08670331 -0.09380826
0003e0 3f e7 39 be 86 6d 6d bd 2d 4b 0c 3e ed 63 d5 bd
       -0.1815462 -0.057965778 0.13700552 -0.1041945
0003f0 87 87 84 be 16 71 e6 bd 8c 26 29 be cc 1a 6a be
       -0.2588465 -0.11252038 -0.1651861 -0.22861785

network.4.weight f4 [128, 512]
000000 a7 6a b4 bd 6a 4e 97 bc 64 97 7b bd 26 a0 a1 bd
       -0.08809405 -0.018470008 -0.061423674 -0.07891874
000010 4d 62 0e 3d e8 9a bd bd 12 a4 87 bd a2 56 04 be
       0.034761716 -0.09258062 -0.06623091 -0.12923673
000020 a2 5d b4 bc b7 01 3d bd 57 2a 0f 3d ae 20 3c be
       -0.022017304 -0.046144214 0.034952488 -0.18371841
000030 23 da fd bd 70 79 33 bc 35 3a 2f be 90 e7 f0 bc
       -0.12395122 -0.010954246 -0.17112048 -0.029407293
000040 a0 67 13 bb 1f a7 17 be 83 f3 80 bd 53 96 23 3d
       -0.0022492185 -0.14809845 -0.06296446 0.039938282
000050 21 32 1c 3d ba 8f 0f bd b3 88 16 be ea 39 b4 3c
       0.038133744 -0.035049178 -0.14700584 0.022000272
000060 b5 9f e5 bc 71 5d 1b be d0 68 86 3c 22 17 e5 bc
       -0.028030256 -0.15172364 0.0164074 -0.027965132
000070 f1 0b 96 bc 70 cc b5 bd 34 51 c3 bd 01 11 89 bc
       -0.018316241 -0.08876884 -0.09536973 -0.01673174
000080 50 ee c0 3b 8b 39 5e bc 7f 9a da bc 2f 92 58 bc
       0.005887784 -0.013563524 -0.026684998 -0.013218447
000090 21 fc 0f bd 6a 66 1e be 10 88 9a bc c0 40 93 3a
       -0.03515256 -0.15468755 -0.018863708 0.0011234507
0000a0 82 de cb 3c 05 89 48 be b5 d2 0f be d2 be 59 bd
       0.024886373 -0.19583519 -0.14045222 -0.053160496
0000b0 60 d3 ef 3b 20 5c 03 3c 3b b8 92 bd 8a 5b ac bd
       0.007318899 0.00801757 -0.071640454 -0.08415897
0000c0 9f 9a 41 be 6f bd dc bc dd 27 04 3d 0c 9d 5f bc
       -0.1890664 -0.026945798 0.03226458 -0.013648283
0000d0 81 f5 00 bd e7 fd f8 bd b1 24 39 bd a8 61 c0 bd
       -0.03148413 -0.12157803 -0.045201007 -0.093936265
0000e0 2b ca 13 bd 9d 1d 0c 3d f0 91 11 bc 4e e4 d7 bc
       -0.036081474 0.03420793 -0.008884892 -0.026353981
0000f0 fd d8 3d bc 45 14 06 3d 81 95 de bc 80 85 5f 3a
       -0.011587379 0.032734174 -0.027170898 0.0008526668
000100 43 c6 25 3d 87 f4 f6 bc 3b cf 46 be 80 a3 4d ba
       0.04047228 -0.030145897 -0.1941499 -0.0007844493
000110 f9 f0 91 bd cc 6e 1c bc 94 78 cb bc d9 72 04 3d
       -0.0712604 -0.0095479 -0.02483777 0.03233609
000120 01 fc 62 bd bc 48 84 bd 57 5b c1 bc 80 85 01 bc
       -0.05541611 -0.064591855 -0.023603125 -0.007905364
000130 3f 5a ac bc f4 78 55 3c 86 27 2e bd 1d ee 28 bd
       -0.021039126 0.013029326 -0.04251816 -0.041242708
000140 b6 80 f4 bd 11 39 08 3d 5a ab 97 3c 9b a9 37 bd
       -0.11938612 0.033257548 0.018514324 -0.044839483
000150 41 5f 34 3d 1c f7 fb bc 72 75 3e bd 60 35 c7 3b
       0.044036154 -0.03075748 -0.046498723 0.006079361
000160 97 0e b3 bd ed 75 21 3d a6 63 85 bd 20 aa 41 3c
       -0.08743017 0.039419103 -0.06513147 0.011820346
000170 aa 08 23 bd 47 59 c9 bd 50 dd 08 be 14 97 36 be
       -0.039803185 -0.098314814 -0.13365674 -0.17831069
000180 60 b6 b0 ba cb 2a 88 bc fe ab 64 bd 27 0a 1a 3d
       -0.0013482086 -0.016621968 -0.055828087 0.03760734
000190 13 53 e5 bc 64 5b 10 3c 52 22 de bc 6c 4c 06 3c
       -0.027993714 0.008810852 -0.027115975 0.008196931
0001a0 6e a0 c3 bd 3c 3a 40 be d4 52 d3 bc 24 5d 85 bd
       -0.09552084 -0.18772215 -0.025796331 -0.06511906
0001b0 a5 d4 b4 bd 72 7e 09 bd a8 97 b6 bb 64 74 07 bd
       -0.08829621 -0.033567853 -0.005572278 -0.033069983
0001c0 df e6 4f bd 80 51 d1 b9 60 1b 8b 3c e8 cb a9 bc
       -0.050757285 -0.0003992431 0.016980827 -0.020727113
0001d0 8c 95 65 3c 65 59 ba bd 6a 15 c5 bc 69 a7 4d bd
       0.014012706 -0.09099082 -0.024058063 -0.050208483
0001e0 6a 0a af bd cd e9 a5 bd ef 70 30 3d 30 e9 57 bb
       -0.08546908 -0.081012346 0.043076452 -0.0032945387
0001f0 c9 3c 4b bd 8a 7a f7 3c 84 80 3b bd 39 22 94 bc
       -0.049618516 0.030209798 -0.04577686 -0.018082725
000200 eb 99 46 bd e8 2e 5c bc 86 32 c1 3c 68 12 3a bc
       -0.04848663 -0.013438918 0.023583662 -0.011356927
000210 da 4f c0 bd 8a 4b 22 be 5c d2 35 bc 00 83 8c 39
       -0.093902305 -0.15849128 -0.011097517 0.00026800483
000220 80 bc e2 bb 51 e8 06 3d 00 c9 db ba da 8d 11 be
       -0.0069194436 0.032936398 -0.0016768277 -0.14214268
000230 d6 e1 93 3c 3c fa b1 bd ba bf 80 3c 0f ec 32 be
       0.018052023 -0.086903065 0.015716422 -0.17472862
000240 c6 aa 24 bd fc 35 84 bc dd a1 86 bd b8 8c 4c 3c
       -0.040201925 -0.016139023 -0.06573842 0.012484722
000250 37 de 39 bd 00 e8 63 3c 40 44 4e 3b 50 86 c4 bd
       -0.045377936 0.013910294 0.0031473786 -0.095959306
000260 30 d6 3e bb 42 46 e6 3c 2e 62 5b bc 23 7b 16 bd
       -0.0029119365 0.028109673 -0.013390107 -0.036738526
000270 f8 70 5c bd 9c b5 25 bc 8e e9 00 bd 26 0e f5 bc
       -0.053818673 -0.0101141 -0.031472735 -0.029913973
000280 15 cb 97 bd 82 d6 aa bc a4 1f c6 bd e3 39 f3 bc
       -0.07411782 -0.020854238 -0.09674004 -0.029690688
000290 ae e8 3e be c0 d4 e5 3b 79 5b 48 be ac 97 69 bc
       -0.18643448 0.007013887 -0.19566144 -0.014257353
0002a0 49 c2 a8 bd 67 49 28 3d 60 db f6 3b 91 c7 0a be
       -0.08240182 0.041085627 0.0075334758 -0.13552691
0002b0 80 61 ec 39 b6 b3 a6 bd 1f f7 92 bd 5f bc 86 bd
       0.0004508607 -0.08139746 -0.07176041 -0.06578898
0002c0 b8 17 55 3c 99 5c c0 bc ad 34 a4 bd 73 f6 33 3d
       0.013006143 -0.023481654 -0.080178596 0.043936204
0002d0 35 aa 15 3d 34 76 51 3c 17 22 0f be 0e 58 12 be
       0.036539275 0.0127845295 -0.13977848 -0.14291403
0002e0 73 08 0b 3d 00 aa 8e bc f0 16 16 bb 43 cd 2d 3d
       0.033943605 -0.017415047 -0.0022901855 0.04243208
0002f0 e9 dc c5 bd 92 66 39 be 5c 2e 96 bd be 33 5f bd
       -0.09661276 -0.18105534 -0.07333061 -0.054492705
000300 1f e2 02 be a5 66 8f bc 8d bc d5 bc 6e 26 d3 3c
       -0.12781571 -0.017505 -0.026090885 0.02577516
000310 9d e4 26 be 88 08 99 3b b3 58 0b 3d 8e 77 77 bc
       -0.16298147 0.0046702065 0.034020137 -0.015104188
000320 82 9f e3 bc b0 1b bd bd 5b 3c 82 bd 62 e8 92 3c
       -0.02778602 -0.092337966 -0.06359168 0.017933074
000330 d2 59 72 bd 90 2c a8 bb 31 45 4b be 0e 2c be 3c
       -0.05916769 -0.0051322654 -0.19850613 0.023214366
000340 4e fc 2c be 51 10 43 be a2 1d 09 be ee ee 0b bd
       -0.16893122 -0.19049193 -0.1339021 -0.034163408
000350 32 a2 da bc ee 42 83 bc a9 bc 2c bd 9b ed 11 3d
       -0.026688669 -0.016023125 -0.042172108 0.03562699
000360 0c 21 3c bc 33 71 37 bd bc 8b ff bd 64 ef 4f bc
       -0.011482488 -0.04478569 -0.12477824 -0.0126913525
000370 8e df df bc 30 79 ec 3b aa dc c0 3c 46 95 3e be
       -0.027328279 0.007216595 0.02354272 -0.18611631
000380 5b 39 89 bd 20 a3 8e bb 00 cf 09 39 05 25 0b 3d
       -0.06700393 -0.004352942 0.00013142452 0.03397085
000390 f0 e3 0b 3c 0c f3 52 bd 4c bb f5 bd c0 99 02 3a
       0.008538231 -0.05150132 -0.11998615 0.0004982017
0003a0 20 91 8b bd e0 ae cb ba c0 f9 c8 ba 44 b2 7d bd
       -0.0681479 -0.0015539788 -0.001533322 -0.061937585
0003b0 26 68 4d bc 70 3b 69 3c 5e ce 91 3c b2 36 14 bd
       -0.012537038 0.014235362 0.017798599 -0.036184974
0003c0 b5 7d 14 3d 70 c3 08 be 52 69 6a bc 66 c7 a2 3c
       0.036252696 -0.13355803 -0.014307337 0.019870471
0003d0 cf f6 27 bd ea ce 8c 3c cf 96 28 bd 0c 2f 07 bd
       -0.04100686 0.017188508 -0.041159447 -0.03300385
0003e0 b8 31 99 bb a7 62 27 bd 85 ea 80 bc c0 8c b7 bd
       -0.0046751164 -0.040865567 -0.015736828 -0.08962393
0003f0 99 37 24 bd be f1 1f bd 0d 4c 63 bd 68 73 dc bc
       -0.040092085 -0.039048903 -0.05549245 -0.026910499

network.4.bias f4 [128]
000000 5a b2 a7 bd a6 24 ba bd 5c 44 1f be 64 17 0f be
       -0.08188315 -0.090890214 -0.15553421 -0.13973767
000010 4b 6f b6 bd 7a be c9 bd 52 98 d5 bd 36 4b 03 be
       -0.08907946 -0.09850784 -0.104294434 -0.1282166
000020 47 2b df bd 38 0a fe bd 21 0e 10 be f5 2b 71 bd
       -0.108969264 -0.12404293 -0.1406789 -0.05887981
000030 4c 78 b6 bd ae 9a b8 bd c8 4e 46 3f f3 af 29 be
       -0.089096636 -0.09013878 0.7746396 -0.16571026
000040 01 bf 43 be b1 a5 a5 bd 67 a5 86 bd 76 30 d7 bb
       -0.19115831 -0.08088244 -0.06574517 -0.0065670563
000050 5d 93 2a be f8 4d 8c bd e5 76 34 be 39 68 0d be
       -0.16657777 -0.06850809 -0.1762348 -0.13809289
000060 77 3a fd bd ab f3 35 be 68 f1 ec bd b8 73 b6 bd
       -0.12364667 -0.17768733 -0.11569482 -0.0890879
000070 d9 1c fe bd 0e 78 b4 bc 67 bc b3 bd 67 a7 02 be
       -0.12407846 -0.022029903 -0.08776169 -0.12759171
000080 ff fe 04 bd 1d 2f 90 bd 81 f7 86 bd 70 ef 53 be
       -0.032469746 -0.07040236 -0.065901764 -0.20696807
000090 f8 b8 9a bd 94 7a f3 bc e1 88 f3 bc 69 9b 3d bc
       -0.07554811 -0.029721536 -0.029728355 -0.011572697
0000a0 c2 a6 22 bd 3f ff f8 bd 63 c3 06 be 78 c6 29 be
       -0.039709814 -0.12158059 -0.13160472 -0.16579616
0000b0 23 f8 95 bd 3d af 95 bd a0 82 e0 bd 46 7a 44 be
       -0.07322719 -0.07308815 -0.10962415 -0.19187269
0000c0 d6 0b cc bd b3 be 3e 3d 42 b3 39 be 74 23 37 be
       -0.09963195 0.046568584 -0.18134788 -0.17884618
0000d0 8e 50 90 bd 1a 56 a2 bd df 27 f1 bd a6 b3 de bd
       -0.070466146 -0.07926579 -0.11775183 -0.10874109
0000e0 8d 65 db bd c5 f7 0c be ce 77 1f be 39 2f 72 bd
       -0.10712729 -0.13766392 -0.15573046 -0.059127066
0000f0 9b c7 e7 bd 91 16 47 be 27 f2 d3 bd d6 6b f4 bd
       -0.113173686 -0.19442202 -0.10348921 -0.119346306
000100 0c 4e c5 bd e5 88 b4 bd 58 8b 02 be db 6b 98 bd
       -0.09634027 -0.08815173 -0.12748468 -0.07442447
000110 39 a8 0c be 52 42 6d bd 31 4c ab bd 3e e0 cc bd
       -0.13736047 -0.057924576 -0.08364142 -0.10003708
000120 89 48 8d bd 49 cf 91 be dc 89 36 be 05 85 d5 bd
       -0.068986006 -0.2847846 -0.17826027 -0.10425762
000130 01 6a c6 bd fa d1 a4 bd 15 55 22 be b0 d3 c5 bd
       -0.096881874 -0.08047862 -0.15852769 -0.09659517
000140 c0 66 6e be bf bc 7c bd da 61 71 be b1 7e 38 bd
       -0.23281384 -0.06170344 -0.23572484 -0.045042697
000150 e7 fd 58 be 18 72 5e bd aa 0c 2d be f3 69 db bc
       -0.21190606 -0.054308027 -0.16899362 -0.026783919
000160 f8 04 5d be e9 f8 2e be 08 e2 b2 bd 03 4f 33 bd
       -0.21583927 -0.17087139 -0.08734518 -0.043776523
000170 60 21 a9 3c fd 5e e9 bd 6b c4 11 be 21 cf 88 bd
       0.020645797 -0.11395071 -0.14235084 -0.06680132
000180 9c d5 ba bd d8 32 19 be ae 58 4e be da 3a a4 bd
       -0.09122774 -0.14960802 -0.20151016 -0.080190375
000190 59 c0 24 be 6c a0 0c be c0 a2 62 be ef 62 03 be
       -0.16089 -0.13733071 -0.22132397 -0.12830709
0001a0 7b 60 c5 bd 0d bc 20 be 0e b0 25 bd 28 c1 03 bd
       -0.09637543 -0.15696736 -0.040451102 -0.03216663
0001b0 85 80 82 bb f4 3e 9e bc 0b c0 48 3e fb d4 ea bd
       -0.003982606 -0.019317128 0.19604509 -0.11466404
0001c0 67 21 6a be 30 cd 20 be 71 74 94 3c 6d e7 9e bd
       -0.22864304 -0.15703273 0.01812193 -0.07758985
0001d0 b4 a2 18 be 1e fb c1 bd 63 93 c6 bc 1b 61 10 be
       -0.14905816 -0.09471725 -0.024240201 -0.14099543
0001e0 1b 42 e1 bd 94 b1 10 bd ce c4 c8 bd 23 95 19 be
       -0.10998937 -0.0353256 -0.098031625 -0.14998297
0001f0 e2 ac 7d bd fe 3b 16 be 99 60 58 be e5 1d 96 bd
       -0.061932452 -0.14671323 -0.21130599 -0.07329921

network.6.weight f4 [12, 128]
000000 5c 8d df bc 9e 5c 0f bc 40 4d 27 bb 48 c2 ac 3d
       -0.027289085 -0.008750109 -0.0025528222 0.08435494
000010 3e de dc 3a af 75 9c 3d 97 b5 4f bd 66 e9 1c 3e
       0.0016850901 0.07639634 -0.050710287 0.1532341
000020 29 9c df 3c 5b e6 d7 3c 62 31 8b 3c e7 c8 e9 3d
       0.027296143 0.02635496 0.016991321 0.11415272
000030 10 0b 49 3d ec a8 13 3e d1 4c 8a be 81 2d c7 3d
       0.049082816 0.14419907 -0.2701173 0.09725476
000040 55 fc aa 3d 04 c7 1c 3d 40 cc 90 3d a9 17 98 bd
       0.0834891 0.038275734 0.070702076 -0.07426388
000050 cf e5 95 3d cc 37 e1 3d 7c 57 55 bd cf 10 ce bc
       0.07319223 0.109969705 -0.052085385 -0.0251545
000060 9b c8 1c 3b cc 86 c0 3e 66 9d e5 ba b7 52 0c bd
       0.002392328 0.37602842 -0.0017518222 -0.03425857
000070 f9 21 3a 3d 49 65 10 bd 5f 9a 12 3e c8 6a 39 3d
       0.045442555 -0.035252843 0.143167 0.04526785
000080 03 49 e8 3c 5a 75 1f 3e 4c 45 76 3d 92 13 94 3d
       0.028355127 0.1557211 0.06012468 0.07230295
000090 50 f9 4e bd 58 00 b3 3d 12 a4 2b 3c 2b 62 40 3d
       -0.05053073 0.087403 0.010476129 0.04696862
0000a0 86 d9 0e bd a5 1a 07 bd 80 25 76 3d a6 94 23 bc
       -0.034875415 -0.032984395 0.060094357 -0.009984171
0000b0 e3 84 cc 3d 79 97 d8 3c e4 48 08 be 95 d3 d2 bc
       0.09986284 0.026439415 -0.13309056 -0.025735656
0000c0 9c 8a 9e bc c1 37 b3 3d 0c 44 a3 3d 05 f0 41 3d
       -0.019353203 0.087508686 0.07971963 0.04734804
0000d0 a1 d8 c8 3b 8b 09 dc 3d a6 4d 6f 3d 31 9c 2b bd
       0.00612934 0.10744008 0.05842366 -0.041897003
0000e0 21 57 ee 3d 73 d4 31 3e a1 aa 44 3d 2b 7d 3c 3c
       0.11637712 0.17366199 0.048014287 0.011504452
0000f0 b3 38 a9 bd 97 ed 84 3d b7 10 58 bc 60 82 a2 3d
       -0.08262768 0.06490629 -0.013187579 0.07935023
000100 13 54 0f 3d 62 c0 bc 3d f7 42 88 3c 1d cd d2 3d
       0.03499229 0.092163816 0.016633494 0.102930285
000110 02 49 98 3c f6 e9 3d 3d 44 cf 61 3d 28 72 f7 3c
       0.0185895 0.0463657 0.055129305 0.030205801
000120 f5 36 9b 3d f7 03 8d 3e 91 71 b2 bc 4e b1 68 3d
       0.075788416 0.27542087 -0.021782668 0.056809716
000130 cb 23 73 bd b4 ce ff bd 50 e5 34 bd 31 77 b3 3d
       -0.059360307 -0.12490597 -0.044164002 0.08762968
000140 06 c9 4d 3e dc 86 ce 3b a4 1c 2b bc 36 ff 42 3d
       0.20096216 0.0063026976 -0.01044384 0.04760667
000150 1a 0f 10 3b 00 ec ad 3d c7 c8 7e bd 85 aa 65 bd
       0.0021981657 0.08492279 -0.062203195 -0.056070823
000160 27 24 a8 3d bd c8 08 bd cf e8 6d bd ec 30 11 3d
       0.082100205 -0.033394564 -0.05808335 0.035447046
000170 cf 2c 29 bd 54 4f 01 3e fb ce 82 bb 37 f4 89 bd
       -0.0413025 0.12627918 -0.003991959 -0.067360334
000180 d3 b4 80 bc 46 60 df bd 95 57 1c 3c 89 a4 21 bd
       -0.015711224 -0.109070346 0.009542366 -0.039463554
000190 b0 9f 43 3e a1 23 d0 bd 3a 63 b7 3c f0 db 8f bd
       0.19103885 -0.10163046 0.022386182 -0.070243716
0001a0 98 34 98 3d 90 81 5f 3c 44 3a ab 3a 6e 36 ae 3b
       0.074319065 0.01364173 0.0013063629 0.005316547
0001b0 55 b2 e7 3c 7d 25 b6 3d 41 bd df bc f9 79 a5 3d
       0.028283278 0.08893869 -0.027311923 0.08079905
0001c0 68 43 07 3e b7 46 44 3c ee 1d 97 bd 3b a8 28 3d
       0.13209307 0.01197975 -0.073787555 0.041176062
0001d0 e0 14 ab 3b 83 5b 24 3e 06 3a 8b 3b 4c 51 13 3d
       0.0052209944 0.16050534 0.0042488603 0.035966203
0001e0 7c d4 2a 3e ad 9d 31 bd 7a c3 9f bd 64 28 81 bd
       0.16682619 -0.043363262 -0.07800956 -0.06306532
0001f0 c9 34 8e 3c 21 10 24 3e 6b f1 47 bd 0c 34 c4 3b
       0.017359154 0.16021778 -0.04881422 0.00598765
000200 f4 7a e0 3c 42 cd ac bc 65 7b 90 3d e5 6d 0b be
       0.027402379 -0.021093968 0.07054786 -0.1361614
000210 6f e6 d7 3c 2e e1 ad 3a ee ba 0b 3e 3a 81 c1 3d
       0.026354996 0.0013265961 0.13645527 0.09448476
000220 2b ce b4 bd 7c f5 18 3c 63 eb af bd 0b 09 07 3e
       -0.08828386 0.009335872 -0.08589818 0.13187043
000230 c7 c1 61 bb 4f ed 48 bd 8c a1 2d be 0e 24 09 3e
       -0.0034447776 -0.04905444 -0.16956156 0.1339266
000240 54 9f 94 3c aa 07 fb 3a b8 0a 12 3e 1e 5b 2f 3c
       0.01814238 0.0019152064 0.14261901 0.010702876
000250 48 bb 13 be 64 f3 62 3d 05 b9 92 3d 2b 8b 80 bd
       -0.14426911 0.055407897 0.07164196 -0.06276544
000260 6f bc d5 bd f5 17 80 3e e5 b8 1c 3d 87 56 76 3d
       -0.104363315 0.25018278 0.038262267 0.060141113
000270 e5 52 f6 bb 3f 4d e4 3d 0f 5a e6 3d 86 b4 24 3d
       -0.007517206 0.11147546 0.11247646 0.040211223
000280 03 03 4d bd b1 da 04 3e c7 12 f6 bb 8a f1 f3 3c
       -0.0500517 0.12974049 -0.0075095627 0.02977826
000290 7e 0b 7c be 99 28 64 bc 7c b8 19 3d 71 e6 71 3d
       -0.24613759 -0.013925695 0.037529454 0.059057657
0002a0 9f db a0 3a e0 e8 25 bd e9 b9 9b 3d 53 14 d6 bd
       0.0012272483 -0.04050529 0.07603819 -0.10453095
0002b0 63 64 01 3e 28 41 c7 3c ad de 09 3e 7d e1 41 3e
       0.1263595 0.024323061 0.1346385 0.18933673
0002c0 16 1c b1 3d d8 a1 cf bd 95 43 e0 3d 9d e8 39 bd
       0.08647935 -0.10138291 0.1095039 -0.045387853
0002d0 87 30 03 3c a7 b0 0b 3d 99 f2 9c 3d 30 83 ca bc
       0.008007175 0.034104016 0.07663459 -0.024720758
0002e0 00 ac a0 bd 0e 95 47 bc de d6 47 bd 15 22 c6 3d
       -0.078453064 -0.0121815335 -0.048788898 0.096744694
0002f0 f9 1a f8 3d 39 c1 83 bc 26 ec d7 bd 3b 6f c0 bd
       0.121145196 -0.016083347 -0.105430886 -0.093962155
000300 2c 82 15 be 3d 41 bd bd 14 e2 04 be 54 1c 0b 3e
       -0.14600438 -0.09240959 -0.12976867 0.13585025
000310 89 77 62 bc 67 87 b2 ba ad 22 81 bd 66 2e 0d 3c
       -0.013822445 -0.0013620675 -0.06305442 0.008617019
000320 d6 7f 8b 3d a3 e6 fa 3d fd 26 c2 bc 10 64 c9 bd
       0.06811492 0.12251022 -0.023700232 -0.098335385
000330 95 d2 6e 3d 80 b8 3c ba 55 68 b3 3d 92 16 cb 3c
       0.058306295 -0.00071991235 0.08760134 0.024791036
000340 6a 10 82 bc e2 b3 84 bc 7b 82 04 be f5 32 0b bd
       -0.015876967 -0.016199056 -0.129404 -0.033984143
000350 d3 d6 d5 3c 24 59 83 3d 5e 04 d3 bd 03 35 af 3d
       0.026103413 0.064134866 -0.10303567 0.08555033
000360 25 8c f9 3d d9 d7 82 3b 95 8b 92 3c f3 bc 47 3d
       0.121849336 0.003993016 0.017888824 0.04876418
000370 ea 99 a0 3c 18 cc 8c 3e 5a 7c 59 bd 1d e5 17 3e
       0.019604642 0.2749946 -0.053097107 0.14833494
000380 85 5c f2 bc 54 73 e5 bc db c3 75 3d 43 96 52 bd
       -0.029585132 -0.028009094 0.060001235 -0.051412832
000390 e0 33 9c bd 23 de 4f bd 97 13 83 3d 6a f8 47 3d
       -0.07627082 -0.050748955 0.06400221 0.04882089
0003a0 a8 18 c2 3d ce ef 4b 3b c6 bc 93 3b c5 bc 56 bd
       0.09477359 0.0031118277 0.0045085875 -0.05242612
0003b0 b3 1a a4 3c e4 2c 6a bd 61 34 ac be 75 9a 06 3c
       0.020032262 -0.057171717 -0.33633712 0.008215536
0003c0 f1 1d 4d 3e 08 46 d3 3c 09 da e5 3d 66 58 b9 bc
       0.20030953 0.02579023 0.112232275 -0.02262516
0003d0 d4 52 dd 3d b9 00 c5 ba 15 19 f6 bd 6f b5 83 3d
       0.10806814 -0.0015030123 -0.12016503 0.0643109
0003e0 c2 26 b6 bd 2f 7d a1 3d 89 54 1c 3d 30 81 65 bc
       -0.08894111 0.07885205 0.038166557 -0.0140078515
0003f0 f7 ac 1f 3c 4b db 83 bd df 8c d6 3a 34 12 1b 3e
       0.009745828 -0.06438311 0.0016368887 0.15143663

network.6.bias f4 [12]
000000 49 3a e6 bf be 5f cd be af 03 2e be 7f 23 71 be
       -1.7986537 -0.40112108 -0.16993593 -0.23548697
000010 39 57 08 bf 4f 1f 7f be fa f2 04 3f ce 39 bd be
       -0.5325809 -0.24914287 0.5193325 -0.36958164
000020 e1 55 c8 bd 02 96 ae be 7e 42 c2 bf be 93 0a be
       -0.09782005 -0.34098822 -1.5176542 -0.13532922
