model/DQNAgent2_20-08-2022__23-31-43.pth/DQNAgent2_20-08-2022__23-31-43_iter_10.pth (torch, 826191 bytes, 8 tensors)

network.0.weight f4 [256, 27]
0.11692308 -0.1187074 -0.015893534 -0.07382519 0.15512623 0.18396492 0.11834215 0.18736325
-0.09727452 -0.16182834 -0.024597555 -0.039154604 -0.06631954 -0.0702703 -0.040357098 -0.19134292
-0.17619722 0.10431497 -0.18889338 0.093121335 -0.0486352 0.15661277 -0.08150609 -0.11450081
-0.11583176 0.026365638 -0.11376227 -0.053371504 -0.15053564 0.14708091 0.057882294 -0.1281371
-0.10369218 0.054647252 0.03520623 -0.08689607 -0.14313073 -0.09334488 -0.17906146 0.012417361
0.0053051114 -0.17800568 0.18263762 0.02941735 -0.13034552 -0.08237219 -0.09834317 0.1714104
-0.037743494 0.01729101 -0.082463704 -0.15312228 -0.16921538 -0.07581039 -0.15696815 0.035260804
-0.019101633 -0.17867865 -0.13228418 -0.023717498 0.042496234 0.07423982 -0.15956089 -0.002696312
-0.16953483 -0.1498736 0.0600487 -0.14589825 0.11768926 -0.11602861 -0.012367323 0.124312565
-0.035970032 -0.051912844 0.06951438 -0.16695547 -0.046650305 0.16663568 -0.1347704 -0.0418953
0.100341216 -0.069920205 -0.081804805 0.13126002 0.10098909 -0.14447518 -0.19283898 -0.18565679
-0.22586468 -0.21694528 -0.020352278 0.086487085 -0.12511078 -0.16820538 -0.21785322 0.117499225
0.02596048 -0.22595473 0.1369049 0.052659787 0.11107655 -0.16676688 0.094058916 0.0699393
0.12910579 0.051739827 -0.1646175 0.12387146 0.06658698 -0.045410812 -0.07529445 0.09670617
0.0691708 -0.15550588 -0.15983301 -0.012750869 -0.09525199 -0.06794735 -0.030983588 -0.10068477
0.17531076 0.20877144 -0.06876067 -0.18550156 -0.07514559 -0.14271644 0.021224884 0.07828592
0.08053921 0.162185 0.052102253 0.012269452 0.14047132 0.016825631 -0.16258521 0.13332444
0.13230574 0.007415761 0.07161309 0.056001533 0.05736336 -0.04719543 -0.0005128889 0.08796879
-0.014952915 0.16127615 -0.07100938 0.17756346 -0.07137167 0.12883194 -0.056134116 -0.043143395
-0.16494848 -0.1839937 -0.07511064 -0.01342465 -0.12722087 0.048538 0.033235 -0.14325367
0.15927441 -0.020736517 0.07569036 0.029723838 -0.23765495 0.051969413 -0.08155837 0.12242238
-0.18090424 -0.19338511 -0.06408872 0.0348761 0.046740085 -0.12860675 0.06194547 -0.068463475
-0.22028397 -0.14560398 -0.013524858 0.07933759 -0.06672678 -0.18028238 0.08082025 0.118634626
-0.097086444 0.13351385 -0.110489406 -0.14137915 0.047691166 -0.19139372 0.19615087 -0.19885217
0.089380376 -0.012778876 -0.00037229992 -0.07918198 0.041652035 0.12530434 -0.19003625 -0.05314091
0.20273986 -0.21686153 -0.1979578 -0.023856599 -0.04719956 0.07832026 -0.03909201 0.06717584
-0.10655137 -0.027855344 0.06107632 0.12233214 0.17490418 0.018164173 0.121407166 0.0024846643
-0.01652456 -0.007917945 -0.1532566 -0.121339396 -0.0006007538 0.094554566 -0.19882645 -0.1641172
0.089260295 -0.20233919 -0.038488615 -0.21732442 -0.079727575 -0.154554 -0.24594072 0.06692339
0.022743575 0.09531407 0.05391883 0.024187014 0.14411092 -0.15770085 -0.1650092 -0.0040943176
-0.18397315 0.012171403 -0.06346734 -0.17547707 0.1266797 0.04994788 -0.13224925 0.12544772
0.08430313 0.1557194 -0.01919293 -0.1353225 -0.05037922 -0.19668822 -0.16080077 0.1401939
00000000: 5e75 ef3d de1c f3bd 2833 82bc a931 97bd
00000010: 69d9 1e3e 4d61 3c3e 5e5d f23d 27dc 3f3e
00000020: dd37 c7bd 54b6 25be d080 c9bc 9460 20bd
00000030: 8ad2 87bd e0e9 8fbd 7c4d 25bd 66ef 43be
00000040: 0b6d 34be 16a3 d53d 446d 41be 66b6 be3d
00000050: b435 47bd 195f 203e aaec a6bd 677f eabd
00000060: 3439 edbd c0fc d73c 31fc e8bd 149c 5abd
00000070: 0426 1abe 619c 163e fc15 6d3d 5f36 03be
00000080: 915c d4bd ccd5 5f3d 6834 103d 91f6 b1bd
00000090: dd90 12be 9a2b bfbd e35b 37be 3072 4b3c
000000a0: 80d6 ad3b 1f47 36be 5b05 3b3e a8fc f03c
000000b0: 4c79 05be c0b2 a8bd 2568 c9bd 3586 2f3e
000000c0: ec98 1abd e0a5 8d3c bbe2 a8bd 16cc 1cbe
000000d0: cc46 2dbe 7a42 9bbd 42bc 20be a26d 103d
000000e0: 077b 9cbc 89f7 36be 8175 07be 334b c2bc
000000f0: 8810 2e3d 0c0b 983d ee63 23be 9cb4 30bb
00000100: 8a9a 2dbe 7778 19be a0f5 753d 5a66 15be
00000110: 1107 f13d 68a0 edbd 50a0 4abc 9697 fe3d
00000120: 5055 13bd 90a2 54bd 8e5d 8e3d 60f6 2abe
00000130: 6414 3fbd 8ba2 2a3e 4001 0abe 689a 2bbd
00000140: b27f cd3d 5332 8fbd 4789 a7bd 0769 063e
00000150: 5ed3 ce3d 4df1 13be 9577 45be d01c 3ebe
00000160: 1249 67be e726 5ebe d2b9 a6bc 2420 b13d
00000170: 0a1d 00be 083e 2cbe ea14 5fbe 6fa3 f03d
00000180: 13ab d43c ad60 67be cc30 0c3e cab1 573d
00000190: 1a7c e33d f0c4 2abe f6a1 c03d 563c 8f3d
000001a0: 4f34 043e 24ed 533d 7d91 28be 52b0 fd3d
000001b0: c15e 883d b000 3abd fa33 9abd e20d c63d
000001c0: 6ca9 8d3d ef3c 1fbe 44ab 23be 05e9 50bc
000001d0: 7a13 c3bd fb27 8bbd 4bd1 fdbc d133 cebd
000001e0: aa84 333e 2ec8 553e 65d2 8cbd 1ff4 3dbe
000001f0: eee5 99bd 4224 12be cfdf ad3c 5e54 a03d
00000200: bef1 a43d d313 263e 2c69 553d d005 493c
00000210: b7d7 0f3e e8d5 893c bd7c 26be 3486 083e
00000220: 287b 073e e9ff f23b e2a9 923d dd61 653d
00000230: d8f5 6a3d ff4f 41bd 6473 06ba fb28 b43d
00000240: 12fd 74bc 9325 253e 5e6d 91bd 32d3 353e
00000250: 4f2b 92bd 85ec 033e e3ec 65bd 21b7 30bd
00000260: 41e8 28be d868 3cbe 9bd3 99bd 10f3 5bbc
00000270: 3046 02be c8cf 463d 6c21 083d 17b1 12be
00000280: d518 233e a1df a9bc 8c03 9b3d 687f f33c
00000290: d25b 73be e1dd 543d 1308 a7bd 96b8 fa3d
000002a0: f63e 39be bf06 46be f240 83bd 3eda 0e3d
000002b0: 8872 3f3d 7db1 03be 88ba 7d3d 9436 8cbd
000002c0: 1f92 61be 3619 15be 5e97 5dbc bf7b a23d
000002d0: 0da8 88bd f29b 38be 1685 a53d b6f6 f23d
000002e0: 42d5 c6bd dbb7 083e 4548 e2bd b2c5 10be
000002f0: d057 433d b7fc 43be c6db 483e e79f 4bbe
00000300: 0f0d b73d 7e5e 51bc 4031 c3b9 292a a2bd
00000310: 539b 2a3d c84f 003e dd98 42be 48aa 59bd
00000320: 0a9b 4f3e f310 5ebe 73b5 4abe ea6e c3bc
00000330: 5354 41bd 5f66 a03d f21e 20bd 7d93 893d
00000340: 9b37 dabd e430 e4bc 2a2b 7a3d 4689 fa3d
00000350: 151a 333e 08cd 943c 52a4 f83d c0d5 223b
00000360: 845e 87bc 45ba 01bc 4cef 1cbe ca80 f8bd
00000370: e87b 1dba d3a5 c13d 2999 4bbe 570e 28be
00000380: 1ace b63d 0132 4fbe 3da6 1dbd 4b8a 5ebe
00000390: 3648 a3bd 6743 1ebe e2d7 7bbe 210f 893d
000003a0: bc50 ba3c 0634 c33d fed9 5c3d d823 c63c
000003b0: d091 133e 557c 21be 2cf8 28be a029 86bb
000003c0: 7563 3cbe 906a 473c 2afb 81bd 43b0 33be
000003d0: 53b8 013e 2696 4c3d 596c 07be 5e75 003e
000003e0: 1fa7 ac3d e874 1f3e 7e3a 9dbc fb91 0abe
000003f0: 715a 4ebd a368 49be f5a8 24be fd8e 0f3e

network.0.bias f4 [256]
-0.15196514 0.15335263 -0.032887068 0.063352466 -0.17157094 -0.010510209 -0.0151132755 -0.029031651
-0.16363217 0.0036693339 0.01324181 -0.1081088 -0.24276489 -0.051043995 0.0813172 -0.1649863
-0.17912418 -0.09312613 -0.12855706 0.14178728 -0.013239145 -0.23907341 0.17483775 -0.06749771
0.08179972 0.02506341 0.11543447 0.15561284 0.10590078 -0.07153632 -0.10917763 0.12982942
0.18821679 -0.010423625 0.02859051 -0.10293759 -0.022640837 0.028459592 0.11962454 0.18551894
0.022103608 0.037336595 -0.14481552 -0.07767568 -0.08812739 0.12812379 -0.080149926 -0.19030161
0.008186924 0.11674816 -0.060996033 -0.089012474 -0.076979816 -0.100995935 -0.24695978 -0.18413125
0.14102946 0.014891225 -0.07314937 0.009558649 -0.09607065 -0.22637203 -0.21952079 0.05457306
-0.033210143 -0.024170907 -0.11084696 0.071488336 0.16705775 -0.045156736 -0.10024269 -0.11508305
0.001587365 0.07518588 -0.10634899 -0.13424666 0.16653362 0.18436049 0.1341622 0.1366012
-0.076701745 -0.1638219 0.011510819 -0.17829876 -0.22557658 0.032476857 -0.2276908 0.12110814
0.14306313 0.0108384695 -0.17780963 -0.1933221 -0.23050064 -0.20913725 -0.023972407 -0.18180583
-0.09606418 0.0041575837 0.104808554 -0.1087045 0.05409637 0.07650761 -0.13836665 -0.04836194
0.09479682 0.12258096 -0.07678299 -0.087625206 0.045952693 -0.07153549 -0.010704178 -0.08402548
-0.22778381 0.07522131 -0.12558787 0.17191702 0.18029179 -5.5264656e-05 -0.010547444 -0.07633988
0.09408261 -0.016141767 0.10440595 0.012840182 -0.01503358 -0.041457243 0.0863458 0.10938512
-0.018493807 -0.02099835 0.05300849 0.034866095 -0.13291097 -0.04226169 -0.05609555 0.13377903
-0.023321873 0.16435151 -0.19009334 0.15222172 0.22841498 -0.043569356 0.06251439 0.0024758286
-0.11116928 -0.19744588 0.06378596 -0.024858654 -0.1974994 -0.023967657 0.047510665 -0.059432417
-0.18275274 -0.14391768 0.02492889 0.093160555 0.047064077 0.016629273 0.009942528 0.00938248
-0.016273918 -0.022445217 -0.21545103 0.13372447 -0.044650853 -0.18991718 0.09794213 0.111626886
-0.23711862 -0.0104744155 0.04318805 0.09586704 -0.21854605 0.0034406146 -0.037937395 -0.09730229
-0.16547966 -0.0030579567 -0.22104922 0.13182746 0.13893463 -0.17168927 -0.027421897 -0.20186839
-0.14320244 -0.122372426 -0.17552888 -0.16626394 -0.007606238 -0.15957807 -0.024830854 -0.15268934
-0.20350657 -0.097952336 0.13418762 -0.00013476278 -0.18597321 -0.12583604 -0.099411964 0.014808977
0.016279042 -0.17502065 0.03423731 -0.23435123 -0.02253513 -0.17874265 -0.13243614 -0.04898914
-0.15771195 -0.10978424 -0.10192271 -0.099050485 -0.1909659 -0.19984083 0.0032251095 -0.15361609
0.12655659 -0.041319966 -0.19955808 0.08094679 -0.22685927 -0.044306625 -0.12059756 0.19989584
0.10818317 -0.17171292 0.19235407 -0.18466423 0.05998456 0.008930907 -0.035028446 0.029377207
-0.12993129 -0.16363809 0.049522493 -0.035785258 0.022095352 0.035805937 0.10402822 -0.21312222
0.07712336 -0.07767221 -0.09341631 0.13913032 0.044754613 -0.22953947 0.20288092 -0.11781228
-0.06525084 0.094236426 0.08023014 -0.03906858 -0.19889158 0.09671526 -0.027949577 -0.20811976
00000000: c09c 1bbe 7908 1d3e 97b4 06bd f0be 813d
00000010: 4bb0 2fbe 0333 2cbc ac9d 77bc c9d3 edbc
00000020: 318f 27be 3579 703b 2df4 583c 2668 ddbd
00000030: 5c97 78be 8213 51bd a289 a63d 2bf2 28be
00000040: 546c 37be eab8 bebd 76a4 03be af30 113e
00000050: 00e9 58bc a9cf 74be ab08 333e 3d3c 8abd
00000060: 9d86 a73d c851 cd3c e868 ec3d f958 1f3e
00000070: 82e2 d83d a281 92bd 8598 dfbd 01f2 043e
00000080: e7bb 403e dac7 2abc a536 ea3c f1d0 d2bd
00000090: 4779 b9bc 1724 e93c b6fd f43d adf8 3d3e
000000a0: a012 b53c 42ee 183d 854a 14be 6d14 9fbd
000000b0: 227c b4bd e232 033e a525 a4bd 6dde 42be
000000c0: 7322 063c a919 ef3d fad6 79bd 2c4c b6bd
000000d0: 98a7 9dbd f5d6 cebd 06e3 7cbe e78c 3cbe
000000e0: 076a 103e 53fa 733c 56cf 95bd e19b 1c3c
000000f0: b0c0 c4bd 12ce 67be 0fca 60be 0088 5f3d
00000100: 5c07 08bd 1102 c6bc bb03 e3bd 7a68 923d
00000110: 3011 2b3e 45f6 38bd 0a4c cdbd aab0 ebbd
00000120: 220f d03a 0efb 993d 80cd d9bd f577 09be
00000130: ca87 2a3e ffc8 3c3e d161 093e 2fe1 0b3e
00000140: ce15 9dbd eec0 27be e097 3c3c f393 36be
00000150: 8cfd 66be 7406 053d c727 69be 8b07 f83d
00000160: 247f 123e d693 313c ba13 36be 3bf6 45be
00000170: 5c08 6cbe 1328 56be c861 c4bc 4f2b 3abe
00000180: 4cbd c4bd 573c 883b dea5 d63d 77a0 debd
00000190: 2894 5d3d 06b0 9c3d fdaf 0dbe 2b17 46bd
000001a0: d624 c23d ba0b fb3d 6640 9dbd d874 b3bd
000001b0: e438 3c3d 3381 92bd 9460 2fbc 8d15 acbd
000001c0: 2940 69be a10d 9a3d 1b9a 00be 040b 303e
000001d0: 699e 383e f9cb 67b8 30cf 2cbc 1558 9cbd
000001e0: 62ae c03d bd3b 84bc c9d2 d53d a05f 523c
000001f0: 684f 76bc 12cf 29bd 11d6 b03d 4e05 e03d
00000200: 5380 97bc bb04 acbc 6e1f 593d c0cf 0e3d
00000210: d019 08be 981a 2dbd 73c4 65bd 5ffd 083e
00000220: 830d bfbc c34b 283e d4a7 42be 03e0 1b3e
00000230: 9ee5 693e c875 32bd 8b07 803d 8341 223b
00000240: b8ac e3bd 412f 4abe 37a2 823d 60a4 cbbc
00000250: 483d 4abe d257 c4bc 8b9a 423d 686f 73bd
00000260: 8923 3bbe 285f 13be ac37 cc3c f6ca be3d
00000270: 43c6 403d 1d3a 883c fce5 223c f9b8 193c
00000280: e150 85bc 08df b7bc 329f 5cbe 11ef 083e
00000290: d0e3 36bd a679 42be e295 c83d a39c e43d
000002a0: 39cf 72be e29c 2bbc f4e5 303d f055 c43d
000002b0: 89ca 5fbe ef7b 613b 3e64 1bbd 6c46 c7bd
000002c0: 8073 29be 0068 48bb ba5a 62be c7fd 063e
000002d0: e144 0e3e 50cf 2fbe e3a3 e0bc 96b6 4ebe
000002e0: a9a3 12be 659e fabd d8bd 33be 1841 2abe
000002f0: c03d f9bb 6f68 23be 136a cbbc 985a 1cbe
00000300: 0764 50be 3c9b c8bd 7b68 093e 1c4f 0db9
00000310: c36f 3ebe 2adb 00be 8098 cbbd 5aa1 723c
00000320: a05b 853c 9d38 33be 6c3c 0c3d c5f9 6fbe
00000330: 989b b8bc 5008 37be 579d 07be d6a8 48bd
00000340: 3e7f 21be 8fd6 e0bd dbbc d0bd fbda cabd
00000350: 918c 43be 13a3 4cbe 5c5c 533b 894d 1dbe
00000360: 0d98 013e 203f 29bd f458 4cbe 6ec7 a53d
00000370: cc4d 68be dd7a 35bd dbfb f6bd 7fb1 4c3e
00000380: 238f dd3d 83d5 2fbe 77f8 443e 9f18 3dbe
00000390: 5fb2 753d f052 123c fd79 0fbd 78a8 f03c
000003a0: b50c 05be be90 27be 19d8 4a3d 9093 12bd
000003b0: 5001 b53c 3fa9 123d bf0c d53d b63c 5abe
000003c0: daf2 9d3d 9c12 9fbd 0d51 bfbd 2e78 0e3e
000003d0: 9d50 373d 650c 6bbe 04c0 4f3e 9147 f1bd
000003e0: 3ba2 85bd 07ff c03d b34f a43d 6006 20bd
000003f0: 3caa 4bbe a612 c63d 83f6 e4bc 591d 55be

network.2.weight f4 [512, 256]
0.041272976 -0.055666186 -0.04469691 -0.0934466 -0.007910408 -0.0027149715 0.019005954 0.050713688
-0.024045274 0.014992017 -0.07896339 -0.05429726 -0.09933791 -0.02502123 -0.07355635 -0.007432632
-0.06387622 0.0012090281 -0.010373095 0.021936476 0.022045508 -0.028070062 0.005053282 -0.039538175
-0.022982605 0.056416705 -0.09092995 0.057043307 0.0013214776 0.015778158 0.0026435158 -0.061221324
0.028942164 0.042568535 -0.012469245 -0.062946565 -0.054352187 -0.061524417 0.008712846 0.004549548
-0.05019805 -0.08325026 0.013882033 0.026285373 0.07863116 0.014556631 0.052383594 -0.106960006
0.018556915 -0.017639875 -0.017396428 -0.009465134 0.04953914 -0.049720265 -0.034243766 -0.027893223
-0.060444098 -0.062081277 0.03307581 -0.005040696 -0.04314351 -0.035343163 0.004820909 0.05356512
-0.029783383 -0.013097781 0.0016198792 -0.0259616 0.059744924 -0.05871077 0.050528407 0.01994776
-0.07436135 0.05041685 -0.010424957 -0.06793728 0.00036861026 -0.028644681 0.053552084 0.05746703
-0.08075781 0.0076124016 0.053736307 0.033373706 0.001677861 0.0019470304 -0.101192445 -0.016734488
0.025478916 -0.084913924 0.013927586 -0.04790193 -0.07897954 0.009177215 0.0005605146 0.0021051168
-0.06711168 -0.08724851 -0.09152952 -0.015947483 0.079283126 0.06040945 -0.08444877 -0.06607878
-0.011685975 0.016139507 0.008108012 0.057306796 -0.010176934 -0.076668516 -0.043950517 0.043783024
0.00842426 0.08840789 -0.0062705427 0.05486149 -0.00988761 -0.030017331 0.05845134 -0.061764475
0.042414427 -0.100259334 -0.10449168 -0.03603132 0.015150033 0.059633933 0.06951496 -0.02438084
0.022663847 -0.07068474 0.060456254 -0.04009962 -0.09524381 0.02313406 0.040348064 -0.04825829
-0.010049912 -0.05560115 -0.0447417 -0.0009512827 0.06856211 0.05006232 -0.041286327 -0.105531245
-0.05568222 -0.09069075 -0.0027655414 0.0026660338 -0.012184789 0.012117445 0.05895471 0.04133136
0.04158573 0.014897354 0.085128605 -0.011958577 -0.036368992 0.0038698658 -0.0065537244 -0.01285129
-0.025256518 -0.012279801 -0.027112758 -0.0074723884 -0.048500717 0.0054186108 -0.0064451694 -0.07746264
0.109857194 0.0070663365 -0.03528793 -0.08757543 0.006888833 -0.07905928 0.015511683 0.011791587
-0.07779435 0.024109572 -0.05997444 -0.01463937 -0.041331384 -0.020342425 -0.07917606 0.10855354
-0.03724413 -0.024869297 -0.044237956 -0.029988356 -0.021650372 0.012741162 -0.10814119 -0.020645238
-0.08282545 0.0137028545 0.0596473 -0.04235006 -0.004051678 -0.01594188 -0.0026266202 -0.09175974
0.0026553199 0.005296319 0.044085987 -0.1049548 -0.03260111 0.0122203855 0.011237286 0.008808054
0.077621475 -0.0048932685 -0.055975176 0.016554661 -0.011196457 -0.062341996 -0.03292198 0.031319216
-0.02737791 -0.005681726 -0.029484456 -0.050634846 0.027870975 -0.0133453235 0.011026247 0.037510898
0.04943625 -0.03966108 -0.05967778 -0.06429858 0.013839334 -0.042015508 -0.037940744 -0.036163464
-0.07037946 -0.07144671 -0.0066835573 -0.018955529 0.0012726039 -0.060350902 0.015711777 -0.08058372
0.060963586 -0.020217344 -0.012041468 -0.07762984 0.0038740756 -0.055457152 0.061166193 0.029605195
-0.061712325 -0.044716764 -0.055502813 -0.023641951 0.000405408 -0.007747275 -0.07685716 0.007157723
00000000: da0d 293d 3a02 64bd 1b14 37bd ee60 bfbd
00000010: a89a 01bc aaed 31bb 60b2 9b3c 28b9 4f3d
00000020: 98fa c4bc 14a1 753c 8fb7 a1bd ce66 5ebd
00000030: ad71 cbbd 53f9 ccbc b6a4 96bd 708d f3bb
00000040: 89d1 82bd 4078 9e3a eaf3 29bc 20b4 b33c
00000050: c898 b43c 30f3 e5bc 0096 a53b c8f2 21bd
00000060: 0446 bcbc 3415 673d 7b39 babd 3ea6 693d
00000070: 6e35 ad3a 3241 813c d63e 2d3b 36c3 7abd
00000080: 1e18 ed3c 585c 2e3d ce4b 4cbc 21ea 80bd
00000090: 66a0 5ebd 0701 7cbd 53c0 0e3c 6014 953b
000000a0: 789c 4dbd 1d7f aabd 7771 633c 6c54 d73c
000000b0: 6009 a13d f07e 6e3c 2e90 563d d90d dbbd
000000c0: ac04 983c 8081 90bc f482 8ebc a613 1bbc
000000d0: 8ee9 4a3d 7aa7 4bbd 3143 0cbd 5480 e4bc
000000e0: 3b94 77bd f048 7ebd 807a 073d 6c2c a5bb
000000f0: 40b7 30bd fec3 10bd b7f8 9d3b 1967 5b3d
00000100: 48fc f3bc 1398 56bc 2052 d43a 6cad d4bc
00000110: 18b7 743d b47a 70bd e0f6 4e3d 7c69 a33c
00000120: c34a 98bd e681 4e3d 70cd 2abc b322 8bbd
00000130: 0842 c139 40a8 eabc 6e59 5b3d 8c62 6b3d
00000140: 5a64 a5bd 7471 f93b 9a1a 5c3d deb2 083d
00000150: aceb db3a 8033 ff3a fc3d cfbd c416 89bc
00000160: 29b9 d03c 5ae7 adbd 8830 643c d034 44bd
00000170: 06c0 a1bd 085c 163c 80ef 123a 00f6 093b
00000180: d971 89bd 59af b2bd d473 bbbd 4ca4 82bc
00000190: 315f a23d e66f 773d 7af3 acbd 5054 87bd
000001a0: 8876 3fbc 0037 843c 78d7 043c 88ba 6a3d
000001b0: 28bd 26bc 6204 9dbd 7505 34bd d455 333d
000001c0: e805 0a3c 320f b53d 2079 cdbb 71b6 603d
000001d0: a4ff 21bc e8e6 f5bc ac6a 6f3d bffc 7cbd
000001e0: c0ba 2d3d c454 cdbd bcff d5bd 9495 13bd
000001f0: d837 783c b642 743d dc5d 8e3d 54ba c7bc
00000200: 88a9 b93c 29c3 90bd faa0 773d 803f 24bd
00000210: 300f c3bd a483 bd3c 0344 253d 7caa 45bd
00000220: 63a8 24bc 08be 63bd 1343 37bd 805f 79ba
00000230: 4b6a 8c3d 260e 4d3d da1b 29bd c420 d8bd
00000240: 0a13 64bd 12bc b9bd 163e 35bb a0b8 2e3b
00000250: b6a2 47bc 3f88 463c 7e7a 713d 124b 293d
00000260: cc55 2a3d 0814 743c e857 ae3d e8ed 43bc
00000270: a7f7 14bd 939d 7d3b a0c0 d6bb 388e 52bc
00000280: c2e6 cebc 3831 49bc 931b debc f0da f4bb
00000290: b0a8 46bd 9a8e b13b 0032 d3bb bca4 9ebd
000002a0: cffc e03d ba8c e73b 148a 10bd bf5a b3bd
000002b0: b8bb e13b d5e9 a1bd b724 7e3c 8031 413c
000002c0: a552 9fbd 7081 c53c c2a7 75bd f8d9 6fbc
000002d0: 194b 29bd 28a5 a6bc 0f27 a2bd 5251 de3d
000002e0: 4d8d 18bd b2ba cbbc dc32 35bd 24aa f5bc
000002f0: 1f5c b1bc 4fc0 503c 2179 ddbd 3420 a9bc
00000300: 64a0 a9bd f081 603c ba50 743d 4277 2dbd
00000310: f0c3 84bb 8c98 82bc 6023 2cbb 88ec bbbd
00000320: e004 2e3b be8c ad3b 8293 343d 8bf2 d6bd
00000330: be88 05bd 0338 483c 981c 383c a84f 103c
00000340: 02f8 9e3d b657 a0bb 3a46 65bd a49d 873c
00000350: 5871 37bc 525a 7fbd 33d9 06bd 9448 003d
00000360: a447 e0bc c62d babb 6389 f1bc 7c66 4fbd
00000370: ac51 e43c 58a6 5abc 6fa7 343c 07a5 193d
00000380: aa7d 4a3d a873 22bd b070 74bd f9ae 83bd
00000390: 60be 623c 7418 2cbd c167 1bbd 2420 14bd
000003a0: 1b23 90bd a752 92bd be01 dbbb a048 9bbc
000003b0: 80cd a63a 8232 77bd fcb5 803c 1409 a5bd
000003c0: f4b4 793d d89e a5bc 9449 45bc 65fc 9ebd
000003d0: 34e4 7d3b 0a27 63bd 6789 7a3d 9886 f23c
000003e0: 10c6 7cbd ed28 37bd eb56 63bd c4ac c1bc
000003f0: f18c d439 dadc fdbb 4967 9dbd 558b ea3b

network.2.bias f4 [512]
-0.06289216 0.08412547 0.08905024 -0.045256745 -0.024299307 -0.025619522 -0.055183265 0.00534772
-0.10311045 -0.03871368 -0.094966546 0.011794205 -0.08318034 -0.023362258 0.008055521 0.011257328
-0.06588854 -0.04391346 -0.052561443 -0.06746983 -0.045756087 -0.105128676 -0.041578606 -0.1337345
-0.009472768 0.002791725 -0.029955398 -0.08464034 -0.08988057 -0.02631046 -0.05690925 -0.09393099
-0.073018596 -0.044753753 0.011952662 -0.002412121 -0.052672595 -0.0029291848 -0.04217574 -0.12520735
-0.048313357 0.05709082 -0.039165422 -0.061809972 -0.05789937 0.0060853907 -0.062579274 -0.044133134
0.037460107 -0.03717166 -0.006725362 -0.06827926 -0.054194644 0.07525064 -0.007580637 -0.015441882
-0.070410416 -0.10828842 -0.06180156 -0.10693025 -0.081817284 -0.046081007 -0.08116679 -0.098852135
-0.011112291 -0.013809901 -0.036775023 -0.0293914 -0.09401523 -0.11133163 0.0011324631 -0.10267214
-0.052735087 -0.0039295014 -0.039918974 -0.08664093 -0.111291505 -0.030455088 -0.034350876 -0.055297114
-0.082674704 -0.118396185 -0.0023230577 0.013343871 -0.06458945 -0.06469724 -0.11442938 -0.015707113
0.03600503 0.054954268 -0.07851991 -0.06789269 -0.04737317 -0.08049943 -0.012805715 -0.02798159
-0.095125124 -0.075682834 -0.1025166 -0.045909867 0.035703123 -0.11806229 -0.066965796 -0.16528994
-0.047932647 -0.04703395 0.013962813 -0.038920548 -0.08634661 -0.09840405 -0.11461193 -0.07998677
0.011981962 -0.16211157 -0.027966086 -0.062020093 -0.08574632 -0.032364495 -0.033894498 -0.103068314
-0.040002048 -0.064567275 -0.1009572 -0.0713743 -0.051800683 -0.1026843 -0.08289906 -0.1013723
-0.083505325 -0.012787595 0.0058693825 -0.037328508 -0.04444732 0.029987156 -0.010322764 -0.06230482
-0.08802994 -0.08593078 -0.06401044 -0.027241923 -0.019067187 -0.021258555 0.03469934 0.124256216
-0.079887226 -0.107523724 -0.09511477 -0.030233497 0.0121600935 -0.04740167 -0.09989713 -0.030918617
-0.06787282 -0.043825686 -0.0076981555 -0.017498149 -0.06658029 -0.025523804 -0.030934095 -0.101808414
-0.07819461 -0.017962858 -0.089373 -0.039127536 -0.016770117 -0.014285385 -0.11188275 -0.0049532508
-0.10991934 -0.11178821 -0.060741484 0.009260523 -0.015915332 -0.06701758 -0.10823501 -0.06297155
-0.03210069 -0.06785007 -0.01294958 0.0569343 -0.116548754 0.025594797 -0.14706704 -0.013910428
-0.08695545 0.044032715 -0.09386063 -0.0897495 -0.03766863 -0.00093560666 -0.08049833 0.015271542
-0.038615257 -0.05815255 -0.01733371 -0.11849312 -0.016894044 -0.056649875 -0.008885187 -0.08898499
-0.033240817 -0.039841957 -0.11228938 -0.037385143 -0.097136505 -0.065758355 -0.027080333 -0.0172166
-0.005976528 0.038893305 -0.10943926 0.0027105897 -0.05927977 -0.091007024 -0.048490684 0.053978346
-0.061785787 -0.04535554 -0.02086958 -0.039916635 -0.08659814 -0.038144633 -0.012941366 -0.16456187
0.011628593 -0.022927038 -0.035029385 -0.062379736 -0.054548915 -0.021947896 -0.09246023 0.04515004
0.0023391696 0.013738569 -0.08502124 0.0041765515 -0.026745033 -0.11154202 -0.00080223475 -0.031747166
-0.023593226 0.040614124 -0.02229938 -0.0024809958 -0.08285643 -0.09812416 -0.002698506 -0.06871039
-0.103043854 -0.015611475 -0.029199526 -0.109426886 0.023875384 -0.05877554 -0.11451603 -0.11731599
00000000: 9bcd 80bd f949 ac3d f95f b63d 235f 39bd
00000010: 570f c7bc 08e0 d1bc d907 62bd ed3b af3b
00000020: 922b d3bd 3c92 1ebd d27d c2bd 7b3c 413c
00000030: 745a aabd 3562 bfbc 4efb 033c a870 383c
00000040: 92f0 86bd 9ade 33bd ab4a 57bd 9f2d 8abd
00000050: bc6a 3bbd b44d d7bd 544e 2abd b2f1 08be
00000060: ab33 1bbc 60f5 363b 0665 f5bc ea57 adbd
00000070: 4e13 b8bd 0989 d7bc ac19 69bd e45e c0bd
00000080: c68a 95bd b64f 37bd 19d5 433c ad14 1ebb
00000090: 38bf 57bd 91f7 3fbb 78c0 2cbd 5b36 00be
000000a0: 3ae4 45bd 10d8 693d ec6b 20bd 742c 7dbd
000000b0: e427 6dbd f567 c73b 9029 80bd f2c4 34bd
000000c0: c56f 193d 5041 18bd 6d60 dcbb ffd5 8bbd
000000d0: 34fb 5dbd 021d 9a3d fe66 f8bb f3ff 7cbc
000000e0: 5633 90bd 52c6 ddbd a223 7dbd 3ffe dabd
000000f0: d28f a7bd 70bf 3cbd c63a a6bd fd72 cabd
00000100: 5410 36bc ec42 62bc 68a1 16bd 3cc6 f0bc
00000110: 0f8b c0bd d601 e4bd 286f 943a c545 d2bd
00000120: bf00 58bd 0cc3 80bb 1482 23bd cd70 b1bd
00000130: cdec e3bd f37c f9bc 81b3 0cbd 3a7f 62bd
00000140: 5b51 a9bd b379 f2bd 713e 18bb 40a0 5a3c
00000150: 7947 84bd fd7f 84bd f359 eabd 34ac 80bc
00000160: 037a 133d ba17 613d 0ccf a0bd 530b 8bbd
00000170: 5e0a 42bd e3dc a4bd 10cf 51bc a639 e5bc
00000180: f6d0 c2bd 9aff 9abd 39f4 d1bd fc0b 3cbd
00000190: 703d 123d a4ca f1bd 5d25 89bd c441 29be
000001a0: 0655 44bd aca6 40bd 48c4 643c 276b 1fbd
000001b0: 7ed6 b0bd 1088 c9bd a9b9 eabd 1bd0 a3bd
000001c0: fe4f 443c 9300 26be 2219 e5bc c808 7ebd
000001d0: c49b afbd a290 04bd f5d4 0abd 7b15 d3bd
000001e0: 30d9 23bd d93b 84bd a6c2 cebd b02c 92bd
000001f0: f42c 54bd 254c d2bd fbc6 a9bd 489c cfbd
00000200: d704 abbd 1083 51bc f353 c03b c7e5 18bd
00000210: 650e 36bd a0a7 f53c cf20 29bc 5733 7fbd
00000220: 0b49 b4bd 7afc afbd e817 83bd 742a dfbc
00000230: ca32 9cbc 6c26 aebc e520 0e3d 0b7a fe3d
00000240: ea9b a3bd 6635 dcbd 88cb c2bd 3dac f7bc
00000250: 213b 473c 4128 42bd de96 ccbd 0a49 fdbc
00000260: e800 8bbd 9082 33bd cf40 fcbb 4758 8fbc
00000270: 3f5b 88bd 4c17 d1bc 8069 fdbc ee80 d0bd
00000280: 7f24 a0bd d826 93bc 3109 b7bd 3244 20bd
00000290: 7c61 89bc 3f0d 6abc c922 e5bd e14e a2bb
000002a0: 641d e1bd 38f1 e4bd 10cc 78bd 73b9 173c
000002b0: df60 82bc 8340 89bd 51aa ddbd 3af7 80bd
000002c0: 037c 03bd faf4 8abd 7a2a 54bc f133 693d
000002d0: 1db1 eebd 2eac d13c be98 16be 90e8 63bc
000002e0: b315 b2bd a65b 343d 013a c0bd 96ce b7bd
000002f0: 6c4a 1abd 8043 75ba 4fdc a4bd 7d35 7a3c
00000300: 082b 1ebd 5e31 6ebd 6dff 8dbc 85ac f2bd
00000310: 6165 8abc b309 68bd 2d93 11bc c33d b6bd
00000320: 8627 08bd 5231 23bd f9f7 e5bd 2a21 19bd
00000330: 81ef c6bd 51ac 86bd 93d7 ddbc d409 8dbc
00000340: c0d6 c3bb 964e 1f3d b121 e0bd 26a4 313b
00000350: 58cf 72bd e461 babd 2b9e 46bd 6618 5d3d
00000360: 1813 7dbd bbc6 39bd aef6 aabc a07f 23bd
00000370: 5e5a b1bd 8c3d 1cbd 0608 54bc e882 28be
00000380: db85 3e3c 7cd1 bbbc f97a 0fbd e581 7fbd
00000390: af6e 5fbd 13cc b3bc ca5b bdbd 40ef 383d
000003a0: c14c 193b bc17 613c 9e1f aebd 74db 883b
000003b0: 6618 dbbc 2570 e4bd 104d 52ba 5109 02bd
000003c0: 9546 c1bc ff5a 263d 30ad b6bc 3498 22bb
000003d0: a2b0 a9bd 52f5 c8bd 6bd9 30bb 08b8 8cbd
000003e0: a808 d3bd 46c7 7fbc d833 efbc 341b e0bd
000003f0: 4f96 c33c 9fbe 70bd 6187 eabd 5e43 f0bd

network.4.weight f4 [128, 512]
-0.08772363 -0.01806781 -0.061041437 -0.07854832 0.034761716 -0.092210196 -0.06586049 0.03227109
-0.021646818 -0.045773733 0.034952488 -0.022211963 0.037556496 -0.010954246 -0.009613935 -0.029407293
-0.0022492185 0.013408978 -0.06259404 0.039938282 0.038133744 -0.034678698 0.014496628 0.022000272
-0.028030256 0.009783842 0.0164074 -0.027594646 -0.017945755 -0.08839842 -0.094999306 -0.01673174
0.005887784 -0.013193034 -0.026314512 -0.012847956 -0.034782078 0.0068203285 -0.018493222 0.0011234507
0.024886373 -0.034328375 0.021054681 -0.052790016 0.007318899 0.00801757 -0.07127003 -0.08378855
-0.027558733 -0.026945798 0.03226458 -0.013648283 -0.031113649 0.039929647 -0.044830527 -0.093565844
-0.035710994 0.03420793 -0.008884892 -0.026353981 -0.011216888 0.032734174 -0.027170898 0.0008526668
0.04047228 -0.030145897 -0.032642595 -0.0007844493 -0.07088998 -0.0095479 -0.024467284 0.03233609
-0.05504563 -0.064221434 -0.023603125 -0.007905364 -0.021039126 0.013029326 -0.04251816 -0.040872227
0.04212155 0.033257548 0.018514324 -0.044469003 0.044036154 -0.03075748 -0.046128243 0.006079361
-0.086854674 0.039419103 -0.06476105 0.011820346 -0.039432704 -0.097944394 0.027840104 -0.016804222
-0.0013482086 -0.016621968 -0.055457607 0.03760734 -0.02762323 0.008810852 -0.027115975 0.008196931
-0.09515042 -0.026219048 -0.025796331 -0.06474864 -0.08792579 -0.033197373 -0.005572278 -0.031819254
-0.050386805 -0.0003992431 0.016980827 -0.020356627 0.014012706 -0.0906204 -0.024058063 -0.049838003
-0.08509866 -0.08063876 0.043076452 -0.0032945387 -0.049248036 0.030209798 -0.04540638 -0.018082725
-0.04811615 -0.013438918 0.023583662 -0.011356927 -0.093531884 0.0030166768 -0.011097517 0.00026800483
-0.0069194436 0.032936398 -0.0016768277 0.019364204 0.018052023 -0.086532645 0.015716422 -0.013220828
-0.040201925 -0.016139023 -0.065368 0.012484722 -0.045007456 0.013910294 0.0031473786 -0.095588885
-0.0029119365 0.028109673 -0.013390107 -0.036738526 -0.053448193 -0.0101141 -0.031472735 -0.029913973
-0.0737474 -0.020483753 -0.09636962 -0.029320203 -0.024927247 0.007013887 -0.034179818 -0.013886862
-0.0820314 0.041085627 0.0075334758 0.025971148 0.0004508607 -0.08102704 -0.07138999 -0.06541856
0.013006143 -0.023111168 -0.079808176 0.043936204 0.036539275 0.0127845295 0.021728631 0.018585797
0.033943605 -0.017415047 -0.0022901855 0.04243208 -0.09624234 -0.019547602 -0.07296019 -0.054122224
0.033692207 -0.017134514 -0.026090885 0.02577516 -0.0014749393 0.0046702065 0.034020137 -0.015104188
-0.02778602 -0.091967545 -0.06322126 0.017933074 -0.05879721 -0.0051322654 -0.0369993 0.023214366
-0.00742317 -0.029077325 0.027605634 -0.034163408 -0.026688669 -0.01565264 -0.042172108 0.03562699
-0.011482488 -0.04441521 0.036721844 -0.0126913525 -0.027328279 0.007216595 0.02354272 -0.024614792
-0.039270103 -0.004352942 0.00013142452 0.03397085 0.008538231 -0.05113084 0.041521113 0.0004982017
-0.06777748 -0.0015539788 -0.001533322 -0.061567105 -0.012166548 0.014235362 0.017798599 -0.036184974
0.036252696 0.027949553 -0.014307337 0.019870471 -0.04100686 0.017188508 -0.040788967 -0.03300385
-0.0046751164 -0.040865567 -0.015736828 -0.08925351 -0.040092085 -0.039048903 -0.05512197 -0.026910499
00000000: 72a8 b3bd f202 94bc 9606 7abd f1dd a0bd
00000010: 4d62 0e3d b3d8 bcbd dde1 86bd b12e 043d
00000020: ab54 b1bc 3d7d 3bbd 572a 0f3d ddf5 b5bc
00000030: d7d4 193d 7079 33bc c483 1dbc 90e7 f0bc
00000040: a067 13bb 54b1 5b3c 4e31 80bd 5396 233d
00000050: 2132 1c3d 400b 0ebd 4483 6d3c ea39 b43c
00000060: b59f e5bc 684c 203c d068 863c 2b0e e2bc
00000070: fa02 93bc 3b0a b5bd ff8e c2bd 0111 89bc
00000080: 50ee c03b 9827 58bc 8891 d7bc 3c80 52bc
00000090: a777 0ebd 107d df3b 197f 97bc c040 933a
000000a0: 82de cb3c e99b 0cbd de7a ac3c 583a 58bd
000000b0: 60d3 ef3b 205c 033c 06f6 91bd 5599 abbd
000000c0: dac2 e1bc 6fbd dcbc dd27 043d 0c9d 5fbc
000000d0: 0de2 febc 458d 233d 37a0 37bd 739f bfbd
000000e0: b145 12bd 9d1d 0c3d f091 11bc 4ee4 d7bc
000000f0: 0ac7 37bc 4514 063d 8195 debc 8085 5f3a
00000100: 43c6 253d 87f4 f6bc 3eb4 05bd 80a3 4dba
00000110: c42e 91bd cc6e 1cbc 9d6f c8bc d972 043d
00000120: 8777 61bd 8786 83bd 575b c1bc 8085 01bc
00000130: 3f5a acbc f478 553c 8627 2ebd a369 27bd
00000140: a587 2c3d 1139 083d 5aab 973c 2125 36bd
00000150: 415f 343d 1cf7 fbbc f8f0 3cbd 6035 c73b
00000160: dde0 b1bd ed75 213d 71a1 84bd 20aa 413c
00000170: 3084 21bd 1297 c8bd ee10 e43c 02a9 89bc
00000180: 60b6 b0ba cb2a 88bc 8427 63bd 270a 1a3d
00000190: 1d4a e2bc 645b 103c 5222 debc 6c4c 063c
000001a0: 39de c2bd 54c9 d6bc d452 d3bc ef9a 84bd
000001b0: 7012 b4bd f8f9 07bd a897 b6bb e854 02bd
000001c0: 6562 4ebd 8051 d1b9 601b 8b3c f1c2 a6bc
000001d0: 8c95 653c 3097 b9bd 6a15 c5bc ef22 4cbd
000001e0: 3548 aebd ef25 a5bd ef70 303d 30e9 57bb
000001f0: 4fb8 49bd 8a7a f73c 0afc 39bd 3922 94bc
00000200: 7115 45bd e82e 5cbc 8632 c13c 6812 3abc
00000210: a58d bfbd 70b3 453b 5cd2 35bc 0083 8c39
00000220: 80bc e2bb 51e8 063d 00c9 dbba aea1 9e3c
00000230: d6e1 933c 0738 b1bd babf 803c 2c9c 58bc
00000240: c6aa 24bd fc35 84bc a8df 85bd b88c 4c3c
00000250: bd59 38bd 00e8 633c 4044 4e3b 1bc4 c3bd
00000260: 30d6 3ebb 4246 e63c 2e62 5bbc 237b 16bd
00000270: 7eec 5abd 9cb5 25bc 8ee9 00bd 260e f5bc
00000280: e008 97bd 8bcd a7bc 6f5d c5bd ec30 f0bc
00000290: 3a34 ccbc c0d4 e53b 2300 0cbd b985 63bc
000002a0: 1400 a8bd 6749 283d 60db f63b 72c1 d43c
000002b0: 8061 ec39 81f1 a5bd ea34 92bd 2afa 85bd
000002c0: b817 553c a253 bdbc 7872 a3bd 73f6 333d
000002d0: 35aa 153d 3476 513c 3e00 b23c 3e41 983c
000002e0: 7308 0b3d 00aa 8ebc f016 16bb 43cd 2d3d
000002f0: b41a c5bd 4b22 a0bc 276c 95bd 44af 5dbd
00000300: d700 0a3d ae5d 8cbc 8dbc d5bc 6e26 d33c
00000310: c052 c1ba 8808 993b b358 0b3d 8e77 77bc
00000320: 829f e3bc 7b59 bcbd 267a 81bd 62e8 923c
00000330: 58d5 70bd 902c a8bb 948c 17bd 0e2c be3c
00000340: 103e f3bb 9233 eebc 3625 e23c eeee 0bbd
00000350: 32a2 dabc f739 80bc a9bc 2cbd 9bed 113d
00000360: 0c21 3cbc b9ec 35bd a569 163d 64ef 4fbc
00000370: 8edf dfbc 3079 ec3b aadc c03c f6a4 c9bc
00000380: b0d9 20bd 20a3 8ebb 00cf 0939 0525 0b3d
00000390: f0e3 0b3c 926e 51bd 0b12 2a3d c099 023a
000003a0: ebce 8abd e0ae cbba c0f9 c8ba ca2d 7cbd
000003b0: 3356 47bc 703b 693c 5ece 913c b236 14bd
000003c0: b57d 143d 76f6 e43c 5269 6abc 66c7 a23c
000003d0: cff6 27bd eace 8c3c 5512 27bd 0c2f 07bd
000003e0: b831 99bb a762 27bd 85ea 80bc 8bca b6bd
000003f0: 9937 24bd bef1 1fbd 93c7 61bd 6873 dcbc

network.4.bias f4 [128]
-0.08103918 -0.088211045 -0.12768498 -0.0067885956 -0.08278971 -0.08936464 -0.088174954 -0.12536214
-0.020681923 -0.07816008 -0.13904993 -0.05711642 -0.0708725 -0.089805216 0.10385475 -0.0848358
-0.18339479 -0.08051222 -0.05560284 0.0016692355 -0.15074292 -0.0652429 0.025428439 -0.068476014
-0.12160032 -0.07292628 -0.08545919 -0.07482384 0.019157663 -0.021572968 -0.08739127 -0.03929545
-0.032136165 -0.05459453 -0.060530547 0.0318586 -0.08263632 -0.028894026 -0.02935787 -0.028556854
-0.03042881 -0.11815018 -0.116520815 -0.06662254 -0.07248961 -0.0595507 -0.10398861 -0.05111648
-0.09922046 0.05072816 -0.07682703 -0.17026752 -0.069657385 0.0688417 -0.1152838 -0.096300796
-0.05912125 -0.12975484 -0.051609438 -0.057441294 0.09915297 -0.08692562 -0.023278192 -0.0910163
-0.09488361 -0.07444773 0.004316127 -0.073299766 -0.13538423 -0.056824833 -0.06360636 -0.054414332
-0.050235268 -0.07978973 -0.09320394 -0.04985607 -0.06643284 -0.071869045 -0.034016896 -0.08742255
-0.034490924 -0.061369855 -0.10206589 -0.041954733 -0.18862517 -0.05324627 -0.091963924 0.05898964
-0.05760935 -0.15108871 -0.08082092 -0.034215074 0.030508071 -0.036954615 -0.058239732 -0.042885166
-0.05178757 -0.01126135 -0.11861085 -0.005610914 -0.003781639 0.05689629 -0.101683736 -0.122086614
-0.09570904 0.00011370613 -0.037942927 -0.031818304 -0.0027127974 -0.018983517 -0.00022177992 -0.066125676
-0.061262053 0.030999837 0.06844139 -0.011265488 -0.066125244 -0.08596393 -0.02390659 -0.07860206
-0.10837682 -0.008644232 -0.009636462 -0.067812204 -0.039772775 -0.042137496 -0.11328546 -0.05097455
00000000: dff7 a5bd fea7 b4bd dabf 02be de72 debb
00000010: a78d a9bd cf04 b7bd 1295 b4bd ef5e 00be
00000020: 236d a9bc 6412 a0bd 1b63 0ebe e8f2 69bd
00000030: 9a25 91bd cceb b7bd cdb1 d43d 64be adbd
00000040: d8cb 3bbe 97e3 a4bd cebf 63bd 40ca da3a
00000050: 5a5c 1abe 129e 85bd 4d4f d03c 273d 8cbd
00000060: 9709 f9bd 605a 95bd 3a05 afbd 3e3d 99bd
00000070: 88f0 9c3c cbb9 b0bc 32fa b2bd 44f4 20bd
00000080: 36a1 03bd 849e 5fbd e1ee 77bd 2a7e 023d
00000090: 3b3d a9bd 2ab3 ecbc ea7f f0bc 10f0 e9bc
000000a0: d745 f9bc b9f8 f1bd 77a2 eebd 6671 88bd
000000b0: 6f75 94bd 6feb 73bd fbf7 d4bd 845f 51bd
000000c0: 1934 cbbd 55c8 4f3d 7d57 9dbd 9c5a 2ebe
000000d0: 88a8 8ebd e1fc 8c3d ea19 ecbd 5a39 c5bd
000000e0: 2029 72bd 74de 04be 6b64 53bd 9047 6bbd
000000f0: b610 cb3d 0f06 b2bd e8b1 bebc c166 babd
00000100: 5752 c2bd 0d78 98bd 4c6e 8d3b 301e 96bd
00000110: 2aa2 0abe 28c1 68bd 0d44 82bd 90e1 5ebd
00000120: 7fc3 4dbd cc68 a3bd b5e1 bebd e135 4cbd
00000130: f10d 88bd 1430 93bd 4d55 0bbd 980a b3bd
00000140: 5b46 0dbd f55e 7bbd ec07 d1bd bad8 2bbd
00000150: f526 41be c318 5abd 9557 bcbd 1f9f 713d
00000160: c8f7 6bbd 00b7 1abe 7085 a5bd 1b25 0cbd
00000170: 10ec f93c b95d 17bd c98c 6ebd 5ba8 2fbd
00000180: 341f 54bd 8681 38bc 3fea f2bd c2db b7bb
00000190: 60d5 77bb 160c 693d 903f d0bd 8c08 fabd
000001a0: 1a03 c4bd 8475 ee38 0b6a 1bbd e953 02bd
000001b0: 30c9 31bb 5283 9bbc 988d 68b9 e66c 87bd
000001c0: ebed 7abd 5ff3 fd3c 002b 8c3d e292 38bc
000001d0: ac6c 87bd db0d b0bd c1d7 c3bc 1efa a0bd
000001e0: abf4 ddbd 89a0 0dbc 40e2 1dbc 20e1 8abd
000001f0: c7e8 22bd 5e98 2cbd 3502 e8bd b1ca 50bd

network.6.weight f4 [12, 128]
-0.02765957 -0.009069692 -0.0025528222 -0.017556977 0.0013514825 0.07305462 -0.033389427 0.15193582
0.027463762 0.035381824 0.015542477 0.11203753 0.05215597 0.14386553 -0.1054359 0.102652065
0.08299807 0.03794215 0.07564652 -0.09722054 0.070994034 0.10889941 -0.04465392 -0.023737513
0.0013427198 0.07782859 -0.0009798058 -0.034170292 0.034473587 -0.035709746 0.14279662 -0.0077267517
0.028021514 0.15344143 0.060086768 0.015797338 0.053186975 0.0887153 0.010105639 0.0427886
-0.030215856 -0.03274171 0.07176046 0.009287751 0.099492416 0.026328214 -0.1299982 -0.011077224
-0.01972369 0.0860942 0.059513126 0.047014456 0.005060469 -0.09523946 0.061398678 -0.04641407
0.1391208 0.1716586 0.050454557 0.011915904 -0.05723254 0.06501917 -0.0135648 -0.01523985
0.034658704 0.08707534 0.02531089 0.1008867 0.018421184 0.046586186 0.05335117 -0.064383924
0.07559131 -0.031772252 -0.009930254 -0.020288335 -0.06299874 -0.1162964 -0.04490654 0.053568274
0.2050832 0.0059690936 -0.010777449 0.016110912 8.219495e-05 0.08455237 -0.06213972 -0.056021027
0.06671566 -0.030240942 -0.074456766 0.035447046 -0.047714077 0.14536944 0.028959678 -0.0448942
-0.0154923685 -0.121356666 0.009699618 -0.06514956 0.064828396 -0.067540355 0.104574956 -0.07011279
0.07445732 0.0574687 0.0014917774 0.004982943 0.027283346 0.08860513 0.09835637 0.07777689
0.0977546 0.018000916 -0.08385086 0.04138199 0.0052209944 0.102693975 0.0039152564 0.017786223
0.16541108 -0.040965546 0.005639471 -0.052446835 0.016351841 0.09775944 -0.0072371806 0.005097201
0.027031893 -0.0003932056 0.07054786 -0.08934264 0.02668861 0.0013139739 0.12341452 0.09411434
-0.02842795 -0.0016221788 -0.08556462 0.101435356 -0.0039534466 -0.048720855 -0.09723873 0.041426416
0.018220732 0.0022488143 0.1396802 0.010696806 -0.14393556 0.05595601 0.063870884 -0.010939376
-0.10402975 0.10208919 0.037745107 0.06327264 -0.013741582 0.11101857 0.11210604 -0.054378886
-0.049718115 0.12815467 -0.0077943145 0.041811023 -0.07159152 -0.014352503 0.037158974 0.03399216
0.007219991 -0.04088429 0.06735041 -0.026512854 0.12598912 0.023971736 0.13262524 0.15003228
0.08610893 -0.10323395 0.02867573 -0.045636274 0.0075563043 0.014852325 0.0755381 -0.024546467
-0.07463337 -0.011847924 -0.05012196 0.096333295 0.08250173 -0.009908646 -0.009298758 -0.096648075
-0.14567083 -0.091439284 -0.036260575 0.1353934 -0.013492424 -0.00013930726 -0.022851052 -0.085972875
0.06825233 0.07323489 -0.0043415944 -0.04149663 0.091888025 -0.00071991235 0.08698685 0.027843341
-0.022666737 -0.015865443 -0.12907045 -0.034195755 0.02647384 0.063764445 -0.041054733 0.082601696
0.07184332 0.0010448627 0.017602291 0.03920273 0.025297137 -0.10060608 -0.04546897 0.13471459
-0.0065028225 -0.02717299 0.062259734 -0.015564201 -0.033828028 -0.008239702 0.0021656991 0.04856044
0.09436747 0.016317261 0.006270404 -0.052092534 0.020596556 -0.056838132 -0.12576824 0.009705172
-0.051967625 0.036530875 0.10527725 -0.017786669 0.0255441 -0.0018752043 -0.119831465 0.06415028
-0.08860755 0.06998667 -0.045482475 -0.0140078515 0.010301548 -0.08287872 0.007741003 0.13943547
00000000: 5396 e2bc 0c99 14bc 404d 27bb a6d3 8fbc
00000010: 3a24 b13a a99d 953d 5ac3 08bd 1095 1b3e
00000020: affb e03c 88ec 103d e0a5 7e3c ef73 e53d
00000030: 80a1 553d 7c51 133e c7ee d7bd 3f3b d23d
00000040: e4fa a93d 3a69 1b3d 90ec 9a3d 901b c7bd
00000050: 5265 913d a706 df3d 07e7 36bd 2c75 c2bc
00000060: 33fe af3a 9964 9f3d d46c 80ba 26f6 0bbd
00000070: 2d34 0d3d 6244 12bd 4739 123e b130 fdbb
00000080: 608d e53c c01f 1d3e 8b1d 763d 6b69 813c
00000090: 96da 593d 5eb0 b53d 1f92 253c 1943 2f3d
000000a0: 3e87 f7bc 2c1c 06bd 26f7 923d a72b 183c
000000b0: aec2 cb3d 44ae d73c 401e 05be 3f7d 35bc
000000c0: 9393 a1bc 2852 b03d 09c4 733d 3b92 403d
000000d0: 4ad2 a53b e80c c3bd 2e7d 7b3d ae1c 3ebd
000000e0: af75 0e3e 46c7 2f3e 70a9 4e3d ec3a 433c
000000f0: ab6c 6abd c528 853d e53e 5ebc 90b0 79bc
00000100: 49f6 0d3d 8e54 b23d c958 cf3c b09d ce3d
00000110: 06e8 963c 28d1 3e3d c286 5a3d b8db 83bd
00000120: 9ecf 9a3d 9f23 02bd 81b2 22bc b933 a6bc
00000130: 7c05 81bd cf2c eebd ecef 37bd 686a 5b3d
00000140: 5501 523e 6398 c33b e693 30bc 08fb 833c
00000150: 1460 ac38 cb29 ad3d 3886 7ebd 4e76 65bd
00000160: 38a2 883d dabb f7bc ca7c 98bd ec30 113d
00000170: d66f 43bd badb 143e d93c ed3c fbe2 37bd
00000180: b4d3 7dbc d889 f8bd 26eb 1e3c 226d 85bd
00000190: c0c4 843d 9952 8abd 652b d63d 4b97 8fbd
000001a0: 147d 983d 4d64 6b3d be87 c33a f547 a33b
000001b0: 5381 df3c 9b76 b53d 116f c93d 7d49 9f3d
000001c0: 9033 c83d a876 933c 00ba abbd 2980 293d
000001d0: e014 ab3b 3851 d23d 8d4b 803b 6ab4 913c
000001e0: 8661 293e 7dcb 27bd 50cb b83b 7ed2 56bd
000001f0: 4cf4 853c 1a36 c83d df25 edbb 6c06 a73b
00000200: fd71 dd3c 2a27 ceb9 657b 903d 46f9 b6bd
00000210: 12a2 da3c a639 ac3a c0c0 fc3d 05bf c03d
00000220: bbe1 e8bc 4a9f d4ba 813c afbd 57bd cf3d
00000230: ea8b 81bb 858f 47bd 1925 c7bd bfae 293d
00000240: a543 953c d860 133b 5408 0f3e a841 2f3c
00000250: d863 13be 2132 653d bdce 823d 123b 33bc
00000260: 8d0d d5bd 2314 d13d 9d9a 1a3d 1695 813d
00000270: 5f24 61bc b45d e33d da97 e53d 65bc 5ebd
00000280: 39a5 4bbd fa3a 033e 7367 ffbb 0942 2b3d
00000290: 939e 92bd c326 6bbc 0234 183d 5d3b 0b3d
000002a0: ad95 ec3b 4976 27bd 03ef 893d 7c31 d9bc
000002b0: 4b03 013e 6060 c43c e9ce 073e 10a2 193e
000002c0: e159 b03d 526c d3bd 5de9 ea3c 1aed 3abd
000002d0: e09a f73b 2b57 733c b8b3 9a3d ac15 c9bc
000002e0: 61d9 98bd cc1d 42bc af4c 4dbd 644a c53d
000002f0: abf6 a83d e057 22bc d159 18bc 6def c5bd
00000300: bc2a 15be 8544 bbbd f885 14bd 91a4 0a3e
00000310: 540f 5dbc 0213 12b9 2132 bbbc 8c12 b0bd
00000320: e1c7 8b3d 2dfc 953d ef43 8ebb 5ff8 29bd
00000330: ca2f bc3d 80b8 3cba 2926 b23d b817 e43c
00000340: 98af b9bc 3ff8 81bc 0b2b 04be d910 0cbd
00000350: abdf d83c ef96 823d 0229 28bd 142b a93d
00000360: 9722 933d c6f3 883a ae32 903c 0b93 203d
00000370: f13b cf3c 8f0a cebd ac3d 3abd 9ff2 093e
00000380: a115 d5bb e499 debc 1004 7f3d fe00 7fbc
00000390: 428f 0abd d1ff 06bc 67ee 0d3b 50e7 463d
000003a0: bb43 c13d c7ab 853c f677 cd3b fb5e 55bd
000003b0: 1cba a83c 1acf 68bd 64c9 00be 7102 1f3c
000003c0: 01dc 54bd 66a1 153d 999b d73d 59b5 91bc
000003d0: dc41 d13c 6ac9 f5ba 336a f5bd 3961 833d
000003e0: e077 b5bd 2c55 8f3d d54b 3abd 3081 65bc
000003f0: d3c7 283c 51bc a9bd 3da8 fd3b 2cc8 0e3e

network.6.bias f4 [12]
0.014036423 -0.03626004 0.04401614 0.057640824 -0.11311975 0.13416874 0.16258201 -0.009932902
-0.056207996 -0.05609709 0.089786544 0.026362335
00000000: 06f9 653c 6885 14bd 454a 343d c918 6c3d
00000010: 54ab e7bd 8863 093e e67b 263e 9cbd 22bc
00000020: 5b3a 66bd 10c6 65bd 02e2 b73d d3f5 d73c
