model/DQNAgent2_20-08-2022__23-31-43.pth/DQNAgent2_20-08-2022__23-31-43_iter_30.pth (torch, 826191 bytes, 8 tensors)

network.0.weight f4 [256, 27]
0	0x3def755e	0.11692308
1	0xbdf31cde	-0.1187074
2	0xbc823328	-0.015893534
3	0xbd9731a9	-0.07382519
4	0x3e1ed969	0.15512623
5	0x3e3c614d	0.18396492
6	0x3df25d5e	0.11834215
7	0x3e3fdc27	0.18736325
8	0xbdc737dd	-0.09727452
9	0xbe25b654	-0.16182834
10	0xbcc980d0	-0.024597555
11	0xbd206094	-0.039154604
12	0xbd87d28a	-0.06631954
13	0xbd8fe9e0	-0.0702703
14	0xbd254d7c	-0.040357098
15	0xbe43ef66	-0.19134292
16	0xbe346d0b	-0.17619722
17	0x3dd5a316	0.10431497
18	0xbe416d44	-0.18889338
19	0x3dbeb666	0.093121335
20	0xbd4735b4	-0.0486352
21	0x3e205f19	0.15661277
22	0xbda6ecaa	-0.08150609
23	0xbdea7f67	-0.11450081
24	0xbded3934	-0.11583176
25	0x3cd7fcc0	0.026365638
26	0xbde8fc31	-0.11376227
27	0xbd5a9c14	-0.053371504
28	0xbe1a2604	-0.15053564
29	0x3e169c61	0.14708091
30	0x3d6d15fc	0.057882294
31	0xbe03365f	-0.1281371
32	0xbdd45c91	-0.10369218
33	0x3d5fd5cc	0.054647252
34	0x3d103468	0.03520623
35	0xbdb1f691	-0.08689607
36	0xbe1290dd	-0.14313073
37	0xbdbf2b9a	-0.09334488
38	0xbe375be3	-0.17906146
39	0x3c4b7230	0.012417361
40	0x3badd680	0.0053051114
41	0xbe36471f	-0.17800568
42	0x3e3b055b	0.18263762
43	0x3cf0fca8	0.02941735
44	0xbe05794c	-0.13034552
45	0xbda8b2c0	-0.08237219
46	0xbdc96825	-0.09834317
47	0x3e2f8635	0.1714104
48	0xbd1a98ec	-0.037743494
49	0x3c8da5e0	0.01729101
50	0xbda8e2bb	-0.082463704
51	0xbe1ccc16	-0.15312228
52	0xbe2d46cc	-0.16921538
53	0xbd9b427a	-0.07581039
54	0xbe2120c7	-0.1573516
55	0x3d0ee7ea	0.03488914
56	0xbc8c1355	-0.017099062
57	0xbe38c4ce	-0.18043825
58	0xbe081d16	-0.13292345
59	0xbcc579f8	-0.02410601
60	0x3d2c4232	0.042055316
61	0x3d975414	0.073890835
62	0xbe23bf61	-0.15990974
63	0xbb4792fb	-0.0030452597
64	0xbe2df5fd	-0.16988368
65	0xbe19db9a	-0.15025178
66	0x3d747dbe	0.05969023
67	0xbe15c8d5	-0.14627393
68	0x3df04b6f	0.11733138
69	0xbdee5b11	-0.11638463
70	0xbc5070ba	-0.012722189
71	0x3dfddc1e	0.123955
72	0xbd14d07d	-0.036331642
73	0xbd54a290	-0.051912844
74	0x3d8e5d8e	0.06951438
75	0xbe2af660	-0.16695547
76	0xbd3f1464	-0.046650305
77	0x3e2aa28b	0.16663568
78	0xbe0a0140	-0.1347704
79	0xbd2b9a68	-0.0418953
80	0x3dcd7fb2	0.100341216
81	0xbd8ff5c2	-0.070292965
82	0xbda84ccc	-0.08217773
83	0x3e0607b5	0.13088877
84	0x3dcf804e	0.10131894
85	0xbe1453cb	-0.1448509
86	0xbe45d92f	-0.1932113
87	0xbe3e7de8	-0.18602717
88	0xbe67aabc	-0.22623724
89	0xbe5e8898	-0.21731794
90	0xbca9c738	-0.020724878
91	0x3db05cc0	0.08611441
92	0xbe007eb9	-0.12548341
93	0xbe2c9fb7	-0.16857801
94	0xbe5f7699	-0.21822585
95	0x3defe010	0.117126584
96	0x3cd19d73	0.025587773
97	0xbe67c236	-0.2263268
98	0x3e0bcf1d	0.13653226
99	0x3d562afc	0.052287087
100	0x3de37c1a	0.11107655
101	0xbe2ac4f0	-0.16676688
102	0x3dc0a1f6	0.094058916
103	0x3d8f3c56	0.0699393
104	0x3e04344f	0.12910579
105	0x3d53ed24	0.051739827
106	0xbe28917d	-0.1646175
107	0x3dfdb052	0.12387146
108	0xbd48504f	-0.048904713
109	0xbd68b756	-0.056815468
110	0xbd9e3a00	-0.07725906
111	0xbd757491	-0.05992562
112	0x3d0465ac	0.032323524
113	0xbe9456b7	-0.28972408
114	0xbdab1f97	-0.08355635
115	0xbc172166	-0.009224271
116	0xbdee66be	-0.1164069
117	0xbd83ef09	-0.06442077
118	0xbd558f2b	-0.05213849
119	0xbe0f31a4	-0.1398378
120	0x3e14f992	0.14548329
121	0x3e4fb91a	0.20285454
122	0xbe4fab6a	-0.20280233
123	0xbe7d8f25	-0.24761637
124	0xbe165898	-0.14682233
125	0xbe41693d	-0.18887801
126	0xbc8bd24a	-0.017068047
127	0x3da0545e	0.07828592
128	0x3da4f1be	0.08053921
129	0x3e2613d3	0.162185
130	0x3d55692c	0.052102253
131	0x3c4905d0	0.012269452
132	0x3e6398f4	0.22226316
133	0x3c89d5e8	0.016825631
134	0xbda57703	-0.0807934
135	0x3dcdfd51	0.10058082
136	0x3deb8449	0.11499841
137	0x3bf47342	0.007460029
138	0x3d8582d2	0.065190926
139	0x3d6374ff	0.055531498
140	0x3c808f67	0.01569338
141	0xbdc50d66	-0.09621696
142	0xbcdd7790	-0.02703455
143	0x3d6ff821	0.058586244
144	0xbd29e13e	-0.041474573
145	0x3e070f1e	0.1318936
146	0xbdbce037	-0.09222453
147	0x3e23eae9	0.1600758
148	0xbdb5fbe8	-0.08885938
149	0x3de40871	0.111344226
150	0xbd96bec4	-0.073606044
151	0xbdb212f2	-0.0869502
152	0xbe3e211f	-0.18567322
153	0xbe6ca592	-0.23110035
154	0xbd99d39b	-0.07511064
155	0xbc5bf310	-0.01342465
156	0xbe024630	-0.12722087
157	0x3d46cfc8	0.048538
158	0x3d08216c	0.033235
159	0xbe0f1f80	-0.1397686
160	0x3e2318d5	0.15927441
161	0xbc8d52b0	-0.017251343
162	0x3d99bb6e	0.075064525
163	0x3cee5f11	0.029098066
164	0xbe73ffb7	-0.23828016
165	0x3d52e1be	0.051484816
166	0xbda8502c	-0.082184166
167	0x3df9707f	0.1217966
168	0xbe393ef6	-0.18090424
169	0xbe46aac1	-0.19401075
170	0xbd848909	-0.0647145
171	0x3d0c4a2f	0.034250434
172	0x3d3ce259	0.0461143
173	0xbe045589	-0.12923254
174	0x3d7b2a47	0.061319616
175	0xbd8d7eb2	-0.06908931
176	0xbe62362b	-0.22090976
177	0xbe15bd42	-0.14622977
178	0xbc67d862	-0.014150711
179	0x3da133a1	0.078711756
180	0xbd89f02b	-0.067352615
181	0xbe389bf2	-0.18028238
182	0x3da58516	0.08082025
183	0x3df2f6b6	0.118634626
184	0xbdc6d542	-0.097086444
185	0x3e08b7db	0.13351385
186	0xbde24845	-0.110489406
187	0xbe10c5b2	-0.14137915
188	0x3d4357d0	0.047691166
189	0xbe91ace2	-0.28452212
190	0x3e00224d	0.12513085
191	0xbe675f4e	-0.2259495
192	0x3c994479	0.018709408
193	0xbdc13c9c	-0.094353884
194	0xbdc29122	-0.09500338
195	0xbdd78bf1	-0.105247386
196	0xbd1ca592	-0.038243838
197	0x3d15c872	0.036568113
198	0xbe8a348f	-0.26993224
199	0xbe11483e	-0.14187714
200	0x3defb011	0.11703504
201	0xbe88b24d	-0.26698533
202	0xbe7d534d	-0.24738808
203	0xbdc514f3	-0.09623136
204	0xbe03c7ee	-0.12869236
205	0xbbbb5215	-0.005716572
206	0xbdfc5f64	-0.12322882
207	0xbc8b8c78	-0.017034754
208	0xbdda379b	-0.10655137
209	0xbcd53fae	-0.026031341
210	0x3d80d1e4	0.062900335
211	0x3dfa8946	0.12233214
212	0x3e331a15	0.17490418
213	0x3c94cd08	0.018164173
214	0x3df8a452	0.121407166
215	0x3b22d5c0	0.0024846643
216	0xbcd581c4	-0.026062854
217	0xbc58043a	-0.013184601
218	0xbe3606b5	-0.17775996
219	0xbe025a6f	-0.1272981
220	0xbc917428	-0.017755583
221	0x3dba97bd	0.09110973
222	0xbe639459	-0.22224559
223	0xbe3857fe	-0.18002316
224	0x3d9e0965	0.077166356
225	0xbe5f7ba8	-0.21824515
226	0xbd4f2fab	-0.05058257
227	0xbe6f2f72	-0.23357943
228	0xbdb595aa	-0.08866437
229	0xbe29b641	-0.1657343
230	0xbe8519a2	-0.2599612
231	0x3d51b8de	0.051201694
232	0x3bac18d4	0.005251983
233	0x3d9f5b55	0.07781092
234	0x3d159d6e	0.03652709
235	0x3cc623d8	0.024187014
236	0x3e1412f6	0.14460358
237	0xbe20fb2f	-0.15720819
238	0xbe28f82c	-0.1650092
239	0xbb8629a0	-0.0040943176
240	0xbe3c6375	-0.18397315
241	0x3c476a90	0.012171403
242	0xbd81fb2a	-0.06346734
243	0xbe61f3ca	-0.22065654
244	0x3dcdd93d	0.100512005
245	0x3d8ff511	0.070291646
246	0xbe1ca0aa	-0.15295663
247	0x3e0b091f	0.13577698
248	0x3d052013	0.03250129
249	0x3e3e2c66	0.18571624
250	0xbd628ac6	-0.055308126
251	0xbe2c2a3f	-0.1681299
252	0xbdb123fa	-0.0864944
253	0xbe6b00e7	-0.22949563
254	0xbe3c6f99	-0.18401946
255	0x3dea535d	0.114416815

network.0.bias f4 [256]
0	0xbe1b9cc0	-0.15196514
1	0x3e1d0879	0.15335263
2	0xbd082c6b	-0.033245485
3	0x3d80fb91	0.062979825
4	0xbe72226b	-0.23645942
5	0xbce55bca	-0.02799787
6	0xbc80ef3a	-0.015739072
7	0xbde7fd02	-0.11327554
8	0xbe399ab8	-0.18125427
9	0xbc943e72	-0.018096182
10	0x3c4d8340	0.0125434995
11	0xbddd6826	-0.1081088
12	0xbe79058d	-0.24318524
13	0xbd5964a2	-0.053074487
14	0x3da5c4a1	0.080941446
15	0xbe28f22b	-0.1649863
16	0xbe8a9b1b	-0.2707146
17	0xbdc000fc	-0.09375188
18	0xbe209caa	-0.15684763
19	0x3e1069b9	0.1410283
20	0xbc58e900	-0.013239145
21	0xbe9b797f	-0.30366132
22	0x3e3308ab	0.17483775
23	0xbd8ba1f4	-0.068179995
24	0x3da61977	0.08110326
25	0x3ccd51c8	0.02506341
26	0x3d0cc382	0.03436614
27	0x3e1f58f9	0.15561284
28	0x3dd833a0	0.10556722
29	0xbd9351dc	-0.07193348
30	0xbde053a4	-0.10953453
31	0x3e014669	0.12624516
32	0x3e26c891	0.16287448
33	0xbc96de7a	-0.018416632
34	0x3cbcc4b4	0.023043014
35	0xbdd3646c	-0.10321888
36	0xbcbc8786	-0.023013841
37	0x3ce4d5f8	0.02793406
38	0x3df44ed4	0.11929098
39	0x3e3df8ad	0.18551894
40	0x3d86bb61	0.065787084
41	0x3d175467	0.036945727
42	0xbe15af3d	-0.1461763
43	0xbd9f146d	-0.07767568
44	0xbdb52b00	-0.08846092
45	0x3e028f3f	0.12749957
46	0xbda425a5	-0.080149926
47	0xbe42e61c	-0.19033092
48	0x3be5cba4	0.0070128012
49	0x3deeb55e	0.11655687
50	0xbd7ba082	-0.06143237
51	0xbe2a370c	-0.16622561
52	0xbda337e7	-0.07969647
53	0xbdced6f5	-0.100995935
54	0xbe81a97e	-0.25324625
55	0xbe3cf0b2	-0.18451193
56	0x3ea05ddb	0.31321606
57	0x3bf43e28	0.0074536987
58	0xbd9be44f	-0.07611906
59	0x3c1664e6	0.0091793295
60	0xbde97f96	-0.11401288
61	0xbe6e3dd3	-0.23265772
62	0xbe61217e	-0.21985433
63	0x3d32330a	0.043505706
64	0xbd08075c	-0.033210143
65	0xbd97d350	-0.074133515
66	0xbe36f9ac	-0.1786868
67	0x3d92687a	0.071488336
68	0x3e07ce54	0.13262302
69	0xbd3c2aae	-0.04593914
70	0xbd97134e	-0.07376729
71	0xbdebb0aa	-0.11508305
72	0x3a9fdbb4	0.0012196214
73	0x3d99fb0e	0.07518588
74	0xbddbd0ec	-0.10733208
75	0xbe09ce7a	-0.13457671
76	0x3e020909	0.12698759
77	0x3e3cc8ff	0.18436049
78	0x3e08c364	0.13355786
79	0x3e0be12f	0.1366012
80	0xbd9dd9f3	-0.07707586
81	0xbe3b204c	-0.18274039
82	0x3c3c97e0	0.011510819
83	0xbe3693f3	-0.17829876
84	0xbe6ef6d9	-0.23336352
85	0x3d050674	0.032476857
86	0xbe6988fc	-0.22806162
87	0x3df72c19	0.12068958
88	0x3d8ce332	0.068792716
89	0x3c923b9c	0.01785069
90	0xbe8ed066	-0.2789337
91	0xbe48be04	-0.19603735
92	0xbe6c6b3b	-0.2308778
93	0xbe568c3c	-0.20951933
94	0xbcc461c8	-0.023972407
95	0xbe3a2b4f	-0.18180583
96	0xbdc5b0f7	-0.09652894
97	0x3b75c162	0.0037499298
98	0x3dd5d185	0.10440353
99	0xbe16b513	-0.14717512
100	0xbd026783	-0.031836998
101	0x3d9cb006	0.07650761
102	0xbe280a1d	-0.16410108
103	0xbd4b4101	-0.04962254
104	0x3dc224d6	0.09479682
105	0x3c259ba9	0.010107913
106	0xbd9d4066	-0.07678299
107	0xbe4d5946	-0.20053586
108	0x3d339908	0.043847114
109	0xbdc68ff9	-0.09695429
110	0xbd037189	-0.032090697
111	0xbdacc46c	-0.08435902
112	0xbea494cf	-0.32144782
113	0x3d995ec5	0.07488779
114	0xbe009a1b	-0.12558787
115	0x3da64401	0.081184395
116	0x3daf0dbb	0.08547541
117	0xb9df6cee	-0.00042615033
118	0xbc2ccf30	-0.010547444
119	0xbd9dcd1c	-0.07705137
120	0x3dc0ae62	0.09408261
121	0xbc8959e5	-0.016766498
122	0x3dd20bed	0.10256181
123	0x3c525fa0	0.012840182
124	0xbc804800	-0.015659332
125	0xbd70da1a	-0.058801748
126	0x3db0272f	0.08601224
127	0x3c6b3a7c	0.0143572055
128	0xbc9a3bed	-0.018827403
129	0xbbb80b43	-0.005616577
130	0x3d56907e	0.052383892
131	0x3d0ecfc0	0.034866095
132	0xbe087b3b	-0.13328259
133	0xbd2d1a98	-0.04226169
134	0xbd6d5b70	-0.05794853
135	0x3da9ca49	0.08290536
136	0xbcc21b4e	-0.02369466
137	0x3e284bc3	0.16435151
138	0xbe430c10	-0.1904757
139	0x3e1be003	0.15222172
140	0x3e3097f8	0.17245471
141	0xbd3275c8	-0.043569356
142	0x3d7d7f24	0.06188883
143	0x3a4265cc	0.00074156816
144	0xbde470bc	-0.11154315
145	0xbe4a9248	-0.19782364
146	0x3d82139d	0.06351397
147	0xbccba460	-0.024858654
148	0xbe4aa2c5	-0.19788654
149	0xbcc71369	-0.024301248
150	0x3d400a76	0.046884976
151	0xbd736f68	-0.059432417
152	0xbe3b2389	-0.18275274
153	0xbe13c551	-0.14430739
154	0x3cc97c13	0.024595296
155	0x3dbecaf6	0.093160555
156	0x3d3a6fed	0.045516897
157	0xbd4e09db	-0.050302368
158	0x3c1763c4	0.009240095
159	0xbdbbeee2	-0.09176423
160	0xbc884a73	-0.016637063
161	0xbcb7df08	-0.022445217
162	0xbe5d022d	-0.21582861
163	0x3e08ef11	0.13372447
164	0xbd36e3d0	-0.044650853
165	0xbe45e59f	-0.19325875
166	0x3dc7d4c5	0.097573794
167	0x3dc32926	0.09529333
168	0xbe7326a8	-0.23745215
169	0xbc31b390	-0.010846034
170	0x3d30e5f4	0.04318805
171	0x3ce78e95	0.02826623
172	0xbe602c38	-0.21891868
173	0x3b498506	0.0030749454
174	0xbd1d0750	-0.038337052
175	0xbdcb5b4d	-0.099295236
176	0xbe29da84	-0.16587263
177	0xbb486800	-0.0030579567
178	0xbe6581e9	-0.22412838
179	0x3e06fdc7	0.13182746
180	0x3e0df47a	0.13862792
181	0xbe2fcf50	-0.17168927
182	0xbcdf3c42	-0.027250413
183	0xbe4f0e05	-0.20220192
184	0xbe6e1568	-0.23250353
185	0xbdfb6462	-0.12275006
186	0xbe437397	-0.19087063
187	0xbe2ae519	-0.16688956
188	0xbc035a86	-0.008017188
189	0xbe2327b0	-0.15933108
190	0xbda76791	-0.081740506
191	0xbe1e5c87	-0.15464984
192	0xbe50cee0	-0.20391417
193	0xbe157caa	-0.14598337
194	0x3e09687b	0.13418762
195	0xbc022555	-0.007943471
196	0xbe3ed28a	-0.18635002
197	0xbe00db2a	-0.12583604
198	0xbdc718cd	-0.09721527
199	0xbcbc0392	-0.022950921
200	0x3c855ba0	0.016279042
201	0xbe32ea43	-0.17472176
202	0x3ce85071	0.02835867
203	0xbe7058b9	-0.23471345
204	0xbce987fd	-0.028507227
205	0xbe376ade	-0.1791186
206	0xbe079d57	-0.13243614
207	0x3c0791d2	0.008274512
208	0xbe21d6ad	-0.15804549
209	0xbe2a107a	-0.16607848
210	0xbdd15cb5	-0.102227606
211	0xbdd22a94	-0.102620274
212	0xbe443098	-0.19159162
213	0xbe4eb717	-0.2018703
214	0x3b391b2d	0.0028244958
215	0xbe2015b0	-0.15633273
216	0x3d048e32	0.03236217
217	0xbd2ad7cb	-0.041709702
218	0xbe4cbd4c	-0.19994086
219	0x3cb6af3e	0.022300359
220	0xbe69a956	-0.22818503
221	0xbd454794	-0.048163965
222	0xbe01d2c3	-0.12678055
223	0x3df5c9db	0.120013915
224	0x3dc300b4	0.095216185
225	0xbe6fc3ad	-0.23414488
226	0x3e44f877	0.19235407
227	0xbe3bf9a9	-0.18356957
228	0x3d6acd3e	0.05732464
229	0x3c1252f0	0.008930907
230	0xbd110be2	-0.035411723
231	0x3cf0a878	0.029377207
232	0xbe05741b	-0.13032572
233	0xbe2d654a	-0.1693317
234	0x3c039462	0.008030983
235	0xbd80decc	-0.06292495
236	0x3cb50150	0.022095352
237	0x3d112298	0.03543338
238	0x3dd3c4a8	0.103402436
239	0xbe5a9eda	-0.2134966
240	0xbc6bb9f2	-0.014387595
241	0xbda05a03	-0.078296684
242	0xbdc04a71	-0.093891986
243	0x3e3e949d	0.18611379
244	0x3d3607cb	0.044441026
245	0xbe6e083d	-0.2324533
246	0x3dfe20bf	0.124085896
247	0xbe2b3d6c	-0.1672265
248	0xbd867120	-0.06564546
249	0x3dbc9744	0.09208539
250	0x3da3888f	0.07985031
251	0xbd259f58	-0.040435165
252	0xbe512ce0	-0.20427275
253	0x3dc6169a	0.0967228
254	0xbce82932	-0.028339956
255	0xbe7a329f	-0.24433373

network.2.weight f4 [512, 256]
0	0x3d290dda	0.041272976
1	0xbd64023a	-0.055666186
2	0xbd389dc2	-0.045072325
3	0xbdc0248b	-0.0938197
4	0xbc019aa8	-0.007910408
5	0x3d316b31	0.043315116
6	0x3c9bb260	0.019005954
7	0x3e21bdd9	0.15795077
8	0xbcc4fa98	-0.024045274
9	0x3d9fff45	0.07812361
10	0xbda27cd9	-0.07933969
11	0xbd5e66ce	-0.05429726
12	0xbdcc35f7	-0.099712305
13	0xbcd00a37	-0.025395496
14	0xbd97660e	-0.07392512
15	0xbbf38d70	-0.007432632
16	0xbd600d06	-0.05469992
17	0x3a9e7840	0.0012090281
18	0xbc32c9db	-0.010912384
19	0x3cb3b420	0.021936476
20	0x3cb498c8	0.022045508
21	0xbcdfa078	-0.027298197
22	0x3ba59600	0.005053282
23	0xbd21f2c8	-0.039538175
24	0xbcbc4604	-0.022982605
25	0x3d671534	0.056416705
26	0xbdb0fb65	-0.086417
27	0x3d69a63e	0.057043307
28	0x3ad8ef33	0.0016550779
29	0x3c7c5617	0.015401385
30	0x3b14f7f9	0.002273081
31	0xbd7c5816	-0.061607443
32	0xbd6a0760	-0.05713594
33	0x3d2e5c58	0.042568535
34	0x3d786ecd	0.060652543
35	0xbd81ae51	-0.06332076
36	0xbd6019a1	-0.05471194
37	0xbd7d89ae	-0.06189888
38	0x3c143795	0.009046455
39	0x3b951460	0.004549548
40	0xbd4d9c78	-0.05019805
41	0xbdab43ce	-0.08362542
42	0x3c5d490b	0.013506184
43	0x3cd7546c	0.026285373
44	0x3da1b842	0.078964725
45	0x3c6e7ef0	0.014556631
46	0x3d56902e	0.052383594
47	0xbddbd175	-0.1073331
48	0x3c9804ac	0.018556915
49	0xbc938f13	-0.018012559
50	0xbc919730	-0.017772287
51	0xbb9c468c	-0.004769152
52	0x3d4ae98e	0.04953914
53	0xbd4ba77a	-0.049720265
54	0xbd0dce6f	-0.0346207
55	0xbce785bf	-0.028262017
56	0xbd791abf	-0.060816523
57	0xbd7e48f0	-0.062081277
58	0x3d077a80	0.03307581
59	0xbbb14024	-0.0054092575
60	0xbd3234ca	-0.043507375
61	0xbd10c3fe	-0.035343163
62	0x3ba8e730	0.005154513
63	0xbd17763a	-0.036977984
64	0xbcf3fc48	-0.029783383
65	0xbc21f452	-0.009884911
66	0x3ddc56a4	0.10758713
67	0xbcd4ad6c	-0.0259616
68	0x3e2698d2	0.16269234
69	0xbd72047d	-0.05908631
70	0x3d4ef6e0	0.050528407
71	0x3ca3697c	0.01994776
72	0xbd990d55	-0.07473246
73	0x3d4e81e6	0.05041685
74	0xbc30f8e0	-0.010801524
75	0xbd8be60c	-0.06830987
76	0xbdae88e4	-0.085222036
77	0xbceaa840	-0.028644681
78	0x3d5b596e	0.053552084
79	0x3d6b628c	0.05746703
80	0xbda61981	-0.08110333
81	0xbb0f064a	-0.0021823817
82	0x3d5c1a9a	0.053736307
83	0x3d08b2de	0.033373706
84	0x3aaabe00	0.0013026595
85	0x3aff3380	0.0019470304
86	0xbdcffcbd	-0.10155628
87	0xbc8c2c73	-0.017111039
88	0x3e05fada	0.13083974
89	0xbdae9f4f	-0.085264795
90	0x3c643088	0.013927586
91	0xbd4434d0	-0.04790193
92	0xbda28272	-0.07935037
93	0x3c104526	0.008805549
94	0x3a12ef80	0.0005605146
95	0x3b09f600	0.0021051168
96	0xbd8a321a	-0.06747837
97	0xbdb374c4	-0.08762506
98	0xbdbc3966	-0.091906354
99	0xbd5c6631	-0.053808395
100	0x3e405fb2	0.18786505
101	0x3d776fe6	0.06040945
102	0xbda6b4bb	-0.0813994
103	0xbd881974	-0.0664548
104	0xbc3f7688	-0.011685975
105	0x3c843700	0.016139507
106	0x3c04d778	0.008108012
107	0x3d6aba88	0.057306796
108	0xbc26bd28	-0.010176934
109	0xbd9c07fa	-0.07618709
110	0xbd547582	-0.051869877
111	0x3d34b39e	0.04411661
112	0x3c6125dc	0.013741937
113	0x3db5be14	0.08874145
114	0xbbcd7920	-0.0062705427
115	0x3e2c903d	0.16851898
116	0x3da69c52	0.081352845
117	0xbcf8f45c	-0.030389957
118	0x3d6f6aac	0.05845134
119	0xbd7e87d3	-0.06214125
120	0x3d2dbac0	0.042414427
121	0xbdce1a20	-0.10063577
122	0xbdd6c52d	-0.10486827
123	0xbd139594	-0.03603132
124	0x3c7837d8	0.015150033
125	0xbd6a4019	-0.057190035
126	0x3d8f0cbe	0.06984852
127	0xbcc7ba54	-0.02438084
128	0x3cbc652a	0.022997458
129	0xbd91074b	-0.07081469
130	0x3d77a0fa	0.060456254
131	0xbd243f80	-0.04009962
132	0xbdc3ca55	-0.09560076
133	0x3cbd83a4	0.02313406
134	0xbd3a2682	-0.04544688
135	0xbd4133fc	-0.047168717
136	0xbc2a8d40	-0.010409653
137	0xbd63be08	-0.05560115
138	0xbd38cb9d	-0.045116056
139	0xba795f80	-0.0009512827
140	0xbc5f15ff	-0.013616084
141	0x3d4d0e26	0.05006232
142	0xbd291bda	-0.041286327
143	0xbdd8e615	-0.1059076
144	0xbd64ed1b	-0.055890184
145	0xbdba7ad2	-0.09105457
146	0xbb4dbd59	-0.0031393378
147	0x3b2eb8a0	0.0026660338
148	0xbc4dc32a	-0.012558738
149	0x3c4bff81	0.012451054
150	0x3d717a7e	0.05895471
151	0x3d294b12	0.04133136
152	0x3d2a55cc	0.04158573
153	0x3c6dfec7	0.014526076
154	0x3daf06ca	0.08546217
155	0xbc43ede8	-0.011958577
156	0xbd143130	-0.03617972
157	0xbd806f20	-0.062711954
158	0xbbd6c0a0	-0.0065537244
159	0x3dbf0c2a	0.09328492
160	0xbcd1f486	-0.025629293
161	0xbc493138	-0.012279801
162	0xbce12dce	-0.027487662
163	0xbbf4daf0	-0.0074723884
164	0xbd46a8b0	-0.048500717
165	0x3ba53452	0.0050416375
166	0xbbdf74c9	-0.006819342
167	0xbdacf40c	-0.08444986
168	0x3de1abb1	0.11019076
169	0x3bdb79a4	0.0066978503
170	0xbd108a14	-0.03528793
171	0xbda69891	-0.081345685
172	0x3bd5eb7a	0.006528315
173	0xbda2ae15	-0.0794336
174	0x3c77fb7a	0.01513564
175	0x3c413180	0.011791587
176	0xbda017c0	-0.0781703
177	0x3cc58170	0.024109572
178	0xbd75a7c2	-0.05997444
179	0xbc6fd9f8	-0.01463937
180	0xbd2ad44f	-0.04170638
181	0xbca6a528	-0.020342425
182	0xbdc5a475	-0.09650508
183	0x3ddf0034	0.108887106
184	0xbcf760af	-0.03019747
185	0xbccecb5a	-0.02524345
186	0xbd3532dc	-0.044237956
187	0xbcf5aa24	-0.029988356
188	0xbcb46e02	-0.022025112
189	0x3c4a9998	0.012365721
190	0xbdd9c345	-0.10632948
191	0xbcac33f7	-0.021020873
192	0xbdaa654d	-0.08320103
193	0x3c6081f0	0.0137028545
194	0x3d7450ba	0.0596473
195	0xbd2d7742	-0.04235006
196	0xbb90dc7e	-0.004420816
197	0xbc82988c	-0.01594188
198	0xbb2c2360	-0.0026266202
199	0xbdc0cfe4	-0.09414652
200	0x3b2e04e0	0.0026553199
201	0x3ba13688	0.0049198307
202	0x3d349382	0.044085987
203	0xbdd7b5c9	-0.1053272
204	0xbd0588be	-0.03260111
205	0x3c42116e	0.011844976
206	0x3c381c98	0.011237286
207	0x3c0a22c8	0.008431144
208	0x3d9fa6e4	0.07795504
209	0xbba681b0	-0.005081378
210	0xbd66cf2f	-0.05634993
211	0x3c879da4	0.016554661
212	0xbc377158	-0.011196457
213	0xbd8072be	-0.06271885
214	0xbd0860a1	-0.033295278
215	0x3d004894	0.031319216
216	0xbce047a4	-0.02737791
217	0xbbc652d4	-0.0060523544
218	0xbcf49a77	-0.02985881
219	0xbd4f667c	-0.050634846
220	0x3ce451ac	0.027870975
221	0xbc60d37b	-0.013722296
222	0x3c2e3af6	0.010634175
223	0x3e0bce23	0.13652854
224	0x3d4a7daa	0.04943625
225	0xbd200c60	-0.0390743
226	0xbd7470b0	-0.05967778
227	0xbd846316	-0.06464212
228	0x3c62be60	0.013839334
229	0xbd2c1874	-0.042015508
230	0xbd1cf1a1	-0.038316373
231	0xbd142024	-0.036163464
232	0xbd90e854	-0.07075563
233	0xbd931871	-0.07182396
234	0xbbbcd4dc	-0.0057626795
235	0xbc9b48a0	-0.018955529
236	0x3aa6cd80	0.0012726039
237	0xbd78ba9a	-0.060724832
238	0x3c80b5fc	0.015711777
239	0xbda5c9b2	-0.08095111
240	0x3d79b4f4	0.060963586
241	0xbca59ed8	-0.020217344
242	0xbc4b7336	-0.012417605
243	0xbd9fc1d5	-0.078006424
244	0x3b654180	0.0034981668
245	0xbd64a11d	-0.055817712
246	0x3e259c8b	0.16172998
247	0x3cf28698	0.029605195
248	0xbd7e4c6a	-0.062084593
249	0xbd38b352	-0.04509289
250	0xbd64db87	-0.05587342
251	0xbcc1acc4	-0.023641951
252	0x37f33550	2.8992683e-05
253	0xbc051136	-0.008121779
254	0xbd9e2bf3	-0.077232264
255	0x3bde3480	0.006781161

network.2.bias f4 [512]
0	0xbdba014c	-0.090822786
1	0x3dc68f0d	0.096952535
2	0x3e0e4e2b	0.13897006
3	0xbd5af867	-0.05345955
4	0xbd903537	-0.070414
5	0xbd294197	-0.041322317
6	0xbd639f40	-0.055571795
7	0x3df903e0	0.12158942
8	0xbe018ead	-0.12652083
9	0xbd20110c	-0.039078757
10	0xbdc746bc	-0.097302884
11	0x3c9e654b	0.01933541
12	0xbe2920a8	-0.16516364
13	0xbcc21dd7	-0.02369587
14	0xbccac06c	-0.024749957
15	0xbddb81bb	-0.107181035
16	0xbd937bf6	-0.07201378
17	0xbe3f6dfe	-0.18694302
18	0xbc821418	-0.015878722
19	0xbe438a66	-0.19095764
20	0xbe1f0cf1	-0.1553228
21	0xbdd8356d	-0.10557065
22	0x3e14e7c1	0.14541532
23	0xbe1d582e	-0.15365669
24	0xbdebaca2	-0.115075365
25	0xbc31378a	-0.010816464
26	0xbda00fc8	-0.0781551
27	0xbdae1c33	-0.08501472
28	0xbdb8d8b6	-0.09025709
29	0xbcfdf309	-0.030999677
30	0xbd6a9e26	-0.05727973
31	0xbdc10dc3	-0.09426453
32	0xbd97f259	-0.07419271
33	0xbd70c547	-0.05878189
34	0xbc2482d8	-0.010040961
35	0xbb3b3345	-0.0028564495
36	0xbd595739	-0.053061698
37	0xbc2a7bbc	-0.010405477
38	0xbd711efa	-0.058867432
39	0xbe0c44f7	-0.13698183
40	0xbe4819ec	-0.19541138
41	0xbc48ccd0	-0.012255862
42	0xbd892d68	-0.06698114
43	0xbd7e8398	-0.062137216
44	0xbcabd18f	-0.020973949
45	0x3bae1e56	0.005313675
46	0xbd812830	-0.06306493
47	0xbd672606	-0.056432746
48	0xbcad942f	-0.021188824
49	0xbdc32519	-0.0952856
50	0xbbf4cfc8	-0.0074710585
51	0xbd8c84dd	-0.06861279
52	0xbd8674a0	-0.06565213
53	0x3e12156f	0.14265989
54	0xbcca65ec	-0.024706803
55	0xbc81716c	-0.015801154
56	0xbd889f71	-0.06671036
57	0xbdde7534	-0.108621985
58	0xbd9c5ab3	-0.07634487
59	0xbddc4659	-0.10755605
60	0xbda865b6	-0.08222525
61	0xbd3e1d29	-0.046414528
62	0xbe3ee196	-0.18640742
63	0xbe0ecbc0	-0.13944912
64	0xbd93c8b3	-0.07216015
65	0xbc67b9ea	-0.014143446
66	0xbe095e79	-0.13414945
67	0xbdf28bcb	-0.1184307
68	0xbdc2e23c	-0.09515807
69	0xbdeed760	-0.11662173
70	0x3d3d45c4	0.04620911
71	0xbdd2f4a7	-0.1030057
72	0xbd58bebd	-0.052916277
73	0xbb903405	-0.0044007325
74	0x3d9f6cfd	0.0778446
75	0xbdb3052d	-0.087412216
76	0xbde49baf	-0.11162507
77	0xbd203503	-0.039113056
78	0xbc2c6fee	-0.010524733
79	0xbd781c13	-0.06057365
80	0x3e0b541a	0.13606301
81	0xbdf9e674	-0.122021586
82	0xbb4ad324	-0.0030948604
83	0x3bda696c	0.0066653993
84	0xbd988d4c	-0.07448825
85	0x3dd91ac6	0.1060081
86	0xbdeb3c39	-0.11486096
87	0xbd4a2ace	-0.049357228
88	0xbd6293a4	-0.055316582
89	0xbd711cb4	-0.058865264
90	0xbe16f43b	-0.14741604
91	0xbdf4c5a3	-0.11951759
92	0xbd1862fc	-0.037203774
93	0xbda59f18	-0.08086985
94	0xbde48dec	-0.11159882
95	0xbcefcea6	-0.029273342
96	0xbdcaceb8	-0.0990271
97	0xbdb27c11	-0.0871507
98	0xbdd2fffe	-0.10302733
99	0xbd3d69c4	-0.046243444
100	0xbe348889	-0.17630209
101	0xbdf5f680	-0.12009907
102	0x3daf7fed	0.08569322
103	0xbe4248a5	-0.18973024
104	0x3e66be6b	0.22533576
105	0xbe180557	-0.14845787
106	0xbd4574c7	-0.04820707
107	0xbd68edf3	-0.05686755
108	0xbdb19b20	-0.08672166
109	0xbdcdfd91	-0.100581296
110	0xbe36a7f7	-0.17837511
111	0xbd320eae	-0.04347103
112	0x3c3dc611	0.011582867
113	0xbe44303c	-0.19159025
114	0x3cda262e	0.026629534
115	0xbd1862da	-0.037203647
116	0xbdccd402	-0.10001375
117	0xbdbbe8e2	-0.09175278
118	0xbd330ade	-0.043711536
119	0xbdd41183	-0.103549026
120	0x3dc0909e	0.094025835
121	0x3d8e02d5	0.06934134
122	0xbe676f9f	-0.22601174
123	0xbd92db92	-0.07170786
124	0xbd55df8b	-0.05221514
125	0xbdf0398f	-0.117297284
126	0xbd8fc0c2	-0.070191875
127	0xbdd16a32	-0.10225333
128	0xbdabd915	-0.083910145
129	0x3e66fc41	0.22557165
130	0xbcb44e68	-0.022010043
131	0xbe06deff	-0.13171004
132	0xbd067bb0	-0.0328328
133	0x3e938658	0.28813434
134	0xbe2d8ec8	-0.16948998
135	0xbd8d210e	-0.0689107
136	0xbdd28a25	-0.10280255
137	0xbdb39667	-0.08768921
138	0xbd82be60	-0.063839674
139	0x3e47c8a9	0.1951014
140	0xbcd872c3	-0.02642191
141	0xbcb1094b	-0.021610877
142	0xbd65d065	-0.056106944
143	0x3cdd5135	0.027016262
144	0xbe3c71da	-0.18402806
145	0xbddd8184	-0.10815719
146	0xbdc8cc05	-0.09804539
147	0xbcfc6b11	-0.030812772
148	0xbc464211	-0.012100712
149	0xbd447724	-0.047965184
150	0xbe43473d	-0.19070144
151	0xbb4b6f04	-0.0031041512
152	0xbd8de1bb	-0.0692782
153	0x3da1f37c	0.07907769
154	0xbe1dfa50	-0.15427518
155	0xbca1632f	-0.019700615
156	0xbd892e6d	-0.06698308
157	0xbcd3d2ec	-0.025857411
158	0xbcfd6980	-0.030934095
159	0xbe89af00	-0.26891327
160	0xbda0f735	-0.07859651
161	0xbc1dfb05	-0.009642367
162	0xbdbffdd7	-0.09374588
163	0xbd2a005f	-0.04150426
164	0xbcb0d3f7	-0.021585448
165	0xbc6f8475	-0.014618983
166	0xbe03d9cf	-0.12876056
167	0xbb1a11ed	-0.002350922
168	0xbde1fdf7	-0.11034768
169	0xbe531880	-0.20614815
170	0xbd7bf4c2	-0.061512716
171	0x3d1e1396	0.038592897
172	0xbcee02c7	-0.029054059
173	0xbd94e6b0	-0.07270563
174	0xbdde73be	-0.1086192
175	0xbd81cbfb	-0.06337734
176	0xbde10b3c	-0.10988471
177	0xbd8c54ac	-0.068520874
178	0xbc5a795d	-0.013334599
179	0xbd05dda6	-0.032682084
180	0xbe02381b	-0.12716715
181	0xbcf57914	-0.029964961
182	0xbe2302f2	-0.15919092
183	0xbddb4b76	-0.107077524
184	0xbe2ec4aa	-0.17067209
185	0xbe0ffa71	-0.1406038
186	0xbd7c777b	-0.061637383
187	0xbdfd447b	-0.12366577
188	0xbd192b44	-0.037394777
189	0xbe688f40	-0.22710896
190	0xbdadc3e2	-0.08484627
191	0x3b4b3d0e	0.0031011733
192	0xbd08b159	-0.033372257
193	0xbd70e539	-0.058812354
194	0xbc72f790	-0.014829531
195	0xbe62b2ce	-0.22138521
196	0x3e22d23b	0.15900509
197	0xbdbb32ee	-0.091405734
198	0xbcc9683a	-0.024585832
199	0xbd4fdb5a	-0.0507463
200	0xbd0f2bd5	-0.03495391
201	0xbd27e42d	-0.04098909
202	0xbde6f066	-0.11276321
203	0xbd7e4012	-0.06207282
204	0xbdc7b13b	-0.09750601
205	0x3d3cd177	0.0460982
206	0xbdb542a9	-0.08850605
207	0xbcba2975	-0.022724846
208	0x3e639cac	0.22227734
209	0xbe23149b	-0.15925829
210	0x3d6b8125	0.05749621
211	0xbd999c34	-0.075004965
212	0xbe08d3e9	-0.13362087
213	0xbdbb1687	-0.09135156
214	0xbe1fac34	-0.15593034
215	0xbe3edfc3	-0.18640046
216	0xbe3f6a06	-0.18692788
217	0xbd513b44	-0.05108191
218	0xbdc986b3	-0.09840145
219	0xbd32bf8f	-0.043639716
220	0xbdb20940	-0.086931705
221	0xbd4736c0	-0.048636198
222	0x3e076ae2	0.13224366
223	0xbe8c4a23	-0.27400312
224	0xbc40cda1	-0.011767776
225	0xbdbbabe5	-0.09163646
226	0xbe2e3c6f	-0.17015241
227	0xbe02955b	-0.12752287
228	0xbd9f447e	-0.07776736
229	0xbcc52cee	-0.024069276
230	0xbd86e336	-0.06586306
231	0xbd80ca20	-0.06288552
232	0x3afe63c9	0.00194084
233	0xbd01831f	-0.031619187
234	0xbdb98173	-0.090578936
235	0x3c63ec59	0.01391133
236	0xbcdeec87	-0.027212394
237	0xbde620fe	-0.112367615
238	0xba94e028	-0.0011358308
239	0xbd049978	-0.03237292
240	0xbb8299fa	-0.0039856406
241	0x3d9aaa52	0.07552017
242	0xbd0d6afd	-0.03452586
243	0x3dffbbd9	0.12487001
244	0xbdb23d62	-0.08703114
245	0xbdcbee13	-0.099575184
246	0x3db1606d	0.0866097
247	0xbd8e0017	-0.06933611
248	0xbdf95d38	-0.12175983
249	0xbc829f43	-0.015945083
250	0xbd8ab3ea	-0.06772597
251	0xbde0edf6	-0.109828874
252	0xbe2aec59	-0.16691722
253	0xbda41f8e	-0.08013831
254	0xbdeb53cd	-0.11490593
255	0xbdc2844c	-0.0949789

network.4.weight f4 [128, 512]
0	0xbdb46aa7	-0.08809405
1	0xbc970be9	-0.018438296
2	0xbd7b8b10	-0.061411917
3	0xbda1a026	-0.07891874
4	0x3d0e624d	0.034761716
5	0xbdbd9ae8	-0.09258062
6	0xbd87a412	-0.06623091
7	0x3d042eb1	0.03227109
8	0xbcb45da2	-0.022017304
9	0xbd3d01b7	-0.046144214
10	0x3d0f2a57	0.034952488
11	0xbcb5f5dd	-0.022211963
12	0x3d19d4d7	0.037556496
13	0xbc337970	-0.010954246
14	0xbc1d83c4	-0.009613935
15	0xbcf0e790	-0.029407293
16	0xbb1367a0	-0.0022492185
17	0x3c5bb154	0.013408978
18	0xbd80f383	-0.06296446
19	0x3d239653	0.039938282
20	0x3d1c3221	0.038133744
21	0xbd0f8fba	-0.035049178
22	0x3c6d8344	0.014496628
23	0x3cb439ea	0.022000272
24	0xbce59fb5	-0.028030256
25	0x3c204c68	0.009783842
26	0x3c8668d0	0.0164074
27	0xbce51722	-0.027965132
28	0xbc960bf1	-0.018316241
29	0xbdb5cc70	-0.08876884
30	0xbdc35134	-0.09536973
31	0xbc891101	-0.01673174
32	0x3bc0ee50	0.005887784
33	0xbc5e398b	-0.013563524
34	0xbcda9a7f	-0.026684998
35	0xbc58922f	-0.013218447
36	0xbd0ffc21	-0.03515256
37	0x3bdf7d10	0.0068203285
38	0xbc9a8810	-0.018863708
39	0x3a9340c0	0.0011234507
40	0x3ccbde82	0.024886373
41	0xbd0c9be9	-0.034328375
42	0x3cac7ade	0.021054681
43	0xbd59bed2	-0.053160496
44	0x3befd360	0.007318899
45	0x3c035c20	0.00801757
46	0xbd92b83b	-0.071640454
47	0xbdac5b8a	-0.08415897
48	0xbce1c2da	-0.027558733
49	0xbcdcbd6f	-0.026945798
50	0x3d0427dd	0.03226458
51	0xbc5f9d0c	-0.013648283
52	0xbd00f581	-0.03148413
53	0x3d238d45	0.039929647
54	0xbd3924b1	-0.045201007
55	0xbdc061a8	-0.093936265
56	0xbd13ca2b	-0.036081474
57	0x3d0c1d9d	0.03420793
58	0xbc1191f0	-0.008884892
59	0xbcd7e44e	-0.026353981
60	0xbc3dd8fd	-0.011587379
61	0x3d061445	0.032734174
62	0xbcde9581	-0.027170898
63	0x3a5f8580	0.0008526668
64	0x3d25c643	0.04047228
65	0xbcf6f487	-0.030145897
66	0xbd05b43e	-0.032642595
67	0xba4da380	-0.0007844493
68	0xbd91f0f9	-0.0712604
69	0xbc1c6ecc	-0.0095479
70	0xbccb7894	-0.02483777
71	0x3d0472d9	0.03233609
72	0xbd62fc01	-0.05541611
73	0xbd8448bc	-0.064591855
74	0xbcc15b57	-0.023603125
75	0xbc018580	-0.007905364
76	0xbcac5a3f	-0.021039126
77	0x3c5578f4	0.013029326
78	0xbd2e2786	-0.04251816
79	0xbd28ee1d	-0.041242708
80	0x3d2c87a5	0.04212155
81	0x3d083911	0.033257548
82	0x3c97ab5a	0.018514324
83	0xbd37a99b	-0.044839483
84	0x3d345f41	0.044036154
85	0xbcfbf71c	-0.03075748
86	0xbd3e7572	-0.046498723
87	0x3bc73560	0.006079361
88	0xbdb2a312	-0.087225094
89	0x3d2175ed	0.039419103
90	0xbd8563a6	-0.06513147
91	0x3c41aa20	0.011820346
92	0xbd2308aa	-0.039803185
93	0xbdc95947	-0.098314814
94	0x3ce410ee	0.027840104
95	0xbc89a902	-0.016804222
96	0xbab0b660	-0.0013482086
97	0xbc882acb	-0.016621968
98	0xbd64abfe	-0.055828087
99	0x3d1a0a27	0.03760734
100	0xbce55313	-0.027993714
101	0x3c105b64	0.008810852
102	0xbcde2252	-0.027115975
103	0x3c064c6c	0.008196931
104	0xbdc3a06e	-0.09552084
105	0xbcd6c954	-0.026219048
106	0xbcd352d4	-0.025796331
107	0xbd855d24	-0.06511906
108	0xbdb4d4a5	-0.08829621
109	0xbd097e72	-0.033567853
110	0xbbb697a8	-0.005572278
111	0xbd03d962	-0.032189734
112	0xbd4fe6df	-0.050757285
113	0xb9d15180	-0.0003992431
114	0x3c8b1b60	0.016980827
115	0xbca9cbe8	-0.020727113
116	0x3c65958c	0.014012706
117	0xbdba5965	-0.09099082
118	0xbcc5156a	-0.024058063
119	0xbd4da769	-0.050208483
120	0xbdaf0a6a	-0.08546908
121	0xbda5e824	-0.08100918
122	0x3d3070ef	0.043076452
123	0xbb57e930	-0.0032945387
124	0xbd4b3cc9	-0.049618516
125	0x3cf77a8a	0.030209798
126	0xbd3b8084	-0.04577686
127	0xbc942239	-0.018082725
128	0xbd4699eb	-0.04848663
129	0xbc5c2ee8	-0.013438918
130	0x3cc13286	0.023583662
131	0xbc3a1268	-0.011356927
132	0xbdc04fda	-0.093902305
133	0x3b45b370	0.0030166768
134	0xbc35d25c	-0.011097517
135	0x398c8300	0.00026800483
136	0xbbe2bc80	-0.0069194436
137	0x3d06e851	0.032936398
138	0xbadbc900	-0.0016768277
139	0x3c9ea1ae	0.019364204
140	0x3c93e1d6	0.018052023
141	0xbdb1fa3c	-0.086903065
142	0x3c80bfba	0.015716422
143	0xbc589c2c	-0.013220828
144	0xbd24aac6	-0.040201925
145	0xbc8435fc	-0.016139023
146	0xbd86a1dd	-0.06573842
147	0x3c4c8cb8	0.012484722
148	0xbd39de37	-0.045377936
149	0x3c63e800	0.013910294
150	0x3b4e4440	0.0031473786
151	0xbdc48650	-0.095959306
152	0xbb3ed630	-0.0029119365
153	0x3ce64642	0.028109673
154	0xbc5b622e	-0.013390107
155	0xbd167b23	-0.036738526
156	0xbd5c70f8	-0.053818673
157	0xbc25b59c	-0.0101141
158	0xbd00e98e	-0.031472735
159	0xbcf50e26	-0.029913973
160	0xbd97cb15	-0.07411782
161	0xbcaad682	-0.020854238
162	0xbdc61fa4	-0.09674004
163	0xbcf339e3	-0.029690688
164	0xbccc343a	-0.024927247
165	0x3be5d4c0	0.007013887
166	0xbd0c0023	-0.034179818
167	0xbc6997ac	-0.014257353
168	0xbda8c249	-0.08240182
169	0x3d284967	0.041085627
170	0x3bf6db60	0.0075334758
171	0x3cd4c172	0.025971148
172	0x39ec6180	0.0004508607
173	0xbda6b3b6	-0.08139746
174	0xbd92f71f	-0.07176041
175	0xbd86bc5f	-0.06578898
176	0x3c5517b8	0.013006143
177	0xbcc05c99	-0.023481654
178	0xbda434ad	-0.080178596
179	0x3d33f673	0.043936204
180	0x3d15aa35	0.036539275
181	0x3c517634	0.0127845295
182	0x3cb2003e	0.021728631
183	0x3c98413e	0.018585797
184	0x3d0b0873	0.033943605
185	0xbc8eaa00	-0.017415047
186	0xbb1616f0	-0.0022901855
187	0x3d2dcd43	0.04243208
188	0xbdc5dce9	-0.09661276
189	0xbca0224b	-0.019547602
190	0xbd962e5c	-0.07333061
191	0xbd5f33be	-0.054492705
192	0x3d0a00d7	0.033692207
193	0xbc8f66a5	-0.017505
194	0xbcd5bc8d	-0.026090885
195	0x3cd3266e	0.02577516
196	0xbac152c0	-0.0014749393
197	0x3b990888	0.0046702065
198	0x3d0b58b3	0.034020137
199	0xbc77778e	-0.015104188
200	0xbce39f82	-0.02778602
201	0xbdbd1bb0	-0.092337966
202	0xbd823c5b	-0.06359168
203	0x3c92e862	0.017933074
204	0xbd7259d2	-0.05916769
205	0xbba82c90	-0.0051322654
206	0xbd178c94	-0.0369993
207	0x3cbe2c0e	0.023214366
208	0xbbf33e10	-0.00742317
209	0xbcee3392	-0.029077325
210	0x3ce22536	0.027605634
211	0xbd0beeee	-0.034163408
212	0xbcdaa232	-0.026688669
213	0xbc8342ee	-0.016023125
214	0xbd2cbca9	-0.042172108
215	0x3d11ed9b	0.03562699
216	0xbc3c210c	-0.011482488
217	0xbd377133	-0.04478569
218	0x3d1669a5	0.036721844
219	0xbc4fef64	-0.0126913525
220	0xbcdfdf8e	-0.027328279
221	0x3bec7930	0.007216595
222	0x3cc0dcaa	0.02354272
223	0xbcc9a4f6	-0.024614792
224	0xbd225e2a	-0.039640583
225	0xbb8ea320	-0.004352942
226	0x3909cf00	0.00013142452
227	0x3d0b2505	0.03397085
228	0x3c0be3f0	0.008538231
229	0xbd52f30c	-0.05150132
230	0x3d2a120b	0.041521113
231	0x3a0299c0	0.0004982017
232	0xbd8b9120	-0.0681479
233	0xbacbaee0	-0.0015539788
234	0xbac8f9c0	-0.001533322
235	0xbd7db244	-0.061937585
236	0xbc4d6826	-0.012537038
237	0x3c693b70	0.014235362
238	0x3c91ce5e	0.017798599
239	0xbd1436b2	-0.036184974
240	0x3d147db5	0.036252696
241	0x3ce4f676	0.027949553
242	0xbc6a6952	-0.014307337
243	0x3ca2c766	0.019870471
244	0xbd27f6cf	-0.04100686
245	0x3c8cceea	0.017188508
246	0xbd2896cf	-0.041159447
247	0xbd072f0c	-0.03300385
248	0xbb9931b8	-0.0046751164
249	0xbd2762a7	-0.040865567
250	0xbc80ea85	-0.015736828
251	0xbdb78cc0	-0.08962393
252	0xbd243799	-0.040092085
253	0xbd1ff1be	-0.039048903
254	0xbd634c0d	-0.05549245
255	0xbcdc7368	-0.026910499

network.4.bias f4 [128]
0	0xbda6ba14	-0.0814096
1	0xbdb9772e	-0.09055935
2	0xbe1f445c	-0.15553421
3	0xbe0f12bd	-0.13971992
4	0xbdb66f4b	-0.08907946
5	0xbdc89236	-0.097935125
6	0xbdd59852	-0.104294434
7	0xbe034b36	-0.1282166
8	0xbd9eba1e	-0.07750343
9	0xbdf03f8c	-0.117308706
10	0xbe100e21	-0.1406789
11	0xbd712bf5	-0.05887981
12	0xbdb6784c	-0.089096636
13	0xbdb89aae	-0.09013878
14	0x3f1681ff	0.5879211
15	0xbe29ae2a	-0.16570345
16	0xbe43bf01	-0.19115831
17	0xbda5a5b1	-0.08088244
18	0xbd867e25	-0.06567029
19	0xbbd72e2b	-0.006566783
20	0xbe2a9350	-0.16657758
21	0xbd894c2b	-0.06703981
22	0xbe22b46c	-0.15889138
23	0xbe010e73	-0.12603168
24	0xbdfd3a77	-0.12364667
25	0xbd99bfd4	-0.075072914
26	0xbdecf168	-0.11569482
27	0xbdb0f0eb	-0.086397015
28	0xbdbeb646	-0.0931211
29	0xbcb4780e	-0.022029903
30	0xbdb3bc67	-0.08776169
31	0xbe02a6e0	-0.1275897
32	0xbd04feff	-0.032469746
33	0xbd902f09	-0.07040221
34	0xbd862e6a	-0.065518215
35	0xbdc98d51	-0.09841407
36	0xbd9ab843	-0.075546764
37	0xbcf37a94	-0.029721536
38	0xbcf388e1	-0.029728355
39	0xbc3936e0	-0.011304587
40	0xbd225814	-0.03963478
41	0xbdf8ff3f	-0.12158059
42	0xbe06c363	-0.13160472
43	0xbcc4aad6	-0.024007242
44	0xbd95f823	-0.07322719
45	0xbd912c8d	-0.070885755
46	0xbde082a0	-0.10962415
47	0xbe3759e6	-0.17905387
48	0xbdcc0bd6	-0.09963195
49	0x3d4867bb	0.04892705
50	0xbe23aa07	-0.15982829
51	0xbe372374	-0.17884618
52	0xbd90508e	-0.070466146
53	0xbd4ec5cf	-0.050481614
54	0xbdf127df	-0.11775183
55	0xbddeb3a6	-0.10874109
56	0xbddb6562	-0.107126966
57	0xbe0cf7b8	-0.13766372
58	0xbe1f7323	-0.15571265
59	0xbd722f39	-0.059127066
60	0xbd64a864	-0.055824652
61	0xbe470f61	-0.1943946
62	0xbd98fe5a	-0.07470389
63	0xbdf46ba9	-0.11934597
64	0xbdc54e0c	-0.09634027
65	0xbdb488e5	-0.08815173
66	0xbcb0ec89	-0.021597164
67	0xbd986bdb	-0.07442447
68	0xbe0ca839	-0.13736047
69	0xbd6d2b27	-0.05790248
70	0xbd9b9330	-0.07596433
71	0xbdccdfb6	-0.10003607
72	0xbd8388a6	-0.06422548
73	0xbe280d4d	-0.16411324
74	0xbe1ce00c	-0.15319842
75	0xbdd58500	-0.10425758
76	0xbdc669fd	-0.096881844
77	0xbda4d1fa	-0.08047862
78	0xbdf4fff7	-0.11962884
79	0xbdc35978	-0.09538549
80	0xbe6e5d66	-0.23277816
81	0xbd7cbcbf	-0.06170344
82	0xbe716105	-0.23572166
83	0xbd387eb1	-0.045042697
84	0xbe58fde7	-0.21190606
85	0xbd5e7218	-0.054308027
86	0xbde60156	-0.112307236
87	0xbcdb5a53	-0.026776468
88	0xbe02301b	-0.12713663
89	0xbe2ef84c	-0.17086905
90	0xbdb2e208	-0.08734518
91	0xbd334f03	-0.043776523
92	0x3ca9be76	0.020720702
93	0xbde68917	-0.112566166
94	0xbe11c441	-0.14235021
95	0xbd88cf21	-0.06680132
96	0xbda0ed64	-0.07857779
97	0xbe19172d	-0.14950247
98	0xbe4134b7	-0.18867765
99	0xbda43ad2	-0.080190316
100	0xbdcfde37	-0.10149806
101	0xbd8dbdc1	-0.06920958
102	0xbe62a1f8	-0.22132099
103	0xbe0362ef	-0.12830709
104	0xbdc5607b	-0.09637543
105	0xbde9fb21	-0.11424852
106	0xbd243c94	-0.040096834
107	0xbd03c128	-0.03216663
108	0xbb828085	-0.003982606
109	0xbc9e3ef4	-0.019317128
110	0x3e3c9d50	0.18419385
111	0xbdc61fa5	-0.096740045
112	0xbe65b7e1	-0.22433425
113	0xbdc25556	-0.09488933
114	0x3cf7fe91	0.030272754
115	0xbd865a25	-0.065601625
116	0xbe18a2aa	-0.14905801
117	0xbdb12f5c	-0.08651611
118	0xbcc69363	-0.024240201
119	0xbe105df0	-0.14098334
120	0xbde1421b	-0.10998937
121	0xbd0f7659	-0.035024974
122	0xbdbf0c49	-0.09328515
123	0xbe19951e	-0.1499829
124	0xbd7dacdf	-0.06193244
125	0xbe163bf9	-0.14671315
126	0xbe58490e	-0.21121618
127	0xbd961de5	-0.07329921

network.6.weight f4 [12, 128]
0	0xbcdf8d5c	-0.027289085
1	0xbc0f5c9e	-0.008750109
2	0xbb274d40	-0.0025528222
3	0x3dacc23d	0.084354855
4	0x3adcde3e	0.0016850901
5	0x3d9c75af	0.07639634
6	0xbd4fb596	-0.050710283
7	0x3e1ce966	0.1532341
8	0x3cdf9c29	0.027296143
9	0x3cd7e65c	0.026354961
10	0x3c8b3162	0.016991321
11	0x3de9c8e7	0.11415272
12	0x3d490b10	0.049082816
13	0x3e13a8ec	0.14419907
14	0xbe9a0866	-0.30084532
15	0x3dc72d99	0.09725494
16	0x3daafc55	0.0834891
17	0x3d1cc704	0.038275734
18	0x3d90cc40	0.070702076
19	0xbd9817a9	-0.07426388
20	0x3d95e5cf	0.07319223
21	0x3de137cc	0.109969705
22	0xbd55577c	-0.052085385
23	0xbcce1055	-0.025154272
24	0x3b1cc89b	0.002392328
25	0x3da40409	0.08008582
26	0xbae59d62	-0.0017518217
27	0xbd0c52b7	-0.03425857
28	0x3c8612cf	0.01636639
29	0xbd106549	-0.035252843
30	0x3e129a5f	0.143167
31	0x3d39697f	0.045266625
32	0x3ce84903	0.028355127
33	0x3e1f755a	0.1557211
34	0x3d76454c	0.06012468
35	0xbc1d5807	-0.009603507
36	0xbd4ef884	-0.05052997
37	0x3db30058	0.087403
38	0x3c2ba412	0.010476129
39	0x3d405213	0.046953272
40	0xbd0ed986	-0.034875415
41	0xbd071aa5	-0.032984395
42	0x3d762580	0.060094357
43	0x3d4df77c	0.050284848
44	0x3dcc84e3	0.09986284
45	0x3cd89779	0.026439415
46	0xbe0848e4	-0.13309056
47	0xbcd2d385	-0.025735626
48	0xbc9e8a9c	-0.019353203
49	0x3db337c1	0.087508686
50	0x3da3440d	0.07971964
51	0x3d41f005	0.04734804
52	0x3bc8d87f	0.006129324
53	0xbd92cfa5	-0.07168511
54	0x3d6f4da6	0.05842366
55	0xbd2b9c31	-0.041897003
56	0x3dee5735	0.11637727
57	0x3e31d473	0.17366199
58	0x3d44aaa1	0.048014287
59	0x3c3c7d2b	0.011504452
60	0xbda8f82e	-0.082504615
61	0x3d84ed97	0.06490629
62	0xbc5810b7	-0.013187579
63	0x3da2813a	0.07934804
64	0x3d0f5413	0.03499229
65	0x3dbcc062	0.092163816
66	0xbb11ca78	-0.0022245925
67	0x3dd2cd1d	0.102930285
68	0x3c984902	0.0185895
69	0x3d3de9f6	0.0463657
70	0x3d61cf44	0.055129305
71	0x3cf76d7f	0.030203579
72	0x3d9b36f5	0.075788416
73	0xbcff6ca8	-0.031179741
74	0xbcb2718d	-0.02178266
75	0x3d68b13b	0.056809645
76	0xbd7323cb	-0.059360307
77	0xbdffceb4	-0.12490597
78	0xbd3482ad	-0.044069935
79	0x3db37731	0.08762968
80	0x3e4dc8e2	0.20096162
81	0x3bce86dc	0.0063026976
82	0xbc2b1ca4	-0.01044384
83	0x3d42ff30	0.047606647
84	0x3b100f13	0.0021981641
85	0x3dadec00	0.08492279
86	0xbd7ec8c7	-0.062203195
87	0xbd65aa85	-0.056070823
88	0x3d1d3b8e	0.038386874
89	0xbd08c8bd	-0.033394564
90	0xbd6de8cf	-0.05808335
91	0x3d1130ec	0.035447046
92	0xbd292ccf	-0.0413025
93	0x3e017fc6	0.12646398
94	0xbb82ccc9	-0.0039916974
95	0xbd89f437	-0.067360334
96	0xbc80b4d3	-0.015711224
97	0xbddf6046	-0.109070346
98	0x3c1c5795	0.009542366
99	0xbd21a48d	-0.03946357
100	0x3e34d1f7	0.1765822
101	0xbdccc3aa	-0.099982575
102	0x3cb76803	0.022388464
103	0xbd8fdbf0	-0.070243716
104	0x3d983498	0.074319065
105	0x3c5f81b6	0.013641765
106	0x3aab3a44	0.0013063629
107	0x3bae366e	0.005316547
108	0x3ce7b255	0.028283278
109	0x3db6257d	0.08893869
110	0x3dc2ecb4	0.09517804
111	0x3da57f38	0.08080906
112	0x3e074083	0.13208203
113	0x3c4446bb	0.011979754
114	0xbda72630	-0.081615806
115	0x3d28a83b	0.041176062
116	0x3bab14e0	0.0052209944
117	0x3dd2664a	0.10273416
118	0x3b8b3a06	0.0042488603
119	0x3d13514b	0.0359662
120	0x3e2ad47c	0.16682619
121	0xbd319dad	-0.043363262
122	0xbd9fc35c	-0.07800934
123	0xbd812864	-0.06306532
124	0x3c8e34c9	0.017359154
125	0x3e241021	0.16021778
126	0xbd47f149	-0.04881409
127	0x3bc4340c	0.00598765
128	0x3ce07af4	0.027402379
129	0xbc882ba9	-0.016622381
130	0x3d907b65	0.07054786
131	0xbe0b6de5	-0.1361614
132	0x3cd7e66f	0.026354996
133	0x3ab7cb80	0.001402244
134	0x3e0bbaee	0.13645527
135	0x3dc1813a	0.09448476
136	0xbd93ccd7	-0.072168045
137	0x3c18f572	0.0093358625
138	0xbdafeb63	-0.08589818
139	0x3e0708e0	0.1318698
140	0xbb61c1c7	-0.0034447776
141	0xbd48ed4f	-0.04905444
142	0xbdc7fb88	-0.09764773
143	0x3e09224e	0.13391992
144	0x3c949f54	0.01814238
145	0x3afb07aa	0.0019152064
146	0x3e120ca2	0.14262632
147	0x3c2f5b1e	0.010702876
148	0xbe13bb48	-0.14426911
149	0x3d62f364	0.055407897
150	0x3d92b905	0.07164196
151	0xbd48723d	-0.04893707
152	0xbdd5bc6f	-0.104363315
153	0x3dd47093	0.10373034
154	0x3d1cb8e5	0.038262267
155	0x3d791f2b	0.06082074
156	0x3c6324f2	0.013863789
157	0x3de44d3f	0.11147546
158	0x3de65a0f	0.11247646
159	0x3d24b236	0.040209018
160	0xbd4d0303	-0.0500517
161	0x3e04dab1	0.12974049
162	0xbbf54317	-0.0074848044
163	0x3d07d388	0.033160716
164	0xbe7c0b25	-0.24613626
165	0xbc642899	-0.013925695
166	0x3d19b87c	0.037529454
167	0x3d71d684	0.05904247
168	0x3ac518fc	0.0015037353
169	0xbd25e8e0	-0.04050529
170	0x3d9bb9e9	0.07603819
171	0xbd9e0021	-0.07714868
172	0x3e016463	0.1263595
173	0x3cc751cc	0.024330996
174	0x3e09dead	0.1346385
175	0x3e41e17b	0.1893367
176	0x3db11c16	0.08647935
177	0xbdcfe6a8	-0.10151416
178	0x3de04380	0.109503746
179	0xbd39e89d	-0.045387853
180	0x3c033087	0.008007175
181	0x3c1bf2c9	0.009518334
182	0x3d9cf299	0.07663459
183	0xbcca8330	-0.024720758
184	0xbda0ac00	-0.078453064
185	0xbc47950e	-0.0121815335
186	0xbd47d6de	-0.048788898
187	0x3dc62215	0.096744694
188	0x3e03e456	0.12880072
189	0xbc83be08	-0.016081825
190	0xbda430b4	-0.08017102
191	0xbdc06f50	-0.09396231
192	0xbe15822c	-0.14600438
193	0xbdbd413d	-0.09240959
194	0xbdabf4b9	-0.083962865
195	0x3e0b1c54	0.13585025
196	0xbc627789	-0.013822445
197	0xba89ed0d	-0.0010522917
198	0xbd564340	-0.05231023
199	0x3c0d2512	0.008614795
200	0x3d8bcda1	0.0682633
201	0x3d9525ba	0.072825864
202	0xbc97e565	-0.018542001
203	0xbdc9640b	-0.09833535
204	0x3d6ed29c	0.05830632
205	0xba3cb880	-0.00071991235
206	0x3db3fcc7	0.08788448
207	0x3cd02b98	0.025411412
208	0xbc820c54	-0.01587502
209	0xbc84b3e2	-0.016199056
210	0xbe04827b	-0.129404
211	0xbd0b32f5	-0.033984143
212	0x3cd5d6d3	0.026103413
213	0x3d835924	0.064134866
214	0xbdb1ac1a	-0.08675404
215	0x3daf3503	0.08555033
216	0x3d4eb257	0.050463047
217	0x3b82d7d5	0.0039930143
218	0x3c928b95	0.017888824
219	0x3d47bcf3	0.04876418
220	0x3ca0b5e2	0.019617978
221	0x3e8cc9b7	0.27497646
222	0xbd597c4e	-0.05309706
223	0x3e17e51d	0.14833494
224	0xbcbfd00e	-0.023414638
225	0xbce57354	-0.028009094
226	0x3d77db33	0.06051178
227	0xbd52963b	-0.051412802
228	0xbdb0a4f3	-0.086252116
229	0xbd3ff060	-0.0468601
230	0x3d8312ce	0.06400071
231	0x3d47f86a	0.04882089
232	0x3dc218a8	0.09477359
233	0x3b98fdcc	0.004668927
234	0x3ba14d57	0.0049225497
235	0xbd56bcc5	-0.05242612
236	0x3ca41ab3	0.020032262
237	0xbd6a2ce4	-0.057171717
238	0xbea4b044	-0.3216573
239	0x3c02cf02	0.007983925
240	0x3e4da8de	0.20083949
241	0x3cd714ab	0.026254972
242	0x3df65263	0.12027433
243	0xbcad4969	-0.021153169
244	0x3ddd52bc	0.10806796
245	0xbac500b9	-0.0015030123
246	0xbdf61915	-0.12016503
247	0x3d83b56f	0.0643109
248	0xbdb626c2	-0.08894111
249	0x3da17d2f	0.07885205
250	0x3d1c544b	0.038166326
251	0xbc658130	-0.0140078515
252	0x3c1facf7	0.009745828
253	0xbd83db4b	-0.06438311
254	0x3ae5702c	0.0017504743
255	0x3e1b1234	0.15143663

network.6.bias f4 [12]
0	0xbd0a7d89	-0.033811126
1	0xbe9cbac5	-0.30611244
2	0xbdc9ff44	-0.09863141
3	0xbe28274c	-0.1642124
4	0xbe0402da	-0.12891713
5	0xbdc62112	-0.096742764
6	0x3b37b8a1	0.0028033631
7	0xbe3af931	-0.18259121
8	0xbd8e48f4	-0.069475085
9	0xbe1ce549	-0.1532184
10	0x3d6f5986	0.058434986
11	0xbe08973e	-0.13338944
