model/DQNAgent2_20-08-2022__23-27-22.pth/DQNAgent2_20-08-2022__23-27-22.pth (torch, 826191 bytes, 8 tensors)

network.0.weight f4 [256, 27]
000000 95 5c 70 be 84 47 0d 3d 3e 71 88 bc ea 32 b8 3d
       -0.23472817 0.03449203 -0.01665556 0.08994086
000010 58 7d 22 be 77 0d 0e 3d 90 44 39 be 6d 80 e4 bc
       -0.15868127 0.03468081 -0.18092561 -0.02789327
000020 8b 00 0f be 16 79 a5 bd e9 fa 71 bd 15 f0 1a be
       -0.13965051 -0.08079736 -0.059077177 -0.15130647
000030 0b 67 75 bd 8d 7a 27 be 47 8e cc bd bb 47 1d 3d
       -0.059912723 -0.16355343 -0.09988075 0.038398486
000040 af 39 30 be 95 23 c6 3d c4 ec fe 3d 93 00 1a be
       -0.17209505 0.096747555 0.12447503 -0.15039282
000050 a1 71 17 3e e4 2f 97 bd d8 be 1f 3e 86 08 88 3d
       0.1478944 -0.07382181 0.15600145 0.06642251
000060 12 c5 88 bd 4c 28 81 bd 69 c7 18 3e b7 bc 62 be
       -0.06678213 -0.06306514 0.14919819 -0.22142301
000070 fa fd 39 3d 40 cb 2b 3d 78 21 1a be 72 e5 95 be
       0.045408227 0.04194188 -0.1505183 -0.29276615
000080 5f 9f 11 be ec cd 75 bc b6 ab 99 bc e1 6b 92 bd
       -0.14220951 -0.015002709 -0.018758636 -0.071494825
000090 70 d0 6c bc 06 fa dd bb f2 9a cf bd 3c 5c bd bd
       -0.014453992 -0.00677419 -0.10136975 -0.09246108
0000a0 43 7d 08 be 51 62 8f bd ae 59 8d 3d fd cf 11 bd
       -0.13329034 -0.07001174 0.06901871 -0.035598744
0000b0 9e 48 4e be df dd 7b 3d b0 30 47 bd 0a 9c 84 3c
       -0.20144889 0.06149089 -0.048630416 0.016187686
0000c0 4f 92 3e 3e 0a 05 43 be 6a 9c cb 3d 6a 6f 89 bd
       0.186105 -0.19044891 0.09941943 -0.06710704
0000d0 08 8f 43 bd 6b 4d 38 3e 91 c7 b0 ba 2a 0f b2 3d
       -0.047743827 0.17998283 -0.001348721 0.086942986
0000e0 0c 3f 2e 3e 0d f0 37 3d bb ee a9 3e 63 de 99 3c
       0.17016238 0.044906665 0.3318995 0.0187828
0000f0 c4 a9 34 bd 60 d1 f1 3b 3a 1b 98 be 0b 60 8e bd
       -0.044107214 0.007379696 -0.29708272 -0.069519125
000100 e3 be c0 bc 83 87 6e be 0a f2 86 bd 69 90 86 be
       -0.023528522 -0.23293881 -0.06589134 -0.2628205
000110 bb c4 3b 3d 30 c0 35 3d 49 cc 3e 3c 21 6c 81 be
       0.045841914 0.044372737 0.011645385 -0.25277808
000120 93 03 69 be a2 51 aa bd 88 bc ce bd 0d ae 0c 3e
       -0.2275527 -0.083163515 -0.10094553 0.1373827
000130 42 0c c9 3d c6 67 90 bd 10 54 4c 3d f5 b6 09 be
       0.09816791 -0.07051043 0.049884856 -0.13448699
000140 66 54 36 be 30 61 19 3d 5c 40 05 3d 28 10 8c bc
       -0.17805633 0.0374462 0.03253208 -0.017097548
000150 23 dd 8d bd 00 0f c6 bc 09 df 8b bd 18 09 ec bd
       -0.06926944 -0.024177074 -0.0682965 -0.11525172
000160 fc a6 df bd 31 87 44 3e 5a de bf bd c4 70 7d bd
       -0.109205216 0.19192196 -0.09368582 -0.06187512
000170 28 a2 82 bc 00 dc 6a 39 1d e2 0b be 40 6b 77 bb
       -0.015946463 0.00022397935 -0.13660474 -0.0037753135
000180 97 b1 05 be 4b 84 90 bd 89 a0 99 bd 65 fc 0e 3e
       -0.13056026 -0.07056483 -0.07501323 0.13963468
000190 fd eb 3f 3e 00 df db 3b 6a 2c e0 3d d8 b7 c9 bd
       0.18742366 0.0067099333 0.10945971 -0.098495185
0001a0 dd 51 41 be 98 93 cf 3c eb d0 37 3e 09 3a 08 3e
       -0.18878885 0.025338933 0.1795079 0.13303389
0001b0 3f 5c 28 be 2c be fe bd b9 1a 58 be 32 f5 07 3d
       -0.16441439 -0.12438616 -0.21103944 0.03319282
0001c0 7d 76 bc 3b cf 60 7a be ce 5f 24 bc 94 96 9b be
       0.0057514296 -0.24450992 -0.010032607 -0.3038832
0001d0 da bc 50 bd 4f 73 c1 bd a2 f9 0f be fa e6 70 be
       -0.050961353 -0.094458215 -0.14060071 -0.2352561
0001e0 34 a1 dd bd b9 44 80 be 4f 7c 93 bc 0f ef 6d bd
       -0.10821763 -0.2505243 -0.01800361 -0.058089312
0001f0 1a 37 32 bd c5 20 85 3d 3d e4 48 3d 2b 91 0a 3e
       -0.04350958 0.06500391 0.04904579 0.1353194
000200 dc 6a c8 3d 71 6e c1 bd 9a fc 9d bd c3 49 42 3e
       0.09786007 -0.09444893 -0.077141955 0.1897345
000210 52 26 0b be c0 ae 2f 3b 85 da 1e be 0d ce 81 be
       -0.13588837 0.002680704 -0.15513046 -0.25352517
000220 3c 79 8e bc d1 f4 46 be 8b 25 e8 bc 43 89 50 bd
       -0.017391793 -0.19429328 -0.028338214 -0.050912153
000230 da 6f 27 be 60 36 de bd 85 2f 2c be 81 e4 14 3d
       -0.16351262 -0.10850215 -0.16815002 0.03635073
000240 c0 26 30 3d 85 fc dd bd e2 bb 64 be 59 de 63 be
       0.043005705 -0.1083918 -0.22337297 -0.22252788
000250 79 29 1d bc b0 bf 2a be 59 49 1b 3d 02 e8 02 bd
       -0.009592407 -0.16674685 0.037911747 -0.03195954
000260 62 43 d4 bc b3 cc a3 bd 4c 1b 1c bd af f1 c8 bd
       -0.025911037 -0.07998028 -0.03811197 -0.098117225
000270 cc a0 3e bd ed 5b 0d be 77 83 a6 bd 93 87 27 3e
       -0.046540067 -0.13804598 -0.08130544 0.16360311
000280 42 e8 10 be 70 c0 37 be 3a 84 c0 3d 21 65 2a be
       -0.141511 -0.17944503 0.0940022 -0.1664014
000290 d8 8e e6 bd dd c4 2a 3e d0 17 b7 3c 87 fc 34 3e
       -0.11257714 0.1667666 0.022350222 0.17674457
0002a0 00 5e bf ba 90 cf fb bd 10 a9 58 bc 38 03 ec bc
       -0.0014600158 -0.12295449 -0.013223901 -0.028810129
0002b0 54 7a 30 3d a9 63 41 be 61 33 1e be 60 25 95 3b
       0.04308541 -0.18885674 -0.15449287 0.0045515746
0002c0 ea eb 43 be 87 cb ea bd 58 99 a5 bc 4c f9 25 3d
       -0.19132963 -0.11464601 -0.020214722 0.04052095
0002d0 41 6a 32 3e 33 c3 95 bd ea e6 2a be 17 7f 0a 3e
       0.17423345 -0.07312622 -0.16689649 0.13525043
0002e0 fc 1c 56 3d 25 5a 0a 3e 24 65 4d 3d 5a 99 df 3d
       0.052273735 0.1351095 0.050145283 0.10917921
0002f0 a0 8d 1a 3d 08 ba 75 be e4 70 5f be 72 c5 25 be
       0.03773272 -0.23996747 -0.21820408 -0.161886
000300 a8 ba 49 bd 8a d1 f8 bd 6d 0e 04 be e9 7c 56 be
       -0.049250275 -0.121493414 -0.12896128 -0.20946087
000310 42 4f 9a bd 96 80 67 be c9 77 c8 bd f8 8e 94 be
       -0.075346485 -0.22607645 -0.09788472 -0.29015326
000320 e7 10 88 be 96 9c 16 bb da 36 d3 3d 56 14 61 be
       -0.26575395 -0.0022981516 0.103131965 -0.21980414
000330 47 1d c7 bd d6 3d 91 bd bc 82 96 3c 87 71 16 3d
       -0.09722381 -0.070918724 0.018372886 0.03672936
000340 0f 39 10 3e 27 21 a4 3d 62 90 83 3d 53 0d 92 3d
       0.14084266 0.08014136 0.06424023 0.07131448
000350 60 08 ec bb 94 ef 9a bd 04 c4 4d bd 5a 90 a2 3d
       -0.007203147 -0.07565227 -0.050235763 0.07937689
000360 5e 92 a6 3d bc ea 7a bd 4b 33 40 3e 30 df 9c bc
       0.08133386 -0.061259016 0.18769567 -0.019149393
000370 e0 55 50 3c 43 b9 3a 3e d4 9d 23 3d 58 00 9c bc
       0.012715787 0.18234734 0.03994544 -0.019043133
000380 4d f3 2f 3e c6 7b 08 be 9f a2 3c 3e 4e 68 df bd
       0.17182656 -0.13328466 0.1842141 -0.109085664
000390 f4 ee 04 bd b8 34 24 be 8e 51 d6 3d a0 c3 5b bd
       -0.032454446 -0.16035736 0.10464774 -0.05365336
0003a0 32 81 18 be d0 0e 36 3c 0e f0 df 3d e4 b5 25 bd
       -0.14893034 0.01111193 0.10934459 -0.040456668
0003b0 f2 35 90 3d ec a4 9e bd 78 25 a8 3c f2 e2 a7 3d
       0.07041539 -0.077463 0.020525679 0.08197583
0003c0 2a 86 cd 3d 6e 69 43 be a0 23 01 be 80 f8 b1 3c
       0.100353554 -0.19083187 -0.12611246 0.02172494
0003d0 9e 58 c6 3d 7e 9e 16 be 43 be 98 bd 78 09 be bc
       0.09684871 -0.14708897 -0.074581645 -0.023197874
0003e0 2e 7e 22 be 1d e7 11 3e 20 e6 9c 3b 14 f1 13 3d
       -0.15868446 0.14248319 0.004788175 0.036118582
0003f0 57 85 1a 3e 46 ab 94 3d 35 0b 34 be fe 4c 0d be
       0.15089928 0.0725923 -0.175824 -0.13798901

network.0.bias f4 [256]
000000 fe a1 ed 3d ea 7b 5f 3d ca f5 86 be fc 1c 45 3d
       0.11603163 0.054561533 -0.26359397 0.048123345
000010 8a 3f 29 bd 70 4d 31 be cc 38 20 be 5e 42 4c 3c
       -0.04132036 -0.17314696 -0.15646666 0.012466995
000020 92 df b5 bd 83 a2 fc bd 35 a7 52 3d 92 9a 54 be
       -0.08880533 -0.12335684 0.051428992 -0.20762089
000030 c6 52 19 be 1d f2 2c be 39 55 01 be d5 65 f6 bd
       -0.14972982 -0.16889234 -0.12630166 -0.12031142
000040 8f db b7 bd 34 00 a2 bd 67 ba 33 be ba 00 56 be
       -0.08977424 -0.07910195 -0.17551576 -0.20898715
000050 47 eb cd bc d6 27 64 be b9 3e 1e be a3 d4 28 be
       -0.025136603 -0.22280821 -0.15453614 -0.16487364
000060 b0 98 1e 3e 70 c5 11 be d4 bb ba bd e4 4d 67 bd
       0.15487933 -0.14235473 -0.091178566 -0.056470767
000070 3d 83 16 be b4 46 ae bd 23 b7 e8 3d 88 10 ed bc
       -0.14698501 -0.08509579 0.113630556 -0.028938547
000080 c3 53 65 be 41 b1 4e be 1c a6 8c be 11 ba 30 3c
       -0.22395234 -0.20184804 -0.2747048 0.010786549
000090 59 fc 27 3e 29 85 eb bc 57 69 39 be 31 c6 2f be
       0.16404857 -0.02875002 -0.1810659 -0.17165448
0000a0 5e 05 33 be fd 14 50 be f8 89 f6 bd 41 f1 3f be
       -0.17482516 -0.20320506 -0.12038034 -0.18744375
0000b0 28 fe e7 3d 8b 22 dc bd 2e 12 22 bd 87 d1 14 3e
       0.11327773 -0.10748776 -0.03956812 0.14533053
0000c0 75 a8 26 3e 33 98 02 be 5c e7 bd 3b 17 7f 80 be
       0.16275199 -0.12753372 0.0057954025 -0.25096962
0000d0 c6 b9 b1 bd 6d 10 38 be 3c 7e 49 bd 57 35 7a bd
       -0.086780116 -0.17975016 -0.049192652 -0.061086025
0000e0 14 f4 8c 3c fa 98 0c be 92 60 97 ba c2 73 e3 bd
       0.01720623 -0.13730231 -0.0011549166 -0.111060634
0000f0 da 98 0a be b4 de 40 3d fa 0e e3 bd 2b 08 47 be
       -0.1353487 0.047087386 -0.11086841 -0.1943671
000100 9d 7a 33 3c c7 57 8d 3d 1c aa 69 3d cf fd 52 bd
       0.010954526 0.06901508 0.057046995 -0.051511582
000110 20 a9 99 bc 06 29 e9 bc ce af 65 bd 94 b0 90 be
       -0.018757403 -0.028461944 -0.056075864 -0.28259718
000120 e1 e3 46 be e4 b3 82 3d cd 22 e8 3d 9f ec 2b 3e
       -0.19422866 0.06381968 0.11334763 0.16789483
000130 3b 6e 1c be ce 53 24 be 12 39 12 3d 05 81 03 3e
       -0.15276425 -0.16047594 0.035698958 0.12842186
000140 35 45 3c be 30 89 8c bc a0 3d 40 3d 8f 5d 14 be
       -0.18385775 -0.01715526 0.04693377 -0.14488815
000150 9c 5f 45 3d 8c dd c9 3c 11 70 54 3d fd 11 3c 3e
       0.048186883 0.024641775 0.051864687 0.18366237
000160 3e 3d b3 bd fd 7a a8 3d 2b 91 2f 3d d3 14 25 3e
       -0.087519154 0.08226583 0.042863052 0.16121225
000170 9c b0 85 3d 7d 01 e1 bd c8 8e c0 3c e8 50 e3 bc
       0.06527826 -0.10986612 0.023505583 -0.02774854
000180 21 85 aa 3c d1 2d 6d be d2 84 93 bd 06 c5 7d be
       0.020815434 -0.23162009 -0.07203068 -0.2478219
000190 83 31 14 be 77 9a 74 ba 87 9f cb bd 2f 32 81 3d
       -0.14472012 -0.00093308784 -0.09942537 0.063084
0001a0 af f9 e5 bd 0e 83 c1 3d c5 69 58 3e 93 57 8e bd
       -0.11229264 0.09448825 0.21134098 -0.06950297
0001b0 9c 3e e0 3b df c8 15 be d0 bd ce 3d 9f d9 07 be
       0.006843401 -0.14627407 0.100947976 -0.1326661
0001c0 b6 01 0f 3d 82 69 d1 bd 66 a5 33 be 86 a3 3c be
       0.03491374 -0.10225202 -0.17543563 -0.18421754
0001d0 8f 32 f6 bc b5 d8 5a be d0 a8 a9 bd 3d 10 df 3b
       -0.030053405 -0.2137173 -0.082841516 0.0068073557
0001e0 fd 91 50 be 86 36 66 be 3d 5d cb 3d 52 08 c9 bd
       -0.2036819 -0.22481737 0.09929893 -0.0981604
0001f0 cc c4 46 3d 1f 1e f6 bd e0 c0 6c be bf ab 40 be
       0.048527524 -0.12017464 -0.23120451 -0.18815516
000200 d6 75 16 3d 5a 43 4b be 3f 43 a0 3d 5e d4 43 be
       0.03673347 -0.19849911 0.07825326 -0.1912398
000210 c0 52 8f 3d ff 89 58 3d 38 23 52 3d 12 2b ee bd
       0.06998205 0.05286598 0.05130312 -0.11629309
000220 1f 7e ff 3d 74 5c c2 3d 11 cd f1 bd 42 7b 9e 3d
       0.124752276 0.0949029 -0.118066914 0.07738353
000230 52 e5 8e be bc 19 1a be 73 d9 a1 3d cf 0d 78 3d
       -0.27909333 -0.1504888 0.07902803 0.060560044
000240 8a bb 54 be 79 d8 b7 bd fa d7 37 be 21 03 af bd
       -0.20774665 -0.08976836 -0.17953482 -0.08545519
000250 a2 f9 60 be 06 2c 82 3c 8d 5d 05 3e a0 fa f2 bc
       -0.21970227 0.015890133 0.13023968 -0.029660523
000260 ba 42 cd bd 2d 90 29 be 9e 6f a0 bd fc 60 d2 bd
       -0.10022493 -0.16558905 -0.07833789 -0.102724046
000270 ea f3 dc bd 24 64 0c be 1f 28 a6 bc 9a c7 ed bc
       -0.107887104 -0.13710076 -0.020282803 -0.029025842
000280 30 2c b3 bd f8 d0 6e be f3 a3 28 3e 1b 3f 05 3e
       -0.087486625 -0.23321903 0.16468792 0.13012354
000290 09 33 02 3e de 0c df 3d 8c f2 80 be c4 93 50 be
       0.12714781 0.10891126 -0.2518505 -0.20368868
0002a0 02 9a e4 3d 09 9f d9 bd f8 66 05 be aa 39 e3 bd
       0.11162187 -0.10626037 -0.1302756 -0.11094983
0002b0 12 7d 9a be 27 db 06 bd a3 bf 09 3d 26 3d d8 3d
       -0.30173546 -0.032923844 0.033630025 0.10558538
0002c0 fe 89 3c 3d fa 7e 13 be ff e7 86 3d c5 ba b8 3c
       0.046030037 -0.14403906 0.065872185 0.022549996
0002d0 66 06 05 be d6 2d c9 3c 12 cf f0 bd fe 8a 4b 3d
       -0.12990722 0.02455799 -0.117582455 0.0496931
0002e0 5a 2d fe bc d3 b9 18 bd 2d c2 fd b9 45 13 07 3e
       -0.031027485 -0.03728659 -0.00048400593 0.13190944
0002f0 1e 9a 7a 3d ff 51 83 be 8c 97 35 be c3 8d 39 be
       0.061182134 -0.25648496 -0.17733592 -0.18120484
000300 47 39 c9 bd 28 f1 64 3d a0 bf 79 bd 2c d7 d9 bc
       -0.09825378 0.055894047 -0.060973763 -0.02659186
000310 d8 c3 31 be 6f 6d 3e 3e ec 4e 1d bd 03 92 cb bd
       -0.17359865 0.18596433 -0.038405344 -0.09939959
000320 a8 63 ac 3c d4 c3 0e 3d b7 c8 f2 bd 09 33 f1 bd
       0.021043614 0.034854725 -0.118546896 -0.11777312
000330 ec e2 da bd e5 d7 00 3e 8f e8 be 3d 11 5b e2 bd
       -0.10687813 0.12582357 0.09321701 -0.11052526
000340 ea 95 8c 3d 6b 71 9b 3d 4e b2 96 3d 34 5b b0 bd
       0.06864531 0.07589992 0.07358228 -0.086111456
000350 a9 a1 0a 3e 2f c0 78 3d 36 d9 c6 bd 6f 11 ef bd
       0.13538231 0.060730156 -0.097093984 -0.11673247
000360 82 19 49 be 4a 9a 01 be b0 a1 03 be 20 12 7a be
       -0.19638637 -0.12656513 -0.12854648 -0.24420977
000370 35 23 f2 bd 6e c2 c2 3c b9 04 94 be 77 19 2b be
       -0.118231215 0.023774352 -0.28909853 -0.16708933
000380 7f a3 20 be 3a 2e 3e be f0 cd cd 3d ba f6 ae 3c
       -0.15687369 -0.18572322 0.10049045 0.021357883
000390 14 5d bf bc d3 ae 4d be dd 48 b2 3d c4 23 95 bd
       -0.023359813 -0.20086221 0.08705304 -0.072822124
0003a0 3d 96 09 3d ef c9 68 be 31 7c 3c be 60 30 b9 bd
       0.033590544 -0.22733282 -0.1840675 -0.0904243
0003b0 88 fd 3e be 43 00 84 3c 46 6e 81 bc 7e cd be 3d
       -0.18651402 0.016113406 -0.015799653 0.09316538
0003c0 1e 91 8e 3d f6 98 58 be 1d ce e2 bd 86 2c ff bc
       0.06961273 -0.211521 -0.11074469 -0.03114916
0003d0 f5 39 88 be 77 86 00 be c7 22 1a bd 36 cd 8e 3d
       -0.26606718 -0.12551294 -0.037630823 0.06972735
0003e0 40 e5 c7 bc 99 bd 7d bc c0 d2 f5 3c c6 8a 82 3d
       -0.024401307 -0.015487098 0.03000772 0.06374125
0003f0 69 9e 83 bd f3 fd 9b bd 88 c3 ee bc c8 76 a3 be
       -0.06426699 -0.07616796 -0.029145971 -0.3192656

network.2.weight f4 [512, 256]
000000 66 31 18 bd f5 78 41 bd e6 e7 46 3d 44 e6 6b 3d
       -0.037156485 -0.047234494 0.048561 0.057592645
000010 4f 35 60 3d 6e bf a0 bc 7e 67 0e 3d 0a 85 9a 3c
       0.05473834 -0.01962253 0.034766667 0.018862266
000020 5e 98 75 bd a6 50 3d 3d 4d d4 e2 3c 00 ae 2e 3d
       -0.05995976 0.04621949 0.027689124 0.042646408
000030 c8 3a 49 3d 23 b5 8f bd 55 7c 1b 3d f6 39 da 3a
       0.049128324 -0.07016971 0.03796037 0.0016649354
000040 93 22 c3 bd f1 af 89 bd 42 9a f1 3d 38 d4 50 bd
       -0.09528079 -0.06723011 0.117970005 -0.050983638
000050 d0 59 4c bc e8 a9 0a bd d4 c0 06 bc db a0 dc 3c
       -0.012472585 -0.03385344 -0.008224685 0.02693217
000060 f1 5f 6d be 79 7b 3b 3d 63 b6 1f 3c d4 cd e0 bc
       -0.2318113 0.04577205 0.009748074 -0.027441896
000070 26 61 d8 bc 66 30 37 3d fe 82 13 3d eb 27 26 bd
       -0.026413511 0.04472389 0.036013596 -0.040565412
000080 f2 4f 18 3d 02 80 87 3c 76 38 c0 3b cb 20 0a 3e
       0.037185617 0.016540531 0.0058661057 0.13489072
000090 94 fe ad bc de ff 21 3c 72 90 c5 bc d0 72 7a 3d
       -0.021239556 0.009887664 -0.024116728 0.06114465
0000a0 00 76 33 bd 20 7b e4 bb c7 a1 84 3c a5 c9 85 bd
       -0.043813705 -0.0069726855 0.016190423 -0.06532601
0000b0 88 c5 0c bd d9 39 6d 3d 5d 52 c7 3c 7c ac 20 bd
       -0.034368068 0.057916496 0.024331266 -0.039226994
0000c0 40 0c cb ba 38 0b 7c bd c3 43 14 bc cb 2c a6 3d
       -0.0015491322 -0.061534137 -0.009049359 0.08114012
0000d0 6d e4 19 3c 18 e4 7e 3c 6d 30 03 3e 07 f4 63 3d
       0.00939284 0.0155573115 0.12811442 0.055652644
0000e0 65 29 5b 3c 5f d4 11 3d 1e 82 61 bd 0b de 8f 3b
       0.013376568 0.035602923 -0.05505573 0.0043904833
0000f0 92 ae 8f bd 80 8d 04 3a b9 e8 c2 3d 7b 94 38 bd
       -0.070157185 0.00050564855 0.095170446 -0.045063477
000100 fd ce ba 3c 22 1e b4 bd bc 30 c7 bc f4 35 69 3d
       0.022803778 -0.0879481 -0.02431523 0.05693622
000110 ac 90 4b bd 92 e5 1d bd 78 6b 01 3d 66 91 e6 bc
       -0.049698517 -0.038549013 0.03159663 -0.028145503
000120 90 52 38 be d8 fb 0c 3b 60 fa fd 3c 64 02 0f 3d
       -0.18000245 0.0021512415 0.031003177 0.03491439
000130 c6 fb 62 bd 56 2d 12 bd 28 5d 6f bd 3a af 01 bd
       -0.05541589 -0.035687767 -0.05843845 -0.03166125
000140 80 b1 ea 3b b8 aa 18 bd 71 b9 51 3d 00 dd a8 3d
       0.007162273 -0.037272185 0.05120224 0.082452774
000150 f6 51 51 3d 76 80 99 3d 1f 39 ac 3d a0 d1 13 bc
       0.051103555 0.07495205 0.084093325 -0.009022146
000160 3f 81 b0 bd c7 c7 81 3d 6a 61 f4 3d 8c d3 b8 bc
       -0.08618402 0.06336933 0.11932643 -0.02256181
000170 29 4f 73 bd 23 92 4e bd 80 0a 23 3a 80 3c c5 3a
       -0.059401665 -0.050432336 0.0006219521 0.0015047938
000180 4b 2f 3e bd ed d7 e1 bd ea c0 72 3c f1 08 60 bc
       -0.04643182 -0.11027513 0.014816502 -0.013674007
000190 fe e0 40 bd ea 68 44 bd d8 85 97 bd 19 00 7a 3c
       -0.04708957 -0.047951616 -0.073985755 0.015258812
0001a0 2f 42 6a 3d 8c 18 5f bd d7 70 3c bd c3 3b 6a bd
       0.057192024 -0.05446677 -0.04600605 -0.0571859
0001b0 24 89 bd bc 4a a3 1c 3d e0 64 26 bd fa 77 86 3d
       -0.023136683 0.038241662 -0.040623546 0.065658525
0001c0 78 4d 3f 3d af 77 de bd 91 52 26 bc ef 3c fa bd
       0.04670474 -0.108626716 -0.010151521 -0.122186534
0001d0 fa 54 7f bd 72 72 6c bd be 0d 8a bc 68 82 08 bd
       -0.0623369 -0.05772633 -0.016852256 -0.03332749
0001e0 60 63 79 bd 1a 46 3c 3c 51 fa 22 3d 46 77 2a 3b
       -0.060885787 0.011491323 0.0397895 0.0026011034
0001f0 c4 e3 44 bb 28 e6 36 bc c4 4c 52 bb ad 56 18 bd
       -0.0030042985 -0.011163272 -0.0032089213 -0.037192035
000200 af 6a 98 bd 1c a5 9a 3c a6 c7 8e 3d 5c 88 5c bd
       -0.07442223 0.018877558 0.06971674 -0.05384098
000210 f6 9c 57 3d ad 71 86 3d f2 48 2e bc b9 20 00 bc
       0.052639924 0.06564651 -0.010637509 -0.007820302
000220 34 06 f3 bc c5 0a 2b 3d 2a f8 10 3d 34 7d a6 3c
       -0.029666044 0.041758318 0.035392918 0.020323373
000230 f3 1d f4 3b f3 2f 6a be ad 24 e7 bd 74 82 cc 3c
       0.0074498593 -0.22869854 -0.11286292 0.024964549
000240 90 76 ae bd a4 6c 21 3d 78 26 f4 bc c5 de f8 ba
       -0.08518708 0.03941025 -0.0298035 -0.0018987289
000250 15 d6 65 3c f5 e4 58 3d 04 b6 7d bd aa bc 1b bd
       0.014028092 0.052952725 -0.06194116 -0.03802172
000260 76 d1 27 3d c4 b3 96 3c fd 4f 9a 3c ad 64 cd 3d
       0.040971242 0.018396266 0.01883697 0.10028968
000270 76 8d 67 bd 24 ff ce bc 67 a4 cd 3d 59 88 88 bd
       -0.056531392 -0.025268145 0.10041123 -0.06666631
000280 33 85 87 bd 8c bb c1 3d 3e 37 7c bd 42 e6 76 3d
       -0.066172026 0.094596 -0.06157612 0.060278185
000290 e0 56 57 3c a8 6a 4a bd f0 62 c3 3c 10 d8 ce 3c
       0.013143271 -0.04941812 0.023850888 0.025249511
0002a0 76 cd 73 3d 8b a1 8b 3d 08 d1 46 3c 68 c5 b0 3c
       0.059522115 0.06817921 0.012134798 0.021578506
0002b0 40 7f 52 bd 69 a4 d7 bd 32 c6 74 be 92 99 5b bd
       -0.051390886 -0.105294056 -0.2390373 -0.053613253
0002c0 7c b2 0d 3e 34 58 4d bd 0d 43 b3 bd 41 e0 bd bd
       0.13837618 -0.050132945 -0.08753023 -0.09271289
0002d0 d6 99 77 bd 5e 85 6a bd 3b d1 93 3b 6e f0 10 3e
       -0.060449444 -0.057256095 0.004511026 0.14154217
0002e0 1a e6 8c bd 76 02 73 3d a2 fe d1 3c cc d2 5e bd
       -0.06879826 0.05932852 0.025634114 -0.05440025
0002f0 07 a6 9a 3d 7a 05 86 bc 7a f4 91 bd 1e b0 ff 3a
       0.075511985 -0.016360033 -0.07126708 0.0019507443
000300 27 86 0e 3d 60 eb 54 bb 5c e2 8d bc 0c bd 01 bd
       0.034795906 -0.0032488927 -0.01731985 -0.03167443
000310 f0 c3 04 3d d2 48 1f 3e 6e 62 39 3d bf f1 53 3c
       0.032413423 0.15555122 0.045259885 0.012936055
000320 96 a8 47 3d b4 a5 85 3d a9 13 a9 bd 30 8f 52 bb
       0.04874476 0.06525746 -0.08255703 -0.0032128803
000330 b5 31 b9 3c 90 71 b9 3d 35 d1 af 3d 65 68 29 3d
       0.02260671 0.090548635 0.08584825 0.041359324
000340 38 6b 3b 3d f4 b7 4a 3d d0 d2 5e 3d 57 3b 1f 3d
       0.04575655 0.049491838 0.054400265 0.03887495
000350 24 56 06 3e cc 81 10 bd 76 85 e6 bd 5b 2e 7e bd
       0.13118798 -0.035280034 -0.112559244 -0.062055927
000360 82 4a b4 3d 28 22 28 bc 41 41 b2 3c 17 88 ce ba
       0.08803274 -0.01026205 0.021759631 -0.0015757111
000370 10 29 bd 3d f9 71 b2 bd ab d1 9a 3c d7 9b f0 3c
       0.09236348 -0.08713145 0.018898806 0.029371185
000380 9c 6f ab bb 7b e4 9c bd 3c 63 fa 3b f3 eb 3b 3c
       -0.0052318107 -0.07660767 0.007641224 0.011469829
000390 7d 6a 09 3b 60 64 61 3c 67 73 ca 3c 84 8d fb 3d
       0.0020968013 0.013756841 0.024713231 0.12282851
0003a0 64 f3 1f be d3 98 3d 3d a4 a6 9e 3d 34 6a 66 3d
       -0.1562019 0.046288323 0.07746628 0.056253627
0003b0 45 ed 9b bc a9 37 2b bd 6f 8e 43 3d d4 a1 ba 3c
       -0.019034037 -0.04180113 0.047743257 0.022782244
0003c0 52 f3 12 bd 98 f1 74 bd 83 8d 5c 3b ef e5 76 bc
       -0.03587658 -0.059800714 0.0033653683 -0.015069469
0003d0 30 c2 2b bd 2c b0 a2 3c 80 8f c3 bc c8 61 a4 bc
       -0.04193324 0.019859396 -0.023872137 -0.020066157
0003e0 94 02 8a bc 0b 4a 44 3b 60 a3 e2 bc d6 da 2d bd
       -0.016846932 0.002995136 -0.027665794 -0.042445026
0003f0 e0 5e 80 3d 03 45 b4 bc 7c 99 9f 3c 31 94 13 3a
       0.06268096 -0.022005564 0.019482367 0.0005629687

network.2.bias f4 [512]
000000 43 a4 d2 bd f9 d5 13 be 15 ff 79 3f a5 ae 9e bb
       -0.10285237 -0.14437093 0.9765485 -0.0048425966
000010 13 5e 1f 3f 5d d9 f4 bd bf e1 a8 3f f3 ff 77 be
       0.6225292 -0.11955521 1.3193892 -0.2421873
000020 10 9e b0 bd 55 2e cd be 44 00 36 bd 7c 7a 90 be
       -0.08623898 -0.4007441 -0.044433847 -0.28218448
000030 66 c9 65 bd d8 3b 1b be 40 55 ce be b7 a9 e6 3f
       -0.05610027 -0.15159547 -0.40299416 1.8020543
000040 95 13 82 3f e6 cb 41 be 31 31 34 be ec 8d 11 be
       1.0162226 -0.18925437 -0.1759689 -0.14214295
000050 a4 f6 4e bc a4 b0 a7 bd 6f bf a8 bd 76 04 9c be
       -0.012632046 -0.081879884 -0.08239638 -0.30472153
000060 bd f1 a3 bd 4b 23 10 be a6 14 e7 bd 62 33 49 bd
       -0.08005092 -0.14075963 -0.11283235 -0.049121268
000070 75 5b a7 bd 10 c0 e5 ba 3b 1d 02 be 2d 13 2e be
       -0.08171741 -0.0017528553 -0.12706463 -0.16999502
000080 9c 8d 84 be 89 af 93 3e 84 fe f4 bc 1e ca 9e be
       -0.2588929 0.2884486 -0.029906519 -0.31013578
000090 d3 c5 13 bc c8 ae dd bd f8 2b be bd 91 ff 60 be
       -0.009019333 -0.108243525 -0.0928573 -0.21972491
0000a0 c8 6a ae 3f d1 09 01 be 62 f6 8a bd 0c 0b 58 bd
       1.3626337 -0.12601401 -0.06785275 -0.05274491
0000b0 de 2d 5b bd 0b 01 ae bd 75 e3 d4 bd 5e d9 1d be
       -0.05351054 -0.08496293 -0.103949465 -0.1541495
0000c0 63 f0 e2 be 06 97 47 3f 5d 55 9f bc 39 00 a0 bd
       -0.44324026 0.7796482 -0.019449884 -0.078125425
0000d0 7b f4 12 be fe 28 1f be b9 d3 aa bd a7 d7 31 be
       -0.14351074 -0.15542981 -0.08341164 -0.17367421
0000e0 62 db 8f be 01 6d 52 be dc 4e e1 3f fd eb c0 be
       -0.28097063 -0.20549394 1.7602191 -0.37680045
0000f0 0b cc ea bc d8 95 f4 bd d0 c9 0b be 3e f5 e9 bd
       -0.028661748 -0.11942643 -0.13651204 -0.11423729
000100 91 a8 cc bc d8 20 d2 3f d5 f6 97 be 25 0a 27 be
       -0.024982722 1.6416273 -0.29680505 -0.16312464
000110 b2 76 8a be 2e 12 7f be 86 2d 3f be b0 21 71 be
       -0.27043682 -0.24909279 -0.1866971 -0.23548007
000120 c6 12 e7 bd 1d 7a 80 be 1e 3a 20 3f 93 fe 1d 3f
       -0.112828776 -0.25093165 0.6258868 0.61716574
000130 96 ef 8d bc b0 ad 0e be 65 3e c5 bb 2e f2 6e be
       -0.017326158 -0.13933444 -0.006019401 -0.23334572
000140 62 26 11 be 0a 31 b2 bd 1a 6f 02 be b9 e1 13 3f
       -0.14174798 -0.0870076 -0.12737694 0.577663
000150 5c d0 ee bd 0f 47 7f be de 54 6b be c5 d5 08 bb
       -0.11660835 -0.2492945 -0.22981593 -0.002087937
000160 20 a0 9b be 0f fc c4 be 83 8d c5 be ff 6f 21 be
       -0.30395603 -0.38473555 -0.38584527 -0.1576538
000170 23 d6 82 be 68 b4 f2 bc a7 43 0a be 69 b3 47 be
       -0.25553998 -0.02962704 -0.1350237 -0.19502033
000180 13 7d 85 bd f1 d3 86 be 67 5c 06 be 4d 49 aa be
       -0.06517997 -0.26333573 -0.13121186 -0.3325905
000190 70 fd e3 bd 7a db cd bd 3d 40 11 be fd e5 71 be
       -0.11132324 -0.100516275 -0.14184661 -0.2362289
0001a0 f1 49 9f bd c2 60 21 bd d7 1e dc bd 4b bf 56 be
       -0.07777775 -0.039398916 -0.1074807 -0.2097141
0001b0 0d 08 13 be 34 0d 18 be 3d 8b 0f be 17 d4 a4 bd
       -0.1435854 -0.14848787 -0.14017959 -0.080482654
0001c0 e3 61 49 be ae 99 09 be 67 f6 45 be ba fb 3c be
       -0.19666247 -0.1343753 -0.19332276 -0.18455401
0001d0 88 0f 55 be 94 25 ba bc 13 82 91 be 3b 0e 53 be
       -0.20806706 -0.022722997 -0.2841955 -0.20610897
0001e0 2f d3 51 bc 3b 62 84 be 76 08 da bc a7 8c ac 3e
       -0.012806698 -0.25856194 -0.026615363 0.3370106
0001f0 e5 77 e7 be 3e 4f 2e be 05 bf 3b be 5e e3 78 bd
       -0.4520866 -0.17022416 -0.18334587 -0.06076371
000200 e4 dc 19 3f 7a 39 2a be d8 e2 c6 bc a8 70 d4 3f
       0.6010268 -0.16623488 -0.02427809 1.659688
000210 90 79 bf bc fa 14 6e bc 23 52 a5 bd 1e 77 88 be
       -0.023373395 -0.014531368 -0.08072307 -0.2665338
000220 d4 de 99 be 2f 88 86 be 82 d7 3c bd 10 3e af bc
       -0.30052817 -0.26275775 -0.04610396 -0.021391898
000230 53 72 0b be f9 82 b5 bd 6c b4 de bd ed f1 aa be
       -0.1361783 -0.08862872 -0.108742565 -0.333877
000240 b4 9b ad 3f ad 5e 32 be 8a 72 d5 bd 4e 44 4a bd
       1.3563142 -0.17418928 -0.10422237 -0.049381547
000250 54 12 59 be a3 30 68 be 22 67 be be fb 06 df 3f
       -0.21198398 -0.22674803 -0.3718806 1.7424005
000260 e4 a4 56 be 8a 42 1a be 8d 7b 00 be 63 75 c3 bd
       -0.20961338 -0.15064445 -0.12547131 -0.09543874
000270 66 99 aa 3e e4 96 a8 be 2e 9b 2b be 4d a4 f9 bd
       0.3332016 -0.3292762 -0.16758415 -0.12189541
000280 27 aa 18 be 07 b8 01 bc bb d7 ec bd f9 13 38 3f
       -0.14908658 -0.007917411 -0.11564585 0.71905476
000290 7b b0 50 40 eb 2d 1a be 5f c4 b7 3e 0b 47 d0 bd
       3.2607715 -0.15056579 0.35892007 -0.101698
0002a0 1b 5b db bd ad 16 5a bd a4 dd fb 3f 23 ef cb be
       -0.10710736 -0.05324428 1.9677014 -0.39830884
0002b0 76 31 17 bd 0c 86 d8 bd 80 02 fa 3f 09 e6 11 be
       -0.036912404 -0.105724424 1.9532013 -0.14247908
0002c0 8f e7 0a be f0 61 b1 3e a2 e4 a8 bd e1 b2 80 be
       -0.13564895 0.34645033 -0.08246733 -0.25136474
0002d0 90 87 40 bd cd 82 b8 bd 6f 70 e2 be 04 b1 82 bd
       -0.047004282 -0.09009323 -0.44226405 -0.06381419
0002e0 69 23 27 bc f9 b8 14 be f1 63 c1 be f7 2d be bd
       -0.0102013135 -0.14523686 -0.37771562 -0.09286111
0002f0 71 02 48 bd e0 08 6d be bf 1e 1b be a7 99 07 be
       -0.048830453 -0.23147917 -0.15148447 -0.13242207
000300 83 3f b0 bd b2 eb 6e bc dd 9f 8d bc 5c cd 57 be
       -0.08605864 -0.014582561 -0.017288143 -0.21074432
000310 3e f5 e4 bd 27 7a 76 bd 7c 72 9c be 4b 39 ac bd
       -0.11179589 -0.060175087 -0.30556095 -0.08409365
000320 3f 42 aa bd 33 c2 5a be 8d 80 f8 bd fa 7a 59 be
       -0.08313417 -0.21363144 -0.12133894 -0.21238318
000330 a4 81 07 bd fa a1 f6 bd 72 c5 c2 bd 84 7e 54 bd
       -0.03308262 -0.12042613 -0.09510316 -0.051878467
000340 61 a8 f3 bc 8c 37 23 3f 8b f1 05 be d5 da fc bd
       -0.029743375 0.6375663 -0.13080423 -0.123464264
000350 e0 2e 59 be c9 d2 01 bd d4 46 51 be bb 77 20 3f
       -0.21209288 -0.03169516 -0.20437175 0.62682694
000360 ef e2 c1 bd 03 6e 09 3f 40 6a 59 bd ff d0 8d bd
       -0.09467112 0.5368349 -0.053079844 -0.069246285
000370 b7 b4 05 be ff 1c 67 3e 72 e2 d9 3f 63 97 7b be
       -0.13057218 0.22569655 1.7022231 -0.24569468
000380 f2 fb 17 3e 73 9b 64 bd bf b4 8a be ff bb d3 bd
       0.14842203 -0.05581231 -0.27091023 -0.10338592
000390 3b 40 ed bb a8 6e fd bd 49 04 64 bd fd d5 6e be
       -0.007240323 -0.12374622 -0.05566815 -0.23323818
0003a0 ab c5 89 be 12 5f 25 be d0 73 00 be 8d c5 51 3f
       -0.2690862 -0.16149548 -0.12544179 0.81942064
0003b0 e3 8f 03 be 7e e7 77 be 6e 2f 22 bd ca ca 03 be
       -0.12847857 -0.24209401 -0.039596014 -0.12870327
0003c0 e3 44 ae bd f0 6f 0e bd 8d 69 f0 bd c2 25 b3 3f
       -0.08509233 -0.03477472 -0.11738882 1.3995898
0003d0 13 0b 37 be 89 43 37 be 81 d4 0f be 51 4b 81 be
       -0.17875318 -0.17896856 -0.14045908 -0.25252774
0003e0 23 0d bc bd 3a 91 97 be c6 29 f1 bd 41 4f ca bd
       -0.09182193 -0.29602987 -0.11775546 -0.09878398
0003f0 91 d7 b5 3f c9 c4 81 be 26 56 0b bb e4 d2 11 be
       1.4206411 -0.25345448 -0.0021261065 -0.14240605

network.4.weight f4 [128, 512]
000000 e6 9c 6c bd 78 a1 09 bc a7 9a 57 bd db 24 0d 3d
       -0.057766818 -0.008400314 -0.052637722 0.034458976
000010 5c 48 f6 bc 10 61 00 bc 11 1e 1f bd 28 b1 d0 3b
       -0.0300638 -0.0078356415 -0.038847033 0.006368775
000020 5d 8c 1e 3d a0 ca a2 3b a8 0f 9e bc 70 1a 7e bb
       0.03870808 0.0049680024 -0.019294575 -0.0038773082
000030 4a 78 cf 3c 91 81 18 3d 45 4f 01 bd ca 8e 9d 3c
       0.025325913 0.03723294 -0.031569738 0.019233126
000040 7b cd 9c bd b0 db 0a bb e4 a3 5b bc 41 48 16 3d
       -0.0765638 -0.0021188073 -0.013405774 0.03669
000050 f8 3f 7d bc 70 4f 12 bb 31 ff b2 bc 28 c4 c9 bb
       -0.015457146 -0.002232518 -0.0218502 -0.006157417
000060 42 e6 33 bd d6 43 8e bc d2 1c df 3c 44 82 78 bc
       -0.043920763 -0.017366331 0.027235422 -0.0151677765
000070 21 96 bb bc b2 be d3 bc 74 63 43 3c 27 8a df bc
       -0.022898735 -0.025847767 0.011925567 -0.027287556
000080 9d fe 03 3d 4e e1 9b 3c a6 6d e7 3c cd 67 28 3d
       0.03222524 0.019028332 0.028250527 0.041114617
000090 20 a5 ac 3a 19 03 99 bc e7 e3 0f 3d d9 69 0f 3d
       0.001317177 -0.018678235 0.035129454 0.035013054
0000a0 ab 2f d2 bc 4e 75 b1 3c 40 c4 e4 3b d4 cc 2f 3c
       -0.025657495 0.02166238 0.0069814026 0.010729987
0000b0 28 3d 32 3c 0c 78 b8 bc 42 9d 61 bc bc 9c 02 3c
       0.010878839 -0.02251818 -0.013770403 0.007971939
0000c0 9a 1a f0 bc 85 77 28 3d df 23 a3 bc 2e 7f 9f 3c
       -0.02930956 0.041129608 -0.019914566 0.019469824
0000d0 27 8f 13 3d 20 b5 e6 bb d6 6a ad 3c 70 8d 01 bb
       0.036025193 -0.0070406348 0.021169107 -0.0019768141
0000e0 f0 76 9e 3b 80 b5 e6 bc ea 08 f7 3c 00 24 11 b9
       0.004835956 -0.028162718 0.030155618 -0.00013841689
0000f0 da 4a 99 3c 01 5d ab bc 88 58 36 3c 16 e8 a2 bc
       0.01871245 -0.020918371 0.011129506 -0.019886058
000100 a7 80 a7 bd f8 b4 d6 bc e0 85 fa bc 06 71 09 bd
       -0.08178835 -0.02620934 -0.030581415 -0.033555053
000110 0b db 30 3d f6 8e 34 bd e2 5d bb 3c 68 d5 2f 3c
       0.043177646 -0.04408165 0.022871915 0.010732032
000120 13 fb 2f bd 35 c6 31 3d 18 c3 b6 bb 6c 2e 57 3c
       -0.042964052 0.043401916 -0.005577456 0.013133626
000130 fe aa fb bc a0 81 6b bb fc 12 84 bd 44 42 26 bc
       -0.030721184 -0.0035935417 -0.064489335 -0.010147635
000140 91 d4 2f bd 32 4d fa 3c 12 0f 95 bc 67 60 1d bd
       -0.04292733 0.030554388 -0.018195663 -0.038422015
000150 36 4f 8f 3c c7 7b 24 3d 26 f5 1f bd 74 50 19 bc
       0.017493825 0.040157106 -0.03905215 -0.00935756
000160 c6 35 8d 3c 5e 30 ed 3c 26 49 97 3c d0 c9 95 bb
       0.017237555 0.028953727 0.018467497 -0.004571177
000170 30 81 cf bc 7c 85 30 bc da 23 80 3c 80 a0 4f bb
       -0.025330156 -0.010774013 0.015642095 -0.0031681359
000180 0a a7 88 3c 3e 48 e2 3c 5e 65 c6 bc b0 75 66 bb
       0.016681213 0.027622338 -0.024218258 -0.0035165362
000190 eb b8 07 bd cf 54 17 3d 04 69 07 bd c6 a2 d0 3c
       -0.033135336 0.036946114 -0.033059135 0.025468241
0001a0 7e 5d ae 3c b9 fe 0c bc 4e 27 7e bc 31 0c 34 3d
       0.021284815 -0.0086056525 -0.015512301 0.04395694
0001b0 1e 5c 97 3c 6a 04 03 bd b8 65 24 bd ed 06 23 bd
       0.018476542 -0.03198663 -0.04013607 -0.039801527
0001c0 20 b1 49 bb a0 41 94 bd 28 62 1f 3c 66 1c bd 3c
       -0.003077574 -0.072390795 0.009727992 0.02308483
0001d0 78 4b 90 3c 32 ff 96 bd 71 f7 01 3d 88 e4 78 3c
       0.017614111 -0.073728934 0.03173012 0.015191205
0001e0 45 6d f0 bc 5a 7d d6 3c 88 f8 0a bc 32 ea 28 bd
       -0.029348979 0.02618282 -0.008482106 -0.04123897
0001f0 c3 6c 2a 3d 67 47 11 bd 71 d9 07 3d b5 fb 0b bd
       0.04160763 -0.035468485 0.033166353 -0.034175593
000200 33 78 b9 bc 12 f0 90 3c 61 9c a0 3c 12 64 86 3c
       -0.022640323 0.0176926 0.019605817 0.01640514
000210 98 60 d3 bb 34 e4 e4 bc 27 69 03 bd 54 c1 68 3c
       -0.006450724 -0.027940847 -0.032082703 0.014206249
000220 2f 2d d0 bc 70 bf 52 3b 20 cf a9 bc ed d0 23 3d
       -0.02541217 0.0032157563 -0.020728648 0.03999417
000230 20 64 2b bb fc 75 4e 3c d4 b3 29 bc d8 67 76 3c
       -0.0026152208 0.012601372 -0.010357816 0.015039407
000240 74 59 61 3c e6 60 14 bd 00 a1 1f bc 13 e1 c3 bc
       0.013754237 -0.036225222 -0.009742975 -0.023911035
000250 c8 bc 8d 3b 2b eb d0 bc 54 d9 42 3c 72 68 ab 3c
       0.004325483 -0.025502762 0.011892635 0.020923827
000260 77 ee 0d bd 74 5b 9f bc ae 09 cd 3c 6e 81 a6 3c
       -0.034651246 -0.019452788 0.02502903 0.020325389
000270 84 80 3a bd 0b 0b 12 bd 7e ae 33 bd ee aa f5 3c
       -0.04553272 -0.035655063 -0.04386758 0.029988732
000280 55 db 15 bd d8 f1 93 bc bc a0 4b bc 14 08 88 bd
       -0.036586124 -0.018059656 -0.012428459 -0.06642166
000290 4e d2 b2 3c 74 8e 25 bc 35 70 1c 3d 5a 49 a9 3c
       0.021828797 -0.010104764 0.038192946 0.02066486
0002a0 01 8d 82 bc fa c7 a3 3c 32 32 b6 3c 03 98 00 3d
       -0.015936377 0.019992817 0.022240732 0.03139497
0002b0 64 07 9c bc 54 7f 3e bd da 3e 17 bd 58 18 6b bd
       -0.019046493 -0.04650815 -0.036925174 -0.057396263
0002c0 38 18 26 bd 8c 07 a6 bd e8 a7 ad 3b e5 30 03 3d
       -0.04055044 -0.08106908 0.005299557 0.03202905
0002d0 c0 a4 e8 bc f0 1a 5a 3c 00 a2 f9 bc 06 33 e6 3c
       -0.028398871 0.013312086 -0.030472755 0.028100502
0002e0 a0 db ba ba cc c4 d0 bc 43 25 02 3d ad 2a 96 bc
       -0.0014256127 -0.025484465 0.031773817 -0.018330896
0002f0 1b 61 4c bd da 1a d5 3c 3a 9c 9b 3c 84 0e a0 bd
       -0.049897294 0.02601378 0.018995393 -0.07815269
000300 76 c0 21 bd 4b 37 9f bc e0 06 f0 bb 55 8c 21 bd
       -0.039490186 -0.019435545 -0.0073250383 -0.03944047
000310 1a 89 1f bd c5 72 19 3d b3 c0 33 3d d0 cd 7e 3b
       -0.03894911 0.03746297 0.043884944 0.0038879998
000320 2b 4e 06 3d 1e 3e da bc de 01 93 3c 1f 6f b6 bc
       0.03278939 -0.026640948 0.017945226 -0.022269784
000330 f6 25 a2 3c 02 b5 fa 3c bc 89 66 3c 55 94 76 bc
       0.019793492 0.03060389 0.014070924 -0.015050014
000340 00 80 db b7 e0 b0 26 3c 17 40 1a 3d fd df 34 bd
       -2.6166439e-05 0.010174006 0.037658777 -0.044158924
000350 e8 dd 45 bc 79 39 06 bd f5 40 0e 3d 76 6b d8 3c
       -0.012076832 -0.032769654 0.034729917 0.026418429
000360 8c cb 1b 3c 70 2b 87 3c 18 b9 c7 bb d5 03 2b 3d
       0.009508979 0.016500205 -0.006095063 0.0417517
000370 01 91 f7 bc f3 f6 4f bd a7 38 2e 3d ca 2d 98 3c
       -0.03022051 -0.05077262 0.042534497 0.018576521
000380 5b cc 7d bd 20 c3 49 bc c4 e6 94 3c b6 0c db 3c
       -0.061962467 -0.012314588 0.018176444 0.02673946
000390 42 61 98 bc 34 74 44 3c 1c f2 8c bd a9 8b 27 bd
       -0.018601064 0.011990596 -0.06882116 -0.040904675
0003a0 d6 f4 9e bc ee 77 f4 3c 63 f5 1c bd e7 2e d2 bc
       -0.019403856 0.029842343 -0.038319957 -0.02565713
0003b0 58 9b cb bb 5a 4d a0 bd d4 d7 31 bd 88 37 31 3c
       -0.006213587 -0.07827254 -0.04341872 0.010816462
0003c0 62 60 71 bc 50 16 2d bc 84 fa 02 bc 0d 19 31 bd
       -0.014732452 -0.010564402 -0.007994298 -0.04323678
0003d0 d9 91 27 bd a4 8f 17 bd 20 52 35 3b a3 4d 2e 3d
       -0.040910576 -0.03700222 0.0027667359 0.04255451
0003e0 c0 df 0a bb 1f cb ae bc e7 2c b5 bc 04 a7 27 3c
       -0.0021190494 -0.02133709 -0.022116138 0.010232691
0003f0 46 42 f6 3c 3a a3 20 bd 06 61 85 3c 9e 27 f7 3c
       0.030060899 -0.039218165 0.016281616 0.030170258

network.4.bias f4 [128]
000000 8c b0 a3 bd 02 be 8a 3c 3b ae ae bd f9 03 ab bd
       -0.07992658 0.016936306 -0.085293256 -0.08350367
000010 cb 4e df bc 7d b0 5f be f7 65 fa bd 6a a2 ec bd
       -0.027259251 -0.21844669 -0.122264795 -0.115544155
000020 f9 df 7f bc 52 3e c5 bc d5 b4 31 be 30 82 a8 bd
       -0.015617364 -0.024077568 -0.17354138 -0.08227956
000030 18 b7 a1 bd 15 8f 69 3c fc 2d 7a bd 27 c4 82 3e
       -0.078962505 0.014255305 -0.06107901 0.25540277
000040 d7 f6 2b be a9 10 6c 3c 71 02 29 bd 49 1f 46 bc
       -0.1679338 0.014408269 -0.041262094 -0.01209242
000050 e6 01 66 3f df 34 54 be e3 bd 1a be 02 eb d0 bc
       0.89846647 -0.20723294 -0.15111499 -0.025502685
000060 ae 00 45 bd e2 bc 71 3f 66 28 f8 bd 0c c3 5a bd
       -0.04809635 0.9442884 -0.121170804 -0.053408667
000070 58 4a b8 bd 55 ed ca bd 63 70 e9 bd 46 56 e9 bd
       -0.08998555 -0.09908549 -0.11398389 -0.113934085
000080 20 15 10 be 60 37 fe bd bc 00 b9 bd 81 2f b1 bd
       -0.14070559 -0.12412906 -0.09033343 -0.08651639
000090 96 54 b7 bd f9 18 7d bc 50 4c 04 be d1 37 57 be
       -0.0895168 -0.0154478485 -0.12919736 -0.21017386
0000a0 72 d4 11 bd 4d 6e ac bd 67 49 18 be 3f 4a ca bc
       -0.035602994 -0.08419476 -0.14871751 -0.024693606
0000b0 2f 29 22 3a f3 c5 8f bd 33 61 a9 bc 91 02 fd bd
       0.00061859464 -0.07020178 -0.020676231 -0.12354005
0000c0 81 fa 66 bd b9 f1 d7 3d 3a 14 63 bd e3 c4 80 be
       -0.056391243 0.10544152 -0.05543921 -0.25150213
0000d0 b8 4d 80 bd 33 c1 3a bd 53 05 52 bd d6 70 9e bd
       -0.06264824 -0.045594405 -0.05127461 -0.077363655
0000e0 3e f8 f9 bc 9a 95 d0 bd f8 89 a5 bc e5 bb da bc
       -0.030513879 -0.10184784 -0.02020739 -0.026700923
0000f0 e7 d8 e9 bd 7f a5 9a bd e1 b2 96 3e d3 38 dd bd
       -0.11418324 -0.07551097 0.2943335 -0.10801854
000100 2c dd 11 bd 60 f3 0a bc b8 35 96 be c5 ed 78 bc
       -0.035611317 -0.008480877 -0.2933786 -0.015193407
000110 3e d9 2a be b0 14 94 bd d1 32 be bd 6a 99 05 be
       -0.16684434 -0.07230508 -0.09287036 -0.13046804
000120 93 34 95 be 66 8b b0 bd 3d 12 7c bd 16 59 52 bd
       -0.29141673 -0.08620338 -0.06154083 -0.05135449
000130 01 00 2a be 90 98 21 bd 49 3d 16 be c4 c1 90 bd
       -0.16601564 -0.039452136 -0.14671816 -0.07068208
000140 bd 81 a0 bd 97 e2 ef bc 1f 55 16 be 66 a7 6e bd
       -0.078372456 -0.029282851 -0.14680909 -0.058265112
000150 a9 e2 8d bd d7 a2 af bd 73 ad aa bc 50 19 cf bd
       -0.069279976 -0.08575981 -0.02083466 -0.1011225
000160 b5 cb 5a bd 3e e0 32 bd 22 5d 69 bd f1 94 f1 bd
       -0.053416926 -0.043670885 -0.056973584 -0.117959864
000170 d8 4a ee bd ed 42 2c bd fb ea 01 be 2f 1e 76 3f
       -0.11635369 -0.042056013 -0.12687294 0.96139807
000180 39 5b 16 be d7 5f ad 3b 2f 2c 2f be 53 a0 0e be
       -0.14683236 0.005290966 -0.17106698 -0.13928346
000190 58 36 2d be 7a e8 d8 bd f2 71 ec 3c a9 48 b3 bd
       -0.16915262 -0.105912164 0.028862927 -0.08754093
0001a0 8a 9f c8 3e 75 15 09 be 62 e3 06 be 5b 6c e1 bd
       0.3918422 -0.13387091 -0.13172677 -0.11006995
0001b0 f0 cb 1b be ea 4f 86 bd 6a 3d d2 bc b6 36 45 be
       -0.15214515 -0.06558211 -0.02566405 -0.19259152
0001c0 3f 38 74 bd 64 1e 8e bc bd a6 0e be 7c 9a 3b be
       -0.059623953 -0.017348476 -0.13930793 -0.1832065
0001d0 3b c6 85 bc 95 4e 1c be f9 7f 0b be 0c eb 00 be
       -0.016329875 -0.15264352 -0.13623036 -0.12589663
0001e0 0d c9 91 bd a1 cd 8b 3e 3d e0 00 be c7 42 87 bd
       -0.071184255 0.2730532 -0.1258554 -0.06604534
0001f0 24 5e a7 be 94 b5 80 3c 80 4f 2a be ae 1b 24 bd
       -0.3268901 0.015711583 -0.1663189 -0.04006546

network.6.weight f4 [12, 128]
000000 db 76 2b 3c 0a 75 65 3c 98 c6 53 bd 6a 5a 05 3c
       0.010465349 0.014004955 -0.051703066 0.008139232
000010 22 69 52 3c 43 a1 7c 3d 36 35 b5 bb 10 0a c7 3d
       0.012842448 0.06167723 -0.005530025 0.09718716
000020 6c a2 ce 3c b2 e0 01 3e be 05 4b bc 25 ea 82 3d
       0.025223933 0.1268337 -0.012391506 0.06392316
000030 f1 07 4c bc 72 a0 9d 3d 8d 1c 66 3c 2a 07 95 bd
       -0.012453065 0.07696618 0.014044893 -0.07276757
000040 97 b3 8d 3d 87 89 ef bc c0 3b 9e 3d d9 46 2b be
       0.0691902 -0.029240383 0.0772624 -0.16726245
000050 a1 62 53 3e 1c 0d b6 bc 0b 72 25 bd 6d c8 d8 3d
       0.20643093 -0.022223048 -0.040391963 0.10585103
000060 90 49 03 3d 91 3d 4c 3e 0d bb b7 bc 4f 3a 66 bd
       0.032052577 0.1994536 -0.02242806 -0.05620795
000070 8c 5e 09 bd 66 ba bc 3c 17 b5 2e 3e ba f2 ff 3c
       -0.033537433 0.0230381 0.17061268 0.03124367
000080 e7 fb 39 3c a7 84 1b be 25 06 3f 3d 18 ee 68 3e
       0.011351562 -0.15187322 0.04663672 0.22747076
000090 6b f2 27 3d 4f 17 04 bd b9 fa bd 3d 44 55 12 3d
       0.041002672 -0.03224879 0.09276337 0.035725847
0000a0 a5 c6 ad 3d 56 37 2c 3d ed 5b a9 3c 68 b5 8a 3b
       0.08485154 0.04204496 0.020673716 0.004233051
0000b0 75 ff e3 39 8a f6 cf 3c 26 88 c5 3d 74 7e 32 3e
       0.00043487144 0.025386114 0.09645109 0.1743105
0000c0 ba 5b de bd 76 7c 0a be f5 1e f5 ba 6e 1d 6d 3e
       -0.10857339 -0.1352404 -0.0018701243 0.23155758
0000d0 21 ee 64 38 5a ed 22 3b bf e4 4e 3d 9a 5c f7 3d
       5.458121e-05 0.002486071 0.050511118 0.12078209
0000e0 d7 bb a4 3c c6 a3 97 bd b3 de 9e b9 bb 33 27 3d
       0.0201091 -0.07404284 -0.00030302032 0.04082082
0000f0 8d 37 c3 3c 6a 5c a4 3d be 85 a0 3e ff 2d 08 be
       0.0238302 0.08025439 0.31352037 -0.13298796
000100 1c 14 5a bd d2 40 a6 3d 2f 21 7d bd 77 15 05 3d
       -0.053241834 0.08117832 -0.061799224 0.032491174
000110 2e 74 e9 bc b5 80 65 bd d5 92 a8 3d 1e 0f 46 be
       -0.028497782 -0.056030948 0.08231131 -0.19341704
000120 b5 38 64 bc a0 0c 4c 3b 58 5c e1 3e d4 35 55 bc
       -0.013929536 0.0031135455 0.44015765 -0.013013322
000130 65 69 d6 bc a4 31 10 3d a9 45 8f 3d 8e 86 17 3a
       -0.026173303 0.03520359 0.069957085 0.0005780243
000140 1e e9 97 3d 69 d2 24 3b cc 30 d8 bd d1 81 09 be
       0.074175104 0.0025149828 -0.10556182 -0.13428427
000150 0e 6f 6c bd dd 9e 0f bd 95 89 cc 3d d2 17 b0 bd
       -0.057723098 -0.035063613 0.09987179 -0.08598293
000160 94 1d 42 bd ee 65 ed 3b 80 14 e0 3b f4 be 5e 3d
       -0.04739149 0.007244817 0.0068383813 0.054381326
000170 94 3e 04 be 8c 64 01 bd d6 a5 21 bd 16 0a f9 3d
       -0.12914497 -0.03159003 -0.039464794 0.12160127
000180 1d 9f 1b bd 2a 94 d7 3c 88 01 c4 bc 6a 55 30 3c
       -0.03799354 0.026315767 -0.023926511 0.010762552
000190 16 69 03 3d b5 73 ef bc 9e 47 f3 bd ac ba b2 3d
       0.03208264 -0.029229978 -0.11878894 0.08727011
0001a0 ad 17 7b 3d 1f fd 8e bb 5d 41 79 bb 96 58 2d 3f
       0.061301876 -0.0043636705 -0.0038033344 0.67713296
0001b0 16 aa 5a bc a1 28 0f 3e 69 ef 06 3c f3 bd 67 3c
       -0.013346216 0.13980342 0.008235791 0.0141444085
0001c0 72 6b 94 3d ac d9 6a bc ad 82 b3 3d 7d a2 ea bc
       0.07247056 -0.014334124 0.08765159 -0.028641934
0001d0 00 23 74 3c 51 3d ac 3c a4 bd 74 3d cd 64 5a 3d
       0.014900923 0.021025332 0.059751168 0.053318787
0001e0 5c 45 2b 3d 30 3b 4a be a4 85 a2 bd 51 a1 87 bd
       0.041814193 -0.1974914 -0.07935646 -0.066225655
0001f0 c4 20 b1 3e 60 04 6f bb 00 5e f5 3a c4 23 e3 bd
       0.3459531 -0.0036471114 0.0018720031 -0.11090806
000200 d7 a5 fd 3d 3c 0b 6d 3d c8 7e d7 3d ee 1d eb bd
       0.12385147 0.057872042 0.105222285 -0.11480318
000210 67 8c f3 3c b5 9f 98 bd bb c0 b6 3d 79 7d 84 be
       0.029730035 -0.07452337 0.08923479 -0.25876978
000220 63 23 87 3c be 23 68 3d 7c b7 e0 3c 45 f4 c2 bc
       0.016496366 0.05667471 0.027431242 -0.023798117
000230 3b 94 5d 3d 30 c3 66 3e cb ca 00 bd ad a2 0d be
       0.05409644 0.22535396 -0.0314434 -0.13831587
000240 5e 41 a5 3d 2f ce 26 3d 65 56 d4 3c 79 d4 0c be
       0.080691084 0.040723976 0.025920102 -0.13752927
000250 2e e6 05 3e be f8 51 3e dd 84 2b 3c 40 61 81 3c
       0.13076088 0.20505044 0.010468689 0.015793443
000260 22 12 b3 bc 58 a9 07 3e 87 4d 70 3d bc bd d0 bb
       -0.021859232 0.13248193 0.058667686 -0.0063702744
000270 61 7c d9 3c f7 4d 7b 3d 06 7f 9e 3c 43 82 60 3e
       0.026548566 0.06135365 0.019347679 0.21924691
000280 05 e3 65 bc cd 16 f5 3c 0b 86 5e 3d 1c b1 14 bd
       -0.014031176 0.029918099 0.054327052 -0.036301717
000290 56 ce f6 bc 40 9b d3 3d ed 33 04 bd 63 76 35 3d
       -0.030127686 0.10332346 -0.032276083 0.044302355
0002a0 de 03 39 3d ef 19 9d bd be 09 fa 3c 88 d1 d5 3c
       0.045169704 -0.07670962 0.030522224 0.026100889
0002b0 f6 f9 83 3d e7 30 86 3e f8 3c 06 3c fd 6c 58 be
       0.06444161 0.26209185 0.008193247 -0.21135326
0002c0 43 6b 05 3e 8f ad 97 3d 7c 16 84 3c a9 ff a6 bc
       0.13029198 0.074061505 0.016124003 -0.02038558
0002d0 40 35 fa 3c 12 f1 85 bd 57 9a 7d 3c 5a b0 92 bd
       0.03054297 -0.06540121 0.015478692 -0.07162543
0002e0 0f 47 27 3d ec 5e 72 3c ab 6f 42 3e 88 8d 3a 3d
       0.04083925 0.014793139 0.1898791 0.04554513
0002f0 85 46 be 3c eb 32 81 bd 26 31 2f 3f 78 0d 03 3e
       0.023226986 -0.0630854 0.6843437 0.12798107
000300 d6 2a 5c bc 61 73 fb 3b b6 6e de bd b5 88 9f 3d
       -0.013437947 0.0076736663 -0.1086096 0.07789747
000310 67 de c2 3d f1 85 97 3d 9c e9 7f bc 3c c4 3e 3a
       0.09515076 0.07398594 -0.015619662 0.0007277166
000320 94 d2 3a 3d 6c c6 0f 3d 52 8f 85 3e 4a b0 4a ba
       0.04561098 0.03510134 0.26085907 -0.00077319576
000330 d4 19 77 b9 f9 f7 13 3e 9d 00 d5 3c 04 76 66 3d
       -0.00023565377 0.14450063 0.026001269 0.056264892
000340 93 36 35 3a 82 5f af 3c 4f af f8 3d be cf 5f bc
       0.0006912734 0.021407846 0.121428125 -0.013660369
000350 8b 01 f9 3d 83 48 16 bd 7c 02 77 be ba c0 69 bc
       0.121584974 -0.036690246 -0.24122041 -0.014267141
000360 56 a8 27 bc 57 9c 03 3d f4 94 6f 3d 6c e4 22 3c
       -0.0102330055 0.03213152 0.058491662 0.009942155
000370 bb 78 a5 bc 18 86 cb 3c 84 74 9e 3d 0c 38 d3 3d
       -0.02019917 0.024844214 0.07737067 0.103134245
000380 24 ae d5 3c 9a 83 bb 3d ba 8e a3 3e fa 78 63 3c
       0.026084013 0.091559604 0.3194483 0.0138838235
000390 a0 d4 66 bc 74 08 c8 bd 08 c2 2c be 6f 52 39 3d
       -0.01408878 -0.09767237 -0.16870892 0.04524463
0003a0 a5 52 b9 3d ed 06 8a 3d 4d 31 be 3c 62 43 c3 3d
       0.09048966 0.06739602 0.023216868 0.095343366
0003b0 e9 7e 41 bb 99 c8 33 be fc df 01 3e 0c 8d 9d 3d
       -0.0029525107 -0.1755699 0.126831 0.07692918
0003c0 df 4f ac bc 0c 73 ae 3c 5c 52 4b bd 47 eb ba 3c
       -0.02103418 0.021295093 -0.04963909 0.022817267
0003d0 88 41 11 3d 7f 10 62 bc e6 9b 8d 3d 67 a9 7f bd
       0.035462886 -0.013797878 0.06914501 -0.062417414
0003e0 9f 36 f4 3d 93 ee 83 3c 51 88 1f 3d aa aa 98 bc
       0.11924481 0.016104972 0.03894836 -0.018636066
0003f0 14 a1 a1 3d 4b 21 d6 3d 1f 91 a3 3c 12 06 8b 3c
       0.07892051 0.10455569 0.01996666 0.016970668

network.6.bias f4 [12]
000000 b0 8a 66 be 8a 8c fe bd 6e 2e 5b 3d ad 46 a7 be
       -0.22513843 -0.124291494 0.053511076 -0.3267111
000010 d2 e3 85 3e a6 ea 52 be 1b 7c 51 3d 49 46 e9 3d
       0.26150376 -0.20597324 0.051143747 0.11390359
000020 d7 29 61 be 1f e2 9a 3e 32 4a 1b 3e fb b8 6b 3f
       -0.21988617 0.30250642 0.15165022 0.9207913
