model/DQNAgent2_20-08-2022__02-56-52.pth/DQNAgent2_20-08-2022__02-56-52.pth (torch, 42319 bytes, 8 tensors)

network.0.weight f4 [64, 13]
000000 16 12 ae bd 57 52 1e bd 85 53 3b bd 33 09 ea be
       -0.08499543 -0.038652744 -0.045733947 -0.45710143
000010 10 2a f8 3d 59 65 19 be 2d f4 d2 bd 9f ce 78 be
       0.12117398 -0.14980067 -0.10300479 -0.2429757
000020 9d 73 cc be 62 0f 4b 3c ff 2f b5 be 34 ba 82 be
       -0.39931956 0.012393804 -0.3538818 -0.25532687
000030 80 f7 88 be 63 69 9c 3d 0c 1e 1b be b4 bc 92 bb
       -0.26751328 0.076372884 -0.1514818 -0.0044780616
000040 46 f0 57 be fc 4e b9 bb ad d0 9d be a8 83 9a be
       -0.21087751 -0.0056551676 -0.3082327 -0.3017857
000050 dd 98 28 38 bb 12 9c 3c e9 fb 40 be db 71 cc 3d
       4.0196686e-05 0.0190519 -0.18846096 0.09982654
000060 da 95 c5 be d8 c8 ef 3d 06 6a 9c be 4a 09 46 3e
       -0.3859089 0.1170823 -0.3054964 0.19339481
000070 73 af b3 3e d0 26 2d bd b8 5d d3 3d c9 49 a3 be
       0.35094795 -0.042273343 0.1032061 -0.3189223
000080 73 71 a8 bd 60 a4 6b be 93 c7 16 bc f1 86 a6 3c
       -0.08224764 -0.23011923 -0.009202856 0.020328017
000090 33 15 17 bc 6c a6 d5 bd 4e 6d 29 be b0 65 e9 3d
       -0.009221363 -0.10432133 -0.16545603 0.113963485
0000a0 a6 74 69 3e 27 7c 8b 3e ec ae 4f 3e a4 aa bc 3d
       0.22798404 0.27243158 0.20281571 0.092122346
0000b0 e0 86 f1 3c 92 05 55 be 63 0c 87 be eb 0d 85 3e
       0.029483259 -0.20802906 -0.26376638 0.2598718
0000c0 ea 19 89 be c9 64 00 be d9 48 4f be 1c e5 91 3d
       -0.26777583 -0.12538446 -0.20242633 0.07123777
0000d0 09 c1 01 be 3a 61 4e be 45 b5 16 be 6c 49 8c bd
       -0.12671293 -0.20154276 -0.14717586 -0.068499416
0000e0 e4 43 ae 3d 60 2b b0 bc 8f 16 26 be 22 6b 3f be
       0.08509043 -0.021505058 -0.16219543 -0.18693212
0000f0 52 bf 18 3e 78 88 08 3e 46 6d 2d 3e 0e 54 11 be
       0.14916733 0.13333309 0.16936216 -0.1419222
000100 70 16 87 be a2 88 9b be 0d 33 88 be 86 33 ba be
       -0.26384306 -0.3037768 -0.2660145 -0.36367434
000110 2a 6c 5a 3e 49 0f 8c 3d df c4 3a 3e 4f aa 7f be
       0.21330324 0.06838853 0.18239163 -0.24967311
000120 1e 4a b7 be 73 c8 5e be 1a 24 c6 3d 05 33 07 be
       -0.35798734 -0.21756153 0.096748546 -0.13203056
000130 a3 34 49 3e ef 4d 9b be 66 6c 16 3e 90 d3 8e 3e
       0.19648986 -0.30332896 0.14689788 0.27895784
000140 ff 7f 5a 3e cb c4 85 bd 86 49 82 be a7 66 96 be
       0.21337889 -0.06531676 -0.2544672 -0.29375193
000150 34 d2 87 be 0b 24 ed 3b d2 0c c1 bd 9d 1d 68 3d
       -0.2652756 0.0072369627 -0.094262734 0.056668866
000160 23 97 24 bc b7 32 84 3d 2c 5a 0a 3e 3a 62 2d 3e
       -0.010045799 0.064549856 0.1351096 0.16932002
000170 9d 8e 86 3b db 0b c8 3d d4 89 23 be b1 46 be bd
       0.0041063563 0.09767886 -0.15970546 -0.09290827
000180 66 57 9b be c1 38 2a be b7 b2 35 bd 62 02 19 3e
       -0.30340117 -0.16623212 -0.04435989 0.14942315
000190 91 8b 9b bb 73 20 f6 bc 0c 58 e6 3d 84 44 a8 bd
       -0.004746862 -0.03004477 0.11247262 -0.08216193
0001a0 44 36 23 bb bd 33 59 3e 26 cd 45 be b6 d1 2a be
       -0.002490417 0.21211143 -0.19316539 -0.16681561
0001b0 5f a3 27 3e 70 fe 38 be 4b 7e 3f be 1b 01 af 3d
       0.16370915 -0.1806581 -0.1870052 0.08545133
0001c0 49 fb 4b 3d e1 d4 dd bd b4 e3 f8 3d 59 13 7b bd
       0.04980019 -0.10831619 0.12152806 -0.06129775
0001d0 cb 32 ab bd 78 d2 86 be 16 a7 2d 3f a9 53 bb 3e
       -0.08359297 -0.2633245 0.6783308 0.36587265
0001e0 21 33 ec bd 4f 07 02 3e 44 ff dd 3d 9b 6e 91 bb
       -0.115331896 0.126981 0.10839704 -0.004438234
0001f0 41 ea 80 be 5d 0b b7 be 06 c3 82 bd e2 50 ca 3d
       -0.25178722 -0.35750857 -0.06384854 0.098787084
000200 61 16 e4 bd c8 be 62 3d 7b 94 8e be ad 5e 8a 3e
       -0.11137081 0.055357724 -0.27847657 0.27025357
000210 5b 42 3f 3f 90 7e 08 3e 3b 97 82 bc 30 99 a5 be
       0.74710625 0.1332953 -0.015941253 -0.32343435
000220 6e a9 6e 3e 91 6d 83 bd 0d 43 66 be 23 02 9b be
       0.2330682 -0.064173825 -0.22486515 -0.30275068
000230 4a b9 20 3e 35 35 70 be 95 95 cb 3d d3 a8 79 3e
       0.15695682 -0.23457797 0.0994064 0.24380808
000240 48 06 29 3e 98 6b a5 bc dd 08 b1 3e 1f 21 49 be
       0.16506302 -0.020192906 0.34577075 -0.19641541
000250 ec b8 7f bc db 8a 2d be cf 26 15 3e 4e d8 1e be
       -0.015608054 -0.169475 0.14565586 -0.15512201
000260 22 49 a1 be 7c ed ef bd b7 be a0 be 66 a0 51 bc
       -0.31501108 -0.117152184 -0.31395504 -0.01279459
000270 1e 8d b2 be d0 e8 86 be 78 4b e5 be 94 08 19 3e
       -0.3487329 -0.26349497 -0.4478414 0.14944679
000280 95 74 67 be e7 dc b7 3c ba b3 1e 3e bf 05 96 be
       -0.22603066 0.022444202 0.15498248 -0.2930126
000290 59 3e be bb 5c e1 a6 be 61 c0 c2 bd a7 be 8d be
       -0.0058057723 -0.3259381 -0.095093496 -0.2768452
0002a0 09 aa 8d 3e 8f f2 80 bd c0 e0 d0 3e 6d a1 ca 3e
       0.2766879 -0.062962644 0.4079647 0.39576283
0002b0 77 a3 b5 bc 86 75 58 3e cb 15 b4 be ae 0f 38 3e
       -0.022172673 0.21138582 -0.35172877 0.17974731
0002c0 cf e6 2c be 4b 3a 71 b9 b3 f0 ad bc 76 76 b2 3d
       -0.16884921 -0.00023005267 -0.021232938 0.08714001
0002d0 b3 af 8e 3d b5 9c 81 be a0 45 4a be c2 50 f5 3c
       0.06967106 -0.2531487 -0.19753122 0.029945735
0002e0 b4 8b 99 be ee 53 ca 3c 50 42 db bd e4 2a 1b bd
       -0.29989398 0.024698224 -0.107060075 -0.0378827
0002f0 db 38 a2 3d d3 12 41 be 35 89 2d be 26 09 95 be
       0.079210006 -0.18854837 -0.16946872 -0.29108542
000300 14 f5 a6 be ae 88 3d be 3d e7 83 be c8 ae 18 bc
       -0.32608855 -0.1850917 -0.25762358 -0.009319015
000310 e8 7f c2 3d d3 43 46 3e 4c 69 c8 bc 64 89 4f bd
       0.094970524 0.1936181 -0.024464272 -0.050668135
000320 e4 d8 70 be cf de 52 be 97 1e 8b 3d f8 ef 25 be
       -0.23520237 -0.20592807 0.06792944 -0.16204822
000330 f6 32 ff 3d b9 34 8c bd ff 67 7c be c4 a8 67 3d
       0.12460892 -0.068459935 -0.24649046 0.05655743
000340 1b 91 fe bd f1 17 9b 3e a5 a2 8d 3e c4 af 19 3e
       -0.124300204 0.30291703 0.2766315 0.15008456
000350 95 c0 1b be 76 2f 13 be e8 de 5c be 8d 67 3e be
       -0.15210183 -0.14373574 -0.21569407 -0.18594189
000360 24 cc a2 bd ca 09 66 be 31 02 80 3c 8b 84 0f 3e
       -0.07949093 -0.22464672 0.015626045 0.14015405
000370 cf 54 85 3d 44 aa db 3c 68 fe 6a bc f1 a3 59 3c
       0.065103166 0.026814587 -0.014342882 0.013283716
000380 75 0b aa be 5c 90 0b 3e 7d 0d d9 be 65 a4 72 3d
       -0.33211866 0.13629287 -0.42393103 0.05923881
000390 77 43 66 bd 1b 34 74 bd 42 87 50 bd 1c 64 d2 3d
       -0.056216683 -0.059620004 -0.050910242 0.102730006
0003a0 3c 6d 03 3d 1b 8c 88 bc 6e 30 6d 3d a0 33 50 3e
       0.032086596 -0.01666837 0.057907514 0.20332193
0003b0 56 87 93 3e 1c 6b ad bd 88 d5 5e 3d bd b4 79 3d
       0.2881419 -0.08467695 0.054402858 0.06096338
0003c0 be e3 89 bd aa aa c1 3d 50 ff 87 be f4 39 d5 bd
       -0.067328915 0.0945638 -0.26561975 -0.10411444
0003d0 28 7f cf be 39 ae db be db ab 12 3d 5e ea c8 3e
       -0.405267 -0.4290636 0.035808425 0.39241308
0003e0 ae 28 11 3f 0e 2f 58 3e ca d2 2b 3f 67 80 c7 3d
       0.567027 0.211117 0.67118514 0.09741288
0003f0 5d fb 34 3e dc 08 ff 3e 33 eb a4 3e 54 77 ea 3e
       0.17674012 0.49811447 0.32210693 0.45794165

network.0.bias f4 [64]
000000 a2 b6 9d be cf 46 0b be 79 79 3d 3d 60 69 fe bd
       -0.308034 -0.1360123 0.046258423 -0.124224424
000010 b8 1a eb 3d 54 57 b8 bc 8c 2e b1 be 4a e3 1f 3d
       0.114797056 -0.022502579 -0.34605825 0.03903512
000020 f9 93 a0 bd b3 bb bf be 96 99 a4 3d 93 37 53 bb
       -0.078407235 -0.3744789 0.08037107 -0.003222917
000030 0a 9f 37 be d1 3c d2 be 64 2f 02 3e b6 f2 26 be
       -0.17931762 -0.41062024 0.1271339 -0.16303524
000040 c0 61 0c be fd 26 a3 be 7c 52 bf be 98 55 b7 3e
       -0.13709164 -0.31865683 -0.37367618 0.3580749
000050 67 da 3e be 98 eb 6b 3d 59 ff 63 bd bf f8 92 be
       -0.18638001 0.057597727 -0.05566344 -0.28705403
000060 6c 9a 24 bc 72 f8 3f 3e 18 f5 22 3d a4 d3 1d 3e
       -0.010046583 0.18747118 0.03978452 0.15412766
000070 96 4e 18 be 35 c6 d1 bd 83 3a c3 3c 4f d8 a3 be
       -0.14873728 -0.10242883 0.023831611 -0.32000968
000080 f9 bc e9 be df fa 4a be 4c ab d5 be 9f 79 51 be
       -0.45651987 -0.19822262 -0.41732252 -0.20456551
000090 80 fe e3 bc 86 af 4a be 3b e1 f0 bd 51 01 57 be
       -0.027831316 -0.1979352 -0.11761709 -0.20996596
0000a0 06 71 19 bd 02 a9 90 be b8 8f ab 3d 1f 2d 29 be
       -0.037461303 -0.28253943 0.083770216 -0.16521119
0000b0 f8 7b a4 3a 71 49 06 3e 92 c0 5d 3e 96 6d 19 be
       0.0012549153 0.13113953 0.21655491 -0.1498321
0000c0 e1 7b a3 3c dd 61 97 be 5a 8b 88 3d 02 d9 f9 bd
       0.019956531 -0.2956685 0.06667204 -0.12199594
0000d0 e7 a2 33 be be 0d 1e 3c ef db 57 3b f0 68 46 3e
       -0.17542611 0.009646831 0.0032937487 0.19375968
0000e0 47 34 06 3e e5 70 44 be a6 4d c2 3d 8a 20 b8 3a
       0.1310588 -0.19183691 0.094874665 0.0014047783
0000f0 d2 cd 81 be 04 15 bc be 7d e7 b6 3d 85 1a 19 be
       -0.2535234 -0.36734784 0.08930872 -0.14951523

network.2.weight f4 [64, 64]
000000 22 9a a5 bd d9 d3 a5 3d 50 ce 01 3c a8 23 ee bc
       -0.08086039 0.08097047 0.007922724 -0.029069737
000010 fc 4a b5 3d 72 a0 7b bd 61 3f d7 3c e8 a8 38 3d
       0.08852193 -0.06143231 0.026275339 0.045082957
000020 b4 13 4c bd 02 02 f4 bd 63 8c 21 bd 87 6b d4 bd
       -0.049823478 -0.119144455 -0.039440524 -0.10372072
000030 19 51 b5 bc f7 0a 0a 3d 38 99 fc 3d ed c2 71 bd
       -0.022133397 0.033701863 0.12333912 -0.059023786
000040 12 ee 26 bd 58 43 a1 3d b9 5f e5 bc bc 77 0a be
       -0.040754385 0.07874173 -0.027999746 -0.13522238
000050 33 ea 1e 3d fc 63 b8 bd ae 8d 0a 3d 9b 8d df bc
       0.03879757 -0.090034455 0.033826523 -0.027289202
000060 ca 86 37 be 74 9b 69 bd 79 01 6d bd 6d 2f a8 bd
       -0.17922512 -0.057033017 -0.057862733 -0.08212171
000070 59 70 08 be 1d ae d6 bc 87 1a ae bd 99 11 96 bd
       -0.13324107 -0.02620607 -0.085011534 -0.07327575
000080 07 3d cd bd 08 a6 0f 3d 39 a3 de bb 8d 1e 35 be
       -0.10021406 0.03507045 -0.00679436 -0.17687435
000090 99 c6 0c 3e fc 5f 44 3d e6 e2 c1 bd 28 1b ed 3c
       0.13747634 0.0479431 -0.094671056 0.028943613
0000a0 b5 ee 25 3d e6 06 3b be 30 bb ad bd a2 9c bb bd
       0.040510852 -0.1826435 -0.08482969 -0.09160735
0000b0 91 1d 90 bd 68 54 d5 bd 89 4a e7 3d da 40 cf 3d
       -0.07036889 -0.1041649 0.11293513 0.10119791
0000c0 2a ed 01 bd f5 db 08 3e 90 67 95 bd a6 ae 85 bd
       -0.031720318 0.13365157 -0.072951436 -0.06527452
0000d0 99 66 fa bd d3 11 13 be 3f 1c ca bd c4 49 99 3d
       -0.122266 -0.14362268 -0.09868669 0.07484773
0000e0 84 64 2d 3e 5e 6c 18 be 1c 43 cd bd 96 4a b2 3d
       0.16932875 -0.14885089 -0.10022566 0.087056324
0000f0 fc 9b 7a bd 89 b9 96 bd 7c 9f 12 be 38 32 09 3d
       -0.061183915 -0.07359607 -0.14318651 0.033495158
000100 00 a7 e5 bd 30 b7 ad bd f8 d1 b5 bc 42 98 b4 bd
       -0.11213493 -0.08482206 -0.022194847 -0.088181034
000110 e0 22 9e bb fc 63 3a 3d 31 6f 64 be 28 51 5e bd
       -0.004825935 0.04550551 -0.22308041 -0.054276615
000120 00 ec 88 39 de f0 72 be 93 03 e4 bd 0b 44 7f bd
       0.00026115775 -0.23724696 -0.11133494 -0.06232075
000130 d8 2f 1d bd f0 77 49 bd 8c 84 ba 3d b0 88 29 3c
       -0.038375705 -0.049186647 0.091073126 0.01034753
000140 d4 42 18 3d f1 33 5a be 62 dc 15 be 52 6c bf bd
       0.037173107 -0.21308877 -0.1463485 -0.09346832
000150 1a e6 c5 bd 1c ec 94 bd f0 d9 cd 3d 00 46 25 ba
       -0.09663029 -0.07271597 0.10051334 -0.00063046813
000160 e0 f6 7c be 6c 82 a4 bd 15 5a 01 be c0 37 12 3b
       -0.2470355 -0.080326885 -0.1263202 0.0022311062
000170 5f 0b b4 bd 40 c7 61 bc 18 88 72 3d 38 4c ea 3d
       -0.08791231 -0.013780415 0.05921182 0.11440319
000180 d8 c8 68 bd 60 93 fb 3b 88 d4 e7 bd 80 5f fc bc
       -0.056832165 0.0076774806 -0.11319834 -0.030807257
000190 90 3d e6 bc 98 51 3a bd 80 fa d2 3b f0 f4 f2 bd
       -0.028105527 -0.04548797 0.0064385533 -0.11863124
0001a0 7c 43 cb bd e0 49 d9 bd d2 2e a7 bd 96 48 9c 3d
       -0.09924981 -0.10609794 -0.08163227 0.07631032
0001b0 bc 55 15 bd a0 9f b9 3c 80 78 da 3c 68 8e ba bc
       -0.036458716 0.022659123 0.026668787 -0.022772983
0001c0 98 56 72 3d d6 1f fa bd 96 27 a0 3d da a4 f1 bd
       0.059164613 -0.122131035 0.078200504 -0.11799021
0001d0 9a c4 9b bd 38 52 77 3d 1a e5 d0 3d 78 7d d7 3d
       -0.07605858 0.060381144 0.10199948 0.10521978
0001e0 78 cb ae bc c0 7a d9 bd 30 75 a6 3c 7c 78 69 3d
       -0.021337256 -0.10619116 0.020319551 0.05699967
0001f0 1e a6 98 bd 2f 6e 4f be 01 2d 6d be 22 a2 ef bd
       -0.07453559 -0.20256875 -0.23161699 -0.11700846
000200 53 38 62 be aa 8b 4c 3d 76 32 96 bd 2c ef e4 bd
       -0.22091798 0.04993788 -0.073338434 -0.11178431
000210 4a 98 c8 3d 44 ae 87 bd ed e9 47 be 9c c7 3c bd
       0.09794672 -0.066250354 -0.1952283 -0.0460888
000220 1f 32 1f be dc 76 ec 3d 48 67 79 bd 38 86 fe bc
       -0.15546463 0.11546108 -0.060889512 -0.03106986
000230 64 f5 47 be 2f 92 48 bd 20 9e ea 3c 84 02 5b 3d
       -0.19527203 -0.048967537 0.028639853 0.053469196
000240 c0 fe 64 bd b6 49 b9 bd 51 4c b2 bd b6 15 b8 be
       -0.05590701 -0.09047262 -0.087059624 -0.35954064
000250 b1 34 01 be a3 de d6 bc 81 c1 2b be 8b fe 0f 3c
       -0.12617756 -0.026229208 -0.16773035 0.008788715
000260 54 d8 93 be 3e d2 8c bd fc 37 00 be 0b bf 4f be
       -0.28875983 -0.06876038 -0.12521356 -0.20287721
000270 28 09 04 bf 88 fa ff bd 49 0c 14 bc 00 a1 b5 3a
       -0.5157647 -0.12498957 -0.009036132 0.0013857186
000280 b0 3f 9a bd d8 6f 32 be ff cb 3c be 70 de 93 bd
       -0.07531679 -0.17425478 -0.18437193 -0.07220161
000290 ff 48 9f 3d 5a c7 ea 3d 90 e5 c6 3c 50 a0 b4 bc
       0.07777595 0.114638045 0.024279386 -0.0220491
0002a0 4e 25 8a 3b b8 99 3c be a0 91 ba bb 31 06 a2 3d
       0.004215873 -0.18418014 -0.0056936294 0.07911337
0002b0 90 0e c0 bd d9 e8 2d 3d 5d f1 1c 3e 90 11 ca bd
       -0.093777776 0.04245839 0.15326448 -0.09866631
0002c0 17 53 9d 3d 80 9f 59 bd 1d 88 12 bd f4 19 3c be
       0.07681864 -0.053130627 -0.03577434 -0.18369275
0002d0 0c 51 3a 3e 14 fc 5b 3c ef 9c 87 bc 28 e3 06 bd
       0.1819498 0.013426799 -0.016554324 -0.032931477
0002e0 63 9c 60 bd db 5b 25 be 01 46 c7 bd af 67 46 3e
       -0.054836642 -0.16148321 -0.09730149 0.1937549
0002f0 00 b7 be 3b 16 14 b9 bd 20 54 f9 bd 80 3d f0 3a
       0.005820155 -0.09037034 -0.12174249 0.0018328875
000300 0a f9 b0 3d ac 4b b6 bd 0a 05 9f 3d d8 a6 6d bd
       0.086412504 -0.08901152 0.07764633 -0.058020443
000310 c0 43 a0 3c a8 27 ba 3d 35 b0 95 be fe 99 a6 3d
       0.019563556 0.09089595 -0.29235998 0.081348404
000320 88 d9 ab bc 31 f4 85 be d8 63 e1 3c 4a 16 9e bd
       -0.02097775 -0.26162866 0.02751343 -0.07719095
000330 7d a1 84 be f5 f5 67 be cc 03 1e bd ea 94 da bd
       -0.25904456 -0.22652419 -0.03857784 -0.10672934
000340 00 de e3 39 d9 95 3b bd 64 b1 66 be 9d 8e 7a be
       0.00043462217 -0.045797203 -0.22528607 -0.24468465
000350 ba 52 ca bd f8 2f 28 3d 92 c4 da bd 2c 7e 0c 3d
       -0.0987906 0.04106137 -0.10682024 0.034300014
000360 af 40 1c be 18 0d a7 3c a6 1f 75 be 30 6c a4 bc
       -0.1525905 0.020391986 -0.23937854 -0.02007112
000370 d6 e3 27 3d 38 6e 32 3d 20 32 2f 3c e0 89 d6 3b
       0.040988766 0.043562144 0.010693103 0.0065471977
000380 2a 6b 91 3d 58 5f 1a bd 5c 19 1c bd 9f 77 6a be
       0.07100518 -0.037688583 -0.038110122 -0.22897194
000390 e0 b9 99 bc 94 86 ce bd 30 06 ab 3d 6c f1 ff bd
       -0.01876539 -0.100842625 0.083507895 -0.124972194
0003a0 7a 34 b3 bd ad 54 14 3c f0 e4 00 bc e8 60 53 3d
       -0.087502435 0.009053391 -0.007867083 0.05160609
0003b0 42 cd e2 3d af 0c 85 be b0 65 95 bd ca 4f 81 bd
       0.11074306 -0.2598624 -0.07294786 -0.06314047
0003c0 f8 90 e6 bd 82 ea 9d 3d 80 c8 fd 3a 58 25 a0 bc
       -0.11258119 0.077107444 0.0019362122 -0.019549057
0003d0 f4 8e 2a be 40 fd 5d bd e0 df 1a 3c 74 4c 04 bd
       -0.16656095 -0.054196596 0.00945279 -0.032299474
0003e0 30 58 7c bd 20 94 46 3c 96 62 6d bd 16 99 ac bd
       -0.06160754 0.012120277 -0.057955347 -0.08427636
0003f0 42 a0 fe bd 22 2b 8d bd 08 88 23 be 14 3d 73 3d
       -0.124329105 -0.068929926 -0.1596986 0.05938442

network.2.bias f4 [64]
000000 ed fe 91 be fb 91 77 be 42 bb c4 bd a1 21 0a bd
       -0.28514805 -0.24176781 -0.09606029 -0.033723477
000010 52 c0 ad be 76 dc bd be 0e e2 93 be d0 48 c0 be
       -0.3393579 -0.3708226 -0.28883404 -0.37555552
000020 2b 0c 3c be 6e 8c eb bd 9f 1b 76 be 53 5f a1 be
       -0.18364017 -0.11501394 -0.24033974 -0.3151804
000030 b5 ea 1d bd 38 c3 8e be dc d4 c7 bd 19 50 30 be
       -0.038553912 -0.27883315 -0.097573966 -0.17218055
000040 da fa f9 bc 84 c8 9c be b9 29 c1 bd 36 c8 78 be
       -0.030515123 -0.3062173 -0.09431786 -0.24295124
000050 26 a1 9e be d5 3a 68 bd 30 53 b4 be 35 62 39 be
       -0.30982322 -0.05669673 -0.35219717 -0.1810387
000060 e4 90 02 be 26 18 8d bd 30 b6 29 be 17 68 a8 3e
       -0.12750584 -0.068893716 -0.16573405 0.32891914
000070 46 f6 56 be 43 62 83 be 51 d5 d6 3e e9 b5 b6 bd
       -0.20992383 -0.25660905 0.41959623 -0.08921415
000080 05 24 35 be 09 d7 98 be 62 83 24 be a7 4a a6 3e
       -0.17689522 -0.2985156 -0.16065744 0.3247883
000090 09 60 96 bd 69 7b d6 bd 8e 27 f9 bd 2d a0 c5 be
       -0.07342536 -0.10472757 -0.121657476 -0.38598767
0000a0 f0 6c 31 be 74 08 87 be 9c 01 75 be f7 86 b1 be
       -0.17326713 -0.26373637 -0.23926395 -0.34673283
0000b0 4b 37 aa be 66 d6 c4 be 02 85 8e 3e 0f 9b a5 bd
       -0.3324531 -0.38444823 0.27835852 -0.08086216
0000c0 32 98 e4 bd 33 fa 87 be 92 86 8d be 02 ac 7d bd
       -0.111618415 -0.26558074 -0.27641732 -0.061931618
0000d0 6c d4 23 be 82 b7 1e bf ba b5 0c be f3 a8 93 be
       -0.15999001 -0.6199876 -0.13741198 -0.28839836
0000e0 2c a1 0a bf 4f 2a c0 3d 9b 8f 98 be 22 c5 a1 be
       -0.5415218 0.0938307 -0.29797062 -0.31595713
0000f0 a3 3f ca be 68 17 69 be db 9d 8d bc 44 d4 9d be
       -0.39501676 -0.22762835 -0.017287185 -0.30826008

network.4.weight f4 [64, 64]
000000 1a 05 77 bd 0c c8 37 bd c1 96 30 be b8 12 89 3c
       -0.0603076 -0.044868514 -0.17245008 0.016732559
000010 2a f5 2a 3e 75 92 a3 3d 65 2e 6f 3d d0 b4 31 bd
       0.16695085 0.07986919 0.058393855 -0.043385327
000020 09 44 93 bd f8 52 31 bd ff e6 3d bd 1b 3b 90 be
       -0.07190711 -0.043292016 -0.046362873 -0.28170094
000030 f4 e5 72 3d 60 3e 9d bd fb 02 80 be 8b 69 9d bb
       0.05930133 -0.07677913 -0.25002274 -0.0048038415
000040 6d 8a 24 3e d2 b6 a7 bd 81 72 39 bc db e9 a2 bb
       0.1606843 -0.08189167 -0.011318804 -0.0049717254
000050 32 18 1a be de 85 17 bd 48 6b 18 bd 25 49 b3 bd
       -0.15048292 -0.0369929 -0.037211686 -0.087541856
000060 ea 36 84 bd c6 62 39 be a7 b2 98 bd ac f0 63 3d
       -0.064557865 -0.18104085 -0.0745595 0.055649444
000070 37 24 54 be 89 fb a5 bd 32 a4 da bd 8c 6f c6 3c
       -0.2071694 -0.08104617 -0.10675849 0.024223112
000080 ca 29 ad 3d 6f 1a 54 bd 73 55 01 bd 20 39 6a bd
       0.08455236 -0.05178302 -0.03157563 -0.057183385
000090 56 f2 ba 3c d4 24 3a be f2 cb a6 bd a2 85 cc bd
       0.022820633 -0.18178111 -0.08144368 -0.09986426
0000a0 58 59 84 3d fd 28 91 bd 64 73 0d bc a1 e7 5a be
       0.064623535 -0.07087896 -0.008633468 -0.21377422
0000b0 c7 7f e2 bb 18 06 b4 bd e4 bd 14 be 12 31 d0 3d
       -0.006912205 -0.08790225 -0.14525563 0.101656094
0000c0 d7 6a 31 3e 22 b6 94 3d e0 1f 42 3d 7e 25 90 bd
       0.17325912 0.072613016 0.04739368 -0.07038401
0000d0 b1 af 01 3d 25 35 33 3d e4 f5 68 3d da b7 3f 3d
       0.031661693 0.043751854 0.056875125 0.046806194
0000e0 fc e3 b1 3d bd bf a1 3c 1d 70 4e 3d 5b 15 1c be
       0.08686063 0.019744748 0.05039989 -0.15242521
0000f0 50 0e c2 be 65 ee db bc 32 5c 3b be f9 9f 48 be
       -0.37901545 -0.026847074 -0.18296888 -0.19592275
000100 86 ff 71 bd 18 7a d8 bc de bf 98 3c 87 a5 16 be
       -0.059081577 -0.026425406 0.018646177 -0.14711581
000110 80 cf fb 3d a9 5f cd bd b6 22 32 be dd 80 9c be
       0.12295437 -0.10028011 -0.17396054 -0.30567065
000120 68 cb d0 bd 86 43 f5 bd f0 47 2f 3e 1e 0b 11 be
       -0.10195047 -0.1197577 0.17117286 -0.14164397
000130 bd 2a 27 be 35 54 83 bd 50 29 a8 bd e8 0f 1e be
       -0.16324897 -0.064125456 -0.08211005 -0.15435755
000140 c4 ca 41 3d 30 21 13 be b0 cf 2a 3d b3 ea 12 bd
       0.047312513 -0.14368129 0.041701972 -0.035868358
000150 61 a5 3b bd b1 52 c2 3d e1 2d 1e be cc c4 9c 3d
       -0.045812014 0.094884284 -0.15447189 0.076547235
000160 7e bf 95 3d 34 a6 e7 3b 60 26 be bb fa b9 55 3c
       0.07311915 0.0070693735 -0.0058029145 0.013044829
000170 ce 42 07 be 9a 5f aa bd 08 b3 da be e5 68 a8 3d
       -0.13209078 -0.08319016 -0.42714715 0.08223132
000180 c2 c5 5e 3d 46 1f f3 bd a9 1b 7c 3d 61 7f ba be
       0.054387815 -0.11871199 0.061549816 -0.36425307
000190 eb 26 a3 3d 10 c3 c2 bd f8 80 98 bd 81 ad 9e 3d
       0.079664074 -0.095098615 -0.07446474 0.07747937
0001a0 0d b8 b3 bc 3f 5b 5b 3b c5 5e 2b 3d e6 c6 15 bd
       -0.021938348 0.0033471135 0.041838426 -0.036566637
0001b0 c2 98 21 3d 90 1b 7b bd b7 44 f4 be 16 78 20 3d
       0.03945232 -0.061305583 -0.47708675 0.039177023
0001c0 fe b1 05 3e 2d d3 c1 bd 9c c0 04 bd 1e 35 69 3d
       0.1305618 -0.09464107 -0.03241025 0.056935422
0001d0 77 73 25 3d 43 25 94 bd 23 bd a3 bd 72 70 8c 3d
       0.04039332 -0.072336696 -0.07995059 0.06857385
0001e0 e3 b2 f3 3c 5c a9 ad be d1 35 37 bd 60 e1 29 be
       0.029748386 -0.33918273 -0.044729058 -0.1658988
0001f0 66 4d 5e be 49 84 71 bd 42 4a a3 bc d6 b7 e2 bd
       -0.21709213 -0.058964048 -0.01993287 -0.1107022
000200 4e 45 04 3c fa 9e d6 3d 8f 35 ee 39 e0 a1 cd 3e
       0.008073164 0.10479541 0.00045434802 0.40162563
000210 12 49 b3 3e 7e fa 15 be 0c f6 46 be d8 79 0f be
       0.35016686 -0.14646336 -0.19429797 -0.14011323
000220 b2 b8 b0 be 3c 7c 6e bd 6f 6d be bd cd d8 c0 be
       -0.3451591 -0.058223948 -0.092982166 -0.37665406
000230 57 d5 74 bd f4 d1 9b 3c 02 dc ed 3d a4 33 5f be
       -0.05977377 0.019021012 0.11614229 -0.21797043
000240 f2 07 ee bc a0 77 db bc e5 7f 24 3c 19 ee 40 be
       -0.029056523 -0.02679044 0.010040258 -0.18840827
000250 54 d8 99 3e 64 75 89 bd d7 2c b8 bd e8 c0 cc 3c
       0.30047858 -0.067118436 -0.089929275 0.024994329
000260 f6 a6 f8 bb 99 f9 a7 bd e4 27 23 3e 79 93 3b 3d
       -0.0075882627 -0.08201904 0.15933186 0.045794938
000270 16 24 eb 3d 00 a0 62 38 74 6a 88 bd f8 54 ac be
       0.11481492 5.403161e-05 -0.06660929 -0.33658576
000280 6d 04 d4 bd 61 68 4e bd fe be 3b 3d 17 ed 25 be
       -0.10352407 -0.050392512 0.04583644 -0.16203724
000290 66 27 07 3d 62 74 18 3e 43 9a 39 be 65 40 1b be
       0.032996558 0.14888147 -0.18125252 -0.15161283
0002a0 16 74 5b bd 14 38 25 3d 6d 55 d2 bd d4 30 8d 3d
       -0.053577505 0.040336683 -0.102702 0.06894079
0002b0 1d 55 ee bc 45 19 e3 bb 90 c7 a7 3c 29 88 51 be
       -0.02909332 -0.0069305026 0.020480901 -0.20462097
0002c0 06 d8 62 bc f1 10 56 bd 4b 20 56 3e 0d 40 35 be
       -0.013845449 -0.05226225 0.20910756 -0.17700215
0002d0 1b 2e 74 3b 43 ab 60 be c0 84 46 3e b2 8f 0d be
       0.0037258926 -0.21940331 0.19386578 -0.13824347
0002e0 a9 72 65 3e b3 58 f1 bd fb 27 f4 bd 37 54 53 bc
       0.2240702 -0.11784496 -0.11921688 -0.012898496
0002f0 a4 e4 cb bd 44 c0 47 be 66 c0 f5 be 83 43 12 be
       -0.09955719 -0.19506937 -0.4799835 -0.14283566
000300 8b 65 07 bc 3b 4f 56 be 5e 76 92 be 73 9b bc bd
       -0.008263956 -0.20928662 -0.28605932 -0.09209337
000310 72 4f e9 3d 82 1f f6 bd b0 e8 63 3e 3b 21 29 bd
       0.11392106 -0.120177284 0.22256732 -0.041291457
000320 d4 22 ec be e4 7c 23 3d da d0 e0 3d 36 f2 db 3d
       -0.46120322 0.039914027 0.10977335 0.107395574
000330 8e 63 7d bd 05 2d f3 bc ba 08 42 3d b0 77 93 be
       -0.06186252 -0.029684553 0.047371604 -0.28802252
000340 06 4a af bd 36 45 87 3d 32 d9 c0 3d ce 1e 9f be
       -0.08559041 0.06604998 0.09416427 -0.3107819
000350 b6 00 90 bd 6e 9f c8 bd 2f 18 34 3d 10 c7 e3 3d
       -0.070313856 -0.09796034 0.043968376 0.111219525
000360 0c ad 40 3d 06 df b5 3d 4c d1 86 bd 85 9f 24 3c
       0.04704003 0.08880429 -0.06582889 0.010047798
000370 b0 5b 1a be 3c 75 e3 bd 63 5f 0e be 7f cf 61 3e
       -0.15074039 -0.11106345 -0.13903575 0.2205181
000380 10 12 e6 bd eb 37 d3 bd 1c 4c 42 bd e9 ff 80 3d
       -0.11233914 -0.103134 -0.047435865 0.06298811
000390 e0 78 c5 bc de 12 f2 bd 2e da 0f be 25 89 0d bd
       -0.02410549 -0.11820005 -0.14048073 -0.03455462
0003a0 6c 86 26 bc 3d 90 8a be 11 db 72 be 28 7b e1 bd
       -0.010163885 -0.2706317 -0.2371638 -0.11009818
0003b0 ba d6 37 be 4e 2c c3 3d 36 10 1d be 2e 8d 9c 3d
       -0.17953005 0.09529935 -0.15338215 0.076441154
0003c0 00 0f 8f 3c f4 0c 41 be 78 bf 9f bd 85 b3 29 be
       0.017463207 -0.18852597 -0.07800192 -0.16572388
0003d0 a0 81 81 3c 96 40 a7 3d fa 06 ff 3d 86 a9 c1 3d
       0.01580888 0.08166616 0.124525025 0.09456162
0003e0 96 75 99 3d b3 1d b2 be ed 7e 4c be 16 c3 4c be
       0.07493131 -0.34788284 -0.19970293 -0.19996294
0003f0 e8 b5 45 be 68 15 8e be 40 03 a2 bb d0 f9 3a be
       -0.19307673 -0.27750707 -0.004944235 -0.18259358

network.4.bias f4 [64]
000000 42 1a 7e be a0 03 6c be 3a ab 19 bf 41 8d 5a be
       -0.24814704 -0.23048258 -0.60026896 -0.21342947
000010 fe 99 36 bf b0 82 85 be 65 21 89 be 58 b7 84 3e
       -0.71328723 -0.2607627 -0.2678329 0.2592113
000020 80 cd b0 3d fa c9 a9 be 23 90 25 be 86 7a ff bb
       0.08632946 -0.33161908 -0.16168265 -0.0077965884
000030 90 08 25 3d 44 31 f0 3d 75 e9 3e bf a3 9a 4e be
       0.04029137 0.11728147 -0.7457498 -0.20176177
000040 63 9c 8d be ec 4d 91 be 03 b1 1e be 30 1e 71 be
       -0.27658376 -0.28379762 -0.15497212 -0.23546672
000050 f3 dd c8 3e 9c c1 94 bd 92 df cf 3c 2a 1a cd be
       0.39231834 -0.072634906 0.025375161 -0.40059024
000060 37 ae ab be 51 9d ba be e6 4e c6 be e3 18 87 be
       -0.33531353 -0.36448148 -0.3873207 -0.26386175
000070 5b fa a5 be d8 c2 b5 be 84 25 fa be fe 6f 3d 3e
       -0.3241757 -0.35500216 -0.48856747 0.18499753
000080 60 ed 36 3c 7e e3 c6 be a5 e7 c9 be da bb a4 be
       0.011164993 -0.38845438 -0.39434543 -0.3217457
000090 4c 04 ca 3e 2a 70 cf be c2 6f 23 be d2 b7 98 bd
       0.39456403 -0.40515262 -0.15960601 -0.07456936
0000a0 5c af 78 bd ec 13 b0 be a0 6e 81 bd 9e 27 5f 3f
       -0.06071411 -0.343902 -0.06319928 0.87169826
0000b0 39 2f f3 bd cf 35 b8 be 59 e4 05 be 4b 16 1b bd
       -0.118742414 -0.35978553 -0.13075389 -0.037863057
0000c0 af 00 d9 bc c1 7c 91 3e 07 ba 58 be d8 2a 97 3c
       -0.026489584 0.28415492 -0.21164714 0.018453047
0000d0 67 09 c5 3e 77 2f 89 be a7 63 b5 be b0 11 d6 bd
       0.38483736 -0.26794025 -0.3542759 -0.104525924
0000e0 34 b5 c7 be 1c 14 4e bf bc 1d 27 bd 81 bc 8d be
       -0.39005435 -0.80499434 -0.04079984 -0.2768288
0000f0 3e 28 7e be 6e 93 6b be 68 96 53 bf 90 e4 c6 be
       -0.24820039 -0.23005459 -0.82651377 -0.38846254

network.6.weight f4 [12, 64]
000000 a7 af 1e 3e eb 87 ed bc c2 65 25 3e 31 90 84 3e
       0.15496694 -0.028995475 0.16152099 0.2589126
000010 0b 7d 8b 3d ad a4 c2 3d de f4 99 3d a2 09 29 3f
       0.068109594 0.09504066 0.07517408 0.66030324
000020 58 1f e9 3a 14 f4 07 3e fd 98 26 3d e5 bb f5 3a
       0.001778583 0.13276702 0.040673245 0.0018748014
000030 a1 a9 44 3f 3d f7 05 bd 71 4b 71 bd 66 90 0d 3e
       0.76821333 -0.032706488 -0.058909837 0.13824615
000040 48 43 8a 3d 02 81 a9 3e 15 c2 ea bd a6 b1 89 3e
       0.06751114 0.33106238 -0.114627995 0.26893348
000050 25 6d 7d 3f bc 84 dc 3d f2 02 e8 3e b4 85 5f bd
       0.98994666 0.107675046 0.45314747 -0.05457087
000060 7b da c7 3d 1e ba 98 3d 63 50 a7 3e 3e 4b 96 3d
       0.09758469 0.07457374 0.32678518 0.0733857
000070 7a df 97 bd b8 34 ce 3e 27 71 c2 3b f2 7c ea 3e
       -0.07415672 0.40274596 0.005933899 0.4579845
000080 41 fd ef 3d ba f4 7a 3c 3b 3b 0d 3c 36 f5 1c 3e
       0.11718226 0.015317136 0.008620079 0.15327916
000090 44 cb b6 3e c2 c9 67 3e 5d be e6 3c 04 08 99 3e
       0.35701954 0.22635558 0.028166944 0.29888928
0000a0 24 7d 67 3e 3e ba 5f bc 28 32 ae bd 48 8b cb 3e
       0.22606331 -0.013655243 -0.0850566 0.397547
0000b0 0b c5 b7 3e 7a 19 1e bc 2b d9 66 3d 9c cf 73 3e
       0.3589252 -0.009649629 0.05635945 0.23809665
0000c0 4b 7b a2 3e 6f 96 2e 3f 57 5e 04 3e ca bc 0c 3f
       0.3173469 0.68198293 0.12926613 0.5497557
0000d0 00 88 a4 3e 1e c0 df 3e 0c 1d 1d 3d 02 95 8f 3e
       0.3213501 0.4370126 0.03835778 0.2804337
0000e0 59 d5 ab 3d ca 5b fe 3c 78 ef 91 3e 8c 4a 7f bc
       0.08390302 0.031049628 0.28503013 -0.015581738
0000f0 b2 40 82 3e 4b 29 2e bd 69 41 97 3e 65 c8 40 3e
       0.25439984 -0.04251985 0.2954209 0.18826444
000100 99 93 8e 3e 62 0e 19 bc 34 bd d8 3e 5d c7 3e be
       0.27846983 -0.009341808 0.4233185 -0.18630739
000110 06 1f 7a 3e 4b 8a a7 3e 21 7d c7 3e 60 ef 17 3f
       0.24425897 0.32722697 0.38962653 0.5934963
000120 ff a6 09 3f d5 80 06 3e fd 0d 4c bc ea 57 b9 3e
       0.5377044 0.13135083 -0.012454507 0.36199886
000130 47 4e 39 3f 07 3a af 3d a5 19 06 3f b4 bd 72 3e
       0.72385067 0.0855599 0.5238288 0.23705178
000140 3b 44 0c 3e f1 1b 80 3e 80 40 73 3e 8a a0 c1 3e
       0.13697903 0.25021318 0.23755074 0.37817794
000150 52 fa 57 3f 34 4e 53 bd 08 de e8 bd 00 a7 68 bc
       0.84366333 -0.051588252 -0.11370474 -0.014199972
000160 dd 08 bf bd 2d 0a 64 3e 42 5b 29 3f 9b 8e d1 3e
       -0.093278624 0.22269507 0.66154873 0.40929112
000170 e8 28 61 bc 32 2b f0 3e 89 cf 91 3e a2 cf 94 bc
       -0.013742663 0.46907955 0.2847865 -0.018165413
000180 5c 5b 17 3f 98 27 1d 3e c1 ef d7 3e 59 dc 8c 3e
       0.5912378 0.15347135 0.42175105 0.27511862
000190 80 66 bb 3e 21 db 88 3e a6 22 b6 3d 74 a8 1b 3e
       0.3660164 0.26729682 0.088933274 0.15200979
0001a0 0a 3a 61 3f 2a fe 88 3e fc d4 b6 3d 5f 6c ff 3e
       0.87979186 0.26756412 0.08927342 0.49887368
0001b0 3d 01 da 3e 3c a9 a7 bc 7c d4 12 3d 73 16 d6 3e
       0.4257907 -0.02046644 0.035847172 0.41814002
0001c0 dc 0c e4 3e b0 6d f5 3e 42 4a bf 3e a7 26 9b bc
       0.4454106 0.47935247 0.37361342 -0.01893933
0001d0 9f 8e a3 3e ec fd e9 3e fc b1 7c bd 9f 61 11 be
       0.3194475 0.4570154 -0.061693177 -0.14197396
0001e0 8a e5 2a 3e ac 64 df bd ce 56 9b 3e e9 5d 10 3d
       0.16689125 -0.109078735 0.30339664 0.03524581
0001f0 ba cd 95 3e 63 38 59 3e 1e 39 20 3e 79 c2 c4 3e
       0.2925852 0.21212916 0.15646788 0.3842962
000200 18 3d 62 3e 49 4c 2b 3e a5 c6 04 3d 2d ad b3 3e
       0.22093618 0.16728319 0.032416005 0.3509306
000210 3b da 83 bd 19 4d 49 3e 35 26 9d 3e 14 6c 17 3e
       -0.064381085 0.19658317 0.30693212 0.14787322
000220 25 b3 dc 3e fe e1 a3 3e 44 74 5d 3e b3 1e 49 3d
       0.43105426 0.32008356 0.21626383 0.049101543
000230 ee 3e 1a 3f 4c da ad be 7d 18 0f 3f 27 ad 43 3e
       0.60252273 -0.3395561 0.5589674 0.19109021
000240 2a 00 9f 3e 26 61 87 3e 44 51 90 3e f0 73 6f 3e
       0.31054813 0.26441306 0.28187 0.2338407
000250 9f db 09 3f af 61 91 3d 5b 18 dd bd 97 6f fe 3c
       0.5385074 0.0709871 -0.10795661 0.03105907
000260 58 61 db 3d e4 19 0b bd ef 54 bc bd b2 96 56 3e
       0.10711926 -0.033960238 -0.09195887 0.20955923
000270 80 72 6e 3e 7a ef 85 3e 19 8d ee 3d 45 f8 ce 3e
       0.23285866 0.2615927 0.11648006 0.4042379
000280 ed 2f 0d 3e ad f5 d9 3c 95 91 ed 3c 4b 65 f5 3e
       0.13787813 0.026606405 0.029000083 0.47928843
000290 e9 3c 76 3e 7b 02 06 3f 7a 64 bd bc b1 9f b4 3e
       0.24046673 0.52347535 -0.0231192 0.35278085
0002a0 cc ab 0f 3f 4b a1 34 3e 03 b4 5f bd 38 f2 e9 3e
       0.56121516 0.17639653 -0.054615032 0.4569261
0002b0 8c df 37 3f bc fa 6a 3c d4 f0 65 bd c6 d6 f2 3e
       0.7182548 0.014342006 -0.056137875 0.47429484
0002c0 9a 8d 2b 3f c5 6b b4 3e 34 ac 0a 3f 01 ce 5f 3e
       0.6701294 0.35238472 0.5416901 0.21855928
0002d0 9e 40 53 3e 75 0a 85 3e f0 6b 57 3d db 34 66 3d
       0.20630118 0.2598454 0.05259317 0.05620275
0002e0 96 c6 1f 3e 69 2d 22 bc 29 35 ba 3e 80 21 56 bc
       0.15603098 -0.009898522 0.36368683 -0.01306951
0002f0 ce 92 8d bd 61 50 c6 3c 57 87 15 3f b0 1f f4 3e
       -0.069127664 0.02420825 0.5840964 0.47680426
000300 37 05 9c 3d 20 ea 9c 3e 34 e5 8b 3e 8b 10 d6 3e
       0.07618182 0.30647373 0.27323306 0.41809496
000310 c9 5b 20 3e e3 98 ce 3e 26 27 ed 3d b6 8f 67 3e
       0.15660013 0.40351018 0.115797326 0.22613415
000320 bd a5 57 3e 8a 2b cc 3e 3e 24 30 3e 80 ec cd 3e
       0.21059318 0.39876968 0.17201325 0.40219498
000330 70 97 fc 3e 05 a7 40 3e dd e4 3f 3e 1b c3 e5 bc
       0.49334288 0.18813713 0.18739648 -0.028047135
000340 4e ca 8b 3e 58 d3 34 3e d7 f3 89 3e 26 80 eb bd
       0.27302784 0.17658746 0.26943848 -0.11499052
000350 48 e1 57 3e ed d6 e7 bd 13 48 c5 3e 79 e1 77 3d
       0.21082032 -0.11320291 0.3853155 0.06051776
000360 97 ba d4 3d 37 a1 6b 3e 40 55 d7 3e 9f 00 a0 3e
       0.10387152 0.23010717 0.42057228 0.31250474
000370 3f 54 c6 3c 15 c4 0f 3f 8a e6 18 3e 5e f5 c8 3b
       0.024210094 0.5615857 0.14931694 0.0061327657
000380 43 26 ea 3e 9e d4 41 3e a0 65 85 3e 94 5d 11 3f
       0.45732316 0.18928763 0.26054096 0.56783414
000390 93 03 63 3e 75 24 53 3d 64 33 a5 bd 9a e6 1c 3e
       0.22169332 0.05154844 -0.080664426 0.15322343
0003a0 04 28 c4 3e f0 39 7b 3e 50 ed 10 3e 4f 01 50 3e
       0.3831178 0.2453382 0.14153028 0.20312999
0003b0 00 b2 b6 3d f7 06 7f 3d 48 97 9d 3e 91 a4 eb 3e
       0.089206696 0.0622625 0.3077948 0.46023992
0003c0 be 3d dd 3e 71 83 a3 3e 4c 3c bf 3e d7 45 20 bc
       0.43211168 0.3193622 0.3735069 -0.009782276
0003d0 3a 17 29 3f 2e 40 07 3f 58 e3 f8 bc d8 f2 d0 3c
       0.66051066 0.52832305 -0.030381843 0.025506422
0003e0 ba fd ea 3b d3 09 55 3e 22 43 c5 3d 67 31 5e 3e
       0.00717136 0.20804529 0.09631945 0.21698533
0003f0 26 e3 42 3c 1b 8f 38 3e 37 63 02 bd 4b d1 c2 3e
       0.011894977 0.1802334 -0.0318329 0.38050303

network.6.bias f4 [12]
000000 c9 7a c9 3e 6e 35 90 bc 86 5d ad 3e 8e fa 16 3e
       0.3935149 -0.017603602 0.33860415 0.14744017
000010 5a e4 e2 3e cc 10 ba 3d a4 18 0e 3f 2d 52 dd 3e
       0.44314843 0.09085235 0.5550635 0.43226758
000020 77 69 a0 3e fc 02 49 3e 49 8a a7 3e 29 25 11 3f
       0.31330463 0.19630045 0.3272269 0.56697327
