model/DQNAgent2_20-08-2022__23-43-48.pth/DQNAgent2_20-08-2022__23-43-48.pth (torch, 826191 bytes, 8 tensors)

network.0.weight f4 [256, 27]
0	0xbe8a726d	-0.27040425
1	0x3cdc157b	0.026865711
2	0x3cd251b3	0.025673723
3	0x3dfad9c9	0.122485705
4	0x39fa87b8	0.00047784834
5	0xbe758c99	-0.23979415
6	0xbe0fea8d	-0.14054318
7	0xbdb4b60e	-0.08823787
8	0xbec50d5c	-0.38486755
9	0xbe1dda68	-0.15415347
10	0xbe10aa53	-0.14127474
11	0xbdcd5e7d	-0.10027788
12	0xbec880ba	-0.3916071
13	0xbe26f158	-0.16303003
14	0xbcf4fdc8	-0.029906169
15	0xbe81056f	-0.25199458
16	0x3c4ad9de	0.012381045
17	0xbe7a7973	-0.24460392
18	0xbcc0510d	-0.023476148
19	0xbdf67950	-0.12034857
20	0x3c184835	0.009294559
21	0x3d80735e	0.062720045
22	0x3e040ca3	0.12895446
23	0x3ed16e8a	0.40904647
24	0x3d9d320e	0.07675563
25	0xbd5c34e8	-0.053761393
26	0x3ca29980	0.019848585
27	0xbda5e38a	-0.0810004
28	0xbc6f410d	-0.014602912
29	0x3d8477a2	0.06468131
30	0xbe806221	-0.25074866
31	0xbdd025ae	-0.10163437
32	0x3d49c198	0.04925689
33	0xbd82708f	-0.06369125
34	0x3d898a71	0.06715859
35	0x3d09df8e	0.033660464
36	0x3d1926d4	0.037390545
37	0xbc2321d5	-0.009956797
38	0xbdc421f2	-0.09576787
39	0xbdf11a03	-0.117725395
40	0xbdbff9dc	-0.09373829
41	0x3da9f71f	0.08299088
42	0x3d8f925f	0.0701034
43	0xbd38ae1b	-0.045087915
44	0xbdc58291	-0.09644044
45	0xbe508b0b	-0.2036554
46	0xbd8ad9f7	-0.06779855
47	0xbdc3ecd6	-0.09566657
48	0xbd9a52ac	-0.075353
49	0xba9ce300	-0.0011969507
50	0xbd977df7	-0.07397073
51	0xbe181df0	-0.1485517
52	0xbc826ea8	-0.015921906
53	0xbe11585b	-0.14193861
54	0xbe5ab473	-0.21357898
55	0xbcd175e3	-0.025568908
56	0xbc57c313	-0.013169068
57	0xbe654a09	-0.22391523
58	0x3d06641e	0.032810323
59	0xbe724990	-0.23660874
60	0xbe684c67	-0.22685395
61	0x3d447224	0.047960415
62	0x3c1cb942	0.009565653
63	0xbe3a20f0	-0.18176627
64	0x3da49de9	0.080379315
65	0xbd663ed4	-0.05621226
66	0x3d8a66d7	0.067578964
67	0xbb326a3a	-0.002722396
68	0x3cedfe5d	0.029051954
69	0xbe426c1d	-0.18986554
70	0xbe0e9ad6	-0.13926253
71	0xbe055024	-0.13018852
72	0x3d916ee8	0.07101232
73	0xbe0d6201	-0.13806917
74	0x3d8f795e	0.07005571
75	0x3d87680e	0.06611644
76	0xbdcffb2f	-0.10155331
77	0x3eb33df9	0.3500822
78	0xbd72221f	-0.05911457
79	0xbe4d825c	-0.2006926
80	0xbd6ce438	-0.057834834
81	0xbd0e2965	-0.034707446
82	0xbe013365	-0.12617262
83	0xbd1c2f52	-0.038131066
84	0xbe4e6ba1	-0.20158245
85	0xbe43f9fd	-0.19138332
86	0xbe4b3e7d	-0.19848056
87	0x3d8200b7	0.063477926
88	0xbde43f29	-0.11144859
89	0x3d5d6718	0.054053396
90	0xbd654189	-0.055970702
91	0x3cdc3efa	0.026885498
92	0x3d88257e	0.06647776
93	0x3c629802	0.013830187
94	0xbd7a78ec	-0.061150476
95	0xbdc99d4b	-0.098444544
96	0xbe20387c	-0.15646547
97	0xbe71653f	-0.23573779
98	0x3d4cb004	0.04997255
99	0x3d4e208b	0.050324004
100	0xbdb3c89c	-0.087784976
101	0x3bae1464	0.0053124893
102	0x3e27527b	0.16340058
103	0x3d310b34	0.043223575
104	0xbdbe38fb	-0.09288212
105	0xbd945d71	-0.07244385
106	0x3e014c06	0.12626657
107	0xbd0ce560	-0.034398437
108	0xbc6cd4d8	-0.014455043
109	0xbc17e9bb	-0.009272034
110	0xbe2aa571	-0.16664673
111	0xbe15a643	-0.14614205
112	0x3dfcf684	0.123517066
113	0xbc354ad0	-0.0110652
114	0xbce31b39	-0.027722942
115	0xbe7e160a	-0.24813095
116	0xbde8d5f1	-0.11368931
117	0xbe24028d	-0.16016598
118	0xb8df9d5e	-0.000106627806
119	0x3d8fba43	0.070179485
120	0xbe0e64da	-0.1390566
121	0xbdf2b640	-0.11851168
122	0xbc1b4d51	-0.009478883
123	0xbddd9b81	-0.10820676
124	0xbe71b997	-0.23605953
125	0x39b23fce	0.00033998344
126	0x3aad04fc	0.0013200338
127	0x3e2c5ecd	0.16833039
128	0xbda501d0	-0.08056986
129	0xbe0925aa	-0.13393274
130	0xbda86ea3	-0.08224227
131	0xbde06053	-0.109558724
132	0x3dc3adbe	0.09554623
133	0xbe045569	-0.12923206
134	0x3aa39300	0.0012479722
135	0x3dff97ce	0.12480126
136	0xbe392627	-0.1808096
137	0x3d5be24e	0.053682618
138	0xbc536469	-0.012902358
139	0xbd91cb64	-0.07118872
140	0xbe1a6409	-0.15077223
141	0xbdf6ae04	-0.120449096
142	0xbe7b3673	-0.2453249
143	0xbe6d5867	-0.23178254
144	0xbcdd7ddb	-0.027037552
145	0xbe654c10	-0.22392297
146	0xbe33cd02	-0.17558673
147	0xbdf1a323	-0.11798694
148	0xbd7971ae	-0.06089943
149	0xbe020a00	-0.12699127
150	0xbdd858dd	-0.10563824
151	0xbc669dce	-0.0140757095
152	0xbda72cab	-0.081628166
153	0x3e00bd7c	0.12572283
154	0xbe0f6ae4	-0.1400562
155	0xbe38b186	-0.1803647
156	0xbd85feee	-0.065427646
157	0xbd2e3f30	-0.04254073
158	0x3d89973e	0.067183
159	0x3d985e4a	0.07439859
160	0x3dfcdf3a	0.123472646
161	0x3bdf9da0	0.0068242103
162	0xbc201910	-0.0097716
163	0x3de6786a	0.11253436
164	0x3c8dff68	0.017333701
165	0x3caecbd0	0.02133742
166	0x3d991d2e	0.07476269
167	0x3e02cf47	0.12774383
168	0x3d5cf4d0	0.05394441
169	0x3e2e8841	0.17044164
170	0xbe0d80f6	-0.13818726
171	0xbe059e58	-0.13048685
172	0xbc409b70	-0.011755809
173	0xbd7a5d7c	-0.06112431
174	0x3c65c060	0.014022917
175	0xbc39b070	-0.01133357
176	0xbb054080	-0.0020332634
177	0xbe277968	-0.16354907
178	0x3b8b4520	0.0042501837
179	0xbd770f4c	-0.060317323
180	0xbc9bbe08	-0.019011512
181	0xbded24e9	-0.11579306
182	0xbe2eae53	-0.17058687
183	0x3d330708	0.043707877
184	0xbc616740	-0.013757527
185	0xbca48e78	-0.020087466
186	0xbcb35108	-0.021889225
187	0xbda35d11	-0.079767354
188	0xbdb86c91	-0.090050824
189	0x3bada1b9	0.00529882
190	0xbdbecd42	-0.093164936
191	0xbe82cc85	-0.2554666
192	0xbdf32477	-0.118721895
193	0x3cf1a9e0	0.029499948
194	0xbd2e9621	-0.042623643
195	0x3d82bf46	0.06384139
196	0xbd7a3b15	-0.0610915
197	0x3d5070a3	0.05088867
198	0xbdda868f	-0.10670196
199	0xbda8d425	-0.08243588
200	0xbe1661dd	-0.1468577
201	0x3d9ad9ff	0.07561111
202	0xbe898a3e	-0.26863283
203	0xbccac6f0	-0.024753064
204	0xbe1dd911	-0.15414836
205	0x3daa7030	0.08322179
206	0xbb919f51	-0.004444041
207	0xbcccd6dc	-0.025004797
208	0xbe077a35	-0.13230212
209	0x3e0245d5	0.12721951
210	0xbd089660	-0.033346534
211	0x3d471a50	0.048609078
212	0xbe0b04bd	-0.13576026
213	0x3c5cf4a0	0.0134860575
214	0xbdcaac51	-0.09896148
215	0x3e1ad371	0.15119721
216	0xbe0f8551	-0.140157
217	0x3e354868	0.17703402
218	0x3d1fa6bb	0.038977366
219	0xbe005fd2	-0.12536553
220	0x3ce70f82	0.028205637
221	0xbda78580	-0.0817976
222	0xbd89a961	-0.067217596
223	0xbd8ed610	-0.06974423
224	0xbe3ca802	-0.18423465
225	0x3c4a6e2c	0.012355369
226	0x3d4651f8	0.048418015
227	0x3d96bf96	0.07360761
228	0xbddbc6ec	-0.10731301
229	0xbe4235aa	-0.18965784
230	0xbe34aa37	-0.17643057
231	0xbd42aac2	-0.04752613
232	0xbd51c109	-0.051209483
233	0x3e0327f1	0.12808205
234	0xbd8b9b7a	-0.06816764
235	0x3dc60812	0.09669508
236	0x3e5bf8de	0.21481654
237	0x3db765f1	0.08954991
238	0x3d9cae97	0.07650488
239	0xbd6e8068	-0.058227926
240	0xbd833acc	-0.06407699
241	0xbce5fa58	-0.028073475
242	0xbddcb84f	-0.107773416
243	0x3b5ba965	0.0033517715
244	0xbe14b2cb	-0.14521329
245	0x3d3334cd	0.043751527
246	0xbe24f9bd	-0.16110893
247	0xbdee941c	-0.11649343
248	0xbde5f1e8	-0.112277806
249	0xbdd3f0ff	-0.10348701
250	0x3ddb8a67	0.107197575
251	0xbe86e9d6	-0.26350278
252	0x3de15125	0.11001805
253	0xbebaddee	-0.36497444
254	0x3c1e25a9	0.009652534
255	0xbec5d55d	-0.38639346

network.0.bias f4 [256]
0	0xbe6c5622	-0.23079732
1	0x3e0345ec	0.12819642
2	0x3dc959d3	0.09831586
3	0xbe95a130	-0.2922454
4	0xbe3d39a8	-0.18479025
5	0xbd0c5a65	-0.034265894
6	0x3dd3c022	0.10339381
7	0x3d1031e3	0.035203826
8	0xbe0f06c9	-0.13967432
9	0xbe6dcf28	-0.23223555
10	0xbe64bba1	-0.223372
11	0xbe430cbd	-0.19047828
12	0xbc8a42f0	-0.016877621
13	0x3e273808	0.16329968
14	0xbe4fdf01	-0.20299913
15	0xbdc171d2	-0.094455376
16	0x3e39d70d	0.18148442
17	0x3e1b924b	0.15192525
18	0xbe487637	-0.19576345
19	0xbe3916d0	-0.18075109
20	0x3da0ecb5	0.07857648
21	0xbe3d1f5e	-0.18468997
22	0xbdeddffd	-0.11614988
23	0x3cefb241	0.029259803
24	0xbea98075	-0.33105817
25	0xbd572573	-0.05252595
26	0xbe499333	-0.19685058
27	0xbe436fab	-0.19085567
28	0xbba40784	-0.0050057787
29	0x3d3d8830	0.046272457
30	0x3dec893d	0.115496136
31	0xbcb03b4a	-0.021512646
32	0x3e06d979	0.13168897
33	0xbc652a9d	-0.013987211
34	0xbe479172	-0.19489077
35	0xbcce1529	-0.025156574
36	0xbd1f9c39	-0.038967345
37	0xbe5a4856	-0.21316656
38	0x3d305cd1	0.043057267
39	0xbc93cd7a	-0.018042315
40	0xbe6aa2dc	-0.22913688
41	0x3e1138b1	0.14181782
42	0xbe14c42a	-0.14527956
43	0xbd8dc094	-0.06921497
44	0x3dc2f1ed	0.095188
45	0x3d0c3287	0.034227874
46	0x3d3befb2	0.04588289
47	0x3ca3ce32	0.019995783
48	0x3e097d77	0.13426767
49	0xbe777c5b	-0.24168532
50	0x3e15b5e1	0.14620163
51	0xbda7ce27	-0.08193617
52	0xbbd97ca3	-0.0066371723
53	0xbcf73078	-0.030174479
54	0x3e1db6d1	0.1540177
55	0xbc4fc0ec	-0.0126802735
56	0x3ddc3676	0.10752575
57	0xbe7f07bc	-0.24905294
58	0xbe0f4175	-0.13989814
59	0xbd3cda71	-0.04610676
60	0xbe66de35	-0.22545703
61	0x3b7b5781	0.0038351717
62	0xbcc35f96	-0.02384929
63	0x3ddee8c1	0.10884238
64	0xbd84bba3	-0.06481101
65	0x3cac5c6f	0.02104017
66	0x3d70353f	0.05864453
67	0x3d9598c3	0.073045276
68	0x3dbdc69b	0.092663966
69	0xbdd3de22	-0.10345103
70	0xbe76cbc6	-0.24101171
71	0xbd0ac7b4	-0.033881858
72	0xbce60675	-0.02807925
73	0x3dc3ee96	0.09566991
74	0x3d2db28e	0.04240661
75	0x3d95f1dc	0.07321522
76	0xbdcb3b86	-0.099234626
77	0xbc2cc250	-0.010544375
78	0xbd6c5708	-0.057700187
79	0x3e64625c	0.22303146
80	0x3e22da63	0.1590362
81	0x3d73df93	0.05953939
82	0x3c37557f	0.011189817
83	0x3c917f13	0.017760789
84	0x3d8b7c96	0.06810872
85	0xbdbff9e0	-0.09373832
86	0x3e5facb6	0.21843228
87	0xbe65bb0c	-0.22434634
88	0x3d782aa0	0.060587525
89	0xbd50ac46	-0.050945543
90	0x3cecf2e7	0.028924419
91	0xbd09fafc	-0.033686623
92	0xbe5d9dc3	-0.21642213
93	0xbd60d520	-0.05489075
94	0xbe880cd3	-0.26572284
95	0xbdf53979	-0.11973853
96	0x3e17dc5c	0.14830154
97	0x3d8dc2e2	0.069219366
98	0xbd07f404	-0.033191696
99	0xbe111052	-0.14166382
100	0xbe10c6f0	-0.14138389
101	0x3dce98f7	0.100877695
102	0x3ef79e9b	0.48363194
103	0x3de86777	0.11347859
104	0xbdc4acd6	-0.09603278
105	0xbdf36ab1	-0.11885584
106	0xbda6e072	-0.08148278
107	0x3db2aca6	0.08724336
108	0xbd9f8987	-0.07789903
109	0x3d4510e2	0.048111804
110	0xbe0cf5dd	-0.13765664
111	0xbde3cb27	-0.111227326
112	0x3d048a4c	0.032358453
113	0x3d8b1c10	0.06792462
114	0x3da7fd78	0.08202642
115	0xbe819629	-0.25309876
116	0xbdc4c782	-0.096083656
117	0xbdd63bcd	-0.10460625
118	0xbd475267	-0.04866257
119	0xbcc867e1	-0.024463596
120	0x3db5a843	0.08869984
121	0xbe09dd14	-0.13463241
122	0xbe258a37	-0.16166006
123	0xbcf3814b	-0.029724738
124	0xbda078d2	-0.07835545
125	0xbd56e583	-0.052464973
126	0xbe3cbd7a	-0.18431655
127	0xbdd94d50	-0.10610449
128	0xbe340ce0	-0.17583036
129	0xbe2b569e	-0.1673226
130	0xbc07a17e	-0.008278249
131	0xbdb07d6e	-0.08617674
132	0xbe2d2a99	-0.16910781
133	0x3b14ab30	0.0022685044
134	0xbcfded32	-0.030996893
135	0x3baf6949	0.005353127
136	0x3e03bab5	0.12864192
137	0xbe8de85f	-0.27716348
138	0xbe4a4a62	-0.19754937
139	0xbcff9167	-0.031197263
140	0xbe382e3b	-0.17986386
141	0xbe69ae06	-0.22820291
142	0x3e0368e8	0.12832987
143	0xbd5f7bef	-0.05456155
144	0xbdf36432	-0.11884345
145	0xbc147729	-0.009061613
146	0xbda1fbb2	-0.07909335
147	0xbdccbbd9	-0.099967666
148	0xbe0ef708	-0.13961422
149	0xbd839084	-0.064240485
150	0xbe752682	-0.23940471
151	0xbdde96c6	-0.108686015
152	0xbb02b21b	-0.0019942585
153	0xbda75be3	-0.08171823
154	0x3d7bea39	0.06150267
155	0xbde2820e	-0.11059962
156	0xbdadb9a9	-0.084826775
157	0xbdef83ab	-0.116950355
158	0xbddb199b	-0.10698243
159	0xbe25ee68	-0.16204226
160	0x3c1c9e64	0.009559248
161	0xbdd658ab	-0.10466131
162	0xbe771a05	-0.2413102
163	0xbd08d0af	-0.03340214
164	0xbe68014a	-0.22656742
165	0x3ddbf285	0.10739616
166	0xbdbaf381	-0.09128476
167	0xbdd83968	-0.105578244
168	0xbdb47c76	-0.088128015
169	0xbd12d40d	-0.03584676
170	0xbbf2f745	-0.0074147307
171	0xbe1ff9f0	-0.15622687
172	0xbe1da2b7	-0.15394102
173	0xbe427197	-0.18988644
174	0xbdd496d3	-0.1038033
175	0x3d3ebbed	0.04656594
176	0xbbb4e8da	-0.005520922
177	0xbe05e8fc	-0.13077158
178	0x3d52fdbc	0.05151151
179	0xbdd7bffb	-0.10534664
180	0x3d81bbca	0.06334646
181	0xbe1c614e	-0.15271494
182	0xbe4f89a9	-0.20267357
183	0xbe135d1d	-0.14390989
184	0xbdad6736	-0.084669515
185	0x3dd77f0d	0.1052228
186	0xbb4b3a66	-0.003101015
187	0xbd8dd788	-0.06925875
188	0xbe9cb990	-0.30610323
189	0x3d2e6efc	0.04258631
190	0xbe8d7b81	-0.27633289
191	0xbe4fa5f7	-0.20278154
192	0xbd1f778c	-0.03893237
193	0x3e34882a	0.17630067
194	0x3e0177a9	0.12643303
195	0x3dd48252	0.10376419
196	0xbdbafd9d	-0.09130404
197	0xbe0981c7	-0.13428412
198	0xbda0b5ae	-0.07847153
199	0x3d386326	0.04501643
200	0x3d8fd23f	0.07022523
201	0xbd8e095d	-0.0693538
202	0xbd24e621	-0.04025853
203	0xbd973b1e	-0.073843226
204	0x3c8b551d	0.017008359
205	0xbb30f0c4	-0.0026998976
206	0xbd97afd5	-0.07406584
207	0xbd1c03c8	-0.038089544
208	0xbd7c0246	-0.061525606
209	0x3dc54ee5	0.096341886
210	0x3db7cbe6	0.089744374
211	0x3ce5d16a	0.028053958
212	0xbd1eb7d2	-0.038749523
213	0xbe0264f2	-0.1273382
214	0x3e0e7d83	0.13915066
215	0xbb9b5a46	-0.004740986
216	0xbda80950	-0.08204901
217	0x3b466d58	0.0030277576
218	0xbe341280	-0.17585182
219	0xbeb5f31d	-0.35537043
220	0xbe01f807	-0.12692271
221	0x3e1755ab	0.14778773
222	0xbcefd7a8	-0.029277638
223	0xbd0e8c94	-0.034802034
224	0xbe4b14da	-0.19832173
225	0xbe8ce49a	-0.2751816
226	0xbe65c77a	-0.22439376
227	0xbc95d205	-0.018288622
228	0xbd5abe75	-0.05340429
229	0xbe0d573f	-0.13802813
230	0x3d3f5d8c	0.046720073
231	0x3d74b8c6	0.059746526
232	0xbe549f21	-0.20763828
233	0xbe669f24	-0.22521645
234	0xbe3f3dd2	-0.18675926
235	0x3d7a508a	0.061111964
236	0x3dfcda6e	0.1234635
237	0x3d42dd8c	0.047574565
238	0x3df845b3	0.12122669
239	0xbd7a90c3	-0.06117321
240	0x3cf7edf0	0.030264825
241	0xbdda31ad	-0.10654006
242	0x3d373dc9	0.044736657
243	0xbcf2f91a	-0.029659797
244	0xbdb3fe78	-0.087887704
245	0xbcb9a3ab	-0.02266105
246	0x3dc2b051	0.09506286
247	0xbe46f22e	-0.19428322
248	0x3e147828	0.14498961
249	0x3cffa0d7	0.031204624
250	0xbd07fc15	-0.03319939
251	0x3e067ade	0.13132808
252	0xbe26a45a	-0.16273633
253	0x3e06c63e	0.13161561
254	0xbea0b734	-0.31389773
255	0x3e07cfd9	0.13262881

network.2.weight f4 [512, 256]
0	0xbc436f94	-0.011928458
1	0xbcaae790	-0.02086237
2	0xbd53cc04	-0.051708236
3	0xbddc242e	-0.10749088
4	0x3cc12504	0.02357722
5	0xbd4a1b9e	-0.049342744
6	0xbb3c3b80	-0.0028721988
7	0xbd6d4608	-0.057928115
8	0x3df9818c	0.12182912
9	0xbdbe1f81	-0.09283353
10	0xbbaae910	-0.0052157715
11	0xbc2ab06f	-0.010418042
12	0xbcaa5eb4	-0.020797111
13	0x3aaecf00	0.0013336837
14	0xbd8ea9e9	-0.069660015
15	0xbb5a4a40	-0.0033308417
16	0x3d5745af	0.05255669
17	0x39583b18	0.0002062138
18	0xbd4a7a98	-0.04943332
19	0xbca801c0	-0.020508647
20	0xbd224a2e	-0.039621525
21	0xbd1359a2	-0.035974152
22	0xbd5f936c	-0.05458395
23	0xbcf511c2	-0.029915694
24	0xbd2a78c6	-0.041619085
25	0x3d0b7d9c	0.034055337
26	0x3b8cc661	0.0042961095
27	0x3d0e6456	0.034763657
28	0xbd2158a2	-0.039391167
29	0xbc925c70	-0.017866343
30	0xbd6980ca	-0.05700759
31	0xbc2c7e74	-0.010528196
32	0x3d476da0	0.04868853
33	0xbc3596de	-0.011083333
34	0xbdd5d3d0	-0.10440791
35	0x3d3bb02e	0.045822315
36	0xbc3c3679	-0.011487597
37	0xbdd4dca5	-0.10393647
38	0x3cd47b7c	0.025937788
39	0x3c397ee8	0.011321761
40	0xbb262b09	-0.002535524
41	0xbd3fb556	-0.046803795
42	0xbd9aa624	-0.0755122
43	0xbd3b6ee4	-0.04576005
44	0x3c573fd0	0.013137773
45	0x3c8a328c	0.016869806
46	0x3cea3971	0.028591843
47	0xbb862edc	-0.0040949415
48	0xbd257952	-0.040398903
49	0xbc61f193	-0.013790506
50	0x3d0de3d6	0.03464111
51	0x3d2a7174	0.041612104
52	0xbdcd1cf6	-0.100152895
53	0xbc62bc30	-0.013838813
54	0xba483f00	-0.0007638782
55	0xbdd15bc8	-0.10222584
56	0x3ce2f648	0.027705327
57	0xbd9c858c	-0.076426595
58	0x3d63470e	0.055487685
59	0x3d1e981c	0.03871928
60	0xbd327fdc	-0.043578967
61	0xbd682ab1	-0.05668134
62	0xbd776aea	-0.060404696
63	0x3d63ba7a	0.05559776
64	0xbd065e4c	-0.032804772
65	0xbdc8d1ba	-0.09805627
66	0xbda96bb1	-0.08272494
67	0xbd2c09b6	-0.04200145
68	0xbd69367f	-0.056936737
69	0x3d4e3910	0.050347388
70	0xbd79e19a	-0.061006166
71	0xbd2414c4	-0.040058866
72	0xbd98e818	-0.07466143
73	0xbd521e98	-0.051298708
74	0x3c8ddbc8	0.017316714
75	0xbce101ab	-0.027466616
76	0x3c5d3d08	0.0135033205
77	0xbbbac340	-0.005699545
78	0xbd582e4e	-0.052778535
79	0xbbd075df	-0.0063617076
80	0xbd1b43d0	-0.037906468
81	0x3dd4bee2	0.103879705
82	0xbc95a406	-0.018266689
83	0x3c904dd8	0.017615244
84	0x3d37061c	0.04468356
85	0x3d7d2810	0.061805785
86	0xbc9eb5e8	-0.019373849
87	0x3c0f1d92	0.008735077
88	0xbd86a3d8	-0.065742195
89	0xbb42bd40	-0.0029714853
90	0x3d2d13f8	0.04225537
91	0xbd77ed94	-0.060529307
92	0xbbfdff6e	-0.007751397
93	0x3d5a739a	0.053332902
94	0xbde64c90	-0.11245072
95	0xbc6d49d8	-0.014482938
96	0x3dfea5fd	0.124340035
97	0xbd3b2958	-0.045693725
98	0x3c325fc8	0.010887094
99	0xbc210410	-0.009827629
100	0x3c3cb70c	0.011518251
101	0xbcc88898	-0.024479195
102	0xbde99a9b	-0.11406442
103	0xbd97ec46	-0.074181125
104	0xbd89f634	-0.06736413
105	0xbd047408	-0.03233722
106	0x3cec9e88	0.028884187
107	0xbcaf87e8	-0.02142711
108	0xbd01458b	-0.031560462
109	0xbd47d8d9	-0.048790786
110	0xbc0b3208	-0.008495815
111	0xbc5f2ea0	-0.013621956
112	0xbd423108	-0.04741004
113	0x3dee235d	0.11627839
114	0xbc8f4d00	-0.017492771
115	0x3c8c1355	0.017099062
116	0xbd3b7e9a	-0.045775034
117	0xbd72ed28	-0.0593082
118	0x3d95b2b7	0.07309478
119	0x3dd53833	0.1041111
120	0x3d3944ac	0.045231506
121	0xbd53a3a4	-0.05166973
122	0xbd43a498	-0.04776439
123	0xb9d19400	-0.00039973855
124	0xbd306103	-0.043061268
125	0xbd2dcb81	-0.042430405
126	0xbcdc4800	-0.026889801
127	0xbce714b8	-0.028208122
128	0xbcdaf184	-0.026726492
129	0x3cfeee30	0.031119436
130	0x3db2be93	0.087277554
131	0x3d20b372	0.039233632
132	0x3c138206	0.009003168
133	0x3aec3b00	0.0018022954
134	0x3dd03b4e	0.101675615
135	0xbd657e30	-0.056028545
136	0xbcf0bec0	-0.029387832
137	0xbc8f2cfe	-0.017477509
138	0xbcee392b	-0.029079994
139	0x39e8e655	0.000444221
140	0x3d0ccccb	0.034374993
141	0xbcf20ca4	-0.029547043
142	0x3c8e6814	0.017383613
143	0xbcdc32c3	-0.026879674
144	0x3ca88864	0.020572849
145	0xbd35ed0b	-0.044415515
146	0xbce375d8	-0.027766153
147	0x3c3372b0	0.010952637
148	0x3c7c979e	0.015417008
149	0x3d0bc15e	0.034119956
150	0x3d5950dc	0.05305563
151	0xbd66d140	-0.0563519
152	0xbcf034c0	-0.029322028
153	0x3b644f42	0.003483728
154	0x3e001ab0	0.1251018
155	0xbc14b766	-0.009076929
156	0x3d7ca60e	0.0616818
157	0xbc536742	-0.012903037
158	0x3b967470	0.004591517
159	0x3de3cfae	0.11123596
160	0xbdaaf622	-0.08347727
161	0xb783c000	-1.5705824e-05
162	0xbdad5972	-0.08464326
163	0xbdd4eb3b	-0.10396429
164	0x3d3f92e6	0.046770953
165	0xbda61947	-0.0811029
166	0xbd242d62	-0.040082343
167	0xbc00d260	-0.007862657
168	0xbd3b766a	-0.045767225
169	0xbd874785	-0.06605438
170	0x3cf95bfc	0.03043937
171	0xbd9f5d3e	-0.077814564
172	0xb9b353e3	-0.0003420404
173	0xbd866986	-0.06563096
174	0xbc21afa2	-0.009868534
175	0x3971a448	0.0002304475
176	0xbd5faf6c	-0.054610655
177	0xbc8a1866	-0.016857337
178	0xbce289b8	-0.02765356
179	0xbd9bf932	-0.076158896
180	0x3c9acbc4	0.018895991
181	0x3d94f479	0.07273192
182	0x3c617560	0.013760895
183	0xba896040	-0.0010480955
184	0xbc8795f0	-0.016550988
185	0xbc6ea47d	-0.014565584
186	0xbdc64e0c	-0.09682855
187	0xbd3b1d50	-0.04568225
188	0xbd548312	-0.05188281
189	0x3b468126	0.003028938
190	0xbd7aab2b	-0.061198395
191	0x3c90cf30	0.01767692
192	0xbd19b876	-0.03752943
193	0x3b0ba0c0	0.0021305531
194	0xbcced992	-0.02525023
195	0xbcf17650	-0.029475361
196	0xbdb12c74	-0.08651057
197	0xbd3ec279	-0.046572182
198	0xbd2fe56f	-0.042943414
199	0xbc7c6360	-0.015404552
200	0x3cb64a24	0.02225215
201	0xbd69d4d4	-0.057087734
202	0x3acb329f	0.0015502757
203	0xbbd8461b	-0.006600154
204	0xbd5e9135	-0.0543377
205	0xbdc34dc5	-0.09536318
206	0xbd459cde	-0.048245303
207	0x3d1f1d3a	0.038846232
208	0x3c78f070	0.0151940435
209	0xbdc740cd	-0.09729157
210	0x3d1f8e3e	0.038954012
211	0x3da1febb	0.07909914
212	0x3db5206c	0.088440746
213	0xbce38a49	-0.0277759
214	0x3d0c0e9a	0.034193613
215	0xbd4bb0c8	-0.04972914
216	0x3ccb4829	0.024814682
217	0x3d6fa0d8	0.058503002
218	0x3d64a462	0.05582083
219	0x3e7d4466	0.24733123
220	0x3d80cf63	0.06289556
221	0xbd0061f6	-0.031343423
222	0x3d3be0fc	0.04586886
223	0x3d403502	0.046925552
224	0xbd6d941c	-0.058002576
225	0xbc62d427	-0.013844526
226	0xbd9f9cdc	-0.077935904
227	0x3d4eb8e9	0.050469313
228	0x3c20231a	0.009773994
229	0xbc1c6340	-0.009545147
230	0xbcacf494	-0.021112718
231	0xbd1a77c4	-0.037711874
232	0x3e073d8e	0.13207075
233	0xbd2fa9e3	-0.042886626
234	0x3b802ec2	0.003911824
235	0xbdd3da17	-0.10344332
236	0x3d2d2816	0.042274557
237	0x3d507298	0.050890535
238	0x3c633168	0.01386676
239	0xbd07bf1a	-0.033141233
240	0xbd92c314	-0.071661144
241	0xbd346b44	-0.04404761
242	0x3c1c3f7e	0.009536622
243	0xbcc392f4	-0.023873784
244	0xbdd18bbe	-0.10231732
245	0xbd2da928	-0.042397648
246	0xbd20887d	-0.039192665
247	0xbcd51ba2	-0.026014153
248	0x3d75d852	0.060020752
249	0xbd713c45	-0.058895368
250	0xbdcfd408	-0.101478636
251	0xbdbb69ac	-0.09151015
252	0xbcb25da1	-0.021773161
253	0xbcdd914d	-0.027046824
254	0xbd02b866	-0.031914137
255	0x3d1612cc	0.03663902

network.2.bias f4 [512]
0	0xbd9f4eca	-0.077787
1	0xbdadadcf	-0.08480417
2	0xbd3c7c37	-0.046016898
3	0xbdc8f166	-0.09811668
4	0xbe0e7896	-0.13913187
5	0xbd72de26	-0.05929389
6	0x3e174a20	0.1477437
7	0xbd27b15d	-0.04094063
8	0xbe0fde2f	-0.140496
9	0xbce5458c	-0.027987264
10	0xbbfb421b	-0.0076677925
11	0xbe0d5ab9	-0.13804139
12	0xbd3539a9	-0.044244442
13	0xbd6e5636	-0.058187686
14	0xbde43dfd	-0.11144636
15	0xbdfcc1a3	-0.12341621
16	0xbeb2b252	-0.34901673
17	0xbdcaeec1	-0.0990882
18	0xbde8e8ee	-0.11372553
19	0xbf092acc	-0.5358093
20	0xbe122e8f	-0.14275573
21	0xbc9faf75	-0.019492844
22	0xbd481aa1	-0.04885352
23	0xbdfaee0b	-0.12252434
24	0xbe7be79c	-0.2460007
25	0xbee29a89	-0.44258526
26	0xbd81ad16	-0.06331842
27	0xbeaa9f7b	-0.333248
28	0xbea8016d	-0.32813588
29	0xbd65a040	-0.05606103
30	0xbe4d518d	-0.2005064
31	0xbcc82329	-0.024430828
32	0xbf00ae2c	-0.50265765
33	0x3f1576ac	0.58384204
34	0xbe8a0c86	-0.2696268
35	0xbdf6c9b7	-0.12050193
36	0xbd827858	-0.0637061
37	0xbe34ef99	-0.17669524
38	0xbeb5af3b	-0.35485253
39	0xbd8986ba	-0.0671515
40	0x3e8cdb87	0.27511236
41	0xbcc69dd2	-0.024245176
42	0xbd05bd52	-0.032651253
43	0x3e6d5fa9	0.23181023
44	0xbd8975c4	-0.06711915
45	0xbdca6838	-0.098831594
46	0xbbdced72	-0.006742173
47	0xbdb50b87	-0.08840089
48	0xbe14cbe7	-0.14530908
49	0xbec6e8d7	-0.38849518
50	0xbdd98cbd	-0.10622547
51	0xbeb21cc0	-0.3478756
52	0x3c3b768b	0.011441837
53	0xbdc518ef	-0.09623896
54	0xbdcc370c	-0.09971437
55	0xbeaecc3e	-0.341402
56	0xbb9253fd	-0.0044655786
57	0xbdcd5821	-0.10026575
58	0xbd766ece	-0.060164265
59	0xbe020df6	-0.12700638
60	0xbd651191	-0.055924956
61	0xbde2d59d	-0.110759
62	0xbe0f512d	-0.1399581
63	0xbe8a16cd	-0.2697052
64	0x3da8c8fd	0.082414605
65	0xbe6b5342	-0.22980979
66	0xbe0a869e	-0.13527915
67	0xbdbb997c	-0.09160134
68	0xbe084e8c	-0.13311213
69	0x3df5aa36	0.11995356
70	0x3cff7610	0.031184226
71	0xbde2823d	-0.11059997
72	0xbeb62bb2	-0.35580212
73	0xbe14a9e9	-0.1451794
74	0xbd817894	-0.063218266
75	0xbeeb65ef	-0.45976207
76	0xbd533a4c	-0.051569268
77	0xbda69f57	-0.081358604
78	0xbdf788b1	-0.12086619
79	0xbde50999	-0.11183471
80	0xbdb86e08	-0.09005362
81	0xbb949059	-0.004533809
82	0xbca74603	-0.020419126
83	0xbd803466	-0.06259994
84	0xbddd4839	-0.10804791
85	0xbe7a022b	-0.2441489
86	0xbcf3b3c6	-0.029748809
87	0xbe402bd7	-0.18766724
88	0xbd92600e	-0.07147227
89	0xbde56bda	-0.11202212
90	0xbe589b16	-0.2115291
91	0xbdd723a2	-0.10504843
92	0x3eec54c3	0.46158418
93	0xbe6655dd	-0.22493692
94	0xbc37044b	-0.011170457
95	0xbe1f0408	-0.15528882
96	0xbe7ba8e1	-0.24576141
97	0xbc599211	-0.013279454
98	0xbe5de2d1	-0.21668555
99	0xbd8e6b80	-0.06954098
100	0xbd4397d0	-0.0477522
101	0xbe8c27e1	-0.27374175
102	0x3d1e0664	0.038580313
103	0xbd93c439	-0.07215161
104	0xbec6255c	-0.38700378
105	0x3dea39b6	0.11436789
106	0xbdd5fce4	-0.10448626
107	0x3dccf437	0.10007518
108	0xbdb76f83	-0.08956816
109	0xbeb64f30	-0.3560729
110	0xbdcb5a6e	-0.099293575
111	0xbebb2778	-0.3655355
112	0x3c49980a	0.012304315
113	0xbd9629f6	-0.07332222
114	0xbe151721	-0.14559604
115	0xbe008d27	-0.12553845
116	0xbde2cceb	-0.11074241
117	0xbe1190de	-0.14215419
118	0xbe3b14a6	-0.18269596
119	0xbd28fdb7	-0.041257586
120	0xbcf1e56d	-0.029528344
121	0xbd849983	-0.064745925
122	0xbd81f126	-0.063448235
123	0xbdddeed2	-0.10836567
124	0xbe677a39	-0.22605218
125	0xbd099957	-0.033593502
126	0xbee7ab30	-0.45247793
127	0xbe27f40f	-0.16401695
128	0xbf0862be	-0.5327567
129	0xbd255433	-0.0403635
130	0xbdb2ed99	-0.087367244
131	0xbd928d7b	-0.071558915
132	0xbea7e4fc	-0.3279189
133	0xbc848212	-0.016175304
134	0xbd701edc	-0.05862318
135	0xbd073be6	-0.033016108
136	0xbd654142	-0.055970438
137	0xbcb37f6b	-0.021911344
138	0xbcb55d4b	-0.022139212
139	0xbe7a6e3c	-0.24456114
140	0xbde1a713	-0.11018195
141	0xbdcec886	-0.100968406
142	0xbdeb58a3	-0.114915155
143	0x3a84f02b	0.0010142376
144	0xbe6a4d91	-0.22881152
145	0xbee48150	-0.44629908
146	0xbe5bd639	-0.21468438
147	0xbd0a90a8	-0.03382936
148	0x3ee09b7d	0.43868628
149	0xbc0d058d	-0.00860728
150	0xbdc76f99	-0.097380824
151	0xbd609af4	-0.054835275
152	0xbde2e388	-0.110785544
153	0x3e19c8a4	0.15017945
154	0xbe00ab0f	-0.12565254
155	0xbde25915	-0.11052147
156	0xbd81408e	-0.06311141
157	0xbd6367d0	-0.055518925
158	0xbd2d74ed	-0.042347837
159	0xbe7b378a	-0.24532905
160	0xbe01bf26	-0.12670574
161	0xbdac2838	-0.084061086
162	0x3dd28161	0.10278583
163	0x3f07ddc4	0.5307276
164	0xbe853cd8	-0.26022983
165	0x3de151ab	0.11001905
166	0xbdbecb6b	-0.09316143
167	0xbda7cc7c	-0.08193299
168	0xbe92dc17	-0.2868354
169	0xbd5065b4	-0.05087824
170	0xbd867769	-0.065657444
171	0xbdf3b105	-0.11898998
172	0xbd0c4da9	-0.03425375
173	0xbcc2fcb7	-0.023802144
174	0xbd99d90d	-0.07512102
175	0xbca540b4	-0.020172454
176	0xbe6b41ff	-0.22974394
177	0xbce06af9	-0.027394759
178	0xbdfe0c5b	-0.124047
179	0xbebd2122	-0.3693934
180	0xbe82764e	-0.25480884
181	0xbd18c5bf	-0.03729796
182	0xbe2036e8	-0.15645945
183	0xbdbf0038	-0.093262136
184	0xbe4f37b2	-0.2023609
185	0x3d229f9e	0.039703004
186	0xbe874eec	-0.264274
187	0xbdd7fe40	-0.10546541
188	0xbc61753a	-0.013760859
189	0xbd997c4c	-0.07494411
190	0xbe14fabf	-0.14548777
191	0xbe9bb607	-0.30412313
192	0xbe2c98a4	-0.16855103
193	0xbef0cdb8	-0.4703195
194	0xbe40d5d2	-0.18831566
195	0xbe12b386	-0.14326295
196	0xbdb9b97d	-0.09068582
197	0xbd8d3ee4	-0.06896761
198	0xbd7942e6	-0.060854815
199	0xbd0344c8	-0.032048017
200	0xbe4d0359	-0.20020808
201	0xbd4d768c	-0.050161883
202	0xbe8ad598	-0.27116084
203	0x3e845768	0.25847936
204	0xbe5b25b3	-0.214011
205	0xbe582100	-0.21106339
206	0xbf13ebc1	-0.57781607
207	0xbe162d1e	-0.14665648
208	0xbdf60cf7	-0.120141916
209	0xbe47c78f	-0.1950972
210	0xbdd7998c	-0.105273336
211	0xbeb1677a	-0.3464926
212	0xbf1a8728	-0.6036248
213	0xbdf45aa8	-0.11931354
214	0xbe91d4b6	-0.28482598
215	0xbe1a4c1e	-0.15068099
216	0xbdac935d	-0.08426545
217	0xbd8ad16d	-0.06778226
218	0xbd0fbfb1	-0.03509492
219	0xbe895548	-0.26822877
220	0xbe1d5f9b	-0.15368502
221	0xbe21f18a	-0.15814796
222	0xbf230ed9	-0.6369453
223	0xbcf501a5	-0.02990801
224	0xbd19ff77	-0.037597146
225	0xbe79d6c3	-0.24398331
226	0xbe0d315e	-0.13788363
227	0xbdfaf844	-0.12254384
228	0xbeb1f1fb	-0.3475493
229	0xbd1c54eb	-0.03816692
230	0x3b7a9e20	0.0038241223
231	0xbdfdbfac	-0.12390074
232	0xbde05709	-0.10954101
233	0xbdc993dc	-0.09842655
234	0x3f1fecc5	0.62470657
235	0xbdc70e4b	-0.09719523
236	0xbd55fd98	-0.0522438
237	0xbd1016f4	-0.03517814
238	0xbe92d7f4	-0.28680384
239	0xbe929feb	-0.28637633
240	0xbe0ca1bc	-0.13733572
241	0x3c1dbe4c	0.00962789
242	0xbee32fbb	-0.44372353
243	0xbdc3832e	-0.09546505
244	0xbdff5cc1	-0.12468863
245	0xbeb0e4d3	-0.3454958
246	0xbdb90eea	-0.09036048
247	0xbe32c2ed	-0.17457171
248	0xbdba90a9	-0.09109623
249	0xbe088538	-0.13332069
250	0xbde4b4ee	-0.11167322
251	0xbd8ef077	-0.06979459
252	0xbdafb091	-0.08578599
253	0xbdbbe009	-0.09173591
254	0xbd891f71	-0.0669545
255	0xbd80d0a8	-0.06289798

network.4.weight f4 [128, 512]
0	0xbd0d47f3	-0.034492444
1	0xbd04b6eb	-0.032401007
2	0xbce5592a	-0.027996618
3	0x39e17e00	0.00043009222
4	0xbd18d6b1	-0.03731412
5	0xbc683d84	-0.014174823
6	0xbac34000	-0.0014896393
7	0x3bfd7ac0	0.00773558
8	0xbd22ae5d	-0.039717067
9	0xbcff2d00	-0.031149387
10	0x3ba99550	0.00517527
11	0x3ce23092	0.02761105
12	0xbc8f3fed	-0.017486537
13	0xbc7339ca	-0.014845321
14	0xbdfe7f83	-0.12426665
15	0xbb90adc8	-0.0044152476
16	0xbcbb9115	-0.022896329
17	0x3d2a9673	0.041647386
18	0xbc6e700a	-0.014553079
19	0xbdc1f63d	-0.09470794
20	0x3d0afc35	0.03393193
21	0xbcb81ca5	-0.022474596
22	0xbc2ca4bc	-0.010537323
23	0xbafeaf20	-0.0019430853
24	0xbcf2b946	-0.02962936
25	0xbe2bf2ac	-0.1679179
26	0xbd29cf6c	-0.04145758
27	0x3b2f4900	0.0026746392
28	0xbb60b240	-0.0034285933
29	0x3c68d13c	0.014210042
30	0xbcd031d2	-0.025414381
31	0x380ac400	3.3084303e-05
32	0xbcdf3de9	-0.0272512
33	0xbe5bff73	-0.21484165
34	0xbbb50980	-0.005524814
35	0xbc73fe92	-0.014892237
36	0x3ca2081e	0.019779261
37	0xbc7a5444	-0.01527888
38	0xbdb85d86	-0.09002213
39	0xbd04ea12	-0.03244979
40	0x3c041150	0.008060768
41	0xbc1d2a18	-0.009592555
42	0xbda39fee	-0.079894885
43	0xbe402d46	-0.1876727
44	0xbb993920	-0.0046759993
45	0x3d12af73	0.035811853
46	0x3d29ebeb	0.041484755
47	0xbd0eaa8c	-0.034830615
48	0x3d16d4fb	0.036824208
49	0xbbcad548	-0.006189976
50	0x3c34df40	0.011039555
51	0x3c300320	0.010742933
52	0xbd2aea53	-0.041727375
53	0xbd219f7c	-0.039458737
54	0x3d013919	0.031548593
55	0x3c884c6e	0.016638007
56	0xbd2c136c	-0.04201071
57	0x3c6985ac	0.014253061
58	0xbce89de1	-0.028395595
59	0xbd0796e8	-0.0331029
60	0x3d13cd15	0.036084253
61	0x3d1f9615	0.03896149
62	0xbcffee29	-0.031241493
63	0xbc9cd4f8	-0.01914452
64	0x3c9cbcb6	0.019132953
65	0xbde936af	-0.11387383
66	0x3cf0aafa	0.029378403
67	0xbd261d6e	-0.04055541
68	0x3c1eb9bc	0.009687837
69	0xbe35da76	-0.17759117
70	0x3b0cab00	0.0021464229
71	0x3c8a4b3e	0.016881581
72	0xbc790a46	-0.015200203
73	0xbbc2e4e0	-0.005947694
74	0xbcca0605	-0.024661073
75	0xbc6a87e2	-0.014314624
76	0xbca66893	-0.020313537
77	0x3d26d0f5	0.04072662
78	0xbe3ae855	-0.1825269
79	0x3d06876f	0.032844003
80	0xbd0166d5	-0.03159221
81	0x3cb2feda	0.021850038
82	0xb8af4e00	-8.359179e-05
83	0xbcf83730	-0.030299753
84	0xbc965449	-0.018350737
85	0xbd13c1e4	-0.03607358
86	0xbc618b06	-0.013766056
87	0xbd1b2400	-0.03787613
88	0xbd1f4928	-0.038888127
89	0xbe66b18a	-0.22528663
90	0xbe72d9dd	-0.23715921
91	0xbe77f4f2	-0.24214533
92	0xbcbc512b	-0.022987923
93	0xbb0e3880	-0.0021701157
94	0x3d06e0cd	0.03292923
95	0xbd246228	-0.04013267
96	0xb8a54000	-7.879734e-05
97	0x3c4049c0	0.011736333
98	0xbce46c95	-0.027883807
99	0x3b183560	0.0023225173
100	0x3d141b3f	0.036158796
101	0x3ca863da	0.020555425
102	0x3d1f5e7d	0.03890847
103	0xbce8d3c4	-0.02842129
104	0xbb179890	-0.0023131706
105	0x3acaf480	0.0015484244
106	0x3a58ffc0	0.0008277856
107	0xbe24d80a	-0.16098037
108	0xbcce9317	-0.025216622
109	0xbd30009a	-0.042969324
110	0x3d1e271d	0.03861152
111	0x3c9c169e	0.019053753
112	0xbd4d9178	-0.050187558
113	0xbc95a1f6	-0.018265706
114	0xbd2a2365	-0.04153766
115	0xbd5626cb	-0.05228309
116	0x3b865728	0.0040997453
117	0x3b149990	0.0022674538
118	0x3cc19e5e	0.023635086
119	0x3c314830	0.0108204335
120	0xbc5a7b70	-0.013335094
121	0xbe24c7d7	-0.16091858
122	0x3ce32666	0.02772827
123	0x3a6f0f00	0.00091193616
124	0xbc510cfc	-0.012759443
125	0x3d332fcd	0.04374676
126	0xbd9bdd02	-0.07610513
127	0xba962d60	-0.0011457615
128	0xbdc49254	-0.095982224
129	0xbdb7d6cd	-0.08976517
130	0xbe6f9476	-0.23396477
131	0x3d064bf5	0.032787282
132	0xbd8ee26b	-0.069767796
133	0x3cfb5b7a	0.030683268
134	0xb841c000	-4.61936e-05
135	0xbcaae589	-0.020861404
136	0xbc4f3748	-0.012647457
137	0x3d0f6fd3	0.035018753
138	0xbc74adb4	-0.014933992
139	0xbcc69d95	-0.024245063
140	0x3d177197	0.036973562
141	0xbd168c1f	-0.036754724
142	0xbd0a046b	-0.03369562
143	0xbd2d633f	-0.042330977
144	0xbe359fbb	-0.17736714
145	0xbd726691	-0.059179846
146	0xbcb9bbd9	-0.02267258
147	0xbbafd610	-0.0053660944
148	0xbc021a68	-0.007940866
149	0xbb17d7f0	-0.002316948
150	0xbd1d0ba9	-0.038341198
151	0xbe4127ec	-0.18862885
152	0x3c8b1ad0	0.016980559
153	0xbd050765	-0.032477755
154	0x3c01c014	0.00791933
155	0x3bb169c8	0.0054142214
156	0xbd2353b3	-0.039874744
157	0xbbf3a280	-0.007435143
158	0x3ba589c8	0.005051825
159	0x3cc916ca	0.024547
160	0xbcc613b0	-0.02417931
161	0xbddf9c38	-0.10918468
162	0xbe5963db	-0.21229498
163	0xbc1989fc	-0.009371277
164	0xbe6f6f52	-0.23382309
165	0xbe43fee5	-0.19140203
166	0xbb59b3e0	-0.0033218786
167	0xbce3a4de	-0.027788576
168	0xbd09f81e	-0.03368389
169	0xbc3aa4d8	-0.011391841
170	0xba7dc6c0	-0.00096808
171	0xbc824cfd	-0.015905851
172	0xba5ce0c0	-0.00084258243
173	0xbbcaf648	-0.00619391
174	0x3c182a44	0.009287421
175	0xbbf7cd40	-0.0075623095
176	0xbb149410	-0.002267126
177	0xbcd1b526	-0.025599074
178	0x3cc09cc6	0.023512255
179	0xbdca83d3	-0.09888425
180	0xbd2da576	-0.042394124
181	0x3c76ca18	0.015062831
182	0xbc82772f	-0.015925972
183	0x3cc0d472	0.023538802
184	0xbc30d850	-0.01079376
185	0xbe688e54	-0.22710544
186	0x3cfdda96	0.030988019
187	0x3bb7af20	0.0056055933
188	0xbcacdddb	-0.021101883
189	0xbcc7a487	-0.024370445
190	0xbc04b290	-0.008099213
191	0xbdabc44a	-0.083870485
192	0xbc946f8e	-0.0181196
193	0xbd0e2eb4	-0.03471251
194	0x3d246227	0.040132668
195	0xbb929740	-0.004473597
196	0x3ca51aba	0.020154346
197	0xbaedf8c0	-0.0018155798
198	0xbc22ee20	-0.009944469
199	0xbd166076	-0.036713086
200	0x3b678190	0.0035325028
201	0x3bdc15c8	0.0067164637
202	0x3912d300	0.00014002249
203	0xbe579c94	-0.21055824
204	0xbd0dee03	-0.034650814
205	0xbb78b3d0	-0.0037948973
206	0xbd818323	-0.063238405
207	0x3cb28b86	0.021795046
208	0xbd0810a6	-0.033219002
209	0xbe77e4c9	-0.24208368
210	0x3c2bf890	0.010496274
211	0xbd83a5ee	-0.06428133
212	0xbcc1299a	-0.023579407
213	0x3d0a7ad7	0.033808555
214	0xbe411f75	-0.18859656
215	0xbd199ffe	-0.037506096
216	0xbc9b52b4	-0.018960334
217	0x3c534008	0.012893684
218	0xbc03208c	-0.008003365
219	0xbe75dc9e	-0.2400994
220	0xbcdc9811	-0.02692798
221	0x3c50e7e0	0.012750596
222	0x3c8325e4	0.016009279
223	0x3bff8578	0.007797893
224	0xbd038bf3	-0.032115888
225	0xbd12f0f6	-0.03587433
226	0xbe5765c1	-0.2103491
227	0xbb5a7b10	-0.003333751
228	0x3ce078b6	0.02740131
229	0xbcbd300a	-0.023094196
230	0xbe34eaa5	-0.17667635
231	0xbc8a6ff3	-0.016899085
232	0xbc9d89c8	-0.019230738
233	0x3b6fdac0	0.003659889
234	0x3911cc00	0.00013904274
235	0x3d142dcf	0.0361765
236	0x3d2194b9	0.039448474
237	0xbcda83b4	-0.02667413
238	0xbe74bf6f	-0.23901151
239	0xbc6507b4	-0.013978887
240	0xbd1384b3	-0.036015224
241	0xbd0275c6	-0.0318506
242	0x3b3409f0	0.0027471744
243	0xbd29b23f	-0.041429754
244	0xbd05da43	-0.032678854
245	0xbabed760	-0.0014560036
246	0xbb414350	-0.0029489584
247	0x3cfe076a	0.031009395
248	0x3c5c1ea4	0.01343504
249	0xbbf15a98	-0.007365536
250	0xbd9e4d56	-0.077295944
251	0x3cf82eda	0.030295778
252	0x3ca4b85a	0.020107437
253	0xbd123459	-0.035694454
254	0xbcb39985	-0.02192379
255	0x3d0f7177	0.035020318

network.4.bias f4 [128]
0	0xbe4e45df	-0.20143841
1	0xbed673a2	-0.41885096
2	0xbe81d3a6	-0.25356787
3	0x3d2d97f0	0.042381227
4	0xbedfa985	-0.4368402
5	0xbe380662	-0.17971185
6	0xbe1ded19	-0.15422477
7	0xbda6f091	-0.08151353
8	0xbe65fa6b	-0.22458808
9	0xbe01ed38	-0.12688148
10	0xbe98261e	-0.2971658
11	0xbe591647	-0.21199904
12	0xbd41650c	-0.047215506
13	0x3e46e763	0.19424205
14	0xbcd8eddc	-0.026480608
15	0xbe70870f	-0.23489021
16	0xbdc3dbea	-0.0956343
17	0xbd897f31	-0.06713713
18	0xbeb64d12	-0.35605675
19	0xbe2a72da	-0.16645375
20	0xbd1a9ee6	-0.037749194
21	0xbdb8c7a0	-0.090224504
22	0xbe58a9b6	-0.2115849
23	0xbe179b24	-0.14805275
24	0xbd18cf27	-0.03730693
25	0xbccfa157	-0.025345488
26	0xbcb6327c	-0.02224087
27	0xbea6664a	-0.32499915
28	0xbdbd7b90	-0.09252083
29	0xbed0f2be	-0.40810198
30	0x3f3a6503	0.7281038
31	0xbe10d7fe	-0.14144894
32	0xbd0e1e2f	-0.034696754
33	0xbe8fd3aa	-0.28091174
34	0x3d4d17fe	0.05007171
35	0xbdbb845e	-0.091561064
36	0xbea71d6f	-0.32639644
37	0xbe113a58	-0.14182413
38	0xbe461de9	-0.19347347
39	0xbe2e4e30	-0.17022014
40	0xbd15ac50	-0.036541283
41	0xbe860d94	-0.26182234
42	0xbe9843a5	-0.2973911
43	0xbd612dcb	-0.054975312
44	0xbe8fb280	-0.28065872
45	0xbdc91351	-0.098181374
46	0xbdbe5ba9	-0.092948265
47	0xbdf76e8a	-0.120816305
48	0xbeb58244	-0.35450947
49	0xbe7f3b43	-0.2492495
50	0xbd86101d	-0.06546042
51	0xbd73a22d	-0.059480835
52	0xbeb9c149	-0.36280277
53	0xbe90de28	-0.28294492
54	0xbe12b8a9	-0.14328255
55	0xbe9b4a8b	-0.3033031
56	0xbe4a2715	-0.19741471
57	0xbe03514b	-0.1282398
58	0xbe9a2eea	-0.30113918
59	0xbd164a7d	-0.03669213
60	0xbcfa0566	-0.030520152
61	0x3a81c381	0.0009900184
62	0xbe59df1a	-0.21276513
63	0x3e9a7c9f	0.30173203
64	0xbe975412	-0.29556328
65	0xbd94d738	-0.07267612
66	0xbe589fb2	-0.21154669
67	0xbde48c9c	-0.111596316
68	0xbdf46e9a	-0.11935158
69	0xbed3496f	-0.41266963
70	0xbe1a5a96	-0.15073618
71	0xbedfca34	-0.43708956
72	0xbdeef4d5	-0.11667792
73	0xbc3ac2c1	-0.011398972
74	0xbea47166	-0.32117766
75	0x3f1ec330	0.6201658
76	0xbdeed9f0	-0.11662662
77	0xbeaf0e6c	-0.3419069
78	0xbe03f629	-0.12886871
79	0xbe7cb953	-0.2468007
80	0xbd81969a	-0.06327553
81	0xbe9430de	-0.28943533
82	0xbe09da53	-0.1346219
83	0xbda65de8	-0.0812338
84	0xbd0aa41f	-0.033847924
85	0xbed098f2	-0.40741688
86	0xbdb2b2cd	-0.0872551
87	0xbdb11796	-0.08647077
88	0xbf07a630	-0.52987957
89	0xbd8cae9a	-0.0686924
90	0xbd2d727f	-0.04234552
91	0xbeb266db	-0.34844097
92	0xbd60f2c1	-0.05491901
93	0xbde5fb0c	-0.11229524
94	0xbd9257e3	-0.07145669
95	0xbe1ab215	-0.15106995
96	0x3cb9a940	0.022663713
97	0xbd69ae68	-0.057051092
98	0xbde5c10f	-0.11218464
99	0xbe19d185	-0.15021332
100	0xbe665496	-0.22493204
101	0xbdbc7bd3	-0.09203305
102	0xbdc5b426	-0.09653501
103	0x3e180987	0.14847384
104	0xbcaf8cca	-0.021429438
105	0xbde7bb26	-0.113149926
106	0xbd7b51a5	-0.06135716
107	0xbdd4b9ad	-0.10386977
108	0xbe980fae	-0.29699463
109	0xbd3f8c14	-0.04676445
110	0xbd9f4946	-0.07777648
111	0x3ea96017	0.33081123
112	0x3d2ef645	0.04271533
113	0xbd81944b	-0.06327113
114	0xbe0934d3	-0.13399057
115	0xbeefbd7c	-0.46824253
116	0xbe0d0a93	-0.13773565
117	0xbd664ed7	-0.05622753
118	0xbd9342d2	-0.07190479
119	0xbd9d2981	-0.07673932
120	0xbde323d0	-0.11090815
121	0x3ca27f79	0.019836174
122	0xbdbfd016	-0.09365861
123	0xbdfa574e	-0.12223683
124	0xbdae97e2	-0.08525063
125	0xbdefbc97	-0.117058925
126	0xbd94fad2	-0.07274403
127	0xbe0a0f58	-0.13482416

network.6.weight f4 [12, 128]
0	0xbdad81c5	-0.08472017
1	0x3e5bfd87	0.21483432
2	0x3d1b5b2f	0.037928756
3	0xbd34d670	-0.044149816
4	0x3d3979aa	0.045282044
5	0xbd22adb5	-0.03971644
6	0x3da09cf4	0.078424364
7	0x3dbb1e8f	0.09136688
8	0x3d2ee669	0.042700205
9	0xbc6df61e	-0.014524011
10	0x3cf80703	0.030276781
11	0x3e48c7ef	0.19607519
12	0xbbfd21c1	-0.007724971
13	0x3d6afea2	0.057371743
14	0x3bf50a8d	0.0074780644
15	0x3d61d944	0.05513884
16	0x3d91b0e4	0.07113817
17	0x3d9ea374	0.0774602
18	0xbc83ab08	-0.016072765
19	0xbd84bf5a	-0.0648181
20	0x3c9c9d63	0.019118017
21	0xbdb73d46	-0.08947234
22	0x3d072dc9	0.03300265
23	0x3dbeebe8	0.09322339
24	0xbd6163ca	-0.055026807
25	0x3d8ef3e5	0.06980113
26	0x3e19b40e	0.15010092
27	0x3dbe66fa	0.09296985
28	0xbd4e0e98	-0.050306886
29	0x3c31a595	0.0108427005
30	0xbe2ccc10	-0.16874719
31	0x3d26e382	0.040744312
32	0x3d302c94	0.043011263
33	0xbdbd1d20	-0.09234071
34	0x3cb502ce	0.022096064
35	0xbb1e7a85	-0.0024181914
36	0x3e125c16	0.1429294
37	0x3d8c236d	0.068426944
38	0xbe47e5a8	-0.195212
39	0x3bfef003	0.0077800765
40	0xbd924beb	-0.071433865
41	0xbd185cf4	-0.037198022
42	0x3dc72c08	0.09725195
43	0x3d26793c	0.04064296
44	0x3ca2b790	0.01986292
45	0x3df7a94f	0.1209284
46	0x3d7543e0	0.059879184
47	0xbda1f9dc	-0.07908985
48	0x3dd476b1	0.10374201
49	0xbcea2fd0	-0.028587252
50	0x3d92d0ed	0.07168756
51	0xbc12bd52	-0.00895627
52	0x3d75531a	0.059893705
53	0xbdeabd5f	-0.11461901
54	0xbdb85623	-0.09000804
55	0x3e0b54f3	0.13606624
56	0xbcc49ccb	-0.024000546
57	0x3df694f5	0.1204013
58	0x3d7be268	0.061495215
59	0x3e09931a	0.13435021
60	0x3e17fbcd	0.14842148
61	0xbd116ed7	-0.035506096
62	0xbb789237	-0.0037928948
63	0x3e3a65ec	0.18202943
64	0x3d6c9363	0.057757746
65	0xbda12346	-0.07868056
66	0x3d870ca9	0.065942116
67	0x3c277750	0.010221317
68	0xbd9319d8	-0.07182664
69	0xbc4a006f	-0.012329205
70	0xbd9b24db	-0.07575389
71	0xbe02e019	-0.12780799
72	0xbd118008	-0.03552249
73	0x3d4ad8f6	0.049523316
74	0x3c2177f4	0.009855259
75	0xbe70400e	-0.23461935
76	0x3d9df842	0.07713367
77	0x3d6990fd	0.057023037
78	0x3dc1a15a	0.094546035
79	0x3cca9f20	0.02473408
80	0x3dea7d06	0.114496276
81	0x3ea9eec2	0.3318997
82	0xbde11f9e	-0.109923586
83	0x3d1fcc0c	0.039012954
84	0x3dd8bdc2	0.105830684
85	0x3e80e439	0.2517412
86	0xbc4f2570	-0.012643203
87	0xbd6705a3	-0.05640186
88	0xbdfbd9f0	-0.12297428
89	0x3d4518d9	0.0481194
90	0xbcedbe15	-0.029021302
91	0xbbb85483	-0.005625309
92	0x3cba0a02	0.02270985
93	0xbba37586	-0.004988375
94	0x3de40986	0.11134629
95	0x3e3869ef	0.1800916
96	0x3da60f7f	0.081084244
97	0xbd29fcf1	-0.04150099
98	0x3c5ef105	0.013607268
99	0x3d009e69	0.03140107
100	0x3d8e08ae	0.06935249
101	0x3c409fe4	0.011756871
102	0x3dca631d	0.098821856
103	0xbed91148	-0.42395997
104	0xbd5cb39f	-0.053882238
105	0x39c2b83f	0.00037139838
106	0xbde5a7e3	-0.112136625
107	0xbc4fb6f8	-0.0126779005
108	0x3dfb248f	0.122628324
109	0xbd864566	-0.065562055
110	0xbba17fab	-0.0049285493
111	0x3d02c167	0.031922724
112	0x3b0b0313	0.002121155
113	0x3c2934e0	0.010327548
114	0x3db76bf6	0.08956139
115	0x3d54e74f	0.051978406
116	0xbd6ba9a8	-0.057534844
117	0xbaab8305	-0.0013085312
118	0x3c12cb11	0.008959548
119	0x3dc8ca63	0.09804227
120	0x3b0d5f80	0.0021571815
121	0x3e279146	0.16364011
122	0x3dbf1bb7	0.09331458
123	0x3c37c423	0.011216196
124	0xbdbf7ca9	-0.09349949
125	0xbd3f374a	-0.046683587
126	0x3bec2ca3	0.0072074695
127	0x3d80031e	0.062505946
128	0xbdaa8207	-0.08325582
129	0x3b98f053	0.0046673208
130	0x3d0b65f7	0.034032788
131	0x3e6b5802	0.22982791
132	0xbd993e8e	-0.074826345
133	0xbbfae819	-0.0076570627
134	0xbca84c2b	-0.020544132
135	0x3d93dad6	0.07219474
136	0x3dee90db	0.11648723
137	0x3df7162e	0.12064777
138	0x3c141767	0.009038783
139	0x3e8b7a62	0.27241808
140	0x3e802bd0	0.25033426
141	0x3db7b671	0.08970345
142	0x3e010d6b	0.12602775
143	0xbe429dd4	-0.19005519
144	0x3dee1a26	0.11626081
145	0x3c631720	0.013860494
146	0x3ade5ec0	0.0016965494
147	0x3e857b48	0.2607062
148	0xbc926b48	-0.017873421
149	0x3d908279	0.07056136
150	0x3e381343	0.17976098
151	0x3d411256	0.047136627
152	0x3bcfea9f	0.0063451077
153	0x3cf28a79	0.029607045
154	0xbe86c3a8	-0.2632115
155	0xbe1b7387	-0.15180789
156	0x3ddae12d	0.1068748
157	0xbe60a803	-0.21939091
158	0x3d6a26b5	0.05716582
159	0xbc4518f7	-0.012029878
160	0x3c9fa480	0.01948762
161	0x3cf4a424	0.029863425
162	0x3da9877f	0.08277797
163	0x3db0824a	0.08618601
164	0x3d145ded	0.036222387
165	0xbca3ca80	-0.01999402
166	0xbdccf2e7	-0.100072674
167	0x3d8e579e	0.069503054
168	0x3b60b094	0.0034284936
169	0xbd74edea	-0.059797205
170	0xbdaba251	-0.08380569
171	0xbe2d29ba	-0.16910449
172	0xbd87be6d	-0.06628118
173	0x3dfaf05f	0.122528784
174	0xbdac3ac9	-0.0840965
175	0x3e131475	0.14363272
176	0x3db14937	0.08656543
177	0xbe1cbe8e	-0.15307066
178	0x3c7c6690	0.015405312
179	0x3e0951d5	0.13410123
180	0x3e1d32f1	0.15351464
181	0x3e8c1e6c	0.2736696
182	0x3d62a921	0.055337075
183	0xbe68668f	-0.22695373
184	0x3cea2728	0.028583124
185	0x3d236e9a	0.0399004
186	0xbe1af458	-0.15132272
187	0xbd9e4964	-0.07728842
188	0x3b21cafa	0.0024687634
189	0x3d4bcd3e	0.04975628
190	0x3cf6f308	0.030145183
191	0x3e346757	0.17617546
192	0x3e12b3b3	0.14326362
193	0x3d2e0c66	0.042492293
194	0x3d422f6a	0.0474085
195	0xbc385f48	-0.011253186
196	0x3e627a0b	0.22116868
197	0xbda8926e	-0.08231054
198	0xbdac1369	-0.0840214
199	0xbce716d7	-0.028209133
200	0x3dc51d9d	0.09624789
201	0xbd680e7a	-0.05665443
202	0xbd02bb2d	-0.031916786
203	0xbd0ba5c8	-0.03409365
204	0xbc5be9fe	-0.013422487
205	0xbcbc9b2c	-0.02302321
206	0x3e09f2a0	0.1347146
207	0xbba4f9a0	-0.0050346404
208	0x3d928957	0.07155102
209	0xbb6ccde0	-0.0036133453
210	0x3e0a85ef	0.13527654
211	0xbc02629e	-0.0079580825
212	0x3c90e3e8	0.0176868
213	0x3e179a88	0.14805043
214	0x3d9b925d	0.07596276
215	0xbd68433a	-0.056704737
216	0x3e992517	0.2991111
217	0xbd01a03d	-0.031646956
218	0x3db3a68b	0.08772
219	0xbd71b856	-0.059013687
220	0xbcca9960	-0.024731338
221	0xba19f480	-0.000587292
222	0xbc2e4852	-0.01063736
223	0x3d9bb6b5	0.07603208
224	0x3d99ce65	0.0751007
225	0x3e24fea6	0.16112766
226	0xbe19458d	-0.14967938
227	0x3e5ae456	0.21376166
228	0x39cf3018	0.0003951795
229	0x3e05017b	0.12988846
230	0xbde58426	-0.11206846
231	0xbe9a58fd	-0.30146018
232	0x3b15555a	0.002278647
233	0x3daced27	0.08443671
234	0x3db8d691	0.090253
235	0x3d8f645f	0.07001566
236	0x3c63d448	0.013905592
237	0xbcc190c1	-0.023628594
238	0x3d0700e5	0.032959837
239	0x3de5ffd8	0.11230439
240	0x3d8c0d7a	0.06838508
241	0xbe28c9a0	-0.16483164
242	0xbd54e76d	-0.051978517
243	0xbe9aad0e	-0.30210155
244	0x3c8c7bee	0.017148938
245	0xbda741c4	-0.08166841
246	0x3cd11da1	0.025526823
247	0x3d89bc22	0.067253366
248	0x3d0e964c	0.034811303
249	0x3eab6cb9	0.33481386
250	0xbd6253f4	-0.055255845
251	0x3e04a18c	0.1295225
252	0xbd5d16f2	-0.05397696
253	0xbe08c17c	-0.13355058
254	0x3dab2ce3	0.08358171
255	0x3c9f2980	0.019428968

network.6.bias f4 [12]
0	0xbf17ea08	-0.5934148
1	0xbf00ea35	-0.5035737
2	0x3e78b0ff	0.24286269
3	0x3e5a259f	0.21303414
4	0x3d649aac	0.05581157
5	0x3c4186de	0.01181194
6	0xbdf34a65	-0.11879424
7	0x3dac772e	0.08421169
8	0x3f6605cc	0.89852595
9	0x3d468eee	0.048476152
10	0x3e217321	0.15766574
11	0xbc5d3340	-0.0135009885
