model/DQNAgent2_21-08-2022__00-00-55.pth/DQNAgent2_21-08-2022__00-00-55.pth (torch, 805711 bytes, 8 tensors)

network.0.weight f4 [256, 7]
0	0xbd90f168	-0.070772946
1	0x3dffb40c	0.12485513
2	0x3e88831b	0.26662526
3	0xbe8e569f	-0.27800462
4	0x3e960cbd	0.29306594
5	0xbdbaefb8	-0.09127754
6	0xbe57def1	-0.21081139
7	0xbe1e1b78	-0.15440166
8	0xbc21b740	-0.00987035
9	0xbe02c41a	-0.1277012
10	0xbd9d2e60	-0.07674861
11	0xbe93fd45	-0.28904167
12	0x3d6852a8	0.056719452
13	0x3e86c247	0.26320097
14	0xbc6d2e05	-0.014476304
15	0x3d379b4b	0.044825833
16	0x3e58a2c6	0.21155843
17	0xbe8ca22e	-0.27467483
18	0xbda6abd4	-0.08138242
19	0x3e68ed42	0.22746757
20	0x3e339ab1	0.17539479
21	0x3ede0c2f	0.4336867
22	0x3ecd5f4e	0.40111774
23	0x3e69f242	0.2284632
24	0x3f0afa5b	0.5428826
25	0x3ec231ac	0.37928522
26	0x3e92f6a5	0.287038
27	0x3ebff76d	0.37493458
28	0xbe87a37d	-0.2649192
29	0xbe8b6668	-0.27226567
30	0xbe192377	-0.14954935
31	0xbe4d1af1	-0.20029809
32	0xbe71afac	-0.2360217
33	0xbc34cae0	-0.011034697
34	0x3cea9450	0.028635174
35	0x3c91fcf9	0.017820822
36	0x3deae857	0.114700966
37	0x3eaf8f23	0.34288892
38	0x3e172125	0.14758737
39	0x3dfcf0b5	0.12350599
40	0x3e6535ec	0.22383851
41	0xbed6a854	-0.419253
42	0xbdad193b	-0.08452078
43	0xbebda60b	-0.37040743
44	0x3e9ed84f	0.31024405
45	0x3de7a572	0.11310853
46	0xbee07cac	-0.43845117
47	0x3e38a3d1	0.18031241
48	0xbe24de14	-0.16100341
49	0xbe5babea	-0.21452299
50	0x3e9336d7	0.28752777
51	0x3e8f5163	0.2799178
52	0x3eaa5cbd	0.3327388
53	0xbd016280	-0.031588078
54	0xbe9da464	-0.30789483
55	0xbdcf66d0	-0.10127032
56	0xbe80dd1e	-0.251687
57	0xbe12f3ed	-0.14350863
58	0x3c44aaa0	0.012003571
59	0xbebb28ba	-0.3655451
60	0xbe9420ca	-0.28931266
61	0xbe3292b2	-0.17438772
62	0x3e2d5d3e	0.169301
63	0xbe522125	-0.20520456
64	0x3d5d1968	0.053979307
65	0xbe6ce500	-0.23134232
66	0xbd60d190	-0.054887354
67	0x3e11eaa6	0.14249668
68	0xbea6c38f	-0.32571074
69	0x3e078f16	0.13238177
70	0xbd4cf0b8	-0.050034255
71	0xbe4d93c3	-0.20075898
72	0xbeb2f188	-0.349499
73	0xbe1b91b1	-0.15192296
74	0xbe52f4a6	-0.20601138
75	0x3e63ec66	0.22258148
76	0x3e23ccc6	0.15996084
77	0xbdd7be58	-0.10534352
78	0x3eb0592b	0.3444303
79	0x3d6d9030	0.057998836
80	0x3e31d262	0.17365411
81	0xbe43eb6d	-0.19132777
82	0xbea0f51e	-0.3143701
83	0x3e55e28e	0.20887205
84	0x3d803c0c	0.06261453
85	0x3d08474c	0.03327112
86	0xbe227b76	-0.15867409
87	0xbec5b38e	-0.38613552
88	0x3e6ee64d	0.2333004
89	0xbddc7f4f	-0.1076647
90	0x3db7f8b2	0.08982982
91	0xbe8be7bc	-0.27325237
92	0xbe39baf9	-0.1813773
93	0x3e94419b	0.28956303
94	0x3e69129e	0.22761008
95	0x3e34cdfe	0.17656705
96	0x3dba4484	0.090950996
97	0xbe19c9d1	-0.15018393
98	0xbdde8600	-0.10865402
99	0x3e387012	0.18011501
100	0x3d328f88	0.043593913
101	0x3eaaf301	0.33388522
102	0x3e6713b6	0.22566113
103	0xbd511cc0	-0.05105281
104	0xbe8fcac3	-0.28084382
105	0x3f1d3762	0.6141263
106	0x3eb6811b	0.35645375
107	0x3e9e6d19	0.3094261
108	0x3ecdf2c9	0.40224293
109	0x3ea92f2b	0.330438
110	0xbdf16f22	-0.11788775
111	0x3d4c4a18	0.04987535
112	0xbd96eccc	-0.07369384
113	0x3dac9c70	0.084282756
114	0xbdf8ff1c	-0.12158033
115	0xbe4055fc	-0.187828
116	0xba55a400	-0.0008149743
117	0xbd859a14	-0.06523529
118	0xbd2d0668	-0.042242438
119	0xbea99655	-0.33122507
120	0xbebaaaa6	-0.3645832
121	0xbdf69c6c	-0.12041554
122	0x3e5b8dbe	0.21440789
123	0xbe5d7d09	-0.21629728
124	0xbe869b64	-0.2629043
125	0x3e11723e	0.14203736
126	0x3eaf0b60	0.34188366
127	0xbe508a32	-0.20365217
128	0xbcff2380	-0.031144857
129	0x3e5669ec	0.20938843
130	0xbd469fe2	-0.04849232
131	0xbe7f373c	-0.24923414
132	0xbefe0f85	-0.49621215
133	0x3e08b818	0.13351476
134	0xbe8581ed	-0.26075688
135	0x3c3d02e0	0.01153633
136	0xbede205f	-0.43384072
137	0x3da12d07	0.078699164
138	0xbebff3de	-0.37490743
139	0xbe9940da	-0.2993229
140	0x3ed69835	0.41913
141	0x3eb8b4e9	0.36075523
142	0xbea504f2	-0.32230335
143	0x3e1ac2a4	0.15113312
144	0xbda7fc47	-0.08202415
145	0xbee18181	-0.44044116
146	0x3e62b58d	0.22139569
147	0xbebefbee	-0.37301582
148	0x3e9f9ea5	0.31175724
149	0x3d5ff138	0.054673404
150	0x3e98b9cd	0.29829255
151	0xbe396759	-0.1810583
152	0x3ea460cd	0.32105103
153	0x3d3fa390	0.046786845
154	0x3f04c722	0.5186635
155	0x3eec045c	0.46097076
156	0x3e061ab6	0.13096127
157	0x3f08bc8e	0.5341271
158	0xbe22ac67	-0.15886079
159	0xbd486b79	-0.04893062
160	0x3e49d97a	0.19711867
161	0x3f0f791f	0.5604419
162	0x3f1d341d	0.61407644
163	0x3e806141	0.250742
164	0x3eb2005a	0.34765893
165	0x3e61e3a8	0.220595
166	0xbe9edde1	-0.31028655
167	0x3ec1ce82	0.37852865
168	0x3f0ba104	0.54542565
169	0x3e8a2319	0.26979902
170	0xbebfb170	-0.37440062
171	0x3ec0a66d	0.37626973
172	0x3e605067	0.21905671
173	0xbeeff074	-0.4686314
174	0xbd842416	-0.06452195
175	0xbd4fd8b9	-0.050743792
176	0xbea3ea0a	-0.32014495
177	0x3e4cfc42	0.20018104
178	0xbec7ed9f	-0.39048478
179	0x3e386e6d	0.18010874
180	0x3d26a7a0	0.040687203
181	0x3d0b93ee	0.034076624
182	0xbe6fd93a	-0.23422709
183	0x3e9fabbb	0.31185707
184	0xbc68cea0	-0.0142094195
185	0xbdbf25a0	-0.09333348
186	0xbe80b5c8	-0.25138688
187	0xbe75c8e4	-0.24002415
188	0x3e182af6	0.14860138
189	0xbe0192a2	-0.12653592
190	0xbd73cd78	-0.059522122
191	0x3de48de4	0.11159876
192	0x3e9aae0f	0.3021092
193	0xbea2f30d	-0.31826058
194	0xbe7f175b	-0.24911253
195	0xbde0ba30	-0.109730124
196	0x3edfcd59	0.43711355
197	0x3d36e9b7	0.04465648
198	0xbe701730	-0.23446345
199	0x3db61f9e	0.08892749
200	0x3e96bdb2	0.294416
201	0xbee28a95	-0.44246355
202	0x3e4bf476	0.19917473
203	0xbebebe01	-0.37254336
204	0xbd3fad30	-0.046796024
205	0xbcd74850	-0.026279598
206	0xbd0928f0	-0.033486307
207	0x3d90501c	0.0704653
208	0x3dbf817c	0.09350869
209	0xbeaf4bab	-0.34237418
210	0x3dd88db4	0.10573903
211	0x3df98838	0.12184185
212	0x3e8981b3	0.26856765
213	0xbea4ada6	-0.32163733
214	0x3cb25ecf	0.021773724
215	0x3e6e48c1	0.23269941
216	0x3e0c1f43	0.136838
217	0xbe4a6d72	-0.19768313
218	0x3e599826	0.21249446
219	0x3e97f2c9	0.29677418
220	0xbe8bd128	-0.2730801
221	0xbe674044	-0.22583109
222	0xbe8208f9	-0.2539747
223	0xbe44a396	-0.19203028
224	0xbe4f4155	-0.20239766
225	0x3d5f27a1	0.054481152
226	0xbeaa57b1	-0.33270028
227	0x3e99fc2c	0.30075204
228	0x3e0849a5	0.13309343
229	0x3e2afc63	0.1669784
230	0x3e04562e	0.129235
231	0xbe036ded	-0.12834902
232	0xbe9785d8	-0.29594302
233	0x3e8d8d89	0.27647045
234	0x3e827565	0.2548019
235	0xbe486f46	-0.19573697
236	0x3e4165b6	0.18886456
237	0xbe475a01	-0.19467928
238	0xbe52e049	-0.2059337
239	0x3eb4c3e7	0.35305712
240	0xbe982299	-0.29713896
241	0xbd3cd400	-0.046100616
242	0x3e16f5ea	0.14742246
243	0xbea3979f	-0.31951615
244	0xbda8df08	-0.08245665
245	0xbdb4fef4	-0.08837691
246	0x3ea57321	0.323144
247	0x3dd75050	0.10513365
248	0xbebfc3a8	-0.3745396
249	0x3eae7793	0.34075603
250	0x3c6e6620	0.014550716
251	0x3e3e947e	0.18611333
252	0x3ed40663	0.41411123
253	0x3e59bc51	0.21263243
254	0x3eb392f9	0.3507307
255	0xbe1f6c7d	-0.15568729

network.0.bias f4 [256]
0	0x3e84383d	0.25824156
1	0xbe2b7436	-0.1674355
2	0xbdfc0ed2	-0.12307514
3	0x3f3139b8	0.69228697
4	0xbe5b78ed	-0.21432848
5	0xbeb37e0b	-0.350571
6	0x3d7302df	0.05932891
7	0x3eac47ef	0.3364863
8	0x3e4f4742	0.20242026
9	0x3e93dd07	0.28879568
10	0xbe4c3f58	-0.19946039
11	0xbe73443d	-0.237565
12	0xbec2ca79	-0.380451
13	0x3e23b01a	0.15985146
14	0x3c8e58d0	0.017376333
15	0x3f1f1337	0.62138695
16	0xbe8850bd	-0.26624098
17	0xbe0a3c09	-0.13499464
18	0xbe0e1a87	-0.13877307
19	0xbe8a930f	-0.27065322
20	0x3f248c27	0.64276356
21	0xbebf887f	-0.37408826
22	0x3da38067	0.07983475
23	0x3e936065	0.2878448
24	0x3ea016bf	0.31267354
25	0x3e5766fa	0.21035376
26	0x3d9c034c	0.07617816
27	0xbd46ed68	-0.048566252
28	0x3e8d8af9	0.2764509
29	0x3c853120	0.016258776
30	0xbece760e	-0.40324444
31	0xbe209144	-0.15680414
32	0x3e71b59f	0.23604439
33	0xbe9a5e08	-0.30149865
34	0x3e536b52	0.20646408
35	0xbeb1293b	-0.3460177
36	0x3caf0de6	0.021368932
37	0xbda47400	-0.08029938
38	0x3e917f16	0.2841727
39	0x3e8bef76	0.27331132
40	0x3e915002	0.28381354
41	0xbe675acf	-0.22593234
42	0xbecfeceb	-0.40610442
43	0x3d21e61b	0.039526086
44	0x3da377a3	0.07981803
45	0xbe772382	-0.24134639
46	0xbd62a358	-0.055331558
47	0xbe9676d0	-0.29387522
48	0x3e076f22	0.13225988
49	0xbebc3c69	-0.3676484
50	0x3f19df92	0.60106766
51	0x3e789e46	0.24279127
52	0x3e9d95a4	0.3077823
53	0x3db36a3c	0.08760497
54	0x3e675aa8	0.22593176
55	0xbec6870f	-0.38774917
56	0x3e22eedb	0.15911429
57	0x3e1ede86	0.15514573
58	0x3e333f4e	0.17504618
59	0xbebd76ce	-0.37004703
60	0xbea0b198	-0.31385493
61	0x3f04b84e	0.51843727
62	0xbeb8ffe7	-0.36132738
63	0xbe2d2baa	-0.16911188
64	0x3d53fb3b	0.051753264
65	0x3ecd60d5	0.4011294
66	0xbd9aff60	-0.0756824
67	0x3e24ea36	0.1610497
68	0xbeb9b09d	-0.36267558
69	0x3e0b0c92	0.13579014
70	0xbe0b4b5d	-0.13602968
71	0xbe8b08c8	-0.27155137
72	0x3e905c51	0.28195432
73	0x3ee4a350	0.44655848
74	0xbee12f54	-0.4398142
75	0x3dc2c10d	0.09509478
76	0xbe178f3f	-0.14800738
77	0xbe1fab9d	-0.15592809
78	0xbe0e11d5	-0.1387399
79	0x3ec0534f	0.3756356
80	0xbe463398	-0.19355619
81	0xbe04987b	-0.12948792
82	0xbc32e2bd	-0.010918316
83	0x3e1d9006	0.15386972
84	0x3d99cc98	0.07509726
85	0x3ebcf0aa	0.36902362
86	0x3dd9a159	0.10626478
87	0xbe9834bc	-0.29727733
88	0x3e2ca719	0.16860618
89	0xbec824c3	-0.39090547
90	0x3d91140c	0.07083902
91	0xbe7d4d67	-0.24736558
92	0xbeae8a52	-0.34089905
93	0xbe9473a4	-0.28994477
94	0xbed670e9	-0.4188302
95	0xbebe3f5e	-0.3715772
96	0xbcee1600	-0.029063225
97	0xbe9036a5	-0.2816669
98	0xbdac8ddc	-0.08425495
99	0xbd86143a	-0.06546827
100	0x3e39042a	0.18067995
101	0xbe557c7a	-0.20848265
102	0x3d619105	0.055069942
103	0x3ec751c2	0.38929564
104	0xbeb2482e	-0.34820694
105	0xbec0078c	-0.37505758
106	0x3e164e46	0.14678296
107	0x3d5486a8	0.05188623
108	0xbdf1b8a0	-0.118027925
109	0x3e4dab04	0.20084769
110	0xbe40f549	-0.18843569
111	0x3e192b9e	0.14958045
112	0x3ec1b300	0.3783188
113	0x3f1b46ba	0.60654795
114	0x3eefeafa	0.4685896
115	0xbc4863c0	-0.0122308135
116	0x3ec4f2b8	0.3846643
117	0x3ee91a47	0.4552786
118	0x3f058bcd	0.52166444
119	0xbee07608	-0.4384005
120	0x3dd34c23	0.10317256
121	0xbea1c389	-0.31594494
122	0x3d7f6428	0.062351376
123	0x3e722581	0.23647119
124	0xbddbda14	-0.107349545
125	0xbe899924	-0.2687465
126	0x3c84a3b0	0.016191334
127	0xbe92d041	-0.2867451
128	0x3ec4538a	0.38344985
129	0x3ebbcfd3	0.36681995
130	0xbe1b2f9c	-0.1515488
131	0x3d368a14	0.044565275
132	0xbed1edf0	-0.41001844
133	0xbee435da	-0.44572335
134	0x3ec8eb0c	0.39241827
135	0xbec062af	-0.3757529
136	0xbdb577c3	-0.08860733
137	0xbebd43dd	-0.36965838
138	0xbe628b51	-0.22123457
139	0x3e74f6d4	0.23922282
140	0xbea5da7b	-0.3239325
141	0x3e3e9ebe	0.18615243
142	0x3d9da0a3	0.07696655
143	0xbe0bb96b	-0.1364495
144	0x3e9cc703	0.30620584
145	0x3e23db76	0.16001686
146	0xbe8d3f06	-0.27587146
147	0xbe838f63	-0.25695333
148	0x3cfdcf50	0.030982643
149	0x3e832925	0.25617328
150	0x3e476115	0.19470628
151	0xbc84edf6	-0.01622675
152	0x3e48f106	0.19623193
153	0x3e72a6da	0.23696461
154	0x3ebf4b21	0.37362006
155	0x3ece3067	0.40271303
156	0x3de6e4dd	0.11274121
157	0x3e1c9da2	0.15294507
158	0x3ea9583f	0.3307514
159	0xbe389f0a	-0.18029419
160	0xbdca6c4c	-0.09883937
161	0xbe4e65e0	-0.2015605
162	0x3e50aac2	0.20377639
163	0x3e86682f	0.2625136
164	0x3c1a7cd6	0.009429177
165	0x3ebe79a0	0.37202168
166	0xbe877e7e	-0.26463693
167	0x3d4f2f18	0.05058202
168	0x3ebc0290	0.36720705
169	0xbd8f0590	-0.06983483
170	0x3e8bb0b3	0.27283248
171	0x3e930447	0.287142
172	0xbd3fdb11	-0.046839777
173	0xbe7b19ee	-0.2452161
174	0x3e6107bd	0.21975608
175	0xbeb715aa	-0.35758716
176	0xbe4b5fdf	-0.1986079
177	0x3ef02c48	0.46908784
178	0x3e63e356	0.2225469
179	0x3c7f526d	0.015583617
180	0x3cc19040	0.023628354
181	0x3ddcf76c	0.107893795
182	0xbd6db708	-0.05803588
183	0xbd506a67	-0.050882723
184	0x3f0eb12c	0.5573909
185	0x3ea225a3	0.3166934
186	0x3e6aa41d	0.22914167
187	0x3d479dc0	0.048734426
188	0xbe4d88a3	-0.20071654
189	0xbe21ca18	-0.15799749
190	0x3dbbc097	0.09167593
191	0x3e12f764	0.14352185
192	0xbebd5ab6	-0.3698327
193	0xbc86f935	-0.016476253
194	0x3f1a72e9	0.6033159
195	0xbe3251bf	-0.17413996
196	0xbe12bd92	-0.14330128
197	0x3e5f94a2	0.21834043
198	0xbe65cf8d	-0.22442456
199	0xbe0de50b	-0.13856904
200	0xbea65270	-0.3248477
201	0xbe60aaad	-0.21940108
202	0xbea15f08	-0.31517816
203	0x3d006433	0.031345557
204	0xbde099c0	-0.109668255
205	0xbea5707d	-0.32312384
206	0x3ee1450f	0.43998
207	0xbdd4d644	-0.103924304
208	0xbe5aa8c0	-0.21353436
209	0xbd8be448	-0.068306506
210	0x3e938c55	0.28818002
211	0xbe2f9fd8	-0.1715082
212	0x3f16ffe3	0.589842
213	0xbeb2555a	-0.34830743
214	0x3e24738c	0.16059703
215	0xbe86cd84	-0.2632867
216	0xbebf3a13	-0.37348995
217	0xbd88a614	-0.06672302
218	0xbe90a4c9	-0.2825072
219	0x3e98fcc3	0.29880342
220	0x3e5bd529	0.21468033
221	0x3f047a9e	0.517496
222	0x3e57e666	0.21083984
223	0x3ece7109	0.40320614
224	0x3e13c872	0.14431933
225	0x3e69791e	0.22800109
226	0x3eb22b03	0.3479844
227	0x3d6951aa	0.056962647
228	0xbeccc06b	-0.39990553
229	0xbebb18c4	-0.36542332
230	0x3e36f27c	0.17865938
231	0x3f17140f	0.5901498
232	0x3ef3ac0d	0.47592202
233	0x3ea7a265	0.32741085
234	0x3e52f561	0.20601417
235	0xbeb18fe2	-0.34680086
236	0x3ea04f10	0.3131032
237	0xbdbc3130	-0.09189069
238	0x3d987f3c	0.07446143
239	0x3b1885ad	0.0023273036
240	0x3d79a876	0.060951672
241	0xbe420116	-0.18945727
242	0x3f0808a3	0.5313818
243	0x3e52f1e2	0.20600083
244	0xbcc02bb0	-0.023458332
245	0x3f02e75a	0.51134264
246	0x3e80e913	0.25177822
247	0xbea6b81a	-0.32562333
248	0x3f1c3ff6	0.61035097
249	0xbe213d2e	-0.15745994
250	0xbe83cc98	-0.2574203
251	0x3efa943d	0.48941222
252	0x3e040bad	0.12895079
253	0xbdcfba97	-0.10143011
254	0x3e37f06d	0.17962809
255	0x3ddca5d0	0.10773814

network.2.weight f4 [512, 256]
0	0x3d49dec6	0.04928472
1	0x3d047120	0.032334447
2	0x3d05da68	0.03267899
3	0xbc34e650	-0.011041239
4	0x3d3c217a	0.045930363
5	0xbd2878fa	-0.041130997
6	0xbc80f79c	-0.01574307
7	0x3d3106ae	0.04321926
8	0x3d47c928	0.048775822
9	0x3d3c10ea	0.045914568
10	0xbb2d57e0	-0.0026450083
11	0x3c4823c8	0.012215562
12	0x3d321f04	0.04348661
13	0xbd30d57c	-0.043172345
14	0xbd4b6ade	-0.049662463
15	0xbd2b9a72	-0.041895337
16	0x3ce617f8	0.028087601
17	0xbd14c04c	-0.0363162
18	0x3c54a6d0	0.012979224
19	0x3c77ee30	0.015132472
20	0xbc7e5d68	-0.0155251995
21	0xbce47394	-0.027887143
22	0xbd37bdea	-0.04485885
23	0x3d182cbe	0.037152044
24	0x3b962ed0	0.004583217
25	0x39efe400	0.00045755506
26	0x3cb15f64	0.021651931
27	0x3d0c40de	0.03424155
28	0x3cc35994	0.023846425
29	0x3c5eca98	0.013598107
30	0xbc79cb30	-0.015246198
31	0xbd1bf2d8	-0.03807339
32	0xbc2479b0	-0.010038778
33	0xbd68c720	-0.056830525
34	0x3ba4cbf0	0.005029194
35	0x3d1466e2	0.03623093
36	0x3cbcced0	0.023047835
37	0xbd0edf7a	-0.034881093
38	0xbcbcbc70	-0.023039073
39	0x3ac42500	0.001496464
40	0x3cfe56e8	0.0310473
41	0x3c794760	0.015214771
42	0x3d6c200a	0.057647742
43	0x3cc46374	0.023973204
44	0xbd2ea3c8	-0.042636663
45	0x3d555372	0.052081533
46	0xbd0af1b6	-0.03392192
47	0x3d50b54e	0.050954156
48	0xbd01fad8	-0.031733364
49	0x3d22d1c2	0.039750822
50	0x3d45d798	0.04830131
51	0xbd7d7732	-0.06188125
52	0xba5d3700	-0.00084386766
53	0x3cabb4f4	0.020960309
54	0x3a391400	0.000706017
55	0xbc80f8f0	-0.015743703
56	0xbd730208	-0.05932811
57	0x3d02a368	0.031894118
58	0x3cbaca34	0.022801496
59	0x3d15934a	0.03651742
60	0xbd3f0000	-0.04663086
61	0xbd13c642	-0.036077745
62	0xbc8978d8	-0.016781256
63	0xbcb962e0	-0.022630155
64	0x3c3f3fa8	0.011672892
65	0x3d000818	0.03125772
66	0x3d7b7202	0.061388023
67	0xbd32f898	-0.04369411
68	0xbd5b1832	-0.05348987
69	0x3d233fbe	0.03985571
70	0x3c268d48	0.01016552
71	0xbd02f926	-0.031975888
72	0x3cfb8bdc	0.030706339
73	0x3d4f0804	0.050544754
74	0x3cda0b4c	0.026616715
75	0xbd73efe2	-0.059554942
76	0x3d4f5844	0.050621286
77	0x3c192fc0	0.009349763
78	0x3c1824a0	0.009286076
79	0xbbfaf7c0	-0.0076589286
80	0x3b751620	0.003739722
81	0x3d22d116	0.03975018
82	0x3acf1bc0	0.0015801117
83	0x3c079918	0.0082762465
84	0x3c943008	0.01808931
85	0xbd334a96	-0.043772303
86	0x3d0a57a0	0.033774972
87	0xbc90f9d4	-0.017697252
88	0xbcecd844	-0.028911717
89	0xbd173182	-0.03691245
90	0xbbd1e890	-0.0064058974
91	0xbd796e20	-0.06089604
92	0xbd3dfb94	-0.0463825
93	0xbab0d080	-0.0013489872
94	0x3d0f76ee	0.03502553
95	0x3d419eb4	0.04727049
96	0x3cf62c2c	0.03005036
97	0xbd17dfdc	-0.037078723
98	0x3d2e8b52	0.042613335
99	0x3c7b1d58	0.01532682
100	0xbd0c2316	-0.034213148
101	0x3c31ba78	0.01084768
102	0x3a200e00	0.0006105602
103	0x3ccd0ad8	0.025029585
104	0xbd0022a4	-0.031283036
105	0xbcff03d8	-0.031129763
106	0xbd025ab2	-0.031824775
107	0x3c474f28	0.012164868
108	0xbc8a0c6c	-0.016851626
109	0x3d0bd042	0.034134157
110	0x3c7c68d0	0.015405849
111	0x3aeb83c0	0.0017968342
112	0xbc0a6238	-0.008446269
113	0xbd4f5fc0	-0.050628424
114	0x3ba58560	0.0050513
115	0x3ca24690	0.019809037
116	0x3d6c7220	0.057726026
117	0xbca86d94	-0.020560063
118	0xbd3e2388	-0.046420604
119	0xbc6d7768	-0.014493801
120	0xbd723b76	-0.059138738
121	0x3d1afdd8	0.03783974
122	0x3d752e7c	0.059858784
123	0xbd42d22e	-0.047563724
124	0x3b3938a0	0.002826251
125	0xbcf3d554	-0.029764809
126	0xbc6351d0	-0.013874486
127	0xbd41d21a	-0.04731951
128	0x3b9ac700	0.0047234297
129	0xbd2a894c	-0.041634843
130	0xbcdd46e4	-0.027011342
131	0xbcddd184	-0.027077444
132	0xbc06dc70	-0.008231267
133	0xbca4e96c	-0.020130835
134	0x3c835878	0.016033396
135	0xbc3654a8	-0.011128582
136	0xbc83d174	-0.016091086
137	0x3d70592e	0.0586788
138	0xbd39db0a	-0.045374908
139	0xbbbaf6c0	-0.0057056844
140	0xbd1861be	-0.03720259
141	0xbd38420a	-0.044984855
142	0x3c6e4da0	0.014544874
143	0x3c8090d0	0.015694052
144	0x3cf3a080	0.029739618
145	0x3d76d8bc	0.060265288
146	0xbd3eb40c	-0.046558425
147	0xbd56f256	-0.052477203
148	0xbcb221d4	-0.021744646
149	0x3d389242	0.045061357
150	0x3d0e809c	0.03479062
151	0x3cd156ac	0.025554024
152	0xbc073530	-0.008252427
153	0x3c4b5b88	0.0124119595
154	0xbca3df94	-0.020004071
155	0x3cd0e860	0.02550143
156	0xbcf8d6e4	-0.030375905
157	0xbae5d440	-0.0017534569
158	0xbd0b61f2	-0.034028955
159	0x3d209b72	0.039210744
160	0xbc91b128	-0.01778467
161	0x3d13a25a	0.036043502
162	0xba8881c0	-0.0010414645
163	0x3d69e3d6	0.057102047
164	0xbcbbd2f8	-0.022927746
165	0x3ab6cf80	0.0013947338
166	0xbd370f08	-0.04469207
167	0xbd6cc86a	-0.057808317
168	0xbd540dda	-0.051771022
169	0xbc566d78	-0.013087623
170	0x3d64e778	0.05588481
171	0xbaf80bc0	-0.00189244
172	0x3d0829d2	0.033243008
173	0x3c1b40d0	0.009475902
174	0xbcd96d50	-0.026541382
175	0x3d04fdea	0.032468714
176	0xbc5b05e0	-0.0133681
177	0x3a642580	0.00087030977
178	0xbc2bbdf8	-0.010482304
179	0xbd309b28	-0.04311672
180	0x3cad49a4	0.021153279
181	0xbd615dc4	-0.055021062
182	0x3c91f54c	0.017817162
183	0x3c606e60	0.01369819
184	0xbd43c9c6	-0.047799848
185	0xbbff3f00	-0.0077894926
186	0x3d486748	0.04892662
187	0x3c6a3e78	0.01429712
188	0xbc9491ec	-0.018135987
189	0x3cd1ede8	0.025626138
190	0x3d4688a2	0.048470147
191	0x3d136e66	0.035993956
192	0x3d49e7b8	0.04929325
193	0xbc582420	-0.013192207
194	0xbd2a71d0	-0.041612446
195	0xbbd41ea0	-0.0064733773
196	0xbc1137a0	-0.00886336
197	0x3d1ada82	0.03780604
198	0x3d0bf55a	0.034169532
199	0xbc81c03c	-0.015838735
200	0x3cb1bdbc	0.021696918
201	0x3d682088	0.05667165
202	0xbcc06244	-0.023484357
203	0xbd59ba46	-0.05315616
204	0xbd06859e	-0.03284227
205	0x3c31c198	0.010849379
206	0x3ce28800	0.02765274
207	0x3d339e0e	0.043851905
208	0x3b56b180	0.0032759607
209	0xbd720cfa	-0.059094407
210	0xbcf9206c	-0.030410968
211	0xbd653174	-0.055955365
212	0xbd709dc8	-0.058744222
213	0x3d50f314	0.051013067
214	0xbb9f72f0	-0.0048659965
215	0xbd380d2c	-0.044934437
216	0x3ca50028	0.020141676
217	0x3d50a94a	0.050942697
218	0xb97cc000	-0.00024104118
219	0xbbabb190	-0.005239673
220	0xbba6f480	-0.0050950646
221	0x3ca682c0	0.020326018
222	0x3d17e25e	0.037081115
223	0xbcf15ce0	-0.029463232
224	0xbd6abcf4	-0.057309106
225	0x3d4c8902	0.04993535
226	0xbcd95e2c	-0.026534162
227	0x3bc81f20	0.006107226
228	0xbd0876d2	-0.03331644
229	0xbd7cbe6e	-0.061705045
230	0xbc482568	-0.01221595
231	0xbcbb4de8	-0.022864297
232	0x3ba1acb0	0.004933916
233	0x3d1f61b2	0.03891153
234	0xbbfd3aa0	-0.007727936
235	0xbd7987f2	-0.060920663
236	0xbc05e828	-0.008173026
237	0xbd4b0c00	-0.04957199
238	0xbc8b65c4	-0.0170163
239	0xbd7fa632	-0.062414356
240	0x3c82af8c	0.015952848
241	0xbc91c498	-0.017793939
242	0xbcfb28cc	-0.030659102
243	0x3d69c36a	0.057071127
244	0xbcc01778	-0.02344869
245	0x3b3fc700	0.00292629
246	0x3cb06538	0.02153264
247	0x3d0d440a	0.034488715
248	0x3d62ee7c	0.055403218
249	0xbcfddaec	-0.03098818
250	0x3c4cf5c0	0.012509763
251	0xbd58e04e	-0.05294829
252	0x3d796010	0.060882628
253	0xbcbf054c	-0.023317955
254	0x3ca65d74	0.020308234
255	0x3c6bfd30	0.014403626

network.2.bias f4 [512]
0	0xbcfc29b0	-0.030781597
1	0x3cc532c8	0.024072066
2	0xbca69689	-0.020335453
3	0xbdc579bc	-0.096423596
4	0xbd7d24aa	-0.061802544
5	0xbdcc5d8c	-0.0997878
6	0xbd3168a5	-0.043312687
7	0xbdb098c8	-0.08622891
8	0xbd418ae2	-0.04725159
9	0xbd3e68ba	-0.046486594
10	0x3d26b136	0.040696345
11	0xbca7eed5	-0.020499626
12	0xbd15f279	-0.036608193
13	0xb8c96400	-9.603053e-05
14	0xbda6014d	-0.08105717
15	0xbda17122	-0.078829065
16	0xbdca1094	-0.09866443
17	0xbe16c891	-0.14724948
18	0xbcc47f24	-0.023986407
19	0xbda00ac0	-0.078145504
20	0xbdcbf18a	-0.09958179
21	0xbcd856fd	-0.026408667
22	0xbdf659b0	-0.12028825
23	0xbd003120	-0.03129685
24	0xbcc7aab0	-0.024373382
25	0xbd793a96	-0.060846888
26	0xbcccb056	-0.024986427
27	0xbe22de23	-0.15905051
28	0x3d35ebca	0.04441432
29	0xbb07587f	-0.0020652113
30	0xbdd646c6	-0.10462718
31	0xbd4da177	-0.050202813
32	0xbcdc2b69	-0.026876168
33	0xbcf6302c	-0.030052267
34	0xbdc41747	-0.09574752
35	0xbd2a1f69	-0.04153386
36	0xbdae1fbb	-0.08502146
37	0xbde2ac25	-0.1106799
38	0xbc647010	-0.013942733
39	0xbd553d36	-0.05206033
40	0xbd355bf1	-0.044277135
41	0xbd6db340	-0.058032274
42	0xbc86550c	-0.016397975
43	0xbd5cd0ce	-0.05391007
44	0x3c10d204	0.008839134
45	0xbdb35f67	-0.08758431
46	0xbcbc8667	-0.023013307
47	0xbe144419	-0.14479102
48	0xbdffeca8	-0.124963105
49	0xbd714cf8	-0.058911294
50	0xbdfa4da8	-0.12221843
51	0xbbb0c905	-0.005395057
52	0xbd893114	-0.06698814
53	0xbdda6dc3	-0.10665467
54	0xbc2af37b	-0.010434027
55	0x3d2791ac	0.040910408
56	0xbd3f4a81	-0.04670191
57	0x3c5e8158	0.013580643
58	0xbb2b3a3a	-0.0026127235
59	0xbc86a1f0	-0.01643464
60	0xbda6ce40	-0.08144808
61	0xbc445b80	-0.011984706
62	0xbbbc23f5	-0.005741591
63	0xbda9af9c	-0.08285448
64	0xbcab5e94	-0.020919122
65	0xb93bfaf8	-0.00017927203
66	0xbdd7bcc3	-0.1053405
67	0xbd2e594e	-0.042565636
68	0x3bb3a540	0.005482346
69	0xbd98e8dc	-0.074662894
70	0xbde321dd	-0.11090443
71	0xbce6cb6a	-0.028173167
72	0xbd4a6cc0	-0.04942012
73	0xbd0a8f10	-0.03382784
74	0xbd4b6958	-0.04966101
75	0xbd2febe4	-0.042949572
76	0x3c5f7c30	0.013640448
77	0x3908aa00	0.000130333
78	0xbdec0823	-0.115249895
79	0xbde0bc32	-0.109733954
80	0xbe2cd200	-0.16876984
81	0xbc87f6cd	-0.016597176
82	0xbe3ca498	-0.18422163
83	0xbd5c183e	-0.053734057
84	0x3ccbb13c	0.024864785
85	0xbd84b94e	-0.064806566
86	0xbd25a2c5	-0.040438432
87	0xbd56b8d6	-0.052422367
88	0x3cc5107c	0.024055712
89	0xbc1b4d41	-0.009478868
90	0xbd31a464	-0.043369666
91	0x3c0d3708	0.0086190775
92	0xbd1623a8	-0.0366551
93	0xbd7f88ef	-0.06238645
94	0xbd0166d7	-0.031592216
95	0xbda07d2d	-0.078363754
96	0x3c4c8508	0.012482889
97	0xba5caff5	-0.00084185536
98	0x39c34b00	0.00037249178
99	0xbd32a60e	-0.043615393
100	0xbe44c559	-0.19215907
101	0xbc632597	-0.013863943
102	0xbdaeea19	-0.08540744
103	0xbcd00914	-0.025394954
104	0xbbeeffe0	-0.0072936863
105	0xbd6c26d4	-0.057654217
106	0xbcf4f7c0	-0.029903293
107	0xbe1aee3c	-0.15129942
108	0xbca156e8	-0.01969476
109	0xbd4ab45e	-0.049488418
110	0x3cbbbae0	0.022916257
111	0xbce7f0e4	-0.028313108
112	0xbdddc4c3	-0.10828545
113	0xbc2c6da3	-0.010524186
114	0xbdb5a8c8	-0.08870083
115	0xbcc01b34	-0.023450471
116	0x3ca301b0	0.019898266
117	0x3c24f520	0.010068208
118	0x39e6c300	0.00044014305
119	0xbdcbb991	-0.09947503
120	0xbdb74e6e	-0.08950506
121	0xbb9383c0	-0.00450179
122	0xbd44c0e5	-0.04803552
123	0x3b400360	0.0029298887
124	0xbd612840	-0.054970026
125	0xbd24a17a	-0.04019306
126	0xbd279356	-0.040911995
127	0xbce827d2	-0.0283393
128	0xbda892d7	-0.082311325
129	0xbdc921bb	-0.09820887
130	0xbba0e6f8	-0.004910346
131	0xbdec4a7b	-0.115376435
132	0xbdca7c2a	-0.09886964
133	0x3b6fa77b	0.0036568332
134	0xbca0fe73	-0.01965258
135	0xbd110cbf	-0.035412546
136	0xbab06a2b	-0.0013459375
137	0xbd5d4437	-0.054020133
138	0x3d647914	0.05577953
139	0xbdf491a0	-0.11941838
140	0xbd935a0a	-0.07194908
141	0xbd68f020	-0.056869626
142	0xbdec2d77	-0.11532109
143	0xbcd1ce74	-0.02561114
144	0xbddaf9d6	-0.10692184
145	0xbdb16d56	-0.08663432
146	0xbd345e3a	-0.044035174
147	0x3d715d66	0.058926962
148	0x3d74e3ee	0.059787683
149	0xbcc9cd6d	-0.024634087
150	0xbd6cac0a	-0.057781257
151	0xbde15713	-0.11002936
152	0xbd964fe7	-0.07339459
153	0xbb911fd0	-0.004428841
154	0xbdb83255	-0.08993975
155	0xbd1e8e00	-0.03870964
156	0x3d30820a	0.043092765
157	0x399d3029	0.00029981256
158	0x3cade554	0.021227516
159	0xbcb09955	-0.02155749
160	0xbdb0205d	-0.08599923
161	0xbd93108e	-0.07180892
162	0xbd87bdf3	-0.06628027
163	0xbd37a345	-0.04483344
164	0xbd329e8e	-0.04360824
165	0xbc1104f8	-0.008851282
166	0xbd20471d	-0.03913032
167	0xbd665c68	-0.05624047
168	0xbd081fdb	-0.033233505
169	0xbdc36774	-0.095412165
170	0xbdc2aa78	-0.095051706
171	0x3aabfad3	0.0013121016
172	0xbc43b78b	-0.0119456155
173	0x3d0f4f56	0.03498777
174	0xbc3a2e2a	-0.011363545
175	0xbd814b6f	-0.06313216
176	0xbd1d3def	-0.038389143
177	0xbd247d96	-0.04015883
178	0xbd83c49e	-0.06433986
179	0xbd8295f1	-0.06376255
180	0xba49f22d	-0.00077036285
181	0xbdf60e37	-0.1201443
182	0xbcc1e944	-0.0236708
183	0x3ccf5c64	0.02531261
184	0xbd5893d4	-0.052875355
185	0xbcc29fce	-0.023757841
186	0xbc1011ff	-0.008793353
187	0xbdc68313	-0.09692969
188	0xbd05763c	-0.03258346
189	0xbc80c786	-0.01572014
190	0xbdc85fa0	-0.09783864
191	0xbd43c510	-0.047795355
192	0xbd6a129e	-0.05714666
193	0xbd42f448	-0.047596246
194	0xbd8e88cf	-0.06959688
195	0xbccc2d40	-0.02492392
196	0xbdf2cc4f	-0.11855375
197	0x3d7e7bd4	0.06212981
198	0x3ce64f08	0.028113857
199	0xbdba5f64	-0.091002256
200	0xbd00c1ac	-0.0314347
201	0xbd270034	-0.040771678
202	0xbdf82754	-0.12116876
203	0xbd6c2c95	-0.057659704
204	0xbd59a1ee	-0.053132944
205	0xbd6b72bc	-0.057482466
206	0xbd0c7b30	-0.03429717
207	0xbe070330	-0.1318481
208	0x3d14be72	0.036314435
209	0xbd789932	-0.060692973
210	0xbd7753da	-0.0603827
211	0xbd647645	-0.055776853
212	0xbcc1fa96	-0.023679059
213	0xbd13d730	-0.03609389
214	0xbcc1afcc	-0.023643397
215	0xbd446cfa	-0.04795549
216	0xbd9d2714	-0.07673469
217	0x3d713b8a	0.05889467
218	0xbe1bc608	-0.15212262
219	0xbce091b8	-0.027413234
220	0xbc16d01d	-0.0092048915
221	0xbd94bfac	-0.07263121
222	0xbd6c2920	-0.057656407
223	0xba541676	-0.0008090505
224	0xbd835084	-0.064118415
225	0xbdd8d379	-0.1058721
226	0x3d34486c	0.04401438
227	0x3d0c1668	0.034201056
228	0xbd52951f	-0.051411744
229	0xbdec7c3b	-0.115471326
230	0x3d214808	0.039375335
231	0x3a1a60ce	0.0005889059
232	0xbda0bf26	-0.07848959
233	0xbd855eb3	-0.06512203
234	0x3c4635b8	0.0120977685
235	0xbd9f4c74	-0.07778254
236	0xbcb71015	-0.022346536
237	0xbc6bffa8	-0.014404215
238	0xbdc33262	-0.09531094
239	0xbde91acc	-0.11382064
240	0xbc98187b	-0.01856636
241	0xbd436c48	-0.047710687
242	0xbb319d60	-0.002710186
243	0xbd29cc28	-0.041454464
244	0x3bf4e460	0.0074735135
245	0xbd432d9c	-0.04765092
246	0xbd81ea22	-0.063434854
247	0xbd6285c2	-0.055303343
248	0xbd4ff408	-0.050769836
249	0xbd465dc9	-0.048429284
250	0xbccd7319	-0.025079297
251	0xbd7a5f18	-0.061125845
252	0xbd09ed06	-0.03367331
253	0xbdca863c	-0.098888844
254	0xbd97f32b	-0.074194275
255	0x3d2735e0	0.040822864

network.4.weight f4 [128, 512]
0	0x3b6d7e70	0.0036238693
1	0xbd018cd8	-0.03162846
2	0x3ca448ce	0.020054247
3	0x3d8f0f88	0.06985384
4	0x3d397e14	0.045286253
5	0x3bc25889	0.0059309644
6	0xbd2c9cb0	-0.042141616
7	0xbd226ec7	-0.039656427
8	0xbccfbfcf	-0.025360016
9	0xbd2cce3e	-0.042188875
10	0x3ca69f92	0.02033976
11	0xbcc0867e	-0.02350163
12	0xbb4d6fbc	-0.0031347116
13	0x3c9b37d6	0.018947523
14	0xbc102994	-0.0087989755
15	0xbba19b20	-0.0049318224
16	0x3c906290	0.017625123
17	0xbd16f940	-0.036858797
18	0x3a4d5480	0.0007832721
19	0x3d0f82cc	0.035036847
20	0x3d82c873	0.06385889
21	0xbc97b8d5	-0.018520752
22	0xbd337ef0	-0.04382223
23	0xbca8c3cb	-0.020601174
24	0xbbdb5708	-0.0066937245
25	0xbc899b2d	-0.016797626
26	0x3c6e1400	0.014531136
27	0xbc054900	-0.00813508
28	0x3d20748b	0.039173644
29	0xbd8dbb47	-0.06920486
30	0x3ca20c28	0.019781187
31	0xba758f80	-0.00093673915
32	0xbcf81c10	-0.030286819
33	0xbbe52bd8	-0.006993752
34	0x3c6546c2	0.013993921
35	0xbce89727	-0.028392388
36	0x3bcf4d85	0.0063263797
37	0x3c541924	0.012945447
38	0x3d5723ec	0.052524492
39	0x3b501430	0.0031750314
40	0xbc04ae08	-0.008098133
41	0xbb1bffe0	-0.0023803636
42	0x3bbdbae1	0.0057901
43	0xbba9bd70	-0.0051800534
44	0xbc2e092a	-0.010622302
45	0xbb25ec70	-0.002531793
46	0x3d21ad6a	0.03947202
47	0x3d068f1d	0.032851327
48	0x3cf1d04d	0.02951827
49	0x3d18e0af	0.03732365
50	0xbbfcf66e	-0.0077198064
51	0x3cac436e	0.021028247
52	0x3d3b507f	0.045731064
53	0xbb890de0	-0.004182562
54	0xbd10dde6	-0.03536787
55	0xbcf1c536	-0.029512983
56	0x3d81778c	0.0632163
57	0x3d16860b	0.036748927
58	0xbd36cbed	-0.044628073
59	0x3a810f40	0.0009846464
60	0x3d18076d	0.037116457
61	0xbd00b1c9	-0.03141955
62	0xbc7445c2	-0.01490921
63	0xbcc56d95	-0.024100104
64	0x3db5a32e	0.08869015
65	0xbcaa5d9e	-0.020796593
66	0x3d048bf6	0.03236004
67	0x3c15f7dc	0.009153333
68	0x3ca124fa	0.019670952
69	0x3d3545d7	0.044256058
70	0xbc05d5d0	-0.008168653
71	0x3d9a9c57	0.07549351
72	0xba859660	-0.001019191
73	0x3cbb5c92	0.02287129
74	0x3bc1ce00	0.0059144497
75	0x3cdb0002	0.026733402
76	0xbd2702d0	-0.040774167
77	0x3cf1ed26	0.029532026
78	0x3d4f8303	0.050662052
79	0x3d7bed4a	0.061505593
80	0xbcfb9995	-0.030712882
81	0xbc89d698	-0.01682596
82	0xbc953da1	-0.018217864
83	0x3ce351ea	0.02774902
84	0xbc7f7552	-0.015591936
85	0x3d1bdc62	0.03805197
86	0xbc9d8c44	-0.019231923
87	0x3d1b618f	0.037934836
88	0x3d0bde93	0.03414781
89	0x3d2deb04	0.042460456
90	0x3cad63ee	0.021165814
91	0x3c5080c0	0.012726009
92	0x3bbf2580	0.005833328
93	0xbc1aade0	-0.009440869
94	0x3d1ff5a1	0.03905261
95	0x3d33dba3	0.043910634
96	0xbcdb06a9	-0.026736574
97	0xbc63451a	-0.013871456
98	0xbaa77320	-0.0012775399
99	0x3b836f30	0.0040110573
100	0x3ca7c106	0.020477783
101	0xbcafd866	-0.021465492
102	0x3d7ee315	0.06222828
103	0x3c1dcf2c	0.009631913
104	0xbc0b7a94	-0.008513112
105	0x3d27b9dd	0.040948737
106	0xbca7cfeb	-0.020484885
107	0x3c9c878e	0.019107606
108	0xbc91c2ce	-0.017793085
109	0x3d03fe83	0.032225143
110	0x3d1cf3e3	0.038318526
111	0xbc424470	-0.011857137
112	0xbd15a546	-0.03653457
113	0x3bb09ef8	0.0053900443
114	0xbc5eb59e	-0.013593106
115	0xbccc0a8a	-0.02490737
116	0xbd286d04	-0.04111959
117	0xbd2066b1	-0.039160434
118	0x3cb19fca	0.021682639
119	0x3c9559c8	0.018231288
120	0x3cfc7717	0.030818505
121	0xbb550730	-0.0032505505
122	0x3c634454	0.013871271
123	0xbb8e8900	-0.0043498278
124	0x3d16a78b	0.036780875
125	0xbd13193f	-0.03591275
126	0xbc0074ec	-0.007840376
127	0x3cfac6f6	0.03061245
128	0xbc8df429	-0.017328339
129	0xbb9c0e20	-0.004762426
130	0xba8cb4e0	-0.0010735057
131	0x3d1cd9f5	0.038293798
132	0xbd027214	-0.031847075
133	0x3d14d48a	0.036335506
134	0xbd0b8d92	-0.03407056
135	0xbd059ff4	-0.032623246
136	0x3d2b7a4f	0.04186469
137	0xbd4ea587	-0.050450828
138	0xbc99237b	-0.018693676
139	0x3c502ce0	0.0127060115
140	0x3cd9c5da	0.0265836
141	0x3d2a8417	0.041629877
142	0xbd187917	-0.037224855
143	0x3cec810e	0.028870132
144	0xbb0a2520	-0.0021079257
145	0x3d2f002f	0.042724784
146	0xbce8d35e	-0.0284211
147	0x3c9100c0	0.017700553
148	0xbc6fee46	-0.014644211
149	0xbc66df42	-0.014091315
150	0x3d990b7d	0.07472894
151	0xbd019257	-0.0316337
152	0xbd0b90e0	-0.03407371
153	0x3d013bdf	0.03155124
154	0xbc1a1b54	-0.00940593
155	0x3be27888	0.006911341
156	0xba5c6500	-0.0008407384
157	0xbcb06606	-0.021533024
158	0x3cbbd0f2	0.022926781
159	0xbc89cf5d	-0.016822511
160	0xbb4bb8c7	-0.0031085478
161	0xbc5d1611	-0.013494031
162	0x3d215920	0.039391637
163	0xbc82deeb	-0.015975436
164	0x3c62ab9c	0.01383486
165	0xbc351580	-0.011052489
166	0x3c0e6a64	0.008692358
167	0xbc88da72	-0.016705725
168	0x3cbc6a74	0.02299998
169	0x3cdb2a5a	0.026753593
170	0xbc025edc	-0.007957187
171	0x3d2270e9	0.03965846
172	0xbc5dd506	-0.013539558
173	0x3c9d0b7a	0.019170512
174	0x3d2c4a15	0.042062838
175	0x3d0df465	0.0346569
176	0xbdc8d8df	-0.0980699
177	0xbb38e710	-0.0028213896
178	0xbc453d58	-0.012038551
179	0x3cbc32b6	0.0229734
180	0x3b1a6b22	0.0023562391
181	0x3ce2ade2	0.027670804
182	0x3c75c480	0.0150004625
183	0x3b064640	0.002048865
184	0x3be3f3f8	0.0069565736
185	0x3d07d86b	0.033165377
186	0x3c8f60e5	0.017502258
187	0x3cdad8f2	0.026714776
188	0xb8c2b600	-9.284541e-05
189	0xbc102f09	-0.008800277
190	0xbceb20fc	-0.028702252
191	0xbbcea6b0	-0.006306492
192	0xbd10a637	-0.035314765
193	0xbcb179b2	-0.021664474
194	0x3c871586	0.016489755
195	0xbd274749	-0.040839467
196	0x3bedcc60	0.0072570294
197	0xbd01e419	-0.03171167
198	0x3d26e7e1	0.04074848
199	0x3d2650c5	0.04060437
200	0xbb012210	-0.001970414
201	0x3cb9cd4a	0.022680897
202	0x3d230ba2	0.039806016
203	0x3d72862d	0.05920999
204	0x3ac1109c	0.0014729681
205	0x3d2b5c77	0.04183623
206	0xbc97a344	-0.018510468
207	0x3c3a35d8	0.011365376
208	0x3c1bdfac	0.009513777
209	0x3c292460	0.010323614
210	0x3c9c162e	0.019053545
211	0x3c562504	0.013070349
212	0x3cf697ec	0.030101739
213	0xbd4111fc	-0.04713629
214	0x3d85469c	0.06507608
215	0xbc3fbcb8	-0.011702709
216	0x3c24c174	0.010055888
217	0xbcb19930	-0.02167949
218	0x3cf22bea	0.029561955
219	0xbc34b4b0	-0.011029407
220	0x3afd1d80	0.001931116
221	0x3bc069e8	0.005872
222	0xbc17fbb0	-0.009276316
223	0x3bac1e60	0.0052526444
224	0xbc8cbd18	-0.01718001
225	0xbcc1934a	-0.023629803
226	0x3add5a00	0.0016887784
227	0x3c25934c	0.010105919
228	0x3d23b0af	0.03996342
229	0x3b05e709	0.0020431897
230	0x3cc18c8e	0.023626592
231	0xbbe42205	-0.0069620633
232	0xbbf611d0	-0.0075094476
233	0xbcca4ac1	-0.024693849
234	0xbcca5c22	-0.024702135
235	0xbd25d7e9	-0.04048911
236	0x3c7b88d0	0.015352443
237	0xbce5442c	-0.027986608
238	0x3ca1b69a	0.019740392
239	0x3c72caa7	0.014818824
240	0x3c918566	0.017763805
241	0xbc49c160	-0.012314171
242	0x3d34f047	0.04417446
243	0xbb3a6fc0	-0.0028447956
244	0x3bbc2cc0	0.0057426393
245	0x3c4cf780	0.0125101805
246	0x3d2d4d3f	0.042309996
247	0x3b719730	0.0036863796
248	0x3baedda6	0.005336481
249	0x3cc66f1f	0.024222909
250	0x3d28f73c	0.041251406
251	0xbca57cde	-0.020201143
252	0x3c5be69c	0.013421681
253	0xbcb63688	-0.0222428
254	0xbc1dbbe8	-0.00962732
255	0x3d189d8f	0.037259635

network.4.bias f4 [128]
0	0xbd7fdc4a	-0.062465943
1	0xbdb7fe29	-0.08984024
2	0xbddee9a9	-0.10884411
3	0xbc85f444	-0.016351826
4	0xbdcdbf2f	-0.10046231
5	0xbd6dac3c	-0.058025584
6	0xbdaa3c62	-0.08312298
7	0xbd94bf94	-0.07263103
8	0xbd6f77f9	-0.058464024
9	0xbcc78113	-0.02435354
10	0xbcdad704	-0.026713856
11	0xbdd72d1a	-0.10506649
12	0xbd43ebd9	-0.047832344
13	0xbda4eabb	-0.08052584
14	0xbe044157	-0.1291555
15	0xbcbb1813	-0.022838628
16	0xbd862d0f	-0.06551563
17	0xbd5fe365	-0.05466022
18	0xbd95cd80	-0.07314587
19	0xbda91c53	-0.082573555
20	0xbdbcdee4	-0.092222005
21	0xbdd1e872	-0.102494135
22	0x3dd85aab	0.105641685
23	0x3e0df2b0	0.13862109
24	0xbd03270f	-0.03201967
25	0xbd211923	-0.039330613
26	0xbdb931e6	-0.090427205
27	0xbd3d4510	-0.04620844
28	0xbce512a0	-0.027962983
29	0xbde201f2	-0.11035527
30	0xbd662ab9	-0.056193087
31	0xbc84cb39	-0.016210185
32	0xbc9e55c7	-0.019328011
33	0xbd6b2fe0	-0.057418704
34	0xbdb25b3d	-0.087088086
35	0xbd9a825a	-0.07544394
36	0xbdd70ce1	-0.10500503
37	0xbd2a144d	-0.041523267
38	0xbd84b005	-0.064788856
39	0xbe1e3165	-0.1544853
40	0xbd81b5f2	-0.063335314
41	0xbd96282b	-0.0733188
42	0xbddc4564	-0.10755423
43	0xbd8fc4e0	-0.07019973
44	0xbdb8c370	-0.09021652
45	0xbe54773d	-0.20748611
46	0xbd9fa55e	-0.07795213
47	0xbd7c3b18	-0.061579794
48	0xbd813f25	-0.06310872
49	0xbd0917fa	-0.03347013
50	0xbd80436c	-0.0626286
51	0xbce82ddb	-0.028342178
52	0xbdae71bb	-0.08517786
53	0x3da44132	0.080202475
54	0xbdbf988b	-0.09355267
55	0xbd0da117	-0.034577455
56	0xbdb3b276	-0.08774273
57	0xbd819d05	-0.06328777
58	0xbd012b4b	-0.031535428
59	0xbda53897	-0.08067434
60	0xbd805697	-0.06266516
61	0xbd3b016a	-0.045655645
62	0xbd4a5350	-0.04939586
63	0xbd228fbf	-0.03968787
64	0xbd7c19d6	-0.061548077
65	0xbd9ed343	-0.07755139
66	0xbdc2e957	-0.09517162
67	0xbd01a6c3	-0.031653177
68	0xbcdb6cb2	-0.026785228
69	0xbd6ded42	-0.058087595
70	0xbda95f45	-0.08270124
71	0xbd8db510	-0.069193006
72	0x3e95bb56	0.29244488
73	0xbd962f8c	-0.073332876
74	0xbcd7fa07	-0.02636434
75	0xbdad782b	-0.08470186
76	0xbd87605c	-0.06610176
77	0xbdd3e40c	-0.10346231
78	0xbcb84d1c	-0.022497706
79	0xbd17fb4e	-0.037104897
80	0xbdb0fe64	-0.08642271
81	0x3eca4d9d	0.3951234
82	0xbd74de73	-0.059782457
83	0xbda3a92f	-0.079912536
84	0xbd9c96fc	-0.076459855
85	0xbda298a9	-0.07939274
86	0xbd942711	-0.07234014
87	0xbd50f6e4	-0.051016703
88	0xbd6b69f7	-0.057474103
89	0xbccc3dbe	-0.024931785
90	0x3dec3698	0.115338504
91	0xbdddc019	-0.10827655
92	0xbd8ae7b6	-0.067824766
93	0xbc631e6f	-0.013862236
94	0xbdc06be0	-0.093955755
95	0xbc834d89	-0.016028183
96	0x3e82087b	0.25397095
97	0xbcdfb2ee	-0.027307
98	0xbd30e8d0	-0.043190777
99	0x3e10e915	0.14151414
100	0xbd53b3fc	-0.05168532
101	0xbcc40375	-0.02392743
102	0xbda7deb6	-0.081967756
103	0xbda85ab5	-0.08220426
104	0xbda4cacf	-0.08046495
105	0xbd3f974c	-0.046775147
106	0xbda84525	-0.08216313
107	0xbdb9c385	-0.090704955
108	0xbdc18996	-0.094500706
109	0xbda688f0	-0.081315875
110	0x3e5e6e63	0.21721797
111	0xbdb60947	-0.08888488
112	0xbd6d4044	-0.057922617
113	0xbcab49f0	-0.02090928
114	0xbceea823	-0.029132908
115	0xbd20f317	-0.03929433
116	0xbd97d74f	-0.07414114
117	0x3dd47cb0	0.10375345
118	0xbd673b62	-0.056453116
119	0x3e6f7aa3	0.23386626
120	0xbd95647f	-0.07294559
121	0xbdd87989	-0.10570056
122	0xbd754728	-0.059882313
123	0xbda1c98f	-0.078997724
124	0x3d5a7264	0.053331748
125	0xbd53cc8e	-0.05170875
126	0x3d6f6fc2	0.05845619
127	0xbe0e20ea	-0.13879743

network.6.weight f4 [12, 128]
0	0x3d3cdd92	0.046109743
1	0xbbc61162	-0.0060445527
2	0xbdc6cd7d	-0.097071625
3	0x3d92ae6c	0.071621746
4	0x3ca8e984	0.020619161
5	0x3df06af9	0.117391534
6	0x3dc165dc	0.09443256
7	0x3de003cb	0.109382235
8	0x3ddf9093	0.10916247
9	0x3e24e3b5	0.16102488
10	0xbcdb5424	-0.02677352
11	0x3da1bc72	0.07897271
12	0xbd7c118b	-0.061540168
13	0x3b946f02	0.0045298347
14	0x3e95710a	0.29187804
15	0xbd4a3cae	-0.049374275
16	0x3d795e3a	0.060880877
17	0x3db99b58	0.090628326
18	0x3d7cd774	0.06172891
19	0xbb8dbb8c	-0.004325336
20	0xbcd3112b	-0.025765022
21	0xbbc23a35	-0.005927349
22	0x3ec8650a	0.39139587
23	0x3e96d5be	0.29459947
24	0x3b448c3e	0.0029990817
25	0x3d97bc00	0.07408905
26	0x3afec1b9	0.0019436396
27	0x3de242a7	0.11047869
28	0x3d81534d	0.063147165
29	0x3da4b7f1	0.080428965
30	0x3d95bac5	0.07311014
31	0x3dc0e83a	0.09419294
32	0x3d98b285	0.07455925
33	0x3d5a6f86	0.053329013
34	0x3dcc4afc	0.0997524
35	0x3cad2d95	0.0211399
36	0x3df77284	0.12082389
37	0x3d9f3833	0.07774391
38	0x3d2bfd70	0.041989744
39	0x3ebe70e4	0.37195504
40	0x3dd0dcfe	0.10198401
41	0x3d6e2ce7	0.05814829
42	0x3d574fc4	0.052566305
43	0x3a85ab5e	0.0010198166
44	0x3c103530	0.008801743
45	0x3de3e3ec	0.11127457
46	0x3ef281f2	0.47364765
47	0x3cd8df14	0.02647356
48	0x3deecd80	0.1166029
49	0x3e1fcb3c	0.15604872
50	0x3ba433c7	0.005011055
51	0x3da0961d	0.07841132
52	0x3c91e93d	0.017811412
53	0x3e32441a	0.17408791
54	0x3ea39183	0.31946954
55	0x3e1e610b	0.15466706
56	0x3e0e26df	0.13882016
57	0x3dc1a7d1	0.094558366
58	0x3e1fb74e	0.15597269
59	0x3bf3fcaa	0.0074458914
60	0x3cd7573e	0.026286718
61	0xbcd6d490	-0.026224405
62	0xbb73a111	-0.003717486
63	0xbc9de6e7	-0.019275142
64	0x3de9197d	0.11381815
65	0x3e7da8ff	0.24771498
66	0x3d7591b7	0.059953418
67	0x3d6a1cc2	0.05715633
68	0x3ccabd4b	0.024748465
69	0x3e0f79fd	0.14011379
70	0x3dd45698	0.10368079
71	0x3ca60a4b	0.02026858
72	0x3f054afe	0.52067554
73	0x3c652de5	0.013987993
74	0x3d512ea6	0.051069878
75	0x3df79cf2	0.12090482
76	0x3e022420	0.12709093
77	0xbcd3187a	-0.025768507
78	0x3de52c9d	0.1119015
79	0x3e129024	0.14312798
80	0x3d883b3d	0.06651924
81	0x3ebddba1	0.37081626
82	0x3e18647f	0.14882086
83	0x3c9213c6	0.017831694
84	0x3d5e5b3d	0.05428623
85	0xbcdac8c2	-0.026707057
86	0x3e1c3e4a	0.15258136
87	0x3d9dca02	0.077045456
88	0xbcca8edb	-0.024726322
89	0x3dd6ab93	0.10481944
90	0x3e91cb48	0.28475404
91	0x3da47a85	0.08031181
92	0x3e0744d7	0.13209854
93	0x3dfbb363	0.12290075
94	0x3b8bede6	0.004270303
95	0x3e5d9304	0.21638113
96	0x3f027f1c	0.50975204
97	0x3d9140e7	0.07092457
98	0xbc7a9920	-0.015295297
99	0x3ed74b99	0.42049864
100	0x3d3dbbf5	0.046321828
101	0x3dc64673	0.09681406
102	0x3e0309c5	0.12796696
103	0x3de4d015	0.11172501
104	0x3c9cea1b	0.019154599
105	0x37ffa3d1	3.0474652e-05
106	0x3dfdcc10	0.123924375
107	0x3d8849a3	0.0665467
108	0x3e070bb8	0.13188064
109	0x3dc0aef9	0.094083734
110	0x3e165995	0.1468261
111	0xbcde4669	-0.027133184
112	0x3d2ce344	0.042208925
113	0x3cade213	0.021225965
114	0x3d2000d9	0.03906331
115	0xbce20790	-0.027591497
116	0xbb97d95b	-0.004634065
117	0x3e1a5fec	0.15075654
118	0x3d6f923d	0.058489073
119	0x3ea37663	0.3192626
120	0x3dcd6eb9	0.10030884
121	0x3db595a2	0.08866431
122	0x3e100dee	0.14067814
123	0x3c1bf606	0.009519106
124	0x3d8a10fd	0.067415215
125	0x3dec9f05	0.11553768
126	0x3e5e5570	0.2171228
127	0x3e30132b	0.17194812
128	0x3d34b87b	0.044121247
129	0xbd974e6b	-0.07388004
130	0x3e1e9b12	0.15488842
131	0x3c7d34a0	0.015454441
132	0x3d5e7f0a	0.054320373
133	0xbd1ea4f7	-0.03873154
134	0x3d7492b6	0.059710227
135	0x3be36790	0.006939836
136	0x3dc1558f	0.09440147
137	0xbd935222	-0.071934
138	0x3e29d845	0.16586407
139	0x3d231024	0.039810315
140	0x3cd54f93	0.02603892
141	0x3db31dbf	0.08745908
142	0xbe777967	-0.24167405
143	0x3ae0bf80	0.0017146915
144	0x3cd81760	0.026378334
145	0x3c4157d6	0.011800727
146	0xbcb9e694	-0.022692956
147	0x3e113c04	0.1418305
148	0x3d376fc4	0.044784322
149	0xbd8c4419	-0.06848926
150	0x3ee37619	0.4442604
151	0x3eae0bc0	0.3399334
152	0x3df1537a	0.117835
153	0xbd38dfe8	-0.04513541
154	0x3db6af86	0.08920197
155	0x3d06819e	0.032838456
156	0x3c4ef66c	0.012631994
157	0x3dd2d8b3	0.10295238
158	0x3d94ae7b	0.07259842
159	0x3c862d9f	0.016379176
160	0x3e3aabc2	0.18229583
161	0xbd30bbd4	-0.043147877
162	0x3d73a5e7	0.05948439
163	0x3b9147a0	0.004433587
164	0x3db1f4d7	0.086892776
165	0x3b53e310	0.0032331385
166	0x3e34de08	0.17662823
167	0x3e991634	0.29899752
168	0x3ce6a618	0.028155372
169	0xbd087477	-0.033314195
170	0xbcb46da8	-0.022024944
171	0x3dc829bd	0.09773586
172	0xbd4ab5cb	-0.049489778
173	0x3e3a892e	0.18216392
174	0x3e88e6dd	0.26738635
175	0xbcccc244	-0.024994977
176	0x3ddfb775	0.109236635
177	0x3b8c58a8	0.0042830296
178	0xbd02e8c9	-0.031960282
179	0xbca5a5d6	-0.020220678
180	0x3d0798d2	0.033104725
181	0x3d88e04c	0.06683406
182	0x3e30534e	0.17219278
183	0x3d8eb09b	0.069672786
184	0x3dcdfe6d	0.100582935
185	0x3d44dca2	0.048061974
186	0x3e0264db	0.12733786
187	0x3d235c5a	0.039882995
188	0x3cdfd2fc	0.027322285
189	0xbda55fff	-0.080749504
190	0x3cea1204	0.028573044
191	0x3d888ae7	0.066671185
192	0xbd736207	-0.059419658
193	0x3b7521e1	0.0037404227
194	0x3d5c2b22	0.053752072
195	0x3dc68fcb	0.09695395
196	0x3cc4a36c	0.024003707
197	0x3dd471e8	0.103732884
198	0x3d7c20ea	0.061554827
199	0x3df75720	0.12077165
200	0x3eebeefd	0.4608077
201	0x3d3af029	0.04563919
202	0xbda337a8	-0.079696
203	0x3cec71b4	0.028862812
204	0x3de72577	0.11286443
205	0x3d580a32	0.052744098
206	0x3e8e0068	0.27734685
207	0x3d4882e6	0.04895296
208	0xbd8af328	-0.067846596
209	0x3ead8339	0.33889177
210	0x3d759716	0.05995854
211	0x3d1e0d62	0.03858698
212	0x3d74aabe	0.059733145
213	0xbd115787	-0.035483863
214	0x3d88e36d	0.06684003
215	0x3d1754b9	0.036946032
216	0x3d2ec3f2	0.042667337
217	0xbd8c7aa4	-0.06859329
218	0x3ea04ccb	0.31308588
219	0x3cf91a94	0.030408181
220	0x3cbee524	0.023302622
221	0x3c135849	0.008993217
222	0x3d814541	0.06312037
223	0xbd009e33	-0.03140087
224	0x3f0ec04e	0.55762184
225	0xbd53f064	-0.051742926
226	0x3bfede71	0.007777982
227	0x3f03d669	0.5149904
228	0x3db373bf	0.08762311
229	0x3a63a329	0.00086836756
230	0xbd7e3778	-0.062064618
231	0x3da68070	0.08129966
232	0x3ceffc00	0.029294968
233	0xbd984d2d	-0.07436595
234	0x3cfffd34	0.031248666
235	0x3e8e2c60	0.2776823
236	0xbdad8d7f	-0.08474254
237	0xbdb4b9d0	-0.088245034
238	0x3e55263a	0.20815364
239	0xbd80025c	-0.0625045
240	0x3d8e51cd	0.06949196
241	0xbd4cf780	-0.050040722
242	0x3daf1cad	0.08550391
243	0xbda8f504	-0.08249858
244	0x3d36a2d1	0.044588868
245	0x3e8484fe	0.25882715
246	0x3d958113	0.073000096
247	0x3e9922ae	0.2990927
248	0xbd1bd3f5	-0.038043935
249	0xbd0f2bb4	-0.034953788
250	0x3de8134c	0.113318056
251	0x3d8750a2	0.06607176
252	0x3eb15a04	0.3463899
253	0x3d2a7f99	0.041625593
254	0x3e971bff	0.29513547
255	0x3e3b7401	0.1830597

network.6.bias f4 [12]
0	0x3e261a5d	0.16220994
1	0x3dc8090f	0.09767353
2	0x3e67147f	0.22566412
3	0x3e328176	0.17432198
4	0x3d478047	0.04870632
5	0x3e178bdb	0.14799444
6	0x3e1afbda	0.15135136
7	0x3da68abb	0.081319295
8	0x3e1d3c22	0.1535497
9	0x3de1ae68	0.110195935
10	0x3d8b4d10	0.06801808
11	0x3dd364bf	0.1032195
