model/DQNAgent3_20-08-2022__20-18-54.pth/DQNAgent3_20-08-2022__20-18-54_iter_50.pth (torch, 149505 bytes, 12 tensors)

network.0.weight f4 [64, 14]
00000000: ab74 7cbe ca46 583e 001a e53b 5247 2ebe
00000010: 8c68 00be 7c20 83be 96a8 233e 171f 42be
00000020: c866 83be e042 293d 24c7 e03d 00c2 7cba
00000030: 4ebb 49be dce3 41be ce49 5bbd e7a5 53be
00000040: ca1c 89be 7a79 41bf 362b 8c3f 9c11 c7be
00000050: f737 a0be 8b60 ddbd c457 35be adb4 5cbe
00000060: 28d1 9cbd 4708 acbd 5237 f8bd 5703 aebd
00000070: fcec 0cbe c4f2 6b3d 7d43 93bc e8d8 08be
00000080: a6da bf3c 617f 1ebe a85e 29be 1bb7 b5be
00000090: 59b3 efbe 515f 98be 6e04 97bb a59a 713d
000000a0: bd12 66bd cf44 223c 6262 3a3e 16d3 263e
000000b0: 0020 5eb8 d8bc b7bc 0afa 493e 74d4 ee3d
000000c0: ce76 0b3e 38be 663d cfd1 0abe 38f2 35bd
000000d0: d0bb bd3c 9eb3 b6bd e5ab 31be 3217 19be
000000e0: ed11 ed3c 0a90 c63c 5855 3e3e 1be9 b83c
000000f0: 03fc 15be f2be bf3d c742 e7bd c0fc a6bc
00000100: 4372 8cbe 8309 923c 9af8 c03b 29c1 a6bd
00000110: de1b 2a3e 1ff3 44bd 4570 26be 7ef4 463e
00000120: 88ea 783d e178 e5be 6098 14be 4137 a03c
00000130: 0cbf 4a3d 442b 22be 1890 dbbc 4a8c 1a3e
00000140: e530 cf3d e09f cfbe 98b3 27be 7cc2 243c
00000150: c8b5 c1bd d133 b53e 156c 12bd 714b 94be
00000160: 6029 74be a7f9 adbe 0c7a 3bbe c193 4dbe
00000170: ae52 123e 96e7 adbc a259 dbbc 3396 64be
00000180: 47c2 70be bce4 dabc 504a 2ebe c12c a43d
00000190: 9f81 2f3e 3b34 a93d 1cdc 8d3e 3529 e6bb
000001a0: 7353 a2bd b531 7abe 17da 8fbd 75f5 ea3d
000001b0: 3a95 ecbd d464 52be 8aab ee3d 62f2 533d
000001c0: 816b 89be 557d 9e3e ce05 91be f09c 7fbe
000001d0: 1aae 94be 0222 c1bd 5cab dcbc 687a cdbe
000001e0: f33d 2ebd 79ef e7be 67a9 d3be 2da9 b8be
000001f0: d32f 5cbe 4e0e a2be a236 b9be 9473 023f
00000200: c8c3 9bbe 91bd 3dbe 8d4a 73bf a552 dfbe
00000210: fb33 51bd b730 9fbe 1cb5 3d3d ec02 35be
00000220: 652e 02bf e9e6 8dbe a7c6 21be 801a b43d
00000230: ef45 c83c 6d7b 093e 7eba a53e db5b 0abe
00000240: f605 8ebe af8a a8be 5f0f d73d 9289 d5bd
00000250: 8409 b33d f708 1a3e 3c46 acbe 235f 8cbe
00000260: 8f40 18be a57b f4bd 224e 073e 007b 013c
00000270: 20ae a63d 4cd8 bc3d b858 2bbe a617 0e3e
00000280: 166c ccbd 9abe 393e def3 f3bd b202 e0bd
00000290: 0267 b4bd 73ee 70be 0726 83be ff78 6dbe
000002a0: 5e96 19bf 2379 313f d924 83bc acef 08c0
000002b0: ecbd c33e d07e 5fbe 1700 87be b89d 86be
000002c0: b5c7 89be 9b69 b23c f202 f9bd 217e 2abe
000002d0: 170a c7be ab35 0bbf 548f 81be efa9 0ebe
000002e0: f8fa 913d 6c8e e7bd 222e 2b3e 60fe 58be
000002f0: ee61 1cbe e876 0cbe 2c96 ee3d a4ea fdbd
00000300: 58a4 e2bd dfc5 02be 8a4a 543e 28aa 113d
00000310: f09a 3c3d 3732 68be c939 4cbe 3484 35be
00000320: a0b8 babd 7ef4 3f3e 1e35 f0bd 44d3 84bd
00000330: 8acf 65be 84c2 d73d b21c a8bd 482c b8bc
00000340: 00f5 58bb 08ab e0bc 6015 163e b4b9 0c3e
00000350: b477 543e ca12 e3bd f872 d0bd 0003 80be
00000360: 30c7 7fbe 40b9 8f3b a082 c93c baec 6cbe
00000370: da5c 753e 9862 f1bc 5a96 7cbe d8c1 4cbe
00000380: 86d0 3ebe 229e f23d 6860 1fbd 754b 20bf
00000390: 6c93 a33f 1889 21be 0ccb 693d 7e3d 0bbe
000003a0: 7da0 1a3d 66be bebd acaa 14be a282 41bd
000003b0: eb66 82be 9967 0bbf 9d7c 14be 0b90 ef3d
000003c0: 61b9 b9bd ea29 f0be b42c f0be f07e a5be
000003d0: caf0 7ebe 6e91 81be cd0f fbbe 9dac a0bd
000003e0: 1d23 63be 53d7 d0bd 5db9 a0bd a32d bfbe
000003f0: c84e 08bd de1b 8cbd fe99 9cbd 5369 8abe
-0.2465388 0.21120754 0.006991625 -0.17019394 -0.12539881 -0.2561072 0.15982279 -0.18957172
-0.25664353 0.041323543 0.10975483 -0.00096419454 -0.19700357 -0.18934578 -0.053537183 -0.20668755
-0.26779777 -0.75575984 1.0950687 -0.38880622 -0.31292698 -0.1080943 -0.17709261 -0.21553297
-0.07657081 -0.08400016 -0.121199265 -0.08496731 -0.13762277 0.057604566 -0.017976517 -0.13363993
0.02341969 -0.15478279 -0.16540015 -0.3549126 -0.4681652 -0.2976022 -0.0046086824 0.05898537
-0.056170214 0.009904101 0.18201593 0.1629146 -5.2958727e-05 -0.022428915 0.19724289 0.11661616
0.13619539 0.05633375 -0.13556598 -0.04442045 0.023160845 -0.08920978 -0.17350729 -0.14950255
0.028939212 0.024238605 0.18587244 0.02257209 -0.14646916 0.09362592 -0.11292034 -0.020384192
-0.27430925 0.017826801 0.0058890106 -0.08142311 0.16612193 -0.04808342 -0.16253765 0.19429204
0.06077054 -0.44818786 -0.14511251 0.019557597 0.049498603 -0.15836817 -0.026802108 0.15092579
0.10116748 -0.40551662 -0.16377103 0.010056134 -0.094585 0.35391095 -0.035747606 -0.28963807
-0.23843908 -0.33979532 -0.18308276 -0.20075895 0.14289352 -0.021228593 -0.026776139 -0.22322921
-0.23511611 -0.026720397 -0.17020535 0.08016349 0.1713929 0.08261915 0.27706993 -0.007023955
-0.07926073 -0.24433024 -0.07024019 0.114725985 -0.115519 -0.20546275 0.11653812 0.051744826
-0.2683983 0.30954996 -0.2832474 -0.2496221 -0.2903908 -0.094303146 -0.02693718 -0.4013245
-0.042539548 -0.4529989 -0.4134018 -0.3606657 -0.21502618 -0.3165154 -0.36174494 0.5095761
-0.30422807 -0.18529345 -0.9503563 -0.4361774 -0.051074963 -0.31091854 0.046315297 -0.17676896
-0.5085204 -0.27715233 -0.15798436 0.08794117 0.02444741 0.1342599 0.32368845 -0.13511603
-0.27738923 -0.32918307 0.10500979 -0.1042663 0.08742049 0.15042482 -0.33647335 -0.27416334
-0.14868377 -0.11937646 0.13213399 0.007902861 0.081386805 0.09220943 -0.16733062 0.13876209
-0.09981553 0.18139115 -0.11911748 -0.10938014 -0.0880871 -0.23528461 -0.2561495 -0.23190688
-0.5999507 0.69325465 -0.016008781 -2.1396284 0.38230836 -0.21825719 -0.26367256 -0.26292205
-0.26910177 0.021778872 -0.12158765 -0.16649677 -0.38874885 -0.54378766 -0.25304663 -0.13932012
0.071279466 -0.11306462 0.16716817 -0.21190786 -0.15271732 -0.13717234 0.11649737 -0.1239827
-0.11066502 -0.12770794 0.2073156 0.035562664 0.046046197 -0.22675405 -0.19943918 -0.17726213
-0.09117246 0.1874561 -0.11728881 -0.06485608 -0.22442451 0.10535148 -0.08208598 -0.022482052
-0.0033105016 -0.027425304 0.14656591 0.13742715 0.20748788 -0.11087568 -0.101781785 -0.2500229
-0.24978328 0.004386097 0.02459842 -0.23137179 0.23961201 -0.029465958 -0.2466673 -0.1999582
-0.18634233 0.11846568 -0.0389103 -0.6261514 1.2779365 -0.15774953 0.057078406 -0.13597676
0.03775071 -0.09313659 -0.14518231 -0.04724372 -0.25469145 -0.5445495 -0.14500661 0.11697396
-0.09068561 -0.46906978 -0.46909106 -0.32323408 -0.24896541 -0.25306267 -0.49035493 -0.07845423
-0.22181363 -0.1019732 -0.07847855 -0.37339506 -0.033278257 -0.06841253 -0.07646559 -0.2703348

network.0.bias f4 [64]
00000000: e62b 10be 7650 0abe 96dc 103e 3a8c 4b3e
00000010: 1d9e 53bd 4460 2fbc c6fe b9be 13dc 9d3d
00000020: d53f a3bd 695c 0abe 71ea 81bc 56cd 8bbd
00000030: ba6b 42be 4835 39be 4ebe 4ebe 4010 603d
00000040: 16f7 ebbe c4ea 9cbe cfa0 29be 547e 9d3d
00000050: f2ce 33be deab f8bc a44a ebbe 00d7 433e
00000060: 045b 26bd da8a 5fbe fa1f 3abe 5ca3 da3d
00000070: 6b63 8c3b be8f 78bc 73be 7ebe c842 973d
00000080: a99f 2c3e f839 733d 5876 0ebe b8cb 2dbd
00000090: df51 c1be c8ff 373e 60cf 543d d8d4 a2be
000000a0: dcc4 1d3e f394 89be 770c 61be 5470 dbbd
000000b0: 7e40 c7bd f658 0abe e117 1e3e dfd3 11be
000000c0: 1336 b4bd fdc8 41be e40b 8cbd 8fb4 b3bd
000000d0: 610e d63d 552d 35be af2b e1bd 7219 debc
000000e0: 88de 983d 2bef 48be be15 8dbe df0a 0fbf
000000f0: 1b61 c8bd ab75 bc3e e972 69be 62eb 623e
-0.14079246 -0.13507256 0.14146647 0.19877711 -0.05166446 -0.010704104 -0.3632719 0.077079915
-0.07971159 -0.13511814 -0.01585886 -0.06826274 -0.18986407 -0.18086731 -0.20189783 0.054702997
-0.4608695 -0.30647862 -0.1656525 0.07690111 -0.17559412 -0.03035539 -0.45955384 0.19124985
-0.040614143 -0.21830311 -0.1817626 0.106756896 0.0042843125 -0.01517099 -0.24877338 0.073857844
0.1685778 0.059381455 -0.13912332 -0.04243061 -0.37757775 0.17968667 0.05195558 -0.31803012
0.15407127 -0.26871452 -0.21977411 -0.10714784 -0.09729098 -0.13510498 0.15438797 -0.14240979
-0.08799376 -0.18924327 -0.068382055 -0.08774673 0.10451961 -0.17693074 -0.1099466 -0.027111743
0.074643195 -0.19622485 -0.2755565 -0.5587596 -0.097841464 0.36808524 -0.22797741 0.22160104

network.2.weight f4 [128, 64]
00000000: 309c 62bd 033d e5bd 6d2f 6a3d 449c 0abd
00000010: fb11 9cbd b5e6 0ebe e007 073d fc49 01be
00000020: 540b 7dbd eba3 5ebe 70ae 213c 787e fabd
00000030: 6fd2 df3c 04cf a43d 0417 8f3d c424 63bd
00000040: 3108 03bd a2dc b13e ed2b 0dbe 7c97 a7bd
00000050: f48a e9bd 4445 903d 165e aabd 01d0 e9bc
00000060: 00f4 edbd 9cd5 853d 0c81 85bd 8c87 743d
00000070: 61f1 013d b722 8b3d 4808 b7bd a2f6 963d
00000080: 0dbd 1dbe 2c0f 803d e041 d9bb a8be 893c
00000090: 415d 113d 029e d93d f060 edbc dbf6 0fbe
000000a0: 541e 0ebd c5a6 debd 1cad b9bd 88f2 1b3d
000000b0: a8f0 adbc d076 303d dfa2 22be f08d 0ebd
000000c0: 5cc3 903b a447 b73d d5fc 08be a754 9cbd
000000d0: 5373 fb3b c5b0 17be 10b8 603c 99cc 9fbe
000000e0: 1b38 ab3e f049 c4bd de07 05bd 02ef 9bbe
000000f0: 2e3d 18be 5a49 8abe a0f5 a53d 141c c93d
00000100: 2080 b4bc c921 933c b849 5f3d b657 c7bd
00000110: 54a2 ebbc 22a9 fcbb a9e2 2bbd 50e1 4dbd
00000120: f409 2fbd ee22 e3bb 83f6 acbd 7866 943c
00000130: 4831 3fbe 72ae c83d 2a75 fb3d 000a a43c
00000140: 7a32 4abd 8b8a 93bb 152e 703d 92ab 5e3d
00000150: b3db f6bd 22fb ffbd 1579 23bd 91b9 8dbd
00000160: 56d5 a5bd 2807 703d 9fbd 3ebe 50e3 4dbe
00000170: 106d adbd 7ee5 d8bd bcff ee3d 78ae 9fbc
00000180: 2e94 00be 00ff cd3b c9be 0e3d 78fb 783d
00000190: e984 713c 3682 09be e88d c33d 465c 303d
000001a0: 3da5 c6bd 3947 07be c4b7 0dbe 6e49 f9bd
000001b0: 9c0c 5d3d 6ee2 9bbc 46ed 42be e8dd 31be
000001c0: 19f9 13bc 80df 1a3b f66b cabd 4d80 063d
000001d0: 5afc 27be 82fb 273c bae1 1abd 997c f1bc
000001e0: 7601 823c b83a c43c a32a 5a3d 4bb0 babc
000001f0: 26fe 3f3d d45a 50bd 406d d93b 90c9 45bd
00000200: 002a 1cbb 1cd8 f2bd 6a0a 0bbe 80f7 fa3b
00000210: e7ba 71bd 1446 3bbd 4295 bdbd 39f2 a53d
00000220: 08de c8bd a81a 293d 965b 9dbd 90bb 80bc
00000230: 1742 b5bd b06b 6a3d f404 76bd 8030 c3bb
00000240: f3c6 89be db41 dabc aa31 da3b a324 ec3d
00000250: b2e7 13be 0625 c4bd 0a36 06be 88d0 abbc
00000260: b267 e9bd 4c08 023d b91a 9fbc fea7 af3d
00000270: cc46 903d 47cc a8bd 12ad b6bd 66af e63d
00000280: 3112 b0bd 681c 63bd 7e2e a3bd b003 40bd
00000290: 1ad0 67bd 9464 c3bd 4efc 85bd 307d fe3a
000002a0: 97ca 41bc 2e5f 41be 11af 783d caee bd3d
000002b0: 120e 82bd 1920 a6bc 9761 623c ab1e 1cbd
000002c0: 8326 31be 2284 9ebd c34c acbd 9557 55bd
000002d0: 1499 9fbd 50c1 0b3d 39b5 bfbc 7841 a9bc
000002e0: 04b6 cebd 44ba 8bbd b4ff c6bd 3875 14be
000002f0: 06ad 0e3d 3f04 3dbb 085a ca3c 1467 28bd
00000300: a053 25bd e843 843c 51fa f03d 2494 90bd
00000310: cc4b 85bd a0b7 a83b e4e7 26bd 3016 283e
00000320: b22b b9bd a9c2 25be 167e 903d a688 b5bd
00000330: 85f3 7abd 20d2 3fbd 88b1 353d 4047 3f3c
00000340: e0d5 b8bb 2abb 6cbe 68d7 b23c a8a0 bbbc
00000350: d830 763d d0b5 9f3d 0074 38bd 541f 1a3d
00000360: 165a bb3d ce79 97bd 60c6 d1be 70da 4cbd
00000370: d2e8 c53d 8f88 8a3e 6a59 ffbd 882f 463d
00000380: e035 b7bc 34c5 8f3d f0f6 6a3d 644c c33d
00000390: 9808 1c3f 402c cdbc fa40 f63d 8ce4 5abd
000003a0: d8b4 93bd d0d8 30bd 6c9a 023d ac07 d43d
000003b0: 7e52 bb3d d066 a3bc 502a 9fbe 201d 49bc
000003c0: 006e 85bd 8ed0 e73d 08ef b5bc 26c2 cf3d
000003d0: a213 353e 1052 dfbd 72f6 c23d 0675 5dbd
000003e0: d9d3 06bc bcc2 61bd 9aa2 d63d d26a 94bd
000003f0: 00be e3bc 17f3 9cbe a093 6bbc 6009 5d3c
-0.055324733 -0.11193278 0.057174135 -0.033840433 -0.07620617 -0.13955195 0.032966495 -0.12625879
-0.06177838 -0.21742217 0.009868249 -0.12231153 0.027322022 0.080472976 0.06986812 -0.055454984
-0.031990234 0.34738642 -0.13786288 -0.0818319 -0.11403456 0.07044461 -0.08318727 -0.028541567
-0.11618805 0.065348834 -0.06518754 0.05969958 0.031724337 0.06793731 -0.089371264 0.0737126
-0.15404148 0.06252894 -0.0066301674 0.016814545 0.035489324 0.10625841 -0.028976887 -0.14059012
-0.034696892 -0.108716525 -0.09066221 0.038073093 -0.021232918 0.04308206 -0.15882443 -0.03480333
0.00441782 0.08949211 -0.13377698 -0.07633334 0.00767366 -0.14813526 0.013715759 -0.31210783
0.33441243 -0.09584415 -0.032478206 -0.30455786 -0.14867088 -0.27009088 0.0810349 0.098198086
-0.022033751 0.017960446 0.054513663 -0.097335264 -0.028763928 -0.007710592 -0.041964207 -0.050263703
-0.0427341 -0.006931654 -0.08445456 0.018115267 -0.18671143 0.09798898 0.12278207 0.0200243
-0.049364544 -0.0045025996 0.058637697 0.05436284 -0.12053623 -0.12499072 -0.039910395 -0.069201596
-0.08097331 0.058600575 -0.18627022 -0.20106244 -0.08468068 -0.10590647 0.11669871 -0.019492373
-0.12556526 0.006286502 0.034849916 0.060786694 0.014741161 -0.13428578 0.09548551 0.04305675
-0.096994855 -0.13210763 -0.13839632 -0.12172209 0.053967103 -0.019028869 -0.19035825 -0.17369807
-0.0090315575 0.0023631752 -0.09883873 0.0328372 -0.16404858 0.010252835 -0.037812926 -0.029478358
0.015869837 0.02395378 0.053263318 -0.022789141 0.046873234 -0.05086787 0.006635338 -0.048287928
-0.0023828745 -0.11857626 -0.13578191 0.007658899 -0.059016135 -0.04572113 -0.09256984 0.08102841
-0.09807974 0.041285187 -0.07683484 -0.015714437 -0.08850496 0.057231605 -0.060063317 -0.0059567094
-0.269096 -0.02664273 0.0066587524 0.115304254 -0.14443853 -0.09577374 -0.13106552 -0.020973459
-0.113967314 0.031746194 -0.019421922 0.08576964 0.070447534 -0.08242088 -0.08919729 0.11263923
-0.0859722 -0.055447012 -0.07967852 -0.046878517 -0.056594945 -0.09540668 -0.06542264 0.0019415971
-0.011828086 -0.18883964 0.06071383 0.09274061 -0.0635034 -0.020278977 0.013817213 -0.038115185
-0.17299847 -0.07740046 -0.08413079 -0.052085478 -0.07792869 0.034119904 -0.023401843 -0.0206611
-0.100933105 -0.06822637 -0.0971674 -0.1449784 0.034832977 -0.0028841642 0.024701133 -0.041113928
-0.040362954 0.016145661 0.11766494 -0.070595056 -0.06508598 0.005148843 -0.040748492 0.16414714
-0.09041537 -0.16187538 0.07055299 -0.08863954 -0.061267395 -0.04683125 0.04435876 0.011674702
-0.0056407303 -0.23118272 0.02183123 -0.022903755 0.060105175 0.0779835 -0.0450325 0.037627533
0.09148042 -0.07396279 -0.4097166 -0.050013006 0.096635476 0.2705731 -0.12468226 0.048385173
-0.022364557 0.070200354 0.057364404 0.09536055 0.60950613 -0.025045514 0.12024112 -0.053440616
-0.072122276 -0.04317552 0.03188555 0.10353026 0.091465935 -0.019946486 -0.3108697 -0.01227501
-0.065151215 0.113190755 -0.022208706 0.10144453 0.1768327 -0.10904324 0.09519662 -0.05406668
-0.008229219 -0.055117354 0.104802325 -0.07246937 -0.02780056 -0.30654213 -0.014378458 0.013491005

network.2.bias f4 [128]
00000000: a106 323f 19fe 12be 024f 36be dfa5 d93e
00000010: 7c86 073e e2e1 a8bd f8d2 56be 39dd 823e
00000020: f91f 14be f51a bb3e 8a27 e2be b3ae 993e
00000030: 52d8 00bf afda 85be 4fd0 9abd d2dd 8a3e
00000040: 3a0a 9cbe 03ad aebe a50a a2bd c7ef ce3e
00000050: 3ecf d63d 25d7 383d bcdb 123f 835e 05bf
00000060: 7efc 843e f05c 0e3f 934f 12be e3b2 b7be
00000070: 9c53 ad3d 56c6 4fbe a9fe d43b fdbf e13e
00000080: cff3 64be 7a21 8e3e 3423 92be 1d80 453e
00000090: 9f8e b9be e338 c3be 4e03 e5bd 6602 2cbe
000000a0: 8001 f53e 96d0 133f 71e7 783f 0b45 ebbe
000000b0: 5840 bebe 72c9 0abf 78b9 1c3f 0cb1 8a3e
000000c0: 155a 383d 6268 f3bd 6fe4 a1bc 0a0e 553e
000000d0: 0846 24be 3665 b8be 676d 263f f851 87be
000000e0: 92e2 503e 6493 7bbe 82f9 f43e 345c 1abe
000000f0: 817b 99be 7270 b3be 1f88 f5bb d730 67bd
00000100: dbf6 393e 54ce 7bbe 8b70 47bd fd6b 19be
00000110: b36e 883e d93c c4be 93f1 423e 9376 133f
00000120: 5fe0 0d3f e80d 22be c356 88bc b5f8 cebd
00000130: 74d0 8e3d 7fd2 08be fbd7 d93c 2ba6 e8be
00000140: daba c1be 6515 43be c953 5fbe 0361 77bd
00000150: 0209 fdbc daff 39be c928 64be 5edc 07be
00000160: 63cd c2bd d4c8 a33e e9ff 4fbe 072f 0cbf
00000170: 9572 f6bd 0477 5cbe ad1c 073f 716d 40be
00000180: c029 cabe c91f 1b3f 41b9 49bd bf21 96bc
00000190: 94b1 d13e e0bf b0bd 9bc0 e6be 7f4a d2bd
000001a0: 6332 f2be bf2c 7cbe 8ee0 04bf 2914 5abd
000001b0: 63b4 a53e 0e05 67be dc72 45bd 7250 75bd
000001c0: 85c5 41be d526 98be cc07 723f 5af3 043f
000001d0: 0a80 eabd d9e1 2d3f a49a 1dbc e147 c4bc
000001e0: e546 e63d 5267 2fbe d862 b9be 4ba2 05be
000001f0: 7ac9 36be 0170 393e 0422 dfbe b2a0 873c
0.69541365 -0.14354743 -0.17803577 0.42509362 0.13234895 -0.08246209 -0.20978916 0.25559404
-0.14465322 0.36544004 -0.4417079 0.30016097 -0.5033008 -0.26143405 -0.07559263 0.2712236
-0.30476552 -0.34116372 -0.079121865 0.4041731 0.10488747 0.045127053 0.5736654 -0.5209734
0.25973886 0.5561056 -0.14288168 -0.35878667 0.08463213 -0.20290503 0.0065000844 0.44091788
-0.2235863 0.27759916 -0.28542483 0.19287153 -0.36241624 -0.3812934 -0.11182271 -0.1679779
0.47852707 0.5774015 0.9722815 -0.45951113 -0.37158465 -0.5421363 0.612205 0.270882
0.045007784 -0.11885144 -0.019762246 0.20806137 -0.1604234 -0.36014718 0.65010685 -0.26429725
0.2039893 -0.24567944 0.4784661 -0.15074235 -0.29977039 -0.35046726 -0.0074930335 -0.05644306
0.18160574 -0.24590427 -0.048691314 -0.149826 0.26646957 -0.38327673 0.19037466 0.57602805
0.5542049 -0.15825617 -0.016642934 -0.10106031 0.06973353 -0.13361548 0.026592245 -0.45439276
-0.3783787 -0.1905113 -0.21809305 -0.060395252 -0.030888084 -0.18164006 -0.22281183 -0.13267657
-0.09511831 0.31989157 -0.20312466 -0.5475926 -0.120335735 -0.21529776 0.5277813 -0.18791749
-0.39484978 0.60595375 -0.049248938 -0.018326638 0.40955794 -0.08630347 -0.4506882 -0.10268115
-0.47304067 -0.24626444 -0.51905143 -0.053241882 0.32364187 -0.22560522 -0.04820524 -0.05989117
-0.18923004 -0.29717126 0.9454315 0.51933825 -0.11450203 0.6792274 -0.009619389 -0.023960056
0.11243991 -0.17129257 -0.36208224 -0.13050191 -0.17850295 0.18109132 -0.4358064 0.016556118

network.4.weight f4 [128, 128]
00000000: 88ed 073d f3e4 17be 138a ce3c e01e 45bd
00000010: aeab 3e3d 15e6 ab3d d2da 1fbd 3cd3 a43d
00000020: 40e6 8abb c822 c73c e8ca 6abc 4847 dcbd
00000030: d00c d2bc 0774 bfbd 66bb b9bd 63af 9dbc
00000040: df46 a6bd 0bf0 6fbd 5125 1dbc 5164 5d3c
00000050: 9cb4 08bb 4950 0fbe 889f 9d3c 41de a43d
00000060: 6879 a6bc 2488 153d b880 cbbd d8ae 17bd
00000070: 77e3 83bd 4e6f d23c cf47 f2bd fdcd 8bbc
00000080: f53f 18bc ac11 55bd 430e 81bc c56e efbd
00000090: 81d2 a23d c30f a63d 3292 52bd 4ce1 6abd
000000a0: e93e a7bd 942b 92bc 98d5 a0bd 81cd 92bd
000000b0: 6f3f 05bc ae26 eabc 6076 c9bc c584 a7bd
000000c0: 81e1 adbd 1aaf edbd eed1 7abc c6cd cd3c
000000d0: dcf6 7a3b cce7 82bc 4a0e 673c 098f d5bc
000000e0: ca9f efbc 66c6 44bd 6cac 03be 000e 963d
000000f0: f91b b0bc 9010 8d3c 6061 16bc 1c83 00bd
00000100: 026e 10be 5355 7dbd 7ab1 6dbd e6e5 373d
00000110: 5000 d03b d3ed 74bc 1847 adbd d91d 60bd
00000120: c084 7ebc 0316 bcbd 5b3e f4bc 683f da3c
00000130: 4164 be3b 3694 7a3d 1506 fabc 60ba fdbb
00000140: 4b1c 22bb f94b 01be e07d 4d3c 8c4e afbd
00000150: 4f05 a2bc c721 4fbd 16aa 0cbe e890 cabd
00000160: 20db 0fbc b13b d4bd f51f d7bd 5fb0 a33d
00000170: 9766 3fbd 2844 463c 5c45 efbd 694f d6bd
00000180: e25a a8bd 9ef9 1f3d ba38 edbd b7f0 b8bd
00000190: 5309 be3c 0ed8 d73d e6c6 273d 5844 683c
000001a0: 2d7a ec3b fb67 0bbd 7ce0 d63c e640 303d
000001b0: 806e dcbb 147c 5dbc a929 4cbb 0490 dabd
000001c0: f94f dcbc cc22 d43c c042 b1bd 82e2 4b3d
000001d0: 8739 b6bc 22fb dabd 5e0a d8bd 5e89 61bd
000001e0: b0ac 5bbd cbb6 e1bd cad2 403d 00d4 c53a
000001f0: 58cc 83bc 7e7d da3c c716 3cbd e2b0 9f3c
00000200: 5eec 2b3d d35b 14be f3a5 79bd 403a acbb
00000210: a89e 26bc e951 b23d 96e1 513d e3db a23c
00000220: dc7b ffbd b9d3 0fbd 004a 3f3a 205c 0ebe
00000230: 5052 5cbc 5150 94bd 96db cbbd 8c3f 833c
00000240: b160 8bb9 de8f e9bd 8edc e1bd ea34 20bb
00000250: 3b8a 7fbd 2fdf e7bd a0ff b4bd c88d 85bd
00000260: 5fa4 c73c dae6 94bd 7c65 f2bd 0010 fc3a
00000270: ea1b 60bd dd8a 9dbd 3fbd ca3c 844c 9dbc
00000280: 7f3d a9bd 170b 98bd cfda 36bd 9020 f3bd
00000290: e0ee e43b bdaa 5ebd d4f3 31bd c8e6 cebc
000002a0: 1df3 15bd 7214 ebbc ef68 7c3b 168b 6fbd
000002b0: 422b 13be da0b 5a3d 6036 ba3c cdce 05bd
000002c0: 84ed a03c 9247 1cbd 5b1d 3b3c e216 7ebd
000002d0: e25a d5bd 5961 ac3d df1f e1bd 1644 733d
000002e0: 7236 57bd 8d92 f73d 78dd 0cbd 3a36 7e3d
000002f0: ed2e 06bd b1ed 0abd e113 56bd 2bbe 07be
00000300: 631f c3bd d59f 45bd 5465 cdbc 4070 913c
00000310: 8a7e 7a3d 9b83 bdbd 42eb 063d 678a 85bd
00000320: fddb 823d 200b 9ebd 486c ffbd ec36 11bd
00000330: 1480 c53c 77eb 44bd cf57 383c ee38 603d
00000340: 6124 0fbe ed7f 1bbd f231 ffbd 2499 d5bd
00000350: 0b95 d6bc 5167 5bba b3de a6bb 3053 86bd
00000360: bd4d 9a3d 4dc2 4dbd a262 c8bc 6299 62bd
00000370: 63a0 9f3d 1659 333d 380d f3bd 085e 0dbc
00000380: 1265 0dbd 5071 e7bc 7b35 0b3a 6843 2f39
00000390: 546d adbd 909d 4abc 6500 aa3d 706b 98bd
000003a0: 84b2 95bd 09c3 4fbd c1bd 94bd 7abf 1bbd
000003b0: 8c91 a7bd ba50 8bbd 56ae dfbd f43e 9b3c
000003c0: 8840 98bd 8907 973d 72ab 6cbd bc81 d2bc
000003d0: 69a0 d3bd 6e7c 13bd 1ce5 8bbd 8f8b cf3c
000003e0: 92f8 69bd 606e afbc 1239 8fbd 8c37 5cbd
000003f0: dd57 6c3c 7a3f d8bc f263 dfbc 19c8 b4bc
0.03318551 -0.14833431 0.025212323 -0.048125148 0.046550445 0.08393494 -0.039027043 0.08048102
-0.0042388737 0.024308577 -0.014330603 -0.10755783 -0.025640875 -0.09348302 -0.090689465 -0.01924867
-0.08118986 -0.058578532 -0.009591416 0.013512687 -0.0020859605 -0.1399547 0.01924111 0.08050204
-0.020321563 0.036506787 -0.099366605 -0.03703198 -0.0643987 0.02568784 -0.11830103 -0.017065996
-0.009292592 -0.052018806 -0.01575387 -0.116910495 0.07950307 0.08108475 -0.051408954 -0.057343766
-0.08166296 -0.017843045 -0.0785324 -0.07168103 -0.0081327995 -0.028582897 -0.024592578 -0.08179621
-0.08490277 -0.116056636 -0.01530884 0.025122534 0.0038294112 -0.01597967 0.014102528 -0.026069181
-0.029250998 -0.04804077 -0.12858742 0.07326889 -0.021497713 0.017219812 -0.009178489 -0.031375036
-0.14104465 -0.06184895 -0.058030583 0.044896983 0.0063476935 -0.01494928 -0.08460826 -0.054715965
-0.01553458 -0.09183886 -0.02981489 0.026641563 0.005810291 0.0611765 -0.030520478 -0.007743165
-0.0024736102 -0.12626638 0.012542218 -0.085599035 -0.019777922 -0.050569322 -0.13736758 -0.0989092
-0.008780271 -0.10362948 -0.10504142 0.079926245 -0.046728697 0.012101211 -0.11683151 -0.10464365
-0.082204595 0.039056413 -0.11583085 -0.09030288 0.023197806 0.10539256 0.04096117 0.014176451
0.007216713 -0.03403471 0.02623009 0.043030642 -0.00672704 -0.013518352 -0.003115276 -0.10672
-0.026893603 0.025895499 -0.0865531 0.04977656 -0.022244228 -0.10692431 -0.105488524 -0.055062644
-0.053631485 -0.11021193 0.047076024 0.0015093088 -0.01608865 0.026671167 -0.04592016 0.019493524
0.041973464 -0.14488153 -0.060949277 -0.0052559674 -0.010169663 0.08707029 0.051240526 0.01988024
-0.12474796 -0.035114024 0.00072970986 -0.1390233 -0.013447359 -0.07241882 -0.09953992 0.016021512
-0.00026584187 -0.114043936 -0.110283956 -0.0024445602 -0.062387686 -0.11321866 -0.08837819 -0.06521183
0.02437037 -0.07270594 -0.11835763 0.0019230843 -0.05471412 -0.07692502 0.024748443 -0.019201525
-0.082636826 -0.0742399 -0.044642266 -0.11871445 0.006986484 -0.054362047 -0.043445423 -0.02525653
-0.036608804 -0.028696273 0.0038514694 -0.058482252 -0.1437197 0.05323396 0.022731006 -0.032667924
0.019644506 -0.038154192 0.011420573 -0.06203354 -0.10417725 0.08417005 -0.10992407 0.059391104
-0.052542157 0.12088499 -0.034390897 0.062063433 -0.032759596 -0.033918086 -0.05226505 -0.13256137
-0.09527471 -0.04824813 -0.025072731 0.01775372 0.061155833 -0.092536174 0.032939203 -0.06520539
0.06389616 -0.07716966 -0.12471825 -0.03545277 0.024108924 -0.04807612 0.011251404 0.054741792
-0.13978721 -0.037963796 -0.12460698 -0.104296 -0.026194116 -0.00083695824 -0.005092466 -0.065588355
0.07534359 -0.050234128 -0.024461094 -0.05532206 0.07794263 0.04378613 -0.11867756 -0.008628376
-0.034520216 -0.028252274 0.00053103984 0.00016714411 -0.08468118 -0.012366667 0.083008565 -0.07442367
-0.0730944 -0.05072311 -0.07262755 -0.038024403 -0.08182058 -0.06802507 -0.10921924 0.018950917
-0.07434183 0.07374484 -0.05778069 -0.025696628 -0.1033333 -0.036007337 -0.068308085 0.025335101
-0.05712182 -0.021414936 -0.06993307 -0.05376391 0.014425245 -0.026397455 -0.027269337 -0.02206807

network.4.bias f4 [128]
00000000: 000e 2ebc 9072 eebd 5a33 bcbd 77bf 4d3c
00000010: a42d 9fbd ddef 9b3b b8ee 58bd 1620 7fbe
00000020: 8fdf 6abd ec4e 91bd cad2 023d 0efb b93c
00000030: 5289 23be 2d53 3d3c 304b 39be b69d 0c3e
00000040: 0638 5cbd 25e9 623e dd9e 75bd f562 e3bc
00000050: 93d9 163d bd27 13bd a165 babd eae3 dfbd
00000060: a2a9 5bbb 8a99 b83b 66e8 ffbd 50a9 c43c
00000070: 8668 be3c 486c 88be 56fe 5cbd eba1 39bd
00000080: 3797 41bc 2073 71bc 3d80 c8bd 662d ecbd
00000090: 6e6a f03d 4324 c2bd 3715 85bd 72c5 8abd
000000a0: 9e5e 0cbd 14b4 ddbd 42b9 4abd cfda debd
000000b0: 023d efbd 493e 243b a2be 92bd ac2c 15be
000000c0: a420 b139 edbe e6bc 9522 8ebd d473 83bd
000000d0: 12ba dbbd fc42 153e 10bd aabc 3a19 723f
000000e0: 3cbe 163e 0338 0bbe 9500 e9bd 4602 27bd
000000f0: d7ec a1bc 1116 c73b 1486 bc3e ea6d 6a3c
00000100: fb8f a8bd ceb4 c93a 3fbe 86bc e3a6 12bc
00000110: 94df c1bd 3a61 22bd ae7f b6bd 086c ecbd
00000120: 9160 28be 3ce2 363e 531a 323e 40f0 7ebe
00000130: 0b09 e5bd 8c45 bcbd f455 9bbb 76f6 cabd
00000140: e67e 75bc fd8b 063d e8d6 6bbc 8eb1 af3a
00000150: 843d 8bbd 396d 04bd 0179 fbbc 9208 aabd
00000160: e4d2 4ebe d47c b8bc aeb8 81bd d6f8 cebb
00000170: 5c96 08be ae44 00be ba51 05bd b795 99bd
00000180: 2df6 09be babc 84bd 7789 a03c ce0e 19be
00000190: 079a 51be 4d6d ffbd f2ef 4f3d 9089 073d
000001a0: 5fb2 0fbc c72e a8be f91c fcbc ef60 05bd
000001b0: 5790 61bd 92cd f93c c305 ddbd b029 49be
000001c0: 94ae 6a3d 9fcb 663e af5a afbd db79 43bd
000001d0: c1bc 543d 8d68 903e d5f6 21bd 7332 26bd
000001e0: f4c7 76bd abc4 4e3e 0be3 e3bd 8823 83bd
000001f0: d67a 113b 33ce a2bd ecbd 4ebe 47cd 733c
-0.010623455 -0.11642945 -0.09189482 0.012557856 -0.07772377 0.0047588185 -0.052962035 -0.24914584
-0.05734211 -0.07095131 0.031939305 0.02270272 -0.15970352 0.011555475 -0.18095088 0.13732037
-0.053764366 0.2215925 -0.059965957 -0.027757147 0.03682859 -0.03592657 -0.091014154 -0.10932143
-0.0033517857 0.0056335377 -0.12495498 0.024006516 0.0232432 -0.26645112 -0.05395349 -0.045320433
-0.011815838 -0.014736921 -0.097900845 -0.115320966 0.1173905 -0.094795726 -0.06498187 -0.06775941
-0.03426992 -0.10825363 -0.049493082 -0.10881578 -0.11681558 0.002506154 -0.071652666 -0.14567822
0.0003378439 -0.028167212 -0.0694019 -0.06418577 -0.107288495 0.14576334 -0.020842105 0.9456974
0.14721006 -0.13595586 -0.11377064 -0.040773652 -0.019766254 0.0060756286 0.36821043 0.014308432
-0.08230587 0.0015388967 -0.016448138 -0.008950922 -0.09466472 -0.039643504 -0.08911072 -0.11544043
-0.16443087 0.17859739 0.17392854 -0.24896336 -0.111833654 -0.091929525 -0.004740471 -0.0991029
-0.014983868 0.032848347 -0.014394499 0.0013404356 -0.067988425 -0.032330725 -0.030697348 -0.08302416
-0.20197636 -0.02252046 -0.06334053 -0.0063162846 -0.13338608 -0.12526199 -0.032548644 -0.07499259
-0.13472815 -0.06481309 0.019596798 -0.14947054 -0.20468913 -0.12472019 0.05076594 0.033090174
-0.008770554 -0.32848188 -0.030775534 -0.032563146 -0.055069294 0.030493531 -0.107921146 -0.19644809
0.057295397 0.22538613 -0.085622184 -0.047723632 0.051937822 0.28204766 -0.039542038 -0.040575456
-0.060249284 0.2019221 -0.111272894 -0.064032614 0.002219846 -0.07949486 -0.20189637 0.014880485

network.6.weight f4 [64, 128]
00000000: 9e77 053d 92fd 8abd fa27 2c3c b6d9 97bd
00000010: 5570 0dbe ab75 85be 6f67 9d3d 13c0 3ebd
00000020: d881 12be e063 9c3c 1b18 e3bd 409e c9ba
00000030: df86 6abd 05c8 9b3b 7ace 473c 0a33 693e
00000040: 9918 42bd ee30 e0bd 05c2 a9bd 0d78 3abc
00000050: 666b 90bd 0d01 c4bc e91b 863d 4e9a dfbd
00000060: b20a e3bd 2619 08be 8c55 47bc 8b0b 6abd
00000070: 7ecf 94be 9059 89bb cdc9 833d e010 783c
00000080: a2c2 acbc 22f5 00bd a6ac 5c3d 9008 bdbd
00000090: 82fb 87bd b957 d1bd d1d7 91bd a6eb 0abd
000000a0: e84c ffbd 4066 7bbd 8fe8 aebd caf0 fcbb
000000b0: 4c59 b0bd a046 41bd 0b3a b43c 603f 7b3b
000000c0: b38e a8bd 093f 3abd da28 ccbc 7186 8f3d
000000d0: 9e6e 8fbd df09 0abe a341 81be 35cc 34be
000000e0: e805 a2bd 1fee f43d e637 c9bd 12b5 e9ba
000000f0: 1840 69bd 5ea3 32bd 6010 13be e878 02be
00000100: 3506 ac3d 7b31 cdbb 081d 9bbd e7e6 0fbe
00000110: 90dc 1abe fc45 b33b 2896 97bd 4ed9 f6bd
00000120: fcea 4bbe 8f4f abbd 06dc 27bc bba2 9c3d
00000130: 5d6c ad3d d324 05bd 7eda bfbd 571f 01bd
00000140: 4d52 8cbd 9a81 40bd 4763 a4bd 9a45 8abd
00000150: c453 a13c 4c76 7fbc 4f46 4bbd 8694 63bd
00000160: da4f 94be e889 f83c c0c4 e8bc 6a49 03be
00000170: fbe2 40bc 971f a3bc a819 19bc 1c1c debc
00000180: 81eb 39bd b173 10be 3979 903d 853b cebd
00000190: 1f5b c3bb fc77 8c3c 60ce 9a3c 2978 a83c
000001a0: 72b6 30be e02d 333c be08 06bd 4a42 5cbd
000001b0: 20f7 db3b 0b6d f6bb c015 cc3c 777b 03bd
000001c0: 855d 9cbe a069 23be ac1c ccbc 9838 a3bd
000001d0: f3f6 6dbd f745 adbd abcf 8abd 70e5 f5bc
000001e0: 9f87 b5bd bfa1 98bd 0c27 b6bc eb55 7bbd
000001f0: c4eb bc3c ce0d 143e 744f 373b a623 00be
00000200: da1d 1f3d bad1 afbd 4826 0dbe ef2d 703d
00000210: 26ec f4bd d00a a1b8 a955 893c 1416 00bd
00000220: 531c 3fbb 0397 6a38 6873 9dbd c8f0 bc3c
00000230: 2fce 21bd e7a6 eb3a 2482 96bc 14fc fabd
00000240: b0f7 cdbd 5049 87bc ba9f acbd 0a3d 0cbd
00000250: cb3e 143d d2d0 513d 6cbf e43c dcb2 7b3d
00000260: eff8 eebd 50f1 54bd 9b4a 95bd 817b 34bd
00000270: 7115 963c 9f8e 063b a0d2 693c c977 833c
00000280: 8269 723d c037 51bc f0a4 9fbb 97c5 9fbb
00000290: e587 7abd f0f5 f5bb e42f 9f3c 3183 42be
000002a0: dd73 0c3c b63c 38bc 4a66 6c3d 3a06 d7bc
000002b0: e3ef b33c b1e2 c33d 78e2 c6bc 513d f83c
000002c0: 44f5 c1bc bc55 73bd cb4c 8fbd 62f7 e4bc
000002d0: 204e 54bc 2602 93be 7b5d 69bd 2652 693d
000002e0: 1fe8 37bc b3bb 12bd abe5 ab3d 43e7 3ebe
000002f0: 5ae7 163d 43a4 323c 4082 09bd bd3e aebd
00000300: 7e42 87bd c81d c13d 1ced b0bc 56e9 613b
00000310: 7ebf 78be 38f1 85bd b9f8 85bd 08e1 b3bd
00000320: 214c e4bd e051 0bbe 17b5 35be 00d4 e7bc
00000330: 7c42 b3bc 808d 573b 5ec1 3cbd 1baa 14be
00000340: d98c ca3d bc12 563d 5a81 03be 64b4 af3c
00000350: b96e 1e3c 325e 5d3d 6058 46bd 1913 90bd
00000360: 9b01 933d 307b 003e d866 973d 35a8 bebc
00000370: 1085 6ebc 9b20 073e 9682 593d 6b77 13bd
00000380: fa83 163d b2cd 5b3d b5c7 bc3d 0477 423d
00000390: 98f4 2c3c 2294 093c acca acba 52dd aabd
000003a0: be31 663d 0046 f9ba 581c 473d 1aed 09be
000003b0: ba0d afbd fcb4 0abe e21f 473d c091 35bc
000003c0: dea3 903d 1361 a7be 86d9 7dbd cf44 c1b9
000003d0: e604 533d 50e8 17be a1a1 933d 267a bf39
000003e0: 9e33 393d 1b11 2dbe b23a c2bd 98a7 48bc
000003f0: 573b 653c 06c9 98bd ec3b f5bc 467b 9e3d
0.03258478 -0.06786646 0.010507578 -0.07414572 -0.13812383 -0.26066336 0.07685744 -0.046569895
-0.14307344 0.019090593 -0.11088582 -0.0015382245 -0.05725753 0.004754069 0.012195224 0.22773376
-0.04738674 -0.109468326 -0.082889594 -0.011381161 -0.070517346 -0.023926282 0.06548292 -0.10918103
-0.11086024 -0.13290843 -0.012166392 -0.057139914 -0.29064554 -0.004191585 0.06434975 0.015140742
-0.021088902 -0.031483777 0.053875588 -0.09230149 -0.06639768 -0.1022181 -0.07121242 -0.033916138
-0.124658406 -0.06137681 -0.08540451 -0.007719134 -0.08610782 -0.047186494 0.022000333 0.0038337335
-0.08230343 -0.04547027 -0.024921823 0.070080645 -0.070035204 -0.13480328 -0.2524539 -0.17656024
-0.07911283 0.119594805 -0.09825115 -0.0017830452 -0.05694589 -0.04361283 -0.14361715 -0.12741435
0.083996214 -0.006262002 -0.07573897 -0.14052926 -0.151232 0.0054709893 -0.07401687 -0.12053166
-0.19913858 -0.08364784 -0.010245329 0.07648226 0.08467934 -0.03250582 -0.09367846 -0.03152403
-0.06851635 -0.046998598 -0.08026748 -0.06751557 0.019693263 -0.015592169 -0.0496276 -0.055561565
-0.28967172 0.030339196 -0.02841413 -0.12820974 -0.011772866 -0.019912524 -0.009344496 -0.027113013
-0.04539061 -0.14106633 0.070543714 -0.10069946 -0.00596179 0.017147057 0.018897235 0.02056511
-0.17257097 0.01093623 -0.03272318 -0.053774156 0.006712809 -0.007520323 0.024912715 -0.032100167
-0.305401 -0.15958261 -0.024916016 -0.07969779 -0.058096837 -0.0846061 -0.06777891 -0.03001663
-0.08863758 -0.074527256 -0.022235416 -0.061361235 0.02306164 0.14458391 0.0027970942 -0.12513599
0.038846828 -0.08584924 -0.13784134 0.058637556 -0.11959104 -7.679092e-05 0.016764479 -0.031271055
-0.002916117 5.5930588e-05 -0.076880276 0.023064032 -0.039503273 0.0017978818 -0.018372603 -0.12255111
-0.10057008 -0.01651445 -0.08428903 -0.0342379 0.036192697 0.051224537 0.027923308 0.06144987
-0.11668574 -0.051987946 -0.072896205 -0.044063095 0.018320771 0.0020531786 0.014271408 0.016048329
0.05918265 -0.0127696395 -0.004871957 -0.0048758495 -0.061164755 -0.0075061247 0.019432016 -0.18995358
0.008572546 -0.011244943 0.057714738 -0.026248086 0.021964973 0.09564722 -0.02427791 0.030302675
-0.023676522 -0.059407935 -0.06997069 -0.027949993 -0.01295808 -0.28712577 -0.056973916 0.05696311
-0.011224776 -0.035823535 0.08393415 -0.18642907 0.036841728 0.010903421 -0.03357148 -0.0850806
-0.06604479 0.094295084 -0.021597438 0.0034471354 -0.24291798 -0.065401495 -0.06541581 -0.08783156
-0.11147333 -0.13605452 -0.17744862 -0.028299332 -0.021882288 0.0032890737 -0.046082847 -0.14518015
0.09890146 0.05226396 -0.12842312 0.021448322 0.009669953 0.05404491 -0.048424125 -0.070348926
0.071780406 0.12546992 0.07392663 -0.023273567 -0.014558092 0.13196032 0.053103052 -0.036002558
0.036746956 0.053662963 0.092177786 0.047476783 0.010556363 0.008397134 -0.001318296 -0.08342995
0.05619978 -0.0019018054 0.048611015 -0.13469353 -0.0854754 -0.13545603 0.04861439 -0.011082113
0.07062505 -0.3269125 -0.061975025 -0.00036863095 0.051518343 -0.14834714 0.07208563 0.00036521367
0.04521524 -0.16901056 -0.094838515 -0.012246989 0.0139911985 -0.07460217 -0.0299358 0.07738356

network.6.bias f4 [64]
00000000: 3ba6 36bd 3b75 d1bd cfa1 d93c 844f 0a3f
00000010: ba64 73ba 4d8e 87bc a5ae 203c b8f5 d0bd
00000020: 8ca1 c3bc d4b5 b8bd 6c25 ec3e 361c 6dbd
00000030: 3e44 f4bd cfe1 49be ac63 72be a5aa afbd
00000040: 2ca9 2fbe 9643 96be 66d3 99be 47f4 dbbd
00000050: 4a77 4fbd d3a9 4dbc c729 dfbd c547 56bd
00000060: f161 0bbe 089a 04be 34f9 0abe f83b 08bd
00000070: 6b52 89be b5d0 e73d 8ecc 9bbd 84d9 e23d
00000080: bad1 443d 85ba 12bd e7a5 c9bb c74a 653e
00000090: 2c0a b93d 4c4f e3bc b8fd 0bbe 0ebe 98bd
000000a0: 37a6 7dbd 24f9 e2bc bec3 7dbd 9475 84bd
000000b0: a2cb 75be 2a11 0bbd 764d 64bd 83b3 dcbd
000000c0: 6465 663b 4d88 babe e260 f0bd b0c0 42bd
000000d0: 4cda 143f 3e0e b5bd e302 c63b e440 62bd
000000e0: f688 0dbd ea4a 00be 8bb9 cf3d ba67 9dbd
000000f0: 7e6f 06be 92e9 3c3c 792e f3bc a6d8 bbbd
-0.044592123 -0.10227438 0.026566414 0.5402758 -0.0009284724 -0.016547346 0.0098072635 -0.10203117
-0.023880742 -0.09019056 0.461223 -0.057888232 -0.11927079 -0.19715045 -0.23670834 -0.0857747
-0.17154378 -0.2934844 -0.30044097 -0.107399516 -0.050650872 -0.012552696 -0.1089664 -0.05231454
-0.1361158 -0.12949383 -0.13571626 -0.033260316 -0.26820692 0.113191046 -0.07607375 0.11076644
0.048051573 -0.03582241 -0.0061538103 0.22391807 0.09035143 -0.027747773 -0.13671005 -0.07458125
-0.061926093 -0.02770669 -0.061954252 -0.06467739 -0.24003461 -0.033951916 -0.055737935 -0.10776427
0.0035155648 -0.36432114 -0.11737229 -0.047547042 0.58145595 -0.08840607 0.0060428246 -0.055237666
-0.034554444 -0.12528577 0.101428114 -0.076858 -0.13128468 0.011530297 -0.029685246 -0.09172182

network.8.weight f4 [32, 64]
00000000: ce9b c2bd 0015 bdbd ac6c 203d e206 33bd
00000010: 007c 16bc a0cf fcbb 5bf0 223d 36a5 db3d
00000020: 7420 5ebd d437 69bd 6841 c1bc b4ae f6bd
00000030: 4643 e93d 6858 3cbd 84f1 4d3d bab5 a1bd
00000040: 68c3 3dbd 6c1f babd fa65 a33d 2419 3c3d
00000050: 8ae4 9d3d 98f4 d2bd 5ce0 483d ccd8 fe3d
00000060: 3a62 ebbd 8898 ab3c c041 20bd 7c3a 92bd
00000070: fff6 da3d 809f 01bc 3857 b13d 5598 3cbe
00000080: e51e 0cbe e066 75bd ff44 12be 90e5 69bc
00000090: 78cf a73c a534 1bbc f887 923c 010d 573e
000000a0: 1c2b 983d 148a e5bd f0bc a2bd a085 b03d
000000b0: b203 913d 288a adbc bc2a 0c3d b801 edbd
000000c0: ee44 a83d 007d 5e3a 90e2 b73c 341a 6c3d
000000d0: 5320 aebd 48d7 6d3d 8879 2ebd c642 54bd
000000e0: f435 283d 709f 133c 6264 9bbd 64e7 b73d
000000f0: f224 f0bd 084f a1bc 0805 15be 0ef7 eabd
00000100: ce7b 1a3d e620 babd 94b7 33bd c0e1 68bb
00000110: 4406 7f3d 684c 7ebd 18b8 f4bc 18be f13c
00000120: 83ac 5dbd 4ec8 c8bc dbac e8bd 7a8c dd3d
00000130: ac89 783d 028e e83d 4a14 e3bd 5cd1 b139
00000140: 5229 ec3c 5e36 a43d 4054 143d 1619 f9bc
00000150: 0b92 cbbd d2fe 01be 2bc4 33be 446b 523d
00000160: 009b 6abd 9494 7ebd a0d4 00be f01a af3c
00000170: 90e7 313c 6064 68bd 873d 78bd 1c77 01be
00000180: 3afe e3bd 996b 3abe ba45 d7bd 72d4 083e
00000190: 8f3c 623d f238 f0bd 18ac d83c 30f5 e5bd
000001a0: bf39 31bd 58c6 1f3d 005c 4a3c c458 353d
000001b0: 407e 4c3b 8f0f 1bbe 65d1 25be 0092 4abb
000001c0: d595 243b 6cb3 d9bd 3759 39bd 7621 b7bd
000001d0: dc0a 35be 391f 2dbc 5944 86bd fde5 33ba
000001e0: 27a3 7a3d eeda e03d 6094 253b 6cc2 d3bd
000001f0: 0ccd 06bd aefd 12bd 5836 ccbd a64d af3d
00000200: 6043 81bc a9e8 173c e402 443d 5b37 adbe
00000210: b0d2 1abd 5050 223d a8c9 2bbd c951 283c
00000220: 1dbf 0ebd 36d3 d93d 0698 4cbd 238b b63c
00000230: d35a f23d 8f28 243c 7af6 7d3d 162d 783d
00000240: 2b8d 773d a6e5 94bc a4e8 28be 761a 183e
00000250: 8ad0 b6ba 6992 2e3e 2e8d a0bd 107d 1e3e
00000260: e0a1 8b3d 998f bd3d 8a97 843d 00c7 11ba
00000270: be41 803d 9147 513e 7379 673e 5357 9cbc
00000280: b381 ebbd 824b 31bc 81f9 843d 3288 223c
00000290: d57c c53b 5c06 ba3c b624 283e ebfe a43b
000002a0: a6e0 f6bd 82c3 7abc 9806 093d 39eb 0abd
000002b0: 3ce7 463d 6c69 a2bd 4769 21bc 6a6c 0c3e
000002c0: 3081 26bd c7bc debd 4add 2c3d 83fd 8e3d
000002d0: 1577 6f3d a6eb 8cbd ee6c 61bd c2f7 b5bd
000002e0: 16f0 80bc 03cd 573e 65de 193e 1720 e83d
000002f0: bfe1 e53d 652c c23d bfc4 73bd c563 ae3d
00000300: cfd9 58bd 62f8 20bd d544 343c 13d6 93be
00000310: 9755 a4bd 675a 5ebd 5890 96bd 7d50 c6bd
00000320: a5b9 64bd 12e1 e13d b6d8 6abe c239 883d
00000330: aa64 bbbd f962 92bd e2f9 0e3e b7d3 2d3e
00000340: bf5b ab3c a8e6 393e f577 16be e73d 253e
00000350: 985e 51bc 24ef b43c b949 f73d db2a bb3c
00000360: 108d dd3d d8fe 46bd 497d 453d f029 2d3d
00000370: 80cf 9fbb a549 6f3c 7f92 8a3c 8318 43bd
00000380: 0083 57bd 4a14 363d 4761 953d 8d3c 77be
00000390: f4ad 87bd 9e54 8a3d ea69 af3c 3422 c0bc
000003a0: f2fa 6c3d db47 ac3d e00f 373d d57b e73d
000003b0: dc0d 32bd 839b 243e e7c7 4cbc 00fc ad3d
000003c0: 04c7 84bd 0b0f a1bd ceef 483d 377e 843c
000003d0: c08d 5abd a4c6 93bd a166 473d fd81 efbd
000003e0: 5ef5 dd3d a45e 363d 795f 993d eeb3 773c
000003f0: 3a14 4a3d 6689 013d 0472 4dbd e5c3 32be
-0.09502374 -0.09232521 0.039166138 -0.043707736 -0.009184837 -0.0077151805 0.039780002 0.10724871
-0.05423017 -0.056938007 -0.023590758 -0.12045041 0.113897845 -0.04598275 0.050279155 -0.0789599
-0.046328932 -0.090880245 0.07978435 0.045922413 0.07709606 -0.10300559 0.04904209 0.124436945
-0.114933446 0.020946756 -0.039125204 -0.07140061 0.10691642 -0.007911563 0.08659214 -0.18417485
-0.1368366 -0.059912562 -0.14284132 -0.014275923 0.020484671 -0.009473001 0.0178871 0.21001054
0.074300975 -0.11207977 -0.07946193 0.08619237 0.07080783 -0.021184042 0.034220442 -0.115725935
0.08216272 0.00084872544 0.0224469 0.057642177 -0.08502259 0.058066636 -0.04259637 -0.051821493
0.04106708 0.009010181 -0.07587506 0.08979681 -0.11725797 -0.019691005 -0.145527 -0.11472903
0.037715726 -0.09088306 -0.043876246 -0.0035534948 0.062261835 -0.062084585 -0.029872939 0.02950959
-0.054119598 -0.024509575 -0.113610946 0.108178094 0.06067817 0.11355211 -0.11087854 0.00033916056
0.028828297 0.08018182 0.03621316 -0.03040747 -0.09939965 -0.12694862 -0.17555301 0.051371828
-0.057276726 -0.062153414 -0.1258111 0.02137515 0.010858431 -0.05673635 -0.060605552 -0.12643093
-0.11132474 -0.18205108 -0.10511346 0.13362291 0.055233534 -0.117296115 0.026449248 -0.112284064
-0.04326796 0.039007515 0.012351036 0.044274107 0.003120318 -0.15142654 -0.16193159 -0.0030909777
0.002511372 -0.10629925 -0.045251098 -0.08941929 -0.17679924 -0.010566526 -0.06556005 -0.0006862579
0.06119075 0.109792575 0.002526544 -0.103398174 -0.03291039 -0.03588646 -0.09971303 0.08559732
-0.015779197 0.009271779 0.04785432 -0.33831295 -0.037798584 0.039627373 -0.04194036 0.010273405
-0.03485023 0.106359884 -0.04994967 0.022283142 0.118337296 0.010019436 0.062002636 0.060589872
0.060437363 -0.018175911 -0.16494995 0.14853844 -0.0013947648 0.17048039 -0.07839428 0.15477395
0.068179846 0.09255905 0.06474216 -0.00055609643 0.06262539 0.20437457 0.22604923 -0.019084608
-0.114993475 -0.010821225 0.064929016 0.009920167 0.006026844 0.02270811 0.16420254 0.0050352714
-0.12054567 -0.015305402 0.033453554 -0.033915732 0.048560366 -0.07930264 -0.00985176 0.13713232
-0.040650547 -0.1087585 0.042203225 0.06981947 0.058463175 -0.06880884 -0.055035524 -0.08885147
-0.015739482 0.210743 0.15026243 0.11334246 0.11224698 0.09481124 -0.059513804 0.08515123
-0.052942093 -0.039299376 0.011002739 -0.28874263 -0.080241375 -0.054285433 -0.0735175 -0.09683321
-0.055841107 0.11029257 -0.22934231 0.066516414 -0.091500595 -0.07147784 0.1396251 0.16975294
0.020917771 0.18154395 -0.14694197 0.16136895 -0.012778901 0.022086687 0.12074608 0.022847584
0.10817921 -0.04858288 0.048215184 0.042276323 -0.004877031 0.014604961 0.016915558 -0.047630798
-0.052615166 0.044452943 0.07293945 -0.24144192 -0.06624976 0.06754421 0.021412808 -0.02345381
0.057856508 0.08412143 0.044692874 0.11302916 -0.04347025 0.16074948 -0.012498832 0.08495331
-0.06483272 -0.07864197 0.04905682 0.016173465 -0.05335784 -0.07215622 0.04868186 -0.11694715
0.10837816 0.04452385 0.07488913 0.015118582 0.049335696 0.031625174 -0.050157562 -0.1745754

network.8.bias f4 [32]
00000000: b6f7 14be 4856 0cbd 685f 82bd 73fe 31bd
00000010: c501 dbba a53b 0abe 492c ee3b 11a7 51be
00000020: 2154 28bd 1ca4 79be 25cb 53be d280 efbb
00000030: 9ddd 81be 2342 7ebd b886 6ebe 6c39 51be
00000040: 5b37 1c3b 1821 673f 01c1 03be e2ae 39be
00000050: cd96 30be b87b 4f3d a496 95bc 4dae 883b
00000060: 60d1 91be 1765 d8bd c1b3 e2bd 1059 82be
00000070: d552 a3be ea4c d0be e11a b73d 5939 83be
-0.14547619 -0.03426197 -0.063658535 -0.043455552 -0.0016708901 -0.13499315 0.007268463 -0.20473887
-0.041095857 -0.24379009 -0.20682962 -0.0073090577 -0.2536439 -0.06207479 -0.23293579 -0.20432061
0.0023836705 0.9028487 -0.12866594 -0.18133119 -0.17245026 0.050655097 -0.018260308 0.004171169
-0.28480053 -0.10566156 -0.110694416 -0.25458574 -0.31899133 -0.4068368 0.089406736 -0.2562969

network.10.weight f4 [12, 32]
00000000: 480a 353f c88c a13c 55a5 ddbd d262 0ebd
00000010: eee3 b1bd f252 083d 00a9 a2bb fbd1 eb3d
00000020: a71d a33d 43ae fc3c 0889 8bbd 143e 453c
00000030: 4648 c83e e7c0 083e 4d25 37be 7e7f 39bd
00000040: 56f0 ff3d 5f5b 223e 3a78 b83e 4bd3 bb3d
00000050: b1f5 083f 120a db3d e4f8 703d 82ad a53c
00000060: 9d1d 83bd 904a 413e 8f80 113e 356e 3b3e
00000070: 2705 343e bee5 dd3d ca2a aabd 2661 d03e
00000080: 8193 f23d 9f0f f0bd f14b 87bc 1d26 3b3e
00000090: 94e3 1fbd 479a 67bd b566 f03d c26d 443e
000000a0: 3074 f63d 2311 9a3e c51c 2b3e 069e a2bd
000000b0: 90a9 cd3d 7773 0c3e 31e6 c23e 54dd db3c
000000c0: 839c 3b3b a558 f03e 4c6f 853d 0872 48bb
000000d0: 5801 893e 7ef8 da3d 69e5 e63e bd9c 753d
000000e0: 6e13 5abd 1ecd 78bc 2b02 bb3e 6b2e f13d
000000f0: c71e d23d a06b ba3e d858 52bd 20cb 22b8
00000100: 28fb e43e 1eb1 de3d da77 e23d d722 74bd
00000110: cd1a 2d3d e053 093e 975f 60bd a77a 313d
00000120: fe9d d53d f2d3 3c3d d099 bfbd 767a 023c
00000130: bc8e e23e 510b 1d3e bc73 313e 3729 5c3e
00000140: 796c da3c 14a9 f13e 9f36 d5bd af5a f8bc
00000150: 2bab f93e f33c 923d 5baf 2a3e 1e45 d1bc
00000160: 83e3 173e e5a4 55bd 4c04 91bd adc3 a83c
00000170: 5067 e03e d77a 013d 811d aa3d 2998 f03e
00000180: a789 73be 58a4 57bd 5f21 1fbe 0292 c63d
00000190: 4a73 e23d a7f4 d13d 74c1 643e 60ba 593e
000001a0: 1385 223f 9e79 903e 9483 2c3e 8d4f 553d
000001b0: f7c6 f83d d3cd 043d 63d5 3abe b590 bf3d
000001c0: 4387 b53d 9b2a e63e 8a82 d53e 7846 2f3d
000001d0: 3e3a 8ebb 247f 29bd 3be1 243d f453 4d3d
000001e0: 07e3 cb3d 1deb 75bb afb1 cb3d 7c4c 8b3d
000001f0: 8758 373e 9998 063f 2742 833c d34d f33b
00000200: 30c2 e03d cb24 583e b29d 57be 7df7 093e
00000210: f3d6 44bd 6ea1 ccbd 2a40 96bd 32ec b53d
00000220: 4902 f93e d55b 2b3e d143 55be 7633 1fbe
00000230: b1d2 d23d 6668 503e 1491 aa3d 5197 433d
00000240: 902c 3b3e c43f d93e 179e 7f3e 3519 e83d
00000250: 92ad 4a3e 88b9 3d3e cc9f 9cbd 712d 383e
00000260: f552 6a3d 4392 31bd 42ff e7bd 5e0f 803e
00000270: 96ab a03b 9840 253e 12e7 f33d bae7 da3d
00000280: 0a30 0a3f 924d 493d 8fac 33be 9cc0 23be
00000290: 836e 0bbe 5499 2d3e 3b79 923d 99f7 13be
000002a0: f1d2 ca3e 593e ccbc b1a4 73be 9499 d1bd
000002b0: 11e3 473d 1e77 bfbd 9b09 74ba 6a42 653d
000002c0: 2f88 febc c1e7 d33e 1d01 b23d 65a0 9b3d
000002d0: 3229 943e dbf9 803d df48 e03e e025 c03d
000002e0: 4280 fa3d 044f c03d 86d2 033e 85c3 3cbd
000002f0: 5661 85bd 9793 373d 2df1 88bd 0dad 043f
00000300: 24fb e23e 2ce8 473d 8a2e eb3d 70b1 a33d
00000310: 7c23 0c3e 98fb cbbc 5a6d 65bd 5115 9fbd
00000320: dc74 9a3e 9915 a53d 5159 c83c 4edb e73d
00000330: 399f da3e 8ca4 8bbd 3b64 753c 4700 c03d
00000340: 3041 67bd ba62 d73e b117 a8bd 7f6d 923d
00000350: 22e5 0d3f 9434 52bd 4120 173f 0a37 093e
00000360: b786 0a3e d7dc fd3d 8b06 793e f0fd 493d
00000370: dc1a 733e 8b15 823e 15b9 313e 1d51 0b3f
00000380: ec81 e13e 00dc 283c 9897 cabd 5a74 2abc
00000390: cad9 0cbd ceaf 3e3e 42bb 313e 9dc6 55b9
000003a0: f038 e03d 14a5 033e f079 993d 57aa 953d
000003b0: ed7b fc3c c39c aebd 89ad 013e f90a 4c3e
000003c0: a828 86bc 3e98 d93e 0b1c 4b3e 5a92 debc
000003d0: 52a7 993d 1ec8 7b3d 99cd 853c dbdc 323e
000003e0: 004a 06bb 54df aa3c cdc3 ed3a 155a 97bc
000003f0: c1bf 81bd 091b 5e3d 1613 053e 2b6e f73e
0.7071881 0.01972045 -0.1082255 -0.03476221 -0.08686052 0.033282228 -0.004963994 0.1151466
0.0796464 0.030844813 -0.06813246 0.012038726 0.3911764 0.13354836 -0.17885323 -0.0452876
0.12497012 0.15855168 0.36029226 0.0917116 0.53499895 0.1069528 0.05883111 0.020224337
-0.06402133 0.188761 0.14209197 0.1830376 0.1758009 0.108348355 -0.083089426 0.40699118
0.118445404 -0.117217295 -0.016515704 0.18276258 -0.039035395 -0.056543615 0.1173834 0.19182494
0.1203388 0.300912 0.16710193 -0.07940297 0.10042107 0.13715921 0.38066247 0.026838936
0.0028627224 0.4694263 0.06515369 -0.0030585546 0.26758838 0.106919274 0.450969 0.05996393
-0.053241186 -0.0151856225 0.36525092 0.11776432 0.102597766 0.36410236 -0.05135426 -3.8812985e-05
0.44722867 0.10873626 0.11058016 -0.05960354 0.042261887 0.13410902 -0.05477866 0.04332986
0.10430525 0.046100564 -0.09355509 0.007963767 0.44249523 0.15336348 0.17329305 0.21500097
0.026663052 0.4719931 -0.10410809 -0.030316679 0.48763403 0.071405314 0.16668455 -0.025545653
0.14832883 -0.05215921 -0.07080898 0.020601118 0.4382882 0.03161129 0.08306409 0.4699109
-0.23782979 -0.052646965 -0.15540074 0.096958175 0.11057146 0.10251742 0.22339422 0.21262503
0.63484305 0.28217787 0.16847068 0.05207782 0.121473245 0.03242285 -0.18245463 0.093537726
0.0886369 0.4495438 0.41701156 0.042791814 -0.004340439 -0.041381016 0.04025386 0.050128892
0.099554114 -0.0037524172 0.09946 0.068016976 0.17904864 0.52576596 0.016022755 0.007425049
0.10974538 0.21107785 -0.2105625 0.13473316 -0.048056554 -0.09991728 -0.07336457 0.08882941
0.48634556 0.1673425 -0.20826651 -0.15546975 0.102940924 0.20352325 0.08328453 0.04775173
0.18278718 0.42431462 0.2496265 0.11332933 0.19792774 0.18527806 -0.07647666 0.17986085
0.05720802 -0.043352377 -0.113279834 0.25011724 0.004903267 0.16137922 0.119093075 0.106887296
0.5397955 0.049146242 -0.17546295 -0.15991443 -0.13616376 0.16953021 0.07152029 -0.1444992
0.3961406 -0.024932073 -0.23793294 -0.10234371 0.04880053 -0.09348892 -0.00093092927 0.05597154
-0.031070797 0.41387752 0.086916186 0.07598952 0.2893768 0.06297656 0.43805596 0.09382224
0.122314945 0.09390071 0.12873277 -0.0460849 -0.06512706 0.044818487 -0.06686626 0.51826555
0.4433223 0.0488054 0.11483486 0.07992828 0.13685411 -0.024900243 -0.05601249 -0.07767738
0.30167282 0.0806076 0.024456652 0.11321126 0.42699602 -0.06818494 0.01497751 0.09375053
-0.056458652 0.4206751 -0.08207644 0.07149791 0.55427754 -0.051319674 0.5903359 0.13399902
0.13527952 0.123956375 0.24318902 0.04931444 0.23740715 0.2540706 0.1735576 0.54420644
0.44044435 0.010306358 -0.098921955 -0.010403717 -0.034387387 0.18621752 0.1735659 -0.00020387252
0.1094836 0.12855941 0.07493961 0.0730788 0.030820811 -0.08525994 0.12663855 0.1992606
-0.016376808 0.42498964 0.19834916 -0.027169395 0.07502617 0.061470143 0.016333388 0.17467062
-0.0020490885 0.020858444 0.0018140018 -0.018475572 -0.06335402 0.054225 0.12995562 0.4832624

network.10.bias f4 [12]
00000000: 177b fa40 6935 f940 54c2 f140 9aa9 0241
00000010: 767f fa40 e8b3 f840 78d0 0641 bc70 ff40
00000020: adf2 ff40 7641 fe40 3c30 0741 ab1d fa40
7.8275256 7.78777 7.5549717 8.166407 7.828059 7.771961 8.425896 7.9825115
7.9983735 7.945491 8.449276 7.8161216
