model/DQNAgent3_20-08-2022__19-50-28.pth/DQNAgent3_20-08-2022__19-50-28_iter_30.pth (torch, 149249 bytes, 12 tensors)

network.0.weight f4 [64, 13]
-0.54804736 -1.1698694 -1.307285 -0.5519745 -0.46697205 -0.19413152 0.064369604 -0.13158908
0.07918166 -0.4938792 -0.42217803 -0.39828494 0.08040692 -0.23938811 0.07008217 -0.029045084
-0.009219558 0.19073541 0.09233976 -0.24298336 -0.27696693 -0.4536809 0.091179706 0.006468207
-0.33934104 -0.025076395 0.18575472 -0.09105168 -0.121359676 -0.14319234 0.2749317 0.02810654
-0.19819745 -0.070281535 0.06988773 0.12406969 -0.21758544 -0.18156084 0.032885015 -0.04417598
0.06436644 0.2127685 0.011546786 -0.17874627 -0.13115942 -0.25732827 0.009198086 0.112090506
0.17151873 -0.5815646 -0.54288423 -0.2876439 -0.03296861 0.08611897 0.1550743 0.14184028
-0.16635789 -0.13967757 -0.058958814 -0.13903861 0.115106165 -0.017814249 -0.0016224086 -0.18160012
-0.075603634 -0.9017529 -1.8238637 -1.1661094 -0.7149331 -0.62522763 -0.070025794 -0.15837066
-0.28066674 -0.10531213 -0.30621755 -0.39320266 -0.32282072 -0.13181935 -0.100733 0.41058218
-0.000550148 -0.26657933 -0.108420804 0.05366566 -0.043681856 0.030185347 -0.19396137 0.020945057
-0.17773144 -0.36971992 -0.26603124 0.08783154 -0.015819756 0.26170176 -0.22601533 -0.04600074
-0.1854164 -0.34029594 -0.16022377 -0.12232068 -0.28872696 -0.4040095 -0.40684488 0.024618704
-0.032185398 0.26043963 0.057815444 -0.168165 -0.37051025 -0.16743574 -0.24782541 -0.30925864
0.038230684 -0.07485658 -0.0931794 -0.3061477 -0.01807839 0.049445327 -0.5174614 0.36131054
-0.16181743 0.3475742 0.16193716 -0.041147027 0.08531074 0.017160168 0.28128898 0.004303162
0.46144766 0.3135698 0.07179478 -0.0018079877 -0.18644637 -0.23854983 -0.022714436 -0.101207495
-0.07385534 0.081579715 -0.11176227 0.16886955 -0.20385817 -0.19526485 -0.056321934 -0.31192458
-0.05474854 0.11508849 -0.121384665 0.22362313 -0.32834408 -0.6145717 -0.12791131 -0.6142736
-0.43512318 -0.14141075 -0.33303487 -0.09761929 0.24439286 -0.15874101 0.033755068 0.1408459
-0.07754258 0.08747599 0.36289534 0.13970065 0.4509119 0.38957003 0.28044128 -0.14200053
0.3712893 -0.12004857 0.02860911 0.2035458 -0.23639265 0.12319705 -0.32352805 -0.24339171
-0.1050068 -0.2198877 0.0413514 -0.29150006 0.14279555 0.19898246 0.0883702 0.102704495
0.15731171 -0.062152207 0.02043447 -0.0090829395 -0.29387942 0.046545938 0.079574436 -0.1373653
0.08868284 -0.12282928 -0.25448027 -0.30536827 0.18711783 -0.110943906 -0.14056234 0.010520457
0.186145 -0.25296858 0.014464975 -0.2424351 0.20278026 -0.2693577 -0.0067629497 -0.17196025
-0.6947682 1.4923813 0.15242782 -0.2404926 -0.46519762 -0.24445067 -0.016756589 0.07788463
-0.30449483 -0.056867998 -0.007161957 0.17486855 -0.17752254 0.22662869 -0.65506756 0.9546311
-0.21019153 0.38109636 -0.0122032175 -0.16293047 -0.0082019605 0.052913018 -0.04312998 -0.4762747
-0.20881927 -0.5841479 0.0542365 0.1879603 -0.21862428 -0.02004823 -0.009007275 -0.093307465
-0.11605245 -0.08777818 0.054652184 -0.20987463 -0.26846376 0.22775361 -0.26953784 -0.29682952
0.29306135 0.16801165 0.042921957 0.0059489654 -0.29434803 0.078120366 -0.23792419 0.090916604
00000000: d54c 0cbf 48be 95bf 1d55 a7bf 334e 0dbf
00000010: f616 efbe 6aca 46be 36d4 833d 4abf 06be
00000020: ff29 a23d bcdd fcbe b827 d8be 01ec cbbe
00000030: 62ac a43d 2822 75be 3e87 8f3d f5ef edbc
00000040: a10d 17bc 2550 433e a11c bd3d a1d0 78be
00000050: 9cce 8dbe dd48 e8be 6dbc ba3d 41f3 d33b
00000060: 1cbe adbe 036d cdbc 7c36 3e3e 4e79 babd
00000070: 6c8b f8bd 03a1 12be d9c3 8c3e b03f e63c
00000080: 46f4 4abe c4ef 8fbd 4c21 8f3d 4018 fe3d
00000090: b8ce 5ebe 16eb 39be 70b2 063d dff1 34bd
000000a0: 8dd2 833d fcdf 593e bb2e 3d3c 4309 37be
000000b0: a84e 06be 88c0 83be 92b3 163c b58f e53d
000000c0: 9ba2 2f3e 6be1 14bf 76fa 0abf 1046 93be
000000d0: 180a 07bd 245f b03d cccb 1e3e 943e 113e
000000e0: b959 2abe a307 0fbe cc7e 71bd 2360 0ebe
000000f0: c8bc eb3d 30ef 91bc 00a7 d4ba 62f5 39be
00000100: 14d6 9abd 47d9 66bf 5e74 e9bf 1343 95bf
00000110: db05 37bf eb0e 20bf af69 8fbd eb2b 22be
00000120: 8db3 8fbe e3ad d7bd 8cc8 9cbe dc51 c9be
00000130: c248 a5be a7fb 06be 1a4d cebd d437 d23e
00000140: cf37 10ba 167d 88be ba0b debd 86d0 5b3d
00000150: bfeb 32bd 4347 f73c cf9d 46be f894 ab3c
00000160: 3bff 35be ee4b bdbe 3f35 88be 06e1 b33d
00000170: 6f98 81bc c6fd 853e 9070 67be 466b 3cbd
00000180: ccdd 3dbe 453b aebe b311 24be 4483 fabd
00000190: 05d4 93be 55da cebe f94d d0be 2aad c93c
000001a0: d6d4 03bd 5858 853e e3cf 6c3d 7233 2cbe
000001b0: 85b3 bdbe 4674 2bbe f2c5 7dbe 2657 9ebe
000001c0: c797 1c3d 684e 99bd d7d4 bebd 64bf 9cbe
000001d0: 2219 94bc 2f87 4a3d 5a78 04bf b2fd b83e
000001e0: 78b3 25be 3ff5 b13e dbd2 253e c989 28bd
000001f0: 66b7 ae3d 7b93 8c3c 1c05 903e 8a01 8d3b
00000200: de42 ec3e 398c a03e 2409 933d 00fa ecba
00000210: cceb 3ebe 6846 74be a013 babc e045 cfbd
00000220: 7841 97bd 4413 a73d 9ee3 e4bd 24ec 2c3e
00000230: 32c0 50be 82f3 47be d4b1 66bd 94b4 9fbe
00000240: 0140 60bd 84b3 eb3d 8698 f8bd 76fd 643e
00000250: b71c a8be 9254 1dbf 2ffb 02be 0941 1dbf
00000260: 77c8 debe fbcd 10be 8c83 aabe 9fec c7bd
00000270: 1f42 7a3e 018d 22be c142 0a3d e839 103e
00000280: a5ce 9ebd 9d26 b33d 6bcd b93e b00d 0f3e
00000290: eddd e63e b975 c73e 0096 8f3e 9668 11be
000002a0: a219 be3e 06dc f5bd a75d ea3c 4f6e 503e
000002b0: ea10 72be bc4e fc3d 78a5 a5be ad3b 79be
000002c0: ce0d d7bd 3e2a 61be 1660 293d 7f3f 95be
000002d0: ff38 123e 0fc2 4b3e 6ffb b43d bc56 d23d
000002e0: 5216 213e 5093 7ebd 3166 a73c 9cd0 14bc
000002f0: 5d77 96be f4a6 3e3d ecf7 a23d 7da9 0cbe
00000300: 599f b53d eb8d fbbd 3d4b 82be 3b59 9cbe
00000310: d19b 3f3e 8f36 e3bd 93ef 0fbe ff5d 2c3c
00000320: cb9c 3e3e 1985 81be 81fe 6c3c e840 78be
00000330: a1a5 4f3e 41e9 89be bc9b ddbb 5916 30be
00000340: 54dc 31bf 5a06 bf3f 0a16 1c3e b143 76be
00000350: 622e eebe 4751 7abe 1d45 89bc fa81 9f3d
00000360: bfe6 9bbe 6bee 68bd daae eabb be10 333e
00000370: 78c8 35be 5a11 683e 82b2 27bf b462 743f
00000380: 733c 57be 101f c33e 01f0 47bc 3fd7 26be
00000390: 8461 06bc 52bb 583d 10a9 30bd 47da f3be
000003a0: b8d4 55be b78a 15bf 1827 5e3d aa78 403e
000003b0: 0bdf 5fbe 303c a4bc 4093 13bc fc17 bfbd
000003c0: e8ac edbd 0cc5 b3bd f8da 5f3d 60e9 56be
000003d0: 1574 89be 3e38 693e dd00 8abe 0afa 97be
000003e0: 230c 963e 3f0b 2c3e efce 2f3d 8aef c23b
000003f0: c9b4 96be 92fd 9f3d 66a2 73be 7c32 ba3d

network.0.bias f4 [64]
-0.50242466 -0.0753822 -0.2045049 -0.28505093 0.013244361 -0.22637802 -0.10558639 -0.20521246
-0.111651346 0.5037957 -0.07378429 -0.45486265 0.2523248 -0.31952944 -0.15736966 0.11262386
0.024183773 -0.23487101 0.032877266 0.021512987 -0.5792566 -0.16705106 0.013014074 -0.34139174
-0.05324018 -0.08400525 -0.007498391 -0.13453586 0.05708863 -0.2891028 -0.1525005 -0.112983875
-0.31510866 -0.39262727 -0.31256422 0.019788275 -0.07246495 -0.20589975 0.18122372 -0.4208214
-0.13583268 -0.34036097 -0.097465634 -0.4673297 0.052007075 -0.312435 -0.3495697 0.11261121
-0.2161045 0.03846441 0.03204683 -0.10790488 -0.37593102 -0.4318029 0.115401514 -0.21223357
0.066269405 -0.25862122 0.26088342 -0.30934262 -0.20027469 -0.015896112 0.11993106 -0.4568068
00000000: e79e 00bf fc61 9abd bc69 51be 32f2 91be
00000010: e0fe 583c a4cf 67be ad3d d8bd 3723 52be
00000020: 76a9 e4bd c1f8 003f 381c 97bd c2e3 e8be
00000030: b730 813e 5d99 a3be 8325 21be 57a7 e63d
00000040: 0c1d c63c 0782 70be 50aa 063d 013c b03c
00000050: 294a 14bf 6f0f 2bbe fc38 553c e6ca aebe
00000060: 6012 5abd f20a acbd 10b5 f5bb c5c3 09be
00000070: c4d5 693d 4805 94be 1729 1cbe 1764 e7bd
00000080: ec55 a1be 7106 c9be 6b08 a0be 051b a23c
00000090: 8168 94bd 62d7 52be b692 393e e775 d7be
000000a0: b917 0bbe cb43 aebe 109c c7bd d745 efbe
000000b0: 5f05 553d 7bf7 9fbe cdfa b2be b5a0 e63d
000000c0: 804a 5dbe db8c 1d3d 8943 033d 3cfd dcbd
000000d0: 087a c0be 4515 ddbe a157 ec3d c253 59be
000000e0: 41b8 873d 006a 84be 8392 853e 2862 9ebe
000000f0: cf14 4dbe 9038 82bc 6a9e f53d 95e2 e9be

network.2.weight f4 [128, 64]
-0.1004616 -0.12721917 -0.039903536 -0.027216688 0.09608379 -0.12144238 0.046184693 0.0142418
0.03216005 0.062908545 0.07796909 -0.06997054 -0.42089328 -0.074415065 0.105639435 -0.085324995
-0.34971187 -0.080541074 -0.075932086 -0.0018311888 0.02932369 -0.056907207 0.13004076 -0.120609306
0.016262129 0.11340813 -0.015064779 0.058833767 -0.09164058 -0.07955675 -0.122079186 -0.051959574
0.0030402916 -0.07522288 -0.6912301 0.08350518 0.028389191 -0.024632141 0.071102455 0.11382087
0.019200923 0.053931933 -0.06301172 -0.07416782 -0.03708373 -0.29661757 0.07992396 -0.31983903
0.031514898 -0.10390739 -0.096245155 -0.068727985 0.03681793 -0.26309323 -0.13687943 0.07384369
0.057070464 0.061906964 -0.022861615 0.09112623 -0.20154867 0.052175567 -0.054702386 0.07332821
-0.36126077 0.12830868 0.018424198 -0.06256336 0.082353204 -0.55053824 0.13066791 -0.0580422
-0.0038868033 0.036576867 0.090794936 -0.0371015 -0.13088816 -0.17039776 0.02079711 0.060529344
-0.1598247 0.007296355 0.00091809034 0.09013419 -0.22298107 -0.006838456 -0.002837575 -0.014772901
0.12180816 -0.11262739 0.049371216 -0.12199706 -0.039975673 -0.041518155 -0.056440134 0.037177905
0.04501893 -0.042934265 -0.10786758 -0.115750656 -0.22192068 0.0051310062 0.022411346 -0.3215565
0.08904748 -0.18061785 -0.08257122 -0.014183585 0.13349274 -0.10813243 0.08326623 -0.4323183
-0.00018151799 -0.5607917 -0.083343856 0.119528815 0.060340118 -0.05733975 0.04701781 0.006191759
-0.02028955 -0.0037297818 0.04546613 -0.116607174 -0.008294066 -0.030114457 0.01455386 -0.06597592
-0.084670015 -0.16793865 0.11765461 -0.0077732503 -0.089904174 -0.08794685 -0.054047246 -0.014286414
-0.08729696 0.13395666 -0.016284972 -0.077747256 0.13426124 -0.040181726 -0.10637529 -0.032713592
-0.09472203 -0.039486106 0.016553447 0.04007246 0.0077370205 0.10786665 0.020632658 0.030641928
-0.08031072 -0.106009826 0.014747362 -0.055425163 -0.06041437 0.08877242 -0.12686166 -0.0696045
-0.078550406 0.05199383 -0.1565562 0.038917974 -0.15253653 0.10238558 0.13555245 -0.5929841
0.034128238 0.08695997 -0.04638797 -0.072983846 -0.69986 -0.10787786 -0.081117 -0.113273904
-0.12068157 0.08125817 -0.007858874 -0.1155746 0.039521504 -0.16573858 -0.10497843 -0.0013545207
-0.07990801 0.081792414 0.03706885 -0.120422594 -0.084955655 -0.10214798 0.13387348 -0.07287556
-0.12569235 0.01851197 0.113809615 0.08521901 -0.084695294 -0.112811014 -0.16880897 -0.07343939
-0.16545734 -0.11878061 -0.009843633 0.04028026 -0.13320252 -0.013573716 -0.06694439 -0.13866793
-0.24056154 0.020471774 0.11497617 0.072175235 0.07349834 -0.0072785616 -0.08264065 -0.0747893
0.03567539 -0.07574472 0.05126456 0.0047714203 0.08700675 -0.059176903 -0.03760332 0.08821662
-0.13156354 0.09699316 -0.17721558 -0.09857991 -0.09720189 0.040329397 -0.10276675 -0.069900684
-0.123833634 -0.098159395 -0.0048230956 0.030310415 -0.23010202 -0.13347049 -0.1548514 -0.019538304
0.0062256 -0.06430958 -0.037821803 0.05912587 0.04747473 -0.10476207 -0.14607315 -0.17752069
-0.080662996 -0.07749216 0.033322163 0.11496878 -0.028956179 -0.09716435 -0.10320033 0.059544444
00000000: d0be cdbd be45 02be e471 23bd 88f5 debc
00000010: 94c7 c43d c8b6 f8bd 292c 3d3d 7056 693c
00000020: 42ba 033d 32d6 803d 42ae 9f3d b74c 8fbd
00000030: 537f d7be ed66 98bd 7d59 d83d dfbe aebd
00000040: 6f0d b3be b8f2 a4bd 4882 9bbd 8004 f0ba
00000050: 3c38 f03c 8817 69bd 6829 053e 0302 f7bd
00000060: 2838 853c 8642 e83d 43d2 76bc adfb 703d
00000070: 0eae bbbd a6ee a2bd a704 fabd 90d3 54bd
00000080: a13f 473b 740e 9abd 75f4 30bf c404 ab3d
00000090: 7390 e83c 58c9 c9bc 2a9e 913d eb1a e93d
000000a0: 414b 9d3c bbe7 5c3d 4a0c 81bd 4ce5 97bd
000000b0: 1ce5 17bd 42de 97be 2caf a33d f1c1 a3be
000000c0: c415 013d 66cd d4bd 2e1c c5bd 42c1 8cbd
000000d0: 66ce 163d 28b4 86be 1f2a 0cbe 5c3b 973d
000000e0: b8c2 693d 2892 7d3d 4848 bbbc 64a0 ba3d
000000f0: c662 4ebe 0cb6 553d 9c0f 60bd 1a2d 963d
00000100: 2cf7 b8be 5a63 033e 58ee 963c 3821 80bd
00000110: cca8 a83d 13f0 0cbf cfcd 053e a8bd 6dbd
00000120: bdb9 7ebb a0d1 153d b2f2 b93d bef7 17bd
00000130: 8c07 06be c07c 2ebe b35e aa3c 9eed 773d
00000140: 16a9 23be 4316 ef3b 00ac 703a 4698 b83d
00000150: 2655 64be 2015 e0bb 9cf6 39bb 0a0a 72bc
00000160: 8e76 f93d 30a9 e6bd 7939 4a3d 98d9 f9bd
00000170: 88bd 23bd f10e 2abd c52d 67bd dc47 183d
00000180: c565 383d d7db 2fbd aee9 dcbd ae0e edbd
00000190: 2d3f 63be 0022 a83b 0098 b73c 0ea3 a4be
000001a0: 865e b63d e3f3 38be 1a1b a9bd 4462 68bc
000001b0: 52b2 083e 8974 ddbd 7c87 aa3d d358 ddbe
000001c0: dd55 3eb9 0b90 0fbf 2fb0 aabd 86cb f43d
000001d0: 3327 773d 16dd 6abd bf95 403d 3de4 ca3b
000001e0: 4536 a6bc 5b6f 74bb b13a 3a3d becf eebd
000001f0: d6e3 07bc 98b2 f6bc 5073 6e3c 621e 87bd
00000200: 7967 adbd 1cf8 2bbe e6f4 f03d c0b6 febb
00000210: ae1f b8bd 7a1d b4bd a560 5dbd 9011 6abc
00000220: c0c8 b2bd ef2b 093e 1068 85bc f439 9fbd
00000230: c77b 093e 9895 24bd 4adb d9bd b0fe 05bd
00000240: a0fd c1bd 2fbc 21bd 189b 873c 0523 243d
00000250: d586 fd3b 31e9 dc3d d205 a93c c804 fb3c
00000260: f279 a4bd ae1b d9bd eb9e 713c 7f05 63bd
00000270: 0f75 77bd 51ce b53d 06e8 01be ce8c 8ebd
00000280: 09df a0bd 7bf7 543d 4550 20be 7468 1f3d
00000290: 8932 1cbe 88af d13d 43ce 0a3e cecd 17bf
000002a0: 0dca 0b3d 1218 b23d 5001 3ebd 8e78 95bd
000002b0: 062a 33bf 11ef dcbd ab20 a6bd 26fc e7bd
000002c0: e627 f7bd af6a a63d 82c2 00bc 60b2 ecbd
000002d0: 4de1 213d 60b7 29be eefe d6bd 2c8a b1ba
000002e0: d0a6 a3bd c882 a73d 82d5 173d 1fa0 f6bd
000002f0: 3bfd adbd f632 d1bd 2116 093e c83f 95bd
00000300: 7fb5 00be 6aa6 973c 0415 e93d 4e87 ae3d
00000310: ba74 adbd 7609 e7bd 42dc 2cbe 6467 96bd
00000320: a66d 29be 4043 f3bd 3047 21bc eafc 243d
00000330: 3e66 08be 4b64 5ebc 241a 89bd f7fe 0dbe
00000340: c455 76be 6cb4 a73c a078 eb3d 9cd0 933d
00000350: 4c86 963d 0081 eebb 803f a9bd 222b 99bd
00000360: 5c20 123d 0c20 9bbd cafa 513d 9359 9c3b
00000370: 9830 b23d 7b63 72bd f005 1abd eaaa b43d
00000380: 98b8 06be 5aa4 c63d 0078 35be 44e4 c9bd
00000390: c911 c7bd 7030 253d 6077 d2bd 1728 8fbd
000003a0: 7d9c fdbd cb07 c9bd 0f0b 9ebb 8c4d f83c
000003b0: dd9f 6bbe 7dac 08be 5e91 1ebe cb0e a0bc
000003c0: 1e00 cc3b beb4 83bd 09eb 1abd f82d 723d
000003d0: dd74 423d 7f8d d6bd 3394 15be fcc7 35be
000003e0: a432 a5bd 36b4 9ebd d27c 083d c074 eb3d
000003f0: 8235 edbc 1afe c6bd b25a d3bd e0e4 733d

network.2.bias f4 [128]
1.3564267 -0.5128046 0.30456606 -0.21545199 0.017534237 -0.4092108 -0.20577022 -0.12795264
-0.17797333 0.45239556 0.014501728 0.18094797 0.6497765 -0.46065307 2.1579223 0.39868003
-0.41235912 0.19502288 -0.19432458 -0.616257 -0.46771404 0.37754908 0.23751561 2.8184576
0.44275805 0.12054988 -0.8565681 0.011028308 0.17376436 -0.33516672 2.8083584 -0.03822965
-0.48244455 0.063218564 -0.04015651 -0.013525552 0.23684509 0.3724825 -0.32449952 -0.22776511
-0.012836903 -0.4941531 -0.013821831 -0.32750943 -0.27002007 -0.36075178 -0.19594178 -0.20304933
-0.1677182 -0.2064222 -0.006494146 -0.14388974 0.1663603 -0.11851083 -0.05600912 -0.12640181
0.02333474 0.16128887 0.34930247 -0.43515643 0.20921801 -0.098394126 0.18192598 0.3847958
-0.06578747 -0.17193255 -0.148552 -0.40257254 -0.24132685 -0.27197582 0.058767915 -0.21026303
-0.3821587 -0.041646034 -0.37127495 -0.3024497 0.0672925 -0.22638725 0.13970242 0.21442066
0.13705553 -0.31184506 -0.043019705 0.07876733 2.1536798 -0.24754421 -0.18243901 -0.20619568
-0.36429986 0.16291851 -0.27234316 -0.4222273 -0.1500203 -0.00019124542 -0.36587584 -0.39578813
-0.30268425 -0.12530912 -0.19123617 0.078205176 -0.09721902 -0.31125268 -0.24671508 -0.07774934
-0.10034813 -0.10456737 -0.21559541 -0.21903193 -0.2538726 -0.1306412 -0.09451649 -0.10740028
0.33635074 -0.332595 -0.24846566 0.4317249 -0.24298744 -0.2513114 2.6902869 -0.0077096946
-0.31174478 -0.061581735 -0.021940881 -0.12923925 -0.39889976 0.8881307 -0.15473892 -0.12753974
00000000: 649f ad3f 2a47 03bf 15f0 9b3e 729f 5cbe
00000010: f6a3 8f3c 1484 d1be 6eb5 52be 0406 03be
00000020: a43e 36be 64a0 e73e a898 6d3c 6d4a 393e
00000030: c157 263f b8da ebbe 661b 0a40 ca1f cc3e
00000040: bc20 d3be 14b4 473e 06fd 46be 05c3 1dbf
00000050: 3778 efbe 1d4e c13e 4b37 733e 9c61 3440
00000060: 2fb1 e23e dbe2 f63d 0c48 5bbf 14b0 343c
00000070: 49ef 313e f99a abbe 25bc 3340 b296 1cbd
00000080: f902 f7be bc78 813d 277b 24bd 479a 5dbc
00000090: 8587 723e 07b6 be3e cd24 a6be 423b 69be
000000a0: e051 52bc a301 fdbe f674 62bc 51af a7be
000000b0: 1240 8abe 75b4 b8be f6a4 48be 2aec 4fbe
000000c0: 52be 2bbe 5760 53be d8cc d4bb d557 13be
000000d0: 5b5a 2a3e ceb5 f2bd d269 65bd 7a6f 01be
000000e0: 7f28 bf3c e928 253e c6d7 b23e d3cc debe
000000f0: 3f3d 563e dc82 c9bd ce4a 3a3e f503 c53e
00000100: 95bb 86bd 160f 30be 041e 18be fd1d cebe
00000110: 631e 77be 6a40 8bbe a0b6 703d 314f 57be
00000120: 4eaa c3be 0895 2abd c017 bebe b0da 9abe
00000130: a6d0 893d 0fd2 67be 270e 0f3e 1791 5b3e
00000140: 4958 0c3e 28aa 9fbe 6e35 30bd c450 a13d
00000150: e4d5 0940 3b7c 7dbe 4bd1 3abe f624 53be
00000160: 8385 babe 1cd4 263e 9070 8bbe 2d2e d8be
00000170: ec9e 19be 0d89 48b9 1454 bbbe bea4 cabe
00000180: 6ef9 9abe 0951 00be 6ad3 43be 092a a03d
00000190: c41a c7bd 835c 9fbe e1a2 7cbe 0c3b 9fbd
000001a0: 5283 cdbd 6b27 d6bd 0bc5 5cbe e849 60be
000001b0: 97fb 81be cfc6 05be dd91 c1bd aef4 dbbd
000001c0: 2a36 ac3e e449 aabe c86d 7ebe 0c0b dd3e
000001d0: b3d1 78be e3ab 80be a92d 2c40 9ba1 fcbb
000001e0: 039d 9fbe 213d 7cbd 5dbd b3bc 4b57 04be
000001f0: 973c ccbe 895c 633f e173 1ebe c799 02be

network.4.weight f4 [128, 128]
-0.1324964 -0.12082429 0.04427906 -0.055484693 -0.09465501 -0.045539394 0.005442499 -0.08687044
-0.027305117 0.01160715 -0.0914015 -0.011812815 -0.0388602 0.016378421 0.08714063 -0.021126231
-0.05277012 0.025030643 0.027283495 -0.065011956 -0.063257426 -0.11263531 -0.114759 -0.035246212
-0.08996692 -0.037120868 -0.07322194 -0.059010264 -0.120825306 -0.017055355 -0.061845984 -0.09748869
-0.08669276 0.01703126 0.08101947 -0.08309979 0.0058304183 -0.1390121 0.038589202 0.05010843
0.05962334 -0.07405985 -0.1140653 -0.09578114 -0.21033356 0.008478552 -0.07529765 -0.12992352
0.011999681 -0.09352512 -0.14690185 -0.051886644 0.0057309107 0.0163666 -0.02384568 0.010084294
0.07053163 -0.09342048 -0.024374172 -0.06592416 -0.0017068918 -0.068834715 -0.022331947 -0.027820632
-0.031436734 -0.15111884 -0.078325294 -0.032960825 -0.008756271 -0.13762459 -0.107568756 0.007091046
-0.036275066 0.0035685315 0.037809737 -0.07840347 -0.021853264 -0.10697377 -0.08015797 0.080061935
-0.07750269 -0.09657535 -0.04349169 -0.04496746 -0.041136082 -0.042458903 -0.0850906 -0.031474203
0.02233624 -0.09359198 -0.12031032 -0.04090658 -0.005784087 -0.1219705 0.0769786 -0.0055881655
-0.088352956 0.020355955 -0.03610829 -0.052866578 0.018032633 -0.095747024 -0.020199552 -0.09370625
-0.0018089731 0.06752647 0.018062212 -0.114379264 -0.0037599395 -0.13323586 -0.09573141 -0.0067098634
-0.024411969 -0.04055667 -0.0885192 0.017445816 -0.04134825 0.07270654 -0.01889161 -0.005773982
-0.07172325 -0.06694163 -0.12638198 0.0010750397 -0.010076573 0.026286213 -0.029964337 -0.016579453
-0.048728447 -0.10844962 -0.102021664 -0.07851515 0.061462395 -0.07762652 -0.004513085 -0.06524593
0.044576414 -0.06509423 -0.24540952 -0.03883383 -0.02576641 -0.07496302 -0.030563768 -0.21892591
0.08774061 0.033431314 0.19020033 0.122371644 0.059595667 -0.12895553 -0.07532787 0.07942059
0.003165543 -0.064751625 0.0019777268 -0.060792148 0.04387603 0.03881506 -0.07582135 0.22586343
-0.054720074 -0.014049076 0.048953034 -0.076312825 0.013726883 0.009408221 -0.08228084 -0.06487173
-0.002179563 0.03238236 -0.060113415 0.038460605 -0.21070878 -0.18247762 -0.04094151 0.013138175
-0.19048682 0.0009056628 -0.019883841 -0.02808803 -0.04316642 -0.06233015 0.117174864 -0.16180809
-0.042838614 -0.008241713 -0.040573254 -0.2427581 0.08123996 -0.031008035 -0.031147607 -0.0053298697
-0.034433987 0.0045141056 -0.08187743 -0.11790916 -0.051108394 -0.16865355 -0.23035066 0.016895734
-0.12557329 -0.19072998 -0.087158404 0.18719329 -0.08403951 0.04298938 -0.031530835 -0.029392157
-0.10596353 -0.16289084 -0.030897759 0.08056652 0.08445386 -0.0053529143 -0.07386194 -0.033336576
0.0077236816 -0.17947531 -0.07548937 -0.22323623 -0.027846042 -0.0044905767 0.074737616 -0.1846419
-0.12945154 0.037136428 0.081127666 0.053877123 -0.054081738 -0.082664415 -0.07688672 -0.044341076
-0.083514266 -0.02125068 -0.08530691 -0.0038472563 0.008217074 0.04981052 -0.05274716 -0.02382373
-0.13093467 -0.08574028 -0.07331977 -0.06706222 -0.024482943 -0.20167139 0.050461493 -0.020620532
-0.0011186004 0.07602335 -0.095444165 0.031780407 -0.07260054 0.034623466 -0.07319814 0.011954479
00000000: 23ad 07be ba72 f7bd f65d 353d eb43 63bd
00000010: 7cda c1bd 8487 3abd fe56 b23b 21e9 b1bd
00000020: fbae dfbc ea2b 3e3c b630 bbbd 8a8a 41bc
00000030: e02b 1fbd 0a2c 863c c976 b23d eb10 adbc
00000040: 7b25 58bd 100d cd3c a381 df3c fd24 85bd
00000050: 1c8d 81bd 57ad e6bd c406 ebbd 555e 10bd
00000060: 9440 b8bd 0d0c 18bd 62f5 95bd bfb4 71bd
00000070: 4273 f7bd acb7 8bbc 3752 7dbd 26a8 c7bd
00000080: f98b b1bd 2485 8b3c 89ed a53d 3930 aabd
00000090: 180d bf3b 3059 0ebe b60f 1e3d 7f3e 4d3d
000000a0: 9a37 743d b1ac 97bd 119b e9bd e728 c4bd
000000b0: ae61 57be a0e9 0a3c a835 9abd ac0a 05be
000000c0: 4f9a 443c 198a bfbd 706d 16be 1787 54bd
000000d0: 5dca bb3b 3f13 863c 0458 c3bc 9838 253c
000000e0: e372 903d 3d53 bfbd 58ac c7bc 3f03 87bd
000000f0: c9b9 dfba 37f9 8cbd 7df1 b6bc 18e8 e3bc
00000100: cec3 00bd e6be 1abe 0369 a0bd ee01 07bd
00000110: 7676 0fbc 76ed 0cbe 024d dcbd 015c e83b
00000120: 2a95 14bd 06de 693b 62de 1a3d 0092 a0bd
00000130: 9e05 b3bc 1015 dbbd dd29 a4bd 83f7 a33d
00000140: bbb9 9ebd 4cc9 c5bd 5824 32bd cd2f 38bd
00000150: 4f7e 28bd 63e9 2dbd fb43 aebd 18eb 00bd
00000160: 7efa b63c 27ad bfbd 4265 f6bd a88d 27bd
00000170: 7088 bdbb abcb f9bd f5a6 9d3d ee1c b7bb
00000180: 65f2 b4bd 88c1 a63c 49e6 13bd a08a 58bd
00000190: 2cb9 933c 0417 c4bd 8879 a5bc 10e9 bfbd
000001a0: 111b edba 514b 8a3d 34f7 933c ad3f eabd
000001b0: 5169 76bb fb6e 08be d40e c4bd 6ade dbbb
000001c0: 9cfb c7bc c01e 26bd 8e49 b5bd 87ea 8e3c
000001d0: c85c 29bd 2be7 943d 94c2 9abc ac33 bdbb
000001e0: a4e3 92bd b118 89bd 476a 01be 59e8 8c3a
000001f0: 3618 25bc 2f56 d73c c577 f5bc a2d1 87bc
00000200: 7b97 47bd d61a debd bcf0 d0bd 8dcc a0bd
00000210: febf 7b3d a7fa 9ebd 80e2 93bb a89f 85bd
00000220: c295 363d 2050 85bd a24c 7bbe 3910 1fbd
00000230: 1414 d3bc 3686 99bd de60 fabc 1d2e 60be
00000240: 59b1 b33d 46ef 083d e0c3 423e fc9d fa3d
00000250: 961a 743d eb0c 04be 8045 9abd 43a7 a23d
00000260: 0075 4f3b 809c 84bd c09c 013b 3001 79bd
00000270: 5ab7 333d 8afc 1e3d 3948 9bbd be48 673e
00000280: 2822 60bd 182e 66bc fa82 483d e649 9cbd
00000290: b8e6 603c f024 1a3c db82 a8bd 78db 84bd
000002a0: 00d7 0ebb 5ea3 043d 7c39 76bd de88 1d3d
000002b0: 0bc4 57be 6adb 3abe 49b2 27bd 8041 573c
000002c0: fa0e 43be 006a 6d3a 70e3 a2bc de18 e6bc
000002d0: 46cf 30bd e64d 7fbd 60f9 ef3d 05b1 25be
000002e0: 8b77 2fbd 4008 07bc 2430 26bd 9495 78be
000002f0: 2361 a63d 9004 febc 4429 ffbc 30a6 aebb
00000300: a70a 0dbd 10eb 933b 5baf a7bd 5c7a f1bd
00000310: 0957 51bd 84b3 2cbe 0be1 6bbe ec68 8a3c
00000320: 4996 00be b84e 43be 1b80 b2bd 99af 3f3e
00000330: e81c acbd a215 303d 7a26 01bd d2c7 f0bc
00000340: 6803 d9bd dbcc 26be 4c1d fdbc 0f00 a53d
00000350: 25f6 ac3d 8067 afbb ee44 97bd ef8b 08bd
00000360: f016 fd3b 60c8 37be 2c9a 9abd 0a98 64be
00000370: 621d e4bc b025 93bb 0910 993d c412 3dbe
00000380: f28e 04be 5e1c 183d 4326 a63d 42ae 5c3d
00000390: d084 5dbd f64b a9bd c976 9dbd fd9e 35bd
000003a0: 8709 abbd e815 aebc 64b5 aebd 4022 7cbb
000003b0: e8a0 063c 1e06 4c3d 680d 58bd fc29 c3bc
000003c0: bd13 06be 9a98 afbd ad28 96bd eb57 89bd
000003d0: 7490 c8bc f282 4ebe b6b0 4e3d 64ec a8bc
000003e0: 009e 92ba 21b2 9b3d 3b78 c3bd 2c2c 023d
000003f0: 98af 94bd 56d1 0d3d e8e8 95bd b8dc 433c

network.4.bias f4 [128]
-0.086219415 -0.17306605 -0.12341322 -0.039174687 -0.20002303 -0.045451548 -0.12547375 -0.17187704
-0.1811428 -0.0777578 -0.19887559 -0.14167579 0.14930923 -0.15541846 -0.17749557 -0.118513726
-0.11737412 -0.40558442 -0.18226886 -0.36712688 -0.10258437 -0.037233315 -0.11342972 0.025451606
0.9646913 -0.24212044 0.06958903 -0.16863172 -0.23332463 -0.11459395 -0.350875 0.08398626
-0.14501181 0.18127975 -9.776902e-05 -0.118195735 -0.06781455 0.87023467 -0.07781102 -0.16223173
-0.028026529 -0.14704092 -0.027604824 -0.006151068 0.0004773946 -0.067512244 -0.28169376 -0.11889231
-0.07212516 -0.13883376 1.2828826 -0.08675548 -0.09382554 -0.13718762 1.14449 -0.09218322
-0.5506822 -0.07414918 -0.08695477 -0.09378337 -0.10247395 -0.06487873 -0.09217619 -0.10816582
-0.14409095 -0.12176094 0.031121543 -0.32899284 0.066196606 -0.049489778 -0.11309496 0.9494313
-0.0345758 -0.050925016 -0.11540969 0.037801098 -0.12536518 -0.0179702 -0.14098588 -0.21210031
-0.09766619 -0.11308555 -0.32507133 -0.38152042 0.19259375 -0.11613835 -0.14240427 -0.11274781
0.102731735 0.0072634663 -0.14402476 0.447516 -0.1897886 -0.11974631 0.04481831 -0.24114239
-0.45560488 -0.055654813 0.023508072 -0.043539364 -0.5211779 1.9728035 -0.30029166 -0.01593039
0.19665821 -0.13694 -0.10165007 -0.43021536 -0.09195955 0.027280219 -0.22802897 -0.26139742
0.31355283 0.37901935 -0.16356519 -0.1378551 -0.040522702 -0.11204305 -0.1389309 -0.078966014
0.067790955 -0.056041643 -0.092120185 -0.29690605 -0.2603068 -0.15609007 -0.21190767 0.010846772
00000000: ce93 b0bd 3a38 31be 12c0 fcbd a375 20bd
00000010: d6d2 4cbe 672b 3abd 317c 00be 8900 30be
00000020: 807d 39be 7b3f 9fbd 0ba6 4bbe 7513 11be
00000030: 85e4 183e 0426 1fbe 66c1 35be 53b7 f2bd
00000040: d861 f0bd c3a8 cfbe b0a4 3abe 0ef8 bbbe
00000050: c117 d2bd f681 18bd d74d e8bd e37f d03c
00000060: 02f6 763f 6cee 77be b284 8e3d cbad 2cbe
00000070: a7ec 6ebe 3cb0 eabd e3a5 b3be fd00 ac3d
00000080: fa7d 14be 66a1 393e 5809 cdb8 9b10 f2bd
00000090: 5be2 8abd b3c7 5e3f 625b 9fbd 1320 26be
000000a0: e497 e5bc e591 16be 8323 e2bc e68e c9bb
000000b0: d24a fa39 dc43 8abd 2a3a 90be d07d f3bd
000000c0: 5bb6 93bd 702a 0ebe 7f35 a43f dbac b1bd
000000d0: 9b27 c0bd e97a 0cbe a67e 923f 8eca bcbd
000000e0: 82f9 0cbf 86db 97bd 5815 b2bd 7f11 c0bd
000000f0: dddd d1bd 24df 84bd dfc6 bcbd 0b86 ddbd
00000100: 948c 13be cd5d f9bd 9bf2 fe3c c071 a8be
00000110: 1692 873d cbb5 4abd 559e e7bd ee0d 733f
00000120: 5b9f 0dbd c096 50bd ea5b ecbd 53d5 1a3d
00000130: bb5f 00be 3e36 93bc 9a5e 10be d330 59be
00000140: 3605 c8bd 6699 e7bd c06f a6be a556 c3be
00000150: 4c37 453e f1d9 edbd 6dd2 11be 53e8 e6bd
00000160: 0465 d23d 5f02 ee3b 3a7b 13be d120 e53e
00000170: f157 42be 8e3d f5bd 6793 373d 08ee 76be
00000180: 0b45 e9be 4df6 63bd 0094 c03c 5556 32bd
00000190: ea6b 05bf d384 fc3f d4bf 99be 7380 82bc
000001a0: c560 493e 003a 0cbe e92d d0bd 3045 dcbe
000001b0: 4a55 bcbd c47a df3c 6d80 69be e2d5 85be
000001c0: ff89 a03e d30e c23e a27d 27be e329 0dbe
000001d0: 22fb 25bd d476 e5bd e743 0ebe efb8 a1bd
000001e0: fcd5 8a3d ec8b 65bd 82a9 bcbd 1204 98be
000001f0: ef46 85be 13d6 1fbe 53fe 58be a9b6 313c

network.6.weight f4 [64, 128]
-0.016420675 0.066491 0.029605076 0.023255875 -0.09967008 0.018438311 0.048015743 -0.07407065
0.012832543 -0.060919154 0.022574978 -0.06628165 0.16700156 -0.02714576 0.069849886 -0.101764105
0.019207362 -0.05900234 -0.12484392 -0.13502494 -0.07784275 -0.10962152 0.001057739 -0.05148782
0.0002775742 -0.03211436 -0.068657026 -0.03921958 0.088579364 0.04579126 0.0055832723 -0.036401913
-0.051146407 -0.08287327 -0.07558156 0.008481262 -0.05961946 -0.05722166 -0.07526337 -0.045408484
-0.019554727 -0.082911424 -0.08391164 -0.038721103 -0.21153058 -0.101575926 -0.009061135 0.025575152
-0.08292661 -0.08466426 -0.04009046 -0.12586114 0.021259638 0.013334026 -0.08101871 -0.0724824
0.070142396 -0.08523346 -0.033989888 0.01448217 -0.14154425 0.0017726487 -0.065233275 -0.033698034
-0.11815537 0.004963234 0.048099034 -0.053735368 -0.016879661 -0.0090957275 -0.07980085 -0.30950162
-0.02490799 -0.06379341 -0.097496144 0.02179503 -0.06758564 -0.0074784765 -0.093646474 -0.007980749
-0.08328342 -0.049260482 0.014845008 -0.011058405 -0.5061391 -0.08110764 -0.11452246 0.018971335
-0.11618001 -0.14077535 0.041712247 0.1314316 -0.00086050696 -0.11930022 0.007552776 -0.090033196
-0.034567256 -0.08626576 -0.016069207 -0.46920452 -0.039374925 -0.04828518 -0.35008827 -0.29889578
0.03456389 -0.04464391 -0.034474887 0.02656879 -0.08986642 0.035277884 -0.031575177 0.00027053803
-0.08706865 -0.046043493 0.011776751 -0.0550873 -0.09273218 0.03620354 -0.10998513 -0.009605131
0.018033933 0.20348504 -0.15953705 -0.031441968 -0.061841086 -0.25679857 0.02469338 -0.075626306
0.02783034 -0.051434264 0.019701215 -0.0059688967 -0.03895124 0.036945768 0.12352785 -0.15051875
0.046355065 -0.041477814 -0.044584613 -0.017093264 0.0019346857 0.012047481 -0.007488802 0.08507634
-0.0025691262 -0.3796437 -0.09409153 -0.30798653 -0.029083438 0.08309416 -0.026331728 0.07695904
0.09476415 -0.09116551 -0.060267366 0.08377226 -0.018300109 -0.15998566 0.14257187 0.120856725
0.04036384 0.35155827 0.04254776 -0.017863922 0.018587569 -0.16527118 0.04821525 -0.011979182
-0.029588038 -0.051171638 0.078725934 -0.03025561 -0.05926118 0.33181036 -0.19506973 -0.024338119
0.00082702935 0.0156247355 -0.029671652 0.083950326 -0.055990558 0.03648947 -0.22910216 0.063610666
-0.0070547196 0.16922016 -0.028435037 0.0085139 -0.0059886593 0.15512994 0.054191634 -0.0032231584
0.16030654 0.07048044 -0.040868506 0.032536462 0.04512688 -0.13745978 -0.021904243 -0.17247257
0.13958025 -0.06885666 -0.030389465 -0.050229874 -0.016412497 0.093650274 0.050770592 0.03183075
0.046270095 -0.058033183 0.11185541 -0.09206489 -0.040001675 0.045468498 0.061534286 -0.011267633
0.061374713 0.14915033 -0.07475688 -0.26184455 0.08112903 0.015564395 -0.010591896 0.004052089
0.08726326 0.19551398 0.03795455 0.09756185 -0.24056537 0.23413011 0.09148608 0.022968192
0.18298194 0.08772697 0.027603067 0.01586295 0.11527878 -0.08746196 -0.21289334 -0.003458023
-0.3182964 -0.033755977 -0.15040854 0.06526487 0.21737893 -0.017037958 -0.025397398 -0.079847984
-0.08551061 -0.075621754 -0.039724298 -0.03179223 -0.008960575 0.28634623 -0.06685263 -0.022356406
00000000: a784 86bc 6f2c 883d 5886 f23c 1b83 be3c
00000010: d41f ccbd f10b 973c 28ac 443d 5ab2 97bd
00000020: 963f 523c 5d86 79bd 29ef b83c acbe 87bd
00000030: 7502 2b3e c960 debc 750d 8f3d b369 d0bd
00000040: c258 9d3c 70ac 71bd 2bae ffbd fa43 0abe
00000050: 056c 9fbd 3f81 e0bd d5a3 8a3a e4e4 52bd
00000060: 6187 9139 598a 03bd 0e9c 8cbd b6a4 20bd
00000070: 1969 b53d 9e8f 3b3d e2f3 b63b 2c1a 15bd
00000080: e57e 51bd 76b9 a9bd 81ca 9abd fef4 0a3c
00000090: 8933 74bd 4261 6abd af23 9abd 3ffe 39bd
000000a0: 3c31 a0bc 77cd a9bd ded9 abbd 059a 1ebd
000000b0: 799b 58be 0a07 d0bd 2875 14bc fb82 d13c
000000c0: 6dd5 a9bd 7564 adbd e535 24bd bee1 00be
000000d0: b128 ae3c f576 5a3c 23ed a5bd a771 94bd
000000e0: d1a6 8f3d e18e aebd fb38 0bbd a046 6d3c
000000f0: faf0 10be 3858 e83a 0699 85bd f306 0abd
00000100: 71fb f1bd a0a2 a23b 7e03 453d 9e19 5cbd
00000110: 3747 8abc 3f06 15bc a16e a3bd ff76 9ebe
00000120: d70b ccbc 1fa6 82bd 0fac c7bd 7e8b b23c
00000130: 576a 8abd 020e f5bb b9c9 bfbd b0c1 02bc
00000140: 7f90 aabd 5cc5 49bd 7a38 733c 502e 35bc
00000150: 5592 01bf c31b a6bd c08a eabd c669 9b3c
00000160: c9ef edbd 6a27 10be 76da 2a3d 0196 063e
00000170: a593 61ba ac53 f4bd 477d f73b 5363 b8bd
00000180: 6596 0dbd 1aac b0bd 92a3 83bc 933b f0be
00000190: 9a47 21bd aec6 45bd c53e b3be de08 99be
000001a0: de92 0d3d 88dc 36bd 8a35 0dbd cba6 d93c
000001b0: e30b b8bd 8b7f 103d f954 01bd 00d7 8d39
000001c0: 0c51 b2bd 1a98 3cbd 46f3 403c 38a3 61bd
000001d0: 5fea bdbd 2a4a 143d e23f e1bd d75e 1dbc
000001e0: e6bb 933c 625e 503e ae5d 23be 4bc9 00bd
000001f0: 144d 7dbd 1a7b 83be c549 ca3c f7e1 9abd
00000200: 74fc e33c bcac 52bd 7164 a13c bc96 c3bb
00000210: 568b 1fbd 7254 173d 2bfc fc3d 9621 1abe
00000220: cfde 3d3d a4e4 29bd 5b9e 36bd 2c07 8cbc
00000230: 4895 fd3a cc62 453c a064 f5bb 813c ae3d
00000240: c95e 28bb a960 c2be 0fb3 c0bd 69b0 9dbe
00000250: 6440 eebc 452d aa3d a3b5 d7bc b39c 9d3d
00000260: b513 c23d fcb4 babd eada 76bd ca90 ab3d
00000270: 1cea 95bc 48d3 23be 5cfe 113e bb83 f73d
00000280: 8e54 253d 72ff b33e 8f46 2e3d 5c57 92bc
00000290: f544 983c d93c 29be 5b7d 453d 5544 44bc
000002a0: 9d62 f2bc 5a99 51bd 103b a13d 9dda f7bc
000002b0: dabb 72bd 0ce3 a93e 5cc0 47be bc60 c7bc
000002c0: 00cd 583a e4fe 7f3c f711 f3bc 26ee ab3d
000002d0: 5b56 65bd fc75 153d c299 6abe 4f46 823d
000002e0: 472b e7bb 0d48 2d3e 98f0 e8bc e37d 0b3c
000002f0: 843c c4bb 62da 1e3e 0cf8 5d3d a03b 53bb
00000300: 6627 243e 0d58 903d bc65 27bd f444 053d
00000310: f7d6 383d 42c2 0cbe 8770 b3bc a69c 30be
00000320: 20ee 0e3e b804 8dbd 54f3 f8bc d7bd 4dbd
00000330: 8073 86bc b7cb bf3d d3f4 4f3d f660 023d
00000340: b685 3d3d 34b4 6dbd 7314 e53d 848c bcbd
00000350: ccd8 23bd 2d3d 3a3d 600b 7c3d e19b 38bc
00000360: 0d64 7b3d ddba 183e 231a 99bd 7d10 86be
00000370: fa26 a63d ce01 7f3c a289 2dbc 63c7 843b
00000380: 14b7 b23d d134 483e 3b76 1b3d 82ce c73d
00000390: c556 76be cebf 6f3e 0e5d bb3d ca27 bc3c
000003a0: 9e5f 3b3e 33aa b33d d41f e23c 04f3 813c
000003b0: 4817 ec3d 421f b3bd b600 5abe 00a0 62bb
000003c0: bff7 a2be b543 0abd b204 1abe 97a9 853d
000003d0: 9598 5e3e 3093 8bbc 340e d0bc 5787 a3bd
000003e0: 3020 afbd 94df 9abd f2b5 22bd 9238 02bd
000003f0: 60cf 12bc f99b 923e 08ea 88bd c824 b7bc

network.6.bias f4 [64]
-0.42710182 0.010062924 -0.20835592 0.77724093 -0.09747226 -0.68455976 0.22598414 -0.1042403
0.35540706 0.1108675 -0.32387775 0.114711724 -0.371249 -0.064370364 -0.022141596 -0.17133473
-0.22278367 -0.14405736 -0.22135891 -0.2970094 -0.290822 -0.5188048 -0.5532588 -0.27309206
-0.27986377 -0.66111904 -0.28074437 -0.13697316 -0.2817351 -0.45532575 -0.3604114 0.012807272
-0.2940862 -0.36659798 0.17395099 -0.35484207 -0.13325228 0.018460011 -0.34735113 -0.10719437
-0.28186288 -0.116889395 0.13231114 0.15511328 -0.10503122 0.011025785 -0.19742575 -0.19613135
-0.41604197 0.12804045 0.16883576 1.007562 0.49953198 -0.010584325 -0.17336501 -0.028240139
-0.16753261 -0.055028457 -0.055760995 -0.52442884 0.056363586 -0.02034259 -0.64017344 -0.28640372
00000000: 17ad dabe f6de 243c 415b 55be 43f9 463f
00000010: 899f c7bd 4f3f 2fbf 6368 673e f07b d5bd
00000020: eaf7 b53e 800e e33d 4ed3 a5be fbed ea3d
00000030: 5914 bebe 9cd4 83bd 4b62 b5bc 5f72 2fbe
00000040: 6721 64be c683 13be e9ab 62be 9e11 98be
00000050: 9fe6 94be 64d0 04bf 5ea2 0dbf b9d2 8bbe
00000060: 4e4a 8fbe 193f 29bf babd 8fbe b142 0cbe
00000070: 953f 90be 7520 e9be d887 b8be 98d5 513c
00000080: 7792 96be bbb2 bbbe 3520 323e dcad b5be
00000090: 4973 08be 7339 973c 02d8 b1be b988 dbbd
000000a0: 5550 90be b563 efbd 927c 073e 04d6 1e3e
000000b0: 9c1a d7bd 7ea5 343c fa29 4abe a8d6 48be
000000c0: 7403 d5be 091d 033e 48e3 2c3e cbf7 803f
000000d0: a8c2 ff3e e069 2dbc 9986 31be dd57 e7bc
000000e0: ab8d 2bbe 8565 61bd a465 64bd f840 06bf
000000f0: 81dd 663d 81a5 a6bc 68e2 23bf 82a3 92be

network.8.weight f4 [32, 64]
0.0045499597 -0.09989311 -0.28288522 -0.16385981 -0.11051702 0.004799347 -0.21006456 -0.059958175
-0.14958948 -0.08880866 -0.14615007 0.0032952195 -0.0029725775 0.031784613 0.105791755 -0.22784336
-0.23707254 -0.14180526 0.034453742 -0.11916181 0.06373306 0.0063635632 -0.035409734 -0.08152622
-0.025852688 -0.12438648 -0.055928152 0.034092296 -0.043239634 -0.3327989 -0.060880475 0.00898684
-0.15334734 -0.018316781 -0.16831121 -0.06356358 -0.016745402 -0.054590862 -0.11067781 -0.12730892
0.01361436 -0.123512775 -0.16454224 -0.16024686 -0.34316626 -0.07238473 0.06846161 -0.05963014
-0.16267571 -0.34460258 -0.20454702 -0.091946 -0.108602956 -0.10536478 -0.07747522 -0.2551304
-0.1877704 0.03931985 -0.24653718 0.009271563 -0.25629807 -0.16488934 0.1842458 -0.044162784
0.036653697 -0.085600205 0.012073961 -0.24501204 -0.26243523 -0.117235854 -0.08675662 0.009361088
-0.09249698 0.01762808 -0.019104391 -0.20696345 0.08238278 0.029979447 0.06743841 -0.02099768
-0.113102905 -0.08492452 -0.017784387 -0.026438804 -0.068523854 -0.17793703 0.06310959 -0.047292113
-0.1478508 -0.107797146 0.040199086 -0.11102587 0.055457182 -0.14025936 -0.12663034 -0.2606508
0.025677845 -0.0963228 -0.064145915 -0.022123134 -0.14756322 -0.120231315 0.020346388 -0.17980796
-0.08440108 0.009494841 -0.028375939 -0.1802415 -0.13903046 -0.23960836 0.036062088 -0.06402181
-0.06493873 -0.19022414 -0.0055244165 0.023595035 -0.060416866 -0.121948555 0.0175298 -0.31364596
-0.11079155 0.04930326 -0.13210887 -0.067184344 0.0012660334 -0.357391 0.09064168 0.057379898
-0.31858256 -0.02752976 0.16138785 0.042634856 -0.026106875 -0.36224625 0.19681466 0.006070442
-0.2567735 0.10416962 0.24739571 0.01193679 0.11523662 0.09281791 -0.15436415 -0.112620234
-0.017924529 -0.06772761 -0.1954846 0.0274144 0.060779344 0.08482055 -0.27651227 0.016440868
-0.12617947 -0.2408373 0.17400889 -0.09345255 -0.18400337 -0.15286373 -0.0037940629 -0.20769203
0.088908754 0.08962825 0.005818135 0.026359152 -0.33777213 -0.03938045 -0.18901294 -0.06866107
-0.103915244 -0.10746084 -0.019692192 -0.026787495 -0.022581868 0.109542444 -0.06704363 0.06331732
-0.11214675 -0.114799015 -0.363369 0.023722714 0.06444064 -0.024976397 -0.07202004 0.029249044
0.020171514 0.061104324 0.016780518 -0.25925106 -0.035694037 0.026191134 -0.28194958 -0.055757076
0.08683577 -0.29256448 -0.1933533 -0.2543882 -0.13945402 0.16068587 -0.18494181 -0.009261295
-0.3130092 -0.1508592 -0.00976041 -0.075149424 0.027952164 -0.18906564 0.09341302 -0.04413773
-0.24455908 -0.08609131 0.12141296 0.01722163 -0.19690447 0.024833094 0.046512008 -0.0231402
0.051234424 -0.059102844 -0.08438614 0.0144865485 0.10900067 -0.46816 -0.08621251 -0.16576986
-0.21249186 -0.1465182 -0.21029255 0.06908302 -0.25592 -0.12354839 -0.2134737 -0.23760357
0.013056114 -0.12827787 -0.082766965 -0.033637393 -0.32834718 -0.11073336 0.077198155 -0.037632547
0.015784692 0.06845829 -0.25751838 0.09771016 -0.17543888 -0.32923308 0.023347372 -0.14014637
-0.06232592 0.23180214 -0.19254246 -0.09901185 -0.16387622 -0.08403762 0.02208699 -0.19441824
00000000: d417 953b c294 ccbd 55d6 90be deca 27be
00000010: bf56 e2bd d743 9d3b 2a1b 57be b496 75bd
00000020: fc2d 19be 51e1 b5bd 5da8 15be 9cf4 573b
00000030: 93cf 42bb 9530 023d 59a9 d83d c54f 69be
00000040: 25c3 72be 6635 11be 5e1f 0d3d 1b0b f4bd
00000050: 7b86 823d 7085 d03b cc09 11bd 38f7 a6bd
00000060: 04c9 d3bc 57be febd eb14 65bd 5da4 0b3d
00000070: 0b1c 31bd 9e64 aabe ce5d 79bd 8a3d 133c
00000080: 1607 1dbe 130d 96bc c659 2cbe 9f2d 82bd
00000090: a72d 89bc ab9a 5fbd 0cab e2bd 455d 02be
000000a0: c40e 5f3c 44f4 fcbd c37d 28be c117 24be
000000b0: 7db3 afbe 723e 94bd 9a35 8c3d bc3e 74bd
000000c0: 7694 26be c06f b0be c674 51be 2f4e bcbd
000000d0: 3a6b debd 7dc9 d7bd 54ab 9ebd 74a0 82be
000000e0: e246 40be da0d 213d 3e74 7cbe c1e7 173c
000000f0: 8039 83be c0d8 28be eeaa 3c3e 09e4 34bd
00000100: 3022 163d 294f afbd ddd1 453c 70e4 7abe
00000110: e95d 86be 5a19 f0bd 74ad b1bd 405f 193c
00000120: 0f6f bdbd c368 903c d080 9cbc 3aee 53be
00000130: 4eb8 a83d 7597 f53c 261d 8a3d 5403 acbc
00000140: 7fa2 e7bd e8ec adbd 90b0 91bc 3196 d8bc
00000150: 3c56 8cbd 2035 36be 9a3f 813d 60b5 41bd
00000160: 3366 17be c0c4 dcbd cca7 243d 8861 e3bd
00000170: 1227 633d 26a0 0fbe 62ab 01be 0674 85be
00000180: 585a d23c e344 c5bd ef5e 83bd 933b b5bc
00000190: d01a 17be d63b f6bd 78ad a63c 941f 38be
000001a0: 79da acbd 4090 1b3c a874 e8bc 3a91 38be
000001b0: 005e 0ebe e55b 75be d7b5 133d de1d 83bd
000001c0: 99fe 84bd 1eca 42be 2a06 b5bb 604a c13c
000001d0: ad77 77bd 2ac0 f9bd a89a 8f3c 3496 a0be
000001e0: aee6 e2bd 37f2 493d 8c47 07be f297 89bd
000001f0: 08f1 a53a f4fb b6be 58a2 b93d 2f07 6b3d
00000200: 411d a3be 1786 e1bc db42 253e e3a1 2e3d
00000210: 16de d5bc 5778 b9be c889 493e 8fea c63b
00000220: d177 83be e256 d53d 4d55 7d3e 8792 433c
00000230: 2d01 ec3d 5117 be3d a311 1ebe 70a5 e6bd
00000240: 76d6 92bc c6b4 8abd 1d2d 48be 2a94 e03c
00000250: c3f3 783d 66b6 ad3d 0493 8dbe 00af 863c
00000260: 3135 01be 0e9e 76be 632f 323e 0d64 bfbd
00000270: 616b 3cbe 4f88 1cbe d0a5 78bb 38ad 54be
00000280: cb15 b63d 048f b73d 0ea6 be3b 26ef d73c
00000290: 78f0 acbe 654d 21bd 9c8c 41be 2d9e 8cbd
000002a0: 84d1 d4bd 6e14 dcbd 8551 a1bc 7371 dbbc
000002b0: 9cfd b8bc ca57 e03d 2c4e 89bd 83ac 813d
000002c0: 32ad e5bd bf1b ebbd 800b babe 2356 c23c
000002d0: 74f9 833d 4d9b ccbc 3e7f 93bd b19b ef3c
000002e0: bb3e a53c 8748 7a3d 4c77 893c 8ebc 84be
000002f0: e933 12bd ca8e d63c b25b 90be 8861 64bd
00000300: f4d6 b13d 03cb 95be 68fe 45be 2c3f 82be
00000310: 09cd 0ebe d68a 243e 6361 3dbe b0bc 17bc
00000320: be42 a0be d67a 1abe 20ea 1fbc f1e7 99bd
00000330: f0fb e43c 6c9a 41be 534f bf3d c4c9 34bd
00000340: b26d 7abe a450 b0bd 5ca7 f83d 6014 8d3c
00000350: 53a1 49be c66e cb3c 6083 3e3d 8490 bdbc
00000360: 30db 513d d315 72bd a4d2 acbd fd58 6d3c
00000370: be3b df3d abb2 efbe 2f90 b0bd 93bf 29be
00000380: 7797 59be de08 16be ee56 57be 667b 8d3d
00000390: f207 83be f006 fdbd da98 5abe 5a4e 73be
000003a0: 50e9 553c 465b 03be ba81 a9bd 5dc7 09bd
000003b0: 1f1d a8be 2cc8 e2bd 111a 9e3d 9624 1abd
000003c0: e64e 813c dc33 8c3d 73d9 83be 441c c83d
000003d0: 40a6 33be 3d91 a8be fd42 bf3c 8882 0fbe
000003e0: 7749 7fbd 8a5d 6d3e da29 45be bac6 cabd
000003f0: 2bcf 27be ea1b acbd c6ef b43c 9315 47be

network.8.bias f4 [32]
-0.43131238 -0.24370323 -0.05807512 -0.619014 -0.08055305 -0.020222919 -0.050340228 -0.2170135
-0.20473818 -0.09054926 -0.044946272 -0.117064275 -0.10406476 0.27585927 0.35413146 -0.17128792
-0.08344101 -0.09127181 -0.45883086 -0.22350115 -0.080010146 -0.24641323 -0.17853718 -0.627164
-0.25441545 -0.032203466 -0.026187139 -0.22054963 -0.3422603 -0.09914824 -0.14425951 0.027632294
00000000: fad4 dcbe 578d 79be 2de0 6dbd b477 1ebf
00000010: fff8 a4bd 89aa a5bc 8e31 4ebd c938 5ebe
00000020: e3a6 51be e471 b9bd 9519 38bd 65bf efbd
00000030: e81f d5bd 6d3d 8d3e b850 b53e 1a66 2fbe
00000040: 1fe3 aabd b7ec babd e1eb eabe 7cdd 64be
00000050: 5cdc a3bd c053 7cbe 73d2 36be d28d 20bf
00000060: be42 82be c8e7 03bd 6986 d6bc c3d7 61be
00000070: be3c afbe 3c0e cbbd c4b8 13be 1f5d e23c

network.10.weight f4 [12, 32]
0.3898556 0.28853086 0.135424 -0.23328173 0.1285893 0.08516274 -0.032663073 0.091604255
0.1155259 -0.057563007 0.10487263 -0.109820105 -0.10084373 0.58421856 0.3053079 0.23944345
0.15296404 0.05032478 -0.078116246 0.38047084 0.021931939 0.13577624 0.027537081 0.012574522
0.046627384 0.569156 0.18429403 -0.07680068 0.04760047 0.057928994 0.23474221 0.21638632
0.16158965 0.36993 0.098371126 0.21607767 -0.099102475 -0.008873575 0.21800621 -0.047081582
-0.09182326 -0.11988779 0.20935833 0.093842275 -0.15052079 0.61411256 0.47110477 0.045230936
0.1711933 0.17943607 0.020571135 0.07736858 0.02893902 -0.058565266 0.50592864 0.2854197
0.33171862 0.43873978 0.017958937 0.23368688 -0.047404137 0.2321009 1.2526604 0.24164681
-0.06753077 0.08232257 0.13134119 -0.15968752 -0.16675706 0.17644165 0.08981356 0.029152632
0.054063246 0.040854026 -0.14884143 0.008784529 0.099930465 0.6185748 -0.5327052 0.20543435
0.2796234 0.08775415 -0.1217422 -0.43553743 0.09321002 -0.21414898 0.0017796047 0.1519223
0.22098684 0.48410746 -0.037612583 0.1796323 -0.115594685 0.08064102 0.1580668 0.3439102
0.21554182 -0.19409399 0.34388173 -0.050654635 0.36099452 0.021050833 0.35000336 -0.30147627
0.03687259 0.35044694 0.08226285 -0.017997304 0.021814039 0.6167464 0.32798165 -0.06260306
0.5976585 0.12625313 -0.042700857 0.39030403 0.24229026 0.47793132 0.28826395 -0.028401613
0.14244041 0.41465375 -0.20900853 0.6301136 0.16422965 0.013110071 0.08158515 -0.030578306
0.14577876 0.45131963 0.29557893 0.11914352 -0.04261637 -0.0031579826 0.07529886 -0.113546744
0.3783602 -0.049329877 0.28011036 0.20225322 0.18192656 0.59548175 -0.06083662 -0.07746347
0.35868666 0.09043892 0.0966294 0.03502014 -0.08922897 -0.116466954 0.33695537 0.051064193
0.49271256 0.47230035 -0.034716364 0.26394817 0.043670345 0.102839254 0.93290675 0.16560334
-0.0071460423 -0.27114707 0.39629966 0.5594965 0.14738597 0.02456089 -0.08931483 0.23190866
0.054985326 0.1935243 0.17009589 -0.112319596 0.21233104 0.6073551 0.2841257 0.20148914
0.60356903 0.31362593 0.1723809 0.5407641 0.07001048 -0.056252588 0.0059648026 0.094002865
0.29393503 0.46265855 -0.0024508957 0.49648 0.16087098 0.04454732 0.20493728 0.25720137
0.6881048 0.37662247 0.46775383 -0.15388457 0.088845566 -0.025094703 0.340818 0.076617524
-0.058846723 0.19063461 0.3217784 -0.0737189 0.20863412 0.62661344 -0.3409307 0.2863822
0.5662548 0.49016276 -0.02081297 0.21893062 -0.15524857 0.009326444 0.18185587 0.08739795
0.46536374 0.36776492 0.05357938 0.21478929 -0.109164 0.036480337 0.5239134 0.1750305
0.31311393 0.33142686 0.056985404 -0.062598564 -0.11583457 0.1379807 -0.09830684 -0.1479959
0.05085695 -0.02424266 0.062026076 0.18258964 -0.010496585 0.6000037 0.39171687 0.19192724
0.12980093 0.20605204 -0.07344931 0.39455822 0.19161437 -0.01019673 0.0468094 0.12729008
0.18716732 0.48542458 0.02134557 0.45348158 0.19394884 -0.079953715 0.041207176 0.10545443
00000000: 279b c73e 51ba 933e 97ac 0a3e 68e1 6ebe
00000010: eaac 033e cd69 ae3d b7c9 05bd 039b bb3d
00000020: d898 ec3d 30c7 6bbd 76c7 d63d 5de9 e0bd
00000030: 2887 cebd 598f 153f 5151 9c3e aa30 753e
00000040: 9ba2 1c3e 5b21 4e3d 69fb 9fbd 13cd c23e
00000050: 9caa b33c ed08 0b3e 7295 e13c 5e05 4e3c
00000060: 5bfc 3e3d 35b4 113f 93b7 3c3e ad49 9dbd
00000070: b6f8 423d f446 6d3d 4360 703e 6094 5d3e
00000080: c277 253e 7767 bd3e cd76 c93d 7743 5d3e
00000090: 3df6 cabd 7962 11bc 053d 5f3e 9ed8 40bd
000000a0: d50d bcbd bb87 f5bd 0862 563e 6130 c03d
000000b0: 1f22 1abe 7b36 1d3f a534 f13e 1344 393d
000000c0: 4c4d 2f3e 17be 373e cc84 a83c 6b73 9e3d
000000d0: 8611 ed3c 22e2 6fbd 8a84 013f 8822 923e
000000e0: 06d7 a93e 80a2 e03e 9f1e 933c 9d4b 6f3e
000000f0: d72a 42bd dcab 6d3e 2d57 a03f 4372 773e
00000100: 934d 8abd bc98 a83d 4e7e 063e 2085 23be
00000110: 5dc2 2abe 1fad 343e 2cf0 b73d 80d1 ee3c
00000120: 6c71 5d3d 8d56 273d e369 18be fcec 0f3c
00000130: 58a8 cc3d eb5a 1e3f 5e5f 08bf 625d 523e
00000140: cc2a 8f3e 73b8 b33d f953 f9bd c3fe debe
00000150: e5e4 be3d df49 5bbe a041 e93a 8591 1b3e
00000160: 604a 623e efdc f73e a70f 1abd 88f1 373e
00000170: e8bc ecbd 1e27 a53d 43dc 213e ff14 b03e
00000180: ffb6 5c3e 93c0 46be 4411 b03e 3c7b 4fbd
00000190: 46d4 b83e cc72 ac3c a433 b33e 195b 9abe
000001a0: b707 173d c86d b33e 6d79 a83d 156f 93bc
000001b0: 5bb3 b23c 18e3 1d3f 36ed a73e 0836 80bd
000001c0: 2600 193f 8048 013e 18e7 2ebd eed5 c73e
000001d0: f01a 783e 6ab3 f43e 5597 933e 80aa e8bc
000001e0: e6db 113e 7f4d d43e 5506 56be 204f 213f
000001f0: d12b 283e a0cb 563c 1d16 a73d 5b7f fabc
00000200: 0747 153e 5e13 e73e 1f56 973e 8501 f43d
00000210: 818e 2ebd 28f6 4ebb 4a36 9a3d 328b e8bd
00000220: 6eb8 c13e 200e 4abd a06a 8f3e 781b 4f3e
00000230: f54a 3a3e 7e71 183f d22f 79bd 2ba5 9ebd
00000240: c7a5 b73e 0a38 b93d a3e5 c53d 4771 0f3d
00000250: aebd b6bd 3a86 eebd 6a85 ac3e b028 513d
00000260: d244 fc3e 5ad1 f13e bf32 0ebd 3724 873e
00000270: addf 323d 639d d23d fad2 6e3f ec93 293e
00000280: 5929 eabb cad3 8abe cae7 ca3e 2a3b 0f3f
00000290: 59ec 163e eb33 c93c b2ea b6bd 7779 6d3e
000002a0: 4b38 613d 3c2b 463e 9e2d 2e3e d107 e6bd
000002b0: 4f6d 593e a07b 1b3f ec78 913e 2b53 4e3e
000002c0: 8083 1a3f 9493 a03e 9e84 303e 846f 0a3f
000002d0: a861 8f3d 1d69 66bd 6474 c33b 9384 c03d
000002e0: a77e 963e 95e1 ec3e 359f 20bb a032 fe3e
000002f0: 5dbb 243e 4077 363d 14db 513e e6af 833e
00000300: a327 303f a9d4 c03e 6e7d ef3e eb93 1dbe
00000310: aaf4 b53d 6893 cdbc b27f ae3e a6e9 9c3d
00000320: 4309 71bd b835 433e 23c0 a43e eff9 96bd
00000330: 2fa4 553e bd69 203f 788e aebe b0a0 923e
00000340: 13f6 103f 9df6 fa3e f67f aabc 592f 603e
00000350: 7bf9 1ebe f1cd 183c 6d38 3a3e b2fd b23d
00000360: 2844 ee3e af4b bc3e 0d76 5b3d b9f1 5b3e
00000370: 6091 dfbd 686c 153d 301f 063f 323b 333e
00000380: 7850 a03e c8b0 a93e 8769 693d ad33 80bd
00000390: ad3a edbd d04a 0d3e 1955 c9bd 3d8c 17be
000003a0: 614f 503d 8b98 c6bc 0e0f 7e3d c7f8 3a3e
000003b0: def9 2bbc d899 193f 1d8f c83e 9388 443e
000003c0: 89ea 043e 4eff 523e 986c 96bd 8903 ca3e
000003d0: 8f36 443e 2f10 27bc 37bb 3f3d 5558 023e
000003e0: caa8 3f3e 9289 f83e e8dc ae3c bd2e e83e
000003f0: 869a 463e c6be a3bd dbc8 283d 7ef8 d73d

network.10.bias f4 [12]
0.029343199 0.26583916 0.11733218 -0.091017514 0.42748532 0.3114526 -0.026416522 -0.074902624
0.38506684 -0.19757171 0.24702936 0.10616373
00000000: 2661 f03c 121c 883e db4b f03d 6467 babd
00000010: 5bdf da3e b776 9f3e 7667 d8bc 8c66 99bd
00000020: 7b27 c53e 3d50 4abe 44f5 7c3e 5f6c d93d
