model/DQNAgent2_20-08-2022__23-49-19.pth/DQNAgent2_20-08-2022__23-49-19.pth (torch, 826191 bytes, 8 tensors)

network.0.weight f4 [256, 27]
-0.20624426 0.008801834 -0.32081446 -0.0923121 -0.34602904 -0.030930437 -0.28481764 0.037728492
-0.16100882 0.033990953 -0.06525657 -0.012239333 -0.00031777253 -0.034049585 -0.06318046 0.017518522
-0.022905398 -0.24629702 -0.14603405 -0.1594583 -0.45532525 -0.13645855 -0.2735898 0.11079578
-0.011570472 -0.26964742 -0.034167822 -0.0663075 -0.15930189 -0.01002476 0.004428531 -0.051394027
-0.12704796 0.087949 -0.041371875 -0.060220454 0.11261106 -0.14681542 -0.24925312 0.07328583
0.086238466 -0.07073396 -0.08819491 -0.009236782 -0.06841331 -0.07939642 -0.21987642 -0.33318213
-0.69616693 0.17279114 -0.898722 -0.20325844 -0.14544272 -0.06156898 0.5927531 0.124065034
0.08559897 -0.2051731 -0.1744356 0.28003496 0.37426162 0.51059324 -0.33770162 0.22633624
-0.4465156 0.041203868 -0.0829804 -0.015956726 -0.25957173 -0.14186928 0.19623737 0.11172909
0.0059061875 -0.30039808 -0.5464388 -0.43454212 -0.67029786 -1.0480523 0.007899933 -0.097471215
-0.012471854 -0.23536327 -0.15249845 0.0028532366 -0.09638819 -0.100623235 -0.24049371 -0.20908333
-0.047009893 -0.065867975 -0.20187312 0.17887019 -0.107645564 -0.02348048 0.09907509 -0.10194643
0.086458944 -0.30177653 -0.087532125 -0.24327734 -0.032044943 -0.19181727 -0.2820221 0.09820175
-0.02535518 -0.08546534 -0.27215117 0.07539277 -0.28711236 -0.027782405 -0.012552124 -0.10080865
-0.294923 0.17630482 -0.06768413 0.19211055 0.033856533 0.050600827 0.24021433 -0.23703974
0.07899867 0.07058605 0.071089536 -0.22038038 -0.11851777 0.0027811653 -0.074108735 -0.4734755
-0.20091529 -0.16719858 0.45857847 -0.5653113 -0.057346042 -0.009007874 -0.093019426 -0.121253856
-0.077327974 -0.2338661 -0.23137726 -0.36619192 -0.25321048 -0.07431675 -0.025687847 -0.05602739
-0.22926663 -0.32278705 -0.10173083 0.07597075 -0.26833218 0.061891403 -0.056087345 -0.25865415
-0.070515126 -0.07009484 -0.55615103 -0.021303903 -0.17415698 -0.03692071 -0.06412817 -0.08395458
-0.2200897 -0.2932739 -0.08816929 0.16724132 -0.16279618 0.10093577 -0.13924159 0.022313684
0.13765256 0.14467381 -0.16554713 -0.08451567 0.10639466 -0.08257378 -0.12977035 -0.09768449
-0.0021270812 -0.16857934 -0.033546433 -0.15115063 -0.16006774 -0.09184384 -0.11563033 0.18986826
-0.0710949 0.18090929 -0.106428154 -0.055952415 -0.09203403 -0.13384554 -0.08755727 -0.22066577
0.05414612 0.050087802 0.02881339 -0.20035836 -0.055183597 -0.13868864 -0.0008000112 -0.037034042
-0.16810651 -0.18778226 -0.08150879 0.0950473 -0.05807874 0.028276676 -0.043376356 -0.17970642
0.16723004 0.10374481 0.11929503 -0.1840226 0.13096255 -0.0386824 0.050977737 -0.13430262
0.018153697 -0.01926494 -0.2097768 0.028052432 -0.3085715 0.026833529 -0.08955087 -0.20807366
-0.24973385 -0.08529841 -0.0050543095 0.100503914 0.009543354 -0.06848196 -0.16268173 -0.07039709
-0.119739786 -0.099775255 -0.23486918 0.07777052 -0.28199482 -0.3403533 -0.06803665 -0.13233216
-0.2492099 -0.049574878 -0.15486708 -0.28770223 -0.34072915 0.07089673 0.10213089 -0.32644603
-0.27783903 -0.22082114 0.046034433 -0.35777977 0.08426048 -0.2876914 -0.15148103 -0.041307583
00000000: b231 53be 9135 103c cb41 a4be 200e bdbd
00000010: b82a b1be d461 fdbc 9ed3 91be 3189 1a3d
00000020: 7fdf 24be 193a 0b3d 3da5 85bd 7c87 48bc
00000030: b59a a6b9 9477 0bbd c264 81bd 0183 8f3c
00000040: 1aa4 bbbc 4935 7cbe f389 15be 0949 23be
00000050: 6420 e9be cabb 0bbe f613 8cbe e6e8 e23d
00000060: 1492 3dbc 3a0f 8abe 8ff3 0bbd 3acc 87bd
00000070: 0920 23be e43e 24bc 361d 913b 8b82 52bd
00000080: dc18 02be 9b1e b43d 8e75 29bd b9a9 76bd
00000090: a1a0 e63d c856 16be 363c 7fbe e216 963d
000000a0: cb9d b03d f7dc 90bd 889f b4bd df55 17bc
000000b0: 471c 8cbd 979a a2bd 4927 61be d996 aabe
000000c0: ff37 32bf 29f0 303e a512 66bf fb22 50be
000000d0: f0ee 14be c12f 7cbd abbe 173f cf15 fe3d
000000e0: 834e af3d e618 52be 3f9f 32be be60 8f3e
000000f0: 389f bf3e 3db6 023f 3ae7 acbe b0c4 673e
00000100: b19d e4be 63c5 283d a1f1 a9bd aeb7 82bc
00000110: 96e6 84be 2e46 11be 73f2 483e 39d2 e43d
00000120: b188 c13b c7cd 99be 6ae3 0bbf 4e7c debe
00000130: a498 2bbf 9426 86bf b86e 013c fd9e c7bd
00000140: bf56 4cbc 1203 71be 8e28 1cbe 5efd 3a3b
00000150: 2c67 c5bd 8e13 cebd fc43 76be f119 56be
00000160: 728d 40bd cae5 86bd d4b7 4ebe bf29 373e
00000170: 4775 dcbd 235a c0bc e1e7 ca3d 4ac9 d0bd
00000180: 6311 b13d 7482 9abe 0b44 b3bd b21d 79be
00000190: 8f41 03bd bf6b 44be 3365 90be 001e c93d
000001a0: abb5 cfbc 7408 afbd 6657 8bbe 8667 9a3d
000001b0: 6400 93be ed97 e3bc 6da7 4dbc c474 cebd
000001c0: 2600 97be 4089 343e fa9d 8abd a1b8 443e
000001d0: 26ad 0a3d d042 4f3d bffa 753e 8cba 72be
000001e0: 0eca a13d 6b8f 903d 6497 913d 65ab 61be
000001f0: 72b9 f2bd 3644 363b 52c6 97bd 616b f2be
00000200: bdbc 4dbe 1b36 2bbe ccca ea3e 3eb8 10bf
00000210: afe3 6abd c395 13bc f880 bebd f153 f8bd
00000220: 215e 9ebd 987a 6fbe 29ee 6cbe 827d bbbe
00000230: cea4 81be 6133 98bd 526f d2bc fa7c 65bd
00000240: dfc4 6abe 5844 a5be 4158 d0bd 8d96 9b3d
00000250: d662 89be d781 7d3d d8bb 65bd 516e 84be
00000260: 3c6a 90bd e28d 8fbd ea5f 0ebf 8685 aebc
00000270: 3556 32be 2c3a 17bd a155 83bd 61f0 abbd
00000280: 325f 61be ff27 96be 1a92 b4bd 4f41 2b3e
00000290: 0bb4 26be 6ab7 ce3d 5995 0ebe 30cb b63c
000002a0: cbf4 0c3e 5f25 143e 3085 29be 8d16 adbd
000002b0: 72e5 d93d 711c a9bd 85e2 04be ce0e c8bd
000002c0: 8066 0bbb 10a0 2cbe fc67 09bd 3bc7 1abe
000002d0: cce8 23be a018 bcbd 98cf ecbd d36c 423e
000002e0: 349a 91bd 4940 393e 01f7 d9bd 5c2e 65bd
000002f0: 567c bcbd ce0e 09be 3a51 b3bd 35f6 61be
00000300: 52c8 5d3d de28 4d3d 0f0a ec3c be2a 4dbe
00000310: 3208 62bd 6504 0ebe d8b7 51ba 02b1 17bd
00000320: 1d24 2cbe fe49 40be 15ee a6bd 29a8 c23d
00000330: f9e3 6dbd 7da4 e73c 68ab 31bd f604 38be
00000340: 5a3e 2b3e 2978 d43d f450 f43d 6c70 3cbe
00000350: 0c1b 063e 7071 1ebd 08ce 503d a086 09be
00000360: 10b7 943c 82d1 9dbc bbcf 56be 37ce e53c
00000370: 15fd 9dbe fdd1 db3c 7266 b7bd 4311 55be
00000380: 3bba 7fbe efb0 aebd 9f9e a5bb ffd4 cd3d
00000390: ba5b 1c3c 4540 8cbd 0a96 26be 592c 90bd
000003a0: 223a f5bd f856 ccbd 8c81 70be 2646 9f3d
000003b0: a061 90be ca42 aebe cd56 8bbd 1582 07be
000003c0: e130 7fbe 070f 4bbd 7a95 1ebe b54d 93be
000003d0: 0d74 aebe 4e32 913d 002a d13d ef23 a7be
000003e0: eb40 8ebe f01e 62be 9a8e 3c3d e92e b7be
000003f0: c290 ac3d 4a4c 93be d81d 1bbe 2432 29bd

network.0.bias f4 [256]
-0.0072296667 -0.25058594 -0.18253803 -0.28837729 -0.20249379 -0.14622563 0.16452621 0.016047858
-0.13647084 -0.4053558 -0.0730599 -0.26255208 0.0042380216 -0.27458355 0.013173911 -0.003279005
-0.15650287 -0.2382769 0.11426347 -0.2361486 -0.29674593 -0.17012887 -0.104528606 -0.41552082
-0.41056508 0.091392025 -0.19019777 0.11137245 0.16527398 -0.12984934 -0.1911238 0.026018212
-0.11471835 0.09271098 0.05008086 0.15244506 0.051886752 -0.14911018 -0.03727661 -0.15953815
0.0055260477 -0.008545397 -0.09251686 -0.1429412 -0.037425697 -0.19955733 -0.05933382 -0.3956388
-0.06337403 -0.20508349 -0.08021311 -0.16006355 -0.11082256 0.088881575 -0.08139307 -0.27917126
-0.22707961 -0.22175564 -0.22646788 -0.105495684 -0.0154887345 -0.2387156 0.08221196 -0.17489828
-0.019809123 -0.11140823 -0.08182403 -0.07862382 0.0029676622 0.051727887 -0.20873544 0.041757837
-0.10147941 -0.23594823 -0.057380028 -0.029461833 0.01502654 0.16115361 -0.019495232 -0.04132262
-0.08099225 -0.14817104 0.04000767 0.08810566 0.22826608 -0.1515523 -0.09942717 -0.14870761
-0.23091985 -0.23357902 -0.17011146 0.113752924 -0.18167214 -0.030418504 -0.31676129 -0.17555285
-0.22582136 -0.067060314 -0.06947905 -0.04099487 -0.14154051 0.017960642 -0.28483593 -0.052022792
-0.28786692 -0.15868329 0.04549779 -0.31042507 -0.059758835 -0.162019 -0.13961922 -0.03259263
0.052980352 -0.42238548 -0.031196548 -0.213354 -0.0821139 -0.33014867 -0.20128115 0.10110647
0.15981658 -0.16783157 -0.023984466 -0.010727397 -0.25794446 -0.03722942 -0.26883775 0.06612429
0.0014123057 -0.16197093 0.07976972 -0.10165379 -0.27980962 0.013779956 -0.12389579 -0.14638467
-0.24666311 -0.030625105 -0.16220605 0.2926154 -0.04177935 -0.26617277 -0.3433154 -0.0473908
0.008690425 0.0040986356 0.1576576 -0.15493931 -0.14796458 -0.28057826 -0.34465566 -0.087847434
-0.18180872 0.19941695 -0.17503141 0.08461955 -0.12002068 0.0632025 0.084166035 0.081445664
-0.035005093 -0.108099535 -0.300048 -0.12924963 -0.0935645 -0.26479167 -0.2250062 -0.16161746
-0.11000681 -0.3306774 0.04516939 -0.15088163 -0.1652512 0.004066123 -0.14229237 -0.21878637
-0.103500254 -0.07549698 0.019755688 0.13553657 0.039675277 -0.06846747 -0.22056133 0.07053968
-0.20736316 0.019823622 0.09668173 0.07323416 -0.16210131 -0.13724442 -0.02925566 -0.17540026
-0.011325275 -0.0760668 -0.044350564 -0.23157707 -0.2130453 -0.08249156 0.07930038 -0.02945023
0.003556061 0.051699467 0.037455805 -0.06135013 0.06783292 -0.045206863 0.050079327 -0.16520783
-0.052619494 0.008103901 -0.22521845 -0.25399268 -0.19739977 0.029569393 0.0035395052 -0.2118548
0.019807735 0.1949261 -0.24329202 -0.0744882 -0.22223212 -0.046039492 -0.009302559 -0.16138785
-0.10527247 -0.17422101 0.0281056 -0.034876186 0.12829824 0.029723905 0.10634104 -0.22098896
-0.10241601 -0.2220389 -0.12077465 -0.063598916 -0.24690983 -0.21360852 0.008405974 -0.18714829
0.0007379162 0.08955301 -0.102420576 -0.14681867 -0.007678459 -0.40652594 -0.07047744 -0.21821666
-0.18382856 -0.21793711 -0.2058156 -0.35918513 -0.25067478 -0.21302868 0.09906052 -0.1365209
00000000: d7e6 ecbb cd4c 80be 40eb 3abe 30a6 93be
00000010: 885a 4fbe 2cbc 15be 8f79 283e cc76 833c
00000020: 03bf 0bbe cc8a cfbe 6ea0 95bd 3a6d 86be
00000030: 1adf 8a3b 3796 8cbe 63d7 573c 93e4 56bb
00000040: 4a42 20be dcfe 73be f702 ea3d f0d0 71be
00000050: 15ef 97be 4336 2ebe 1813 d6bd 25bf d4be
00000060: 9635 d2be be2b bb3d 34c3 42be 3d17 e43d
00000070: 953d 293e 3af7 04be f5b5 43be 2524 d53c
00000080: 74f1 eabd 41df bd3d 9621 4d3d 8f1a 1c3e
00000090: 3487 543d 57b0 18be 5caf 18bd f85d 23be
000000a0: d913 b53b fe01 0cbc 7b79 bdbd 2e5f 12be
000000b0: b04b 19bd c258 4cbe 0508 73bd 2b91 cabe
000000c0: 3eca 81bd 6801 52be c546 a4bd b3e7 23be
000000d0: f0f6 e2bd 8b07 b63d 69b1 a6bd 89ef 8ebe
000000e0: 8f87 68be e913 63be 32e7 67be 1f0e d8bd
000000f0: 76c4 7dbc dd71 74be be5e a83d 8918 33be
00000100: be46 a2bc 002a e4bd 5b93 a7bd 8605 a1bd
00000110: 1c7d 423b 9fe0 533d bebe 55be 440a 2b3d
00000120: 70d4 cfbd 6a9c 71be 5207 6bbd f159 f1bc
00000130: e031 763c 7405 253e 77b4 9fbc e841 29bd
00000140: 44df a5bd 26ba 17be 15df 233d be70 b43d
00000150: 95be 693e 8730 1bbe 79a0 cbbd cf46 18be
00000160: 4176 6cbe 572f 6fbe b331 2ebe 4bf7 e83d
00000170: 4308 3abe 3a30 f9bc 892e a2be 20c4 33be
00000180: b73d 67be eb56 89bd 084b 8ebd 3dea 27bd
00000190: ffef 10be 3222 933c 04d6 91be da15 55bd
000001a0: 4b63 93be df7d 22be e45b 3a3d 09f0 9ebe
000001b0: aec5 74bd 4fe8 25be 57f8 0ebe d97f 05bd
000001c0: ed01 593d e942 d8be e78f ffbc 7979 5abe
000001d0: 552b a8bd 3f09 a9be a51c 4ebe e910 cf3d
000001e0: f5a6 233e 0adc 2bbe 127b c4bc f7c1 2fbc
000001f0: 4c11 84be e07d 18bd 1aa5 89be 2c6c 873d
00000200: 1e1d b93a b5db 25be 4f5e a33d dd2f d0bd
00000210: 3543 8fbe 53c5 613c 13bd fdbd dde5 15be
00000220: 4195 7cbe 80e1 fabc 5819 26be b0d1 953e
00000230: d320 2bbd cc47 88be 09c7 afbe db1c 42bd
00000240: 4962 0e3c d94d 863b fe70 213e 69a8 1ebe
00000250: 0784 17be f4a7 8fbe b576 b0be 5be9 b3bd
00000260: 112c 3abe f533 4c3e 6f3b 33be 044d ad3d
00000270: 67cd f5bd 5070 813d 3e5f ac3d fccc a63d
00000280: 8061 0fbd 4a63 ddbd e49f 99be 045a 04be
00000290: bf9e bfbd c692 87be 0668 66be 0c7f 25be
000002a0: 404b e1bd 8c4e a9be 8a03 393d b780 1abe
000002b0: 9c37 29be 1d3d 853b 17b5 11be 8909 60be
000002c0: f1f7 d3bd 299e 9abd aed6 a13c 19ca 0a3e
000002d0: 8b82 223d ac38 8cbd d4da 61be 1c77 903d
000002e0: 0257 54be 2665 a23c 1201 c63d cbfb 953d
000002f0: e3fd 25be cd89 0cbe 91a9 efbc 209c 33be
00000300: a58d 39bc e9c8 9bbd f0a8 35bd 8a22 6dbe
00000310: 8c28 5abe 56f1 a8bd 3d68 a23d 9c41 f1bc
00000320: ce0c 693b d2c2 533d 426b 193d 464a 7bbd
00000330: fceb 8a3d d52a 39bd fb1f 4d3d 3e2c 29be
00000340: 8a87 57bd 39c6 043c aa9f 66be 540b 82be
00000350: 2a23 4abe 833b f23c 0bf7 673b 77f0 58be
00000360: d543 a23c b59a 473e 8b21 79be 458d 98bd
00000370: d190 63be e893 3cbd c369 18bc db42 25be
00000380: 1899 d7bd fe66 32be b73d e63c 55da 0ebd
00000390: 9d60 033e 8c7f f33c 55c9 d93d ee4a 62be
000003a0: 7cbf d1bd 2a5e 63be b358 f7bd 2640 82bd
000003b0: eed5 7cbe 31bc 5abe 36b9 093c cda3 3fbe
000003c0: b870 413a 9267 b73d e1c1 d1bd a257 16be
000003d0: 959b fbbb 2b24 d0be 7a56 90bd 3074 5fbe
000003e0: 8e3d 3cbe e82a 5fbe 53c1 52be 1de7 b7be
000003f0: 7258 80be 3124 5abe 3ee0 ca3d 23cc 0bbe

network.2.weight f4 [512, 256]
0.0014417451 -0.010419631 -0.11623232 -0.16958414 -0.13947445 -0.012346628 0.00849805 -0.04349088
-0.029482424 0.024310812 0.0005726516 -0.053747825 -0.013635665 -0.06425318 -0.008673396 -0.023034545
-0.08264845 -0.03306445 -0.10830418 -0.0059354324 -0.19200812 -0.061518252 -0.004097452 0.031214587
-0.040243275 -0.01581116 0.13109551 -0.04104679 -0.031172043 -0.030069388 -0.11478466 0.15925795
0.020968616 -0.05289465 -0.0028505549 -0.03576991 -0.25516626 0.03683448 -0.10008018 -0.004204611
-0.18816203 -0.012383796 0.048177417 -0.018688537 -0.18198925 -0.11746548 -0.020204425 -0.24043547
-0.07801294 -0.0059165023 -0.06832107 -0.061803527 -0.01987946 -0.016226973 -0.0008056526 0.14385673
0.1691505 -0.080770046 -0.041405167 -0.16656573 -0.031679273 0.017873853 0.18597373 0.045243055
-0.009987777 -0.11978058 -0.016267851 0.05249905 0.061751902 -0.056495517 0.17633297 -0.03347139
-0.092515856 -0.058373854 -0.023065967 0.018638097 -0.24254479 -0.05367031 -0.04325421 -0.11775992
-0.16216226 -0.12452365 -0.16691163 -0.11119547 0.02555566 0.059838332 -0.017424805 -0.100896
-0.0025523081 -0.08736559 -0.10499376 -0.075089425 -0.023464397 -0.11126829 -0.0010300279 -0.091431305
0.027063794 0.1939436 -0.06477214 -0.0352692 0.009067044 -0.129309 -0.11672708 0.04246682
-0.1550624 -0.017926116 -0.20571265 0.015380196 0.042900115 -0.112985015 -0.18904226 -0.030990072
-0.13927166 0.04632026 -0.11108199 -0.00885953 -0.07321904 0.0246588 -0.04813531 0.21613248
-0.21226469 -0.029794075 -0.10011134 -0.041374072 -0.07441253 -0.094027445 -0.12176968 -0.1737653
-0.07175638 0.015352301 -0.009757996 -0.055424314 -0.070988454 -0.12694104 -0.022711217 -0.06053675
0.033547588 -0.04024577 -0.07207973 -0.06128522 0.055377685 -0.087291874 -0.057629973 -0.047092244
-0.036187496 0.05486227 0.21685931 -0.1325961 -0.08536224 -0.1072679 -0.07238292 -0.078339845
-0.18307391 -0.058984373 -0.06808736 0.024949983 -0.06837767 -0.1405704 0.015062384 -0.09169204
-0.01186486 -0.19232486 0.1351393 -0.010398366 0.013051473 -0.11041876 -0.07487939 0.01651818
-0.05824223 -0.03557106 -0.04239241 -0.093299784 0.16627353 0.050415553 -0.11775285 -0.0015673861
-0.07663169 -0.014694388 -0.13917309 0.15942347 -0.0940066 -0.03298136 0.23026574 -0.08543778
-0.093873784 -0.008482894 0.036979966 0.0144871995 -0.06747731 -0.038205907 0.061501905 -0.04580875
-0.173178 0.03142578 -0.21086197 0.03311851 -0.0058400854 -0.084145874 -0.002736725 -0.028221883
-0.06462508 -0.18651222 0.02566205 -0.10394624 0.049479693 -0.08928125 -0.09618917 -0.014565825
-0.1122508 -0.07960099 -0.08775708 -0.07549722 -0.10237467 -0.03911957 -0.0072838664 -0.043357372
-0.059792213 -0.13203788 -0.026166398 -0.016064733 -0.057170976 0.011635259 0.02866587 0.01312051
-0.037571624 0.006234494 -0.0022201978 -0.07378325 -0.16083373 -0.054238334 0.018294863 -0.01269978
-0.017691784 -0.042840183 0.034752302 -0.09035411 -0.16164741 -0.12205198 -0.053360812 -0.04227595
-0.063752554 -0.09090258 -0.05798299 -0.050246775 -0.11796429 -0.075318225 -0.013328104 -0.019138714
-0.0761049 -0.11283699 -0.07034899 0.00070942193 0.012704216 0.0022937208 0.21022323 -0.03809692
00000000: f0f8 bc3a 1ab7 2abc 360b eebd 77a7 2dbe
00000010: 64d2 0ebe 8349 4abc 683b 0b3c 7e23 32bd
00000020: 2085 f1bc 7827 c73c 001e 163a ae26 5cbd
00000030: 2068 5fbc 2c97 83bd dc1a 0ebc f1b2 bcbc
00000040: 9743 a9bd 976e 07bd 95ce ddbd 047e c2bb
00000050: c79d 44be 90fa 7bbd eb43 86bb bcb5 ff3c
00000060: 22d6 24bd 6886 81bc e73d 063e ae20 28bd
00000070: 835c ffbc 1454 f6bc 3814 ebbd 8414 233e
00000080: 60c6 ab3c 0fa8 58bd 60d0 3abb 7883 12bd
00000090: 27a5 82be c0df 163d d6f6 ccbd d5c6 89bb
000000a0: 8cad 40be 68e5 4abc af55 453d b418 99bc
000000b0: 645b 3abe be91 f0bd c083 a5bc b734 76be
000000c0: 40c5 9fbd 38df c1bb ebeb 8bbd b225 7dbd
000000d0: 40da a2bc 6eee 84bc 6e32 53ba 2e4f 133e
000000e0: ca35 2d3e c46a a5bd 7798 29bd 3590 2abe
000000f0: 20c2 01bd 306c 923c e66f 3e3e c850 393d
00000100: c6a3 23bc 854f f5bd 2844 85bc 3e09 573d
00000110: 90ef 7c3d d867 67bd a190 343e 4c19 09bd
00000120: f478 bdbd 6c19 6fbd d7f4 bcbc ecae 983c
00000130: a95d 78be 66d5 5bbd 542b 31bd 1d2c f1bd
00000140: dd0d 26be 4106 ffbd e2ea 2abe 73ba e3bd
00000150: 1a5a d13c 0a19 753d 77be 8ebc 90a2 cebd
00000160: a044 27bb bbec b2bd f806 d7bd 7cc8 99bd
00000170: 6838 c0bc a1e0 e3bd 0002 87ba 5640 bbbd
00000180: e4b4 dd3c 2799 463e 41a7 84bd 7076 10bd
00000190: f08d 143c 9469 04be 9b0e efbd b0f1 2d3d
000001a0: aec8 1ebe cad9 92bc 56a6 52be 38fd 7b3c
000001b0: 08b8 2f3d b064 e7bd 4b94 41be e4de fdbc
000001c0: 3b9d 0ebe 50ba 3d3d f47e e3bd 9027 11bc
000001d0: ddf3 95bd 4001 ca3c 8829 45bd d551 5d3e
000001e0: ea5b 59be b412 f4bc 2d07 cdbd dc77 29bd
000001f0: 9965 98bd 7691 c0bd 6262 f9bd 88ef 31be
00000200: 02f5 92bd 3888 7b3c 00e0 1fbc 9b04 63bd
00000210: 6562 91bd d5fc 01be e00c babc 62f5 77bd
00000220: 3269 093d c0d8 24bd 8a9e 93bd 3606 7bbd
00000230: b6d3 623d 15c6 b2bd 680d 6cbd cce3 40bd
00000240: 5739 14bd 42b7 603d 5e10 5e3e 46c7 07be
00000250: 66d2 aebd 46af dbbd 7f3d 94bd a470 a0bd
00000260: ba77 3bbe 9999 71bd 6371 8bbd e863 cc3c
00000270: 9809 8cbd b0f1 0fbe 38c8 763c 09c9 bbbd
00000280: d464 42bc cff0 44be f561 0a3e e85d 2abc
00000290: d8d5 553c 3b23 e2bd 5e5a 99bd 2251 873c
000002a0: 688f 6ebd f6b2 11bd aaa3 2dbd f513 bfbd
000002b0: 9c43 2a3e 8a80 4e3d 6828 f1bd c070 cdba
000002c0: 13f1 9cbd bbc0 70bc 6483 0ebe e83f 233e
000002d0: 8886 c0bd 7617 07bd c8ca 6b3e 01fa aebd
000002e0: e640 c0bd d6fb 0abc 4e78 173d b85b 6d3c
000002f0: 8b31 8abd cc7d 1cbd 6ce9 7b3d f5a1 3bbd
00000300: 9355 31be 52b8 003d 33ec 57be 46a7 073d
00000310: 305e bfbb ac54 acbd a05a 33bb 9431 e7bc
00000320: 275a 84bd 0ffd 3ebe 3839 d23c c4e1 d4bd
00000330: 38ab 4a3d 17d9 b6bd d4fe c4bd 80a5 6ebc
00000340: bfe3 e5bd d805 a3bd fcb9 b3bd 499e 9abd
00000350: d0a9 d1bd d83b 20bd 80ad eebb 8097 31bd
00000360: aee8 74bd f034 07be ea5a d6bc 309a 83bc
00000370: 1d2c 6abd d0a1 3e3c b0d4 ea3c 68f7 563c
00000380: b4e4 19bd ba4a cc3b bd80 11bb ac1b 97bd
00000390: 99b1 24be 0429 5ebd 1cdf 953c bd12 50bc
000003a0: 5cee 90bc 3079 2fbd 6e58 0e3d 930b b9bd
000003b0: e686 25be 63f6 f9bd de90 5abd 8c29 2dbd
000003c0: b390 82bd 222b babd 927f 6dbd 90cf 4dbd
000003d0: 4397 f1bd 7140 9abd 1f5e 5abc cbc8 9cbc
000003e0: e3dc 9bbd 1417 e7bd 2213 90bd 80f8 393a
000003f0: 5825 503c 4052 163b c244 573e 840b 1cbd

network.2.bias f4 [512]
-0.11344101 -0.07269976 -0.045392793 0.0076325866 -0.17547049 -0.037344806 -0.21594785 -0.021901077
-0.031864353 -0.09765811 -0.09921464 -0.095802635 -0.04950737 0.046618048 -0.012520603 -0.06358143
-0.35666138 -0.049453195 -0.067779325 -0.42990398 -0.07751174 -0.061510555 -0.09231183 -0.2814592
-0.10705758 -0.023397079 -0.08406617 -0.23928212 -0.3285054 -0.06466505 -0.06888936 -0.07237748
-0.11654206 -0.19714063 -0.08950601 0.14065908 -0.07494031 -0.05301082 -0.026878677 -0.2439685
-0.09047055 -0.029025912 -0.14136982 -0.012585924 -0.045668434 -0.060695034 -0.015756015 0.0077370186
-0.10835696 -0.30772242 -0.11368915 -0.16723183 -0.13051172 -0.027240146 -0.34568027 -0.16827954
-0.25214648 -0.03141744 -0.07302405 -0.15519671 -0.014812474 -0.00882448 -0.15707892 -0.09488672
-0.09649117 -0.13045284 -0.44834012 -0.07409929 -0.06100818 -0.09247385 -0.052231077 -4.586233e-05
-0.103975445 -0.0074416175 -0.039767023 -0.10940856 -0.07531995 -0.07442475 -0.06221202 0.022218075
-0.020119468 -0.03769411 -0.13757397 0.084962256 -0.14187741 -0.18040772 -0.07834935 -0.115054876
-0.011632501 0.004535061 -0.08241726 -0.018532071 -0.017757136 -0.29334447 -0.26489872 -0.011827893
-0.12687324 -0.2781481 -0.091567114 -0.03361864 -0.06732021 -0.11260558 -0.10803705 -0.15168306
-0.10950144 -0.32438314 -0.026573824 -0.04790588 -0.25992817 -0.09924813 -0.09986478 -0.09682208
-0.13269445 -0.1579359 -0.015586263 -0.1983486 -0.14665848 -0.07145968 -0.2601556 -0.118728295
-0.018449891 -0.073688105 -0.17239672 -0.27699298 -0.009107196 -0.21625362 -0.022842836 -0.00089071284
-0.059307102 -0.101623364 -0.09466749 0.0018075099 -0.05158922 -0.27352962 -0.019546317 -0.037464388
-0.05829471 -0.21065645 -0.05447517 -0.06615752 -0.14685376 -0.16542952 -0.11095211 -0.03844427
-0.1662489 -0.35046506 -0.03151679 -0.09599239 -0.26995867 -0.15029876 -0.053121924 0.011543745
-0.2609394 -0.4942617 -0.22493485 -0.23911001 -0.3912926 -0.01536062 -0.15853453 -0.14667654
-0.062867075 -0.038441885 -0.077170156 -0.13003808 -0.335462 -0.21822704 -0.10834937 -0.09781969
-0.0713849 -0.2711807 -0.03184453 -0.15534185 -0.15783864 -0.17360577 -0.21170434 -0.20322487
-0.18417306 -0.118837215 -0.18477017 -0.14973764 0.023430789 -0.08494888 -0.114828646 -0.09625
-0.034822416 -0.10447562 -0.0415523 -0.19371425 -0.0036908227 -0.14173551 -0.35324186 -0.06104492
-0.06944764 -0.12387509 0.028631208 -0.08248358 -0.19387098 -0.105803736 -0.069045946 0.04275694
-0.47929305 -0.13330927 -0.23402716 -0.3032529 -0.121212214 -0.07547784 -0.33389327 -0.124580406
-0.055656224 -0.09221751 -0.12108855 0.13459742 -0.120381564 -0.16745849 -0.2943154 -0.09781981
-0.12593476 -0.07029102 -0.26553434 -0.019506317 -0.08075109 -0.26484483 -0.1064041 -0.018190293
-0.0018092857 -0.025661567 -0.13472955 -0.07978373 -0.06527051 -0.09430163 -0.10106096 -0.0943301
0.3465779 -0.104731694 -0.042595405 -0.091362715 0.09452224 -0.039467674 -0.5121225 -0.27731612
-0.12720501 -0.0048962305 -0.10234834 -0.006431752 -0.15180933 -0.03332337 -0.10047844 -0.040130988
-0.14318103 -0.47215775 -0.19121984 -0.21020752 -0.386156 -0.10270353 -0.023629291 -0.034048337
00000000: c353 e8bd 9de3 94bd cbed 39bd c71a fa3b
00000010: 89ae 33be def6 18bd 6f21 5dbe e369 b3bc
00000020: 3284 02bd fa00 c8bd 0c31 cbbd 2c34 c4bd
00000030: 3dc8 4abd 91f2 3e3d 3723 4dbc fb36 82bd
00000040: 529c b6be 6f8f 4abd e3cf 8abd 601c dcbe
00000050: 7abe 9ebd 7ef2 7bbd fc0d bdbd 6c1b 90be
00000060: 0141 dbbd 3bab bfbc e22a acbd 5f06 75be
00000070: dc31 a8be 1c6f 84bd dd15 8dbd a53a 94bd
00000080: 9bad eebd 3cdf 49be ed4e b7bd ef08 103e
00000090: 4e7a 99bd e021 59bd ac30 dcbc e1d2 79be
000000a0: a048 b9bd c0c7 edbc 40c3 10be 3135 4ebc
000000b0: d30e 3bbd 5b9b 78bd c212 81bc d186 fd3b
000000c0: 41ea ddbd cb8d 9dbe dbd5 e8bd d23e 2bbe
000000d0: dda4 05be ba26 dfbc 01fd b0be 7951 2cbe
000000e0: 5819 81be 93af 00bd a28d 95bd e3eb 1ebe
000000f0: 05b0 72bc 8d94 10bc 4cd9 20be f853 c2bd
00000100: 2a9d c5bd 6e95 05be d68c e5be 5ec1 97bd
00000110: b7e3 79bd ee62 bdbd 41f0 55bd 4d5c 40b8
00000120: 14f1 d4bd d0d8 f3bb bfe2 22bd 9811 e0bd
00000130: 5941 9abd 016c 98bd 08d2 7ebd ae02 b63c
00000140: 95d1 a4bc 2465 1abd 31e0 0cbe b100 ae3d
00000150: 5048 11be cdbc 38be a075 a0bd e4a1 ebbd
00000160: 3f96 3ebc d99a 943b 61ca a8bd 92d0 97bc
00000170: 6a77 91bc 3f31 96be cea0 87be c7c9 41bc
00000180: 0feb 01be 6e69 8ebe 8a87 bbbd b3b3 09bd
00000190: 2edf 89bd c19d e6bd 8742 ddbd ce52 1bbe
000001a0: 4a42 e0bd 8c15 a6be 59b1 d9bc f538 44bd
000001b0: 4e15 85be 9b42 cbbd e885 ccbd a84a c6bd
000001c0: 0ee1 07be f3b9 21be 865d 7fbc e51b 4bbe
000001d0: a42d 16be 7459 92bd 1d33 85be d227 f3bd
000001e0: 3a24 97bc cae9 96bd c488 30be 06d2 8dbe
000001f0: 5936 15bc 9771 5dbe e620 bbbc ba7e 69ba
00000200: 01ec 72bd e91f d0bd 07e1 c1bd f8e9 ec3a
00000210: 384f 53bd 130c 8cbe 991f a0bc 4274 19bd
00000220: 6fc6 6ebd 53b6 57be 5b21 5fbd 987d 87bd
00000230: d560 16be 5b66 29be dc3a e3bd bd77 1dbd
00000240: 273d 2abe 2870 b3be c017 01bd a897 c4bd
00000250: 0638 8abe ebe7 19be 6096 59bd fa21 3d3c
00000260: d999 85be df0f fdbe 5255 66be 41d9 74be
00000270: 8157 c8be 1cab 7bbc e056 22be 6032 16be
00000280: 74c0 80bd 3d75 1dbd 630b 9ebd b428 05be
00000290: adc1 abbe e976 5fbe 46e6 ddbd b155 c8bd
000002a0: 3f32 92bd 32d8 8abe 696f 02bd ef11 1fbe
000002b0: 74a0 21be b6c5 31be 06c9 58be 2e1a 50be
000002c0: dd97 3cbe ed60 f3bd 6434 3dbe d354 19be
000002d0: edf1 bf3c aef9 adbd 482b ebbd b81e c5bd
000002e0: f3a1 0ebd 50f7 d5bd bf32 2abd 075d 46be
000002f0: bbe1 71bb 1d23 11be 1edc b4be 3d0a 7abd
00000300: 903a 8ebd 39b2 fdbd ff8b ea3c 27ed a8bd
00000310: 1d86 46be a1af d8bd f667 8dbd e721 2f3d
00000320: e665 f5be 3a82 08be d1a4 6fbe f743 9bbe
00000330: 1c3e f8bd 2094 9abd 0ff4 aabe 0324 ffbd
00000340: c8f7 63bd 89dc bcbd 46fd f7bd e8d3 093e
00000350: 9c8a f6bd 3d7a 2bbe 82b0 96be c155 c8bd
00000360: 0bf5 00be bdf4 8fbd 1ef4 87be b6cb 9fbc
00000370: d460 a5bd be99 87be 65ea d9bd cf03 95bc
00000380: 8e25 edba 3538 d2bc 8bf6 09be a765 a3bd
00000390: 8cac 85bd 3721 c1bd 0cf9 cebd 2430 c1bd
000003a0: a972 b13e 927d d6bd 8578 2ebd 601c bbbd
000003b0: e094 c13d dba8 21bd 761a 03bf 61fc 8dbe
000003c0: 0842 02be 8f70 a0bb 029c d1bd 72c1 d2bb
000003d0: e873 1bbe 167e 08bd a4c7 cdbd 6460 24bd
000003e0: 0c9e 12be a9be f1be 22cf 43be a440 57be
000003f0: 3db6 c5be 3a56 d2bd 3792 c1bc 4576 0bbd

network.4.weight f4 [128, 512]
-0.008096948 -0.01835809 -0.034200575 -0.05648083 -0.011423085 -0.01162881 -0.023172868 -0.015419545
-0.02759521 0.022849102 -0.080111876 0.052000187 -0.003898643 -0.051662106 -0.09366479 0.0156234205
0.44495755 -0.032505274 -0.039550714 0.2769971 -0.006218631 0.013306912 -0.06340344 -0.015688542
-0.08515165 0.043245193 0.014117535 -0.003377162 0.04039492 -0.035124592 -0.016571755 -0.09739148
0.019191053 -0.02530935 0.2917773 0.04002915 -0.042625826 0.036172908 -0.060730968 -0.012468903
-0.029438285 -0.02282395 -0.033934608 -0.014557557 0.003941208 0.027555715 0.032000642 0.023099232
0.03810027 0.01709868 0.07625809 -0.03498499 -0.015321235 -0.002690956 -0.016345607 -0.017631406
-0.1004602 0.21545365 -0.01468094 0.004818924 0.085528664 -0.06207816 -0.26580992 -0.046121743
-0.020359999 0.36297044 -0.033273734 -0.09225028 0.023336608 -0.053611133 -0.08033725 -0.05696429
-0.022474969 -0.09819465 -0.020201696 -0.009958413 0.03810938 0.019229475 -0.058835443 -0.026089357
-0.022216573 -0.084213555 -0.090309 -0.026901323 -0.09678299 -0.018890454 -0.07535024 -0.04374328
-0.035997085 0.08728062 -0.032975428 -0.037118223 0.030870538 -0.06542064 0.17039974 -0.081046835
-0.08807876 0.24986823 -0.01940247 0.037549783 0.0051677935 -0.054586533 -0.03186673 -0.08157174
-0.04521358 -0.017981732 -0.0166161 0.028949302 -0.026895242 -0.002473157 0.016672492 -0.02201665
-0.038615316 -0.02167702 -0.07476797 -0.017276425 -0.03755692 -0.050828706 0.11388132 0.038796034
0.042388637 0.031155411 -0.038826287 -0.013770804 -0.089343496 -0.041434918 -0.09669581 -0.042898763
-0.01762568 -0.052797526 0.06165354 -0.011941082 -0.06683587 -0.08400314 0.07370122 -0.0776984
-0.037117995 0.18692978 -0.03242851 -0.06975048 -0.02575363 -0.006046064 -0.012697022 -0.025048055
-0.031025063 0.04576316 -0.065703504 0.044086326 -0.034902167 -0.039058868 -0.09579642 0.2929259
-0.017701823 0.011677843 -0.0011915825 -0.040491473 0.037939806 -0.080294445 -0.06820078 -0.040710583
-0.09414638 -0.05482798 -0.04780491 -0.03375472 0.024172958 -0.02023351 -0.0151285585 -0.017655168
-0.08725499 0.026415002 0.038088072 -0.09774339 -0.027189279 0.024921808 -0.02771411 0.006165426
-0.017754728 -0.005374931 0.022204254 0.0386778 -0.045570925 -0.057721958 -0.042800482 -0.016440978
0.0018996075 -0.035842203 -0.06453296 -0.006574359 -0.041484606 -0.015902922 0.018811706 0.03280044
0.0063025802 -0.071732946 -0.014308825 -0.05696243 -0.24363418 0.02389327 -0.09661523 -0.0751433
0.1452466 -0.115364954 -0.045854773 -0.009158604 0.09587681 -0.09075792 0.014143556 0.08585387
-0.012530305 -0.092681855 -0.019484261 0.12927812 -0.047615018 0.40667835 0.03102317 -0.020855632
-0.0013549775 -0.021689774 -0.014617734 -0.03981366 -0.018898211 0.0019446649 -0.024368852 -0.022471331
-0.030576173 -0.038140133 -0.060345486 -0.010142997 -0.041536704 -0.09635901 0.006017953 0.038422544
-0.35609964 -0.0002338916 -0.042854734 0.0059109516 -0.030124266 0.018579025 0.0033180155 -0.019367963
-0.011512224 0.02271993 -0.025479626 0.015582494 -0.006257657 0.013792209 -0.15373968 -0.06358929
-0.055583734 -0.09334112 -0.08245121 -0.03878394 -0.03146128 -0.10365396 -0.07052077 -0.019805245
00000000: 10a9 04bc b563 96bc e715 0cbd 7158 67bd
00000010: e427 3bbc c486 3ebc 07d5 bdbc 42a2 7cbc
00000020: 5a0f e2bc 0a2e bb3c b211 a4bd 26fe 543d
00000030: 6080 7fbb a59b 53bd 53d3 bfbd 60f9 7f3c
00000040: 7ad1 e33e 4024 05bd eeff 21bd 90d2 8d3e
00000050: a8c5 cbbb 3c05 5a3c aad9 81bd 4285 80bc
00000060: fd63 aebd df21 313d 3c4d 673c 6053 5dbb
00000070: 2575 253d cede 0fbd 7dc1 87bc 2f75 c7bd
00000080: 8e36 9d3c 8e55 cfbc d663 953e 9bf5 233d
00000090: 6b98 2ebd 0b2a 143d 09c1 78bd 5f4a 4cbc
000000a0: 8f28 f1bc 4bf9 babc 04ff 0abd d282 6ebc
000000b0: 4025 813b 86bc e13c 1b13 033d 9a3a bd3c
000000c0: 070f 1c3d 8812 8c3c 342d 9c3d 6c4c 0fbd
000000d0: eb05 7bbc c05a 30bb 39e7 85bc bd6f 90bc
000000e0: 14be cdbd e29f 5c3e 5388 70bc 10e8 9d3b
000000f0: a729 af3d ab45 7ebd 3d18 88be 27ea 3cbd
00000100: 03ca a6bc 43d7 b93e 0a4a 08bd b7ed bcbd
00000110: 6a2c bf3c 5997 5bbd db87 a4bd 6353 69bd
00000120: 6d1d b8bc 471a c9bd 077e a5bc 9d28 23bc
00000130: 9518 1c3d 2287 9d3c 6ffd 70bd 59b9 d5bc
00000140: 88ff b5bc 2878 acbd edf3 b8bd 2a60 dcbc
00000150: 2936 c6bd 27c0 9abc 3a51 9abd 272c 33bd
00000160: ae71 13bd 2fc0 b23d 3e11 07bd 4709 18bd
00000170: 36e4 fc3c 42fb 85bd 457d 2e3e e2fb a5bd
00000180: a362 b4bd 75dd 7f3e eef1 9ebc cdcd 193d
00000190: 9856 a93b 2196 5fbd b086 02bd 160f a7bd
000001a0: e031 39bd 6d4e 93bc 7d1e 88bc 1627 ed3c
000001b0: 6953 dcbc b014 22bb c094 883c 435c b4bc
000001c0: 182b 1ebd 0194 b1bc f31f 99bd 4a87 8dbc
000001d0: 49d5 19bd c331 50bd 9c3a e93d 97e8 1e3d
000001e0: b59f 2d3d a239 ff3c 5008 1fbd f09e 61bc
000001f0: b9f9 b6bd a9b7 29bd 7408 c6bd 9db6 2fbd
00000200: bb63 90bc 3842 58bd 6c88 7c3d 87a4 43bc
00000210: 3fe1 88bd d709 acbd aaf0 963d 5720 9fbd
00000220: 0a09 18bd 856a 3f3e c2d3 04bd 57d9 8ebd
00000230: 47f9 d2bc 101e c6bb 2c07 50bc 9431 cdbc
00000240: 4628 febc 2772 3b3d 8f8f 86bd dd93 343d
00000250: 93f5 0ebd 31fc 1fbd ea30 c4bd 62fa 953e
00000260: 6a03 91bc 6c54 3f3c e02e 9cba 63da 25bd
00000270: c566 1b3d 6a71 a4bd daac 8bbd 24c0 26bd
00000280: d1cf c0bd 4e93 60bd 15cf 43bd 6442 0abd
00000290: 5e06 c63c bfc0 a5bc c6dd 77bc 92a1 90bc
000002a0: bfb2 b2bd 4664 d83c 3d02 1c3d b02d c8bd
000002b0: 0dbc debc d228 cc3c b408 e3bc 5807 ca3b
000002c0: 5d72 91bc 3020 b0bb b2e5 b53c 9d6c 1e3d
000002d0: 94a8 3abd dc6d 6cbd 8f4f 2fbd 3baf 86bc
000002e0: 40fc f83a 46cf 12bd db29 84bd b86d d7bb
000002f0: c3eb 29bd d846 82bc 021b 9a3c c159 063d
00000300: e085 ce3b b9e8 92bd 906f 6abc 7051 69bd
00000310: 3d7b 79be d2bb c33c 35de c5bd bbe4 99bd
00000320: 86bb 143e 7644 ecbd 37d2 3bbd f80d 16bc
00000330: 105b c43d 4adf b9bd 60ba 673c 27d4 af3d
00000340: e94b 4dbc fccf bdbd 759d 9fbc 7c61 043e
00000350: f707 43bd 2538 d03e 4e24 fe3c 6ed9 aabc
00000360: 8099 b1ba c1ae b1bc 387f 6fbc a613 23bd
00000370: 6cd0 9abc 20e4 fe3a 30a1 c7bc cc15 b8bc
00000380: e27a fabc d438 1cbd d42c 77bd d02e 26bc
00000390: 6422 2abd df57 c5bd 4032 c53b f560 1d3d
000003a0: b152 b6be cc40 75b9 7288 2fbd a8b0 c13b
000003b0: 2ac7 f6bc 0a33 983c 1073 593b 90a9 9ebc
000003c0: c49d 3cbc 261f ba3c a6ba d0bc b84d 7f3c
000003d0: 080d cdbb b8f8 613c ef6d 1dbe 1a3b 82bd
000003e0: c5ab 63bd a129 bfbd 2edc a8bd e9db 1ebd
000003f0: 8bdd 00bd 8748 d4bd 326d 90bd 9c3e a2bc

network.4.bias f4 [128]
-0.0027659165 -0.15642989 0.009931559 -0.09814432 0.030065702 -0.1912668 -0.16359515 0.012135235
-0.36273834 -0.07336473 -0.0804371 -0.3884129 -0.0945834 -0.19617637 -0.18373486 0.029579064
-0.10027227 -0.137576 -0.04542918 -0.2548253 -0.08586594 -0.16449612 -0.46698877 -0.06515591
-0.1330689 -0.18719535 0.39153296 -0.08644478 -0.043702696 -0.46335104 -0.2057643 -0.23298654
-0.19692574 -0.27287564 -0.17792206 -0.07610485 -0.52588224 -0.055940848 -0.054080598 -0.033524558
-0.2413666 -0.23798469 -0.14900912 -0.07122587 -0.4314647 -0.08892996 0.089850605 -0.17402276
-0.22234847 -0.06830997 -0.20265126 -0.06748597 -0.10698986 -0.0921187 -0.69890267 -0.42153627
-0.052026328 -0.07816935 -0.13051316 -0.15509573 -0.16201036 -0.050844204 0.09407102 -0.39746964
-0.060961 -0.043559268 -0.0732507 -0.11697604 0.09033183 -0.09756068 -0.059883177 -0.09146051
0.18754083 -0.30323973 -0.42678022 -0.34121752 0.075852156 -0.010216004 0.13702123 -0.109016605
-0.51737666 -0.3519157 -0.14336519 0.10713365 -0.31837243 -0.019328445 -0.09314071 0.16680677
-0.60801125 -0.06753492 -0.11482431 -0.07241631 -0.050723128 -0.4644954 -0.15308973 -0.060421787
-0.10079437 -0.01945032 -0.07541563 -0.21088614 -0.21879414 -0.0346156 -0.11739784 -0.18934801
-0.009201491 -0.2322261 0.19002448 0.2631072 -0.1666308 -0.14822136 -0.3104103 -0.3422021
-0.18959679 0.3636813 -0.1643391 -0.20416173 0.058864642 -0.33052215 -0.09434234 -0.10379092
-0.44670042 -0.060421333 -0.07696574 -0.14978744 0.4019476 0.15283407 -0.35627154 -0.03875393
00000000: 6144 35bb 282f 20be fab7 223c e4ff c8bd
00000010: 594c f63c 72db 43be 7d85 27be ddd2 463c
00000020: d7b8 b9be 3f40 96bd 35bc a4bd 0ede c6be
00000030: f1b4 c1bd 75e2 48be fe24 3cbe cb4f f23c
00000040: 8c5b cdbd b9e0 0cbe f313 3abd 7678 82be
00000050: 7bda afbd ac71 28be 2719 efbe 7670 85bd
00000060: 3743 08be 23b0 3fbe 0277 c83e f609 b1bd
00000070: 9901 33bd 593c edbe e0b3 52be 0694 6ebe
00000080: e7a6 49be 5bb6 8bbe 3331 36be dcdc 9bbd
00000090: 38a0 06bf 3b22 65bd 9e83 5dbd 0c51 09bd
000000a0: ce28 77be 42b2 73be d995 18be dede 91bd
000000b0: f1e8 dcbe e920 b6bd 9803 b83d 0633 32be
000000c0: 51af 63be 19e6 8bbd d083 4fbe 1636 8abd
000000d0: 801d dbbd bba8 bcbd 49eb 32bf 9ad3 d7be
000000e0: 8f19 55bd 4117 a0bd 3ea5 05be 6ad1 1ebe
000000f0: 0be6 25be 0342 50bd 4fa8 c03d 2481 cbbe
00000100: 3eb2 79bd 346b 32bd 7704 96bd 2291 efbd
00000110: e5ff b83d e5cd c7bd 1048 75bd a64f bbbd
00000120: b40a 403e 3d42 9bbe f082 dabe 10b4 aebe
00000130: 6058 9b3d 0761 27bc 4b4f 0c3e 1944 dfbd
00000140: cc72 04bf 4b2e b4be 53ce 12be e368 db3d
00000150: b601 a3be b056 9ebc 8ec0 bebd 65cf 2a3e
00000160: a0a6 1bbf c04f 8abd 0229 ebbd 014f 94bd
00000170: 0ec3 4fbd 57d2 edbe 8ec3 1cbe d67c 77bd
00000180: 476d cebd 4756 9fbc 8373 9abd 89f2 57be
00000190: 920b 60be 16c9 0dbd 476e f0bd 72e4 41be
000001a0: dac1 16bc aecc 6dbe c795 423e fdb5 863e
000001b0: 44a1 2abe 57c7 17be 19ee 9ebe 1d35 afbe
000001c0: a925 42be 6f34 ba3e 8248 28be c60f 51be
000001d0: 0d1c 713d 333a a9be 8f36 c1bd 5590 d4bd
000001e0: ebb5 e4be 5c7c 77bd 37a0 9dbd e161 19be
000001f0: 13cc cd3e 8980 1c3e 3969 b6be 71bc 1ebd

network.6.weight f4 [12, 128]
0.012411367 0.14554653 0.15321955 0.06665928 -0.3145155 0.021520138 -0.07738746 0.25614357
0.027655702 -0.037418302 -0.0026344382 0.15468602 -0.06509844 -0.00019825505 0.11242826 0.2491369
0.10664084 0.25632483 0.02941663 -0.064591736 -0.10160345 0.27650267 0.02374635 0.04645777
0.07355247 0.090983555 -0.10862828 0.13508707 0.00015900338 0.42513952 -0.051907048 0.126737
-0.23634073 0.23446654 0.097263 0.083220765 0.08777676 0.13135393 0.41345158 -0.0006456398
0.22148809 -0.0052283 0.06628744 0.07359043 0.2666171 0.08288967 0.18983126 0.11051767
0.042176355 -0.044820372 0.14443411 0.048925225 0.18821277 0.042930994 -0.24961123 -0.13435477
0.10338279 0.1028522 0.37070772 0.06924826 0.13423012 -0.036712304 0.004282985 0.10997252
-0.044429004 0.111351304 -0.0211698 0.12993462 -0.18849972 0.0750668 -0.0086142 0.13461146
0.057768997 0.14351305 -0.07280754 0.085931234 0.079471126 0.015562688 0.00047302197 0.08247881
0.27294248 0.06923478 0.04368164 -0.36485 -0.18984075 0.041452974 0.041796383 -0.23280217
-0.017264856 -0.05551155 0.031887285 -0.03413055 0.00350153 -0.0883115 0.13727091 -0.02442994
0.038005065 0.01901092 0.14154512 0.012617876 0.0642751 0.093138635 0.0061794287 -0.008182211
0.034449317 0.14411521 0.10759725 -0.36702898 0.1425915 -0.0011250313 0.15650603 -0.032598708
0.30584052 -0.33145893 0.13174224 0.040463254 0.11484503 0.0075952318 -0.015773613 0.008280378
-0.032234006 0.1380171 0.07862239 0.1885978 -0.45529175 0.018891234 -0.0057833195 0.28336576
0.22609645 0.06454162 0.07063379 0.08274066 0.10746838 0.29322097 0.03562825 0.38702402
-0.042785946 0.042181756 0.082102604 0.042186752 -0.005497566 0.041535694 -0.0036175128 0.28632355
0.04295146 0.28595802 0.034546975 0.13924737 0.05556076 0.031318065 0.036494978 0.15935653
0.11625056 0.02889107 -0.11109074 0.10786518 0.06626196 0.36972177 0.24340655 0.16285373
-0.2556906 0.06007363 0.122437954 0.18506296 0.12508713 0.015978454 0.102808386 0.079121344
0.09146121 -0.09483841 0.022521762 0.012533779 0.122276165 0.10678146 0.040405188 0.051250968
-0.0705889 0.17596525 0.18199131 -0.05431202 0.31648982 0.12673575 0.19480975 0.43546844
0.101981305 0.13734743 0.12537909 0.0330244 0.050619785 -0.0046627815 0.19605018 -0.012016591
0.108494915 -0.0931614 -0.00311823 -0.16969734 0.019220598 0.10404742 0.033035055 0.06904647
0.021750063 0.088847086 0.046660244 0.05604885 0.07470316 0.119671345 0.12468077 0.13208875
0.50218594 0.17448959 0.077016875 0.14102986 -0.010628522 -0.05087982 -0.014854021 -0.41564977
0.0374199 -0.12428416 0.10559256 0.0025529035 -0.028351396 -0.0012971461 0.075206876 0.04670512
0.07289942 -0.01602064 0.48785222 0.32858852 0.21855453 -0.021650465 -0.031776752 0.3255307
0.060063258 0.2936176 0.19374093 -0.15932819 0.122946925 0.05003941 0.15124996 0.010320572
0.20103575 -0.40580973 -0.05525134 0.0034620212 -0.05578473 0.1840274 -0.01504118 0.11670268
0.0457443 0.11701419 0.03605732 0.0801992 -0.42918766 0.08504308 0.04955313 0.15966217
00000000: 0c59 4b3c 260a 153e 96e5 1c3e a984 883d
00000010: 2d08 a1be 004b b03c 517d 9ebd 4025 833e
00000020: 368e e23c ef43 19bd 8aa6 2cbb 0366 1e3e
00000030: 5552 85bd afe2 4fb9 ca40 e63d be1d 7f3e
00000040: 8366 da3d 023d 833e 25fb f03c ac48 84bd
00000050: 7815 d0bd c291 8d3e b587 c23c 814a 3e3d
00000060: ada2 963d 9655 ba3d 8178 debd 4454 0a3e
00000070: 25ba 2639 e3ab d93e 7c9c 54bd 58c7 013e
00000080: 4e03 72be ff17 703e d331 c73d a66f aa3d
00000090: 4dc4 b33d a581 063e edaf d33e 2740 29ba
000000a0: c6cd 623e 2952 abbb b6c1 873d 94b6 963d
000000b0: 0982 883e 0fc2 a93d 2063 423e 1757 e23d
000000c0: 1dc1 2c3d 9195 37bd 89e6 133e d165 483d
000000d0: d9ba 403e 69d8 2f3d 169a 7fbe 4c94 09be
000000e0: 5bba d33d 2da4 d23d 67cd bd3e 08d2 8d3d
000000f0: 9f73 093e a45f 16bd 4858 8c3b 4639 e13d
00000100: 30fb 35bd 270c e43d 4a6c adbc 950d 053e
00000110: 1206 41be 9fbc 993d 9322 0dbc 96d7 093e
00000120: 2f9f 6c3d 16f5 123e 1f1c 95bd b7fc af3d
00000130: c2c1 a23d a5fa 7e3c efff f739 a6ea a83d
00000140: 1ebf 8b3e f7ca 8d3d 85eb 323d 9fcd babe
00000150: 9d65 42be 98ca 293d af32 2b3d b163 6ebe
00000160: 076f 8dbc 1460 63bd 3e9c 023d 7acc 0bbd
00000170: ed79 653b a9dc b4bd bf90 0c3e 4c21 c8bc
00000180: 33ab 1b3d cabc 9b3c 34f1 103e 35bb 4e3c
00000190: aaa2 833d 78bf be3d ce7c ca3b ae0e 06bc
000001a0: ba1a 0d3d f092 133e f25b dc3d 39eb bbbe
000001b0: 8203 123e c975 93ba 1e43 203e 3986 05bd
000001c0: 2197 9c3e fcb4 a9be 70e7 063e ccbc 253d
000001d0: df33 eb3d 6ce1 f83b aa37 81bc 6caa 073c
000001e0: ce07 04bd 5b54 0d3e c704 a13d c81f 413e
000001f0: 001c e9be cac1 9a3c 0082 bdbb 5115 913e
00000200: d485 673e 662e 843d 73a8 903d ef73 a93d
00000210: 6218 dc3d 0f21 963e eeee 113d 0328 c63e
00000220: 5140 2fbd c7c6 2c3d 6925 a83d 04cc 2c3d
00000230: ed24 b4bb 5521 2a3d cb13 6dbb 0099 923e
00000240: dfed 2f3d 1769 923e 2181 0d3d dd96 0e3e
00000250: ae93 633d 5f47 003d c27b 153d 5c2e 233e
00000260: c614 ee3d f7ac ec3c 8b83 e3bd 6be8 dc3d
00000270: 5ab4 873d 2c4c bd3e 913f 793e 21c3 263e
00000280: e1e9 82be c40f 763d c0c0 fa3d 2581 3d3e
00000290: d716 003e 3fe5 823c 348d d23d 5f0a a23d
000002a0: 0450 bb3d a43a c2bd 8f7f b83c 7b5a 4d3c
000002b0: ed6b fa3d 3db0 da3d e97f 253d 89ec 513d
000002c0: ea90 90bd 3c30 343e ee5b 3a3e 4876 5ebd
000002d0: f40a a23e 04c7 013e 357c 473e b8f5 de3e
000002e0: 93db d03d cea4 0c3e 6063 003e 9844 073d
000002f0: b156 4f3d 3fca 98bb 61c1 483e 3ce1 44bc
00000300: 9532 de3d 67cb bebd 385b 4cbb 24c5 2dbe
00000310: 8474 9d3c d016 d53d c44f 073d 3c68 8d3d
00000320: 302d b23c 76f5 b53d d01e 3f3d 7b93 653d
00000330: f8fd 983d 4016 f53d a258 ff3d 4642 073e
00000340: 428f 003f 66ad 323e 06bb 9d3d 226a 103e
00000350: 4123 2ebc 5c67 50bd 485e 73bc 0cd0 d4be
00000360: 9c45 193d b288 febd e940 d83d 9d4e 273b
00000370: 3041 e8bc 0005 aaba 1006 9a3d de4d 3f3d
00000380: 4b4c 953d b83d 83bc c4c7 f93e c13c a83e
00000390: c2cc 5f3e 515c b1bc 5728 02bd f6ab a63e
000003a0: e404 763d 0c55 963e 0664 463e ee26 23be
000003b0: 99cb fb3d 20f6 4c3d 45e1 1a3e 9e17 293c
000003c0: 51dc 4d3e 4bc6 cfbe 3b4f 62bd 14e3 623b
000003d0: 877e 64bd ae71 3c3e 486f 76bc d101 ef3d
000003e0: 605e 3b3d 23a5 ef3d d7b0 133d 7a3f a43d
000003f0: 7cbe dbbe 112b ae3d 39f8 4a3d 7b7e 233e

network.6.bias f4 [12]
-4.3876224 -4.9277487 -2.3981428 -4.490005 -3.567388 -3.0829065 4.8445015 -2.1888492
-3.2526855 -1.4823605 -3.4434495 -4.5485964
00000000: 6767 8cc0 1eb0 9dc0 2c7b 19c0 1fae 8fc0
00000010: 1650 64c0 574e 45c0 2806 9b40 1b16 0cc0
00000020: 002c 50c0 fdbd bdbf 7a61 5cc0 1a8e 91c0
